DIDFuse/saved_models/decoder/IR_AE16.pth (torch, 604881 bytes, 13 tensors)

module.Conv5.layers.0.weight f4 [64, 128, 3, 3]
0	0x3f186e4d	0.59543306
1	0x3f1357ea	0.5755602
2	0x3f12fe04	0.5741885
3	0x3f1dad31	0.61592394
4	0x3f2059c2	0.6263696
5	0x3f1a0ebe	0.60178745
6	0x3f1ef94b	0.6209914
7	0x3f133532	0.57503045
8	0x3f1a4b85	0.60271484
9	0x3f1aac84	0.6041949
10	0x3f12f5dc	0.574064
11	0x3f1aea3e	0.60513675
12	0x3f16ec5a	0.58954394
13	0x3f1fc523	0.6241018
14	0x3f1aef03	0.6052095
15	0x3f124da0	0.57149696
16	0x3f19397b	0.59853333
17	0x3f181225	0.59402686
18	0x3f1e7751	0.6190081
19	0x3f17fcc2	0.5937005
20	0x3f19aa0a	0.60025084
21	0x3f12dc1d	0.57367116
22	0x3f1de42b	0.6167628
23	0x3f1de935	0.6168397
24	0x3f18102e	0.5939969
25	0x3f134fa8	0.5754342
26	0x3f1baae7	0.6080765
27	0x3f142130	0.5786314
28	0x3f1cdbc4	0.61272836
29	0x3f156e5c	0.5837152
30	0x3f171710	0.59019566
31	0x3f159860	0.5843563
32	0x3f17caeb	0.59294003
33	0x3f1f75f2	0.62289345
34	0x3f1c4a0f	0.61050504
35	0x3f1a7f03	0.60350055
36	0x3f1bce3b	0.6086156
37	0x3f1bacee	0.60810745
38	0x3f1e03a0	0.6172428
39	0x3f168fd4	0.58813214
40	0x3f123c9e	0.57123744
41	0x3f159677	0.58432716
42	0x3f1fb409	0.62384087
43	0x3f11caed	0.56950265
44	0x3f17cf57	0.5930075
45	0x3f1ac717	0.60460037
46	0x3f17db56	0.59319055
47	0x3f145a1e	0.5795001
48	0x3f19cb31	0.6007567
49	0x3f1d07fe	0.6134032
50	0x3f207d01	0.6269074
51	0x3f1280b7	0.57227653
52	0x3f164fb4	0.5871537
53	0x3f1821e5	0.5942672
54	0xbf19d8fd	-0.6009672
55	0xbf164b1b	-0.5870835
56	0xbf1dca42	-0.61636746
57	0xbf1538c2	-0.5828973
58	0xbf1b27e1	-0.60607725
59	0xbf10fbe5	-0.5663436
60	0xbf1f255e	-0.6216639
61	0xbf17aca9	-0.59247833
62	0xbf1f6a30	-0.62271404
63	0x3f1ff472	0.6248237
64	0x3f21215c	0.6294153
65	0x3f180862	0.5938779
66	0x3f1bcb06	0.60856664
67	0x3f1b7e86	0.60739934
68	0x3f1332c1	0.5749932
69	0x3f1a7d92	0.60347855
70	0x3f1828e6	0.59437406
71	0x3f1a2576	0.6021341
72	0xbf1ad235	-0.60477
73	0xbf1bc951	-0.6085406
74	0xbf1368ee	-0.57581985
75	0xbf1e2b98	-0.6178527
76	0xbf10f95c	-0.5663049
77	0xbf15dcba	-0.58539927
78	0x3f489ff2	0.7836906
79	0x3f47608c	0.77881694
80	0xbf0702dd	-0.52738744
81	0x3f1fd2f9	0.62431294
82	0x3f1343e0	0.57525444
83	0x3f1226e6	0.57090604
84	0x3f2030da	0.6257454
85	0x3f1b170b	0.60582036
86	0x3f1a7dc2	0.6034814
87	0x3f15c31d	0.58500844
88	0x3f16267c	0.5865247
89	0x3f122938	0.57094145
90	0xbf17e984	-0.5934069
91	0xbf17f240	-0.5935402
92	0xbf1c0c7d	-0.60956556
93	0xbf210cb4	-0.6291001
94	0xbf1ad6bd	-0.60483915
95	0xbf215c7a	-0.63031733
96	0xbf230779	-0.6368328
97	0xbf1b3a87	-0.6063618
98	0xbf2afd4a	-0.6679274
99	0xbf147248	-0.5798688
100	0xbf138c8e	-0.57636344
101	0xbf1f4755	-0.6221822
102	0xbf143e29	-0.5790735
103	0xbf1c9fdb	-0.6118142
104	0xbf18b7dc	-0.5965555
105	0xbf14040a	-0.57818663
106	0xbf130c3c	-0.57440543
107	0xbf18b805	-0.5965579
108	0xbf1852ff	-0.5950164
109	0xbf1c85cc	-0.6114166
110	0xbf205016	-0.626222
111	0xbf15ffb2	-0.58593285
112	0xbf1cc336	-0.6123537
113	0xbf146384	-0.5796435
114	0xbf1da27d	-0.6157606
115	0xbf164dae	-0.5871228
116	0xbf161024	-0.5861838
117	0x3f1c215e	0.60988414
118	0x3f1de9e3	0.6168501
119	0x3f18e843	0.59729403
120	0x3f17523a	0.5910984
121	0x3f19e0b0	0.6010847
122	0x3f18f1d2	0.5974399
123	0x3f1b02f4	0.6055138
124	0x3f15265f	0.58261675
125	0x3f18d7ca	0.5970427
126	0xbf1df1f2	-0.61697304
127	0xbf176a3e	-0.5914649
128	0xbf1d1ed0	-0.6137514
129	0xbf18579d	-0.5950869
130	0xbf1dd0d9	-0.616468
131	0xbf1ad1b3	-0.60476226
132	0xbf16be72	-0.58884346
133	0xbf1dbd19	-0.61616665
134	0xbf1ce175	-0.6128152
135	0xbf17d70e	-0.5931252
136	0xbf1f3fa9	-0.6220651
137	0xbf16c4ed	-0.58894235
138	0xbf167e51	-0.58786494
139	0xbf14baaf	-0.58097357
140	0xbf184e2a	-0.5949427
141	0xbf1938aa	-0.5985209
142	0xbf130f67	-0.5744538
143	0xbf180a0a	-0.5939032
144	0xbf17f584	-0.59359
145	0xbf18e3af	-0.5972242
146	0xbf177922	-0.5916921
147	0xbf1ffd62	-0.62496006
148	0xbf1d6875	-0.61487514
149	0xbf205732	-0.6263305
150	0xbf19931f	-0.59990114
151	0xbf1d6da4	-0.61495423
152	0xbf13da0b	-0.5775458
153	0x3f1f2b52	0.62175477
154	0x3f205082	0.62622845
155	0x3f1b171e	0.6058215
156	0x3f17c357	0.5928244
157	0x3f216b0d	0.6305397
158	0x3f1717d7	0.5902075
159	0xbf183fda	-0.5947243
160	0xbf1ecd76	-0.6203226
161	0xbf0df06a	-0.5544497
162	0xbf177ebc	-0.59177756
163	0xbf15be10	-0.5849314
164	0xbf1d109d	-0.61353475
165	0x3f1fc1dd	0.62405187
166	0xbf14f172	-0.58180916
167	0x3f197190	0.5993891
168	0x3f1737bd	0.59069425
169	0x3f1aae1b	0.60421914
170	0x3f1d3588	0.6140981
171	0x3f1a4857	0.6026663
172	0x3f1681fc	0.5879209
173	0x3f197704	0.5994723
174	0x3f1c7d4e	0.611287
175	0x3f1e0876	0.6173166
176	0x3f1c5acd	0.6107605
177	0x3f1761b0	0.59133434
178	0x3f201ecd	0.62547
179	0x3f1513cf	0.5823335
180	0x3f1903f4	0.59771657
181	0x3f1e5fbf	0.61864847
182	0x3f1c6a24	0.6109946
183	0x3f144138	0.57912016
184	0x3f189b4e	0.59611976
185	0x3f1b59d8	0.60683966
186	0xbf12f59d	-0.57406026
187	0xbf1d9a1d	-0.61563283
188	0xbf1a6526	-0.6031059
189	0x3f146ad9	0.57975537
190	0x3f176a99	0.5914703
191	0x3f20ad58	0.627645
192	0x3f13c406	0.57720983
193	0x3f173515	0.5906537
194	0x3f20cc0c	0.6281135
195	0x3f1d1dbe	0.6137351
196	0x3f1866ca	0.59531844
197	0x3f18e5a8	0.5972543
198	0x3f1e5cd2	0.6186038
199	0x3f17f02e	0.5935086
200	0x3f1f81fa	0.62307703
201	0x3f20d765	0.62828666
202	0x3f1bc0ca	0.6084105
203	0x3f143f05	0.5790866
204	0x3f21414e	0.6299027
205	0x3f15241a	0.5825821
206	0x3f159346	0.58427846
207	0xbf1f098b	-0.62123936
208	0xbf17c8d1	-0.59290797
209	0xbf1ce3df	-0.61285204
210	0xbf1fc4dd	-0.62409765
211	0xbf201879	-0.6253734
212	0xbf1e07c9	-0.6173063
213	0xbf342f1b	-0.7038438
214	0xbf234b4a	-0.63786757
215	0xbf1405fb	-0.57821625
216	0xbf1bb25c	-0.6081903
217	0xbf164352	-0.5869647
218	0xbf1322cc	-0.5747497
219	0xbf1b4a0e	-0.60659873
220	0xbf1ed81e	-0.6204852
221	0xbf1fedde	-0.6247233
222	0xbf1b3934	-0.6063416
223	0xbf1633a7	-0.58672565
224	0xbf19aeb5	-0.60032207
225	0xbf1a5654	-0.60287976
226	0xbf166e14	-0.58761716
227	0xbf1df9d3	-0.61709327
228	0xbf183614	-0.59457517
229	0xbf164e5d	-0.5871332
230	0xbf163aef	-0.58683676
231	0xbf1b5ff1	-0.6069327
232	0xbf204a40	-0.62613297
233	0xbf1a2811	-0.60217386
234	0x3f1eba18	0.62002707
235	0x3f143a74	0.5790169
236	0x3f1486bc	0.5801809
237	0x3f16bd49	0.58882576
238	0x3f16061f	0.5860309
239	0x3f1799e0	0.5921917
240	0x3f129b26	0.5726799
241	0x3f1755a4	0.5911505
242	0x3f1928d1	0.59827906
243	0xbf14e6d0	-0.5816469
244	0xbf146c4a	-0.57977736
245	0xbf1a46d2	-0.60264313
246	0xbf138390	-0.57622623
247	0xbf13ad12	-0.5768596
248	0xbf1f5cae	-0.6225079
249	0xbf1e279d	-0.61779195
250	0xbf167220	-0.5876789
251	0xbf1df912	-0.61708176
252	0x3f1c2bf0	0.61004543
253	0x3f1cbea5	0.612284
254	0x3f1b184d	0.60583955
255	0x3f210152	0.6289264

module.Conv5.layers.0.bias f4 [64]
0	0xbd7dac1f	-0.061931726
1	0xbd1fed17	-0.039044466
2	0xbdf9570c	-0.12174806
3	0x3cbb9eaa	0.022902805
4	0xbcc570e3	-0.02410168
5	0xbd50aa75	-0.05094381
6	0x3dc479f1	0.09593571
7	0x3de8ebbb	0.11373087
8	0xbd691b62	-0.05691088
9	0x3d70631a	0.05868826
10	0x3ba1725e	0.0049269637
11	0x3d4fa108	0.05069068
12	0xbd0d298f	-0.03446346
13	0xbd9bb8ae	-0.07603584
14	0x3d847939	0.06468434
15	0xbe068e76	-0.13140282
16	0xbd6f4494	-0.05841501
17	0xbb3b5a16	-0.002858763
18	0x3d3bdee1	0.04586685
19	0xbc5106f3	-0.0127580045
20	0xbd63de0d	-0.055631686
21	0x3da8c6db	0.08241054
22	0x3e0a39ef	0.13498662
23	0xbde09255	-0.109654106
24	0xbdb249da	-0.08705492
25	0x3d84f0c0	0.06491232
26	0xbaa823b8	-0.0012828028
27	0xbdcf786e	-0.10130392
28	0xbb004606	-0.0019572987
29	0x3da2e024	0.07952908
30	0xbca70f10	-0.020392925
31	0xbcf5412a	-0.0299383
32	0x3c17a9b7	0.009256772
33	0xbc33ea06	-0.0109810885
34	0xbc53e592	-0.012933152
35	0xbc8d1f24	-0.017226763
36	0x3c4d0a24	0.012514625
37	0xbd4829e1	-0.048868064
38	0x3e1cc432	0.15309218
39	0xbcc1d86b	-0.023662766
40	0xbda76f97	-0.08175581
41	0x3c00adf2	0.007853972
42	0x3bfd71d9	0.007734519
43	0x3b374490	0.002796445
44	0x3e134c8b	0.14384668
45	0x3e1e10c9	0.1543609
46	0x3d19b807	0.037529018
47	0xbd8c74da	-0.06858225
48	0x3e08daaa	0.13364664
49	0xbd5e2513	-0.054234575
50	0x3d1798f5	0.037011106
51	0x3c94acb3	0.018148756
52	0x3e292a45	0.16520031
53	0xbd129ff3	-0.03579707
54	0x3d8641da	0.06555529
55	0x3d5a0310	0.053225577
56	0x390ebb54	0.0001361196
57	0x3c866bd1	0.016408833
58	0xbca0071d	-0.019534642
59	0xbb2117b1	-0.0024580772
60	0x3d352c90	0.04423195
61	0xbc378f93	-0.011203664
62	0x3d7e3005	0.062057514
63	0xbdfc8aa8	-0.12331134

module.Conv5.layers.1.weight f4 [64]
0	0x3f101e74	0.5629647
1	0x3e8e1ac8	0.27754807
2	0x3f9fbf78	1.2480307
3	0x3f9aabbf	1.2083663
4	0x3f132677	0.5748057
5	0x3fadb41b	1.3570589
6	0x3ed423e8	0.41433644
7	0x3fbe767a	1.4879906
8	0x3fd911e9	1.6958591
9	0xbd84be11	-0.06481565
10	0x3f4c0c1e	0.7970599
11	0x3fd1db7a	1.6395104
12	0x3ff802b2	1.9375823
13	0x400b7c6c	2.179469
14	0x3fab81e1	1.3399011
15	0x3f947c14	1.1600366
16	0x40255d0b	2.583804
17	0x402c64e5	2.693658
18	0x3edac2a2	0.42726618
19	0x4039859b	2.8987796
20	0xbdc9c564	-0.098521024
21	0x3e65a0b0	0.22424579
22	0x3cfb28b5	0.030659059
23	0x400d014f	2.2032049
24	0x3f9ce168	1.2256289
25	0x3f23c9b0	0.63979626
26	0x3fa5a42f	1.294073
27	0x3fa284dc	1.2696795
28	0x3fc6530b	1.5494093
29	0x3f932654	1.1496072
30	0x403bcb7b	2.9342945
31	0x3fe31eb5	1.7743746
32	0x3e4278e7	0.18991433
33	0x3f57901d	0.84204274
34	0x400d757b	2.2102954
35	0xbf78d405	-0.97198516
36	0x3fe56e3c	1.7924266
37	0x3fa04986	1.2522438
38	0x3f56f26e	0.8396367
39	0x3eb00f54	0.34386694
40	0x3eb4399e	0.35200208
41	0x3f6bda11	0.9212962
42	0x3f2fffbd	0.687496
43	0x3f979f50	1.1845493
44	0x3ed17f2a	0.4091733
45	0x3f4dacdd	0.80341893
46	0x3ecc6f3f	0.39928624
47	0x40277e93	2.6171005
48	0xbf44b392	-0.768365
49	0x3f7aee0f	0.980195
50	0x3f62029d	0.8828524
51	0x3ea426e4	0.3206092
52	0x3ea25c9a	0.31711274
53	0xbec2c1b5	-0.38038412
54	0xbf9b334c	-1.212503
55	0x3eb370e3	0.35047063
56	0x4019135f	2.3918073
57	0xbf17f09b	-0.5935151
58	0x3ed9d952	0.42548615
59	0x3fa041ca	1.2520077
60	0x3fe6abad	1.8021141
61	0x3fcefef4	1.6171556
62	0x3df71275	0.12064067
63	0x3fa224aa	1.2667439

module.Conv5.layers.1.bias f4 [64]
0	0xbf7ab9da	-0.97939837
1	0xbf995b7c	-1.1981044
2	0x3e17cc20	0.14823961
3	0x3f894aa6	1.0725906
4	0x3f74fc87	0.95697826
5	0x3fe4e473	1.7882217
6	0xbf6014a2	-0.87531483
7	0xbe33da02	-0.17563632
8	0x3eb178ae	0.34662384
9	0xbf3643ed	-0.71197397
10	0xbf7964ca	-0.97419417
11	0x3f22c7d7	0.6358618
12	0x3fefd712	1.8737509
13	0x3fa0b611	1.2555562
14	0x3eb2cec9	0.3492339
15	0x3f79f147	0.97633785
16	0x3fbcb1ed	1.4741799
17	0x3f44ca0f	0.76870817
18	0xbf35206f	-0.70752615
19	0xc0640d8c	-3.5633268
20	0xbf938562	-1.152508
21	0xbf09817c	-0.537132
22	0xbfc8fe61	-1.570263
23	0x3f7a8268	0.97855234
24	0x3d4eb68f	0.05046707
25	0xbeace86f	-0.33771083
26	0x3e6b021a	0.2295002
27	0xbecddb32	-0.40206295
28	0x40652a27	3.5806978
29	0x3d4f4a87	0.050608184
30	0xbe4725c9	-0.19448008
31	0x3fa02d22	1.2513773
32	0xbf0791e0	-0.5295696
33	0xbd85e80c	-0.065384
34	0x3e6fbde5	0.23412283
35	0xbe2479fa	-0.16062155
36	0x3e84c733	0.25933227
37	0x3c90b48d	0.017664218
38	0x3ee08fff	0.4385986
39	0xbf9bd5a7	-1.2174577
40	0xbf76f4dc	-0.96467376
41	0xbe53bbba	-0.20677081
42	0xbf65b8de	-0.8973521
43	0x3ecd3c23	0.40084943
44	0xbf36234c	-0.7114761
45	0xbe089e05	-0.1334153
46	0xbf20cd61	-0.62813383
47	0xc08d3b91	-4.4135213
48	0xbf8e8081	-1.1132966
49	0x3ee62061	0.44946578
50	0x3f7a82ea	0.9785601
51	0xbe2375c8	-0.15962899
52	0xbf6afd87	-0.917931
53	0x3f8fb941	1.122841
54	0xbf6b761b	-0.9197709
55	0xbf1193e5	-0.56866294
56	0x3fa59300	1.2935486
57	0x3f88d5ab	1.0690206
58	0x3f29967a	0.66245234
59	0x3edfeac3	0.43733796
60	0x3fdbcca2	1.7171824
61	0xbf7fe539	-0.9995914
62	0xbf15195e	-0.5824183
63	0xbea9f30a	-0.33193237

module.Conv5.layers.1.running_mean f4 [64]
0	0xc35c129d	-220.07271
1	0xc33c9346	-188.57529
2	0x417dd46e	15.864363
3	0x4355fbc0	213.9834
4	0x43335761	179.34132
5	0x435e3682	222.21292
6	0x435b5447	219.32921
7	0xc3087733	-136.46562
8	0x43272469	167.14223
9	0x42ede309	118.94343
10	0xc3571de8	-215.11682
11	0xc3579549	-215.58315
12	0xc282881c	-65.26584
13	0xc3464e6d	-198.30635
14	0xc344fe31	-196.99294
15	0xc340df53	-192.87236
16	0xc30e169e	-142.08835
17	0xc2f209e1	-121.019295
18	0x4348d36d	200.82588
19	0xc35c9f2c	-220.62177
20	0x434c2012	204.12527
21	0x43403290	192.19751
22	0xc3476913	-199.41045
23	0x43125644	146.33698
24	0x432f6a11	175.41432
25	0xc34625d5	-198.14778
26	0xc34a3f11	-202.24635
27	0x4331fa24	177.97711
28	0x42ae8666	87.2625
29	0xc340f162	-192.9429
30	0x43103b8c	144.2326
31	0xc2b44047	-90.12554
32	0x42d166bb	104.700645
33	0xc33a5e13	-186.36748
34	0x433c24d8	188.14392
35	0x42ea5b74	117.17862
36	0xc34959ea	-201.35123
37	0xc34984d6	-201.51889
38	0xc314ed99	-148.92812
39	0x42a4a3bf	82.31982
40	0x4322a716	162.65268
41	0xc32d3bd6	-173.23373
42	0x433c8407	188.51573
43	0xc350301a	-208.1879
44	0x433b0bd6	187.04623
45	0xc33a19fd	-186.10152
46	0x434a31b0	202.19409
47	0xc3171efe	-151.12106
48	0x4344380c	196.21893
49	0xc3497908	-201.47278
50	0x434ab3ae	202.70187
51	0xc3019ce1	-129.61281
52	0x434d6014	205.3753
53	0x4043e6e7	3.0609682
54	0x433c5580	188.33398
55	0x42e70a0a	115.51961
56	0xc2c9294e	-100.58067
57	0x42a1d64e	80.918564
58	0x435f0902	223.03519
59	0xc21648fd	-37.571278
60	0x436bb4d6	235.70639
61	0x42f9b33e	124.85008
62	0x42f65975	123.17472
63	0x434eed9b	206.92815

module.Conv5.layers.1.running_var f4 [64]
0	0x457ae718	4014.4434
1	0x44551330	852.2998
2	0x4485b861	1069.7618
3	0x44f384ab	1948.1459
4	0x447d94fd	1014.32794
5	0x448f5c21	1146.879
6	0x450ad7be	2221.484
7	0x45185f03	2437.9382
8	0x45e1e0f2	7228.118
9	0x44703bdc	960.9353
10	0x44e3482f	1818.2557
11	0x45dcee22	7069.7666
12	0x45c719b7	6371.2144
13	0x45be877d	6096.936
14	0x458fd7cf	4602.976
15	0x4516e2ae	2414.1675
16	0x453a53d6	2981.2397
17	0x45a322b3	5220.3374
18	0x45816f2c	4141.8965
19	0x45bb9c64	6003.549
20	0x4460bb4d	898.9266
21	0x45ba4113	5960.1343
22	0x4489f686	1103.7039
23	0x461f759b	10205.401
24	0x442f333d	700.8006
25	0x457b2dda	4018.8657
26	0x456f8e80	3832.9062
27	0x44de5bef	1778.8729
28	0x4456ab06	858.67224
29	0x44bb2190	1497.0488
30	0x45f22ca0	7749.578
31	0x45cf28f5	6629.1196
32	0x441ed313	635.29803
33	0x459db4d1	5046.602
34	0x45c820f7	6404.1206
35	0x4429ec2b	679.6901
36	0x458e6e8d	4557.819
37	0x46077fde	8671.967
38	0x45080368	2176.213
39	0x458eb4a7	4566.5815
40	0x44cb1a0d	1624.8141
41	0x45b03fce	5639.9756
42	0x44c3c78c	1566.2358
43	0x45b32e01	5733.7505
44	0x45b57539	5806.653
45	0x44d5d2dd	1710.5895
46	0x44f4e2ed	1959.0914
47	0x439ad3c6	309.65448
48	0x451a474d	2468.4563
49	0x457dd72b	4061.448
50	0x455547d6	3412.4897
51	0x45940187	4736.191
52	0x458d05e4	4512.7363
53	0x45223491	2595.2854
54	0x4573b2fe	3899.187
55	0x44742772	976.61633
56	0x4565e773	3678.4656
57	0x45ace89a	5533.075
58	0x45452b2c	3154.6982
59	0x45222638	2594.3887
60	0x44e1f48b	1807.642
61	0x43e3ca00	455.57812
62	0x452f8f0e	2808.941
63	0x45495ba5	3221.7278

module.Conv6.layers.0.weight f4 [64, 128, 3, 3]
0	0x3f17a0d5	0.59229785
1	0x3f1ac585	0.6045764
2	0x3f13a972	0.5768043
3	0x3f16ea0a	0.58950865
4	0x3f1b700b	0.6071784
5	0x3f1b3ed5	0.6064275
6	0x3f1365db	0.57577294
7	0x3f1d1bfa	0.61370814
8	0x3f216e3b	0.63058823
9	0x3f17db22	0.59318745
10	0x3f15c71c	0.5850694
11	0x3f15b469	0.5847841
12	0x3f1fa10f	0.6235513
13	0x3f1dd716	0.6165632
14	0x3f1e4955	0.61830646
15	0x3f135115	0.57545596
16	0x3f147925	0.5799735
17	0x3f14477d	0.5792158
18	0xbf13ac20	-0.57684517
19	0xbf1c075e	-0.6094874
20	0xbf1eb10d	-0.6198891
21	0xbf18494a	-0.5948683
22	0xbf1c6171	-0.61086184
23	0xbf13b203	-0.576935
24	0xbf14cbd3	-0.5812351
25	0xbf13f34e	-0.5779313
26	0xbf1c43c6	-0.61040914
27	0x3f15abbd	0.58465177
28	0x3f1eb4c6	0.6199459
29	0x3f1dddaa	0.6166636
30	0x3f1a2940	0.6021919
31	0x3f1280ee	0.5722798
32	0x3f1cea5e	0.61295116
33	0x3f1a54dc	0.60285735
34	0x3f1bb916	0.60829294
35	0x3f12ddc1	0.5736962
36	0x3f162349	0.5864759
37	0x3f1acac5	0.6046565
38	0x3f130778	0.5743327
39	0x3f1290be	0.5725211
40	0x3f1a5568	0.6028657
41	0x3f170514	0.58992124
42	0x3f16f55c	0.5896814
43	0x3f19ccb1	0.6007796
44	0x3f144c61	0.57929045
45	0x3f16c0ec	0.58888125
46	0x3f1ef4b0	0.62092113
47	0x3f2204b5	0.6328843
48	0x3f18a918	0.59633017
49	0x3f1bfc6f	0.6093206
50	0x3f16a4f1	0.5884543
51	0x3f1b8219	0.6074539
52	0x3f1e570f	0.6185159
53	0x3f2130e5	0.6296523
54	0x3f1ff0d0	0.62476826
55	0x3f20e791	0.6285334
56	0x3f1c861f	0.6114215
57	0x3f130647	0.57431453
58	0x3f1f2abd	0.6217459
59	0x3f139b87	0.5765919
60	0x3f1991d2	0.5998813
61	0x3f1a2a51	0.6022082
62	0x3f1aca9d	0.60465413
63	0xbf202208	-0.6255193
64	0xbf170e0e	-0.5900582
65	0xbf1ca2d2	-0.61185944
66	0xbf2217b1	-0.633174
67	0xbf17b838	-0.5926547
68	0xbf1d9236	-0.61551225
69	0xbf1f1cd8	-0.6215339
70	0xbf1643fd	-0.5869749
71	0xbf1ff6aa	-0.62485754
72	0xbf12f1d7	-0.5740027
73	0xbf167026	-0.58764875
74	0xbf1bbc52	-0.6083423
75	0xbf1c0bd0	-0.60955524
76	0xbf1620d7	-0.5864386
77	0xbf1e0bcf	-0.6173677
78	0xbf1f89de	-0.62319744
79	0xbf1bbae3	-0.6083204
80	0xbf136d2f	-0.57588476
81	0x3f185332	0.59501946
82	0x3f1eff3d	0.6210821
83	0x3f206a0c	0.62661815
84	0x3f1862c3	0.595257
85	0x3f14fb8f	0.5819635
86	0x3f16fdde	0.5898112
87	0x3f1b698e	0.6070794
88	0x3f124096	0.571298
89	0x3f1af891	0.6053553
90	0x3f20f7d7	0.62878174
91	0x3f211b32	0.6293212
92	0x3f293a6d	0.66104776
93	0x3f151835	0.5824006
94	0x3f1fceee	0.62425125
95	0x3f18149d	0.59406453
96	0x3f1b59b3	0.60683745
97	0x3f17e1ff	0.5932922
98	0x3f162ba3	0.58660334
99	0x3f1f01a5	0.62111884
100	0x3f1458bf	0.57947916
101	0x3f1ddc2a	0.6166407
102	0x3f1ac1e5	0.6045211
103	0x3f16707c	0.5876539
104	0x3f15efa9	0.5856882
105	0x3f18e928	0.5973077
106	0x3f1ab8aa	0.60438025
107	0x3f150a17	0.5821852
108	0x3f16e602	0.58944714
109	0x3f1a5c82	0.60297406
110	0x3f1d334f	0.61406416
111	0x3f159595	0.5843137
112	0x3f1afc45	0.6054118
113	0x3f14b150	0.5808306
114	0x3f1d29e0	0.6139202
115	0x3f203b1e	0.62590206
116	0x3f1c6e0d	0.61105424
117	0x3f11d427	0.56964344
118	0x3f1283fc	0.5723264
119	0x3f20766f	0.62680715
120	0x3f19f4e9	0.6013933
121	0x3f16e18c	0.5893791
122	0x3f1203e6	0.570372
123	0x3f1f22cf	0.6216249
124	0x3f205d83	0.6264269
125	0x3f135611	0.575532
126	0xbf24651e	-0.6421679
127	0xbf1bda62	-0.608801
128	0xbf1f2954	-0.62172437
129	0x3e2c36c2	0.16817763
130	0xbf288903	-0.65834063
131	0xbf1a01af	-0.6015882
132	0x3f1e4962	0.61830723
133	0x3f1d042b	0.61334485
134	0xbf1c9f0a	-0.61180174
135	0xbf114aca	-0.56754744
136	0xbf117b86	-0.56829107
137	0xbe739827	-0.2378851
138	0xbf10696d	-0.56410867
139	0xbf152fc4	-0.5827601
140	0xbf0fb9d3	-0.5614292
141	0xbf18bc0b	-0.5966193
142	0xbf1cc997	-0.612451
143	0xbf177802	-0.5916749
144	0x3f1884b9	0.5957752
145	0x3f19d903	0.6009676
146	0x3f19be6f	0.60056204
147	0x3f1577e2	0.5838605
148	0x3f1c0a52	0.6095325
149	0x3f12369b	0.5711457
150	0x3f157a86	0.5839008
151	0x3f18f7af	0.59752935
152	0x3f16bd26	0.5888237
153	0x3f157e5d	0.5839594
154	0x3f195b6a	0.5990511
155	0x3f1d1842	0.6136514
156	0x3f1fdcdd	0.62446386
157	0x3f19c119	0.6006027
158	0x3f11f610	0.57016087
159	0x3f173896	0.5907072
160	0x3f170700	0.58995056
161	0x3f1de1d1	0.61672693
162	0x3f1b19be	0.60586154
163	0x3f16e8a2	0.5894872
164	0x3f169200	0.5881653
165	0x3f17f6e3	0.59361094
166	0x3f1844c8	0.5947995
167	0x3f1997dc	0.59997344
168	0x3f1710c3	0.5900995
169	0x3f15dbb1	0.5853835
170	0x3f194013	0.59863394
171	0x3f210456	0.6289724
172	0x3f15e383	0.5855028
173	0x3f1be03b	0.60889024
174	0x3f18e135	0.5971864
175	0x3f177c06	0.5917362
176	0x3f200cd3	0.6251957
177	0x3f1e1903	0.61756915
178	0x3f18f96c	0.5975559
179	0x3f1e02db	0.6172311
180	0xbf1da0c1	-0.61573416
181	0xbf1f7d34	-0.6230042
182	0xbf14195e	-0.5785121
183	0xbf1d5f0d	-0.6147316
184	0xbf1db581	-0.6160508
185	0xbf1df4ee	-0.6170186
186	0xbf1f72ea	-0.6228472
187	0xbf164a1e	-0.58706844
188	0xbf160676	-0.5860361
189	0x3f1b2336	0.606006
190	0x3f128e45	0.57248336
191	0x3f133308	0.5749974
192	0x3f1df898	0.6170745
193	0x3f180846	0.59387624
194	0x3f1ad557	0.6048178
195	0x3f20c1d9	0.6279579
196	0x3f15a2c3	0.5845148
197	0x3f1eb0b3	0.6198837
198	0x3f1a91e8	0.60378885
199	0x3f2146a1	0.62998396
200	0xbf140ef9	-0.57835346
201	0x3f1d2cdc	0.61396575
202	0x3f210d92	0.6291133
203	0x3f17a96a	0.5924288
204	0x3f12f55f	0.57405657
205	0x3f1864c7	0.59528774
206	0x3f149316	0.58036935
207	0xbf1500a2	-0.5820409
208	0xbf12d2fc	-0.57353187
209	0xbf10488a	-0.56360686
210	0xbf1b897c	-0.6075666
211	0xbf1cb9d9	-0.6122108
212	0xbf1eb183	-0.6198961
213	0xbf20b449	-0.62775093
214	0xbf1352f3	-0.57548445
215	0xbf178e78	-0.59201765
216	0xbf1584b4	-0.58405614
217	0xbf15723c	-0.5837743
218	0xbf2034d7	-0.6258063
219	0xbf1d8680	-0.61533356
220	0xbf15b6ea	-0.5848223
221	0xbf1d7c97	-0.61518234
222	0xbf1a2df4	-0.6022637
223	0xbf1e5f0c	-0.6186378
224	0xbf1f685d	-0.6226862
225	0xbf1e89d3	-0.61929053
226	0xbf2126ce	-0.62949836
227	0xbf1b0346	-0.6055187
228	0xbf177b94	-0.5917294
229	0xbf1623f9	-0.5864864
230	0xbf194fba	-0.5988728
231	0xbf1ea100	-0.61964417
232	0xbf13339e	-0.57500637
233	0xbf1d7dc4	-0.6152003
234	0x3f19e11c	0.60109115
235	0x3f19ceb5	0.60081035
236	0x3f1fcf3e	0.624256
237	0x3f16445b	0.5869805
238	0x3f1c1893	0.60975
239	0x3f199024	0.59985566
240	0x3f1c815d	0.6113489
241	0x3f203db1	0.62594134
242	0x3f12523b	0.57156724
243	0xbf145d23	-0.57954615
244	0xbf18f3f5	-0.5974725
245	0xbf1e2379	-0.61772877
246	0xbf1d3456	-0.61407983
247	0xbf2055b8	-0.62630796
248	0xbf19911d	-0.5998705
249	0xbf1fd944	-0.62440896
250	0xbf2031a6	-0.6257576
251	0xbf18ea3e	-0.59732425
252	0x3f14aaf6	0.58073366
253	0x3f139dad	0.5766247
254	0x3f181c5b	0.59418267
255	0x3f1ecccc	0.62031245

module.Conv6.layers.0.bias f4 [64]
0	0x3d44a444	0.04800822
1	0xbd97879b	-0.073989116
2	0xbd181e4c	-0.03713827
3	0x3d4e7f06	0.050414108
4	0x3c517b78	0.012785785
5	0xbd8641dd	-0.06555531
6	0x3cde71d9	0.027153896
7	0xbdc40b77	-0.09572499
8	0x3d4057df	0.0469588
9	0x3cb140ea	0.021637399
10	0xbd61da13	-0.055139612
11	0x3db8f524	0.09031132
12	0xbea49a35	-0.321489
13	0x3c82f25f	0.015984712
14	0x3bd01d84	0.006351175
15	0xbdec6d47	-0.115442805
16	0xbd7d2039	-0.061798308
17	0xbdf41416	-0.119178936
18	0xbe07c867	-0.13260041
19	0x3de600fc	0.112306565
20	0x3df67d36	0.12035601
21	0x3dba50f3	0.09097471
22	0xbd4a052a	-0.04932133
23	0xbde95fdf	-0.11395239
24	0x3e3ed2fb	0.1863517
25	0x3e16f7b2	0.14742926
26	0x3cd6904b	0.026191851
27	0x3c9dceff	0.019263742
28	0x3db7d755	0.08976618
29	0xbd51456e	-0.051091604
30	0x3d1850d2	0.03718645
31	0x3cdafd92	0.02673224
32	0x3c6adfe1	0.014335603
33	0xbc12a0cf	-0.008949473
34	0x3d728a32	0.059213825
35	0x3d56d1ac	0.052446052
36	0xbb7e6394	-0.0038816677
37	0x3dcd0b56	0.10011928
38	0x3ddc0bff	0.107444756
39	0x3e8e346e	0.27774376
40	0x3d1dc109	0.03851417
41	0xbcfe827b	-0.031068077
42	0x3d877852	0.06614746
43	0xbcfc70df	-0.03081554
44	0xbdb2d07a	-0.0873117
45	0x3d15b5ee	0.036550455
46	0xbe3f0b62	-0.18656686
47	0x3d7a6bec	0.06113808
48	0x3d5e2a55	0.05423959
49	0x3cb7bfad	0.022430265
50	0xbc80d6cb	-0.015727421
51	0xbca04d0d	-0.01956799
52	0xbd4c22df	-0.049837943
53	0xbe10ca79	-0.14139737
54	0x3d3d430e	0.046206526
55	0x3e7e0ed9	0.24810351
56	0xbda61de9	-0.08111174
57	0x3d7a55a2	0.061116822
58	0x3de295c9	0.110637255
59	0x3d64864c	0.055792138
60	0x3e51b4b9	0.20479096
61	0x3e262798	0.16226041
62	0xbe2dd3be	-0.16975304
63	0xbcc1f84e	-0.023677971

module.Conv6.layers.1.weight f4 [64]
0	0x3f319aa1	0.6937657
1	0x3ef74243	0.4829274
2	0x3fb7def1	1.4364911
3	0x3f6bdb88	0.92131853
4	0x3f67f811	0.90612894
5	0x3fcb34a2	1.5875437
6	0x3f04cfe8	0.5187974
7	0x3f89a5f5	1.0753771
8	0x3f5a16a0	0.85190773
9	0x3f5fd996	0.87441385
10	0x3ecd1ca2	0.40060908
11	0x3ee07eaa	0.43846637
12	0x3f2a6061	0.6655331
13	0x3f750cf4	0.9572289
14	0x3e80c56a	0.25150615
15	0x3f0002ae	0.5000409
16	0x3f81ac33	1.0130676
17	0x3f4f6737	0.8101687
18	0x3f94834c	1.1602569
19	0x3f9aeecc	1.2104125
20	0x3f8f892d	1.1213738
21	0x3fc5aeea	1.5444005
22	0x3f40d637	0.75326866
23	0x3f924a89	1.1428996
24	0x3eefc9d2	0.46833664
25	0x3fc4481b	1.5334505
26	0x3fa06990	1.2532215
27	0x3f193f59	0.59862286
28	0x3f36357a	0.7117535
29	0x3f18ebbe	0.59734714
30	0x3f7ac2fd	0.9795378
31	0x3f8b2c98	1.0872984
32	0x3eb36c06	0.35043353
33	0x3ecb9545	0.3976232
34	0x3f83e660	1.030468
35	0x3f94ffc0	1.1640549
36	0x3ee146af	0.4399924
37	0x3fb742a9	1.4317218
38	0x3ed52e20	0.41636753
39	0x3fa65666	1.2995117
40	0x3fa1dc8b	1.2645429
41	0x3f4d3d9c	0.80172133
42	0x3dfdc9f9	0.12392039
43	0x3f4ae829	0.792605
44	0x3fc12ecb	1.5092405
45	0x40040ad2	2.0631604
46	0x3fca9e60	1.5829582
47	0xbe92ac3d	-0.28647032
48	0x3f40df3c	0.7534063
49	0x3dd3501a	0.103180125
50	0x3f0388ad	0.51380426
51	0x3f8e19f8	1.1101675
52	0x3f9a8d6d	1.207441
53	0x3f6e703f	0.93140024
54	0x3eeb7fc0	0.45995903
55	0x3fc487c5	1.5353934
56	0x3f136eca	0.57590926
57	0x3f81fb56	1.0154827
58	0x3f0e1dfe	0.55514514
59	0xbf5faf88	-0.87377214
60	0x3efb06e6	0.490287
61	0x3eaf5913	0.34247646
62	0x3fa360aa	1.2763875
63	0x3fbf43a3	1.4942516

module.Conv6.layers.1.bias f4 [64]
0	0xbfd72110	-1.6806965
1	0xbf2253da	-0.634092
2	0x3f239293	0.6389553
3	0x3fad2e6e	1.3529794
4	0x3fe97451	1.8238622
5	0x3f01d73d	0.5071905
6	0x3f91eccf	1.1400393
7	0x3ffd1df0	1.9774761
8	0x3ffcb2a6	1.9742019
9	0xbf871675	-1.0553728
10	0x3f265702	0.64976513
11	0xbf822539	-1.016761
12	0xbe91343e	-0.2836017
13	0x3ff2eb18	1.8977995
14	0x3f2ebcde	0.6825694
15	0xbfa2291a	-1.2668793
16	0x4047399f	3.112892
17	0xc024189d	-2.5640023
18	0x3f8f5b87	1.1199807
19	0x4016360a	2.3470483
20	0xc00b47b4	-2.1762514
21	0x3f06418a	0.52443755
22	0xbfb4ab7b	-1.4114832
23	0x3f92b95a	1.1462815
24	0xbf14cbd2	-0.58123505
25	0x3f12832d	0.5723141
26	0x3f90e1da	1.1318924
27	0xbf36e44c	-0.71442103
28	0xbfdd552b	-1.7291616
29	0xbfa6e1ef	-1.30377
30	0x3fee33e1	1.8609582
31	0x40198fd3	2.3994033
32	0x3f7d2a7c	0.9889295
33	0x3f8cfb69	1.1014224
34	0xbffa7017	-1.9565457
35	0x40229178	2.5401287
36	0x3f3104e3	0.6914808
37	0x3f0ba4f1	0.54548556
38	0xbf5b48bb	-0.8565785
39	0x3fffa853	1.9973243
40	0xc06aeb5f	-3.670616
41	0xbfb6a695	-1.4269587
42	0xbf2a8d9b	-0.6662232
43	0x401b28b7	2.42436
44	0x3f2f8ab7	0.6857104
45	0x409708d3	4.719827
46	0x3f0a8c2a	0.54120123
47	0x3f5901dc	0.8476846
48	0xbfa49b27	-1.2859849
49	0xbf01dfb3	-0.5073196
50	0xbf501aef	-0.812911
51	0x3f9cc00a	1.2246106
52	0x3fe2cb0e	1.7718217
53	0x3ff47594	1.9098382
54	0xbf0f5c0d	-0.55999833
55	0x3f0cad08	0.54951525
56	0xbec52868	-0.3850739
57	0xc03e1e2a	-2.970591
58	0xbfa981ed	-1.3242775
59	0x3ea5cb2f	0.3238158
60	0xbf90a264	-1.1299558
61	0xbf0fa413	-0.5610973
62	0x3fcc3844	1.5954671
63	0x409428ed	4.629996

module.Conv6.layers.1.running_mean f4 [64]
0	0x43302f93	176.18584
1	0xc3210c5b	-161.04826
2	0x433284fd	178.51949
3	0xc33e4ea0	-190.30713
4	0xc32cb313	-172.69951
5	0x434b04f6	203.01938
6	0x4322e041	162.87599
7	0x43242c00	164.17188
8	0x4318442a	152.26627
9	0x4294142d	74.039406
10	0x434fc325	207.76228
11	0x432b76f2	171.46463
12	0xc3115162	-145.3179
13	0xc3251af4	-165.10529
14	0x4338dfdb	184.87444
15	0x43292bdb	169.17131
16	0xc3358431	-181.51637
17	0x431c1a09	156.1017
18	0xc2cae61f	-101.449455
19	0xc31db84c	-157.71991
20	0x4328bf9c	168.74847
21	0x434c1895	204.09602
22	0x431a06ab	154.02605
23	0xc2d9f17a	-108.971634
24	0xc33b7f2e	-187.4968
25	0x4333ea37	179.9149
26	0x432f2dab	175.17839
27	0xc31bc507	-155.76964
28	0x4327e419	167.891
29	0x434857ca	200.34293
30	0xc31b9bd4	-155.6087
31	0xc3291038	-169.06335
32	0x43277192	167.44363
33	0x43373cbf	183.23729
34	0x4320e056	160.87631
35	0xc325bda4	-165.74078
36	0xc333f974	-179.97443
37	0x433977dc	185.4682
38	0x431f27bf	159.15526
39	0x43212c00	161.17188
40	0x433bbd4e	187.73947
41	0x43330a2d	179.03975
42	0xc2e05a64	-112.176544
43	0xc33021b8	-176.13171
44	0x4337cbe9	183.79652
45	0xc30a50af	-138.31517
46	0x4340e8ee	192.90988
47	0xc2c3e51d	-97.94749
48	0x43264e32	166.30545
49	0xc358504b	-216.31364
50	0xc222154c	-40.520798
51	0xc366d306	-230.82431
52	0xc34795ee	-199.58566
53	0xc31c4d00	-156.30078
54	0xc33176c8	-177.46399
55	0x43361cfa	182.11319
56	0xc3353b15	-181.23079
57	0x431eea4f	158.91527
58	0x4316952b	150.58269
59	0x433ffd85	191.99031
60	0x431747f7	151.28111
61	0xc355c322	-213.76224
62	0xc320ef76	-160.9354
63	0xc3367045	-182.43855

module.Conv6.layers.1.running_var f4 [64]
0	0x45a99cfd	5427.6235
1	0x4572c2a3	3884.1648
2	0x45dd7cb3	7087.5874
3	0x452a5943	2725.5789
4	0x458698b8	4307.09
5	0x45db2237	7012.277
6	0x45c75428	6378.5195
7	0x458699c8	4307.2227
8	0x458b22c7	4452.347
9	0x4645b0e1	12652.22
10	0x45f14c3f	7721.531
11	0x45126362	2342.2114
12	0x453d1b4e	3025.7065
13	0x45749f78	3913.9668
14	0x460b12ed	8900.731
15	0x45d1948c	6706.5684
16	0x45ad0f15	5537.8853
17	0x46058f37	8547.804
18	0x4514095c	2368.585
19	0x455f44cc	3572.2998
20	0x457d5191	4053.098
21	0x45e515d1	7330.727
22	0x455e8891	3560.5354
23	0x45098682	2200.4067
24	0x4630d8c7	11318.194
25	0x45f5586e	7851.0537
26	0x45997bdc	4911.4824
27	0x460c10ed	8964.231
28	0x45a65937	5323.152
29	0x459261bd	4684.2173
30	0x458c94ec	4498.615
31	0x45f7258d	7908.694
32	0x45ae8b6a	5585.427
33	0x45ceff05	6623.8774
34	0x45501a9a	3329.6626
35	0x456bfa5d	3775.6477
36	0x4616e50a	9657.26
37	0x460c6454	8985.082
38	0x45a05b31	5131.399
39	0x45667873	3687.528
40	0x45f7ab27	7925.394
41	0x45d22375	6724.432
42	0x461094b0	9253.172
43	0x45f2aba6	7765.456
44	0x45d2a442	6740.532
45	0x46583318	13836.773
46	0x45f89172	7954.1807
47	0x4593d90b	4731.1304
48	0x45740032	3904.0122
49	0x45d429e6	6789.2373
50	0x44da723b	1747.5697
51	0x45ec4b5d	7561.4204
52	0x46183193	9740.394
53	0x45824423	4168.517
54	0x4605ca7f	8562.624
55	0x45d59484	6834.5645
56	0x45f9628a	7980.3174
57	0x46054d52	8531.33
58	0x455f74a9	3575.2913
59	0x461fe86d	10234.106
60	0x45b836ca	5894.8486
61	0x45f9ba8c	7991.3184
62	0x45c11e07	6179.7534
63	0x459d446e	5032.5537

module.Conv7.layers.1.weight f4 [1, 128, 3, 3]
0	0xbf158b1b	-0.58415383
1	0xbf176981	-0.5914536
2	0xbf13a603	-0.5767519
3	0xbf168497	-0.58796066
4	0xbf15e5ff	-0.5855407
5	0xbf19491d	-0.59877187
6	0xbf2b3f5c	-0.66893554
7	0xbf1fb2a2	-0.6238195
8	0xbf26e55a	-0.6519371
9	0x3f15d23a	0.58523905
10	0x3f19432c	0.5986812
11	0x3f169585	0.588219
12	0x3f17fadd	0.5936716
13	0x3f14e54d	0.58162385
14	0x3f164e60	0.5871334
15	0x3f1a38fc	0.602432
16	0x3f17a43b	0.5923497
17	0x3f1356fb	0.57554597
18	0x3f1921d0	0.5981722
19	0x3f1dfc73	0.6171333
20	0x3f18f24f	0.59744734
21	0x3f1425b0	0.57870007
22	0x3f1cd0a9	0.6125589
23	0x3f16ad80	0.5885849
24	0x3f1daf1f	0.6159534
25	0x3f1da08d	0.61573106
26	0x3f17dd60	0.59322166
27	0xbf184e49	-0.59494454
28	0xbf1cb85a	-0.612188
29	0xbf1b20d2	-0.60596955
30	0xbf1f1ca7	-0.62153095
31	0xbf193d4c	-0.59859157
32	0xbf197eb5	-0.59958965
33	0xbf15daa4	-0.58536744
34	0xbf12c310	-0.5732889
35	0xbf190c2a	-0.59784186
36	0xbf1d102b	-0.61352795
37	0xbf216561	-0.63045317
38	0xbf0d2837	-0.5513949
39	0xbf1ce096	-0.6128019
40	0xbf207f89	-0.62694603
41	0xbf16b865	-0.58875114
42	0xbf120734	-0.5704224
43	0xbf1f1bc6	-0.62151754
44	0xbf1855dd	-0.59506017
45	0x3f1f5cc6	0.62250936
46	0x3f20598d	0.62636644
47	0x3f1fc9b0	0.62417126
48	0x3f1b6287	0.60697216
49	0x3f20d446	0.62823904
50	0x3f168c99	0.58808285
51	0x3f1ac8b2	0.60462487
52	0x3f12cdb2	0.57345116
53	0x3f1b75e8	0.60726786
54	0x3f1920e5	0.5981582
55	0x3f16a8d0	0.5885134
56	0x3f1b395c	0.606344
57	0x3f1d9ecc	0.6157043
58	0x3f12fe40	0.57419205
59	0x3f1d28f0	0.6139059
60	0x3f18405f	0.5947322
61	0x3f1ceefa	0.6130215
62	0x3f11c200	0.56936646
63	0x3f1c8f5c	0.6115625
64	0x3f12bd0f	0.5731973
65	0x3f1157e5	0.5677474
66	0x3f17a551	0.5923663
67	0x3f1fe6f1	0.62461764
68	0x3f1e0d2b	0.6173884
69	0x3f154d8b	0.58321446
70	0x3f1a1c46	0.6019939
71	0x3f1e23ba	0.61773264
72	0x3f123ab3	0.5712082
73	0x3f1a9dc4	0.6039698
74	0x3f189646	0.596043
75	0x3f1e7f5c	0.61913085
76	0x3f133a79	0.575111
77	0x3f1abc58	0.6044364
78	0x3f157c68	0.58392954
79	0x3f1737ec	0.59069705
80	0x3f1b9153	0.6076862
81	0xbf202fb3	-0.62572783
82	0xbf13fc51	-0.5780688
83	0xbf124fb6	-0.5715288
84	0xbf18d3b9	-0.59698063
85	0xbf1a96b1	-0.60386187
86	0xbf1637eb	-0.58679074
87	0xbf1ac061	-0.60449797
88	0xbf177e99	-0.5917755
89	0xbf1a039e	-0.6016177
90	0x3f170f96	0.5900816
91	0x3f17d400	0.5930786
92	0x3f12d8c8	0.5736203
93	0x3f1c47cc	0.61047053
94	0x3f1ae0f1	0.60499483
95	0x3f1f2833	0.62170714
96	0x3f169af6	0.588302
97	0x3f1aff4c	0.605458
98	0x3f12f761	0.5740872
99	0xbf1581b0	-0.5840101
100	0xbf17a158	-0.59230566
101	0xbf206d7a	-0.6266705
102	0xbf144a60	-0.5792599
103	0xbf165850	-0.58728504
104	0xbf134291	-0.5752345
105	0xbf1625b4	-0.5865128
106	0xbf1df734	-0.6170533
107	0xbf18d773	-0.5970375
108	0x3f14abc1	0.58074576
109	0x3f16f16a	0.5896212
110	0x3f173c2a	0.5907618
111	0x3f137947	0.5760693
112	0x3f147142	0.5798532
113	0x3f15447f	0.5830764
114	0x3f1c6573	0.610923
115	0x3f18905d	0.5959528
116	0x3f1e1ace	0.6175965
117	0xbf163421	-0.5867329
118	0xbf170ca0	-0.5900364
119	0xbf167828	-0.58777094
120	0xbf1b624e	-0.60696876
121	0xbf1f2b29	-0.6217523
122	0xbf1ef092	-0.6208583
123	0xbf17e4a5	-0.5933326
124	0xbf1f5f6f	-0.62254995
125	0xbf1846b8	-0.5948291
126	0x3f165ff7	0.5874018
127	0x3f19ba0c	0.6004951
128	0x3f131022	0.5744649
129	0x3f1f8842	0.6231729
130	0x3f15da15	0.5853589
131	0x3f1ab894	0.60437894
132	0x3f175249	0.5910993
133	0x3f15463c	0.58310294
134	0x3f165d05	0.58735687
135	0xbf1caedc	-0.61204314
136	0xbf1a8c80	-0.60370636
137	0xbf190818	-0.59777975
138	0xbf137db8	-0.57613707
139	0xbf140814	-0.57824826
140	0xbf1d8563	-0.61531657
141	0xbf1a9795	-0.60387546
142	0xbf17101f	-0.59008974
143	0xbf1330af	-0.5749616
144	0xbf11e68b	-0.56992406
145	0xbf1e08d8	-0.61732244
146	0xbf1663d9	-0.58746105
147	0xbf224001	-0.6337891
148	0xbf23258a	-0.63729155
149	0xbf221577	-0.63314
150	0xbf0eb1be	-0.55739963
151	0xbf1d5a2a	-0.61465704
152	0xbf1b7368	-0.6072297
153	0xbf151ee4	-0.5825026
154	0xbf19a90e	-0.6002358
155	0xbf155ea8	-0.5834756
156	0xbf169169	-0.5881563
157	0xbf1e6cb7	-0.61884636
158	0xbf1d11c0	-0.6135521
159	0xbf14fe4b	-0.5820052
160	0xbf1b9e11	-0.60788065
161	0xbf1e3dc5	-0.61813
162	0xbf1f3ec7	-0.62205166
163	0xbf1aaf00	-0.6042328
164	0xbf1cfca8	-0.6132302
165	0xbf117ce2	-0.5683118
166	0xbf1ca1ee	-0.61184585
167	0xbf1769e0	-0.5914593
168	0xbf1ae089	-0.60498863
169	0xbf1cdc19	-0.6127334
170	0xbf18c8bc	-0.59681296
171	0xbf1f5f27	-0.62254566
172	0xbf1a25bd	-0.60213834
173	0xbf19cadb	-0.6007516
174	0xbf1e9974	-0.619529
175	0xbf226160	-0.6342983
176	0xbf1de390	-0.6167536
177	0xbf12836e	-0.57231796
178	0xbf1c3732	-0.6102172
179	0xbf100f70	-0.56273556
180	0xbf163d3d	-0.5868719
181	0xbf200545	-0.6250804
182	0xbf165b38	-0.5873294
183	0xbf15afc2	-0.5847131
184	0xbf14f70b	-0.5818946
185	0xbf25d537	-0.64778465
186	0xbf1b94ae	-0.6077374
187	0xbf26d565	-0.65169364
188	0xbf212357	-0.6294455
189	0x3f1a1344	0.60185647
190	0x3f1b1a82	0.6058732
191	0x3f1a4392	0.60259354
192	0x3f1bbd1a	0.6083542
193	0x3f17c67d	0.59287244
194	0x3f1872d0	0.5955019
195	0x3f15c803	0.5850832
196	0x3f206a17	0.6266188
197	0x3f1dc7df	0.61633104
198	0xbf17e7bd	-0.5933798
199	0xbf14b633	-0.58090514
200	0xbf177f04	-0.59178185
201	0xbf15c45e	-0.5850276
202	0xbf1342ac	-0.5752361
203	0xbf1d47f0	-0.6143789
204	0xbf147ea1	-0.5800572
205	0xbf1da485	-0.6157916
206	0xbf207ca7	-0.62690204
207	0xbf1d09c7	-0.61343044
208	0xbf1c893a	-0.6114689
209	0xbf1e7de8	-0.6191087
210	0xbf1d01cd	-0.6133087
211	0xbf124013	-0.5712902
212	0xbf143f91	-0.57909495
213	0xbf15167f	-0.5823745
214	0xbf1838bd	-0.59461576
215	0xbf1cd63b	-0.6126439
216	0x3f1ab8f7	0.60438484
217	0x3f14278e	0.57872856
218	0x3f144c91	0.5792933
219	0x3f1845be	0.5948142
220	0x3f16f12b	0.58961743
221	0x3f1ab517	0.6043257
222	0x3f16bca7	0.5888161
223	0x3f1323ca	0.57476485
224	0x3f15a49d	0.58454305
225	0x3f182d49	0.594441
226	0x3f16afc3	0.5886194
227	0x3f1ca553	0.61189765
228	0x3f1a3e9f	0.602518
229	0x3f18eef4	0.59739614
230	0x3f1b886e	0.6075505
231	0x3f1df8e0	0.6170788
232	0x3f1d773e	0.61510074
233	0x3f1fe201	0.6245423
234	0x3f1e0a14	0.6173413
235	0x3f182978	0.59438276
236	0x3f17e7d7	0.59338135
237	0x3f1d41b9	0.6142841
238	0x3f19fa35	0.6014741
239	0x3f1ae7e6	0.605101
240	0x3f166092	0.58741105
241	0x3f183825	0.5946067
242	0x3f18ba8b	0.5965964
243	0x3f1a9894	0.60389066
244	0x3f1c2c29	0.61004883
245	0x3f18bcb8	0.5966296
246	0x3f15a838	0.58459806
247	0x3f1234d9	0.5711189
248	0x3f1ed80f	0.6204843
249	0x3f1654a4	0.587229
250	0x3f170892	0.5899745
251	0x3f1a4b25	0.6027091
252	0xbf181af8	-0.5941615
253	0xbf1411ac	-0.57839465
254	0xbf13e8b9	-0.5777698
255	0xbf19d73f	-0.60094064
