DIDFuse/saved_models/decoder/IR_AE9.pth (torch, 604342 bytes, 13 tensors)

module.Conv5.layers.0.weight f4 [64, 128, 3, 3]
0	0x3f171921	0.5902272
1	0x3f125d26	0.57173383
2	0x3f12204e	0.57080543
3	0x3f1cf115	0.6130536
4	0x3f1f9b91	0.6234675
5	0x3f195427	0.5989403
6	0x3f1e6052	0.61865723
7	0x3f128c5a	0.5724541
8	0x3f19a0fa	0.60011256
9	0x3f1a657b	0.60311097
10	0x3f12a6c0	0.5728569
11	0x3f1a8f4f	0.6037492
12	0x3f169e9e	0.5883578
13	0x3f1f71a3	0.6228277
14	0x3f1a9466	0.6038269
15	0x3f11f417	0.57013077
16	0x3f18dc2b	0.5971095
17	0x3f17b222	0.59256184
18	0x3f1f343a	0.62189066
19	0x3f18d125	0.5969413
20	0x3f1aaa04	0.60415673
21	0x3f1373f1	0.5759879
22	0x3f1e7fb1	0.6191359
23	0x3f1e817b	0.6191632
24	0x3f18c657	0.5967764
25	0x3f13fc80	0.5780716
26	0x3f1c44bb	0.61042374
27	0x3f13c01e	0.5771502
28	0x3f1c78f7	0.6112208
29	0x3f150db7	0.5822405
30	0x3f16d3c2	0.58916867
31	0x3f155a02	0.58340466
32	0x3f178eb6	0.59202135
33	0x3f1f2951	0.6217242
34	0x3f1bfdff	0.6093444
35	0x3f1a2d1f	0.602251
36	0x3f1b8fc6	0.60766256
37	0x3f1b5748	0.60680056
38	0x3f1dbaf6	0.61613405
39	0x3f162c71	0.5866156
40	0x3f11bfcc	0.56933284
41	0x3f15441d	0.5830706
42	0x3f1f42ee	0.622115
43	0x3f11594e	0.56776893
44	0x3f177e99	0.5917755
45	0x3f191d39	0.59810215
46	0x3f16b0fe	0.5886382
47	0x3f11a06d	0.56885415
48	0x3f18b010	0.5964365
49	0x3f1c3c86	0.6102985
50	0x3f1f9bed	0.623473
51	0x3f11c9fa	0.56948817
52	0x3f159a86	0.5843891
53	0x3f174a9f	0.5909824
54	0xbf19a217	-0.60012954
55	0xbf160eb4	-0.58616185
56	0xbf1d81fc	-0.61526465
57	0xbf14dc68	-0.58148813
58	0xbf1acc78	-0.60468245
59	0xbf1095cb	-0.56478566
60	0xbf1ecd84	-0.6203234
61	0xbf1755b4	-0.5911515
62	0xbf1f0b3e	-0.6212653
63	0x3f2137d9	0.6297584
64	0x3f2280a8	0.63477564
65	0x3f19a474	0.6001656
66	0x3f1cbcb4	0.6122544
67	0x3f1c7c2a	0.6112696
68	0x3f143694	0.5789578
69	0x3f1b639d	0.6069887
70	0x3f192dc8	0.5983548
71	0x3f1b28e3	0.60609263
72	0xbf1ad5b9	-0.60482365
73	0xbf1bcd84	-0.60860467
74	0xbf137665	-0.5760253
75	0xbf1e1d0b	-0.61763066
76	0xbf10e591	-0.5660029
77	0xbf15e0af	-0.58545965
78	0x3f49dfdb	0.788572
79	0x3f48a3f3	0.78375167
80	0xbf06e4cd	-0.5269287
81	0x3f1f8622	0.62314045
82	0x3f12f7a4	0.5740912
83	0x3f11dca5	0.569773
84	0x3f1fb867	0.6239075
85	0x3f1a949e	0.6038302
86	0x3f1a003c	0.6015661
87	0x3f13cf9e	0.57738674
88	0x3f134082	0.57520306
89	0x3f101a58	0.562902
90	0xbf173949	-0.59071785
91	0xbf16fb9b	-0.5897767
92	0xbf1989b9	-0.59975773
93	0xbf209d99	-0.62740475
94	0xbf1a3fad	-0.6025341
95	0xbf203e67	-0.6259522
96	0xbf2238d9	-0.6336799
97	0xbf19acc9	-0.60029274
98	0xbf26eba0	-0.65203285
99	0xbf1459f6	-0.5794977
100	0xbf137565	-0.57601005
101	0xbf1f2e0c	-0.62179637
102	0xbf142253	-0.57864875
103	0xbf1c841e	-0.61139095
104	0xbf1899f5	-0.5960992
105	0xbf13d02e	-0.5773953
106	0xbf12d9e4	-0.57363725
107	0xbf188557	-0.5957846
108	0xbf19b758	-0.60045385
109	0xbf21430e	-0.6299294
110	0xbf2370a9	-0.6384378
111	0xbf17c3d5	-0.5928319
112	0xbf2393cc	-0.63897395
113	0xbf18c012	-0.59668076
114	0xbf1ee97f	-0.62075037
115	0xbf17db47	-0.59318966
116	0xbf1723fe	-0.59039295
117	0x3f1c0949	0.6095167
118	0x3f1dd0ec	0.61646914
119	0x3f18c931	0.59681994
120	0x3f1736ab	0.5906779
121	0x3f19c27b	0.6006238
122	0x3f18cf37	0.59691185
123	0x3f1add1f	0.60493654
124	0x3f14fe69	0.582007
125	0x3f18ae8b	0.5964133
126	0xbf1d6f61	-0.61498076
127	0xbf16ebc6	-0.5895351
128	0xbf1cb127	-0.61207813
129	0xbf179341	-0.59209067
130	0xbf1d0528	-0.6133599
131	0xbf1a13e2	-0.6018659
132	0xbf156bfa	-0.58367884
133	0xbf1c68c1	-0.6109734
134	0xbf1ba5ee	-0.60800064
135	0xbf174b13	-0.5909893
136	0xbf1edd3b	-0.6205632
137	0xbf168133	-0.5879089
138	0xbf14f467	-0.5818543
139	0xbf1370a5	-0.57593757
140	0xbf1734ee	-0.5906514
141	0xbf183c79	-0.59467274
142	0xbf122602	-0.57089245
143	0xbf1754c8	-0.5911374
144	0xbf18022a	-0.593783
145	0xbf18eec6	-0.5973934
146	0xbf1789b5	-0.591945
147	0xbf201361	-0.6252957
148	0xbf1d7a20	-0.6151447
149	0xbf207212	-0.6267406
150	0xbf19aed5	-0.600324
151	0xbf1d8508	-0.61531115
152	0xbf13fa90	-0.57804203
153	0x3f1fc130	0.62404156
154	0x3f20cb10	0.6280985
155	0x3f1b5db3	0.6068985
156	0x3f18c23e	0.5967139
157	0x3f22ac54	0.635442
158	0x3f180455	0.5938161
159	0xbf132e35	-0.5749238
160	0xbf1cb385	-0.61211425
161	0xbf09696a	-0.53676474
162	0xbf168bd9	-0.5880714
163	0xbf150d96	-0.58223855
164	0xbf1c4f41	-0.6105843
165	0x3f3e6f84	0.7438891
166	0xbf0941fe	-0.5361632
167	0x3f1e55ca	0.61849654
168	0x3f1a816f	0.6035375
169	0x3f1fa038	0.6235385
170	0x3f1ff45f	0.62482256
171	0x3f1a3322	0.6023427
172	0x3f166e26	0.58761823
173	0x3f1967de	0.59924114
174	0x3f1c58c9	0.61072975
175	0x3f1de68d	0.6167992
176	0x3f1c3f37	0.6103396
177	0x3f17156e	0.59017074
178	0x3f1fd721	0.62437636
179	0x3f14d79b	0.5814149
180	0x3f191847	0.5980267
181	0x3f1e7ab2	0.6190597
182	0x3f1c8e79	0.61154896
183	0x3f144837	0.5792269
184	0x3f18a918	0.59633017
185	0x3f1b761a	0.60727084
186	0xbf131b65	-0.57463676
187	0xbf1db63c	-0.6160619
188	0xbf1a61ea	-0.60305655
189	0x3f14455e	0.57918346
190	0x3f17464d	0.59091645
191	0x3f2086ee	0.62705886
192	0x3f138114	0.5761883
193	0x3f16f2b2	0.58964074
194	0x3f208f09	0.62718254
195	0x3f1c6d2e	0.61104095
196	0x3f17c904	0.592911
197	0x3f187496	0.59552896
198	0x3f1ea44e	0.6196946
199	0x3f183f37	0.5947146
200	0x3f1fdaf7	0.6244349
201	0x3f2125a1	0.6294804
202	0x3f1c1aba	0.6097828
203	0x3f14a141	0.58058554
204	0x3f21a128	0.6313653
205	0x3f158b88	0.5841603
206	0x3f15fbb9	0.58587223
207	0xbf1f06aa	-0.62119544
208	0xbf17c60e	-0.5928658
209	0xbf1cd8ee	-0.6126851
210	0xbf1fc08c	-0.6240318
211	0xbf20151f	-0.6253223
212	0xbf1df613	-0.61703604
213	0xbf306c70	-0.6891546
214	0xbf23250c	-0.63728404
215	0xbf13d985	-0.57753783
216	0xbf1bbbe5	-0.6083358
217	0xbf164cb0	-0.58710766
218	0xbf132d3d	-0.57490903
219	0xbf1b5d6d	-0.6068943
220	0xbf1eee13	-0.6208202
221	0xbf2006ba	-0.62510264
222	0xbf1b58df	-0.6068248
223	0xbf1658d7	-0.5872931
224	0xbf19d802	-0.60095227
225	0xbf19b887	-0.6004719
226	0xbf15d43a	-0.5852696
227	0xbf1d2fa0	-0.61400795
228	0xbf17bbfc	-0.59271216
229	0xbf15e8cc	-0.58558345
230	0xbf15ce8d	-0.58518296
231	0xbf1ade17	-0.6049513
232	0xbf1fd367	-0.6243195
233	0xbf199d8b	-0.60006016
234	0x3f1ea3af	0.6196851
235	0x3f142527	0.5786919
236	0x3f146fec	0.5798328
237	0x3f16b4a0	0.5886936
238	0x3f15ff77	0.58592933
239	0x3f178ec5	0.59202224
240	0x3f129549	0.5725904
241	0x3f1750c2	0.591076
242	0x3f192039	0.5981479
243	0xbf14f422	-0.5818502
244	0xbf1478fe	-0.5799712
245	0xbf1a568b	-0.60288304
246	0xbf13932f	-0.5764646
247	0xbf13bd18	-0.5771041
248	0xbf1f709a	-0.6228119
249	0xbf1e464b	-0.6182601
250	0xbf169706	-0.58824193
251	0xbf1e2802	-0.617798
252	0x3f1bdb47	0.60881466
253	0x3f1c6b10	0.61100864
254	0x3f1ab2e9	0.60429245
255	0x3f20d155	0.62819415

module.Conv5.layers.0.bias f4 [64]
0	0xbd7da874	-0.061928228
1	0xbd1ef4c6	-0.038807653
2	0xbdf967d0	-0.12178004
3	0x3cc04cc1	0.0234741
4	0xbcbfe56c	-0.023424827
5	0xbd48a3af	-0.048984226
6	0x3dc4db31	0.0961212
7	0x3de98e8d	0.114041425
8	0xbd6bdba3	-0.05758251
9	0x3d707f90	0.058715403
10	0x3bccdcbf	0.006251901
11	0x3d4fc1d4	0.05072196
12	0xbd0c2e61	-0.034223918
13	0xbd996ca7	-0.07491427
14	0x3d85401b	0.06506368
15	0xbe08c981	-0.13358118
16	0xbd6e105d	-0.058121074
17	0xbb442baa	-0.0029933252
18	0x3d3be86c	0.04587595
19	0xbc4fee54	-0.012691099
20	0xbd63c1dd	-0.055604804
21	0x3da8b56b	0.08237728
22	0x3e0a9ba5	0.13535936
23	0xbde0b2a5	-0.10971574
24	0xbdb1c2a2	-0.086797014
25	0x3d8450cb	0.064607225
26	0xba87c220	-0.0010357536
27	0xbdd3303d	-0.10311935
28	0xba577551	-0.00082190806
29	0x3da4f7cf	0.08055078
30	0xbca8585b	-0.020549944
31	0xbcf4bbe5	-0.029874751
32	0x3c176742	0.009240927
33	0xbc2fd2b8	-0.010731392
34	0xbc4bb79c	-0.012433913
35	0xbc8de25a	-0.017319847
36	0x3c4b4bf9	0.01240825
37	0xbd47cb51	-0.048777882
38	0x3e1b6322	0.15174535
39	0xbcc1db26	-0.023664068
40	0xbda76521	-0.08173586
41	0x3c016b44	0.007899109
42	0x3bfc302c	0.007696172
43	0x3b4b7b5b	0.0031048867
44	0x3e13700d	0.14398213
45	0x3e1dab30	0.15397334
46	0x3d1b8f7f	0.037978645
47	0xbd853933	-0.065050505
48	0x3e094de7	0.13408624
49	0xbd5c9a9c	-0.053858384
50	0x3d177ebe	0.036986105
51	0x3c9431bb	0.01809012
52	0x3e292dd2	0.16521385
53	0xbd12e1aa	-0.03585974
54	0x3d858602	0.065197006
55	0x3d59fac4	0.053217664
56	0x3a393652	0.00070652843
57	0x3c867d21	0.016417088
58	0xbc986cff	-0.01860666
59	0xbb201565	-0.0024426815
60	0x3d3788ee	0.04480832
61	0xbc58b24a	-0.013226101
62	0x3d7e402b	0.062072914
63	0xbdff5c10	-0.124687314

module.Conv5.layers.1.weight f4 [64]
0	0x3f2e19ca	0.680081
1	0x3e9dd32f	0.30825183
2	0x3f9bd988	1.217576
3	0x3fd3f6bf	1.6559676
4	0x3fb20030	1.3906307
5	0x400d0c5a	2.2038789
6	0x3f1e65fa	0.61874354
7	0x3fb25be1	1.3934289
8	0x3f9cf632	1.2262633
9	0x3d422cb1	0.047405902
10	0x3f1aefcb	0.60522145
11	0x3fcb5eda	1.5888321
12	0x3ff1043d	1.8829418
13	0x400b4c16	2.176519
14	0x3f99e5f2	1.2023299
15	0x3fb86c86	1.4408119
16	0x40353f00	2.8319702
17	0x402101be	2.5157313
18	0x3efe8878	0.49713492
19	0x403afaae	2.9215503
20	0xbd74f319	-0.05980215
21	0x3e079909	0.13241972
22	0x3e18c79c	0.14919895
23	0x3ffdef50	1.9838657
24	0x3f9b9fa6	1.2158096
25	0x3f51cb50	0.81950855
26	0x3f938219	1.1524078
27	0x3fa75024	1.3071332
28	0x3f9eb898	1.2400084
29	0x3f972061	1.1806756
30	0x402341ca	2.5508904
31	0x3fd79362	1.6841853
32	0x3e35f3e4	0.17768818
33	0x3f48832d	0.7832516
34	0x3fde0179	1.73442
35	0xbf151c4d	-0.5824631
36	0x3ff50c8f	1.9144458
37	0x3f996bf3	1.1986068
38	0x3f485df4	0.7826836
39	0x3e43903a	0.19097987
40	0x3eca4713	0.3950735
41	0x3f5d2cee	0.8639668
42	0x3f1a3d4f	0.602498
43	0x3f9c7b22	1.2225077
44	0x3efe24a0	0.49637318
45	0x3f504c3c	0.81366324
46	0x3f08b85b	0.53406304
47	0x4020b563	2.511071
48	0xbf51a445	-0.8189128
49	0x3f92cf34	1.1469483
50	0x3ed93df2	0.42430073
51	0x3e5bfb6c	0.21482629
52	0x3ef11348	0.47085023
53	0xbe95b342	-0.29238325
54	0xbf6106ad	-0.8790081
55	0x3ecabad6	0.3959567
56	0x4019fe58	2.406149
57	0xbea9371a	-0.33049852
58	0x3fb4da14	1.4129052
59	0x3f83e0c7	1.0302972
60	0x402123e0	2.5178146
61	0x3fc11369	1.5084049
62	0x3e001641	0.12508489
63	0x3fa0bbc9	1.2557307

module.Conv5.layers.1.bias f4 [64]
0	0xbf43978a	-0.76403105
1	0xbf848d7a	-1.0355675
2	0x3e03957a	0.1284999
3	0x3f8757a8	1.0573626
4	0x3f7687d8	0.9630103
5	0x3fe46086	1.7841957
6	0xbeb71831	-0.35760644
7	0xbdd81e30	-0.10552633
8	0x3ed8f64b	0.42375407
9	0xbf2f9c01	-0.6859742
10	0xbf819046	-1.0122154
11	0x3e945a43	0.28975114
12	0x3fc8121c	1.5630527
13	0x3f73868b	0.9512717
14	0x3e9d5078	0.30725455
15	0x3fc88584	1.5665746
16	0x3f9be8c1	1.2180406
17	0x3f0c238e	0.5474175
18	0xbf0a77a6	-0.5408882
19	0xc05addbf	-3.4197843
20	0xbf945e21	-1.1591226
21	0xbf082f49	-0.5319715
22	0xbf80d1c6	-1.0064018
23	0x3f22a70c	0.63536143
24	0xbd3157a9	-0.04329649
25	0xbe12611c	-0.14294857
26	0x3e95f22c	0.29286325
27	0xbe1ad6a0	-0.15120935
28	0x4060972f	3.5092275
29	0x3e813d83	0.25242242
30	0xbeca700a	-0.39538604
31	0x3f520b76	0.8204874
32	0xbf05d96b	-0.5228488
33	0x3cad41a1	0.021149458
34	0x3e5f0970	0.21780944
35	0xbf380177	-0.71877235
36	0x3f17feca	0.5937315
37	0xbead1732	-0.3380676
38	0x3eb98953	0.36237583
39	0xbf9b1a9d	-1.2117497
40	0xbf84602b	-1.0341848
41	0x3ce7dca5	0.028303454
42	0xbf655664	-0.89584947
43	0xbf0f54d1	-0.55988795
44	0xbf1a6707	-0.6031346
45	0xbd4b7649	-0.049673352
46	0xbefa72d3	-0.4891573
47	0xc06e0423	-3.7190025
48	0xbe24892b	-0.1606795
49	0x3f4845a7	0.7823128
50	0x3f46078b	0.7735526
51	0xbeff76ce	-0.49895328
52	0xbf1ef024	-0.62085176
53	0x3f8629de	1.0481527
54	0xbf958b40	-1.1683121
55	0xbf10377e	-0.56334674
56	0x3f8a1bc4	1.0789723
57	0x3f8c1ed2	1.0946906
58	0x3f8e1c7e	1.1102445
59	0x3db5620c	0.088565916
60	0x3fd76a03	1.6829227
61	0xbf74db51	-0.9564715
62	0xbf14892a	-0.58021796
63	0xbe8b95e2	-0.2726279

module.Conv5.layers.1.running_mean f4 [64]
0	0xc319b2f2	-153.699
1	0xc31baf3f	-155.68456
2	0x41844838	16.535263
3	0x431dfffd	157.99995
4	0x42af1ff2	87.56239
5	0x431fa9e8	159.6637
6	0x43187843	152.46977
7	0xc2a1bddf	-80.87084
8	0x42b453ac	90.16342
9	0x42bcf881	94.48536
10	0xc3186500	-152.39453
11	0xc3059383	-133.57622
12	0xc113fe13	-9.24953
13	0xc311e8fa	-145.91006
14	0xc2fb55f1	-125.667854
15	0xc2feabd5	-127.33561
16	0xc2cc232f	-102.06872
17	0xc2e2a657	-113.32488
18	0x4303b33e	131.70016
19	0xc313243b	-147.14153
20	0x4321ac1d	161.67232
21	0x42f2ff52	121.49867
22	0xc30f56a3	-143.33842
23	0x4289eb2b	68.95931
24	0x43089ba1	136.60793
25	0xc2f33298	-121.598816
26	0xc2fa2502	-125.07228
27	0x430c60c1	140.37794
28	0x429a98e1	77.29859
29	0xc2fdfbd1	-126.99183
30	0x42812a37	64.58245
31	0xc214a16c	-37.15764
32	0x429cef45	78.46732
33	0xc2e0e9cc	-112.456635
34	0x42e434be	114.10301
35	0x425f25ee	55.78704
36	0xc2fc7ef5	-126.24796
37	0xc2fa2376	-125.06926
38	0xc2ef9aa0	-119.802
39	0x422f6f25	43.85854
40	0x42e4dd45	114.43217
41	0xc2d3d397	-105.91326
42	0x431d679e	157.40475
43	0xc304567d	-132.33784
44	0x42fbb5a4	125.85477
45	0xc2f26698	-121.20038
46	0x430e8218	142.50818
47	0xc2cf073a	-103.514114
48	0x430239d3	130.22588
49	0xc2f1257c	-120.57321
50	0x4302753b	130.45793
51	0xc292a781	-73.327156
52	0x43097447	137.45421
53	0x3f8104a6	1.0079544
54	0x42fd9cb9	126.8061
55	0x42cad606	101.418015
56	0xc296571b	-75.17013
57	0x422d61c6	43.34548
58	0x4312ae9e	146.6821
59	0xc21e9750	-39.647766
60	0x432270b9	162.44032
61	0x42b0d142	88.40871
62	0x42c0e839	96.45356
63	0x4306f9b1	134.97536

module.Conv5.layers.1.running_var f4 [64]
0	0x444ba016	814.50134
1	0x445a00dd	872.0135
2	0x43a03d9c	320.48132
3	0x4495f6b2	1199.7092
4	0x43eca1f6	473.26532
5	0x4476c12d	987.0184
6	0x4459a913	870.6418
7	0x44695357	933.3022
8	0x45202bbf	2562.7341
9	0x4441fb29	775.9244
10	0x444317d1	780.37213
11	0x44fa57f7	2002.7489
12	0x45713a01	3859.6252
13	0x447e3395	1016.80597
14	0x445041cb	833.028
15	0x43eb4e90	470.61377
16	0x43aa360e	340.4223
17	0x443370f7	717.7651
18	0x44177eaa	605.9791
19	0x4411a440	582.5664
20	0x448398f7	1052.7802
21	0x444415a9	784.33844
22	0x4442a56c	778.5847
23	0x454ab6f1	3243.4338
24	0x4462d5ea	907.3424
25	0x448b98cd	1116.775
26	0x4450f9c2	835.90247
27	0x44b18566	1420.1687
28	0x43cb8f21	407.1182
29	0x445160b2	837.51086
30	0x452512a6	2641.1655
31	0x4538ded4	2957.9268
32	0x43bdaa97	379.33273
33	0x44b7f944	1471.7896
34	0x44d67bd4	1715.8696
35	0x439d1e03	314.23447
36	0x448567fc	1067.2495
37	0x450c38a8	2243.541
38	0x44767dbf	985.9648
39	0x44945846	1186.7585
40	0x43bfad42	383.35358
41	0x44cf70f1	1659.5294
42	0x44b10534	1416.1626
43	0x4493e17f	1183.0468
44	0x44acee38	1383.4443
45	0x443f9e21	766.47076
46	0x443c2795	752.61847
47	0x43713a32	241.22733
48	0x4421e5e2	647.5919
49	0x442b074d	684.1141
50	0x44333324	716.7991
51	0x44b07ae9	1411.841
52	0x44827c06	1043.8757
53	0x43b896ca	369.17804
54	0x440c2333	560.55
55	0x43b72e98	366.364
56	0x44007886	513.8832
57	0x44f908d4	1992.2759
58	0x443396ad	718.3543
59	0x449e4a5c	1266.3237
60	0x445d512a	885.2682
61	0x43cc80b5	409.00552
62	0x43fb1bbe	502.21674
63	0x445fb771	894.8663

module.Conv6.layers.0.weight f4 [64, 128, 3, 3]
0	0x3f171691	0.5901881
1	0x3f1a9b7d	0.60393506
2	0x3f137a76	0.57608736
3	0x3f167f2b	0.5878779
4	0x3f1b4bae	0.60662353
5	0x3f1b16ab	0.60581464
6	0x3f12c5f3	0.57333297
7	0x3f1cd9d3	0.61269873
8	0x3f212615	0.62948734
9	0x3f17c755	0.5928853
10	0x3f15b50e	0.5847939
11	0x3f15a5e8	0.5845628
12	0x3f1f8865	0.62317497
13	0x3f1dc028	0.6162133
14	0x3f1e370f	0.6180276
15	0x3f133859	0.57507855
16	0x3f1460a6	0.57959974
17	0x3f14331b	0.5789048
18	0xbf144d45	-0.57930404
19	0xbf1c7303	-0.61112994
20	0xbf1f719a	-0.6228272
21	0xbf186149	-0.59523445
22	0xbf1c2dd3	-0.6100742
23	0xbf13b2b5	-0.5769456
24	0xbf14f1f9	-0.5818172
25	0xbf13dd16	-0.57759225
26	0xbf1c442d	-0.6104153
27	0x3f1550be	0.5832633
28	0x3f1e2d81	0.61788183
29	0x3f1d16a1	0.61362654
30	0x3f19ea07	0.6012272
31	0x3f1213a2	0.5706121
32	0x3f1c3f13	0.61033744
33	0x3f1a2059	0.6020561
34	0x3f1b5d8e	0.6068963
35	0x3f1247b1	0.5714064
36	0x3f154aa8	0.5831704
37	0x3f19e998	0.6012206
38	0x3f120c63	0.5705015
39	0x3f11fa3c	0.5702245
40	0x3f19b09b	0.60035104
41	0x3f163b35	0.5868409
42	0x3f164c89	0.58710533
43	0x3f191adb	0.59806603
44	0x3f1377ce	0.5760468
45	0x3f1599cf	0.5843782
46	0x3f1d8da2	0.6154424
47	0x3f203285	0.62577087
48	0x3f17f5c9	0.59359413
49	0x3f1b2ef1	0.606185
50	0x3f15833d	0.5840338
51	0x3f1a939b	0.6038148
52	0x3f1d5e1a	0.6147171
53	0x3f1ff932	0.62489617
54	0x3f1fd606	0.6243595
55	0x3f20d481	0.62824255
56	0x3f1c74a0	0.61115456
57	0x3f12f21f	0.574007
58	0x3f1f1f0f	0.62156767
59	0x3f1392b4	0.57645726
60	0x3f1978dc	0.5995004
61	0x3f1a196f	0.6019506
62	0x3f1abca9	0.6044412
63	0xbf1b6c68	-0.6071229
64	0xbf12558f	-0.571618
65	0xbf1951f5	-0.5989068
66	0xbf20a956	-0.62758386
67	0xbf15bca1	-0.5849095
68	0xbf1baf17	-0.6081404
69	0xbf1eca41	-0.62027365
70	0xbf156bf9	-0.5836788
71	0xbf1f26d9	-0.6216865
72	0xbf141db1	-0.57857805
73	0xbf176b77	-0.59148353
74	0xbf1c7c70	-0.61127377
75	0xbf1c0471	-0.6094428
76	0xbf160dad	-0.5861462
77	0xbf1e0ac9	-0.61735207
78	0xbf1e7c0f	-0.6190805
79	0xbf1a94ba	-0.6038319
80	0xbf1274a6	-0.5720924
81	0x3f185267	0.59500736
82	0x3f1eff94	0.6210873
83	0x3f2069f1	0.62661654
84	0x3f186236	0.5952486
85	0x3f14fbff	0.58197016
86	0x3f16fde6	0.5898117
87	0x3f1b6844	0.6070597
88	0x3f124048	0.57129335
89	0x3f1af7e0	0.6053448
90	0x3f218288	0.630898
91	0x3f218bb1	0.6310378
92	0x3f2b2a0c	0.66861033
93	0x3f15259a	0.582605
94	0x3f1f9341	0.62334067
95	0x3f17a7d8	0.59240484
96	0x3f1bc0f5	0.60841304
97	0x3f182026	0.59424055
98	0x3f16606c	0.5874088
99	0x3f1f7329	0.62285095
100	0x3f14fc6d	0.5819767
101	0x3f1e5547	0.6184887
102	0x3f1b0f4a	0.60570204
103	0x3f16f0ff	0.5896148
104	0x3f165832	0.58728325
105	0x3f18fa7a	0.59757197
106	0x3f1aebf9	0.60516316
107	0x3f152f20	0.5827503
108	0x3f175bcc	0.59124446
109	0x3f1b0476	0.6055368
110	0x3f1d83c5	0.6152919
111	0x3f15e905	0.58558685
112	0x3f1b7f1d	0.60740834
113	0x3f14e965	0.5816863
114	0x3f1cdecc	0.6127746
115	0x3f2015c8	0.62533236
116	0x3f1c17b4	0.6097367
117	0x3f120750	0.5704241
118	0x3f13003f	0.5742225
119	0x3f20c682	0.628029
120	0x3f1a0520	0.6016407
121	0x3f173f99	0.5908142
122	0x3f124526	0.5713676
123	0x3f1ec3cd	0.6201752
124	0x3f203cb6	0.6259264
125	0x3f132a94	0.57486844
126	0xbf1e07b9	-0.61730534
127	0xbf158a57	-0.58414215
128	0xbf1d85a3	-0.6153204
129	0x3ec21729	0.37908295
130	0xbf2238f3	-0.6336815
131	0xbf1903eb	-0.59771603
132	0x3f1e20f5	0.6176904
133	0x3f1dcfe8	0.61645365
134	0xbf1b557b	-0.6067731
135	0xbf1147cf	-0.56750196
136	0xbf119be9	-0.56878525
137	0xbe92dc25	-0.28683582
138	0xbf110cea	-0.5666033
139	0xbf162e72	-0.5866462
140	0xbf12be0e	-0.5732125
141	0xbf18e634	-0.5972626
142	0xbf1d35ac	-0.6141002
143	0xbf186611	-0.5953074
144	0x3f1a4fae	0.6027783
145	0x3f1c7af3	0.61125106
146	0x3f1b265d	0.6060541
147	0x3f17aedd	0.59251195
148	0x3f1f5563	0.62239665
149	0x3f145631	0.5794402
150	0x3f160433	0.5860016
151	0x3f1a6857	0.6031546
152	0x3f17b6a2	0.5926305
153	0x3f161e53	0.5864002
154	0x3f1a48a4	0.6026709
155	0x3f1daaa5	0.6158851
156	0x3f207567	0.6267914
157	0x3f1ab344	0.6042979
158	0x3f12a264	0.5727904
159	0x3f172725	0.59044105
160	0x3f174915	0.5909589
161	0x3f1dfcd4	0.6171391
162	0x3f1ae673	0.6050789
163	0x3f16b223	0.58865565
164	0x3f16597b	0.58730286
165	0x3f17cc4d	0.59296113
166	0x3f1819e9	0.59414536
167	0x3f196b25	0.59929115
168	0x3f16e425	0.5894187
169	0x3f15ad8d	0.5846794
170	0x3f1909a8	0.5978036
171	0x3f1ee2e4	0.6206496
172	0x3f141242	0.5784036
173	0x3f1a0abc	0.6017263
174	0x3f17067f	0.5899429
175	0x3f15cb2e	0.5851315
176	0x3f1e2a55	0.61783344
177	0x3f1cc893	0.6124355
178	0x3f17bfc4	0.59276986
179	0x3f1c9cd5	0.61176807
180	0xbf1db3f9	-0.6160274
181	0xbf1f899b	-0.62319344
182	0xbf142465	-0.57868034
183	0xbf1d6d62	-0.6149503
184	0xbf1dbecb	-0.6161925
185	0xbf1dfd9f	-0.6171512
186	0xbf1f823d	-0.623081
187	0xbf165572	-0.5872413
188	0xbf16119d	-0.58620626
189	0x3f1b2316	0.6060041
190	0x3f128e71	0.572486
191	0x3f1332f2	0.5749961
192	0x3f1df818	0.61706686
193	0x3f1807e0	0.59387016
194	0x3f1ad48e	0.6048058
195	0x3f20c078	0.62793684
196	0x3f15a192	0.5844966
197	0x3f1eaee5	0.6198562
198	0x3f1ab769	0.6043611
199	0x3f2174bd	0.63068753
200	0xbf13b00a	-0.5769049
201	0x3f1d3e7b	0.6142346
202	0x3f212271	0.6294318
203	0x3f180d2a	0.59395087
204	0x3f130d70	0.5744238
205	0x3f187ff8	0.59570265
206	0x3f14cd48	0.58125734
207	0xbf15d7b3	-0.58532256
208	0xbf13b879	-0.5770336
209	0xbf114b16	-0.567552
210	0xbf1b8ba0	-0.60759926
211	0xbf1cc7b2	-0.6124221
212	0xbf1ed273	-0.6203987
213	0xbf1f757b	-0.62288636
214	0xbf12150b	-0.5706336
215	0xbf1659eb	-0.58730954
216	0xbf1622e7	-0.58647007
217	0xbf15ee37	-0.5856661
218	0xbf210e6e	-0.6291264
219	0xbf1d907c	-0.6154859
220	0xbf15940c	-0.58429027
221	0xbf1dc1e2	-0.61623967
222	0xbf1a7e4f	-0.6034898
223	0xbf1e8069	-0.6191469
224	0xbf1fc9d4	-0.6241734
225	0xbf1e4fa8	-0.61840296
226	0xbf20b02b	-0.6276881
227	0xbf1a963f	-0.6038551
228	0xbf177ada	-0.5917183
229	0xbf160e84	-0.586159
230	0xbf194a7a	-0.5987927
231	0xbf1eae14	-0.6198437
232	0xbf132ae0	-0.574873
233	0xbf1d8578	-0.6153178
234	0x3f1a4957	0.6026816
235	0x3f1a3367	0.60234684
236	0x3f2042a4	0.62601686
237	0x3f161c13	0.5863659
238	0x3f1bf7a8	0.6092477
239	0x3f196b7a	0.5992962
240	0x3f1c953d	0.6116522
241	0x3f203a12	0.6258861
242	0x3f124fbb	0.5715291
243	0xbf14c497	-0.5811247
244	0xbf193f26	-0.5986198
245	0xbf1ebeef	-0.6201009
246	0xbf1d707b	-0.61499757
247	0xbf206c57	-0.62665313
248	0xbf19faef	-0.6014852
249	0xbf206625	-0.6265586
250	0xbf20a0c0	-0.62745285
251	0xbf198b94	-0.59978604
252	0x3f15e839	0.5855747
253	0x3f14f89b	0.5819184
254	0x3f196c48	0.5993085
255	0x3f2077bf	0.6268272

module.Conv6.layers.0.bias f4 [64]
0	0x3d4a3a5e	0.04937207
1	0xbd979797	-0.0740196
2	0xbd165568	-0.036702543
3	0x3d450aa1	0.04810584
4	0x3c692cf2	0.014231907
5	0xbd879572	-0.06620301
6	0x3cdd7f85	0.027038345
7	0xbdc39d84	-0.09551528
8	0x3d41205c	0.04715
9	0x3cb14d20	0.021643221
10	0xbd620346	-0.055178903
11	0x3db8a668	0.090161145
12	0xbea45b0d	-0.32100716
13	0x3c803bde	0.015653547
14	0x3bcd7362	0.006269858
15	0xbdec2e44	-0.11532262
16	0xbd7f7bde	-0.06237399
17	0xbdf39a4b	-0.118946634
18	0xbe0887df	-0.1333308
19	0x3de0e1cc	0.10980567
20	0x3dfa2bea	0.12215407
21	0x3db8e132	0.090273276
22	0xbd470a73	-0.04859395
23	0xbde6075c	-0.112318724
24	0x3e3e977d	0.18612476
25	0x3e166ae8	0.14689219
26	0x3cd19c89	0.025587337
27	0x3c9ec87b	0.019382706
28	0x3dba271f	0.09089493
29	0xbd531ba6	-0.05154004
30	0x3d177390	0.036975443
31	0x3cdb44be	0.026766177
32	0x3c694e5e	0.014239876
33	0xbc12fbcf	-0.008971169
34	0x3d6ad4e7	0.057331946
35	0x3d48d888	0.049034625
36	0xbb7a8b32	-0.003822994
37	0x3dcc487f	0.09974765
38	0x3ddc30b1	0.10751475
39	0x3e8f2558	0.2795818
40	0x3d1e7649	0.038687024
41	0xbcfd62c0	-0.030930877
42	0x3d872873	0.06599512
43	0xbcfab0b1	-0.030601831
44	0xbdb3aeb3	-0.087735556
45	0x3d18fd9e	0.037351243
46	0xbe3f42e4	-0.1867786
47	0x3d7a368c	0.061087176
48	0x3d5e6136	0.054291926
49	0x3cb2d43f	0.021829722
50	0xbc80db98	-0.01572971
51	0xbca951ea	-0.020668942
52	0xbd4bcc43	-0.049755346
53	0xbe11c73c	-0.14236158
54	0x3d3bc432	0.045841403
55	0x3e7e7701	0.24850084
56	0xbda68c23	-0.08132198
57	0x3d7a1c26	0.061062
58	0x3de1ed46	0.110315844
59	0x3d638aae	0.055552177
60	0x3e51dc65	0.2049423
61	0x3e25b67d	0.16182895
62	0xbe2db68b	-0.16964166
63	0xbcc52ba9	-0.02406867

module.Conv6.layers.1.weight f4 [64]
0	0x3f3bbc31	0.7333403
1	0x3f009456	0.5022634
2	0x3fbb7dac	1.4647727
3	0x3f9a8851	1.207285
4	0x3f74dea5	0.9565223
5	0x3fc5b9b5	1.5447298
6	0x3f3d743c	0.74005485
7	0x3f9d9ecb	1.2314085
8	0x3f70e3e6	0.94097745
9	0x3ebb2c68	0.36557317
10	0x3f0a4a1b	0.54019326
11	0x3f03ce9b	0.5148713
12	0x3efc6f16	0.49303502
13	0x3f6030e8	0.87574625
14	0x3e85623b	0.26051506
15	0x3f17bf0e	0.592759
16	0x3f6bf7cb	0.9217498
17	0x3f6956eb	0.9114825
18	0x3fab19ae	1.3367212
19	0x3fba2386	1.4542091
20	0x3f8ea083	1.1142734
21	0x3fbee80f	1.4914569
22	0x3f3ee636	0.74570024
23	0x3f9397cf	1.1530703
24	0x3ecc22b6	0.39870232
25	0x3fc673be	1.5504072
26	0x3fb0aab5	1.3802096
27	0x3f0b42e1	0.54398924
28	0x3f4d6429	0.8023096
29	0x3f270a4a	0.65250075
30	0x3f84442e	1.0333307
31	0x3f91da15	1.1394678
32	0x3f1d1d1e	0.61372554
33	0x3ef6edb7	0.48228237
34	0x3f9b93ce	1.2154481
35	0x3f9432c2	1.157799
36	0x3f25ea19	0.6481033
37	0x3fbb97b9	1.4655677
38	0x3ee621f9	0.44947794
39	0x3fbb2a92	1.4622366
40	0x3fa93749	1.3219997
41	0x3f2aa227	0.66653675
42	0x3f386f7f	0.7204513
43	0x3f427d55	0.7597249
44	0x3fc4ab9b	1.536487
45	0x3ff6ea89	1.9290324
46	0x3fc90c88	1.5706949
47	0xbf2e3051	-0.68042475
48	0x3f4a913f	0.7912788
49	0x3eb99efa	0.36254102
50	0x3f904a72	1.1272719
51	0x3fd9f110	1.7026691
52	0x3fb561e9	1.4170505
53	0x3f932766	1.1496398
54	0x3eebda57	0.46065018
55	0x3fc9c6f3	1.576384
56	0x3ef081ca	0.4697402
57	0x3f9a1a60	1.2039299
58	0x3f49bcb9	0.7880359
59	0xbf85daf3	-1.0457443
60	0x3f15912d	0.58424646
61	0x3ec3d8ca	0.38251334
62	0x3fb51dba	1.4149697
63	0x3fb53ce0	1.4159203

module.Conv6.layers.1.bias f4 [64]
0	0xbfa79d80	-1.309494
1	0xbf039d72	-0.5141212
2	0x3f2f1b94	0.68401456
3	0x3f64f635	0.8943818
4	0x3fbb9a0b	1.4656385
5	0x3f20caa5	0.6280921
6	0x3f507a0f	0.81436247
7	0x3fc9510d	1.572786
8	0x3fee8200	1.8633423
9	0xbf1ae49c	-0.6050508
10	0x3f2046d2	0.62608063
11	0xbf67abe8	-0.90496683
12	0xbf1d2eed	-0.6139973
13	0x3fcaceab	1.584432
14	0x3f2e560b	0.6810004
15	0xbf8762cd	-1.0577027
16	0x4013a865	2.307153
17	0xbfed77f7	-1.8552235
18	0x3f4a2bc2	0.7897302
19	0x3fc2188d	1.5163742
20	0xbfca8be1	-1.5823938
21	0x3f2ae942	0.66762173
22	0xbf8d5eaa	-1.1044514
23	0x3f63f4b4	0.8904526
24	0xbf14b45f	-0.58087724
25	0x3f260be4	0.64861894
26	0x3f597acb	0.8495299
27	0xbf2b58b5	-0.6693223
28	0xbfb3ad2a	-1.403722
29	0xbf9a3147	-1.2046288
30	0x3fb6f46f	1.4293345
31	0x3fe26749	1.768777
32	0x3f7c62aa	0.9858805
33	0x3f272623	0.65292567
34	0xbfa958dc	-1.3230243
35	0x4005930a	2.0870996
36	0x3dc9aee4	0.09847811
37	0x3f34f4c1	0.70685965
38	0xbf4b5da9	-0.7943979
39	0x3fa00297	1.250079
40	0xc03d9749	-2.9623587
41	0xbfa29bf5	-1.2703844
42	0xbf2ad635	-0.66733104
43	0x3ff66e0c	1.9252334
44	0x3f2c10e8	0.67213297
45	0x406486b5	3.5707219
46	0x3f17d213	0.5930492
47	0x3f52efdd	0.8239725
48	0xbf73e8e8	-0.9527726
49	0xbf03ea78	-0.51529646
50	0xbf4b26b2	-0.7935592
51	0x3f575174	0.8410866
52	0x3f9a00ac	1.2031455
53	0x3fa9b9cf	1.3259829
54	0xbf00ff99	-0.5039001
55	0x3f08eca9	0.53486115
56	0xbefeadb4	-0.497419
57	0xc00b1fe0	-2.1738205
58	0xbf9019ce	-1.1257875
59	0x3e30c218	0.17261541
60	0xbf68b25d	-0.9089716
61	0xbf0e8bd1	-0.5568209
62	0x3f8b8bb3	1.0902008
63	0x4060e7b6	3.5141425

module.Conv6.layers.1.running_mean f4 [64]
0	0x432359df	163.35106
1	0xc303b39b	-131.70158
2	0x4313a08a	147.6271
3	0xc3130e27	-147.05528
4	0xc315bbd6	-149.73373
5	0x4327214f	167.13011
6	0x4310b90c	144.72284
7	0x430ceecb	140.93279
8	0x43019956	129.59897
9	0x4243a0e6	48.907127
10	0x433382ab	179.51042
11	0x43061964	134.09918
12	0xc3072a93	-135.1663
13	0xc305a8f2	-133.65994
14	0x432b63ad	171.38936
15	0x431cd55a	156.8334
16	0xc3178738	-151.5282
17	0x43189729	152.59047
18	0xc2bc770c	-94.23251
19	0xc308ece4	-136.92535
20	0x430ff24b	143.94646
21	0x431f0d5e	159.05222
22	0x430df26c	141.94696
23	0xc2ace7c7	-86.45269
24	0xc312214f	-146.13011
25	0x43181a5c	152.10297
26	0x43167eb7	150.49498
27	0xc31fcbf4	-159.79669
28	0x431a1c4d	154.11055
29	0x430e8d8f	142.55296
30	0xc308da82	-136.85355
31	0xc313b1bf	-147.69432
32	0x4305af69	133.6852
33	0x432613d9	166.07753
34	0x42fd1fca	126.56209
35	0xc30e0686	-142.02548
36	0xc3278f4d	-167.55977
37	0x43264d62	166.30228
38	0x431190a8	145.56506
39	0x430a1044	138.06354
40	0x432b2a11	171.16432
41	0x431e1469	158.07973
42	0xc29b6567	-77.69805
43	0xc31cc631	-156.77419
44	0x43243540	164.20801
45	0xc3128169	-146.50551
46	0x43291b25	169.10603
47	0xc2b82d6e	-92.08873
48	0x4309db20	137.85596
49	0xc32f266b	-175.15007
50	0x40568651	3.351948
51	0xc34d584e	-205.34494
52	0xc32fd193	-175.81865
53	0xc3041e59	-132.11855
54	0xc3279f05	-167.62117
55	0x430ebea9	142.74477
56	0xc319030b	-153.01189
57	0x430df333	141.95
58	0x42d3d5c6	105.91753
59	0x4323def7	163.87096
60	0x430f3ca3	143.23686
61	0xc33e8c1c	-190.5473
62	0xc3042637	-132.14928
63	0xc32407de	-164.03073

module.Conv6.layers.1.running_var f4 [64]
0	0x45aea1ee	5588.241
1	0x458f845c	4592.545
2	0x4657756b	13789.3545
3	0x45966571	4812.68
4	0x45933df2	4711.743
5	0x461d0fee	10051.982
6	0x4617821f	9696.53
7	0x458420e1	4228.11
8	0x45774222	3956.1333
9	0x4625a4ef	10601.233
10	0x46442a3b	12554.558
11	0x4572f017	3887.0056
12	0x453caab4	3018.669
13	0x45866440	4300.5312
14	0x4629e1fd	10872.497
15	0x45bf0be8	6113.4883
16	0x45a2f879	5215.059
17	0x45c42acf	6277.351
18	0x4594d35c	4762.42
19	0x4576ea3e	3950.6401
20	0x45900294	4608.3223
21	0x4616647b	9625.12
22	0x4580ec30	4125.5234
23	0x4591d378	4666.4336
24	0x468c406f	17952.217
25	0x465196ed	13413.731
26	0x45a43204	5254.252
27	0x462ce1dd	11064.466
28	0x45abbdad	5495.7095
29	0x45c1cfe4	6201.9863
30	0x45834884	4201.0645
31	0x45c0d995	6171.1978
32	0x45bf2f9c	6117.951
33	0x46001758	8197.836
34	0x4540ac45	3082.7668
35	0x456df68f	3807.41
36	0x4603aea9	8427.665
37	0x4640059e	12289.404
38	0x45b0d1ec	5658.24
39	0x456af4f4	3759.3096
40	0x45fb0370	8032.4297
41	0x45bf46b1	6120.8364
42	0x45e91f6f	7459.929
43	0x46070447	8641.069
44	0x45c8d7c2	6426.9697
45	0x4637d808	11766.008
46	0x461a1416	9861.021
47	0x459fe668	5116.801
48	0x457c0f76	4032.9663
49	0x46050752	8513.83
50	0x44fb56b3	2010.7094
51	0x45f7b451	7926.5396
52	0x45d1933c	6706.4043
53	0x458658db	4299.107
54	0x462f3297	11212.647
55	0x45dbc5d4	7032.7285
56	0x4643865b	12513.589
57	0x45b8cfd3	5913.978
58	0x457d286e	4050.5269
59	0x45fd7c36	8111.5264
60	0x458faa5d	4597.2954
61	0x46449356	12580.834
62	0x4598c071	4888.055
63	0x459ee35f	5084.4214

module.Conv7.layers.1.weight f4 [1, 128, 3, 3]
0	0xbf175984	-0.59120965
1	0xbf192865	-0.5982726
2	0xbf1492d6	-0.58036554
3	0xbf17432c	-0.5908687
4	0xbf165370	-0.58721066
5	0xbf18a650	-0.5962877
6	0xbf30896b	-0.68959683
7	0xbf22a6b2	-0.63535607
8	0xbf256e15	-0.64621097
9	0x3f15f92e	0.58583343
10	0x3f19718c	0.59938884
11	0x3f168e66	0.5881103
12	0x3f182fdd	0.59448034
13	0x3f1533c2	0.582821
14	0x3f166146	0.5874218
15	0x3f1a3dbd	0.60250455
16	0x3f17ba91	0.5926905
17	0x3f133cb3	0.57514495
18	0x3f1a03bc	0.6016195
19	0x3f1e2406	0.6177372
20	0x3f195b53	0.59904975
21	0x3f149c39	0.58050877
22	0x3f1c80ac	0.6113384
23	0x3f169463	0.5882017
24	0x3f1e4762	0.6182767
25	0x3f1d9630	0.6155729
26	0x3f17e754	0.59337354
27	0xbf189fb7	-0.59618706
28	0xbf1cf8d8	-0.61317205
29	0xbf1bd6a7	-0.6087441
30	0xbf1f166d	-0.62143594
31	0xbf18b8b6	-0.59656847
32	0xbf19ae5b	-0.6003167
33	0xbf16edc6	-0.58956563
34	0xbf136798	-0.57579947
35	0xbf19fe6c	-0.6015384
36	0xbf1c3a62	-0.61026585
37	0xbf1f7713	-0.6229107
38	0xbf0dc4c4	-0.55378366
39	0xbf1bebfe	-0.6090697
40	0xbf1da2ea	-0.6157671
41	0xbf144273	-0.57913893
42	0xbf12f652	-0.57407105
43	0xbf1f86da	-0.6231514
44	0xbf197b2a	-0.5995356
45	0x3f1f9cff	0.6234893
46	0x3f20206a	0.6254946
47	0x3f1ffc35	0.6249421
48	0x3f1b6760	0.6070461
49	0x3f204a6b	0.6261355
50	0x3f164da2	0.5871221
51	0x3f1b0e46	0.60568655
52	0x3f12a5b2	0.5728408
53	0x3f1b6aca	0.6070982
54	0x3f1969ad	0.59926873
55	0x3f16bcb6	0.588817
56	0x3f1b7097	0.60718673
57	0x3f1de854	0.6168263
58	0x3f13052b	0.5742976
59	0x3f1d4b05	0.61442596
60	0x3f18be43	0.59665316
61	0x3f1d3696	0.61411417
62	0x3f1215e4	0.5706465
63	0x3f1cad4e	0.6120194
64	0x3f12fc0d	0.5741585
65	0x3f11c5b9	0.56942326
66	0x3f17dfe0	0.5932598
67	0x3f203562	0.62581456
68	0x3f1e8cbe	0.61933506
69	0x3f15a7a0	0.584589
70	0x3f1a88cf	0.60365003
71	0x3f1eb28d	0.61991197
72	0x3f128c20	0.57245064
73	0x3f1afda5	0.6054328
74	0x3f1939d2	0.5985385
75	0x3f1f01ce	0.6211213
76	0x3f13ad0d	0.5768593
77	0x3f1b6fe9	0.60717636
78	0x3f167617	0.5877394
79	0x3f1806c9	0.59385353
80	0x3f1c8932	0.61146843
81	0xbf20bcef	-0.6278829
82	0xbf151d97	-0.58248276
83	0xbf12a204	-0.57278466
84	0xbf196370	-0.59917355
85	0xbf1bdf4a	-0.6088759
86	0xbf16a42b	-0.5884425
87	0xbf1b89fb	-0.60757416
88	0xbf18c900	-0.596817
89	0xbf1aabda	-0.60418475
90	0x3f178405	0.5918582
91	0x3f18211c	0.5942552
92	0x3f133d79	0.57515675
93	0x3f1cbfbb	0.6123006
94	0x3f1b164a	0.60580885
95	0x3f1f6e26	0.6227745
96	0x3f17474a	0.59093153
97	0x3f1b7285	0.6072162
98	0x3f13641e	0.5757464
99	0xbf15cf88	-0.5851979
100	0xbf17b417	-0.5925917
101	0xbf207ca2	-0.62690175
102	0xbf14a6d8	-0.58067083
103	0xbf168cf1	-0.5880881
104	0xbf136291	-0.57572275
105	0xbf16a830	-0.58850384
106	0xbf1e594c	-0.61855006
107	0xbf1924e6	-0.5982193
108	0x3f14dff2	0.58154213
109	0x3f16c625	0.58896095
110	0x3f16f96f	0.58974355
111	0x3f1395e1	0.5765057
112	0x3f143b2f	0.57902807
113	0x3f14f343	0.5818369
114	0x3f1c762a	0.61117804
115	0x3f1857d7	0.5950903
116	0x3f1dd193	0.6164791
117	0xbf159115	-0.584245
118	0xbf1646b4	-0.58701634
119	0xbf168667	-0.5879883
120	0xbf1a2bf5	-0.60223323
121	0xbf1d78e6	-0.615126
122	0xbf1e3863	-0.6180479
123	0xbf181fe8	-0.59423685
124	0xbf1f0cad	-0.62128717
125	0xbf18a4dc	-0.59626555
126	0x3f16b370	0.5886755
127	0x3f19f481	0.6013871
128	0x3f13658c	0.57576823
129	0x3f20016d	0.62502176
130	0x3f162857	0.58655304
131	0x3f1b353f	0.6062812
132	0x3f1812e8	0.5940385
133	0x3f15f189	0.5857168
134	0x3f178025	0.5917991
135	0xbf1e3444	-0.617985
136	0xbf1c8ca0	-0.61152077
137	0xbf1a3eea	-0.6025225
138	0xbf1419d3	-0.57851905
139	0xbf14c744	-0.58116555
140	0xbf1dd736	-0.6165651
141	0xbf1aed2e	-0.6051816
142	0xbf177320	-0.5916004
143	0xbf1354ce	-0.57551277
144	0xbf1030ef	-0.56324667
145	0xbf1b1b76	-0.6058878
146	0xbf16132d	-0.5862301
147	0xbf1d68c8	-0.6148801
148	0xbf1bf196	-0.60915506
149	0xbf2026b9	-0.62559086
150	0xbf0ec8af	-0.5577497
151	0xbf1b087a	-0.6055981
152	0xbf1b0adf	-0.6056346
153	0xbf1597a2	-0.584345
154	0xbf1ab2f5	-0.60429317
155	0xbf171f93	-0.59032553
156	0xbf162892	-0.58655655
157	0xbf1eea92	-0.62076676
158	0xbf1ebc91	-0.6200648
159	0xbf145cb8	-0.5795398
160	0xbf1bbb11	-0.60832316
161	0xbf1f98bb	-0.62342423
162	0xbf1f323d	-0.6218603
163	0xbf1aca43	-0.60464877
164	0xbf1db63b	-0.61606187
165	0xbf115ac7	-0.5677914
166	0xbf1c5777	-0.6107096
167	0xbf17caf6	-0.5929407
168	0xbf1bfc0e	-0.6093148
169	0xbf1de5fa	-0.6167904
170	0xbf1a285d	-0.6021784
171	0xbf1edf41	-0.6205941
172	0xbf194114	-0.59864926
173	0xbf19e71d	-0.60118276
174	0xbf1defca	-0.61694014
175	0xbf211084	-0.62915826
176	0xbf1d6d26	-0.6149467
177	0xbf1411bb	-0.57839555
178	0xbf1d02a4	-0.61332154
179	0xbf112a3a	-0.5670506
180	0xbf1810aa	-0.5940043
181	0xbf20a5b1	-0.62752825
182	0xbf15a625	-0.5845664
183	0xbf154142	-0.583027
184	0xbf131fc8	-0.5747037
185	0xbf21f461	-0.6326352
186	0xbf1bf074	-0.6091378
187	0xbf24d23b	-0.64383286
188	0xbf1c0729	-0.60948426
189	0x3f1a4a58	0.6026969
190	0x3f1ad9dd	0.60488683
191	0x3f1a6958	0.6031699
192	0x3f1bc467	0.6084656
193	0x3f173e5e	0.5907954
194	0x3f1840d0	0.59473896
195	0x3f162a22	0.5865804
196	0x3f2052b9	0.62626225
197	0x3f1ddf27	0.6166863
198	0xbf1b09ad	-0.6056164
199	0xbf15bf40	-0.5849495
200	0xbf1788e8	-0.5919328
201	0xbf167b20	-0.58781624
202	0xbf133582	-0.5750352
203	0xbf1c919f	-0.611597
204	0xbf1513db	-0.5823342
205	0xbf1dc57c	-0.6162946
206	0xbf2043d9	-0.6260353
207	0xbf1c8a92	-0.6114894
208	0xbf1c23c1	-0.60992056
209	0xbf1e8503	-0.6192171
210	0xbf1cad61	-0.61202055
211	0xbf11cdcb	-0.5695464
212	0xbf14428a	-0.5791403
213	0xbf15a7fc	-0.5845945
214	0xbf18be6b	-0.59665555
215	0xbf1d993d	-0.6156195
216	0x3f1a7a91	0.6034327
217	0x3f1431a5	0.5788825
218	0x3f1426a8	0.57871485
219	0x3f18151d	0.59407216
220	0x3f171c6c	0.59027743
221	0x3f1ab4ed	0.6043232
222	0x3f1680b6	0.5879015
223	0x3f133b4b	0.5751235
224	0x3f15a21f	0.584505
225	0x3f18e3e6	0.59722745
226	0x3f16e136	0.58937395
227	0x3f1ce008	0.61279345
228	0x3f1ab186	0.6042713
229	0x3f18c682	0.596779
230	0x3f1b63eb	0.6069934
231	0x3f1e77af	0.6190137
232	0x3f1d67bb	0.61486405
233	0x3f1fc550	0.6241045
234	0x3f1e29ab	0.6178233
235	0x3f184b93	0.5949032
236	0x3f186374	0.59526753
237	0x3f1d85c2	0.61532223
238	0x3f1a32ae	0.6023358
239	0x3f1b734a	0.6072279
240	0x3f16e1cc	0.5893829
241	0x3f18b135	0.59645396
242	0x3f196c19	0.5993057
243	0x3f1af3ea	0.60528433
244	0x3f1d9d01	0.61567694
245	0x3f19a77e	0.600212
246	0x3f15f72c	0.5858028
247	0x3f136d56	0.5758871
248	0x3f1fdef4	0.62449574
249	0x3f166048	0.58740664
250	0x3f17bd03	0.59272784
251	0x3f1afc69	0.605414
252	0xbf205310	-0.62626743
253	0xbf22c814	-0.63586545
254	0xbf16ab25	-0.58854896
255	0xbf1b1617	-0.6058058
