DIDFuse/saved_models/decoder/IR_AE1.pth (torch, 604342 bytes, 13 tensors)

module.Conv5.layers.0.weight f4 [64, 128, 3, 3]
0	0x3f005cfd	0.5014189
1	0x3ef75972	0.4831043
2	0x3ef62c51	0.48080686
3	0x3f05afba	0.5222126
4	0x3f0894e1	0.5335217
5	0x3f022489	0.50837
6	0x3f06e32f	0.52690405
7	0x3ef68701	0.48149875
8	0x3f023b27	0.5087151
9	0x3f030f87	0.5119557
10	0x3ef6f67d	0.4823493
11	0x3f036316	0.5132307
12	0x3efeb807	0.49749777
13	0x3f085556	0.5325521
14	0x3f036ffd	0.51342756
15	0x3ef57855	0.4794337
16	0x3f01c730	0.5069456
17	0x3f0089d2	0.502103
18	0x3f07121e	0.5276202
19	0x3f00534c	0.501271
20	0x3f023b04	0.508713
21	0x3ef6c72d	0.48198834
22	0x3f063def	0.52438253
23	0x3f06574b	0.5247695
24	0x3f00c63e	0.50302494
25	0x3ef7a8f1	0.4837108
26	0x3f043b00	0.51652527
27	0x3efa5b1a	0.4889763
28	0x3f0659f3	0.52481
29	0x3efdb0a0	0.49548817
30	0x3eff63b8	0.49880767
31	0x3efcafa2	0.49352747
32	0x3f007c99	0.5019012
33	0x3f07ef2b	0.53099316
34	0x3f04e658	0.51913977
35	0x3f0319a1	0.5121098
36	0x3f049e04	0.5180361
37	0x3f051bf0	0.51995754
38	0x3f073931	0.5282164
39	0x3efed649	0.49772862
40	0x3ef7349a	0.4828232
41	0x3efd053d	0.4941806
42	0x3f085381	0.53252417
43	0x3ef53a66	0.47896117
44	0x3f0068fc	0.50160193
45	0x3f02e99e	0.5113772
46	0x3f007ade	0.5018748
47	0x3efb5b46	0.49093074
48	0x3f01d997	0.5072264
49	0x3f055a9f	0.520914
50	0x3f08d4e5	0.5344985
51	0x3ef4f315	0.47841707
52	0x3efce4d5	0.49393335
53	0x3f003c4b	0.50092
54	0xbf02afc3	-0.5104944
55	0xbefee12d	-0.4978117
56	0xbf070cb4	-0.5275376
57	0xbefc736f	-0.4930682
58	0xbf046369	-0.5171419
59	0xbef48cb8	-0.4776361
60	0xbf07e840	-0.5308876
61	0xbf0098dc	-0.50233245
62	0xbf0859c2	-0.5326196
63	0x3f07790f	0.52919096
64	0x3f07d956	0.53066003
65	0x3efd6b8e	0.4949612
66	0x3f0395ea	0.51400626
67	0x3f02cef9	0.51097065
68	0x3ef53ec5	0.47899452
69	0x3f0299ea	0.51016104
70	0x3effd5d5	0.49967828
71	0x3f020210	0.507844
72	0xbf044ff9	-0.5168453
73	0xbf05724a	-0.52127516
74	0xbef9d5f5	-0.4879605
75	0xbf08d86a	-0.5345522
76	0xbef989ac	-0.48737848
77	0xbf01379c	-0.5047548
78	0x3f0a0f22	0.5392934
79	0x3f072996	0.5279783
80	0xbf00f0f1	-0.5036765
81	0x3f0863ab	0.5327708
82	0x3ef7d588	0.484051
83	0x3ef56d35	0.4793488
84	0x3f08e58b	0.53475255
85	0x3f03f781	0.51549536
86	0x3f033a3c	0.51260734
87	0x3eff2d2d	0.49839154
88	0x3f01701b	0.50561684
89	0x3ef84fdf	0.48498437
90	0xbefbda1f	-0.4918985
91	0xbef9ab70	-0.4876361
92	0xbefa44b3	-0.48880538
93	0xbf07a424	-0.52984834
94	0xbf00b50d	-0.5027626
95	0xbf05faf1	-0.5233603
96	0xbf08261a	-0.5318314
97	0xbefa1845	-0.4884664
98	0xbf05ed1d	-0.5231493
99	0xbefa0446	-0.48831385
100	0xbef85908	-0.48505425
101	0xbf07dc5a	-0.53070605
102	0xbef9c1e9	-0.48780754
103	0xbf055671	-0.52085024
104	0xbf015f72	-0.50536263
105	0xbef9fc03	-0.48825082
106	0xbef84100	-0.4848709
107	0xbf01a2b8	-0.50638914
108	0xbf010634	-0.5040009
109	0xbf03a5d0	-0.51424885
110	0xbf091b5e	-0.53557384
111	0xbefd7ebf	-0.49510762
112	0xbf03bd10	-0.5146036
113	0xbefa3db5	-0.48875204
114	0xbf069fd3	-0.5258762
115	0xbefdcfb0	-0.49572515
116	0xbefd9492	-0.49527413
117	0x3f04ba67	0.5184693
118	0x3f06a569	0.52596146
119	0x3f01a01a	0.5063492
120	0x3effe760	0.49981213
121	0x3f02a9f2	0.51040566
122	0x3f01ab41	0.5065194
123	0x3f03adbb	0.51436967
124	0x3efbece2	0.49204165
125	0x3f0188b4	0.5059922
126	0xbf065feb	-0.5249011
127	0xbf001258	-0.5002799
128	0xbf05a366	-0.5220245
129	0xbf00e327	-0.50346607
130	0xbf06b215	-0.5261548
131	0xbf038929	-0.51381165
132	0xbefea603	-0.49736032
133	0xbf06c15f	-0.5263881
134	0xbf05a3e6	-0.52203214
135	0xbf0135d9	-0.5047279
136	0xbf08c1da	-0.53420794
137	0xbf00260a	-0.50058043
138	0xbf00b658	-0.50278234
139	0xbeff12fd	-0.49819174
140	0xbf03111a	-0.5119797
141	0xbf02238e	-0.508355
142	0xbef8a260	-0.48561382
143	0xbf0122ea	-0.504439
144	0xbf001925	-0.5003837
145	0xbf00fd65	-0.5038665
146	0xbeff3ea3	-0.49852476
147	0xbf07f210	-0.53103733
148	0xbf054e50	-0.5207262
149	0xbf0850d0	-0.5324831
150	0xbf015e90	-0.50534916
151	0xbf0524d8	-0.52009344
152	0xbef74faa	-0.48302966
153	0x3f068dfb	0.52560395
154	0x3f0751ab	0.5285899
155	0x3f02307c	0.5085523
156	0x3efe7c58	0.49704242
157	0x3f0802e5	0.53129417
158	0x3efba17b	0.49146637
159	0xbf0232a0	-0.508585
160	0xbf089372	-0.53349984
161	0xbef40ab2	-0.4766441
162	0xbeff66e4	-0.49883187
163	0xbefc8b51	-0.4932504
164	0xbf058731	-0.5215941
165	0x3f0a533e	0.5403327
166	0xbf009ea0	-0.5024204
167	0x3f00ac18	0.50262594
168	0x3f0093c3	0.50225466
169	0x3f03346c	0.51251864
170	0x3f05e11d	0.5229662
171	0x3f02c4cc	0.5108154
172	0x3efdfd6d	0.4960741
173	0x3f01fca6	0.50776136
174	0x3f04f980	0.51943207
175	0x3f067e49	0.52536446
176	0x3f04db18	0.5189681
177	0x3f001ae4	0.5004103
178	0x3f08cb03	0.5343477
179	0x3efba779	0.4915121
180	0x3f01839a	0.50591433
181	0x3f06d862	0.52673924
182	0x3f051018	0.5197768
183	0x3efa0a99	0.4883621
184	0x3f0128c4	0.5045283
185	0x3f0444c1	0.5166741
186	0xbef2c89e	-0.47418684
187	0xbf046077	-0.51709694
188	0xbf0136a8	-0.50474024
189	0x3ef99daf	0.48753116
190	0x3effaf06	0.4993822
191	0x3f091cfd	0.5355986
192	0x3ef87384	0.4852563
193	0x3eff75b3	0.49894485
194	0x3f094ab5	0.5362962
195	0x3f05d80c	0.52282786
196	0x3f012f80	0.50463104
197	0x3f018972	0.5060035
198	0x3f061766	0.52379453
199	0x3eff0b99	0.49813536
200	0x3f070f5d	0.5275782
201	0x3f088e44	0.5334208
202	0x3f034e2d	0.5129116
203	0x3ef793f1	0.48355058
204	0x3f08f015	0.53491336
205	0x3ef95bca	0.48702842
206	0x3efa4e76	0.48887986
207	0xbf071f72	-0.52782357
208	0xbeff1f73	-0.4982868
209	0xbf04d26a	-0.51883566
210	0xbf0791a6	-0.52956617
211	0xbf06f723	-0.5272085
212	0xbf05873c	-0.52159476
213	0xbeff4ed5	-0.49864832
214	0xbf06adc0	-0.5260887
215	0xbef68c39	-0.48153856
216	0xbf041af6	-0.5160364
217	0xbefd0e66	-0.49425048
218	0xbef72432	-0.48269802
219	0xbf03aba5	-0.51433784
220	0xbf071411	-0.52764994
221	0xbf0855e1	-0.5325604
222	0xbf03b9a7	-0.5145516
223	0xbefd2cbe	-0.49448198
224	0xbf024152	-0.5088092
225	0xbf02f492	-0.51154435
226	0xbeff9512	-0.4991842
227	0xbf07be98	-0.530252
228	0xbf009a97	-0.50235885
229	0xbefdf589	-0.4960139
230	0xbefdd4dd	-0.49576464
231	0xbf0381f4	-0.5137017
232	0xbf08ab5c	-0.53386474
233	0xbf027e31	-0.509738
234	0x3f072c0a	0.52801573
235	0x3ef84448	0.48489594
236	0x3ef99d0e	0.48752636
237	0x3efdf23e	0.4959888
238	0x3efc0ff7	0.4923093
239	0x3eff8908	0.49909234
240	0x3ef5c435	0.48001257
241	0x3efef74d	0.4979805
242	0x3f0165a2	0.50545704
243	0xbef9e2d2	-0.48805863
244	0xbef8f990	-0.486279
245	0xbf025519	-0.509111
246	0xbef71b21	-0.48262885
247	0xbef7785c	-0.48334014
248	0xbf0768dc	-0.5289438
249	0xbf060bfc	-0.52362037
250	0xbefca80a	-0.49346954
251	0xbf05d18e	-0.5227288
252	0x3f023ac3	0.50870913
253	0x3f029e3d	0.510227
254	0x3f010494	0.5039761
255	0x3f07707b	0.52906007

module.Conv5.layers.0.bias f4 [64]
0	0xbd790726	-0.060797833
1	0xbd226f25	-0.039656777
2	0xbde8c3f6	-0.113655016
3	0x3ccaa0cd	0.024734879
4	0xbc9b9d42	-0.018995885
5	0xbd1d2b0c	-0.03837113
6	0x3db7c1c5	0.089725055
7	0x3ddbd104	0.10733226
8	0xbd5d0f5a	-0.05396972
9	0x3d619a71	0.055078927
10	0x3bd41ec6	0.006473395
11	0x3d3b29ee	0.045694284
12	0xbcfef018	-0.031120345
13	0xbd81bd84	-0.06334975
14	0x3d7b1000	0.061294556
15	0xbdf9f786	-0.122054145
16	0xbc7e1695	-0.015508314
17	0xbb938380	-0.00450176
18	0x3d2cc81d	0.04218303
19	0xbc165c3e	-0.009177266
20	0xbd5c37ba	-0.053764082
21	0x3d9a466e	0.07532965
22	0x3e02b3b4	0.12763864
23	0xbdd5cdee	-0.104396686
24	0xbda4be50	-0.08044112
25	0x3d75db91	0.060023848
26	0xb9ffd3a8	-0.00048795086
27	0xbdc112ad	-0.0942739
28	0xbaf08634	-0.0018350543
29	0x3d998aa4	0.07497147
30	0xbc889ef7	-0.016677363
31	0xbcdc7564	-0.026911445
32	0x3c259d8b	0.010108362
33	0xbc19342b	-0.009350817
34	0xbb935a4e	-0.004496849
35	0xbc7380c6	-0.014862245
36	0x3ba0d5b9	0.00490829
37	0xbd45bdb0	-0.048276603
38	0x3e0d546e	0.13801739
39	0xbcbe214d	-0.023209238
40	0xbd9837cf	-0.0743252
41	0x3be0c36b	0.006859233
42	0x3c0ee95c	0.008722629
43	0x3b7b2ef4	0.0038327547
44	0x3e05fcbc	0.13084692
45	0x3e1239dc	0.14279884
46	0x3d15b128	0.036545902
47	0xbd98e568	-0.07465631
48	0x3e00bd2e	0.12572166
49	0xbd4d63d7	-0.050144043
50	0x3d04f24e	0.032457642
51	0x3c8a477c	0.01687979
52	0x3e1e2320	0.15443087
53	0xbcf5a811	-0.029987367
54	0x3d6e661a	0.05820284
55	0x3d51138f	0.051044043
56	0x3b5b9e85	0.0033511233
57	0x3ca20b26	0.019780707
58	0xbc886242	-0.016648415
59	0xbb7a797f	-0.003821939
60	0x3d3d30d8	0.04618916
61	0xbc4336dd	-0.011914936
62	0x3d70134c	0.058612153
63	0xbdf2ae5a	-0.11849661

module.Conv5.layers.1.weight f4 [64]
0	0x3ef61d52	0.48069245
1	0x3f962dfd	1.1732785
2	0x3fc66a81	1.5501252
3	0x3f54b4bf	0.83088297
4	0x3f4ba433	0.79547423
5	0x3f75eb3c	0.96062064
6	0x3f0c1d53	0.54732245
7	0x3fc89e8c	1.5673385
8	0x3f507fc7	0.8144497
9	0x3f0ba9bd	0.54555875
10	0x3f9d7dea	1.2304051
11	0x3fbd6395	1.4796015
12	0x3fc4a40c	1.5362563
13	0x3fc3ad20	1.5287209
14	0x3f074592	0.5284053
15	0x3f6ac36f	0.9170446
16	0x3fca4972	1.5803664
17	0x3fbda86e	1.4817026
18	0x3f05a4e4	0.5220473
19	0x3fdcb7c9	1.7243587
20	0x3f67c3a2	0.90532887
21	0x3efb4c2d	0.49081555
22	0x3e032aa7	0.1280924
23	0x3fdedff1	1.7412091
24	0x3fbbe854	1.4680276
25	0x3f0e840b	0.5567023
26	0x3f0ff0f1	0.5622702
27	0x3fbb4c8f	1.4632739
28	0x3fa771d2	1.308161
29	0x3f37dd74	0.71822286
30	0x3ff83bb8	1.9393225
31	0x3fad09f8	1.3518667
32	0x3f01e910	0.5074625
33	0x3f0454fd	0.5169218
34	0x3fbf6cdb	1.4955095
35	0x3f019e80	0.50632477
36	0x3fc222ad	1.5166832
37	0x3fc23436	1.5172184
38	0x3f143bed	0.5790394
39	0x3e5dd3d9	0.21662845
40	0x3eb4db3d	0.35323516
41	0x3efe13bd	0.49624434
42	0x3fa10144	1.2578511
43	0x3ee1dedd	0.44115344
44	0x3ee76db5	0.45200887
45	0x3f1382dc	0.5762155
46	0x3f0cd4f2	0.5501243
47	0x3fc1019c	1.5078616
48	0x3d88dbad	0.06682525
49	0x3fc399eb	1.5281347
50	0x3ead3ba3	0.33834562
51	0x3f005c50	0.5014086
52	0x3f1131d1	0.5671664
53	0x3f04d0bd	0.5188101
54	0x3ec80a59	0.39070395
55	0x3f0480d2	0.51759064
56	0x3fc508d7	1.5393323
57	0x3f1ac62f	0.60458654
58	0x3f2fa120	0.6860523
59	0x3f1feb8e	0.624688
60	0x3fe39c99	1.7782165
61	0x3f93b86d	1.1540657
62	0x3f01370f	0.5047464
63	0x3fbc2167	1.4697694

module.Conv5.layers.1.bias f4 [64]
0	0xbf097469	-0.5369325
1	0x3e812b55	0.25228372
2	0x3f05b21d	0.52224904
3	0xbe59afa0	-0.21258402
4	0xbd55f447	-0.052234914
5	0x3f4a4038	0.7900424
6	0xbea8ef16	-0.32994908
7	0x3efc2b1b	0.49251637
8	0xbe8a4043	-0.27002153
9	0xbeca2107	-0.39478323
10	0x3eadf898	0.33978724
11	0x3ed9eaa2	0.42561823
12	0x3f4fc7c3	0.8116419
13	0x3f17cd64	0.59297776
14	0xbeea1b1d	-0.4572381
15	0xbe68aa5c	-0.22721237
16	0x3f3411f3	0.7033989
17	0x3e0df85f	0.13864277
18	0xbef45985	-0.47724548
19	0xbf8caefa	-1.0990899
20	0x3d2523e5	0.040317435
21	0xbeeff6df	-0.46868035
22	0xbf43d74c	-0.7650039
23	0x3f131e8b	0.5746848
24	0x3ede52cf	0.43422553
25	0xbee63bc0	-0.4496746
26	0xbee2aac9	-0.44270924
27	0x3ed675af	0.4188666
28	0x3fa16762	1.2609675
29	0xbeb7b578	-0.35880637
30	0x3e8ee6ca	0.27910453
31	0x3f0b70e2	0.5446912
32	0xbf0035ec	-0.5008228
33	0xbed9a150	-0.42505884
34	0x3ee92d1b	0.45542225
35	0xbf076c27	-0.528994
36	0x3f116ca5	0.56806403
37	0x3d0f7dae	0.035031967
38	0xbec02cf2	-0.3753429
39	0xbf63b4ce	-0.8894776
40	0xbf43e718	-0.76524496
41	0xbeafadf1	-0.34312394
42	0x3e63af8e	0.22234938
43	0xbf2e401a	-0.6806656
44	0xbf0da1b8	-0.5532489
45	0xbedcb1e3	-0.43104467
46	0xbee51dea	-0.44749385
47	0xbf49e653	-0.7886707
48	0x3ec14d61	0.37754348
49	0x3f209cc9	0.62739235
50	0x3ed701d4	0.41993582
51	0xbefe7676	-0.49699754
52	0xbeb78c6a	-0.35849315
53	0x3f3aa2c8	0.72904634
54	0xbf28f9b9	-0.66006047
55	0xbec855cb	-0.39127955
56	0x3f07a6e1	0.5298901
57	0x3d87f2a2	0.066380754
58	0x3f47441d	0.7783831
59	0xbeb03d01	-0.34421542
60	0x3f226899	0.63440853
61	0xbeef7077	-0.4676549
62	0xbeb6d1f3	-0.35707054
63	0x3efe6743	0.49688157

module.Conv5.layers.1.running_mean f4 [64]
0	0xc1e27ee0	-28.31195
1	0xc20f5af2	-35.838814
2	0xc005e8e7	-2.0923402
3	0x40a1565c	5.041792
4	0x4194de14	18.608437
5	0x4195507a	18.664295
6	0x41dc88e2	27.566837
7	0xc12c1dad	-10.757245
8	0x41d97aab	27.184896
9	0xc0a8311b	-5.2559943
10	0xc1d2ca3f	-26.348753
11	0xc1fb14b8	-31.385117
12	0x40562baa	3.346415
13	0xc22bfdf2	-42.997993
14	0xc1f883ec	-31.064415
15	0xc1930a64	-18.380074
16	0xc1f13a59	-30.15349
17	0xc1dd6eb5	-27.679056
18	0x42179cae	37.903008
19	0xc22f1e83	-43.779797
20	0x41c7258e	24.893337
21	0x421d68db	39.352398
22	0xc19b1515	-19.385294
23	0x41c382fa	24.438953
24	0x4165eb49	14.369943
25	0xc1c4a5cc	-24.580956
26	0xc18050f8	-16.039536
27	0x416f3be7	14.952125
28	0x41e48aa2	28.567692
29	0xc11134ab	-9.075358
30	0x41b782b8	22.938828
31	0x4050faa7	3.2652986
32	0x4091842e	4.547385
33	0xc1d076ca	-26.058002
34	0x41a8b742	21.089481
35	0x3fd840b4	1.6894746
36	0xc1fae792	-31.363071
37	0xc22643c9	-41.566196
38	0xc10984b4	-8.594898
39	0x414f8b0b	12.971446
40	0x421bcd27	38.950344
41	0xc1f283e0	-30.314392
42	0x4214e98b	37.22807
43	0xc1ea62a5	-29.298166
44	0x421a46c3	38.569103
45	0xc126e40d	-10.430676
46	0x410e9077	8.91027
47	0xc2017ff4	-32.374954
48	0x418d0d36	17.63145
49	0xc1c5780a	-24.683613
50	0x41957192	18.680454
51	0xc1dc57a0	-27.542786
52	0x421382ae	36.877617
53	0x419890ec	19.070763
54	0x4210d3e0	36.20691
55	0x42581a71	54.02582
56	0xc1e0a451	-28.080233
57	0x421fb6ab	39.928387
58	0x41685ed0	14.523148
59	0xc04d2c2c	-3.205821
60	0x409c99aa	4.893758
61	0x413eff1d	11.9372835
62	0x423086c2	44.1316
63	0x4160c52d	14.048139

module.Conv5.layers.1.running_var f4 [64]
0	0x428ac253	69.37954
1	0x4456c899	859.13434
2	0x42bd9d1f	94.80688
3	0x42b47920	90.23657
4	0x43b673d1	364.90482
5	0x4400e055	515.5052
6	0x438e6f5f	284.8701
7	0x436496de	228.58932
8	0x438a16ad	276.17715
9	0x43422642	194.14944
10	0x44024aed	521.1707
11	0x424f26a8	51.78775
12	0x44c90011	1608.0021
13	0x43b3557c	358.66785
14	0x42998a66	76.77031
15	0x42d1049e	104.50902
16	0x43a1f587	323.91818
17	0x43ef8c88	479.0979
18	0x433844b2	184.26834
19	0x43723489	242.20522
20	0x43bda1a4	379.26282
21	0x430b0706	139.02744
22	0x4435e8c4	727.63696
23	0x440a9e02	554.4689
24	0x43f45c68	488.72192
25	0x420f67bd	35.851307
26	0x42283ab1	42.057316
27	0x4426f17d	667.77325
28	0x434f90b6	207.56528
29	0x4359597b	217.34953
30	0x438ddf25	283.74332
31	0x43aec972	349.5738
32	0x4372561d	242.33638
33	0x423aef49	46.733677
34	0x41edd145	29.727182
35	0x42430af7	48.760708
36	0x42604cf4	56.07515
37	0x43062c99	134.17421
38	0x4384f41c	265.9071
39	0x43c20146	388.00995
40	0x43ad1f2c	346.24353
41	0x42f03da2	120.12038
42	0x4389f021	275.876
43	0x42da558f	109.16711
44	0x436657bf	230.34276
45	0x4375b441	245.70412
46	0x42cf3852	103.61
47	0x42e07d97	112.24529
48	0x42c92a60	100.58276
49	0x42ce8120	103.2522
50	0x42210951	40.259098
51	0x4407d813	543.37616
52	0x42c059e1	96.175545
53	0x4340be26	192.74277
54	0x431ea0d7	158.62828
55	0x4405e0d7	535.5131
56	0x439f6eb8	318.865
57	0x43ab376f	342.43307
58	0x42e31011	113.53138
59	0x4427b988	670.8989
60	0x42e2284c	113.078705
61	0x439a9b2f	309.21237
62	0x43f6f026	493.87616
63	0x42998b25	76.77177

module.Conv6.layers.0.weight f4 [64, 128, 3, 3]
0	0x3eff4eeb	0.49864897
1	0x3f02fca9	0.5116678
2	0x3ef7ac77	0.48373768
3	0x3efe2c98	0.49643397
4	0x3f03bb13	0.5145733
5	0x3f0380e9	0.51368576
6	0x3ef6bf3a	0.4819277
7	0x3f055a6d	0.52091104
8	0x3f09a39d	0.5376528
9	0x3eff2d3c	0.498392
10	0x3efb130a	0.49037963
11	0x3efaf3dc	0.49014175
12	0x3f076022	0.5288106
13	0x3f05a042	0.5219766
14	0x3f06179d	0.5237978
15	0x3ef61e3b	0.4806994
16	0x3ef87a42	0.48530775
17	0x3ef8211d	0.48462763
18	0xbef94141	-0.48682597
19	0xbf04ad44	-0.5182688
20	0xbf07a759	-0.5298973
21	0xbf00b57f	-0.5027694
22	0xbf046e80	-0.5173111
23	0xbef7dada	-0.48409158
24	0xbefa9462	-0.48941332
25	0xbef84de7	-0.48496935
26	0xbf04881b	-0.5177018
27	0x3efb371a	0.49065477
28	0x3f068383	0.5254442
29	0x3f0571b0	0.521266
30	0x3f0235d7	0.50863403
31	0x3ef4d7b1	0.4782081
32	0x3f049d92	0.51802933
33	0x3f02660a	0.5093695
34	0x3f03ae4a	0.5143782
35	0x3ef53c32	0.47897488
36	0x3efbbd7b	0.49168
37	0x3f027d97	0.50972885
38	0x3ef50b6e	0.47860283
39	0x3ef559ed	0.4792017
40	0x3f0262e1	0.5093213
41	0x3efd928a	0.49525863
42	0x3efdc5a0	0.49564838
43	0x3f01ba11	0.5067454
44	0x3ef7f2f0	0.48427534
45	0x3efb5e62	0.49095446
46	0x3f05c8d6	0.52259576
47	0x3f086c13	0.5328991
48	0x3f002ab6	0.5006517
49	0x3f03913e	0.51393497
50	0x3efbcc67	0.49179384
51	0x3f02b96a	0.5106417
52	0x3f05ae7c	0.5221937
53	0x3f084e52	0.5324451
54	0x3f080063	0.5312559
55	0x3f0904ef	0.53523153
56	0x3f04a43a	0.5181309
57	0x3ef640e9	0.48096398
58	0x3f0754ad	0.5286358
59	0x3ef79047	0.48352262
60	0x3f01a180	0.50637054
61	0x3f0248fc	0.50892615
62	0x3f02ec59	0.5114189
63	0xbf02e931	-0.5113707
64	0xbef4741f	-0.47744843
65	0xbf017ebe	-0.5058402
66	0xbf0845df	-0.53231615
67	0xbefb1d25	-0.49045673
68	0xbf03b23c	-0.5144384
69	0xbf065ff9	-0.5249019
70	0xbefa7482	-0.48917013
71	0xbf0727af	-0.5279493
72	0xbefac957	-0.48981735
73	0xbf002dc6	-0.50069845
74	0xbf052253	-0.520055
75	0xbf051881	-0.51990515
76	0xbefd5298	-0.49477077
77	0xbf069bb9	-0.52581364
78	0xbf075da7	-0.5287728
79	0xbf03223f	-0.5122413
80	0xbef60ebc	-0.48058116
81	0x3f008078	0.5019603
82	0x3f072e33	0.5280487
83	0x3f0898d9	0.53358227
84	0x3f008e51	0.5021716
85	0x3efa5111	0.48889974
86	0x3efe5568	0.49674535
87	0x3f03932f	0.5139646
88	0x3ef4d735	0.4782044
89	0x3f032369	0.51225907
90	0x3f092e3c	0.53586173
91	0x3f08f455	0.5349782
92	0x3f0bde4a	0.5463606
93	0x3efa2c75	0.48862043
94	0x3f078754	0.5294087
95	0x3efe9fe9	0.49731377
96	0x3f03a7d9	0.5142799
97	0x3f000824	0.5001242
98	0x3efc37ee	0.4926142
99	0x3f07b523	0.5301077
100	0x3efa91f5	0.4893948
101	0x3f068c19	0.5255752
102	0x3f0357f0	0.51306057
103	0x3efe8feb	0.49719176
104	0x3efd33c7	0.49453565
105	0x3f0127ae	0.5045117
106	0x3f0323af	0.51226324
107	0x3efaa71e	0.48955625
108	0x3effbcb1	0.49948648
109	0x3f03804d	0.51367646
110	0x3f05fdff	0.5234069
111	0x3efc9f7f	0.49340436
112	0x3f03d789	0.51500756
113	0x3efa816e	0.48926872
114	0x3f05456f	0.5205907
115	0x3f086b79	0.5328899
116	0x3f04699c	0.5172365
117	0x3ef51a0c	0.47871435
118	0x3ef721d1	0.48267987
119	0x3f094274	0.53617024
120	0x3f027823	0.50964564
121	0x3eff7cf9	0.49900034
122	0x3ef562c3	0.47926912
123	0x3f070aa1	0.52750593
124	0x3f088c60	0.53339195
125	0x3ef6db26	0.48214072
126	0xbf031cf0	-0.5121603
127	0xbef6573d	-0.48113433
128	0xbf053822	-0.52038777
129	0x3f1f8322	0.6230947
130	0xbf0592eb	-0.52177304
131	0xbf008e2b	-0.5021693
132	0x3f069472	0.5257026
133	0x3f06b6b8	0.52622557
134	0xbf0361ed	-0.513213
135	0xbef7cac3	-0.48396882
136	0xbef90763	-0.48638448
137	0xbef03479	-0.46915033
138	0xbef50a71	-0.4785953
139	0xbeff8572	-0.49906498
140	0xbefe79a5	-0.49702182
141	0xbf024156	-0.50880945
142	0xbf06a142	-0.5258981
143	0xbf02d1dd	-0.51101476
144	0x3f0240ba	0.50880015
145	0x3f047a9a	0.51749575
146	0x3f031268	0.5119996
147	0x3eff1432	0.49820095
148	0x3f073e35	0.52829295
149	0x3ef8607a	0.48511106
150	0x3efb4ddc	0.4908284
151	0x3f021627	0.5081505
152	0x3efec3d1	0.4975877
153	0x3efc92f5	0.4933087
154	0x3f0281a5	0.5097907
155	0x3f05d52a	0.5227839
156	0x3f089467	0.53351444
157	0x3f02e340	0.51128006
158	0x3ef58b8d	0.4795803
159	0x3efe3db2	0.49656445
160	0x3efe9b92	0.49728066
161	0x3f05fb55	0.5233663
162	0x3f031ff1	0.51220614
163	0x3efdffe0	0.4960928
164	0x3efd4541	0.494669
165	0x3f000c8f	0.5001916
166	0x3f007493	0.5017788
167	0x3f01c2fd	0.50688154
168	0x3efe3133	0.4964691
169	0x3efbee2b	0.49205145
170	0x3f0154b6	0.50519884
171	0x3f078262	0.52933323
172	0x3ef99670	0.48747587
173	0x3f0297a5	0.5101264
174	0x3eff6592	0.4988218
175	0x3efd4356	0.49465436
176	0x3f06e7aa	0.5269724
177	0x3f051d62	0.5199796
178	0x3f0042fa	0.501022
179	0x3f051280	0.51981354
180	0xbf05d42f	-0.5227689
181	0xbf07a7bf	-0.52990335
182	0xbef88811	-0.4854131
183	0xbf059429	-0.521792
184	0xbf05e3ee	-0.5230092
185	0xbf06225c	-0.5239618
186	0xbf07acef	-0.5299825
187	0xbefcfda4	-0.49412262
188	0xbefc7373	-0.4930683
189	0x3f03416b	0.51271695
190	0x3ef5565d	0.47917452
191	0x3ef6a046	0.48169154
192	0x3f0613aa	0.52373755
193	0x3f0022b6	0.50052965
194	0x3f02ef4a	0.51146376
195	0x3f08dcfc	0.53462195
196	0x3efb7c3e	0.49118227
197	0x3f06caf2	0.5265342
198	0x3f02bf57	0.5107321
199	0x3f097669	0.53696305
200	0xbef8b6dd	-0.48577014
201	0x3f055736	0.520862
202	0x3f09382f	0.53601354
203	0x3efec91b	0.49762806
204	0x3ef64bae	0.48104614
205	0x3f009540	0.5022774
206	0x3ef93264	0.48671257
207	0xbefdd843	-0.49579057
208	0xbef8d84f	-0.4860253
209	0xbef448f9	-0.47711924
210	0xbf046ce2	-0.5172864
211	0xbf053976	-0.52040803
212	0xbf0767c5	-0.52892715
213	0xbf085536	-0.5325502
214	0xbef50b17	-0.47860023
215	0xbefdd995	-0.49580064
216	0xbefc7409	-0.49307278
217	0xbefbf3da	-0.4920948
218	0xbf091d7a	-0.535606
219	0xbf05a59a	-0.5220581
220	0xbefb3b4f	-0.49068686
221	0xbf05cc58	-0.5226493
222	0xbf029ec5	-0.51023513
223	0xbf069954	-0.5257771
224	0xbf07e151	-0.5307818
225	0xbf0637b6	-0.5242876
226	0xbf086d8f	-0.53292173
227	0xbf026f3e	-0.5095099
228	0xbefee7ca	-0.49786216
229	0xbefbd933	-0.49189147
230	0xbf01380a	-0.50476134
231	0xbf06c12d	-0.5263851
232	0xbef64278	-0.48097587
233	0xbf059d2f	-0.5219297
234	0x3f02ee91	0.51145273
235	0x3f02dae1	0.5111523
236	0x3f08d8eb	0.5345599
237	0x3efd9fd2	0.49535996
238	0x3f04a26b	0.5181033
239	0x3f020215	0.50784427
240	0x3f050b2b	0.51970166
241	0x3f08b13e	0.5339545
242	0x3ef5537e	0.47915262
243	0xbef92103	-0.48657998
244	0xbf010fc6	-0.50414693
245	0xbf068efb	-0.5256192
246	0xbf0548d5	-0.5206426
247	0xbf084908	-0.53236437
248	0xbf01d253	-0.50711554
249	0xbf084aa1	-0.53238875
250	0xbf088921	-0.5333424
251	0xbf016e46	-0.5055889
252	0x3efda8a6	0.4954273
253	0x3efbe32f	0.49196765
254	0x3f027941	0.5096627
255	0x3f09486e	0.53626144

module.Conv6.layers.0.bias f4 [64]
0	0x3d3bd3b2	0.045856185
1	0xbd8ed03b	-0.069733106
2	0xbd0a0aa3	-0.03370155
3	0x3d3646f0	0.044501245
4	0x3c7cff31	0.015441702
5	0xbd81b09e	-0.06332515
6	0x3cd857a3	0.026408976
7	0xbdb02f72	-0.086027995
8	0x3d3b20c9	0.045685563
9	0x3ca4a4ce	0.020098116
10	0xbd57d143	-0.052689802
11	0x3daccad0	0.08437121
12	0xbe91d0ee	-0.28479713
13	0x3c508e11	0.012729184
14	0x3bde954f	0.0067927013
15	0xbdd8f9ae	-0.105944976
16	0xbd70a5e0	-0.05875194
17	0xbde1e678	-0.110302866
18	0xbe005300	-0.12531662
19	0x3dda5c4e	0.10662137
20	0x3de8996d	0.11357389
21	0x3dab9dc5	0.083797015
22	0xbd3c1cff	-0.04592609
23	0xbdd32db3	-0.10311451
24	0x3e2f7d5c	0.17137665
25	0x3e09a71e	0.13442656
26	0x3cbba19d	0.022904212
27	0x3c9a6b57	0.018850012
28	0x3dabf2ce	0.08395921
29	0xbd43a444	-0.047764078
30	0x3d067a45	0.03283145
31	0x3cc24670	0.023715228
32	0x3c63001a	0.013855005
33	0xbc167c57	-0.009184918
34	0x3d4e95a6	0.050435685
35	0x3d3790f4	0.044815972
36	0xbb4b41a4	-0.0031014467
37	0x3dbe1b5d	0.09282563
38	0x3dc9d046	0.09854178
39	0x3e83a28a	0.25709945
40	0x3d198837	0.03748342
41	0xbce02333	-0.027360534
42	0x3d75946b	0.059955996
43	0xbcf1093d	-0.02942335
44	0xbdaa2145	-0.08307127
45	0x3d114f50	0.03547603
46	0xbe2efae6	-0.17087898
47	0x3d6fc170	0.058534086
48	0x3d49450b	0.04913811
49	0x3ca5f9b8	0.020260677
50	0xbc80a509	-0.015703695
51	0xbcb38f0e	-0.0219188
52	0xbd3b4a5c	-0.04572521
53	0xbe084f5b	-0.13311522
54	0x3d280ad2	0.041025944
55	0x3e6b4733	0.22976379
56	0xbd9b59a7	-0.07585459
57	0x3d6dfcdf	0.058102485
58	0x3dd15063	0.10220411
59	0x3d5ae043	0.05343653
60	0x3e4004fa	0.18751898
61	0x3e1a4d52	0.15068558
62	0xbe21a3f9	-0.15785207
63	0xbcaacf82	-0.0208509

module.Conv6.layers.1.weight f4 [64]
0	0x3efc3f09	0.49266842
1	0x3efd54cf	0.49478766
2	0x3fbe4108	1.4863596
3	0x3fbe0062	1.4843867
4	0x3fb77392	1.4332144
5	0x3fbfed46	1.4994285
6	0x3fcf04ae	1.6173303
7	0x3fc2d5ea	1.5221531
8	0x3fc3ae78	1.5287619
9	0x3f1251d8	0.57156134
10	0x3faf66f5	1.3703295
11	0x3efbd8ff	0.49188992
12	0x3eff1978	0.4982412
13	0x3fba63bd	1.4561688
14	0x3fb172b9	1.3863136
15	0x3efe4217	0.49659798
16	0x3fadbe90	1.357378
17	0x3efbfbfa	0.4921568
18	0x3fbf3185	1.4936987
19	0x3fbb0fd5	1.4614207
20	0x3ef78fa9	0.48351792
21	0x3fbff5ba	1.4996865
22	0x3efa241e	0.4885568
23	0x3fbd9fe8	1.4814425
24	0x3efe6153	0.49683627
25	0x3fbfdce5	1.4989287
26	0x3fc1c006	1.5136726
27	0x3f12a52e	0.57283294
28	0x3efd8212	0.49513298
29	0x3f0126ff	0.5045013
30	0x3fbca0e7	1.4736603
31	0x3fb83ad8	1.4392958
32	0x3fb750c5	1.4321524
33	0x3f9bbdfd	1.2167355
34	0x3ef694c4	0.48160374
35	0x3fb8a5d2	1.4425604
36	0x3f0d378c	0.5516288
37	0x3fc000e8	1.5000277
38	0x3efa9e19	0.48948744
39	0x3fc192ee	1.5122964
40	0x3efdadef	0.49546763
41	0x3efd4f43	0.49474534
42	0x3effee81	0.49986652
43	0x3fb8a35f	1.4424857
44	0x3fc212c4	1.5161977
45	0x3ff2fd6f	1.8983592
46	0x3fc0d10d	1.5063797
47	0x3f1525e3	0.58260936
48	0x3efcf296	0.49403828
49	0x3f0451dc	0.5168741
50	0x3f2082e5	0.6269973
51	0x3fbd2aa9	1.4778644
52	0x3fbe094f	1.4846591
53	0x3fba9b60	1.4578667
54	0x3f0810f1	0.5315085
55	0x3fc0d729	1.5065662
56	0x3f0dc688	0.5538106
57	0x3efaab94	0.4895903
58	0x3eff5421	0.49868873
59	0x3f19f5cc	0.6014068
60	0x3efcd988	0.49384713
61	0x3f00d6d2	0.5032779
62	0x3fbec7cd	1.4904724
63	0x3fb80c98	1.4378843

module.Conv6.layers.1.bias f4 [64]
0	0xbee802a4	-0.45314515
1	0xbefc07f8	-0.4922483
2	0x3ee000ed	0.43750706
3	0x3ef69021	0.48156837
4	0x3eeb89db	0.46003613
5	0x3ef0ac93	0.47006664
6	0xbf042bae	-0.5162915
7	0x3e28b994	0.16477042
8	0xbf69d146	-0.9133495
9	0xbe9e4ace	-0.30916446
10	0x3d828dd1	0.063747056
11	0xbefbbd56	-0.4916789
12	0xbeebd685	-0.46062103
13	0x3eec891b	0.46198353
14	0x3d985529	0.07438118
15	0xbef2e986	-0.4744379
16	0x3e9f1582	0.31071097
17	0xbebe3f14	-0.371575
18	0x3efc2600	0.49247742
19	0x3eebd2cd	0.46059266
20	0xbeeec95c	-0.46638
21	0x3ee53988	0.44770455
22	0xbef4cd56	-0.4781291
23	0x3ef1217c	0.4709586
24	0xbefc2ac1	-0.4925137
25	0x3eeb98f9	0.46015146
26	0x3e9c6edb	0.30553326
27	0xbe979180	-0.29603195
28	0xbee6b052	-0.45056397
29	0xbee9cc0e	-0.45663494
30	0x3eeca1d6	0.4621722
31	0x3ed3200c	0.41235387
32	0xbf867776	-1.0505207
33	0xbef1efd7	-0.47253296
34	0xbee4cd62	-0.44687945
35	0x3ed3ee8d	0.41392937
36	0xbea23417	-0.31680366
37	0x3ed50c4b	0.4161094
38	0xbef8300d	-0.4847416
39	0x3e9c76ec	0.3055948
40	0xbe2f882b	-0.17141788
41	0xbecd9f56	-0.40160626
42	0xbf0fe704	-0.56211877
43	0x3ebb299e	0.3655519
44	0x3edd55f9	0.43229654
45	0x3f3615ee	0.7112721
46	0x3ef60b57	0.48055527
47	0xbe62161b	-0.22078745
48	0xbef6f3a8	-0.4823277
49	0xbee0c7e9	-0.4390252
50	0xbed4582b	-0.41473517
51	0x3eebece8	0.46079183
52	0x3eeedd88	0.4665339
53	0x3eeeaa2d	0.4661421
54	0xbedd707a	-0.43249875
55	0x3ef054c5	0.46939674
56	0xbead6992	-0.33869606
57	0xbeb5eaf7	-0.35530826
58	0xbef23877	-0.47308704
59	0xbf29772a	-0.66197455
60	0xbef5beb4	-0.47997057
61	0xbef24eae	-0.47325653
62	0x3ef4923b	0.47767815
63	0x3e0eadb6	0.13933453

module.Conv6.layers.1.running_mean f4 [64]
0	0x420cb5fc	35.17772
1	0xc1cf09e0	-25.879822
2	0x42572a29	53.791172
3	0xc2115cd9	-36.34067
4	0xc201a716	-32.41317
5	0x425cfc14	55.24617
6	0x41c7fa02	24.997074
7	0x41c7c4f4	24.971169
8	0x41b2f3ae	22.368984
9	0x4215c7b8	37.445038
10	0x4257924e	53.892876
11	0x41f3403a	30.40636
12	0xc19e339e	-19.775204
13	0xc1bddfbe	-23.73425
14	0x4235f1cd	45.486134
15	0x41f0d37e	30.103268
16	0xc1f3e6a2	-30.487614
17	0x420c2a4c	35.041306
18	0xc0e55e2f	-7.167747
19	0xc1cf02e4	-25.876411
20	0x41e2d5d5	28.35441
21	0x4242b9e6	48.68154
22	0x41c6a771	24.831758
23	0xc09851f2	-4.760003
24	0xc29c91e9	-78.28498
25	0x4254f0ec	53.235275
26	0x41d652b7	26.790388
27	0xc247542a	-49.83219
28	0x41efa735	29.956644
29	0x42232410	40.785217
30	0xc1b8da0a	-23.106464
31	0xc1f35b17	-30.419477
32	0x41d578e2	26.684025
33	0x422b0213	42.752026
34	0x4190c7e0	18.097595
35	0xc1e20510	-28.252472
36	0xc2221e14	-40.529373
37	0x42454d1a	49.325294
38	0x41e42a62	28.520695
39	0x41c92460	25.142761
40	0x421cc4bf	39.192135
41	0x42348dab	45.138348
42	0xc275368a	-61.30326
43	0xc23b8f13	-46.88972
44	0x41f677a1	30.808413
45	0x419c3ff3	19.531225
46	0x423ea736	47.663292
47	0xc2250b90	-41.26129
48	0x41d6ce3a	26.850697
49	0xc26366a3	-56.85023
50	0x417968eb	15.588115
51	0xc29dd84f	-78.92248
52	0xc2361c61	-45.527714
53	0xc1bc422f	-23.532316
54	0xc22e7e6b	-43.623455
55	0x41de81f9	27.813463
56	0xc265e678	-57.475067
57	0x4205e9b7	33.478237
58	0x41a7e6c2	20.987675
59	0x421e837e	39.62841
60	0x41bfcf5c	23.97625
61	0xc26744c7	-57.817165
62	0xc1dea519	-27.830614
63	0xc2187f28	-38.124176

module.Conv6.layers.1.running_var f4 [64]
0	0x4586f5b3	4318.7124
1	0x45482bf2	3202.7466
2	0x459fc5d3	5112.728
3	0x4578fd34	3983.8252
4	0x456ea1f0	3818.121
5	0x4587256e	4324.6787
6	0x455a85a6	3496.353
7	0x45367806	2919.5015
8	0x453277ae	2855.48
9	0x454e31c5	3299.1106
10	0x45b902b2	5920.337
11	0x4570b224	3851.1338
12	0x4501ab03	2074.6882
13	0x454bb3b3	3259.2312
14	0x45b15dab	5675.7085
15	0x458de43f	4540.531
16	0x457f4af0	4084.6836
17	0x458807ad	4352.9595
18	0x44ffc4f5	2046.1549
19	0x453951a7	2965.1033
20	0x456ee16a	3822.0884
21	0x45835d98	4203.699
22	0x454d4026	3284.0093
23	0x450a48d8	2212.5527
24	0x45c2d634	6234.7754
25	0x45aecf52	5593.915
26	0x4540eb16	3086.6929
27	0x45b7f47e	5886.5615
28	0x4581a530	4148.6484
29	0x4595563b	4778.779
30	0x453fac9f	3066.7888
31	0x45950f2f	4769.898
32	0x45560c0d	3424.7532
33	0x459c5bd3	5003.478
34	0x451761b5	2422.1067
35	0x453da476	3034.2788
36	0x458d0d01	4513.6255
37	0x45a243c2	5192.4697
38	0x457996fb	3993.4363
39	0x452a05b7	2720.3572
40	0x459f0bd7	5089.48
41	0x456f624e	3830.144
42	0x44ffd60e	2046.6892
43	0x459e1eeb	5059.8647
44	0x4547bb2a	3195.6978
45	0x43fedfe8	509.74927
46	0x458da451	4532.5396
47	0x448f69b1	1147.3029
48	0x456e1805	3809.5012
49	0x4571a118	3866.0684
50	0x432f997e	175.59958
51	0x459d1ac5	5027.346
52	0x45b09de3	5651.736
53	0x4567700b	3703.0027
54	0x4596b48b	4822.568
55	0x456a10f6	3745.06
56	0x45a2cba7	5209.4565
57	0x4591ddec	4667.74
58	0x456eee88	3822.9082
59	0x45a2d0e2	5210.1104
60	0x4542f36c	3119.2139
61	0x4593983b	4723.029
62	0x45a61f96	5315.948
63	0x4576913f	3945.078

module.Conv7.layers.1.weight f4 [1, 128, 3, 3]
0	0xbefc8109	-0.49317196
1	0xbf0089c3	-0.5021021
2	0xbef6c145	-0.48194328
3	0xbefceb75	-0.4939839
4	0xbefc5c2f	-0.4928908
5	0xbeff9da9	-0.49924973
6	0xbf0aab89	-0.5416799
7	0xbf0164df	-0.5054454
8	0xbf04f981	-0.5194321
9	0x3efbcd0c	0.49179876
10	0x3f0181dc	0.50588775
11	0x3efcf246	0.4940359
12	0x3f005700	0.5013275
13	0x3efb13f4	0.4903866
14	0x3efd226a	0.49440318
15	0x3f022946	0.5084423
16	0x3eff98f5	0.49921384
17	0x3ef65cb8	0.48117614
18	0x3f02b785	0.5106128
19	0x3f067de0	0.5253582
20	0x3f01fc39	0.50775486
21	0x3ef9fb68	0.4882462
22	0x3f0479d6	0.51748407
23	0x3efd9e7c	0.49534976
24	0x3f073420	0.5281391
25	0x3f062850	0.5240526
26	0x3f00a709	0.50254875
27	0xbf027c6b	-0.50971097
28	0xbf0663dc	-0.52496123
29	0xbf05b67e	-0.52231586
30	0xbf084abc	-0.53239036
31	0xbf013b92	-0.5048152
32	0xbf02c51b	-0.5108201
33	0xbf01793b	-0.5057561
34	0xbefa859c	-0.4893006
35	0xbf043d66	-0.51656187
36	0xbf0689f0	-0.52554226
37	0xbf0746b2	-0.5284225
38	0xbef9538b	-0.4869655
39	0xbf0348fe	-0.5128325
40	0xbf020955	-0.5079549
41	0xbef28913	-0.47370204
42	0xbef97a1e	-0.4872598
43	0xbf082f5c	-0.53197265
44	0xbf038dc4	-0.5138819
45	0x3f084eb0	0.5324507
46	0x3f08715e	0.53297985
47	0x3f08aef9	0.5339199
48	0x3f03a69a	0.5142609
49	0x3f0813d1	0.5315524
50	0x3efce1b7	0.49390957
51	0x3f03eb5f	0.5153102
52	0x3ef63d69	0.48093727
53	0x3f041e63	0.51608866
54	0x3f028527	0.50984424
55	0x3efefef7	0.49803898
56	0x3f049db5	0.5180314
57	0x3f0681f0	0.5254202
58	0x3ef66602	0.481247
59	0x3f05e4cc	0.5230224
60	0x3f01fb4e	0.50774086
61	0x3f061023	0.5236837
62	0x3ef680e6	0.48145217
63	0x3f06422d	0.52444726
64	0x3ef85f5a	0.48510247
65	0x3ef6cdaf	0.482038
66	0x3f00baac	0.5028484
67	0x3f08a4a6	0.53376234
68	0x3f077284	0.5290911
69	0x3efe3e30	0.4965682
70	0x3f03a7f4	0.5142815
71	0x3f083477	0.53205055
72	0x3ef9910b	0.48743472
73	0x3f047757	0.517446
74	0x3f038093	0.51368064
75	0x3f086c78	0.5329051
76	0x3ef87644	0.4852773
77	0x3f04cf4f	0.5187883
78	0x3f01bdb0	0.50680065
79	0x3f022693	0.5084011
80	0x3f077b56	0.5292257
81	0xbf096b09	-0.5367895
82	0xbefc262a	-0.49247867
83	0xbef68f4e	-0.48156208
84	0xbf024225	-0.5088218
85	0xbf050efe	-0.51976
86	0xbefef5e5	-0.49796978
87	0xbf038fbe	-0.5139121
88	0xbf0134c4	-0.5047114
89	0xbf0302ac	-0.5117595
90	0x3f00aa67	0.50260013
91	0x3f00fa53	0.50381964
92	0x3ef91890	0.48651552
93	0x3f056cd5	0.5211919
94	0x3f032d94	0.5124142
95	0x3f080229	0.53128296
96	0x3f00cc91	0.50312144
97	0x3f0480d6	0.5175909
98	0x3ef96ffc	0.4871825
99	0xbefaa2e3	-0.48952398
100	0xbefeaf90	-0.4974332
101	0xbf080b8c	-0.5314262
102	0xbef88be2	-0.48544222
103	0xbefc9822	-0.49334818
104	0xbef62183	-0.48072442
105	0xbefc2606	-0.4924776
106	0xbf05e7e4	-0.5230696
107	0xbf00a07d	-0.50244886
108	0x3ef97ecb	0.48729548
109	0x3efd92c7	0.49526045
110	0x3efdbd11	0.4955831
111	0x3ef74be1	0.4830008
112	0x3ef8e6df	0.4861364
113	0x3efa1aca	0.48848563
114	0x3f04495b	0.5167443
115	0x3f0054b8	0.5012927
116	0x3f05b96d	0.5223606
117	0xbefe3e62	-0.4965697
118	0xbefdac17	-0.49545357
119	0xbf00a1b3	-0.50246733
120	0xbf0206ec	-0.5079181
121	0xbf039e6a	-0.51413596
122	0xbf062390	-0.52398014
123	0xbf02c464	-0.5108092
124	0xbf080220	-0.5312824
125	0xbf02c4c3	-0.51081485
126	0x3f001e16	0.5004591
127	0x3f02fcca	0.51166975
128	0x3efa811d	0.4892663
129	0x3f0900e7	0.53517
130	0x3efcce62	0.49376208
131	0x3f048725	0.51768714
132	0x3f0261d2	0.5093051
133	0x3eff56d3	0.4987093
134	0x3f03a0e6	0.51417387
135	0xbf0530e5	-0.5202773
136	0xbf0408db	-0.5157601
137	0xbf011bd5	-0.50433093
138	0xbef7a127	-0.48365137
139	0xbef9f636	-0.48820657
140	0xbf05983f	-0.52185434
141	0xbf022af9	-0.5084682
142	0xbefe311a	-0.49646837
143	0xbef55879	-0.47919062
144	0xbef459cc	-0.4772476
145	0xbf031669	-0.5120607
146	0xbefff4b5	-0.49991384
147	0xbf02c457	-0.5108084
148	0xbefa3b40	-0.4887333
149	0xbf073c1c	-0.52826095
150	0xbef6d9b3	-0.48212966
151	0xbf03633a	-0.5132328
152	0xbf0500db	-0.5195443
153	0xbefa05f2	-0.4883266
154	0xbf0293b1	-0.5100661
155	0xbefd35b1	-0.49455026
156	0xbefbe389	-0.49197033
157	0xbf074cc8	-0.52851534
158	0xbf06bfee	-0.5263661
159	0xbef5fd87	-0.4804499
160	0xbf02a2d5	-0.5102971
161	0xbf053783	-0.5203783
162	0xbf08f0eb	-0.5349261
163	0xbf044689	-0.5167013
164	0xbf07c2bc	-0.53031516
165	0xbef52baa	-0.47884876
166	0xbf05387d	-0.5203932
167	0xbf013728	-0.50474787
168	0xbf062e09	-0.52413994
169	0xbf07d819	-0.53064114
170	0xbf048212	-0.5176097
171	0xbf078c38	-0.5294833
172	0xbf00bb98	-0.50286245
173	0xbf027d0d	-0.5097206
174	0xbf050b09	-0.51969963
175	0xbf06b315	-0.5261701
176	0xbf04315b	-0.5163781
177	0xbefb92b6	-0.4913537
178	0xbf0539bb	-0.52041215
179	0xbef40329	-0.4765866
180	0xbefcc551	-0.4936929
181	0xbf07c7b3	-0.5303909
182	0xbef7bb4e	-0.4838509
183	0xbef7d19a	-0.484021
184	0xbef50f88	-0.47863412
185	0xbf087fe6	-0.5332016
186	0xbefd28a4	-0.4944507
187	0xbf069399	-0.52568966
188	0xbef92127	-0.48658106
189	0x3f02fd06	0.51167333
190	0x3f033f10	0.512681
191	0x3f031f0c	0.5121925
192	0x3f041d43	0.5160715
193	0x3efe6bf8	0.4969175
194	0x3f008683	0.5020525
195	0x3efe140c	0.4962467
196	0x3f08d56c	0.53450656
197	0x3f0693bb	0.5256917
198	0xbf015b97	-0.5053038
199	0xbefa0da6	-0.48838538
200	0xbefcf883	-0.4940835
201	0xbefbffd8	-0.4921863
202	0xbef6258f	-0.4807553
203	0xbf04063d	-0.5157202
204	0xbef8741b	-0.4852608
205	0xbf052982	-0.5201646
206	0xbf07217f	-0.52785486
207	0xbf066ecc	-0.5251281
208	0xbf05b3b2	-0.5222732
209	0xbf0883e9	-0.5332628
210	0xbf060918	-0.52357626
211	0xbef5771d	-0.4794244
212	0xbefb4e62	-0.4908324
213	0xbeffc2ca	-0.499533
214	0xbf029b21	-0.5101796
215	0xbf07cbc1	-0.5304528
216	0x3f029815	0.5101331
217	0x3ef8c8c8	0.48590684
218	0x3ef8957d	0.4855155
219	0x3f004c01	0.5011597
220	0x3efedf81	0.49779895
221	0x3f02f834	0.5115998
222	0x3efd2d7d	0.49448767
223	0x3ef6d804	0.48211682
224	0x3efb8efe	0.49132532
225	0x3f017015	0.5056165
226	0x3efe5245	0.49672142
227	0x3f054bf3	0.52069014
228	0x3f0303e4	0.5117781
229	0x3f00c3ca	0.5029875
230	0x3f038502	0.5137483
231	0x3f072c05	0.52801543
232	0x3f05c8d6	0.52259576
233	0x3f084250	0.53226185
234	0x3f071f3d	0.5278204
235	0x3f00f42d	0.5037258
236	0x3f0175ce	0.5057038
237	0x3f0600a3	0.5234472
238	0x3f024d26	0.5089897
239	0x3f03eda5	0.5153449
240	0x3effa356	0.49929303
241	0x3f014c13	0.50506705
242	0x3f024f0c	0.50901866
243	0x3f02fcca	0.51166975
244	0x3f0620fe	0.5239409
245	0x3f01cbf8	0.50701857
246	0x3efcfaa5	0.49409977
247	0x3ef8a84b	0.48565897
248	0x3f087d68	0.53316355
249	0x3efcaa73	0.49348792
250	0x3f000219	0.500032
251	0x3f03160c	0.51205516
252	0xbf042261	-0.5161496
253	0xbf078aee	-0.52946365
254	0xbef869e7	-0.48518297
255	0xbf02b0e6	-0.51051176
