DIDFuse/saved_models/decoder/IR_AE14.pth (torch, 604881 bytes, 13 tensors)

module.Conv5.layers.0.weight f4 [64, 128, 3, 3]
000000 30 80 18 3f fb 67 13 3f 11 0d 13 3f f3 b2 1d 3f
       0.595706 0.57580537 0.5744181 0.6160118
000010 0c 61 20 3f 95 16 1a 3f 1f fc 1e 3f 28 39 13 3f
       0.6264808 0.6019071 0.62103456 0.5750909
000020 cd 4f 1a 3f 24 ae 1a 3f f0 f6 12 3f 5b eb 1a 3f
       0.60278016 0.6042197 0.57408047 0.60515374
000030 23 ed 16 3f 14 c5 1f 3f c2 ee 1a 3f 9a 4e 12 3f
       0.5895559 0.6241009 0.60520566 0.57151186
000040 78 39 19 3f be 11 18 3f cd 65 1e 3f 3a e7 17 3f
       0.59853315 0.5940207 0.61874086 0.593372
000050 ac 8a 19 3f 43 d2 12 3f 31 d9 1d 3f 63 dd 1d 3f
       0.5997722 0.57352084 0.6165953 0.61665934
000060 1c 06 18 3f c3 45 13 3f 28 a1 1b 3f 00 48 14 3f
       0.5938432 0.5752832 0.6079278 0.57922363
000070 30 0b 1d 3f c5 9f 15 3f 85 29 17 3f 8b ac 15 3f
       0.61345196 0.58446914 0.5904773 0.58466405
000080 4f df 17 3f 88 83 1f 3f a8 59 1c 3f cd 90 1a 3f
       0.59325117 0.62310076 0.61074305 0.603772
000090 31 dc 1b 3f 20 c6 1b 3f 8b 1a 1e 3f 12 9d 16 3f
       0.6088286 0.6084919 0.6175925 0.5883342
0000a0 16 52 12 3f 9c a5 15 3f d0 bb 1f 3f 28 d5 11 3f
       0.57156503 0.58455825 0.62395954 0.56965876
0000b0 0c d7 17 3f 5b 02 1b 3f c6 0e 18 3f 97 f9 14 3f
       0.5931251 0.6055047 0.5939754 0.58193344
0000c0 92 e5 19 3f b3 1e 1d 3f 0b 9b 20 3f 33 8f 12 3f
       0.6011592 0.6137497 0.62736577 0.57249755
0000d0 78 5f 16 3f 73 38 18 3f a8 e7 19 bf 2c 5e 16 bf
       0.58739424 0.59461135 -0.60119104 -0.58737445
0000e0 d2 e1 1d bf 5f 49 15 bf 18 3b 1b bf 77 12 11 bf
       -0.616727 -0.5831508 -0.60637045 -0.566688
0000f0 08 31 1f bf 04 ba 17 bf 99 79 1f bf a4 d8 1f 3f
       -0.6218419 -0.5926821 -0.6229492 0.6243994
000100 ea fd 20 3f b8 de 17 3f ac b9 1b 3f 6a 68 1b 3f
       0.6288744 0.59324217 0.6083019 0.607062
000110 d4 1c 13 3f 52 73 1a 3f bb 1a 18 3f 90 17 1a 3f
       0.57465863 0.60332215 0.5941579 0.60192204
000120 2a e1 1a bf f5 d8 1b bf 24 78 13 bf 78 45 1e bf
       -0.60499823 -0.60877925 -0.57605195 -0.6182475
000130 66 1b 11 bf 48 fd 15 bf 0a e8 46 3f 93 c3 45 3f
       -0.5668243 -0.585896 0.77697814 0.7725155
000140 26 c4 07 bf 0b d7 1f 3f 41 47 13 3f 8c 28 12 3f
       -0.53033674 0.62437505 0.575306 0.5709312
000150 d1 34 20 3f 33 1a 1b 3f 78 7e 1a 3f f8 c8 15 3f
       0.6258059 0.6058685 0.60349226 0.5850978
000160 94 2a 16 3f c6 24 12 3f 74 c8 17 bf 88 c6 17 bf
       0.5865872 0.5708736 -0.5929024 -0.5928731
000170 83 99 1b bf f7 f8 20 bf da be 1a bf 7c 2d 21 bf
       -0.60781115 -0.6287989 -0.60447466 -0.6296003
000180 84 d6 22 bf 4d e5 1a bf ae 28 2a bf 2c 73 14 bf
       -0.63608575 -0.60506135 -0.6646832 -0.5798824
000190 4e 8d 13 bf 3a 48 1f bf 6d 3e 14 bf e9 9f 1c bf
       -0.5763749 -0.62219584 -0.57907754 -0.61181504
0001a0 07 b8 18 bf 1a 04 14 bf db 0b 13 bf cd b7 18 bf
       -0.59655803 -0.5781876 -0.57439965 -0.5965546
0001b0 e0 30 18 bf bd f5 1b bf 6d ee 1f bf 8a e1 15 bf
       -0.5944958 -0.6092184 -0.62473184 -0.5854727
0001c0 f6 30 1c bf 81 0b 14 bf 7c 98 1d bf 81 3d 16 bf
       -0.6101221 -0.57830054 -0.615608 -0.586876
0001d0 fa 05 16 bf 3b 22 1c 3f 98 ea 1d 3f aa e9 18 3f
       -0.5860287 0.6098973 0.61686087 0.59731543
0001e0 6b 52 17 3f a0 e0 19 3f 57 f2 18 3f fb 02 1b 3f
       0.59110135 0.60108376 0.5974478 0.6055142
0001f0 11 26 15 3f 1a d8 18 3f fb f9 1d bf 8b 72 17 bf
       0.5826121 0.59704745 -0.61709565 -0.59159154
000200 ec 26 1d bf fc 60 18 bf 29 db 1d bf ee db 1a bf
       -0.61387515 -0.59522986 -0.61662537 -0.60491836
000210 69 cd 16 bf 58 cc 1d bf 74 f0 1c bf 54 03 18 bf
       -0.5890718 -0.6163993 -0.613044 -0.5938008
000220 e2 69 1f bf 11 eb 16 bf c5 ce 16 bf 8b 11 15 bf
       -0.6227094 -0.5895243 -0.58909255 -0.58229893
000230 99 a2 18 bf df 55 19 bf 99 31 13 bf 6e 27 18 bf
       -0.59623104 -0.59896654 -0.57497555 -0.59435165
000240 3a f4 17 bf a6 e2 18 bf 88 77 17 bf 37 fc 1f bf
       -0.59357035 -0.5972084 -0.59166765 -0.62494224
000250 d8 67 1d bf bc 55 20 bf 09 92 19 bf 37 6d 1d bf
       -0.6148658 -0.6263082 -0.59988457 -0.61494774
000260 b6 d8 13 bf ae 0a 1f 3f ab 30 20 3f 10 f3 1a 3f
       -0.5775255 0.6212567 0.6257426 0.60527134
000270 da a9 17 3f eb 48 21 3f f2 ef 16 3f a8 c6 18 bf
       0.5924355 0.6300189 0.5895988 -0.59678125
000280 cd 03 1f bf e3 98 0e bf 00 9d 17 bf a9 d6 15 bf
       -0.62115175 -0.55702037 -0.5922394 -0.5853067
000290 96 2d 1d bf e0 67 1d 3f f5 f5 15 bf 35 06 19 3f
       -0.61397684 0.61486626 -0.58578426 0.59775096
0002a0 35 17 17 3f 42 78 1a 3f 1d 19 1d 3f 08 50 1a 3f
       0.59019786 0.6033975 0.61366445 0.6027837
0002b0 ad 8a 16 3f d7 7e 19 3f 22 85 1c 3f c1 10 1e 3f
       0.5880535 0.5995917 0.61140645 0.61744314
0002c0 33 62 1c 3f c6 6b 17 3f 4f 29 20 3f 8d 1d 15 3f
       0.6108734 0.59148824 0.6256303 0.58248216
0002d0 27 1d 19 3f 4f 7f 1e 3f 3f 8c 1c 3f a5 7d 14 3f
       0.5981011 0.6191301 0.611515 0.5800422
0002e0 a5 d6 18 3f cd 9c 1b 3f 90 81 12 bf f9 11 1d bf
       0.5970252 0.60786134 -0.57228947 -0.6135555
0002f0 63 10 1a bf 18 72 14 3f a8 71 17 3f 14 b3 20 3f
       -0.60181254 0.57986593 0.591578 0.6277325
000300 47 cd 13 3f 8f 3e 17 3f c7 d2 20 3f a3 2b 1d 3f
       0.57735103 0.5907983 0.6282162 0.6139471
000310 bf 73 18 3f 19 ed 18 3f 51 54 1e 3f 30 e8 17 3f
       0.59551615 0.5973678 0.61847407 0.59338665
000320 0a 7b 1f 3f 34 d0 20 3f 28 ba 1b 3f f9 39 14 3f
       0.6229712 0.6281769 0.60830927 0.5790096
000330 c7 3a 21 3f 6b 1e 15 3f 77 8f 15 3f e9 0a 1f bf
       0.6298031 0.5824954 0.58422035 -0.6212602
000340 6e ca 17 bf 7d e6 1c bf 77 c6 1f bf 20 1a 20 bf
       -0.5929326 -0.612892 -0.6241221 -0.62539864
000350 b9 0a 1e bf 1e f9 34 bf a3 51 23 bf a6 0b 14 bf
       -0.6173511 -0.7069262 -0.6379644 -0.57830274
000360 f0 aa 1b bf 3f 3a 16 bf ae 18 13 bf 32 44 1b bf
       -0.60807705 -0.58682626 -0.57459533 -0.6065093
000370 5b d0 1e bf c6 e4 1f bf e4 34 1b bf d5 2d 16 bf
       -0.62036675 -0.62458456 -0.6062758 -0.58663684
000380 b2 a7 19 bf 60 65 1a bf e7 86 16 bf 0f 1f 1e bf
       -0.6002151 -0.60310936 -0.58799595 -0.6176614
000390 e0 3b 18 bf ca 56 16 bf 4e 44 16 bf b4 5f 1b bf
       -0.5946636 -0.5872618 -0.58697975 -0.60692906
0003a0 37 4c 20 bf d5 29 1a bf 98 bd 1e 3f 68 3d 14 3f
       -0.62616295 -0.6022008 0.6200805 0.579062
0003b0 a1 89 14 3f fb bd 16 3f 68 06 16 3f b6 9a 17 3f
       0.58022505 0.5888364 0.58603525 0.59220445
0003c0 87 9b 12 3f c4 55 17 3f 5a 29 19 3f 55 e5 14 bf
       0.57268566 0.5911524 0.5982872 -0.5816243
0003d0 3e 6b 14 bf 92 45 1a bf 56 82 13 bf 4a ac 13 bf
       -0.5797614 -0.60262406 -0.5762075 -0.5768477
0003e0 b6 5b 1f bf 24 25 1e bf 19 70 16 bf a5 f6 1d bf
       -0.62249315 -0.6177542 -0.587648 -0.61704475
0003f0 8e 2c 1c 3f 02 bf 1c 3f 88 19 1b 3f c2 01 21 3f
       0.61005485 0.61228955 0.6058583 0.6289331

module.Conv5.layers.0.bias f4 [64]
000000 8c 90 7d bd a1 54 1f bd d6 53 f9 bd ce 6b bb 3c
       -0.06190543 -0.038899068 -0.121741936 0.022878554
000010 0d aa c6 bc 61 07 51 bd ab 80 c4 3d 3e 26 e9 3d
       -0.024251008 -0.051032428 0.09594854 0.11384247
000020 5f bf 68 bd 71 67 70 3d e1 13 9a 3b 32 81 4f 3d
       -0.05682313 0.0586924 0.004702077 0.05066032
000030 ab e8 0c bd 88 5b 9b bd a5 77 84 3d 84 d4 06 be
       -0.034401577 -0.075858176 0.06468133 -0.13167006
000040 b7 7a 70 bd 15 fa 3a bb 6b e3 3b 3d 27 a0 59 bc
       -0.05871078 -0.0028530408 0.04587118 -0.013282812
000050 d0 da 63 bd 99 c6 a8 3d 05 38 0a 3e f1 88 e0 bd
       -0.055628598 0.082410045 0.13497932 -0.109636195
000060 76 77 b2 bd 85 e8 84 3d 9d 30 ae ba 59 12 d0 bd
       -0.087141916 0.06489662 -0.0013289634 -0.101597495
000070 a9 b7 df ba cf 99 a3 3d 15 b2 a5 bc 46 f6 f5 bc
       -0.0017068285 0.07988321 -0.020226518 -0.030024659
000080 59 c3 17 3c 07 91 34 bc d4 83 53 bc 62 fe 8c bc
       0.009262883 -0.011020905 -0.012909848 -0.017211143
000090 0e eb 4d 3c 7d 17 48 bd 4c fb 1c 3e d4 e2 c1 bc
       0.012568248 -0.048850525 0.15330237 -0.02366773
0000a0 5e 6e a7 bd 46 58 00 3c 8e fd fd 3b 82 c9 35 3b
       -0.08175348 0.007833546 0.0077511733 0.0027738516
0000b0 34 4b 13 3e 64 ac 1d 3e 8d c4 19 3d d1 a0 8b bd
       0.14384156 0.15397793 0.03754096 -0.06817783
0000c0 ee ec 08 3e bd f8 5d bd 02 61 17 3d d4 53 94 3c
       0.13371632 -0.054192293 0.03695775 0.018106379
0000d0 e7 2a 29 3e ec ac 12 bd 9b 28 86 3d c9 0e 5a 3d
       0.16520272 -0.035809442 0.06550714 0.053236756
0000e0 a9 a7 ea b8 fc 44 86 3c 3a 01 a0 bc a3 2e 25 bb
       -0.00011189219 0.016390316 -0.019531835 -0.00252048
0000f0 70 50 35 3d 1e 31 38 bc 60 2f 7e 3d 72 6d fc bd
       0.044266164 -0.011242179 0.0620569 -0.123255625

module.Conv5.layers.1.weight f4 [64]
000000 52 0a 0c 3f 6f 2c 8c 3e 98 26 a4 3f 35 14 a3 3f
       0.5470325 0.2737765 1.2824278 1.2740542
000010 80 bb 22 3f e9 bc c0 3f fe e2 d4 3e 6e d2 b0 3f
       0.6356735 1.5057651 0.4157943 1.3814218
000020 df f3 d9 3f 06 3f 83 bd fc 06 6e 3f ed 09 d1 3f
       1.7027549 -0.06408505 0.9297941 1.6331154
000030 39 27 fc 3f a2 7a 0d 40 46 13 a4 3f d0 4e 9e 3f
       1.969947 2.21061 1.2818382 1.2367802
000040 bd d8 2b 40 c3 05 2e 40 f1 b2 d9 3e 4f 2e 35 40
       2.6851037 2.7191017 0.42519334 2.8309515
000050 7b 24 4f bd ac 9e 66 3e a3 fd 75 3d 0e d6 0a 40
       -0.0505719 0.22521466 0.06005634 2.1693149
000060 3e 3d 9b 3f 3f 78 2d 3f 1d 50 a4 3f e4 79 a0 3f
       1.2128065 0.67761606 1.2836949 1.2537198
000070 55 2e b9 3f b4 19 9b 3f 2d d5 3a 40 69 80 eb 3f
       1.4467264 1.2117219 2.9192612 1.8398563
000080 8e 40 21 3e 5b bf 50 3f 93 b0 0e 40 74 a2 46 bf
       0.15747282 0.81541985 2.2295272 -0.77591634
000090 74 2d de 3f fe 4b a1 3f 76 78 52 3f 45 8a aa 3e
       1.7357621 1.2601316 0.8221506 0.33308616
0000a0 a6 9f aa 3e f5 7c 5a 3f ca 2f 2d 3f 3a 0a a7 3f
       0.33324927 0.8534692 0.67651045 1.3049996
0000b0 e5 0f d4 3e 8c f9 54 3f 27 40 d5 3e db 02 23 40
       0.41418377 0.8319328 0.41650507 2.5470493
0000c0 f0 86 4a bf fc 11 67 3f 00 bb ec 3e 70 ca 04 3f
       -0.7911215 0.90261817 0.4623642 0.51871395
0000d0 e0 53 a1 3e 19 4a c9 be a4 32 89 bf e3 f9 b8 3e
       0.31509304 -0.39314345 -1.0718579 0.36128148
0000e0 2f 4b 1e 40 42 0d 1c bf 90 f4 1d 3f b3 2e a0 3f
       2.4733388 -0.6095773 0.617013 1.2514251
0000f0 39 7a fb 3f 09 d6 cb 3f a2 0c 00 3e 52 9f ad 3f
       1.9646674 1.5924693 0.12504819 1.3564246

module.Conv5.layers.1.bias f4 [64]
000000 a4 06 80 bf 3b 85 99 bf 5a b1 e3 3d 00 62 8d 3f
       -1.0002027 -1.1993784 0.111178115 1.1045532
000010 02 65 7a 3f 81 38 e7 3f 0d 74 5e bf 5c 02 86 be
       0.97810376 1.8064119 -0.8689583 -0.26173675
000020 24 e1 d9 3e cf c4 35 bf 19 35 7b bf 7d 98 17 3f
       0.4255458 -0.7100343 -0.98127896 0.59217054
000030 86 25 f0 3f da 88 9b 3f b0 83 4c 3e 6b 70 91 3f
       1.8761451 1.2151139 0.1997211 1.1362432
000040 c6 88 b4 3f 13 eb 3e 3f 48 7b 33 bf c7 90 67 c0
       1.410424 0.74577445 -0.7010999 -3.6182115
000050 e3 36 94 bf 0c 0f 09 bf 3f 90 c6 bf af 65 6e 3f
       -1.157925 -0.53538585 -1.551277 0.93123907
000060 d6 a3 e6 bc 0b 0d 9c be a1 e4 07 3e ff 00 d3 be
       -0.028154295 -0.304787 0.13270809 -0.41211697
000070 1c c0 67 40 60 86 99 3d ae 2d 21 be 62 53 a2 3f
       3.6211004 0.07496333 -0.15740082 1.2681696
000080 7f c9 07 bf 10 95 37 be ea 97 c5 3e b9 de b3 be
       -0.53041834 -0.17927957 0.38592464 -0.3513086
000090 0b a9 4b 3e f8 47 21 bd eb 9c dc 3e 67 4d 9b bf
       0.19888704 -0.039375275 0.4308847 -1.2132996
0000a0 23 6d 7d bf 1c 7d 87 be 3a 3f 66 bf 28 af 9c 3e
       -0.98994654 -0.26462638 -0.89940226 0.30602384
0000b0 63 11 34 bf 05 be e4 bd 98 64 1c bf 57 e5 8d c0
       -0.7033903 -0.11169056 -0.61090994 -4.4342456
0000c0 d5 50 80 bf ab 0d 0b 3f eb 4b 87 3f 38 53 64 bc
       -1.0024668 0.5431773 1.0570043 -0.0139358565
0000d0 a2 72 6a bf 3d 30 94 3f 92 7c 8f bf c7 e3 10 bf
       -0.91581166 1.1577221 -1.1209891 -0.5659756
0000e0 2f ae a2 3f 7c 7a 91 3f 2d 08 31 3f 9a 6d cd 3e
       1.2709407 1.1365504 0.691531 0.40122682
0000f0 b8 af de 3f da fc 85 bf 6f a0 14 bf eb 2d 66 be
       1.7397375 -1.0467789 -0.580573 -0.22478454

module.Conv5.layers.1.running_mean f4 [64]
000000 99 92 5b c3 29 0d 42 c3 58 d4 99 41 30 e9 55 43
       -219.57265 -194.0514 19.228683 213.91089
000010 cd b5 36 43 02 7e 61 43 33 25 5c 43 d0 ab 04 c3
       182.71016 225.49222 220.14531 -132.67114
000020 23 ed 20 43 d5 a8 f7 42 2f 54 5a c3 7f 91 51 c3
       160.92632 123.82975 -218.32884 -209.56834
000030 8a 50 7d c2 74 73 3b c3 97 ac 40 c3 3d 8f 41 c3
       -63.32865 -187.45099 -192.67418 -193.55952
000040 ef f1 02 c3 a8 0a f0 c2 c9 74 46 43 5b d9 57 c3
       -130.94505 -120.02081 198.45619 -215.84904
000050 f9 24 51 43 18 74 3b 43 12 50 4a c3 25 12 09 43
       209.14442 187.45349 -202.31277 137.07088
000060 69 ef 34 43 3a dd 40 c3 f7 2d 48 c3 8b 73 38 43
       180.9352 -192.86417 -200.17955 184.45134
000070 72 dd a4 42 b5 99 40 c3 06 9e 04 43 eb e3 a8 c2
       82.43251 -192.60042 132.61728 -84.44515
000080 57 e3 d9 42 b8 19 33 c3 bb e6 39 43 5e 0f ec 42
       108.94402 -179.10046 185.90129 118.030014
000090 12 db 43 c3 1e 45 42 c3 19 f4 1b c3 af 91 96 42
       -195.85574 -194.26999 -155.9535 75.28454
0000a0 95 af 24 43 e8 ca 28 c3 32 96 42 43 e2 6f 49 c3
       164.68587 -168.7926 194.5867 -201.43704
0000b0 7d 67 36 43 1e 3f 3a c3 e1 85 4b 43 bf e8 21 c3
       182.40425 -186.24655 203.52296 -161.90916
0000c0 d2 02 45 43 76 45 44 c3 aa a0 48 43 47 55 f2 c2
       197.01102 -196.27133 200.6276 -121.16656
0000d0 d6 d8 49 43 1f 54 59 c0 fe 48 38 43 ff 9c e1 42
       201.84702 -3.3957593 184.28513 112.80663
0000e0 c7 b9 b9 c2 84 32 92 42 3e ae 5f 43 34 d0 2d c2
       -92.86285 73.09866 223.68063 -43.453323
0000f0 9a 07 6d 43 e5 f3 05 43 b6 91 ea 42 22 d3 4d 43
       237.0297 133.95271 117.28459 205.82474

module.Conv5.layers.1.running_var f4 [64]
000000 3a 54 31 45 19 7f 85 44 aa 51 47 44 e3 89 f8 44
       2837.2642 1067.9718 797.276 1988.309
000010 86 d4 93 44 93 c6 b1 44 48 03 ee 44 9f 85 b1 44
       1182.6414 1422.2054 1904.1025 1420.1757
000020 14 5d 72 45 3f bd 6b 44 13 fb f9 44 1f 6a 80 45
       3877.8174 942.957 1999.8461 4109.265
000030 c4 37 60 45 2e c7 56 45 ce c8 34 45 a3 ad 05 45
       3587.4854 3436.4487 2892.5503 2138.8523
000040 6c c5 d9 44 0f be 36 45 b7 66 30 45 1f dd 74 45
       1742.1694 2923.8787 2822.4197 3917.82
000050 a3 59 8e 44 5f f9 58 45 81 7c 9c 44 1a 23 ad 45
       1138.8011 3471.5857 1251.8907 5540.3877
000060 ae 94 59 44 d6 c6 23 45 35 c2 27 45 50 84 d6 44
       870.3231 2620.4272 2684.138 1716.1348
000070 4e be 35 44 07 71 a2 44 03 08 8e 45 10 0c 71 45
       726.9735 1299.5321 4545.0015 3856.754
000080 cf c9 3c 44 16 62 37 45 d0 6b 6e 45 73 48 1d 44
       755.15326 2934.1304 3814.7383 629.132
000090 0b 02 2e 45 ef c5 95 45 9b 9f cc 44 ef 73 19 45
       2784.1277 4792.7417 1636.9877 2455.2458
0000a0 fa 1c b9 44 b5 11 48 45 a6 91 e0 44 59 7a 53 45
       1480.9055 3201.1067 1796.5515 3383.6467
0000b0 bb 66 4f 45 a4 93 b6 44 9b e8 bf 44 a5 3a 11 44
       3318.4207 1460.6138 1535.2689 580.9163
0000c0 18 54 ff 44 1a 9f 28 45 44 0d 1c 45 86 6e 21 45
       2042.6279 2697.9438 2496.829 2582.9077
0000d0 7c 0e 35 45 12 a9 ab 44 2a 63 16 45 5f ef 2d 44
       2896.9053 1373.2834 2406.1978 695.7402
0000e0 42 59 f1 44 93 2d 37 45 dd 79 22 45 01 4d d8 44
       1930.7893 2930.8484 2599.6165 1730.4064
0000f0 39 7e eb 44 00 9c d5 43 26 35 ea 44 e5 c5 14 45
       1883.9445 427.21875 1873.6609 2380.3684

module.Conv6.layers.0.weight f4 [64, 128, 3, 3]
000000 99 ab 17 3f 1c cc 1a 3f 06 b1 13 3f d2 eb 16 3f
       0.5924621 0.60467696 0.5769199 0.58953583
000010 51 73 1b 3f 52 43 1b 3f 4a 5c 13 3f a3 19 1d 3f
       0.60722834 0.606496 0.57562697 0.61367244
000020 fd 6e 21 3f c8 db 17 3f 22 c8 15 3f 0f b6 15 3f
       0.6305998 0.59319735 0.58508503 0.58480924
000030 56 9f 1f 3f b5 d5 1d 3f 16 49 1e 3f cb 4e 13 3f
       0.623525 0.61654216 0.6183027 0.57542104
000040 0c 77 14 3f b7 46 14 3f 76 cd 13 bf 0f 26 1c bf
       0.5799415 0.579204 -0.57735384 -0.6099557
000050 a5 ea 1e bf 4d 2f 18 bf 56 3d 1c bf 2c a3 13 bf
       -0.6207679 -0.59447175 -0.6103109 -0.57670856
000060 27 a8 14 bf 6f c9 13 bf 64 26 1c bf d0 ba 15 3f
       -0.5806908 -0.5772924 -0.6099608 0.5848818
000070 67 be 1e 3f 5f cf 1d 3f 30 48 1a 3f cd 9b 12 3f
       0.6200928 0.6164455 0.602664 0.57268983
000080 62 ee 1c 3f a4 70 1a 3f 01 d2 1b 3f 5c df 12 3f
       0.61301243 0.60328126 0.60867316 0.5737207
000090 1b 30 16 3f 94 d0 1a 3f 62 ef 12 3f 22 c7 12 3f
       0.58667153 0.60474515 0.5739652 0.573351
0000a0 1c 84 1a 3f 1e 0a 17 3f 12 14 17 3f 85 ec 19 3f
       0.6035783 0.5899981 0.59015 0.60126525
0000b0 17 47 14 3f ea d2 16 3f 83 0e 1f 3f a8 cc 21 3f
       0.57920974 0.5891558 0.6213152 0.63202906
0000c0 b8 02 19 3f a5 6c 1c 3f 95 c1 16 3f a9 a8 1b 3f
       0.59769773 0.6110328 0.5888913 0.6080423
0000d0 c6 8f 1e 3f 2a 25 21 3f b0 ed 1f 3f 06 e5 20 3f
       0.6193813 0.6294733 0.6247206 0.6284946
0000e0 b1 82 1c 3f f0 04 13 3f 08 2a 1f 3f f1 99 13 3f
       0.6113692 0.5742941 0.6217351 0.5765677
0000f0 4c 8f 19 3f 83 28 1a 3f fd c7 1a 3f 43 a7 20 bf
       0.5998428 0.60218066 0.6046141 -0.6275522
000100 35 50 17 bf 60 bf 1c bf 2a bd 22 bf 1d 2c 18 bf
       -0.5910676 -0.61229515 -0.6356989 -0.5944231
000110 4e e9 1d bf 35 e7 1f bf b5 cc 16 bf 17 57 20 bf
       -0.6168412 -0.6246217 -0.5890611 -0.6263289
000120 8e 72 13 bf 49 ea 16 bf fc fe 1b bf 10 54 1c bf
       -0.5759667 -0.5895124 -0.6093595 -0.6106577
000130 a6 77 16 bf e8 36 1e bf 14 55 1f bf 5f 95 1b bf
       -0.5877632 -0.6180253 -0.62239194 -0.607748
000140 35 3c 13 bf ff 52 18 3f 41 ff 1e 3f 84 6a 20 3f
       -0.57513744 0.5950164 0.62108237 0.6266253
000150 5f 62 18 3f 58 fb 14 3f 0d fe 16 3f 4f 69 1b 3f
       0.595251 0.5819602 0.589814 0.60707563
000160 83 40 12 3f c5 f8 1a 3f ad 9c 21 3f 68 16 22 3f
       0.5712969 0.6053584 0.63129693 0.6331544
000170 a0 d1 30 3f 9f 59 15 3f 88 0c 20 3f 2c 8a 18 3f
       0.6906986 0.58339876 0.6251912 0.59585834
000180 a7 b9 1b 3f fc 46 18 3f 02 bb 16 3f 71 21 1f 3f
       0.6083016 0.59483314 0.588791 0.621604
000190 54 78 14 3f 5a f6 1d 3f 74 c5 1a 3f fc 71 16 3f
       0.57996106 0.6170403 0.6045754 0.58767676
0001a0 6c f2 15 3f 6b de 18 3f 6b ab 1a 3f 82 02 15 3f
       0.5857303 0.5971438 0.60417813 0.5820695
0001b0 2a 45 17 3f 13 cb 1a 3f e6 6f 1d 3f 62 e4 15 3f
       0.5908991 0.60466117 0.6149887 0.5855161
0001c0 bb 5a 1b 3f 84 e5 14 3f d6 2e 1d 3f c8 4b 20 3f
       0.6068532 0.58162713 0.6139959 0.62615633
0001d0 7b 64 1c 3f bc e4 11 3f b1 9d 12 3f a2 82 20 3f
       0.6109082 0.56989646 0.5727187 0.6269933
0001e0 79 f0 19 3f 76 e7 16 3f 12 03 12 3f 44 f9 1e 3f
       0.6013256 0.5894693 0.57035935 0.620991
0001f0 d6 39 20 3f 73 33 13 3f 17 78 23 bf 61 89 1b bf
       0.6258825 0.5750038 -0.6385512 -0.607565
000200 f3 06 1f bf 8d d6 97 3d 69 2f 2b bf dd 75 1a bf
       -0.6211998 0.07413969 -0.6686922 -0.60336095
000210 dc 81 1d 3f 47 e8 1b 3f e1 0d 1f bf b6 bc 10 bf
       0.61526275 0.609013 -0.6213055 -0.5653795
000220 1a 0c 11 bf c2 7b 3a be 8d 7e 10 bf 84 77 15 bf
       -0.5665909 -0.18211272 -0.564431 -0.5838549
000230 15 df 0f bf 42 91 18 bf 3b bc 1c bf e1 21 17 bf
       -0.5619977 -0.59596646 -0.61224717 -0.5903607
000240 18 46 18 3f 2a d2 19 3f 78 9a 19 3f 32 44 15 3f
       0.59481955 0.6008631 0.60001326 0.5830718
000250 65 1b 1c 3f 52 30 12 3f ba fb 14 3f 81 ac 18 3f
       0.609793 0.5710498 0.58196604 0.5963822
000260 21 7e 16 3f 43 e0 15 3f 46 c2 19 3f 23 54 1d 3f
       0.5878621 0.5854532 0.6006206 0.6145651
000270 61 1f 20 3f f5 0c 1a 3f dc 21 12 3f f2 30 17 3f
       0.6254788 0.6017602 0.57082915 0.5905906
000280 59 0a 17 3f b0 d3 1d 3f c9 16 1b 3f 46 e5 16 3f
       0.59000164 0.61651134 0.6058164 0.58943594
000290 51 8e 16 3f 00 f6 17 3f 2f 44 18 3f c2 96 19 3f
       0.5881091 0.5935974 0.5947904 0.59995663
0002a0 97 0f 17 3f 02 db 15 3f 58 3e 19 3f 63 7b 20 3f
       0.59008163 0.58537304 0.59860754 0.62688273
0002b0 ef 57 15 3f 53 69 1b 3f 9e 62 18 3f ce ef 16 3f
       0.583373 0.60707587 0.5952548 0.5895966
0002c0 05 88 1f 3f 47 e1 1d 3f 72 b3 18 3f 9a c4 1d 3f
       0.62316924 0.6167187 0.5964881 0.61628115
0002d0 f7 a3 1d bf c3 7e 1f bf 89 19 14 bf b1 62 1d bf
       -0.61578315 -0.623028 -0.57851464 -0.61478716
0002e0 e9 b7 1d bf ec f5 1d bf bb 76 1f bf fe 4c 16 bf
       -0.6160875 -0.6170337 -0.62290543 -0.5871123
0002f0 2c 08 16 bf 83 22 1b 3f a0 8d 12 3f a4 32 13 3f
       -0.5860622 0.60599536 0.5724735 0.57499146
000300 45 f8 1d 3f 16 08 18 3f 4b d5 1a 3f b3 c1 20 3f
       0.61706954 0.5938734 0.6048171 0.6279556
000310 cb a2 15 3f c6 b0 1e 3f 5d 92 1a 3f aa 49 21 3f
       0.5845153 0.61988485 0.6037958 0.6300303
000320 7e 02 14 bf 84 2c 1d 3f b2 0e 21 3f bf bb 17 3f
       -0.578163 0.6139605 0.6291305 0.5927085
000330 19 f3 12 3f ab 63 18 3f 33 92 14 3f d0 4b 15 bf
       0.5740219 0.5952708 0.5803558 -0.58318806
000340 d9 35 13 bf d1 91 10 bf 1b b8 1b bf d1 06 1d bf
       -0.5750404 -0.564725 -0.608278 -0.61338526
000350 26 e3 1e bf 28 59 20 bf 91 16 13 bf d3 37 17 bf
       -0.6206535 -0.6263604 -0.5745631 -0.59069556
000360 02 65 15 bf 18 42 15 bf f9 54 20 bf 36 13 1d bf
       -0.5835725 -0.58303976 -0.6262966 -0.6135744
000370 bf 26 15 bf 4f 3d 1d bf f9 04 1a bf 70 1b 1e bf
       -0.58262247 -0.61421674 -0.6016384 -0.61760616
000380 37 56 1f bf 34 9a 1e bf 5c 47 21 bf 66 13 1b bf
       -0.6224093 -0.61954045 -0.6299951 -0.60576475
000390 8f a1 17 bf bb 59 16 bf 41 80 19 bf 76 ca 1e bf
       -0.59230894 -0.5873067 -0.59961325 -0.6202768
0003a0 11 6b 13 bf 8a a0 1d bf 3a 00 1a 3f 68 d1 19 3f
       -0.57585245 -0.6157309 0.60156596 0.60085154
0003b0 bc f9 1f 3f b4 0a 16 3f b6 d1 1b 3f d6 67 19 3f
       0.6249044 0.5861008 0.6086687 0.59924066
0003c0 60 96 1c 3f 73 2d 20 3f a1 6a 12 3f 4d 2d 14 bf
       0.61166954 0.6256935 0.5719395 -0.57881624
0003d0 0a b7 18 bf 61 22 1e bf fa e9 1c bf d1 f3 1f bf
       -0.59654295 -0.6177121 -0.6129452 -0.6248141
0003e0 49 69 19 bf b6 d4 1f bf 2a 1b 20 bf a8 f3 18 bf
       -0.5992628 -0.62433946 -0.6254145 -0.5974679
0003f0 96 6b 15 3f 28 4b 14 3f be ad 18 3f 8f 7d 1f 3f
       0.5836729 0.5792718 0.5964011 0.6230096

module.Conv6.layers.0.bias f4 [64]
000000 aa 88 45 3d 03 87 97 bd 95 61 17 bd 72 06 4e 3d
       0.048226036 -0.07398798 -0.036958296 0.050299115
000010 6f 44 51 3c d5 f5 86 bd 96 17 de 3c e6 0a c4 bd
       0.0127726635 -0.065898575 0.027110856 -0.09572391
000020 c0 65 40 3d 55 1a b1 3c 16 d7 61 bd 63 fc b8 3d
       0.046972036 0.021619001 -0.055136763 0.09032514
000030 4f 9d a4 be 73 ea 83 3c af 93 cf 3b f3 6b ec bd
       -0.32151267 0.016103005 0.006334744 -0.11544027
000040 14 cf 7c bd 35 f0 f3 bd 4c 58 08 be 0a c9 e5 3d
       -0.061720923 -0.1191105 -0.13314933 0.11219986
000050 03 d8 f6 3d a0 fc b9 3d 37 d6 49 bd 17 83 e9 bd
       0.1205292 0.090813875 -0.049276557 -0.114019565
000060 c7 bf 3e 3e 43 bb 16 3e 43 b6 d5 3c f0 bf 9d 3c
       0.18627845 0.14719872 0.026087886 0.019256562
000070 3b f9 b7 3d 26 06 51 bd a6 2a 18 3d 9a b8 db 3c
       0.08983084 -0.051031254 0.037150048 0.026821423
000080 97 e9 6a 3c 6f be 12 bc 50 92 71 3d f4 39 56 3d
       0.014337919 -0.008956536 0.058977425 0.052301362
000090 4c aa 80 bb 1d fe cc 3d d3 00 dc 3d 05 34 8e 3e
       -0.003926551 0.10009406 0.10742345 0.27774063
0000a0 2c 89 1c 3d 7f 37 00 bd 4d 72 87 3d 4d 97 fc bc
       0.038216755 -0.031302925 0.06613598 -0.030833865
0000b0 23 82 b2 bd e3 e9 15 3d 2d 3c 3f be 2b 62 7a 3d
       -0.08716228 0.036600005 -0.18675299 0.061128777
0000c0 b4 49 5e 3d 62 b1 b6 3c 92 a3 81 bc ab ff a1 bc
       0.054269508 0.02230138 -0.015825067 -0.019775232
0000d0 74 2d 4c bd 54 c9 10 be fc 7d 3c 3d 35 55 7e 3e
       -0.049848035 -0.141393 0.046018586 0.24837191
0000e0 a2 de a5 bd a6 5e 79 3d 9e b8 e2 3d b1 ea 63 3d
       -0.080991045 0.06088128 0.11070369 0.05564374
0000f0 d4 b0 51 3e 5c 1a 26 3e 47 d3 2d be 7e 80 c1 bc
       0.20477611 0.16220993 -0.16975127 -0.02362084

module.Conv6.layers.1.weight f4 [64]
000000 c3 28 3a 3f 74 5c 00 3f b1 88 b4 3f 6f 48 75 3f
       0.7271845 0.5014107 1.4104215 0.9581365
000010 4f 4d 71 3f e8 14 c7 3f f1 66 06 3f 33 37 89 3f
       0.9425859 1.5553255 0.52500826 1.071997
000020 2a 4d 59 3f c3 9e df 3e 20 8b e6 3e 7a f1 fd 3e
       0.8488337 0.43675813 0.4502802 0.49598294
000030 a8 d6 22 3f b2 c4 79 3f 6f 81 80 3e 81 33 07 3f
       0.6360879 0.9756576 0.2509875 0.52812964
000040 7d 5e 84 3f 1c 65 56 3f 75 e8 97 3f 40 6e 9e 3f
       1.0341336 0.8374803 1.1867815 1.2377396
000050 76 c5 a0 3f b9 e0 be 3f a1 87 56 3f d7 c6 88 3f
       1.256026 1.491233 0.83800703 1.0685681
000060 a1 82 f7 3e 8d 73 c2 3f de c7 98 3f 06 28 16 3f
       0.4834185 1.5191513 1.1935995 0.5865482
000070 6e 59 3f 3f 09 ef 0c 3f e0 e8 80 3f 04 1d 8c 3f
       0.74745834 0.5505224 1.0071068 1.0946355
000080 6e 6b c1 3e 4d 21 b9 3e 81 06 87 3f f3 9d 99 3f
       0.37777275 0.3615822 1.054886 1.2001327
000090 0c 4a e8 3e ef 4a b2 3f 38 a1 ee 3e 13 77 a9 3f
       0.45368993 1.3929118 0.46607375 1.3239464
0000a0 4c 77 a2 3f e5 83 4c 3f 1e c4 0d 3e 09 f9 4a 3f
       1.2692657 0.79888755 0.13844344 0.7928625
0000b0 4d 8e bb 3f 3a 58 0c 40 1e fd c7 3f d9 35 53 be
       1.4652802 2.192885 1.562412 -0.2062601
0000c0 94 2f 4f 3f f8 84 0f 3e 2c de 3a 3f 86 1d 99 3f
       0.80931973 0.14015567 0.7299526 1.1962135
0000d0 15 c0 9e 3f 58 53 7d 3f 76 61 ec 3e 58 89 c2 3f
       1.2402369 0.989553 0.46168107 1.5198164
0000e0 c8 83 02 3f 73 0f 85 3f 82 41 16 3f 69 75 55 bf
       0.5098233 1.039534 0.58693707 -0.8338228
0000f0 fb 66 0c 3f 48 4d af 3e fe 86 a8 3f aa 25 bd 3f
       0.54844636 0.34238648 1.3166196 1.4777119

module.Conv6.layers.1.bias f4 [64]
000000 c4 46 d7 bf af 86 20 bf c1 48 3d 3f be a1 a8 3f
       -1.6818471 -0.6270551 0.7393914 1.317436
000010 58 dc e3 3f bf 53 19 3f fd f9 85 3f 6a 96 fb 3f
       1.7801619 0.5989341 1.0466915 1.9655278
000020 76 a9 fc 3f 59 66 b0 bf 62 3d 23 3f f1 82 80 bf
       1.9739215 -1.3781234 0.6376554 -1.003996
000030 dd 48 f2 be 05 6e ef 3f dc bc 2e 3f 47 00 a3 bf
       -0.47321215 1.870545 0.68256927 -1.273446
000040 72 49 43 40 5f 73 21 c0 da bc 88 3f 2c 97 13 40
       3.0513577 -2.5226667 1.0682633 2.3061018
000050 f8 d2 02 c0 61 cd 2c 3f 20 cd af bf 47 bf 97 3f
       -2.0441265 0.67500883 -1.3734474 1.1855248
000060 88 da 14 bf c2 bd 30 3f 3a c8 a6 3f b2 03 3c bf
       -0.5814595 0.6903955 1.3029854 -0.7344314
000070 7a b7 de bf c3 5c af bf f6 46 e7 3f 3c 10 19 40
       -1.7399743 -1.3700184 1.806853 2.3916159
000080 6e 2a 7d 3f f8 97 8b 3f 34 58 f6 bf 96 6e 1e 40
       0.9889287 1.0905752 -1.9245667 2.4754996
000090 be 9b 19 3f a2 85 40 3f 36 ff 64 bf e2 44 ed 3f
       0.6000327 0.7520391 -0.8945192 1.8536646
0000a0 cb 34 75 c0 ca da b7 bf a1 8d 2a bf 29 e7 1c 40
       -3.8313472 -1.4363644 -0.6662236 2.451609
0000b0 0b b2 4a 3f aa a5 88 40 54 6d 19 3f 8b 01 59 3f
       0.7917792 4.2702227 0.59932446 0.8476798
0000c0 d4 c3 9e bf c7 df 01 bf 3c e8 3e bf 55 2c 8e 3f
       -1.2403512 -0.5073208 -0.7457311 1.1107279
0000d0 32 b1 dd 3f 52 f6 eb 3f 5a 0d 13 bf e6 c9 17 3f
       1.7319701 1.8434546 -0.5744225 0.5929245
0000e0 16 86 f1 be 5a 21 3a c0 26 60 a7 bf 12 ae a0 3e
       -0.47172612 -2.9082856 -1.3076217 0.31382805
0000f0 05 33 8f bf 97 8f 0f bf 0b a6 c5 3f c5 27 94 40
       -1.1187445 -0.56078476 1.5441297 4.6298547

module.Conv6.layers.1.running_mean f4 [64]
000000 99 03 2d 43 01 e4 1c c3 f4 05 26 43 8d c5 38 c3
       173.01405 -156.89064 166.02325 -184.77168
000010 64 c8 28 c3 69 b6 3e 43 9c 10 1b 43 b7 02 22 43
       -168.78278 190.71254 155.06488 162.0106
000020 c4 87 15 43 b4 cc 7e 42 3d 87 47 43 8d 00 29 43
       149.53033 63.699905 199.52827 169.00215
000030 d3 61 11 c3 24 cb 21 c3 6f 12 33 43 f5 5e 25 43
       -145.38213 -161.79352 179.072 165.37093
000040 91 c2 30 c3 bc 42 1a 43 8a 89 cb c2 f7 07 1a c3
       -176.76003 154.26068 -101.76863 -154.03111
000050 71 21 25 43 83 19 3d 43 23 43 19 43 f4 dc d2 c2
       165.13063 189.09966 153.26225 -105.43155
000060 f5 77 2c c3 01 20 2a 43 85 af 2a 43 47 7f 19 c3
       -172.46858 170.12502 170.68562 -153.49718
000070 1b 5a 25 43 c9 0e 42 43 32 18 1c c3 1f 7b 24 c3
       165.35197 194.05775 -156.09451 -164.48094
000080 35 31 20 43 12 b2 31 43 16 94 21 43 b0 fd 21 c3
       160.19221 177.69559 161.57846 -161.99097
000090 de b2 2e c3 02 5f 31 43 52 5a 1c 43 d0 6d 1e 43
       -174.6987 177.37112 156.35281 158.42896
0000a0 51 67 37 43 41 ee 31 43 ab f5 c6 c2 4c 22 29 c3
       183.40358 177.93068 -99.47982 -169.13397
0000b0 32 76 31 43 79 0f 09 c3 4b b1 38 43 4f 98 b2 c2
       177.4617 -137.06044 184.69255 -89.29748
0000c0 97 70 24 43 1b de 4e c3 2e 47 18 c2 d3 b5 58 c3
       164.4398 -206.8676 -38.06951 -216.71025
0000d0 9a 76 3f c3 a8 5d 19 c3 0f 8d 2b c3 60 47 2d 43
       -191.46329 -153.36584 -171.55101 173.27881
0000e0 53 5a 2d c3 d6 c0 1c 43 28 b4 12 43 2f e3 38 43
       -173.35283 156.75327 146.70374 184.88744
0000f0 00 6a 14 43 7c 24 4c c3 fc 6a 1c c3 7e d0 31 c3
       148.41406 -204.14252 -156.41791 -177.81442

module.Conv6.layers.1.running_var f4 [64]
000000 3e 6a c6 45 9d 4c 8d 45 79 84 c6 45 f5 67 6e 45
       6349.2803 4521.5767 6352.559 3814.4973
000010 03 2d a1 45 e5 03 c4 45 32 34 d9 45 4f 48 9e 45
       5157.6265 6272.487 6950.5244 5065.0386
000020 d3 45 9b 45 10 8e 5a 46 ef 33 f5 45 2c b1 4f 45
       4968.728 13987.516 7846.4917 3323.0732
000030 e1 f0 69 45 05 c4 9a 45 79 86 0d 46 a1 8e e2 45
       3743.055 4952.5024 9057.618 7249.8286
000040 66 a7 c4 45 5b f2 08 46 37 de 40 45 e3 d6 84 45
       6292.925 8764.589 3085.8884 4250.861
000050 3d 89 97 45 8a 98 c8 45 fa c7 8b 45 e3 89 45 45
       4849.155 6419.0674 4472.997 3160.618
000060 94 c2 30 46 61 4c e4 45 d9 ee b0 45 c4 18 0c 46
       11312.645 7305.5474 5661.856 8966.191
000070 a0 f1 bc 45 e2 89 c1 45 f3 15 b0 45 83 1b f9 45
       6046.203 6193.2354 5634.7437 7971.439
000080 0b 04 b6 45 39 c6 dd 45 7a dd 7f 45 d4 4a 8f 45
       5824.5054 7096.778 4093.8423 4585.3535
000090 70 00 18 46 7f 42 03 46 8a 67 b2 45 59 76 8a 45
       9728.109 8400.624 5708.9424 4430.7935
0000a0 a5 05 0b 46 53 ac f5 45 1a f8 03 46 e6 ad ed 45
       8897.411 7861.5405 8446.025 7605.7373
0000b0 29 dd d6 45 9b 22 47 46 f3 6c f5 45 93 eb 9a 45
       6875.645 12744.651 7853.6187 4957.447
0000c0 ff 39 a0 45 8a e3 d1 45 e5 61 0c 45 a2 a7 ee 45
       5127.2495 6716.4424 2246.1184 7636.954
0000d0 58 b3 19 46 0b b5 9f 45 c5 73 07 46 54 6c cb 45
       9836.836 5110.6304 8668.942 6509.541
0000e0 43 c8 f1 45 f2 61 09 46 7a 57 93 45 66 5c 1e 46
       7737.0327 8792.486 4714.9346 10135.1
0000f0 64 1d ca 45 ec ed fa 45 09 2f e2 45 c5 80 b0 45
       6467.674 8029.74 7237.8794 5648.096

module.Conv7.layers.1.weight f4 [1, 128, 3, 3]
000000 b3 4b 16 bf 83 1c 18 bf 78 2f 14 bf 2e cd 16 bf
       -0.5870926 -0.59418505 -0.5788493 -0.5890683
000010 91 04 16 bf a5 4f 19 bf e3 61 2e bf 76 03 22 bf
       -0.5860072 -0.5988715 -0.68118113 -0.6328653
000020 18 69 28 bf c7 f3 15 3f d7 68 19 3f b2 ad 16 3f
       -0.6578536 0.585751 0.599256 0.5885879
000030 0b 0e 18 3f 3f 00 15 3f e7 5d 16 3f 7f 32 1a 3f
       0.5939643 0.582035 0.58737034 0.602333
000040 ab a2 17 3f 1d 4f 13 3f c2 66 19 3f 45 0b 1e 3f
       0.59232587 0.5754259 0.5992242 0.61735946
000050 24 09 19 3f 6c 48 14 3f 7f bd 1c 3f 21 9d 16 3f
       0.5977957 0.57923007 0.6122665 0.5883351
000060 52 bd 1d 3f 41 84 1d 3f b6 b7 17 3f 21 55 18 bf
       0.61617005 0.6152993 0.59264696 -0.59504896
000070 da bb 1c bf 0c 46 1b bf e0 0e 1f bf 85 0c 19 bf
       -0.6122414 -0.6065376 -0.6213207 -0.5978473
000080 1f 7e 19 bf 39 2a 16 bf aa f1 12 bf 92 47 19 bf
       -0.5995807 -0.58658177 -0.574 -0.5987483
000090 d7 08 1d bf 0a 19 21 bf 7b ec 0d bf a0 bb 1c bf
       -0.61341614 -0.6292883 -0.55438966 -0.61223793
0000a0 da e4 1f bf df 50 16 bf 21 62 12 bf c5 5a 1f bf
       -0.62458575 -0.5871715 -0.5718098 -0.6224788
0000b0 a0 bb 18 bf 81 63 1f 3f 1b 45 20 3f 7d c9 1f 3f
       -0.59661293 0.62261206 0.62605447 0.6241682
0000c0 1e 5e 1b 3f b4 ae 20 3f 5f 6c 16 3f 71 c0 1a 3f
       0.60690486 0.62766576 0.5875911 0.6044989
0000d0 9e ac 12 3f 5a 4c 1b 3f 97 2a 19 3f 0f a8 16 3f
       0.5729464 0.6066338 0.5983061 0.5885019
0000e0 4c 40 1b 3f 03 ab 1d 3f 35 fd 12 3f a2 2b 1d 3f
       0.60644984 0.6158907 0.57417613 0.61394703
0000f0 86 55 18 3f f6 f9 1c 3f 1a cc 11 3f 07 74 1c 3f
       0.595055 0.6131891 0.5695206 0.61114544
000100 07 ab 12 3f 99 53 11 3f 86 9c 17 3f d9 e1 1f 3f
       0.57292217 0.56768185 0.5922321 0.6245399
000110 fd 10 1e 3f 04 59 15 3f 39 29 1a 3f ad 32 1e 3f
       0.6174467 0.5833895 0.6021915 0.61796075
000120 ce 1e 12 3f 9a 8a 1a 3f c1 93 18 3f 84 7e 1e 3f
       0.57078254 0.6036774 0.59600455 0.619118
000130 3e 37 13 3f 2a c5 1a 3f 1e aa 15 3f 52 59 17 3f
       0.5750617 0.604571 0.58462703 0.59120667
000140 a1 b4 1b 3f df 06 20 bf e2 15 14 bf 52 6e 12 bf
       0.6082249 -0.62510484 -0.5784589 -0.57199585
000150 7b 87 18 bf fb a4 1a bf 2d 55 16 bf 1a e0 1a bf
       -0.59581727 -0.6040799 -0.5872372 -0.604982
000160 ee d8 17 bf 2e 6a 1a bf c9 2a 17 3f 6c e7 17 3f
       -0.59315383 -0.6031827 0.5904966 0.59337497
000170 57 f0 12 3f 29 6c 1c 3f 30 f9 1a 3f 88 3f 1f 3f
       0.5739798 0.6110254 0.6053648 0.62206316
000180 1f c5 16 3f 84 1e 1b 3f 44 0e 13 3f d0 bb 15 bf
       0.5889453 0.6059344 0.5744364 -0.58489704
000190 9a c1 17 bf ed 88 20 bf f1 79 14 bf 57 76 16 bf
       -0.5927979 -0.6270893 -0.5799857 -0.5877432
0001a0 db 58 13 bf b9 47 16 bf b6 0d 1e bf 0b eb 18 bf
       -0.5755746 -0.5870319 -0.6173967 -0.5973365
0001b0 be d1 14 3f bb f6 16 3f 8f 3c 17 3f e9 90 13 3f
       0.5813254 0.5897023 0.5907678 0.5764299
0001c0 7b 6d 14 3f 26 3b 15 3f 17 6a 1c 3f d0 7d 18 3f
       0.57979554 0.5829338 0.6109938 0.59566975
0001d0 c3 08 1e 3f ad 20 16 bf e5 f1 16 bf d1 92 16 bf
       0.6173212 -0.5864361 -0.5896285 -0.58817774
0001e0 2d 3b 1b bf cf e6 1e bf d1 e1 1e bf 4d 45 18 bf
       -0.6063717 -0.62070936 -0.6206332 -0.59480745
0001f0 54 99 1f bf 31 95 18 bf da 70 16 3f 01 c4 19 3f
       -0.62343335 -0.5960265 0.5876595 0.60064703
000200 af 1e 13 3f 25 a7 1f 3f 64 ed 15 3f 11 d3 1a 3f
       0.57468694 0.6236442 0.58565354 0.6047831
000210 5d 80 17 3f 82 6d 15 3f 87 95 16 3f 50 57 1d bf
       0.5918024 0.5837022 0.5882191 -0.61461353
000220 af 59 1b bf b0 97 19 bf 2b af 13 bf f8 38 14 bf
       -0.6068372 -0.5999708 -0.5768916 -0.5789943
000230 4a a4 1d bf 7b be 1a bf 0d 36 17 bf 86 52 13 bf
       -0.6157881 -0.604469 -0.5906685 -0.57547796
000240 36 d0 11 bf c0 b1 1d bf 7f 78 16 bf a4 fd 21 bf
       -0.5695833 -0.6159935 -0.5877761 -0.6327765
000250 b5 4f 22 bf 96 e9 21 bf bb e6 0f bf 4b b4 1d bf
       -0.63402873 -0.6324705 -0.5621144 -0.6160323
000260 b2 be 1b bf 90 82 15 bf 7b 0c 1a bf 5b f0 15 bf
       -0.6083785 -0.5840235 -0.60175294 -0.5856988
000270 d3 8f 16 bf 53 78 1e bf a1 68 1d bf 2f 15 15 bf
       -0.5881321 -0.6190235 -0.61487776 -0.5823545
000280 ae c5 1b bf ce e9 1e bf 6d 0b 1f bf 4e 86 1a bf
       -0.6084851 -0.6207551 -0.6212681 -0.6036118
000290 ef f5 1c bf 1a 5b 11 bf 58 73 1c bf 66 5d 17 bf
       -0.61312765 -0.56779635 -0.611135 -0.5912689
0002a0 5d 32 1b bf 48 25 1d bf 4a 19 19 bf 36 4a 1f bf
       -0.60623723 -0.6138501 -0.59804213 -0.6222261
0002b0 64 fd 19 bf 82 e2 19 bf a6 7a 1e bf a7 26 22 bf
       -0.6015227 -0.6011125 -0.61905897 -0.6334023
0002c0 31 d4 1d bf 36 f5 12 bf 14 7e 1c bf b7 60 10 bf
       -0.61651903 -0.5740541 -0.6112988 -0.56397575
0002d0 4c c0 17 bf ab 0f 21 bf 1a 5d 17 bf 3f 3f 16 bf
       -0.59277797 -0.6291453 -0.59126437 -0.58690256
0002e0 0c 2f 15 bf b5 f2 25 bf 7b 69 1c bf 59 91 27 bf
       -0.5827491 -0.64823467 -0.6109845 -0.6545616
0002f0 a4 e1 21 bf ad 0f 1a 3f 7a f2 1a 3f d6 38 1a 3f
       -0.63234925 0.6018017 0.6052624 0.60242975
000300 e0 b5 1b 3f af 94 17 3f 6d 54 18 3f b7 d1 15 3f
       0.60824394 0.5921125 0.59503824 0.58523124
000310 b5 50 20 3f 23 b5 1d 3f a8 59 19 bf 8b 68 15 bf
       0.6262315 0.6160452 -0.5990243 -0.58362645
000320 c4 ee 17 bf 99 22 16 bf a5 6d 13 bf be 69 1d bf
       -0.593487 -0.5864654 -0.5758918 -0.61489475
000330 5f b8 14 bf f5 c8 1d bf 54 b7 20 bf d5 a5 1c bf
       -0.5809383 -0.6163476 -0.62779737 -0.6119054
000340 8b 30 1c bf e0 42 1e bf 57 c6 1c bf 63 fb 11 bf
       -0.6101157 -0.61820793 -0.6124014 -0.5702421
000350 11 10 14 bf 1d 31 15 bf 64 4b 18 bf a5 e6 1c bf
       -0.57837015 -0.58278066 -0.59490037 -0.61289436
000360 b4 b4 1a 3f 6e 39 14 3f c8 5c 14 3f e0 3e 18 3f
       0.6043198 0.5790013 0.5795407 0.5947094
000370 58 06 17 3f 9c cd 1a 3f e5 c0 16 3f ed 41 13 3f
       0.58994055 0.60469985 0.58888084 0.5752247
000380 75 cc 15 3f 35 64 18 3f fc bc 16 3f 1b ac 1c 3f
       0.585151 0.59527904 0.5888212 0.6120011
000390 69 61 1a 3f e4 e3 18 3f 77 73 1b 3f 80 0c 1e 3f
       0.60304886 0.59722733 0.6072306 0.61737823
0003a0 58 62 1d 3f 54 bc 1f 3f 24 f2 1d 3f 67 0f 18 3f
       0.61478186 0.6239674 0.616976 0.593985
0003b0 6c e2 17 3f d8 3a 1d 3f b8 ec 19 3f 87 e9 1a 3f
       0.5932987 0.61417913 0.6012683 0.60512584
0003c0 c1 72 16 3f f5 43 18 3f 2c cc 18 3f f3 c9 1a 3f
       0.5876885 0.59478694 0.5968654 0.604644
0003d0 f9 8e 1c 3f de 07 19 3f 6d ac 15 3f 8a 65 12 3f
       0.6115566 0.5977763 0.58466226 0.57186186
0003e0 22 0c 1f 3f 6f 52 16 3f 75 23 17 3f 5e 74 1a 3f
       0.6212789 0.58719534 0.5903848 0.6033381
0003f0 aa 3a 1b bf b4 b4 19 bf 80 80 15 bf b6 1e 1a bf
       -0.6063639 -0.60041356 -0.583992 -0.6020311
