DIDFuse/saved_models/decoder/IR_AE13.pth (torch, 604881 bytes, 13 tensors)

module.Conv5.layers.0.weight f4 [64, 128, 3, 3]
000000 64 6a 18 3f 0e 59 13 3f 4a ff 12 3f 14 a7 1d 3f
       0.5953734 0.5755776 0.5742079 0.61583066
000010 b2 55 20 3f 0a 0b 1a 3f 4d f2 1e 3f c0 2e 13 3f
       0.6263076 0.60173094 0.6208847 0.5749321
000020 df 44 1a 3f 57 aa 1a 3f b1 f2 12 3f 18 e6 1a 3f
       0.6026134 0.6041617 0.5740157 0.60507345
000030 01 e9 16 3f 92 c0 1f 3f 76 e9 1a 3f b4 49 12 3f
       0.58949286 0.62403214 0.60512483 0.5714371
000040 43 34 19 3f f2 0b 18 3f 94 6e 1e 3f 5b f1 17 3f
       0.5984537 0.5939323 0.6188748 0.59352654
000050 17 98 19 3f d7 d8 12 3f fc df 1d 3f a5 e4 1d 3f
       0.59997696 0.5736212 0.616699 0.6167701
000060 ce 0d 18 3f 25 4d 13 3f 24 a8 1b 3f 10 4c 14 3f
       0.59396064 0.5753959 0.6080344 0.5792856
000070 1e 12 1d 3f 14 a7 15 3f d2 2a 17 3f f9 ae 15 3f
       0.6135577 0.58458066 0.59049714 0.5847011
000080 de e1 17 3f 1f 83 1f 3f 37 5a 1c 3f 98 91 1a 3f
       0.5932902 0.6230945 0.61075157 0.6037841
000090 03 d8 1b 3f b9 c1 1b 3f d0 15 1e 3f 3c 97 16 3f
       0.6087648 0.6084247 0.61752033 0.58824515
0000a0 35 4c 12 3f 11 a1 15 3f 6e b4 1f 3f a3 ce 11 3f
       0.5714753 0.5844889 0.6238469 0.5695593
0000b0 d8 d1 17 3f 13 01 1b 3f 33 10 18 3f dd 02 15 3f
       0.5930457 0.60548514 0.5939972 0.58207494
0000c0 5f e2 19 3f 7d 1d 1d 3f 51 9a 20 3f 4a 8c 12 3f
       0.6011104 0.6137312 0.6273547 0.57245314
0000d0 26 5d 16 3f 3e 36 18 3f 86 e8 19 bf 89 60 16 bf
       0.58735883 0.59457767 -0.6012043 -0.5874105
0000e0 46 e4 1d bf 7b 49 15 bf b3 3c 1b bf 13 14 11 bf
       -0.6167644 -0.5831525 -0.60639495 -0.56671256
0000f0 ad 2f 1f bf c6 b9 17 bf 38 79 1f bf 1a ee 1f 3f
       -0.6218212 -0.5926784 -0.6229434 0.6247269
000100 66 15 21 3f 15 fd 17 3f 5d c8 1b 3f ae 77 1b 3f
       0.62923276 0.5937055 0.60852605 0.6072949
000110 d6 2d 13 3f 0b 81 1a 3f 40 2a 18 3f 05 28 1a 3f
       0.57491815 0.60353154 0.5943947 0.60217315
000120 46 e7 1a bf a3 df 1b bf a3 7e 13 bf 6f 51 1e bf
       -0.60509145 -0.6088812 -0.5761511 -0.6184301
000130 d8 2b 11 bf 92 0c 16 bf 7b 24 46 3f 1a 07 45 3f
       -0.56707525 -0.5861293 0.77399415 0.7696396
000140 81 19 08 bf 30 d2 1f 3f 7a 42 13 3f 60 23 12 3f
       -0.53163916 0.62430096 0.5752331 0.5708523
000150 60 2d 20 3f 31 12 1b 3f fc 75 1a 3f 7a a8 15 3f
       0.62569237 0.6057463 0.6033628 0.584602
000160 aa fa 15 3f 23 00 12 3f 9d af 17 bf 4c a4 17 bf
       0.5858561 0.5703146 -0.5925234 -0.5923507
000170 1d 43 1b bf 59 e7 20 bf eb a7 1a bf 86 04 21 bf
       -0.6064928 -0.6285301 -0.6041247 -0.6289753
000180 e2 af 22 bf 21 9f 1a bf 3a 82 29 bf 3e 72 14 bf
       -0.63549626 -0.6039906 -0.66214335 -0.5798682
000190 83 8c 13 bf 40 47 1f bf 50 3d 14 bf dc 9e 1c bf
       -0.5763628 -0.62218094 -0.57906055 -0.611799
0001a0 c8 b6 18 bf b7 01 14 bf 9f 09 13 bf 61 b5 18 bf
       -0.596539 -0.57815117 -0.57436556 -0.5965176
0001b0 c7 4a 18 bf fc 4d 1c bf d3 30 20 bf 62 fe 15 bf
       -0.594891 -0.61056495 -0.625745 -0.5859128
0001c0 2b 9d 1c bf 0d 59 14 bf 25 ad 1d bf 09 56 16 bf
       -0.6117732 -0.5794838 -0.6159232 -0.5872503
0001d0 6d 18 16 bf ab 21 1c 3f 02 ea 1d 3f ee e8 18 3f
       -0.5863102 0.60988873 0.6168519 0.5973042
0001e0 93 51 17 3f b4 df 19 3f 50 f1 18 3f 79 01 1b 3f
       0.5910885 0.6010697 0.59743214 0.6054912
0001f0 72 24 15 3f 87 d6 18 3f 60 f4 1d bf e8 6c 17 bf
       0.58258736 0.5970234 -0.6170101 -0.5915055
000200 ab 21 1d bf d0 58 18 bf 6c d2 1d bf 2d d3 1a bf
       -0.613795 -0.5951052 -0.61649203 -0.6047848
000210 ff bf 16 bf 7c be 1d bf be e2 1c bf 44 09 18 bf
       -0.5888671 -0.6161878 -0.6128348 -0.5938914
000220 93 71 1f bf 59 f2 16 bf 80 d6 16 bf 25 1f 15 bf
       -0.62282676 -0.58963543 -0.5892105 -0.5825065
000230 65 b0 18 bf 75 54 19 bf 56 33 13 bf 44 29 18 bf
       -0.59644157 -0.59894496 -0.5750021 -0.59437966
000240 be f4 17 bf 11 e3 18 bf f9 77 17 bf 7d fd 1f bf
       -0.5935782 -0.59721476 -0.5916744 -0.6249617
000250 dc 68 1d bf ce 56 20 bf f5 93 19 bf df 6e 1d bf
       -0.6148813 -0.62632453 -0.5999139 -0.614973
000260 5d da 13 bf 18 06 1f 3f c2 2b 20 3f e7 eb 1a 3f
       -0.5775507 0.62118673 0.6256677 0.6051621
000270 6c a8 17 3f 95 46 21 3f 59 ea 16 3f 4a d2 18 bf
       0.59241366 0.62998325 0.58951336 -0.59695876
000280 cb 08 1f bf e9 b2 0e bf c3 95 17 bf be d1 15 bf
       -0.6212279 -0.55741745 -0.59212893 -0.58523166
000290 25 27 1d bf a8 61 1e 3f 43 9d 15 bf be 31 19 3f
       -0.61387855 0.6186776 -0.5844309 0.59841526
0002a0 12 39 17 3f 44 a9 1a 3f 3b 37 1d 3f ba 50 1a 3f
       0.5907146 0.6041453 0.614124 0.6027943
0002b0 c8 8b 16 3f e5 7f 19 3f 53 85 1c 3f 54 11 1e 3f
       0.5880704 0.59960777 0.61140937 0.6174519
0002c0 c7 62 1c 3f a3 6a 17 3f be 28 20 3f 36 1d 15 3f
       0.6108822 0.5914709 0.6256217 0.582477
0002d0 b2 23 19 3f 2f 88 1e 3f 33 96 1c 3f b9 8b 14 3f
       0.5982009 0.6192655 0.61166686 0.580257
0002e0 3e e6 18 3f 56 af 1b 3f 0b 6d 12 bf 1a f4 1c bf
       0.5972632 0.60814416 -0.57197636 -0.6130997
0002f0 14 fc 19 bf b0 71 14 3f 68 71 17 3f 5c b2 20 3f
       -0.60150266 0.57985973 0.5915742 0.62772155
000300 2a cc 13 3f be 3d 17 3f 86 d1 20 3f 8d 26 1d 3f
       0.57733405 0.59078586 0.6281971 0.6138695
000310 bf 6f 18 3f bb e9 18 3f c3 59 1e 3f 5d ee 17 3f
       0.5954551 0.59731644 0.61855716 0.5934809
000320 f6 82 1f 3f e9 d5 20 3f ec c0 1b 3f 67 42 14 3f
       0.62309206 0.628264 0.6084125 0.5791382
000330 f1 41 21 3f 5c 26 15 3f 7b 98 15 3f 0f 0b 1f bf
       0.62991244 0.58261657 0.5843579 -0.6212625
000340 b9 ca 17 bf db e6 1c bf 50 c6 1f bf 0a 1a 20 bf
       -0.59293705 -0.6128976 -0.62411976 -0.6253973
000350 c8 0a 1e bf 9b a3 34 bf 34 4d 23 bf 66 0a 14 bf
       -0.617352 -0.7056214 -0.6378968 -0.57828367
000360 d7 aa 1b bf 94 39 16 bf 30 18 13 bf ad 44 1b bf
       -0.60807556 -0.5868161 -0.5745878 -0.60651666
000370 64 d0 1e bf 06 e5 1f bf a6 36 1b bf 73 2f 16 bf
       -0.6203673 -0.6245884 -0.6063026 -0.5866615
000380 b6 a9 19 bf 2c 76 1a bf 59 9d 16 bf 2e 48 1e bf
       -0.60024583 -0.60336566 -0.58833843 -0.6182889
000390 e5 43 18 bf 7b 5f 16 bf 08 50 16 bf d6 64 1b bf
       -0.594786 -0.5873944 -0.5871587 -0.6070074
0003a0 26 52 20 bf 62 32 1a bf 7b bd 1e 3f 72 3d 14 3f
       -0.6262535 -0.6023313 0.62007874 0.5790626
0003b0 b3 89 14 3f ad bd 16 3f 2c 06 16 3f 8a 9a 17 3f
       0.5802261 0.5888317 0.5860317 0.5922018
0003c0 32 9b 12 3f 78 55 17 3f 13 29 19 3f 72 e6 14 bf
       0.5726806 0.5911479 0.598283 -0.5816413
0003d0 5a 6c 14 bf d0 46 1a bf bc 83 13 bf cb ad 13 bf
       -0.5797783 -0.602643 -0.57622886 -0.5768706
0003e0 68 5d 1f bf eb 27 1e bf 9b 73 16 bf b4 fa 1d bf
       -0.622519 -0.6177966 -0.5877015 -0.6171067
0003f0 81 22 1c 3f c5 b4 1c 3f 21 0f 1b 3f 3c f9 20 3f
       0.6099015 0.6121333 0.6056996 0.628803

module.Conv5.layers.0.bias f4 [64]
000000 63 a4 7d bd f0 e3 1e bd 84 20 f9 bd 9d eb bb 3c
       -0.06192435 -0.038791597 -0.12164405 0.022939498
000010 40 8c c6 bc be e1 50 bd 49 82 c4 3d 75 59 e9 3d
       -0.024236798 -0.050996535 0.095951624 0.11394016
000020 65 76 68 bd 87 68 70 3d ac 37 97 3b d5 61 4f 3d
       -0.056753535 0.058693435 0.004614791 0.05063041
000030 0a d0 0c bd 86 53 9b bd 12 7d 84 3d ce e3 06 be
       -0.03437809 -0.0758429 0.06469168 -0.13172838
000040 09 c8 70 bd 11 b9 2e bb 30 e7 3b 3d bd 4a 5c bc
       -0.05878452 -0.00266606 0.045874774 -0.013445553
000050 3f dc 63 bd db c6 a8 3d 6b 34 0a 3e 91 91 e0 bd
       -0.055629965 0.08241054 0.13496558 -0.109652646
000060 9a e6 b2 bd 44 e7 84 3d eb 36 b6 ba cd 90 d0 bd
       -0.0873539 0.06489423 -0.0013901865 -0.101838686
000070 82 da b5 ba 31 f8 a3 3d 2e 1b a6 bc 32 31 f6 bc
       -0.0013874325 0.08006323 -0.020276632 -0.030052755
000080 b4 98 17 3c 1e 68 34 bc 0d 3e 50 bc 77 06 8d bc
       0.009252716 -0.011011152 -0.012710107 -0.017214997
000090 ce 3e 4e 3c 50 2a 48 bd 3a b7 1c 3e bf e5 c1 bc
       0.012588216 -0.048868477 0.1530427 -0.023669122
0000a0 0a 6e a7 bd 85 42 00 3c f7 be fd 3b 01 3e 35 3b
       -0.08175285 0.0078283595 0.007743712 0.0027655365
0000b0 2a 4c 13 3e 54 5c 1d 3e de d1 19 3d 1f ee 8e bd
       0.14384523 0.15367252 0.03755366 -0.06979012
0000c0 5f 06 09 3e 9d 7c 5d bd cc 52 17 3d bb 29 94 3c
       0.13381337 -0.05407392 0.036944196 0.018086305
0000d0 40 2b 29 3e b5 b4 12 bd bb 74 86 3d a7 10 5a 3d
       0.16520405 -0.035816867 0.06565233 0.053238537
0000e0 e7 f9 92 38 f3 52 86 3c ac e5 9f bc fb 38 26 bb
       7.0083704e-05 0.016396975 -0.019518696 -0.0025363553
0000f0 bc c3 35 3d a8 aa 3e bc 70 2f 7e 3d a3 75 fc bd
       0.04437612 -0.011637367 0.06205696 -0.12327125

module.Conv5.layers.1.weight f4 [64]
000000 47 82 08 3f fc ce 85 3e 98 99 a3 3f c0 22 ab 3f
       0.5332379 0.2613448 1.2781248 1.336998
000010 3e 26 27 3f 4d 72 c4 3f 85 79 d5 3e 54 1b a4 3f
       0.6529273 1.5347382 0.41694275 1.282084
000020 04 04 d5 3f 56 2a 6f bd 0e 9c 79 3f 27 67 d2 3f
       1.664185 -0.058389984 0.97503746 1.643773
000030 b5 d0 ff 3f e6 d3 0d 40 66 b4 9e 3f 34 0b a4 3f
       1.9985567 2.2160583 1.2398803 1.2815919
000040 1a 0b 2e 40 54 9d 2d 40 f4 e5 d8 3e b6 55 3c 40
       2.7194276 2.7127275 0.4236294 2.9427314
000050 11 2d 54 bd 99 f8 62 3e eb 1f 43 3e 5d 13 0c 40
       -0.05180079 0.22165145 0.19055144 2.1886818
000060 5d ec 9c 3f 0c 42 31 3f 7e ed a2 3f 3d b2 a3 3f
       1.2259632 0.69241405 1.2728727 1.2788769
000070 de cc b6 3f 56 04 9e 3f 06 26 3b 40 ef cc ea 3f
       1.428127 1.2345073 2.9241958 1.8343791
000080 21 37 06 3e 58 ff 4e 3f fe a8 0b 40 76 7b 46 bf
       0.13106968 0.80858374 2.1821895 -0.77532136
000090 c3 be de 3f 2b e4 a5 3f ee fd 5b 3f d3 79 a5 3e
       1.7401966 1.2960256 0.8593434 0.32319507
0000a0 82 70 a9 3e 4e 6b 51 3f e2 49 2a 3f f7 15 a7 3f
       0.3309365 0.8180436 0.66518986 1.3053578
0000b0 55 57 d5 3e af 21 5a 3f 04 59 de 3e 08 af 1f 40
       0.41668192 0.8520765 0.4342729 2.495058
0000c0 93 3a 53 bf 1f 97 7b 3f 4c 36 82 3e 7c 48 12 3f
       -0.8251125 0.9827747 0.2543205 0.5714185
0000d0 5b e0 9e 3e 54 bd d8 be 51 68 8d bf 1f f9 bb 3e
       0.31030545 -0.42331946 -1.104746 0.36713502
0000e0 ba ef 1e 40 18 4a 1e bf 34 10 27 3f c0 b6 9f 3f
       2.4833817 -0.6183181 0.652591 1.2477646
0000f0 83 e8 f8 3f 22 fd c7 3f c8 b9 01 3e 86 81 af 3f
       1.9445957 1.5624125 0.12668526 1.3711402

module.Conv5.layers.1.bias f4 [64]
000000 4e 53 7f bf 6c 97 98 bf 8b a3 f8 3d 58 c3 90 3f
       -0.9973649 -1.192121 0.12140568 1.1309614
000010 64 8e 7f 3f 9a 21 ec 3f 4a 3b 5d bf 3f 80 a6 be
       0.99826646 1.8447754 -0.8641859 -0.3251972
000020 01 e6 ec 3e 51 72 35 bf da 6d 76 bf 0f 72 18 3f
       0.4626923 -0.7087756 -0.9626137 0.5954904
000030 f3 e6 ef 3f d6 cb 9a 3f ba 48 23 3e a4 0f 96 3f
       1.8742355 1.2093456 0.15945712 1.1723523
000040 01 4e b2 3f 30 55 3e 3f 8d 80 32 bf 9b 1a 5b c0
       1.3930055 0.74348736 -0.697274 -3.4234989
000050 55 b1 94 bf 0c bc 08 bf 1a 0d bd bf 7c 92 6d 3f
       -1.1616617 -0.53411937 -1.4769623 0.9280164
000060 b4 ba 4c bd 1b 14 9b be 09 0f 00 3e 61 b9 cb be
       -0.04998274 -0.30288777 0.12505735 -0.3978987
000070 72 95 67 40 f2 f2 b2 3d 57 31 09 be 57 13 9f 3f
       3.6184964 0.087377444 -0.13397728 1.2427777
000080 ce d0 07 bf 87 c9 5a be 79 46 c3 3e 1f 97 ba be
       -0.53052986 -0.21365939 0.38139704 -0.3644342
000090 cf 18 4a 3e d3 a7 31 bd 6d c0 e0 3e 63 eb 9a bf
       0.19736026 -0.04337294 0.4389681 -1.2103084
0000a0 e1 09 81 bf 75 aa 89 be c7 9c 66 bf c0 e5 7a 3e
       -1.008114 -0.2688786 -0.90082973 0.24501705
0000b0 b9 c1 32 bf 9c 19 d8 bd c3 a7 16 bf 76 99 8d c0
       -0.6982685 -0.105517596 -0.58849734 -4.424983
0000c0 2c b5 61 bf 95 74 24 3f be ff 88 3f c4 a0 a0 bd
       -0.8816707 0.6424039 1.0703046 -0.078431636
0000d0 b4 01 6a bf 74 2e 97 3f 35 a1 85 bf fd 60 10 bf
       -0.9140885 1.1811051 -1.0439821 -0.5639799
0000e0 dc a7 a2 3f 1c fc 95 3f 7e 38 40 3f c9 72 c5 3e
       1.2707477 1.1717563 0.750862 0.38564137
0000f0 fa 9c e1 3f 55 05 8b bf 1f 5d 14 bf 25 7c 1c be
       1.762603 -1.0861002 -0.5795459 -0.15281732

module.Conv5.layers.1.running_mean f4 [64]
000000 97 bb 5b c3 e6 c8 42 c3 c3 e6 be 41 64 04 54 43
       -219.73277 -194.78476 23.862677 212.01715
000010 2a 83 35 43 e0 54 62 43 24 4e 5d 43 26 b1 02 c3
       181.51236 226.33154 221.30524 -130.69199
000020 64 ff 21 43 25 d3 f9 42 ce 81 57 c3 c9 4f 54 c3
       161.99762 124.91239 -215.50705 -212.31166
000030 98 c1 78 c2 74 7f 3c c3 2a 22 3e c3 75 ee 40 c3
       -62.189056 -188.49786 -190.13345 -192.93147
000040 f6 a1 fe c2 4f dd ed c2 02 f8 43 43 14 bb 53 c3
       -127.31633 -118.93224 195.96878 -211.73077
000050 ae f9 50 43 4e 04 3a 43 18 f4 4b c3 33 8a 0c 43
       208.97531 186.01682 -203.95349 140.53984
000060 a9 2e 36 43 ac b1 41 c3 b2 51 49 c3 e6 e3 37 43
       182.18227 -193.69403 -201.31912 183.89023
000070 e7 a6 94 42 91 24 43 c3 51 3d 06 43 7d f6 b0 c2
       74.32598 -195.14284 134.23952 -88.48142
000080 0b 64 da 42 46 c5 33 c3 27 0e 3c 43 59 df ee 42
       109.1954 -179.7706 188.05528 119.436226
000090 30 db 42 c3 f1 99 43 c3 e4 7d 1c c3 44 63 93 42
       -194.8562 -195.60133 -156.49176 73.69388
0000a0 4e c0 22 43 e3 1d 28 c3 0f 0d 41 43 11 b4 49 c3
       162.75119 -168.11674 193.05101 -201.70338
0000b0 9e 7a 37 43 13 8f 3d c3 be 55 4c 43 3f 20 25 c3
       183.47897 -189.55888 204.33493 -165.12596
0000c0 26 0e 47 43 6e 46 42 c3 23 e2 47 43 56 ce f1 c2
       199.05527 -194.27512 199.88335 -120.903
0000d0 bd 57 48 43 ab 70 ab c0 34 e3 35 43 1b ab e0 42
       200.34273 -5.3575034 181.88751 112.33419
0000e0 1c a5 b6 c2 dc a3 92 42 ea 76 61 43 5e 3a 30 c2
       -91.32248 73.32004 225.46451 -44.057
0000f0 ae 32 6c 43 d2 97 08 43 af c2 e1 42 03 19 51 43
       236.19797 136.59305 112.88024 209.0977

module.Conv5.layers.1.running_var f4 [64]
000000 e8 32 85 45 b5 16 a1 44 69 ef 49 44 db 86 08 45
       4262.3633 1288.7096 807.7408 2184.4285
000010 76 81 a4 44 b2 4f ce 44 6f 21 22 45 20 ce 0d 45
       1316.0457 1650.4905 2594.0896 2268.8828
000020 c8 a8 ca 45 c2 1c 8f 44 d4 aa 0f 45 01 16 cf 45
       6485.0977 1144.8987 2298.6768 6626.7505
000030 53 d7 b3 45 ad 49 b0 45 00 ea 85 45 77 61 28 45
       5754.9155 5641.2095 4285.25 2694.0916
000040 c4 ba 25 45 70 66 98 45 9c 45 7e 45 75 36 a7 45
       2651.6729 4876.8047 4068.3506 5350.807
000050 ae 09 a7 44 32 3c a9 45 1c 2d bc 44 09 03 11 46
       1336.3025 5415.5244 1505.4097 9280.759
000060 b9 c9 84 44 36 06 7d 45 6b 0a 76 45 73 1b fa 44
       1062.3038 4048.3882 3936.6511 2000.8578
000070 c6 27 2e 44 06 b1 dd 44 d1 15 e8 45 4c 00 c1 45
       696.62146 1773.532 7426.727 6176.037
000080 bc cc 47 44 84 79 90 45 18 20 bc 45 84 6e 4f 44
       799.199 4623.1895 6020.0117 829.7268
000090 6a c4 84 45 fc f7 f5 45 6f a6 fe 44 67 48 79 45
       4248.552 7870.998 2037.201 3988.5251
0000a0 71 7d f7 44 8f be a2 45 1b a1 00 45 c5 eb a7 45
       1979.92 5207.82 2058.069 5373.471
0000b0 f5 17 aa 45 f2 63 f3 44 4f d6 09 45 f5 0e 41 44
       5442.9946 1947.1233 2205.3943 772.2337
0000c0 50 ef 2f 45 93 fc 71 45 0b ee 68 45 a9 a2 80 45
       2814.957 3871.786 3726.8777 4116.3325
0000d0 fb fd 88 45 3c 85 01 45 41 b6 66 45 f3 88 69 44
       4383.7476 2072.3271 3691.3909 934.13983
0000e0 a5 1e 48 45 ec 6e 95 45 8d 34 56 45 d1 98 13 45
       3201.9153 4781.865 3427.2844 2361.551
0000f0 94 77 04 45 8b 4e 12 44 de 4c 21 45 62 f8 50 45
       2119.4736 585.22723 2580.8042 3343.524

module.Conv6.layers.0.weight f4 [64, 128, 3, 3]
000000 a9 bc 17 3f 01 d5 1a 3f 92 ba 13 3f 1d f6 16 3f
       0.5927225 0.6048127 0.5770656 0.5896929
000010 57 7a 1b 3f aa 4a 1b 3f 13 64 13 3f 95 20 1d 3f
       0.6073355 0.60660803 0.57574576 0.6137784
000020 cc 76 21 3f 21 dd 17 3f db c9 15 3f ac b7 15 3f
       0.63071895 0.5932179 0.5851113 0.58483386
000030 e8 9f 1f 3f 97 d6 1d 3f e5 49 1e 3f 22 4f 13 3f
       0.6235337 0.61655563 0.61831504 0.5754262
000040 99 77 14 3f 39 47 14 3f 8c 9c 13 bf 88 e8 1b bf
       0.5799499 0.5792118 -0.57660747 -0.6090169
000050 7f b5 1e bf 04 ed 17 bf 0d ec 1b bf 3b 58 13 bf
       -0.6199569 -0.5934603 -0.6090706 -0.57556504
000060 35 6f 14 bf e7 85 13 bf 2c e6 1b bf 2f 8a 15 3f
       -0.5798219 -0.57626194 -0.6089809 0.58413976
000070 13 80 1e 3f 41 7f 1d 3f e3 22 1a 3f 63 69 12 3f
       0.61914176 0.615223 0.6020948 0.5719206
000080 23 ac 1c 3f a6 53 1a 3f c3 aa 1b 3f 0a ab 12 3f
       0.6120016 0.6028389 0.60807437 0.57292235
000090 f7 0b 16 3f 8f a6 1a 3f ba bf 12 3f 38 b3 12 3f
       0.58612007 0.604104 0.573238 0.57304716
0000a0 78 69 1a 3f 61 e7 16 3f 64 04 17 3f 10 d8 19 3f
       0.6031718 0.58946806 0.58991075 0.6009531
0000b0 bf 2a 14 3f b9 8d 16 3f 2c b4 1e 3f 3a 57 21 3f
       0.57877725 0.5881 0.6199367 0.6302372
0000c0 f3 dc 18 3f b5 3c 1c 3f 01 7d 16 3f e7 7f 1b 3f
       0.5971214 0.6103013 0.5878449 0.6074204
0000d0 62 62 1e 3f 86 e9 20 3f b2 eb 1f 3f 6b e3 20 3f
       0.6186887 0.6285633 0.6246902 0.6284701
0000e0 92 80 1c 3f bf 03 13 3f 4e 29 1f 3f e0 98 13 3f
       0.6113368 0.5742759 0.621724 0.57655144
0000f0 77 8d 19 3f 33 27 1a 3f 7a c6 1a 3f 1f df 1e bf
       0.59981483 0.60216063 0.604591 -0.62059206
000100 df d1 15 bf 9f 7b 1b bf f7 5a 22 bf 1c b3 17 bf
       -0.5852336 -0.60735506 -0.6342005 -0.59257674
000110 d7 5b 1d bf 3a f5 1f bf 70 b8 16 bf 9a 2f 20 bf
       -0.6146826 -0.6248356 -0.5887518 -0.62572634
000120 f1 a1 13 bf c1 1e 17 bf 65 22 1c bf 12 6a 1c bf
       -0.5766898 -0.590313 -0.6098998 -0.6109935
000130 cf 9e 16 bf fb 52 1e bf 25 2f 1f bf 5f 81 1b bf
       -0.5883607 -0.6184537 -0.6218131 -0.6074428
000140 5f 2a 13 bf 16 53 18 3f 7e ff 1e 3f cd 6a 20 3f
       -0.5748653 0.5950178 0.621086 0.62662965
000150 66 62 18 3f 7c fb 14 3f 32 fe 16 3f 46 69 1b 3f
       0.59525144 0.58196235 0.5898162 0.6070751
000160 92 40 12 3f cf f8 1a 3f 61 e2 21 3f 22 70 22 3f
       0.57129776 0.605359 0.6323605 0.6345235
000170 38 4f 33 3f 9a 75 15 3f 1f 19 20 3f 37 96 18 3f
       0.70042753 0.5838257 0.6253833 0.5960421
000180 aa f0 1b 3f d0 75 18 3f ed e8 16 3f 25 3c 1f 3f
       0.609141 0.5955477 0.58949167 0.6220115
000190 85 9a 14 3f c3 19 1e 3f 56 d0 1a 3f 45 84 16 3f
       0.5804828 0.6175806 0.60474145 0.5879558
0001a0 b3 09 16 3f ce d9 18 3f 1c ac 1a 3f dc 08 15 3f
       0.5860855 0.59707344 0.6041887 0.58216643
0001b0 6c 62 17 3f 7c f0 1a 3f 5a 89 1d 3f e3 fb 15 3f
       0.59134555 0.605232 0.61537707 0.58587474
0001c0 3c 7d 1b 3f a9 ff 14 3f 70 22 1d 3f d5 4a 20 3f
       0.6073797 0.58202606 0.6138067 0.62614185
0001d0 5b 62 1c 3f 56 08 12 3f b9 ce 12 3f 09 b1 20 3f
       0.6108758 0.5704397 0.57346684 0.62770134
0001e0 48 06 1a 3f 0a 0d 17 3f 29 2a 12 3f f1 ef 1e 3f
       0.60165834 0.5900427 0.5709558 0.6208487
0001f0 4a 3e 20 3f 1d 3f 13 3f c1 35 20 bf 70 13 19 bf
       0.62595046 0.5751818 -0.6258202 -0.59795284
000200 05 2b 1e bf b1 4a 36 3e 71 cf 28 bf 6d e3 19 bf
       -0.6178439 0.1780193 -0.6594153 -0.6011265
000210 07 e8 1d 3f d8 62 1c 3f d9 e5 1c bf 5b d8 0f bf
       0.6168217 0.61088324 -0.6128822 -0.5618951
000220 c0 08 10 bf 7c 65 bd bd d8 32 10 bf 82 2e 15 bf
       -0.5626335 -0.09247872 -0.5632758 -0.5827409
000230 1f fa 0e bf a3 3f 18 bf a1 70 1c bf 00 a0 16 bf
       -0.55850405 -0.594721 -0.6110936 -0.5883789
000240 18 f4 18 3f 68 aa 1a 3f e7 41 1a 3f 9e dd 15 3f
       0.5974746 0.6041627 0.6025681 0.58541286
000250 dc f3 1c 3f e1 e4 12 3f 28 1f 15 3f ea 07 19 3f
       0.613096 0.5738049 0.58250666 0.597777
000260 72 dd 16 3f 8a fc 15 3f 1e e5 19 3f 10 6c 1d 3f
       0.5893165 0.5858847 0.6011523 0.61493015
000270 40 36 20 3f 1c 2e 1a 3f 6e 3b 12 3f f5 24 17 3f
       0.6258278 0.6022661 0.5712193 0.59040767
000280 02 0b 17 3f 8f d2 1d 3f 17 12 1b 3f 5b df 16 3f
       0.5900117 0.6164941 0.6057448 0.58934563
000290 5f 87 16 3f 84 f2 17 3f d4 3f 18 3f 80 91 19 3f
       0.5880031 0.59354424 0.59472394 0.5998764
0002a0 70 0c 17 3f 2f d7 15 3f 36 39 19 3f 76 a8 20 3f
       0.59003353 0.5853147 0.5985292 0.6275705
0002b0 f7 84 15 3f ed 91 1b 3f 14 7b 18 3f 8e 0d 17 3f
       0.58406013 0.6076954 0.595628 0.5900506
0002c0 07 a9 1f 3f b7 ef 1d 3f c8 c6 18 3f c4 dd 1d 3f
       0.6236729 0.616939 0.59678316 0.6166651
0002d0 d9 a4 1d bf bf 7e 1f bf 74 19 14 bf bb 63 1d bf
       -0.6157966 -0.62302774 -0.5785134 -0.614803
0002e0 48 b8 1d bf 35 f6 1d bf 2c 78 1f bf ea 4d 16 bf
       -0.61609316 -0.6170381 -0.6229274 -0.5871264
0002f0 03 09 16 bf 71 21 1b 3f 82 8c 12 3f 82 31 13 3f
       -0.586075 0.605979 0.5724565 0.5749742
000300 74 f7 1d 3f 48 07 18 3f 6e d4 1a 3f 11 c1 20 3f
       0.6170571 0.5938611 0.6048039 0.62794596
000310 39 a2 15 3f 18 b0 1e 3f 7f 96 1a 3f 0e 50 21 3f
       0.5845066 0.6198745 0.6038589 0.6301278
000320 f0 f0 13 bf b3 2e 1d 3f 2b 12 21 3f 23 d9 17 3f
       -0.57789516 0.6139938 0.6291835 0.593157
000330 00 f5 12 3f e2 66 18 3f fd 9c 14 3f 50 68 15 bf
       0.5740509 0.59531987 0.58052045 -0.58362293
000340 06 66 13 bf 35 c1 10 bf 4c c1 1b bf c2 2b 1d bf
       -0.5757755 -0.5654481 -0.6084182 -0.61394894
000350 65 0a 1f bf 17 11 20 bf 40 ee 12 bf c7 12 17 bf
       -0.62125236 -0.6252608 -0.5739479 -0.59013027
000360 96 a2 15 bf ae 79 15 bf eb 97 20 bf 10 30 1d bf
       -0.5845121 -0.58388793 -0.6273181 -0.6140146
000370 0d 3c 15 bf fc 60 1d bf ca 25 1a bf eb 32 1e bf
       -0.58294755 -0.6147611 -0.6021391 -0.61796445
000380 70 75 1f bf 8f 7f 1e bf 20 24 21 bf 46 d7 1a bf
       -0.6228857 -0.6191339 -0.6294575 -0.6048473
000390 46 a4 17 bf c5 5f 16 bf 30 83 19 bf fe d1 1e bf
       -0.59235036 -0.5873988 -0.599658 -0.6203917
0003a0 2a 78 13 bf e7 a9 1d bf 44 4b 1a 3f a9 0a 1a 3f
       -0.5760523 -0.61587375 0.60271096 0.60172516
0003b0 a3 4d 20 3f a2 26 16 3f 1d db 1b 3f 88 7b 19 3f
       0.62618464 0.586527 0.60881215 0.5995412
0003c0 8a d0 1c 3f 71 44 20 3f 26 88 12 3f e5 69 14 bf
       0.61255705 0.62604433 0.57238996 -0.5797408
0003d0 4c f0 18 bf cd 61 1e bf cb 1b 1d bf 3b 21 20 bf
       -0.59741664 -0.6186798 -0.61370534 -0.62550706
0003e0 6c 9e 19 bf 46 08 20 bf bf 49 20 bf a9 26 19 bf
       -0.6000736 -0.62512624 -0.6261253 -0.59824616
0003f0 ec fb 14 3f 3b b0 13 3f 52 08 18 3f 54 40 1f 3f
       0.581969 0.5769078 0.59387696 0.6220753

module.Conv6.layers.0.bias f4 [64]
000000 7a cb 45 3d f8 82 97 bd fe 46 18 bd 06 28 4c 3d
       0.048289753 -0.07398027 -0.03717708 0.049842857
000010 0a 9d 53 3c 8c a8 87 bd 9e ad dd 3c ce f2 c3 bd
       0.012915859 -0.06623945 0.027060326 -0.09567796
000020 7c 71 40 3d e8 2a b1 3c 52 d7 61 bd 27 f8 b8 3d
       0.046983227 0.021626905 -0.055136986 0.09031706
000030 b8 98 a4 be ad 27 84 3c 3f 83 ce 3b fd 5c ec bd
       -0.32147765 0.0161322 0.006302267 -0.115411736
000040 19 92 7c bd b3 3d f4 bd 8f 7f 08 be 82 ec e5 3d
       -0.061662767 -0.11925831 -0.1332991 0.11226751
000050 21 b5 f6 3d b5 60 b9 3d 79 d1 49 bd bb d4 e8 bd
       0.12046266 0.090516485 -0.049272034 -0.113687
000060 b8 b7 3e 3e 92 44 16 3e 1e 79 d5 3c b4 88 9e 3c
       0.1862477 0.14674595 0.02605873 0.019352295
000070 cb 16 b8 3d 2f 12 51 bd 01 86 18 3d 3b 5f db 3c
       0.089887224 -0.05104273 0.03723717 0.026778808
000080 75 7d 6a 3c 6a 15 12 bc 7d 74 70 3d bf 50 55 3d
       0.014312138 -0.008916238 0.058704842 0.05207896
000090 66 52 81 bb 4a f1 cc 3d 06 07 dc 3d 5f 30 8e 3e
       -0.0039465902 0.1000696 0.10743527 0.2777128
0000a0 59 66 1d 3d da f7 00 bd 77 70 87 3d 3e 75 fc bc
       0.038427684 -0.03148637 0.06613248 -0.030817624
0000b0 94 a5 b2 bd d3 08 16 3d 08 4b 3f be 09 4d 7a 3d
       -0.08722988 0.03662951 -0.18680966 0.061108623
0000c0 d1 31 5e 3d 19 97 b4 3c 0b 42 82 bc 4e b8 a2 bc
       0.054246727 0.022044705 -0.015900632 -0.019863274
0000d0 49 42 4c bd bb c4 10 be 96 99 3c 3d 2d 39 7e 3e
       -0.049867902 -0.14137547 0.04604491 0.24826498
0000e0 9b 26 a7 bd 2e da 78 3d 6b d9 e2 3d 0f 7d 63 3d
       -0.0816166 0.060754947 0.110766254 0.055539187
0000f0 b8 c2 51 3e 05 be 25 3e b6 e4 2d be 17 6f c2 bc
       0.20484436 0.16185768 -0.16981778 -0.023734612

module.Conv6.layers.1.weight f4 [64]
000000 3d 50 2b 3f d2 3a 00 3f 35 65 a8 3f 42 f5 7a 3f
       0.6691931 0.5008975 1.3155886 0.98030484
000010 53 40 78 3f b2 be c3 3f 3f 6c 00 3f 16 12 8d 3f
       0.9697315 1.529257 0.5016517 1.1021144
000020 57 31 66 3f 4a c5 06 3f ce 7d b3 3e 2e 9a dd 3e
       0.89919037 0.5264479 0.3505692 0.43281692
000030 b5 05 18 3f 39 25 7c 3f f7 7f 3b 3e 84 93 f8 3e
       0.5938371 0.984943 0.18310533 0.48550045
000040 81 b3 82 3f f3 ef 49 3f b2 44 98 3f a7 4f a1 3f
       1.021103 0.7888176 1.1895964 1.2602433
000050 81 64 9a 3f 5d 74 bc 3f df 08 42 3f 88 bb 88 3f
       1.2061921 1.4723011 0.75794786 1.068223
000060 2f 6f 05 3f 03 83 bd 3f e3 64 9a 3f 6c 46 35 3f
       0.5212278 1.4805607 1.2062038 0.7081058
000070 24 6e 33 3f 76 d9 15 3f b3 03 84 3f a7 17 8b 3f
       0.70089936 0.58534944 1.0313629 1.0866593
000080 14 a6 ad 3e f2 20 bd 3e ea 5a 76 3f 4e 24 9c 3f
       0.3391577 0.36939198 0.96232474 1.2198579
000090 db 14 f9 3e b2 ce ac 3f 79 53 de 3e b8 9d af 3f
       0.48648724 1.3500578 0.4342306 1.3720007
0000a0 dc b7 a3 3f 6c 41 73 3f 36 e4 4b 3d d3 ba 36 3f
       1.2790484 0.950217 0.049778186 0.7137882
0000b0 e0 b3 bc 3f c1 9c 0f 40 0d fc c6 3f 0f 67 2b be
       1.4742393 2.2439425 1.554567 -0.16738532
0000c0 25 be 43 3f 17 46 5a 3e ea 75 6a 3f 75 6e a9 3f
       0.7646201 0.213158 0.9158617 1.3236834
0000d0 74 ac 9f 3f 22 ad 83 3f 73 fc 0a 3f 5d 92 c4 3f
       1.2474504 1.0287211 0.54291457 1.5357167
0000e0 77 54 39 3f 32 8c 82 3f ef 3d 0a 3f 6e 12 60 bf
       0.7239451 1.0199034 0.54000753 -0.8752812
0000f0 90 58 fc 3e ca dd cc 3e 91 29 a8 3f 7a 2d bb 3f
       0.49286318 0.40012962 1.3137685 1.4623253

module.Conv6.layers.1.bias f4 [64]
000000 de ab d4 bf a8 94 14 bf 1a b8 4c 3f 73 b6 a5 3f
       -1.661495 -0.5803933 0.79968417 1.2946304
000010 96 60 de 3f 75 c1 1f 3f 72 eb 80 3f 54 fd f9 3f
       1.7373226 0.62404567 1.0071852 1.9530435
000020 64 7c fc 3f c8 a0 bc bf 9b 83 22 3f 4f 3d 80 bf
       1.9725461 -1.4736567 0.63482064 -1.001871
000030 b6 bc fe be 91 f1 ec 3f d5 bc 2e 3f 99 b4 a1 bf
       -0.4975335 1.851122 0.68256885 -1.2633239
000040 63 ca 40 40 9c a0 21 c0 e4 34 88 3f ae ec 11 40
       3.0123527 -2.5254278 1.0641141 2.2800708
000050 ec ef f8 bf 55 f7 31 3f 75 00 ac bf 67 81 97 3f
       -1.9448218 0.69518024 -1.343764 1.1836365
000060 92 cd 14 bf 65 01 39 3f 41 17 a6 3f a4 e9 54 bf
       -0.58126175 0.7226775 1.2975847 -0.8316901
000070 8a 15 dc bf b3 0c ad bf 2d e8 e3 3f 9b fb 16 40
       -1.7194073 -1.35195 1.780523 2.3591068
000080 46 2a 7d 3f 7b c7 84 3f 9f d0 f5 bf 37 53 1d 40
       0.9889263 1.0373377 -1.9204291 2.458204
000090 f4 8b 1d 3f 85 4e 46 3f a4 f4 65 bf d4 48 d7 3f
       0.61541677 0.7746356 -0.89826417 1.68191
0000a0 d0 0b 77 c0 2f 9a 9e bf c8 8d 2a bf e2 36 1c 40
       -3.860096 -1.2390803 -0.6662259 2.4408498
0000b0 34 2a 44 3f 0a f7 82 40 5f 58 1a 3f fc ff 58 3f
       0.76626897 4.092656 0.60291094 0.847656
0000c0 2b 0b 9b bf 29 e0 01 bf 19 48 47 bf 66 45 7b 3f
       -1.2112783 -0.50732666 -0.7784439 0.9815277
0000d0 a2 af d9 3f 5f a3 e6 3f 8d 9d 1a bf 42 8e 0a 3f
       1.7006724 1.8018607 -0.60396653 0.5412332
0000e0 b5 6b 1e bf 56 91 39 c0 9b e3 a6 bf a7 9d e2 3e
       -0.618831 -2.8994956 -1.303821 0.44260904
0000f0 ca 98 8d bf 14 35 0f bf 12 c0 c6 3f b1 92 92 40
       -1.1062253 -0.55940366 1.5527365 4.5804067

module.Conv6.layers.1.running_mean f4 [64]
000000 b6 17 2e 43 6b 0e 1e c3 2b 28 2c 43 a0 9b 3a c3
       174.09262 -158.05632 172.1569 -186.60791
000010 8d 26 2a c3 b8 5c 42 43 d0 10 1c 43 e6 20 23 43
       -170.15059 194.36218 156.06567 163.12851
000020 4b dd 15 43 f0 fc 8d 42 e8 67 4b 43 da ac 2a 43
       149.86443 70.99402 203.40588 170.6752
000030 cf cd 11 c3 e1 03 23 c3 38 aa 34 43 b2 e1 25 43
       -145.80394 -163.01515 180.66492 165.88162
000040 41 fb 32 c3 bd 76 1b 43 0d f3 cd c2 4a 7e 1a c3
       -178.98146 155.46382 -102.97471 -154.49332
000050 be 65 27 43 99 43 42 43 b0 83 19 43 0e 69 d1 c2
       167.39743 194.26405 153.5144 -104.705185
000060 08 14 36 c3 bc d3 2f 43 e8 1e 2b 43 cc c5 1b c3
       -182.07825 175.82709 171.12073 -155.77264
000070 9b 30 26 43 38 47 45 43 b4 de 1c c3 a4 55 26 c3
       166.18987 197.2782 -156.86993 -166.33453
000080 be c7 23 43 af 6b 32 43 e7 fe 22 43 86 c4 22 c3
       163.78024 178.42064 162.99571 -162.76767
000090 99 2a 30 c3 c9 60 34 43 12 77 1c 43 f2 09 1f 43
       -176.1664 180.37807 156.46512 159.03885
0000a0 2c e5 39 43 de fb 35 43 e5 7d d7 c2 9d 72 2d c3
       185.8952 181.98386 -107.74589 -173.44771
0000b0 bf 6c 31 43 93 a3 08 c3 1f 1f 3a 43 96 27 bd c2
       177.42479 -136.63896 186.12157 -94.57732
0000c0 3a ea 25 43 2e 97 51 c3 14 f4 bc c1 4a 8e 57 c3
       165.91495 -209.59055 -23.619179 -215.55582
0000d0 a8 7e 41 c3 ea 1a 1a c3 d1 78 2e c3 3c 48 2e 43
       -193.49475 -154.10513 -174.47194 174.28217
0000e0 8f e9 31 c3 db 32 1f 43 79 f2 13 43 03 52 3b 43
       -177.91234 159.19865 147.94716 187.32036
0000f0 d0 95 14 43 97 63 4f c3 c6 fb 1d c3 63 b4 31 c3
       148.5852 -207.38902 -157.98349 -177.70464

module.Conv6.layers.1.running_var f4 [64]
000000 19 c3 ab 45 77 93 6a 45 48 9c 8b 45 33 0a 49 45
       5496.387 3753.2166 4467.535 3216.6375
000010 6b d7 8c 45 ca 88 8b 45 b2 c3 b1 45 4c fa 85 45
       4506.9272 4465.0986 5688.462 4287.287
000020 a7 a2 7e 45 79 2c 42 46 6a a3 b7 45 ac e7 36 45
       4074.1658 12427.118 5876.427 2926.4795
000030 ea ea 4f 45 94 52 86 45 0a 91 db 45 0c e4 b9 45
       3326.6821 4298.3223 7026.13 5948.506
000040 f4 92 aa 45 f5 21 e8 45 53 af 2b 45 10 14 66 45
       5458.369 7428.2446 2746.9578 3681.254
000050 da de 82 45 d7 c9 8b 45 19 73 75 45 ba c8 2a 45
       4187.8564 4473.23 3927.1936 2732.5454
000060 d8 65 05 46 00 2b a0 45 ec 4c 98 45 89 7c da 45
       8537.461 5125.375 4873.615 6991.567
000070 08 36 a0 45 7e b9 a8 45 65 49 9e 45 b7 46 d0 45
       5126.754 5399.1865 5065.1743 6664.8394
000080 d9 a7 8d 45 9e 74 b3 45 b6 31 71 45 f1 0f 74 45
       4532.981 5742.577 3859.107 3904.9963
000090 ad 52 e9 45 65 95 c3 45 96 25 8f 45 4d d7 6b 45
       7466.3345 6258.6743 4580.698 3773.4563
0000a0 34 78 ea 45 67 5d cf 45 8f 17 e9 45 6c ae c0 45
       7503.0254 6635.6753 7458.945 6165.8027
0000b0 ba 95 a7 45 72 4f 3d 46 80 b7 ad 45 c1 b5 88 45
       5362.716 12115.861 5558.9375 4374.719
0000c0 de 57 93 45 28 73 96 45 13 83 02 45 d8 9e ba 45
       4714.9834 4814.3945 2088.1921 5971.8555
0000d0 75 ad 04 46 57 bf 86 45 8e bf b7 45 31 e3 8c 45
       8491.364 4311.9175 5879.9443 4508.399
0000e0 76 37 9e 45 2f c3 e9 45 2c 72 8a 45 aa d1 ff 45
       5062.9326 7480.398 4430.2715 8186.208
0000f0 21 3b a1 45 83 c7 a8 45 d5 e7 c5 45 92 de 94 45
       5159.391 5400.939 6332.979 4763.8213

module.Conv7.layers.1.weight f4 [1, 128, 3, 3]
000000 17 15 16 bf aa 13 18 bf 46 e9 13 bf e2 9f 16 bf
       -0.5862593 -0.59405005 -0.5777782 -0.5883771
000010 2f 11 16 bf 19 0b 19 bf 3b bc 2b bf ce df 20 bf
       -0.5861997 -0.5978256 -0.6708409 -0.628415
000020 60 9b 26 bf 6c e5 15 3f 55 65 19 3f 83 9d 16 3f
       -0.65080833 0.58553195 0.59920245 0.58834094
000030 7d 0c 18 3f 30 0d 15 3f 08 5e 16 3f 4b 1f 1a 3f
       0.59394056 0.5822325 0.5873723 0.60204
000040 f9 9c 17 3f 30 3e 13 3f 76 5d 19 3f f9 cf 1d 3f
       0.59223896 0.57516766 0.59908235 0.61645466
000050 15 db 18 3f ff 24 14 3f 97 66 1c 3f f9 53 16 3f
       0.5970929 0.5786895 0.6109404 0.5872188
000060 1f a8 1d 3f 52 44 1d 3f f7 81 17 3f 83 6c 18 bf
       0.6158466 0.61432374 0.59182686 -0.59540576
000070 11 c7 1c bf c5 65 1b bf 67 0b 1f bf c8 ec 18 bf
       -0.6124125 -0.60702163 -0.62126774 -0.597363
000080 a2 7d 19 bf e3 51 16 bf cb fc 12 bf c5 65 19 bf
       -0.59957325 -0.587187 -0.5741698 -0.59920913
000090 46 35 1d bf 57 f6 20 bf 83 90 0e bf 30 9f 1c bf
       -0.61409414 -0.62875885 -0.5568926 -0.611804
0000a0 34 6b 1f bf 0a f3 15 bf 7e 8a 12 bf ba 60 1f bf
       -0.62272954 -0.58573973 -0.5724257 -0.6225697
0000b0 db e8 18 bf 65 5d 1f 3f ee 17 20 3f 23 b3 1f 3f
       -0.5973031 0.62251884 0.62536514 0.62382716
0000c0 5d 42 1b 3f b3 6d 20 3f 85 3e 16 3f a9 ba 1a 3f
       0.6064814 0.6266739 0.5868915 0.6044107
0000d0 0d 8b 12 3f 1f 37 1b 3f ad 34 19 3f ee a4 16 3f
       0.57243425 0.60630983 0.59846 0.5884541
0000e0 a5 43 1b 3f fe ae 1d 3f 6f f2 12 3f 8a 26 1d 3f
       0.6065009 0.6159514 0.57401174 0.6138693
0000f0 0e 65 18 3f f0 fc 1c 3f d6 d2 11 3f a6 88 1c 3f
       0.595292 0.6132345 0.56962335 0.6114601
000100 e2 bc 12 3f 9d 70 11 3f 02 a6 17 3f 7b e6 1f 3f
       0.5731946 0.5681246 0.5923768 0.6246106
000110 88 20 1e 3f 51 70 15 3f 78 3a 1a 3f 32 4c 1e 3f
       0.6176839 0.58374506 0.60245466 0.61835015
000120 56 3d 12 3f 15 a1 1a 3f 68 ba 18 3f d4 96 1e 3f
       0.5712484 0.6040204 0.59659433 0.61948895
000130 9b 42 13 3f 1f e0 1a 3f 00 e7 15 3f 61 7f 17 3f
       0.57523507 0.6049823 0.58555603 0.5917874
000140 69 e7 1b 3f ec 86 20 bf 70 af 14 bf 1f cf 12 bf
       0.6089998 -0.62705874 -0.58080196 -0.5734729
000150 cd 10 19 bf 25 41 1b bf c4 b0 16 bf 38 75 1b bf
       -0.5979126 -0.6064628 -0.5886347 -0.60725737
000160 da 71 18 bf eb c5 1a bf 13 38 17 3f df e7 17 3f
       -0.59548724 -0.6045825 0.5906994 0.5933818
000170 13 f7 12 3f 2f 76 1c 3f ec f0 1a 3f 29 3f 1f 3f
       0.57408255 0.61117834 0.6052387 0.6220575
000180 39 d9 16 3f 66 22 1b 3f 7a 18 13 3f bf a0 15 bf
       0.58925205 0.6059936 0.57459223 -0.58448404
000190 b7 a5 17 bf 63 67 20 bf 77 6f 14 bf 21 70 16 bf
       -0.59237236 -0.62657756 -0.5798258 -0.58764845
0001a0 4e 4a 13 bf f1 2f 16 bf b9 fe 1d bf 77 d5 18 bf
       -0.57535255 -0.586669 -0.617168 -0.5970072
0001b0 1e bb 14 3f 4f d6 16 3f f8 14 17 3f b4 87 13 3f
       0.5809802 0.5892076 0.5901637 0.5762894
0001c0 87 5b 14 3f af 20 15 3f 6f 5a 1c 3f 42 69 18 3f
       0.5795216 0.58252996 0.6107549 0.5953561
0001d0 26 ed 1d 3f 45 2f 16 bf f4 ed 16 bf 10 b2 16 bf
       0.61689985 -0.5866588 -0.5895684 -0.5886545
0001e0 dd 26 1b bf e2 b2 1e bf 9a d4 1e bf 4e 74 18 bf
       -0.60606176 -0.61991704 -0.62043154 -0.59552467
0001f0 b8 a2 1f bf 10 ba 18 bf 87 7b 16 3f bc c7 19 3f
       -0.62357664 -0.5965891 0.5878224 0.60070395
000200 5c 27 13 3f 3b b4 1f 3f eb ee 15 3f 53 dc 1a 3f
       0.5748193 0.62384385 0.58567685 0.6049244
000210 e9 99 17 3f 23 7d 15 3f 96 b9 16 3f 4c 33 1d bf
       0.59219223 0.5839407 0.5887693 -0.614064
000220 c7 67 1b bf af 74 19 bf e9 9e 13 bf f8 50 14 bf
       -0.60705227 -0.5994367 -0.5766435 -0.5793605
000230 eb 99 1d bf 77 96 1a bf e5 2c 17 bf e2 33 13 bf
       -0.61562985 -0.6038584 -0.5905288 -0.5750104
000240 c5 d2 11 bf 2a 67 1d bf 41 83 16 bf 7f 8a 21 bf
       -0.56962234 -0.6148554 -0.5879403 -0.63101953
000250 26 53 21 bf ad ad 21 bf 39 40 10 bf 7e 7c 1d bf
       -0.630175 -0.63155633 -0.56347996 -0.61518085
000260 e4 ca 1b bf 63 5a 15 bf bc 10 1a bf ea f3 15 bf
       -0.6085646 -0.58341044 -0.60181785 -0.5857531
000270 a0 6a 16 bf c2 94 1e bf fc 91 1d bf 8e b3 14 bf
       -0.58756447 -0.61945736 -0.6155088 -0.5808648
000280 be 9a 1b bf ec a6 1e bf 31 0d 1f bf 8b 85 1a bf
       -0.6078299 -0.6197345 -0.62129503 -0.6036002
000290 be 0b 1d bf b0 4d 11 bf 56 59 1c bf 2f 5c 17 bf
       -0.6134604 -0.56759167 -0.61073816 -0.59125036
0002a0 ee 51 1b bf 45 3b 1d bf 18 3d 19 bf 9b 6f 1f bf
       -0.6067189 -0.61418563 -0.59858847 -0.6227967
0002b0 e3 04 1a bf d9 11 1a bf 06 75 1e bf 20 02 22 bf
       -0.60163707 -0.60183483 -0.61897314 -0.6328449
0002c0 5f d2 1d bf 4a 37 13 bf 73 99 1c bf ef 8f 10 bf
       -0.61649126 -0.5750624 -0.61171645 -0.56469625
0002d0 d5 f4 16 bf 25 91 20 bf 81 41 16 bf f2 87 15 bf
       -0.58967334 -0.6272147 -0.586937 -0.5841056
0002e0 29 cd 14 bf 01 e7 24 bf ab f1 19 bf e3 05 25 bf
       -0.5812555 -0.64414984 -0.6013438 -0.6446211
0002f0 e6 69 1e bf 27 18 1a 3f b4 d5 1a 3f f0 31 1a 3f
       -0.6188034 0.60193104 0.60482335 0.6023245
000300 0f b0 1b 3f c1 67 17 3f b7 3b 18 3f 8f e5 15 3f
       0.6081552 0.5914269 0.5946612 0.58553404
000310 8c 43 20 3f 0a b6 1d 3f c2 df 18 bf d6 18 15 bf
       0.6260307 0.61605895 -0.5971643 -0.5824102
000320 11 6f 17 bf dc f6 15 bf c0 4f 13 bf ca 17 1d bf
       -0.5915385 -0.585798 -0.57543564 -0.61364424
000330 98 6c 14 bf 8c 8d 1d bf e5 4c 20 bf 4f ab 1c bf
       -0.579782 -0.6154411 -0.6261733 -0.61198896
000340 f8 2f 1c bf f4 4e 1e bf 50 cc 1c bf 51 f8 11 bf
       -0.61010695 -0.6183922 -0.61249256 -0.57019526
000350 18 1c 14 bf 6c 4c 15 bf fb 61 18 bf 9f 08 1d bf
       -0.5785537 -0.58319736 -0.59524506 -0.6134128
000360 0e c5 1a 3f 6b 61 14 3f 5f 7b 14 3f e9 53 18 3f
       0.6045693 0.5796115 0.5800075 0.59503037
000370 25 35 17 3f a1 f1 1a 3f 8c d1 16 3f 19 69 13 3f
       0.5906547 0.60524946 0.58913493 0.5758224
000380 85 e9 15 3f e5 5e 18 3f 41 96 16 3f 67 87 1c 3f
       0.5855945 0.595198 0.5882302 0.6114411
000390 52 48 1a 3f 58 a5 18 3f f1 36 1b 3f 90 f8 1d 3f
       0.602666 0.59627295 0.6063071 0.617074
0003a0 75 2a 1d 3f e4 85 1f 3f 84 fe 1d 3f 90 11 18 3f
       0.6139291 0.62313676 0.61716485 0.594018
0003b0 49 f5 17 3f f8 3f 1d 3f ae e5 19 3f 7b f1 1a 3f
       0.5935865 0.61425734 0.6011609 0.6052472
0003c0 4f 88 16 3f f6 4d 18 3f 5a e1 18 3f cb 19 1b 3f
       0.5880174 0.5949396 0.5971886 0.6058623
0003d0 58 2e 1d 3f e7 85 19 3f e5 e4 15 3f eb d9 12 3f
       0.6139884 0.59969944 0.5855239 0.57363766
0003e0 86 76 1f 3f 9c 65 16 3f 54 62 17 3f 6e b1 1a 3f
       0.6229023 0.58748794 0.5913441 0.60426986
0003f0 2e 34 1a bf e6 b6 19 bf e4 e3 14 bf 55 f3 19 bf
       -0.6023587 -0.60044706 -0.58160233 -0.6013692
