DIDFuse/saved_models/decoder/IR_AE2.pth (torch, 604342 bytes, 13 tensors)

module.Conv5.layers.0.weight f4 [64, 128, 3, 3]
00000000: ba1b 133f 787f 0e3f c4f6 0d3f 1796 183f
00000010: 207c 1b3f 5312 153f 64d3 193f ae32 0e3f
00000020: a32e 153f 570e 163f d879 0e3f c860 163f
00000030: 7f5b 123f 1855 1b3f 616f 163f 84b7 0d3f
00000040: 51c3 143f 2786 133f de2b 1a3f c36f 133f
00000050: f859 153f 9873 0e3f 0a4e 193f 4465 193f
00000060: c1d7 133f c1e4 0e3f 8948 173f 4421 103f
00000070: f74d 193f fecd 113f f4ad 123f 4455 113f
00000080: 5c7b 133f 0be9 1a3f 29e1 173f b014 163f
00000090: d287 173f ecf9 173f cb1c 1a3f 9e50 123f
000000a0: f377 0e3f 4e6e 113f 3738 1b3f 8c82 0d3f
000000b0: 0258 133f 0dc2 153f db5f 133f a863 103f
000000c0: 57c7 143f 414f 183f abc8 1b3f cd6d 0d3f
000000d0: 9f67 113f 3e2f 133f 809f 15bf 6c5e 12bf
000000e0: e6f5 19bf 8223 11bf 844e 17bf 882e 0dbf
000000f0: 40d3 1abf 4985 13bf e943 1bbf 41b2 1a3f
00000100: bd1d 1b3f b7fb 113f b3b6 163f eef4 153f
00000110: 15c0 0d3f 88b2 153f 5508 133f e81a 153f
00000120: 9c36 17bf 7159 18bf 4fd6 0fbf 5fa5 1bbf
00000130: 9f82 0fbf 5701 14bf 36cb 203f 6099 1d3f
00000140: fb79 12bf d65c 1b3f fee3 0e3f 4bb2 0d3f
00000150: dbdc 1b3f b6ed 163f 2734 163f 4568 123f
00000160: e929 143f 5e02 0f3f 0e36 11bf 4b31 10bf
00000170: 26dc 10bf b5d5 1abf 3bf1 13bf f350 19bf
00000180: 7681 1bbf b0a7 10bf 4f1d 1abf 240a 10bf
00000190: 2c35 0fbf ffe4 1abf 1ae8 0fbf ca5e 18bf
000001a0: fa67 14bf 6afe 0fbf 2823 0fbf ffa5 14bf
000001b0: 6d43 14bf d874 17bf b587 1cbf dff7 11bf
000001c0: bd8e 17bf 5b7f 10bf 0dc4 19bf e412 12bf
000001d0: 5ce2 11bf 02b4 173f 509f 193f e699 143f
000001e0: 5eed 123f 9aa3 153f 01a6 143f dda1 163f
000001f0: c1ea 103f 817f 143f b25f 19bf 6c11 13bf
00000200: 3ea1 18bf b3e1 13bf e5af 19bf be84 16bf
00000210: a840 12bf 95ae 19bf d08e 18bf b211 14bf
00000220: bfa5 1bbf c90e 13bf 626b 13bf fb46 12bf
00000230: e9d4 15bf f9f8 14bf 1f29 0fbf 7103 14bf
00000240: 4d1c 13bf 4402 14bf 7ca2 12bf 2201 1bbf
00000250: 4e5f 18bf 295f 1bbf a47d 14bf b745 18bf
00000260: 0ec5 0ebf d3bc 193f 5180 1a3f f353 153f
00000270: 0573 123f 384c 1b3f 4f08 113f f25c 14bf
00000280: 8d35 1bbf c43c 0cbf c293 12bf d52e 11bf
00000290: 9d70 18bf 188a 203f 225a 12bf 8b20 143f
000002a0: 42e5 133f 93ab 163f d81a 193f 9ec4 153f
000002b0: a3fe 113f 48fc 143f 06f6 173f 397b 193f
000002c0: 0dd8 173f fc0c 133f 0abe 1b3f e2c6 103f
000002d0: 0b8f 143f fae2 193f 2219 183f a514 103f
000002e0: 2133 143f 914a 173f c157 0cbf 9e5e 17bf
000002f0: 6340 14bf 5cc9 0f3f 7bd2 123f 6917 1c3f
00000300: e82f 0f3f 30b1 123f 3842 1c3f 6eb8 183f
00000310: 2114 143f 5d76 143f a211 193f 9083 123f
00000320: 7c0f 1a3f 838e 1b3f a152 163f 4bd1 0e3f
00000330: e6f9 1b3f cebc 0f3f 5238 103f 192b 1abf
00000340: 22a0 12bf 8ddd 17bf 35a3 1abf ad14 1abf
00000350: 0993 18bf 925c 16bf b515 1abf a053 0ebf
00000360: ae1d 17bf 9f89 11bf b891 0ebf 6fac 16bf
00000370: e713 1abf 0e52 1bbf a1bc 16bf 4598 11bf
00000380: af3f 15bf fbcf 15bf 009e 12bf 1183 1abf
00000390: e587 13bf 41e9 11bf 7eda 11bf e471 16bf
000003a0: 8b9b 1bbf ac6e 15bf 1f6f 1a3f fb68 0f3f
000003b0: 01f3 0f3f cd16 123f ab22 113f aad7 123f
000003c0: edf4 0d3f 308d 123f 4174 143f 1eee 0fbf
000003d0: ee7a 0fbf 3951 15bf 518b 0ebf d1ba 0ebf
000003e0: ef64 1abf a2fc 18bf 3042 11bf c1b8 18bf
000003f0: 3063 153f f9c4 153f 242a 143f 4c93 1a3f
0.5746418 0.5566325 0.5545466 0.5960402 0.60736275 0.58231086 0.6008818 0.5554608
0.58274287 0.5861563 0.5565467 0.58741426 0.5717086 0.6067672 0.587637 0.5535815
0.5811053 0.57626575 0.60223186 0.5759241 0.58340406 0.5564513 0.59884703 0.59920144
0.5775109 0.558178 0.59095055 0.5630076 0.5988459 0.56954944 0.5729668 0.5677073
0.57610106 0.60511845 0.5932794 0.58625317 0.5919162 0.59365726 0.60200185 0.5715426
0.5565178 0.56808937 0.6063265 0.55277324 0.57556164 0.58499223 0.5756814 0.56402063
0.5811667 0.5949593 0.6085307 0.5524567 0.5679874 0.5749396 -0.584465 -0.57175326
-0.60140836 -0.56694806 -0.5910418 -0.55149126 -0.6047859 -0.5762525 -0.606505 0.60428244
0.6059225 0.5702471 0.58872527 0.5857686 0.5537122 0.5847554 0.5743459 0.5824418
-0.590677 -0.59511477 -0.56186384 -0.6079921 -0.56058687 -0.57814544 0.62810075 0.61562157
-0.5721738 0.6068853 0.5581664 0.5535018 0.60883874 0.5895647 0.5867333 0.5719035
0.5787645 0.5586299 -0.56723106 -0.56325215 -0.5658592 -0.6048234 -0.57789963 -0.59889144
-0.60744417 -0.5650587 -0.6020097 -0.56265473 -0.5594051 -0.6050567 -0.56213534 -0.59519637
-0.57971156 -0.5624758 -0.5591302 -0.5806579 -0.57915384 -0.59162664 -0.6114457 -0.57018846
-0.59202176 -0.5644433 -0.60064775 -0.57060075 -0.5698602 0.59259045 0.60008717 0.5804733
0.57393444 0.5845276 0.580658 0.58840734 0.56608206 0.58007056 -0.59911644 -0.5744846
-0.59621036 -0.57766265 -0.6003402 -0.587963 -0.5712991 -0.60032016 -0.59592915 -0.578395
-0.60799783 -0.57444435 -0.5758573 -0.5713956 -0.58528 -0.581924 -0.5592212 -0.5781775
-0.5746506 -0.5781596 -0.5727918 -0.60548604 -0.59520423 -0.6069208 -0.5800421 -0.59481376
-0.5576943 0.6005375 0.60352045 0.5833122 0.57206756 0.60663176 0.566533 -0.57954323
-0.60628587 -0.5478022 -0.5725671 -0.56712085 -0.59546834 0.62710714 -0.5716878 0.57862157
0.57771695 0.5885555 0.59806585 0.5850314 0.5702917 0.5819745 0.59359777 0.5995365
0.5931404 0.5744169 0.6083685 0.5655347 0.58030766 0.60111964 0.5941335 0.562815
0.57890517 0.59098154 -0.548214 -0.5912875 -0.57910746 0.56166625 0.5735242 0.6097322
0.55932474 0.57301617 0.6103854 0.5965642 0.57843214 0.5799311 0.5979253 0.57232
0.6017988 0.6076433 0.5871983 0.55788106 0.6092819 0.5614747 0.5633594 -0.6022201
-0.57275593 -0.59322435 -0.60405284 -0.601878 -0.5959936 -0.58735 -0.6018937 -0.5559635
-0.5902966 -0.5685062 -0.556911 -0.5885686 -0.6018662 -0.6067208 -0.58881575 -0.5687297
-0.583003 -0.5852048 -0.5727234 -0.6035624 -0.57629234 -0.5699654 -0.5697402 -0.58767533
-0.60784215 -0.58371997 0.6032581 0.5601956 0.5623017 0.5706604 0.56693524 0.5736033
0.5545185 0.57246685 0.5798989 -0.56222713 -0.5604695 -0.5832706 -0.5568133 -0.5575381
-0.6031026 -0.5976049 -0.5674162 -0.5965691 0.58354473 0.5850368 0.578768 0.6038101

module.Conv5.layers.0.bias f4 [64]
00000000: 6090 80bd dc53 2cbd 7c57 f9bd b2d8 c23c
00000010: 2bd0 a2bc eea1 2cbd 8d91 c23d 5394 e63d
00000020: 3e15 68bd db5f 6e3d 47b1 a33b e317 4e3d
00000030: 79ce 0abd 7919 8dbd 1f7c 823d d271 06be
00000040: 1872 8fbc 032b 86bb fdd1 3d3d 80fc 14bc
00000050: 8b63 62bd 485b a73d a757 093e b9bb e3bd
00000060: 54c9 aebd 497e 803d d93c 5c3a 1424 d1bd
00000070: 81d5 f9ba 33f1 a13d 5022 96bc 6058 f0bc
00000080: 914f 1b3c 95da 23bc 2405 02bc 2bbf 89bc
00000090: aa89 f53b 88ee 55bd 2e4f 153e 7546 c1bc
000000a0: 7180 a5bd a437 f33b 6903 013c b8f2 633b
000000b0: 8676 0f3e b9f6 1a3e d14f 1c3d eae0 a3bd
000000c0: 9d3b 073e 8184 5dbd 53ac 123d c9ac 923c
000000d0: 1cf8 293e 5ec7 08bd a20d 7b3d 7d59 583d
000000e0: d637 2d3b 00ae ac3c 3361 89bc 3165 28bb
000000f0: b375 3c3d 9784 53bc 6eaa 813d 9b32 febd
-0.06277537 -0.042072162 -0.121748894 0.023784969 -0.019874653 -0.042146616 0.09500418 0.11258759
-0.056660883 0.058196884 0.0049954983 0.05031575 -0.033888314 -0.06889624 0.063713305 -0.13129357
-0.017510459 -0.004094483 0.04634284 -0.009093404 -0.055270713 0.081717074 0.13412343 -0.1111979
-0.08534494 0.06274087 0.0008401401 -0.102119595 -0.0019060822 0.07907333 -0.018326908 -0.029339015
0.009479419 -0.0100008445 -0.007935796 -0.016814789 0.0074932175 -0.052229434 0.14580986 -0.023593167
-0.08081139 0.0074224044 0.007874348 0.0034782123 0.14010057 0.1513318 0.038162056 -0.08001883
0.13206334 -0.054081444 0.035808872 0.017904656 0.16598552 -0.033393256 0.0612923 0.052819718
0.0026430986 0.021079063 -0.016769981 -0.002569508 0.046010684 -0.01291003 0.06331335 -0.12411996

module.Conv5.layers.1.weight f4 [64]
00000000: 135b d73e 5057 783f 1795 d93f d581 2d3f
00000010: fdb9 503f 1be8 843f 9a07 f33e 01f1 d43f
00000020: a676 543f f4c7 d73e 5a7d 8d3f 47cd c53f
00000030: 64cc ca3f dc5d d03f dd33 f03e 0247 823f
00000040: 77a6 de3f fe58 c63f 17c1 ed3e 0dcc 0140
00000050: 66be 503f 355e 133f c961 babd 7aa7 ee3f
00000060: bc6b c33f 9f36 f33e c11c fe3e 96ed c13f
00000070: 2347 8d3f eb15 2e3f 5b8f 0640 8479 a83f
00000080: 29f6 df3e dd93 db3e 18c8 be3f a99f 053f
00000090: 7c1a c43f 7b51 d03f dce9 ce3e 671d 253d
000000a0: 0848 153e b845 de3e da42 843f 0636 f63e
000000b0: c3a1 e63e 2689 033f 2644 e93e 472e e83f
000000c0: 5a47 6d3d 2b25 cb3f efc7 213f df32 cc3e
000000d0: 9149 103f ec85 273f a2a7 d43e 9c47 e73e
000000e0: bc08 d23f f4f7 403f 499b 3e3f a709 1a3f
000000f0: 3d6f dc3f e003 963f 0d12 eb3e a86f c43f
0.42061672 0.9700823 1.6998624 0.6777623 0.81533796 1.0383333 0.47466737 1.6636049
0.82993543 0.4214474 1.1053879 1.5453271 1.5843625 1.6278644 0.4691457 1.017792
1.7394551 1.5495908 0.46436378 2.0280793 0.81540525 0.57565624 -0.09100682 1.864486
1.5267253 0.4750261 0.49631312 1.515063 1.1037334 0.68002194 2.1024997 1.3162084
0.43742493 0.42886248 1.4904814 0.5219675 1.5320582 1.6274866 0.40412796 0.040311243
0.14578259 0.43412566 1.0332901 0.48088092 0.4504529 0.51381147 0.45559806 1.8139123
0.057929374 1.5870718 0.631957 0.39882562 0.56362253 0.65438724 0.41534144 0.4517182
1.6408916 0.75378346 0.74455696 0.6017098 1.7221447 1.1719933 0.4591221 1.5346575

module.Conv5.layers.1.bias f4 [64]
00000000: a722 20bf 2a6c 0a3e d23c 283f 3348 7cbe
00000010: bd89 7e3d 0ff5 753f 8761 d4be 98b3 083f
00000020: 6231 2dbe dab5 00bf 9e1d 863e 516d b63e
00000030: 6c4c 683f 3686 2f3f d283 e8be 5f5e 1fbd
00000040: 80ba 543f 2394 293e cd67 05bf 50bd c2bf
00000050: 812a e8bd 800d cebe 5552 76bf 8970 253f
00000060: d048 e63e 8790 f3be 4d53 f1be 7c60 da3e
00000070: 248c 1940 5470 babe e406 a63e a2ba 163f
00000080: e49f 04bf c8ca f6be 80a8 e13e 6d32 06bf
00000090: d7b5 253f b88c fabd 7363 cabe cab2 93bf
000000a0: 08bd 70bf 8f03 acbe 7f01 60bd 446b 27bf
000000b0: 353a 12bf 6330 f4be e272 08bf f56a c8bf
000000c0: 8d49 fa3e 54e6 493f a8eb da3e f661 16bf
000000d0: 0308 8ebe 535b 6e3f 0439 18bf 1e4e 0abf
000000e0: 3723 203f 6ddc 0c3f 6be5 843f 4b23 bcbe
000000f0: efa0 493f de57 29bf 8328 aebe d7f6 0e3f
-0.62552875 0.13517824 0.65717804 -0.24636917 0.062143076 0.96077055 -0.41480657 0.5339904
-0.1691337 -0.50277483 0.2619447 0.35630277 0.9074161 0.68564165 -0.4541307 -0.03890836
0.83097076 0.16560416 -0.5211151 -1.5214024 -0.11336232 -0.40244675 -0.9621938 0.6462484
0.44977427 -0.47571203 -0.47133866 0.42651737 2.3991785 -0.36413825 0.32427132 0.5887853
-0.51806474 -0.48201585 0.44073868 -0.52420694 0.6473059 -0.12233871 -0.39529 -1.1538937
-0.9403844 -0.33596465 -0.054688927 -0.6539805 -0.57120067 -0.47693166 -0.533003 -1.5657641
0.4888424 0.7886708 0.42757916 -0.58743227 -0.27740487 0.931081 -0.59462 -0.5402545
0.62553734 0.55023843 1.0382513 -0.36745676 0.7876119 -0.661497 -0.34015283 0.558454

module.Conv5.layers.1.running_mean f4 [64]
00000000: b985 a2c2 feb1 adc2 098a dfbf 65c8 6c42
00000010: c723 5c42 09d5 9342 461f 9d42 5c15 17c2
00000020: abdd 7442 b991 f641 488a a0c2 c969 a2c2
00000030: b9ad 65c0 d35b c3c2 f500 9ac2 cc0a 8cc2
00000040: eecf 97c2 6647 66c2 2531 a942 0719 c1c2
00000050: b8e6 9842 f73b ad42 593d 8cc2 c563 5f42
00000060: da49 7242 b244 86c2 5764 70c2 7623 7342
00000070: 2298 5142 c590 7bc2 039c 5042 1dee 6ec1
00000080: f00e 0042 192c 81c2 238d 7142 0b0f 0c42
00000090: 18e9 92c2 ba3e b9c2 d38d 45c2 cc0b 1642
000000a0: 6b4a a342 f7d3 8ac2 1a95 c242 5d8a 96c2
000000b0: 61ca b042 0ae8 63c2 da97 7a42 ad39 6cc2
000000c0: e202 7642 255a 87c2 547e 7342 b75b 77c2
000000d0: 4773 a742 a4cc fa41 c8d5 ab42 f031 c942
000000e0: c54b 86c2 a030 9942 a0fc 8842 273a 6bc1
000000f0: 62b8 7e42 3214 4242 c993 b342 d20d 7142
-81.26118 -86.84764 -1.7464 59.195698 55.03494 73.916084 78.56108 -37.77086
61.216473 30.821154 -80.27008 -81.20661 -3.5887282 -97.679344 -77.00187 -70.02109
-75.90611 -57.569725 84.595985 -96.54888 76.45062 86.61712 -70.11982 55.84743
60.57212 -67.13417 -60.09799 60.78463 52.398567 -62.891376 52.152355 -14.933133
32.014587 -64.58613 60.38783 35.01469 -73.45526 -92.62251 -49.3885 37.51152
81.64535 -69.413994 97.291214 -75.27024 88.39527 -56.9766 62.648293 -59.056324
61.502815 -67.67606 60.873367 -61.839565 83.72515 31.349922 85.91754 100.597534
-67.14799 76.59497 68.49341 -14.701697 63.68006 48.519722 89.78864 60.263496

module.Conv5.layers.1.running_var f4 [64]
00000000: 9ca6 3143 1cc7 8c44 8d86 8943 b88c 1244
00000010: 5300 2f44 5ea0 7c44 a62e 0844 fac7 0144
00000020: ebaa 1444 b07d 3444 245d 7744 ded8 2343
00000030: 6b03 2d45 9103 0844 182d 2343 9b60 0844
00000040: f2a1 d343 5c3d 6144 751f 8143 4e1a b943
00000050: a5f5 3b44 df2b 7243 a65c a544 c4bb 7644
00000060: 38ee 5744 07a3 0243 5ecc 3b43 c427 9f44
00000070: 040f aa43 4eb5 2344 8ec6 3344 396e 3944
00000080: 108b f343 bff6 1b43 52a3 1843 5d7f c242
00000090: c468 2443 8ead 8a43 a9da 1344 03dc 1944
000000a0: f699 0244 43aa 8e43 b0a2 7644 9b33 6743
000000b0: 8628 cb43 79f9 2144 edca bb43 3f53 cd42
000000c0: 6f9e 9f43 39e0 4c43 91b7 0743 80d4 4d44
000000d0: aa0b 2543 406a 9e43 49b8 8b43 b08e 4644
000000e0: 8598 f143 e8de d643 3d83 e343 07ae 9e44
000000f0: df82 1f44 d3d0 dd43 a025 3544 c740 9043
177.65082 1126.2222 275.05118 586.1987 700.00507 1010.50574 544.7289 519.12463
594.6706 721.96387 989.4553 163.84714 2768.2136 544.0557 163.17615 545.50946
423.2652 900.95874 258.24576 370.2055 751.8382 242.17137 1322.8953 986.93384
863.72217 130.63683 187.79831 1273.2427 340.1173 654.8329 719.1024 741.7222
487.08643 155.96385 152.63797 97.24876 164.40924 277.3559 591.41656 615.4377
522.40564 285.33017 986.542 231.20158 406.3166 647.898 375.58536 102.66259
319.23776 204.87587 135.71706 823.3203 165.04556 316.83008 279.43973 794.2295
483.19156 429.74146 455.0253 1269.4384 638.04486 443.63144 724.5879 288.50607

module.Conv6.layers.0.weight f4 [64, 128, 3, 3]
00000000: 0cb4 123f ea03 163f 1bdf 0e3f e81b 123f
00000010: 0dbf 163f 7686 163f 8d6b 0e3f ff60 183f
00000020: 7eac 1c3f 1cb3 123f 9aa5 103f 1c94 103f
00000030: 517a 1a3f 9cb9 183f dd2e 193f fc26 0e3f
00000040: 8554 0f3f 8d26 0f3f 68a0 0fbf 4eaf 17bf
00000050: 63aa 1abf ebb1 13bf 896c 17bf faec 0ebf
00000060: a445 10bf aa23 0fbf 7086 17bf bc9e 103f
00000070: 9f86 193f ab74 183f 4e3a 153f 6a70 0d3f
00000080: 1aa2 173f 746b 153f e7b3 163f a4a3 0d3f
00000090: 70de 103f b37d 153f 1986 0d3f 7fad 0d3f
000000a0: cc63 153f 62ca 113f 8ee4 113f febb 143f
000000b0: 4cfb 0e3f 30ac 103f 58c4 183f 3466 1b3f
000000c0: fd28 133f bb8e 163f c2e2 103f 70b7 153f
000000d0: 2bac 183f 344b 1b3f 4c01 1b3f e305 1c3f
000000e0: d4a4 173f 7522 0e3f cf56 1a3f fcc9 0e3f
000000f0: 56a4 143f ef4b 153f 18ef 153f bcb6 15bf
00000100: ce1a 0dbf 256c 14bf 6d3d 1bbf d988 10bf
00000110: 61ae 16bf 315d 19bf a439 10bf ed27 1abf
00000120: 2660 10bf 1b2c 13bf 7722 18bf 9012 18bf
00000130: 43a5 11bf e299 19bf 105c 1abf 3321 16bf
00000140: ef06 0ebf 3e82 133f d62f 1a3f 589a 1b3f
00000150: b191 133f db2b 103f fb2d 123f dc97 163f
00000160: 3570 0d3f f227 163f 2166 1c3f 5a51 1c3f
00000170: c09b 213f 9b36 103f 81ad 1a3f 3e8c 123f
00000180: 34c5 163f 1a29 133f d847 113f f9c2 1a3f
00000190: 5956 103f 949b 193f 8b62 163f 3b51 123f
000001a0: e8a5 113f 1735 143f 8f2f 163f d561 103f
000001b0: ffe0 123f c082 163f faff 183f 4754 113f
000001c0: 22dc 163f a744 103f da4a 183f 0e71 1b3f
000001d0: 7b6e 173f 198a 0d3f 158c 0e3f 833e 1c3f
000001e0: a976 153f ebba 123f 54ae 0d3f 560d 1a3f
000001f0: 348d 1b3f 3c6e 0e3f 3eef 15bf 7911 0ebf
00000200: d32d 18bf b44a 373f dc72 18bf 1686 13bf
00000210: f5c0 193f c2db 193f 7fdb 15bf 63d8 0ebf
00000220: a475 0fbf 5cfe 08bf 6482 0dbf 51c0 12bf
00000230: 3528 12bf fe3d 15bf 4e9e 19bf c0c7 15bf
00000240: a837 153f bb6f 173f db0a 163f dc82 123f
00000250: 6434 1a3f 1c29 0f3f 50a7 103f 0e14 153f
00000260: 5e60 123f 6151 113f 8387 153f 03db 183f
00000270: 909c 1b3f 51e9 153f a6cb 0d3f 0f29 123f
00000280: 3856 123f 7303 193f ee1f 163f a7fe 113f
00000290: 91a0 113f 7c0d 133f 9e74 133f 4fc2 143f
000002a0: c619 123f 90f7 103f 0c54 143f 2f75 1a3f
000002b0: 9ebd 0f3f aa8c 153f e0a7 123f 5e94 113f
000002c0: 8fda 193f 9c1b 183f 553e 133f 670d 183f
000002d0: 47f0 18bf 35c3 1abf a25b 0fbf b1a8 18bf
000002e0: 32f8 18bf e634 19bf e6bc 1abf d98e 11bf
000002f0: 7349 11bf aa46 163f 63b0 0d3f 4155 0e3f
00000300: f318 193f fb27 133f 85f4 153f bfe1 1b3f
00000310: ecc2 103f c3cf 193f 73dd 153f 2d9a 1c3f
00000320: 8f03 0fbf be69 183f c04d 1c3f 6e08 133f
00000330: 0638 0e3f 7eaa 133f d3e2 0f3f 46dc 11bf
00000340: 9f5d 0fbf 8012 0dbf f65b 17bf 3729 18bf
00000350: 6a53 1abf 5a47 1bbf 9077 0dbf 0cdb 11bf
00000360: c24d 11bf 990d 11bf 6331 1cbf 39b5 18bf
00000370: 45ad 10bf 49dd 18bf 69ab 15bf 94a5 19bf
00000380: d3ee 1abf 4c30 19bf d560 1bbf fe52 15bf
00000390: d672 12bf 81ea 10bf 2830 14bf f0b7 19bf
000003a0: 8f17 0ebf 758e 18bf d6ff 153f 25ea 153f
000003b0: daec 1b3f bedf 113f d4ae 173f 3511 153f
000003c0: 3222 183f efc0 1b3f 2dbb 0d3f 6da4 0fbf
000003d0: 4d24 14bf a3a3 19bf 2b5a 18bf 0b5b 1bbf
000003e0: 5fe5 14bf 7358 1bbf 2997 1bbf 8d7d 14bf
000003f0: c1d5 113f 15f3 103f 817a 153f 1444 1c3f
0.5730598 0.5859972 0.5580918 0.5707383 0.5888527 0.5879892 0.5563286 0.59523004
0.612007 0.5730455 0.5650269 0.56475997 0.6034289 0.5965822 0.5983713 0.55528235
0.5598834 0.559182 -0.56104136 -0.5925187 -0.6041624 -0.57693356 -0.59149987 -0.5583035
-0.56356263 -0.55913794 -0.5918951 0.5649221 0.5997104 0.5955302 0.5829209 0.55249655
0.5923172 0.58367085 0.5886826 0.5532782 0.5658941 0.58394927 0.5528274 0.5534286
0.583554 0.56949437 0.5698937 0.58099353 0.558522 0.5651274 0.59674597 0.60702825
0.5748442 0.5881154 0.56596005 0.5848303 0.5963771 0.60661626 0.60548854 0.6094648
0.5923588 0.5552133 0.6028871 0.55776954 0.58063257 0.5831899 0.58567953 -0.58481956
-0.55119026 -0.57977515 -0.60640603 -0.5645881 -0.5885983 -0.59907824 -0.5633795 -0.6021717
-0.5639671 -0.57489175 -0.5942759 -0.59403324 -0.56892794 -0.6000043 -0.60296726 -0.5864441
-0.5547933 0.5762061 0.6022924 0.60782385 0.5764418 0.5631692 0.5710141 0.5882547
0.5524934 0.586547 0.61093336 0.6106163 0.6312828 0.5633332 0.60420996 0.5724524
0.5889466 0.5748459 0.5675025 0.60453755 0.56381756 0.6000302 0.58744115 0.571552
0.5689378 0.5789351 0.5866632 0.5639928 0.57374567 0.5879326 0.5976559 0.5676922
0.58929646 0.56354755 0.59489214 0.6071938 0.59152955 0.55288845 0.556825 0.61032885
0.58384186 0.57316464 0.5534413 0.601766 0.60762334 0.55636954 -0.5856818 -0.5549541
-0.5944492 0.7159836 -0.5955026 -0.57626474 0.60060054 0.6010095 -0.5853805 -0.5579893
-0.5603888 -0.5351312 -0.55277085 -0.573247 -0.570926 -0.5829772 -0.6000718 -0.5850792
0.5828805 0.5915486 0.58610314 0.57230926 0.6023619 0.559221 0.565053 0.58233726
0.57178295 0.567648 0.584099 0.59709185 0.6078577 0.5855914 0.5538887 0.570939
0.5716281 0.5977089 0.5864247 0.57029194 0.5688563 0.5744245 0.5759982 0.5810899
0.5707058 0.5662775 0.57940745 0.6033506 0.5614871 0.5841776 0.57287407 0.56867015
0.6009912 0.5941713 0.57516986 0.5939545 -0.59741634 -0.6045411 -0.55999196 -0.596324
-0.59753716 -0.5984634 -0.60444486 -0.56858593 -0.567527 0.58701575 0.5534727 0.5559884
0.59803694 0.5748288 0.5857623 0.60891336 0.5654743 0.60082644 0.5854103 0.61172754
-0.55864805 0.5953635 0.6105614 0.5743474 0.55554235 0.57682025 0.5620548 -0.56976736
-0.5600223 -0.55106354 -0.59124696 -0.5943789 -0.6028353 -0.6065575 -0.5526056 -0.56974864
-0.56759274 -0.56661373 -0.6101286 -0.59651524 -0.5651439 -0.59712654 -0.58464676 -0.6001828
-0.60520667 -0.5983932 -0.6069463 -0.5832976 -0.57206476 -0.56607825 -0.5788598 -0.6004629
-0.555047 -0.5959237 0.585935 0.585604 0.6090828 0.5698203 0.5925114 0.5822938
0.5942718 0.6084127 0.5536373 -0.5611027 -0.5786789 -0.60015315 -0.59512585 -0.60685796
-0.5816249 -0.6068184 -0.6077753 -0.58004075 0.5696679 0.56620914 0.5839005 0.6104138

module.Conv6.layers.0.bias f4 [64]
00000000: 20cd 473d 8fe1 95bd 9fd5 14bd 92ae 413d
00000010: e085 743c fb97 86bd 2c51 dd3c 233a bfbd
00000020: 0e59 3f3d c625 af3c a321 60bd ae84 b63d
00000030: 2315 a1be e1d1 703c 0317 cf3b 8c4b e9bd
00000040: f564 7cbd 2d43 f0bd 8a01 07be f73d e63d
00000050: a806 f73d 94b2 b63d 9aa5 46bd 0ab5 e3bd
00000060: b419 3c3e 036b 143e 4abb d03c 0711 9f3c
00000070: 3bbe b73d 37ea 51bd 64b8 103d 3f1f dc3c
00000080: 34d7 6c3c 415a 13bc 5a2b 603d 9399 433d
00000090: b510 85bb c746 ca3d 0d3e d93d 85dc 8d3e
000000a0: 058f 1c3d 2054 f3bc 8e24 853d bf0e fdbc
000000b0: 687b b2bd c595 183d a7ae 3cbe a1d8 783d
000000c0: 45e5 5a3d 843b ae3c abdc 7ebc 6fe6 b8bc
000000d0: 8337 44bd 5ecf 0fbe 6357 383d 5b39 7b3e
000000e0: 0ef8 a4bd 5a10 793d 8191 e03d 99ea 623d
000000f0: 2da5 4e3e 17bc 233e f81a 2bbe db98 c0bc
0.048779607 -0.073184125 -0.036336537 0.047285624 0.014924496 -0.06571957 0.027016245 -0.093372606
0.04671579 0.021380316 -0.05471958 0.089120254 -0.3146144 0.0146984765 0.006319882 -0.113913625
-0.061619718 -0.11731563 -0.13184181 0.112422876 0.120618165 0.0892078 -0.048497774 -0.11118515
0.1836918 0.14493947 0.025479931 0.019417299 0.089718305 -0.051248755 0.0353321 0.026870368
0.014455605 -0.008993686 0.054728843 0.04775388 -0.0040608295 0.09876781 0.10607538 0.27707306
0.03822233 -0.0297032 0.06501113 -0.03089082 -0.08714944 0.037252206 -0.18426 0.06075347
0.053441305 0.021268614 -0.015555541 -0.022570817 -0.047904503 -0.14043948 0.045005213 0.24533598
-0.08055125 0.06080661 0.10965253 0.05539951 0.20180197 0.1598972 -0.16709507 -0.023510387

module.Conv6.layers.1.weight f4 [64]
00000000: aff1 da3e 4cc7 d93e e312 c63f da74 c53f
00000010: caaf b93f 8e14 c93f 2ab3 d33f c2e2 cb3f
00000020: c639 cb3f 4d95 023f c0d3 ac3f 3764 d73e
00000030: 1ffe dc3e 9768 bd3f 7b1b a93f 5ead dd3e
00000040: f456 a83f a4da de3e 5a6b c73f 743a be3f
00000050: 6c8e dc3e 7e0e c93f 9ac1 d83e 9798 c53f
00000060: beba d83e aca0 c83f 58a0 ca3f 9594 0d3f
00000070: 273a e03e 26d9 df3e 826a c23f 0936 bb3f
00000080: dc52 b73f c6ef 973f c7c8 d43e 5ceb b93f
00000090: 5751 083f d4fa c83f 69ad cd3e 5cda ca3f
000000a0: bdbd e13e 7523 db3e 6f15 eb3e eb72 bd3f
000000b0: 2c99 cb3f d80f 0a40 4d3b ca3f 5f8e f53e
000000c0: 4a80 d93e c2cb e63e 3206 263f f80c c63f
000000d0: e0c0 c53f 0bc8 be3f 3baa f93e f6a0 c93f
000000e0: 30a5 023f 31a3 de3e 9e98 df3e ab79 113f
000000f0: 9e8a db3e bca4 dd3e 62bd c63f b21d bb3f
0.42762515 0.42534864 1.5474514 1.5426285 1.4506772 1.5709398 1.6539052 1.5928576
1.5877006 0.51009065 1.3502121 0.42068645 0.4316263 1.4797543 1.3211511 0.4329633
1.3151536 0.43526185 1.5579636 1.4861588 0.4307741 1.5707548 0.42335206 1.5437192
0.42329973 1.5674033 1.5830183 0.55304843 0.43794367 0.4372036 1.5188754 1.4625865
1.4322162 1.1870048 0.4155943 1.4524951 0.53249115 1.5701547 0.40171364 1.5847888
0.4409007 0.4280049 0.4591479 1.4800695 1.5906119 2.157217 1.5799347 0.47960183
0.4248069 0.4507733 0.64853203 1.5472708 1.5449486 1.4904798 0.48762688 1.5752246
0.51033306 0.4348388 0.43671125 0.56826276 0.42879194 0.43289745 1.5526545 1.4618437

module.Conv6.layers.1.bias f4 [64]
00000000: 4a28 03bf 52ee 0fbf e588 fe3e 6c52 0c3f
00000010: b8c8 043f e892 083f 3e36 2ebf 0b3e e03d
00000020: a298 8bbf df1b 94be 0e1f bbbc cff4 0fbf
00000030: 6a8f 04bf 0258 063f 36d3 f0bc 3007 0abf
00000040: c190 a73e aba4 d0be a556 0f3f 2277 053f
00000050: ec6a 07bf 0e7c 003f 8485 0bbf cee1 073f
00000060: 0723 10bf 10ad 053f c583 963e cbe7 9abe
00000070: 2820 02bf c60a 04bf 0938 063f e207 e93e
00000080: 550c a9bf eff7 33bf 71c5 02bf 0a94 ee3e
00000090: a052 a1be f479 ea3e 426f 0dbf 8ebd 9a3e
000000a0: 5d00 14be 3a87 e6be 0e04 26bf 4327 c33e
000000b0: c497 f53e 0c94 543f df4b 0b3f 454a 27be
000000c0: 7eeb 0cbf efdd febe e8d8 efbe 1f08 063f
000000d0: 69ff 063f a65c 063f c858 fabe d365 063f
000000e0: ea6b bbbe 0893 c6be ebaf 09bf 40c4 41bf
000000f0: 5405 0cbf 802e 0abf 9710 0b3f f61e af3d
-0.5123335 -0.5622302 0.49713817 0.54813266 0.5186877 0.5334916 -0.68051517 0.10949334
-1.0905955 -0.28927514 -0.022841956 -0.56232923 -0.5178133 0.5247804 -0.029397588 -0.5391722
0.32727626 -0.40750632 0.55991584 0.5213491 -0.52897525 0.5018929 -0.54500604 0.53078926
-0.5630345 0.522172 0.29397407 -0.3025497 -0.50830317 -0.5157894 0.5242925 0.45513827
-1.3206888 -0.7030019 -0.5108252 0.4659732 -0.3150835 0.45796168 -0.5524789 0.30222744
-0.14453264 -0.45025045 -0.64849937 0.38115892 0.4796735 0.830384 0.54412645 -0.16336925
-0.5504683 -0.49778697 -0.46845174 0.5235614 0.52733475 0.5248512 -0.4889586 0.5249912
-0.3660577 -0.3878405 -0.53784055 -0.7569008 -0.5469563 -0.53977203 0.5432219 0.08550827

module.Conv6.layers.1.running_mean f4 [64]
00000000: 5c62 9842 c001 7bc2 8ed5 c242 b6d8 98c2
00000010: ec8b 93c2 4575 d342 9d31 6842 df67 7442
00000020: fc3a 5c42 16ba 7042 b017 ce42 85d3 8342
00000030: 1459 4cc2 1e0c 6bc2 2419 b442 66da 8742
00000040: b6f4 8ec2 6e5a 9442 6ce3 c7c1 d6aa 7bc2
00000050: de86 8842 61d2 ba42 1f36 7142 d7ed 9cc1
00000060: 4d89 05c3 612c c142 1076 7e42 9fb5 bcc2
00000070: 917e 8742 1365 a742 5806 5dc2 2719 8dc2
00000080: a8de 6142 8c49 ae42 ab97 4042 217e 85c2
00000090: 4502 a8c2 b802 ba42 3c8f 8142 a96b 7142
000000a0: 9649 a342 311d b442 6944 c9c2 78e8 b3c2
000000b0: 9ac5 8c42 f13b e940 c6e6 ba42 cc20 94c2
000000c0: 4205 7b42 a1df dcc2 09b6 9f41 2417 0ec3
000000d0: 2028 bfc2 fd77 6bc2 2175 acc2 81c7 7c42
000000e0: 62b5 cec2 25da 9342 6602 5742 3eb5 aa42
000000f0: 7c85 6442 9d99 ddc2 c3a2 81c2 148c a1c2
76.19211 -62.75171 97.4171 -76.42326 -73.773285 105.72904 58.04845 61.101437
55.057602 60.181725 103.046265 65.913124 -51.08699 -58.761833 90.0491 67.92656
-71.47795 74.17662 -24.986046 -62.916832 68.26341 93.4109 60.302853 -19.616133
-133.53633 96.58668 63.615295 -94.35473 67.7472 83.69741 -55.256195 -70.549126
56.467438 87.14365 48.148113 -66.746346 -84.00443 93.00531 64.779755 60.355137
81.64372 90.057014 -100.63361 -89.95404 70.38594 7.288567 93.45073 -74.06406
62.755135 -110.436775 19.963884 -142.0904 -95.57837 -58.867176 -86.22877 63.194828
-103.35426 73.92606 53.752342 85.35399 57.130356 -110.800026 -64.817894 -80.77359

module.Conv6.layers.1.running_var f4 [64]
00000000: b3df c145 18f3 8c45 2cfc e345 3208 a245
00000010: a3a2 b045 0551 be45 9ba8 8d45 84c5 8745
00000020: b7b8 7d45 0da9 ce45 e6b8 0446 924e 9345
00000030: 40bc 4745 b9c3 8945 0096 f645 8804 c445
00000040: 29b8 af45 e6bf ba45 830f 3745 4877 7d45
00000050: 88a7 a345 be5f af45 9043 9345 e273 7445
00000060: 590a 2546 3f51 f545 aae4 8f45 0023 0946
00000070: 40cc ba45 c01b e145 3165 8e45 4678 b745
00000080: b6ec 9645 7c4c d245 7a36 6545 6f24 7f45
00000090: 7816 c545 124a dd45 3d34 b445 eb3c 7a45
000000a0: e89e dc45 4c58 b145 84d3 6045 5d7a da45
000000b0: ff6f 9145 e481 9944 b9d0 bf45 16e3 0345
000000c0: ea2d b545 5e3a a145 b2c2 d843 4784 f545
000000d0: 29b3 ed45 762a 9945 8e23 d445 1ed5 9645
000000e0: 9a18 f445 eaa1 b045 0e4b a745 22de d245
000000f0: 2828 8e45 d022 e245 758d ce45 2ca4 bc45
6203.9624 4510.3867 7295.5215 5185.0244 5652.3296 6090.1274 4533.0757 4344.6895
4059.5447 6613.1313 8494.225 4713.8213 3195.7656 4408.4653 7890.75 6272.5664
5623.02 5975.9873 2928.9695 4055.455 5236.9414 5611.968 4712.4453 3911.2427
10562.587 7850.156 4604.583 8776.75 5977.5312 7203.4688 4556.649 5871.034
4829.589 6729.5605 3667.4048 4082.277 6306.8086 7081.259 5766.53 4003.8074
7059.8633 5675.037 3597.2197 6991.2954 4653.9995 1228.0591 6138.0903 2110.1929
5797.7393 5159.296 433.52106 7856.5347 7606.395 4901.3076 6788.4443 4826.6396
7811.075 5652.2393 5353.382 6747.7666 4549.0195 7236.3516 6609.682 6036.5215

module.Conv7.layers.1.weight f4 [1, 128, 3, 3]
00000000: 175c 11bf af93 13bf 117b 0ebf bd7a 11bf
00000010: bd15 11bf 84c9 12bf 3591 1ebf 539b 14bf
00000020: db55 18bf 72f5 103f d88c 143f 3888 113f
00000030: 6b60 133f 648e 103f 8a99 113f ef37 153f
00000040: 87d6 123f 953b 0e3f 899f 153f 5576 193f
00000050: 01eb 143f 45ed 0f3f 1b7b 173f a6c8 113f
00000060: 240f 1a3f ae13 193f 448d 133f ca4f 15bf
00000070: 7945 19bf a38b 18bf 7831 1bbf 1937 14bf
00000080: 1fb1 15bf 2041 14bf a521 10bf ce10 17bf
00000090: 2ac3 18bf ddbf 19bf e390 0dbf db04 16bf
000000a0: eaeb 14bf a39c 0bbf 4f66 0fbf bfeb 1abf
000000b0: 3319 16bf 3b38 1b3f 566b 1b3f d39c 1b3f
000000c0: c69e 163f 3f1f 1b3f 2072 113f 4dcf 163f
000000d0: 6c14 0e3f 9f0d 173f 4575 153f 7980 123f
000000e0: be90 173f 3c87 193f b34c 0e3f 23f0 183f
000000f0: b6e5 143f 8f0d 193f 3334 0e3f 622f 193f
00000100: b72d 0f3f 8056 0e3f d4bf 133f fabc 1b3f
00000110: e57d 1a3f e10d 123f d2a8 163f 152b 1b3f
00000120: 2eab 0f3f 4e74 173f f266 163f 1e74 1b3f
00000130: fe62 0f3f 9fe1 173f 648e 143f c523 153f
00000140: 8e63 1a3f 6679 1cbf d810 11bf 3f49 0ebf
00000150: 3451 15bf b30a 18bf f879 12bf d2b8 16bf
00000160: 6f49 14bf 6d13 16bf 0185 133f a7e6 133f
00000170: b767 0f3f 1b58 183f 1437 163f 9efa 1a3f
00000180: 6890 133f f65e 173f 9c8e 0f3f 7c60 10bf
00000190: 5461 12bf 8d19 1bbf 054b 0fbf e549 11bf
000001a0: a013 0ebf 6f1f 11bf 2bec 18bf 34a9 13bf
000001b0: 05d3 0f3f abd8 113f 14f0 113f f0b3 0e3f
000001c0: a47c 0f3f d218 103f 205b 173f 7961 133f
000001d0: cac7 183f f1d3 11bf cea3 11bf f64c 13bf
000001e0: 78db 14bf 8a95 16bf 45fc 18bf 255c 15bf
000001f0: bcc4 1abf 8176 15bf 4dee 123f 64e3 153f
00000200: 2e08 103f 2ee4 1b3f 9c75 113f 0272 173f
00000210: 4504 153f cb74 123f 9414 163f ed53 18bf
00000220: f618 17bf 593f 14bf 21d8 0ebf 2bee 0fbf
00000230: cb99 18bf 6d42 15bf 7620 12bf bdbb 0dbf
00000240: 676d 0cbf b281 15bf 3c82 12bf b825 15bf
00000250: 14f8 0fbf ba01 1abf 5837 0dbf 86cf 15bf
00000260: 3f88 17bf 171a 10bf fa9c 15bf 51b0 11bf
00000270: 54f8 10bf 4b3c 1abf a9b6 19bf 1520 0ebf
00000280: b8b0 15bf 0e5c 18bf 71d1 1bbf c72f 17bf
00000290: a19b 1abf f783 0dbf 6f31 18bf 7e20 14bf
000002a0: 3802 19bf 5fb5 1abf 8853 17bf 7438 1abf
000002b0: e98b 13bf 5a3a 15bf 0ad5 17bf 3da5 19bf
000002c0: ff10 17bf 4a65 10bf 1b05 18bf a7c2 0cbf
000002d0: 8480 11bf 10d1 1abf 36fd 0ebf 90e9 0ebf
000002e0: 1965 0dbf bb74 1bbf ffdd 11bf 60a2 19bf
000002f0: 77d4 0fbf a0ee 153f 693d 163f bc13 163f
00000300: c618 173f bf40 123f b888 133f baf4 113f
00000310: 9ecf 1b3f f488 193f be82 14bf a514 10bf
00000320: 3e95 11bf df04 11bf 140a 0ebf b906 17bf
00000330: 9b4b 0fbf 622e 18bf 212f 1abf 874a 19bf
00000340: 3899 18bf fe5d 1bbf 88f8 18bf 9db6 0dbf
00000350: 7596 10bf 75c0 12bf 1786 15bf 80ad 1abf
00000360: 32a1 153f bd6a 0f3f e752 0f3f 6354 133f
00000370: d374 123f defe 153f 9ea3 113f 9775 0e3f
00000380: 22d2 103f ca60 143f 0125 123f db42 183f
00000390: f9f8 153f f7c5 133f 9882 163f 8312 1a3f
000003a0: 83bc 183f 7232 1b3f 310e 1a3f 13f0 133f
000003b0: 4965 143f c500 193f b85c 153f bef2 163f
000003c0: f1c2 123f eb4b 143f 3e47 153f c529 163f
000003d0: 1e41 193f c9ed 143f 2d96 113f 9d63 0f3f
000003e0: 5490 1b3f 3073 113f 5d17 133f 1c2e 163f
000003f0: f596 17bf 06c3 1abf 8d76 0fbf 14b7 15bf
-0.5678114 -0.5764722 -0.55656534 -0.5682791 -0.56673795 -0.5733874 -0.6194032 -0.58049506
-0.59506005 0.5662452 0.5802741 0.5684848 0.57569 0.5646727 0.56874907 0.5828847
0.5735859 0.55559665 0.58446556 0.59946185 0.5817109 0.5622142 0.5917222 0.5694679
0.6017935 0.59795654 0.5763743 -0.58324873 -0.5987163 -0.5958807 -0.6062236 -0.5789657
-0.5847339 -0.5791187 -0.5630134 -0.59010017 -0.59672797 -0.60058385 -0.55299205 -0.5860116
-0.58172476 -0.54535884 -0.56015486 -0.6051597 -0.586322 0.60632676 0.60710657 0.6078617
0.5883602 0.6059455 0.56814766 0.58910066 0.5549991 0.5900516 0.58382064 0.57227284
0.59205234 0.59971976 0.55585784 0.5974142 0.5816301 0.59786314 0.555484 0.59837925
0.5592913 0.5560074 0.5771458 0.6083523 0.6034835 0.5705243 0.5885135 0.6061261
0.56120574 0.5916184 0.5875083 0.60724056 0.56010425 0.59328645 0.5802977 0.58257705
0.6030816 -0.6112274 -0.56666327 -0.55580515 -0.5832703 -0.59391326 -0.5721736 -0.58875763
-0.5792455 -0.5862339 0.5762482 0.5777382 0.5601763 0.5950944 0.5867779 0.6053866
0.5764222 0.59129274 0.5607698 -0.56397223 -0.5717976 -0.6058586 -0.55973846 -0.5675338
-0.55498695 -0.5668859 -0.59735364 -0.5768006 0.56181365 0.56971234 0.57006955 0.5574331
0.5604956 0.5628787 0.5912342 0.57570606 0.59679854 -0.5696402 -0.5689057 -0.5753931
-0.5814738 -0.5882193 -0.5975993 -0.58343726 -0.6045644 -0.5838395 0.5739487 0.58550096
0.5626248 0.6089505 0.5682008 0.5915834 0.5820964 0.5720946 0.5862515 -0.5950306
-0.5902246 -0.5790916 -0.55798537 -0.5622279 -0.5960967 -0.5830448 -0.5708078 -0.5536459
-0.54854435 -0.58401024 -0.5722997 -0.5826068 -0.5623791 -0.60158885 -0.5516257 -0.5851978
-0.5919227 -0.5628981 -0.5844265 -0.5690966 -0.5662892 -0.6024825 -0.6004434 -0.55517703
-0.58472776 -0.59515464 -0.6086646 -0.5905728 -0.6039372 -0.5527949 -0.5945043 -0.5786208
-0.5976901 -0.60433 -0.59111834 -0.6024239 -0.5763536 -0.5829216 -0.59309447 -0.6001776
-0.5901031 -0.56404555 -0.5938279 -0.54984516 -0.56836724 -0.60475254 -0.5585512 -0.5582514
-0.5523239 -0.6072499 -0.56979364 -0.6001339 -0.5618357 0.5856724 0.58687454 0.5862386
0.59022176 0.57130045 0.5763049 0.5701405 0.60863674 0.599746 -0.58011997 -0.562815
-0.5686835 -0.5664806 -0.5548413 -0.5899463 -0.5597474 -0.59445775 -0.60228163 -0.59879345
-0.59608793 -0.60690296 -0.5975423 -0.5535677 -0.5647958 -0.57324916 -0.5840773 -0.6042099
0.5844909 0.56022245 0.55985874 0.5755064 0.5720951 0.5859202 0.56890285 0.5564818
0.5657064 0.5796019 0.57087713 0.59477013 0.5858303 0.57723945 0.5879302 0.60184497
0.59662646 0.6062385 0.60177904 0.577882 0.5796705 0.597668 0.583446 0.58964145
0.57328707 0.5792834 0.5831183 0.58657485 0.59864986 0.5817533 0.56869775 0.5601137
0.607671 0.5681639 0.57457525 0.5866411 -0.5921472 -0.6045383 -0.5604027 -0.5848248
