DIDFuse/saved_models/decoder/IR_AE7.pth (torch, 604342 bytes, 13 tensors)

module.Conv5.layers.0.weight f4 [64, 128, 3, 3]
000000 98 68 18 3f ae 5a 13 3f 91 09 13 3f 96 92 1d 3f
       0.595346 0.5756024 0.5743647 0.615518
000010 52 41 20 3f 67 fe 19 3f 5e d8 1e 3f b6 12 13 3f
       0.6259967 0.6015381 0.620489 0.57450426
000020 81 2e 1a 3f 9f c1 1a 3f dd 0c 13 3f da 03 1b 3f
       0.6022721 0.6045169 0.574415 0.6055275
000030 bc fe 16 3f bc d7 1f 3f c0 02 1b 3f 44 5e 12 3f
       0.58982444 0.6243856 0.6055107 0.5717509
000040 cd 49 19 3f 94 21 18 3f f4 8c 1e 3f 25 05 18 3f
       0.59878236 0.59426236 0.6193383 0.5938285
000050 30 89 19 3f c7 09 13 3f e7 0a 1e 3f ec 00 1e 3f
       0.59974957 0.57436794 0.61735386 0.61720157
000060 1c 55 18 3f 47 8b 13 3f 63 d4 1b 3f 3d 9e 14 3f
       0.59504867 0.57634395 0.6087095 0.5805395
000070 95 77 1d 3f 9a 20 16 3f a9 44 17 3f 4a cc 15 3f
       0.6151059 0.58643496 0.5908914 0.58514845
000080 39 06 18 3f ad 8c 1f 3f 47 67 1c 3f ba a7 1a 3f
       0.59384495 0.6232403 0.6109509 0.6041218
000090 5c 27 1c 3f 2e 42 1c 3f a0 98 1e 3f a4 d8 16 3f
       0.6099756 0.6103848 0.6195164 0.5892432
0000a0 f7 a8 12 3f 49 ed 15 3f 61 d8 1f 3f 40 f7 11 3f
       0.5728907 0.58565193 0.62439543 0.570179
0000b0 57 f9 17 3f 81 c0 1a 3f 24 fd 17 3f 31 81 15 3f
       0.5936484 0.6044999 0.59370637 0.58400255
0000c0 82 85 19 3f e9 e3 1c 3f ee 7a 20 3f 79 43 12 3f
       0.5996934 0.61285263 0.62687576 0.57134205
0000d0 76 1a 16 3f 28 fd 17 3f 11 2b 1a bf 68 af 16 bf
       0.58634126 0.5937066 -0.60221964 -0.588614
0000e0 57 4d 1e bf 63 88 15 bf 61 7d 1b bf fb 68 11 bf
       -0.6183676 -0.58411235 -0.6073819 -0.5680081
0000f0 9b 55 1f bf 83 e0 17 bf dc ac 1f bf fe e3 1f 3f
       -0.6224 -0.5932695 -0.6237314 0.62457263
000100 5c e4 20 3f 0b 9b 17 3f 4a df 1b 3f 35 78 1b 3f
       0.6284845 0.5922095 0.6088759 0.60730296
000110 28 1b 13 3f de b9 1a 3f 2c 59 18 3f f0 45 1a 3f
       0.5746331 0.6043986 0.59511065 0.60262966
000120 51 53 1b bf 7a 50 1c bf 8f f1 13 bf 6d 06 1f bf
       -0.60674006 -0.610603 -0.57790464 -0.6211918
000130 81 1f 12 bf fc 02 17 bf 0d 6e 3b 3f 45 af 3a 3f
       -0.5707932 -0.5898893 0.732148 0.7292369
000140 b7 61 0d bf 53 da 1f 3f ac 4a 13 3f 46 2c 12 3f
       -0.55227226 0.6244251 0.57535815 0.57098806
000150 c1 2c 20 3f 45 11 1b 3f 7b 77 1a 3f 0c 7b 15 3f
       0.6256829 0.60573226 0.6033856 0.5839088
000160 53 ba 15 3f d5 de 11 3f 98 f1 16 bf 16 91 16 bf
       0.58487433 0.5698064 -0.5896239 -0.58815134
000170 9b a5 18 bf 2d 67 20 bf 2c f2 19 bf dc c5 1f bf
       -0.59627694 -0.62657434 -0.6013515 -0.62411284
000180 2d d1 21 bf bd d9 18 bf f4 2c 25 bf e2 92 14 bf
       -0.632098 -0.5970724 -0.6452172 -0.58036625
000190 ff ac 13 bf 68 67 1f bf 2a 60 14 bf 85 c2 1c bf
       -0.57685846 -0.6226716 -0.57959235 -0.61234313
0001a0 b2 d9 18 bf 0f 39 14 bf 39 41 13 bf 6d e7 18 bf
       -0.59707177 -0.57899565 -0.57521397 -0.5972813
0001b0 c5 ff 17 bf 03 b3 1a bf 05 8a 1e bf 86 0e 16 bf
       -0.5937465 -0.604294 -0.6192935 -0.5861591
0001c0 f7 4c 1c bf 22 9c 13 bf fb ec 1d bf 5a 8f 16 bf
       -0.6105494 -0.57660115 -0.6168973 -0.5881249
0001d0 7d 26 16 bf f8 43 1c 3f 85 0e 1e 3f dd 11 19 3f
       -0.5865248 0.6104121 0.61740905 0.5979288
0001e0 99 6f 17 3f 81 00 1a 3f 20 13 19 3f 91 1e 1b 3f
       0.5915466 0.6015702 0.5979481 0.60593516
0001f0 50 43 15 3f 56 f3 18 3f 34 d5 1d bf 1c 56 17 bf
       0.58305836 0.597463 -0.6165345 -0.5911577
000200 52 16 1d bf df 18 18 bf df 99 1d bf 1b aa 1a bf
       -0.61362183 -0.5941295 -0.61562914 -0.6041581
000210 15 39 16 bf 88 42 1d bf b3 7f 1c bf 00 46 18 bf
       -0.5868085 -0.61429644 -0.61132354 -0.5948181
000220 a3 b6 1f bf 83 50 17 bf 84 d6 16 bf 1d 45 15 bf
       -0.62388057 -0.59107226 -0.58921075 -0.58308583
000230 0d 21 19 bf e0 28 19 bf 98 18 13 bf 2a 34 18 bf
       -0.59816056 -0.59827995 -0.574594 -0.59454596
000240 05 f2 17 bf 69 e2 18 bf 19 79 17 bf b8 fa 1f bf
       -0.5935367 -0.59720474 -0.59169155 -0.6249194
000250 a7 69 1d bf d7 5a 20 bf 6b 8c 19 bf bd 6b 1d bf
       -0.6148934 -0.6263861 -0.59979886 -0.6149252
000260 bb da 13 bf 1a cc 1e 3f d5 d8 1f 3f 68 75 1a 3f
       -0.5775563 0.62030184 0.62440234 0.603354
000270 62 ad 17 3f 17 24 21 3f 6e 89 16 3f e0 e2 17 bf
       0.59248936 0.62945694 0.5880345 -0.5933056
000280 3f d4 1e bf 2e 1b 0f bf 6b 8e 17 bf 9c da 15 bf
       -0.6204261 -0.5590085 -0.5920169 -0.58536696
000290 be 59 1d bf 60 36 25 3f c8 89 13 bf dc 60 19 3f
       -0.6146506 0.64536095 -0.5763211 0.5991342
0002a0 3e 3e 18 3f b0 09 1c 3f 75 ae 1d 3f 5d 6d 1a 3f
       0.59469974 0.6095228 0.61594325 0.60323125
0002b0 fa ac 16 3f a9 a3 19 3f d4 99 1c 3f 1d 28 1e 3f
       0.5885769 0.6001535 0.61172223 0.6177996
0002c0 6c 7d 1c 3f cc 7e 17 3f bf 3f 20 3f c7 3c 15 3f
       0.6112888 0.5917785 0.6259727 0.58295864
0002d0 b7 33 19 3f cd 96 1e 3f 1f b1 1c 3f d1 87 14 3f
       0.59844536 0.61948854 0.61207765 0.5801974
0002e0 11 db 18 3f d1 b7 1b 3f 22 7a 12 bf eb 1c 1d bf
       0.5970927 0.60827357 -0.5721761 -0.6137225
0002f0 81 f5 19 bf 43 81 14 3f ec 82 17 3f 65 c8 20 3f
       -0.60140234 0.5800974 0.59184146 0.6280578
000300 15 d6 13 3f 2a 4b 17 3f be e2 20 3f 9b 26 1d 3f
       0.5774854 0.59099066 0.6284598 0.6138703
000310 04 76 18 3f 25 f8 18 3f 5a 5c 1e 3f 03 f0 17 3f
       0.5955508 0.5975364 0.6185967 0.59350604
000320 0b 82 1f 3f 9d de 20 3f fb c9 1b 3f 34 49 14 3f
       0.62307805 0.6283968 0.6085507 0.579242
000330 85 54 21 3f 53 38 15 3f 30 a7 15 3f ea 06 1f bf
       0.6301959 0.5828907 0.5845823 -0.62119925
000340 4e c0 17 bf 9d d8 1c bf ce ba 1f bf 81 fb 1f bf
       -0.5927781 -0.61268026 -0.62394416 -0.6249314
000350 9b ec 1d bf f4 b3 31 bf 1f ed 22 bf 58 dd 13 bf
       -0.61689156 -0.6941521 -0.6364307 -0.5775962
000360 b9 95 1b bf f7 23 16 bf be fd 12 bf 95 39 1b bf
       -0.60775334 -0.5864863 -0.5741843 -0.6063474
000370 72 c5 1e bf 61 d5 1f bf 76 32 1b bf 78 2c 16 bf
       -0.6202003 -0.62434965 -0.6062387 -0.58661604
000380 f3 a1 19 bf 66 02 1b bf bc 64 17 bf 21 15 20 bf
       -0.6001274 -0.60550535 -0.59138083 -0.6253224
000390 e0 6b 18 bf ae 93 16 bf 91 b5 16 bf b2 6b 1b bf
       -0.59539604 -0.5881909 -0.588708 -0.60711205
0003a0 19 64 20 bf a0 69 1a bf f9 92 1e 3f c7 05 14 3f
       -0.62652737 -0.6031742 0.6194301 0.57821316
0003b0 d5 63 14 3f 6e a9 16 3f 4f f0 15 3f 47 85 17 3f
       0.5796483 0.5885228 0.58569807 0.5918774
0003c0 28 91 12 3f e1 49 17 3f 04 1c 19 3f 0a e6 14 bf
       0.5725274 0.59097105 0.59808373 -0.5816351
0003d0 23 6d 14 bf 5f 48 1a bf b4 84 13 bf 33 b0 13 bf
       -0.5797903 -0.6026668 -0.57624364 -0.57690734
0003e0 d7 60 1f bf b3 28 1e bf 76 77 16 bf d7 00 1e bf
       -0.6225714 -0.6178085 -0.5877603 -0.6172003
0003f0 f8 47 1b 3f 5a d7 1b 3f ae 19 1a 3f 70 5e 20 3f
       0.6065669 0.60875475 0.60195434 0.626441

module.Conv5.layers.0.bias f4 [64]
000000 56 68 7d bd 02 4e 1f bd f4 86 f9 bd 96 66 c5 3c
       -0.06186708 -0.038892753 -0.121839434 0.024096768
000010 77 1b a6 bc 5d 86 2f bd f6 86 c4 3d 48 82 e9 3d
       -0.020276768 -0.04285275 0.09596054 0.11401802
000020 8f 6a 6c bd d5 db 70 3d 38 70 da 3b 98 5e 50 3d
       -0.05771881 0.0588034 0.0066662095 0.05087146
000030 01 cc 0b bd dc 64 97 bd d6 3d 85 3d 6f 4e 0a be
       -0.0341301 -0.07392284 0.06505935 -0.13506483
000040 e6 8f 64 bd 35 63 31 bb c7 34 3d 3d ef 87 30 bc
       -0.055801295 -0.0027067189 0.04619291 -0.010774597
000050 90 4f 63 bd ad b7 a8 3d f7 99 0a 3e 78 ce e0 bd
       -0.0554958 0.082381584 0.13535295 -0.10976881
000060 16 c6 b3 bd 42 26 84 3d 34 c7 77 ba 5c c0 d3 bd
       -0.08778016 0.064526096 -0.0009451986 -0.10339424
000070 26 25 ae ba 13 7b a3 3d 08 eb a7 bc c5 89 f4 bc
       -0.0013286218 0.07982459 -0.020497814 -0.02985085
000080 fe 6d 18 3c 98 c8 2e bc 39 ec 47 bc 20 9f 8d bc
       0.009303568 -0.010667942 -0.012202316 -0.01728779
000090 3c 19 47 3c 2c 43 49 bd eb 44 1a 3e 6c e1 c1 bc
       0.012152012 -0.049136326 0.15065353 -0.02366706
0000a0 50 77 a7 bd 7c cf 00 3c c6 eb 00 3c 6a 09 50 3b
       -0.08177054 0.007861968 0.007868713 0.0031743892
0000b0 56 62 13 3e 76 2c 1d 3e a3 02 1b 3d 95 cd 76 bd
       0.14392981 0.15348992 0.03784431 -0.060254652
0000c0 d6 35 09 3e c9 0c 5d bd ba 71 18 3d fc 2d 94 3c
       0.13399443 -0.05396727 0.037217833 0.018088333
0000d0 fd 81 29 3e 64 12 13 bd 64 36 85 3d 49 0a 5a 3d
       0.16553493 -0.03590621 0.06504515 0.053232465
0000e0 52 a3 94 38 e6 1f 86 3c 26 2d 94 bc de a8 18 bb
       7.087611e-05 0.016372632 -0.018087935 -0.0023294012
0000f0 85 0a 3d 3d e4 c2 42 bc 46 31 7e 3d 2f 39 00 be
       0.04615261 -0.011887286 0.06205871 -0.12521814

module.Conv5.layers.1.weight f4 [64]
000000 2e 9d 09 3f 3d 55 c4 3e 0b 6d 92 3f 67 6b b4 3f
       0.5375546 0.38346282 1.1439527 1.4095277
000010 b0 5f b7 3f d5 ac fc 3f ab 47 fb 3e 90 36 b4 3f
       1.4326077 1.9740244 0.49078116 1.4079151
000020 85 38 7a 3f 4e 28 92 3e 07 c0 be 3e b6 3a c9 3f
       0.9774249 0.28546375 0.3725588 1.5721042
000030 ff dd 01 40 c9 5e 02 40 4c a0 95 3f 71 87 d3 3f
       2.0291746 2.0370352 1.1689544 1.6525708
000040 fb 08 38 40 6f 1a 12 40 b0 95 01 3f 0a 4b 11 40
       2.8755481 2.2828634 0.5061903 2.270205
000050 9b 5e 78 bd a9 40 c0 3d 98 f8 42 3d 47 01 fa 3f
       -0.060637098 0.09387333 0.04760036 1.953164
000060 c9 92 a1 3f 3f c0 58 3f 1f a2 91 3f 73 96 a5 3f
       1.262292 0.84668344 1.13776 1.2936538
000070 ce 0f a3 3f 12 f5 9a 3f db d4 14 40 75 cb e3 3f
       1.2739198 1.210604 2.3254917 1.7796465
000080 56 45 85 3e a2 d8 40 3f 3a 8e c3 3f 16 e3 02 bf
       0.26029462 0.75330555 1.5277779 -0.51127756
000090 3e ab f5 3f 52 e3 9c 3f d8 75 37 3f 11 9d ef 3d
       1.9192884 1.2256873 0.7166419 0.1169988
0000a0 2a e0 91 3e 2e 83 4f 3f 00 3e 38 3f a1 15 80 3f
       0.28491336 0.8105954 0.71969604 1.0006601
0000b0 d1 14 e2 3e 40 18 55 3f aa b0 9e 3e f5 58 1e 40
       0.44156507 0.8324013 0.3099416 2.4741795
0000c0 d3 c3 56 bf 7d 10 92 3f 3f 54 3d 3f 02 c8 94 3e
       -0.83892554 1.1411282 0.73956674 0.29058844
0000d0 8b ae 00 3f 6e 8e 84 be 13 3c 21 bf 4a b6 d8 3e
       0.5026633 -0.25889915 -0.6298229 0.42326576
0000e0 1d 65 17 40 e8 ca 29 be 27 69 82 3f 7e ab 59 3f
       2.3655465 -0.16581309 1.018834 0.850273
0000f0 d3 4e 12 40 ea eb aa 3f 6e fa 19 3e 9b a9 98 3f
       2.286061 1.3353245 0.15036938 1.192676

module.Conv5.layers.1.bias f4 [64]
000000 fc ae 5e bf c5 b5 56 bf f0 d7 1c 3e 25 f5 6f 3f
       -0.86985755 -0.8387111 0.15316749 0.93733436
000010 38 72 62 3f 6f f7 d2 3f c8 78 d7 be f4 b8 15 3d
       0.88455534 1.6481761 -0.42084336 0.03655334
000020 06 74 b2 3e c6 6c 05 bf 7f e1 80 bf 83 09 58 3e
       0.34854144 -0.521191 -1.0068816 0.21097378
000030 ad 91 c2 3f cb 37 76 3f 4e 9d 89 3e 42 67 c0 3f
       1.5200707 0.96178883 0.26877826 1.5031512
000040 20 1d a2 3f 52 ec 0f 3f 5e f9 ef be 1c e8 60 c0
       1.2665138 0.5621997 -0.4686994 -3.5141668
000050 c0 c0 86 bf 95 99 08 bf de 1f 81 bf 25 e1 36 3f
       -1.0527573 -0.5335935 -1.008785 0.71437293
000060 37 5b 29 3a ce 79 b2 bd 9d ef 98 3e 44 80 b4 bd
       0.00064604304 -0.08714639 0.2987031 -0.08813527
000070 cd 18 2e 40 c9 40 61 3e 36 04 c0 be 2d 25 42 3f
       2.7202637 0.2199737 -0.37503213 0.75837976
000080 52 ba 05 bf 54 bf 44 3e 4c ad f5 3d 36 b2 1a bf
       -0.5223743 0.19213611 0.119959444 -0.6042818
000090 a9 74 0f 3f 07 c4 b6 be 82 50 68 3e ab 24 9c bf
       0.56037384 -0.35696432 0.22686961 -1.219869
0000a0 d7 cc 7c bf b1 17 09 3e 9b a1 35 bf 87 09 4c bf
       -0.9875006 0.13387944 -0.70949715 -0.7970204
0000b0 00 10 17 bf 2a 42 84 bd f6 4d 30 bf 6d ae 5b c0
       -0.5900879 -0.06457932 -0.6886896 -3.432521
0000c0 17 93 ad 3e 44 79 08 3f 7b e4 75 3f 08 21 09 bf
       0.33901283 0.53310037 0.9605176 -0.53566027
0000d0 c1 1d da be 56 7a 6c 3f 40 33 a3 bf ee 02 12 bf
       -0.42600825 0.9237417 -1.2750015 -0.5703572
0000e0 2f 14 8d 3f 86 33 8c 3f 75 5b 93 3f 83 d9 be 3d
       1.1021785 1.0953224 1.1512285 0.09318831
0000f0 a4 c5 c4 3f d5 3f 84 bf 71 ee 15 bf 5c 5d 89 be
       1.5372815 -1.033198 -0.5856696 -0.2682904

module.Conv5.layers.1.running_mean f4 [64]
000000 c7 91 e8 c2 77 ed 01 c3 9e bd 58 c1 df ea bd 42
       -116.28472 -129.9276 -13.546293 94.95873
000010 47 84 96 42 1a bf de 42 14 05 e1 42 08 08 81 c2
       75.258354 111.373245 112.50992 -64.515686
000020 ea ab 7f 42 e8 59 63 42 2d 47 e5 c2 45 bc c2 c2
       63.917885 56.8378 -114.639015 -97.367714
000030 6b e1 2a c1 ae e4 ef c2 86 44 c9 c2 3a 0d ba c2
       -10.680034 -119.94664 -100.633835 -93.02583
000040 dc 93 f3 c2 be 24 b5 c2 bb 81 d3 42 40 64 f8 c2
       -121.78879 -90.57176 105.75338 -124.1958
000050 cf bf e9 42 e0 78 ca 42 f6 bf ce c2 e4 56 42 42
       116.874626 101.236084 -103.37492 48.584854
000060 f5 d2 c1 42 c9 57 b3 c2 52 87 b3 c2 f3 37 bc 42
       96.912025 -89.671455 -89.7643 94.109276
000070 0d 84 b3 42 b6 d4 b8 c2 c8 9c 38 42 4c 63 3a c1
       89.75791 -92.41545 46.153107 -11.649242
000080 b3 ea 59 42 ed a7 a6 c2 27 79 9a 42 a4 4c cb 41
       54.4792 -83.32798 77.236626 25.412422
000090 dd 6a c7 c2 4d 25 c5 c2 28 f5 96 c2 fa 35 57 42
       -99.70872 -98.57285 -75.47882 53.80271
0000a0 c3 d7 b9 42 39 2e a3 c2 31 d5 fd 42 02 ad cc c2
       92.92141 -81.59028 126.91639 -102.337906
0000b0 5b 7a cb 42 15 a3 ae c2 21 6c d2 42 73 c1 b8 c2
       101.738976 -87.31852 105.21119 -92.37783
0000c0 ba 81 b8 42 1f 3f ba c2 40 32 ba 42 ac 72 8b c2
       92.25337 -93.12328 93.098145 -69.72397
0000d0 96 a3 d7 42 50 f8 ed 41 b9 74 da 42 0a 63 e2 42
       107.8195 29.746246 109.227974 113.193436
0000e0 2b de cb c2 a5 9b 65 42 15 71 d2 42 88 57 d4 c0
       -101.93392 57.401997 105.22086 -6.635685
0000f0 f4 b0 d5 42 c0 f4 64 42 1f a7 df 42 22 dd c5 42
       106.84561 57.239014 111.82641 98.9319

module.Conv5.layers.1.running_var f4 [64]
000000 27 39 9c 44 ce 57 e8 43 b9 8b e6 43 c6 7b 9f 43
       1249.786 464.68597 461.09158 318.96698
000010 10 66 77 43 5b 14 0b 44 64 a6 57 44 20 4e 53 44
       247.39868 556.31805 862.59985 845.2207
000020 6e 39 30 45 f9 9d 1c 43 6d 29 05 44 5e 77 33 45
       2819.5894 156.61708 532.6473 2871.4604
000030 ff 70 3e 45 6f 21 bd 44 86 72 95 44 7a 1d 1d 44
       3047.0623 1513.0448 1195.5789 628.4606
000040 48 b4 57 44 c6 97 53 44 31 9a 5a 44 67 20 67 44
       862.8169 846.37146 874.40924 924.5063
000050 6b 2d e1 43 42 16 8c 44 7c 3e be 43 bc e5 4b 45
       450.35483 1120.6956 380.48816 3262.3584
000060 c8 77 ac 43 1e 3f b6 44 da 7e 93 44 f5 da aa 43
       344.9358 1457.9724 1179.9641 341.7106
000070 0a 2f 84 44 7c 8e 4d 44 a1 57 45 45 76 33 6e 45
       1057.47 822.2263 3157.4768 3811.2163
000080 04 80 1a 43 ac c3 ea 44 e9 97 26 45 57 58 2c 44
       154.50006 1878.1147 2665.4944 689.3803
000090 41 8a b0 44 0a 6a 32 45 09 9d 61 43 b3 0f 3d 44
       1412.3204 2854.6274 225.61342 756.2453
0000a0 e4 e7 bd 43 ab a0 df 44 a9 dd 63 44 d0 ea e8 44
       379.81165 1789.0209 911.46344 1863.3379
0000b0 5a cf e0 44 90 01 34 44 14 13 37 44 4b 64 ea 43
       1798.4797 720.0244 732.2981 468.78354
0000c0 9e 6f 4d 44 6c 56 7b 44 e6 d1 8b 44 13 94 9a 44
       821.744 1005.35034 1118.5593 1236.6273
0000d0 c4 e9 b1 44 a3 1a 7e 43 b3 e7 61 44 06 1c 27 44
       1423.3052 254.10405 903.6203 668.43787
0000e0 58 97 0a 44 0c 08 9d 44 16 14 61 44 db f0 a0 43
       554.36475 1256.2515 900.31384 321.88168
0000f0 ec bb 06 44 08 8d db 43 6e e6 89 44 26 7b 83 44
       538.9363 439.1018 1103.2009 1051.8484

module.Conv6.layers.0.weight f4 [64, 128, 3, 3]
000000 27 3c 17 3f f3 b2 1a 3f 98 8f 13 3f d0 aa 16 3f
       0.5907616 0.60429305 0.5764098 0.5885439
000010 bf 6a 1b 3f d3 33 1b 3f 6a ee 12 3f ac ff 1c 3f
       0.60709757 0.6062595 0.5739504 0.61327624
000020 3a 4b 21 3f 6a be 17 3f 36 ad 15 3f 16 9e 15 3f
       0.6300541 0.59274924 0.58467424 0.58444345
000030 4a 80 1f 3f a4 b9 1d 3f ae 30 1e 3f 97 2e 13 3f
       0.6230513 0.6161139 0.6179303 0.57492965
000040 e7 57 14 3f e8 2a 14 3f 8d 49 14 bf 4d 5d 1c bf
       0.5794663 0.5787797 -0.5792473 -0.61079866
000050 ce 58 1f bf 74 5b 18 bf c3 17 1c bf a5 98 13 bf
       -0.6224488 -0.59514546 -0.6097376 -0.5765479
000060 78 f7 14 bf 90 d5 13 bf f1 38 1c bf 41 69 15 3f
       -0.5819011 -0.57747746 -0.61024386 0.5836373
000070 ad 4e 1e 3f d0 3b 1d 3f 44 06 1a 3f a0 39 12 3f
       0.618388 0.6141939 0.6016581 0.5711918
000080 3f 6a 1c 3f 80 39 1a 3f dc 7f 1b 3f 22 6e 12 3f
       0.6109962 0.6024399 0.6074197 0.571993
000090 1b 50 15 3f 64 ff 19 3f ad 10 12 3f 12 1d 12 3f
       0.58325356 0.6015532 0.57056695 0.5707561
0000a0 c2 e5 19 3f 5c 58 16 3f 79 55 16 3f c2 3b 19 3f
       0.6011621 0.58728576 0.5872417 0.5985681
0000b0 c8 86 13 3f ef 9b 15 3f de b0 1d 3f 8c 4d 20 3f
       0.57627535 0.5844106 0.61598 0.6261833
0000c0 21 17 18 3f 0f 79 1b 3f ae c5 15 3f 3f a0 1a 3f
       0.5941029 0.60731596 0.5850476 0.60400766
0000d0 ad 90 1d 3f d2 28 20 3f bb d7 1f 3f 02 db 20 3f
       0.6154888 0.62562287 0.62438554 0.6283418
0000e0 8d 7a 1c 3f a5 f7 12 3f 44 2a 1f 3f d9 9d 13 3f
       0.611245 0.57409126 0.6217387 0.5766273
0000f0 9e 79 19 3f a4 1f 1a 3f de c2 1a 3f e2 21 1b bf
       0.599512 0.6020453 0.60453594 -0.60598576
000100 bd 02 12 bf ca 2a 19 bf de 9a 20 bf 1d a1 15 bf
       -0.5703543 -0.59830916 -0.6273631 -0.58448964
000110 3d a3 1b bf 0d e3 1e bf 71 73 15 bf 05 3a 1f bf
       -0.60795957 -0.620652 -0.58379275 -0.62197906
000120 91 22 14 bf d1 40 17 bf 8f 69 1c bf 24 dd 1b bf
       -0.57865244 -0.59083277 -0.6109857 -0.6088431
000130 87 a7 15 bf 4f ca 1d bf 0e 7f 1e bf a2 5d 1a bf
       -0.5845875 -0.61636823 -0.6191262 -0.6029912
000140 10 4f 12 bf 39 50 18 3f c6 fd 1e 3f 16 68 20 3f
       -0.5715189 0.5949741 0.6210598 0.6265882
000150 44 60 18 3f 75 fa 14 3f 75 fc 16 3f b8 66 1b 3f
       0.5952189 0.5819467 0.5897897 0.6070361
000160 24 3f 12 3f d0 f6 1a 3f e4 7e 21 3f b4 8e 21 3f
       0.57127595 0.60532856 0.63084245 0.6310837
000170 ae 1d 2b 3f 96 24 15 3f 88 97 1f 3f 79 ab 17 3f
       0.6684216 0.5825895 0.62340593 0.5924602
000180 44 ba 1b 3f 1b 1c 18 3f 26 5b 16 3f d3 80 1f 3f
       0.60831094 0.59417886 0.5873283 0.62305945
000190 e5 0d 15 3f 97 61 1e 3f 6e 17 1b 3f ac fc 16 3f
       0.58224326 0.6186766 0.60582626 0.58979297
0001a0 5f 5f 16 3f 16 fa 18 3f 31 ed 1a 3f e1 2b 15 3f
       0.58739275 0.597566 0.60518175 0.5827008
0001b0 76 4f 17 3f 89 f2 1a 3f d8 6e 1d 3f 6f d3 15 3f
       0.5910562 0.6052633 0.6149726 0.5852575
0001c0 f2 61 1b 3f 25 c9 14 3f 8c c7 1c 3f 13 f7 1f 3f
       0.6069633 0.5811942 0.61241984 0.6248638
0001d0 6d f5 1b 3f d8 16 12 3f b3 12 13 3f ac d1 20 3f
       0.60921365 0.57066107 0.5745041 0.62819934
0001e0 fe 0c 1a 3f 15 4b 17 3f c4 49 12 3f 41 bc 1e 3f
       0.60176075 0.5909894 0.5714381 0.62006
0001f0 91 37 20 3f 14 20 13 3f fa 52 1d bf a2 ed 14 bf
       0.6258479 0.5747082 -0.6145474 -0.581751
000200 d6 69 1d bf e1 b9 d0 3e a0 9e 21 bf 18 fd 18 bf
       -0.6148962 0.40766814 -0.6313267 -0.5976119
000210 6e d3 1d 3f 16 9b 1d 3f f3 b0 1c bf c9 ae 11 bf
       0.6165074 0.6156477 -0.61207503 -0.56907326
000220 d4 1d 12 bf 02 e0 ab be 66 5d 11 bf e5 94 16 bf
       -0.57076764 -0.33569342 -0.5678314 -0.58820945
000230 d1 dc 13 bf 0f 35 19 bf cd 96 1d bf 85 0a 19 bf
       -0.57758814 -0.59846586 -0.6155823 -0.59781677
000240 63 fe 19 3f 96 2e 1c 3f 0f da 1a 3f 52 60 17 3f
       0.6015379 0.61008584 0.6048898 0.5913135
000250 0f 0b 1f 3f a2 0b 14 3f 87 ac 15 3f 50 14 1a 3f
       0.6212625 0.5783025 0.5846638 0.60187244
000260 be 64 17 3f c8 1b 16 3f 41 4d 1a 3f 53 a6 1d 3f
       0.59138095 0.5863614 0.6027413 0.61581916
000270 44 6b 20 3f 92 b1 1a 3f 2f 99 12 3f 28 09 17 3f
       0.62663674 0.604272 0.5726499 0.58998346
000280 23 32 17 3f 7d e1 1d 3f 38 00 1b 3f 77 e0 16 3f
       0.5906088 0.6167219 0.6054721 0.58936256
000290 41 84 16 3f b2 ea 17 3f 6d 51 18 3f 29 a0 19 3f
       0.58795553 0.5934249 0.59499246 0.6001001
0002a0 b6 f5 16 3f 0c d3 15 3f f0 30 19 3f 1d 16 1f 3f
       0.58968675 0.58525157 0.598403 0.6214312
0002b0 81 4f 14 3f 30 35 1a 3f a2 4a 17 3f fc 20 16 3f
       0.57933813 0.6023741 0.59098256 0.5864408
0002c0 a4 75 1e 3f 98 ea 1c 3f 82 f5 17 3f 93 ce 1c 3f
       0.61898255 0.6129546 0.5935899 0.6125271
0002d0 2c bb 1d bf 67 8e 1f bf 07 29 14 bf db 71 1d bf
       -0.61613727 -0.62326664 -0.578751 -0.61501855
0002e0 63 c1 1d bf 6c 00 1e bf e5 86 1f bf 83 58 16 bf
       -0.6162321 -0.61719394 -0.6231521 -0.5872881
0002f0 e6 14 16 bf fb 21 1b 3f 1b 8d 12 3f 6d 31 13 3f
       -0.5862564 0.60598725 0.5724656 0.5749729
000300 c9 f6 1d 3f 59 06 18 3f cc d2 1a 3f 1a bf 20 3f
       0.6170469 0.59384686 0.604779 0.627916
000310 0d a0 15 3f 1b ad 1e 3f 5a b2 1a 3f 0a 71 21 3f
       0.58447343 0.6198289 0.6042839 0.6306311
000320 cd be 13 bf 5d 3c 1d 3f 85 21 21 3f d5 fc 17 3f
       -0.57713014 0.6142023 0.6294177 0.59370166
000330 3f 0a 13 3f dd 7d 18 3f be c0 14 3f 88 c7 15 bf
       0.5743751 0.5956705 0.581066 -0.58507586
000340 d4 75 13 bf e4 16 11 bf fb 50 1b bf d8 4a 1c bf
       -0.57601666 -0.56675553 -0.6067044 -0.610517
000350 02 60 1e bf 13 64 1f bf e7 ba 11 bf 6b 0c 16 bf
       -0.61865246 -0.62262076 -0.56925815 -0.586127
000360 7d 02 16 bf 96 c3 15 bf 2c eb 20 bf 85 68 1d bf
       -0.58597547 -0.58501565 -0.62858844 -0.6148761
000370 4c 60 15 bf 50 92 1d bf 92 65 1a bf 5d 5e 1e bf
       -0.5835006 -0.6155138 -0.60311234 -0.61862737
000380 30 a9 1f bf a6 35 1e bf ca 81 20 bf f5 67 1a bf
       -0.62367535 -0.6180061 -0.6269804 -0.60314876
000390 9f 6c 17 bf ce f5 15 bf 08 34 19 bf 48 ac 1e bf
       -0.5915012 -0.58578193 -0.5984502 -0.6198163
0003a0 c7 1e 13 bf f5 81 1d bf 13 5b 1a 3f 7b 46 1a 3f
       -0.5746884 -0.61526424 0.6029522 0.60263795
0003b0 7d 4c 20 3f dc 27 16 3f fe 05 1c 3f a8 70 19 3f
       0.6261671 0.5865457 0.60946643 0.59937525
0003c0 f1 83 1c 3f a3 33 20 3f d4 3f 12 3f 53 b6 14 bf
       0.61138827 0.6257879 0.57128644 -0.58090705
0003d0 69 2f 19 bf 8a af 1e bf 4e 60 1d bf 95 5a 20 bf
       -0.5983797 -0.619866 -0.61475074 -0.6263822
0003e0 8e e8 19 bf b3 56 20 bf 37 8f 20 bf b1 79 19 bf
       -0.60120475 -0.6263229 -0.6271853 -0.5995131
0003f0 ca d9 15 3f 49 fa 14 3f 15 76 19 3f 36 5f 20 3f
       0.58535445 0.58194405 0.59945804 0.6264528

module.Conv6.layers.0.bias f4 [64]
000000 fb 13 4a 3d e1 6e 97 bd 2e 3c 16 bd a8 18 44 3d
       0.04933546 -0.07394195 -0.036678486 0.047875077
000010 16 92 6b 3c c6 87 87 bd 8d 77 dd 3c 6a 77 c3 bd
       0.014378091 -0.066176936 0.027034545 -0.09544261
000020 6f 5a 41 3d ac 50 b1 3c 4a f7 61 bd e5 a1 b8 3d
       0.047205385 0.021644913 -0.055167474 0.09015254
000030 d6 3f a4 be 91 94 7e 3c c5 62 cd 3b ad 3a ec bd
       -0.32079953 0.015538351 0.0062678778 -0.11534629
000040 33 62 7f bd fd a6 f3 bd f0 a0 08 be 27 3a e1 3d
       -0.06234951 -0.11897085 -0.13342643 0.1099742
000050 9b e4 f9 3d 27 e5 b8 3d cc 42 47 bd 82 d3 e6 bd
       0.12201806 0.09028082 -0.048647687 -0.11270811
000060 19 96 3e 3e 77 6d 16 3e 38 45 d2 3c 68 e9 9e 3c
       0.18611945 0.14690195 0.025667772 0.019398406
000070 db 22 ba 3d 85 4b 53 bd 7a 1e 16 3d c7 75 da 3c
       0.090886794 -0.051585693 0.03665016 0.026667489
000080 96 cd 69 3c 0a e7 12 bc 1f 2e 68 3d f1 6b 47 3d
       0.014270207 -0.008966217 0.05668461 0.048686925
000090 b1 3f 7e bb c4 4c cc 3d 35 2a dc 3d 9d 63 8f 3e
       -0.0038795287 0.099755794 0.10750238 0.28005686
0000a0 25 20 1e 3d 50 93 fc bc 42 f7 86 3d 26 81 fb bc
       0.038604874 -0.030831963 0.065901294 -0.030701231
0000b0 44 b4 b3 bd 96 4c 19 3d 0c 48 3f be 09 65 7a 3d
       -0.08774617 0.037426554 -0.18679827 0.06113151
0000c0 6e 4e 5e 3d 24 4e b2 3c 68 72 80 bc 30 8d aa bc
       0.054274015 0.021765776 -0.015679553 -0.020819277
0000d0 a8 21 4b bd 4b 13 12 be 5c c4 3b 3d db 7d 7e 3e
       -0.049592644 -0.14265172 0.04584156 0.24852698
0000e0 a1 91 a6 bd 88 36 7a 3d 43 4c e2 3d 16 2d 63 3d
       -0.08133245 0.06108716 0.11049702 0.05546292
0000f0 c2 c6 51 3e 82 b7 25 3e 9d df 2d be 3a 3a c7 bc
       0.20485976 0.16183284 -0.16979833 -0.024319757

module.Conv6.layers.1.weight f4 [64]
000000 e4 d7 fb 3e 13 f2 d9 3e da ca c4 3f b2 a3 b1 3f
       0.4918815 0.425675 1.5374405 1.3878081
000010 f4 8f a8 3f ae 1e ca 3f fa 40 8e 3f 3a 91 b8 3f
       1.3168931 1.5790613 1.1113579 1.441932
000020 73 b4 91 3f 24 0d ab 3e ab dc 46 3f 37 d5 f4 3e
       1.1383194 0.33408463 0.7768046 0.4781892
000030 87 46 e6 3e fd 4f 92 3f 20 45 f2 3e 3e 4b f6 3e
       0.44975683 1.143066 0.47318363 0.4810428
000040 b6 ed 83 3f 43 4f 35 3f a9 97 bd 3f 57 fe dd 3f
       1.0306919 0.7082407 1.4811908 1.7343243
000050 8d 73 65 3f 16 e0 c4 3f 91 42 1c 3f bd 38 b1 3f
       0.8962944 1.5380886 0.6103907 1.384544
000060 a6 6f bf 3e 29 67 c9 3f 4c be bd 3f 59 a9 b7 3e
       0.37389868 1.5734607 1.4823699 0.3587139
000070 50 e9 0f 3f 5e 62 02 3f 85 6d 9c 3f 29 6d b1 3f
       0.5621538 0.50931346 1.2220923 1.3861438
000080 0f 36 6e 3f 8b c1 45 3f 19 b4 5b 3f 61 10 b9 3f
       0.93051237 0.7724845 0.8582168 1.4458123
000090 c5 47 f1 3e 13 90 c1 3f 59 73 89 3e 33 8f c5 3f
       0.47125068 1.5122093 0.26845816 1.5434326
0000a0 81 f0 70 3f 39 cc 85 3e 9c f8 45 3f 44 52 91 3f
       0.9411698 0.26132372 0.7733247 1.135323
0000b0 8b f9 ca 3f 9a 8c 13 40 df 9a ca 3f 1b b5 22 bf
       1.5857404 2.3054566 1.5828513 -0.63557595
0000c0 f6 ba 0e 3f 88 9c 87 3e 4c 26 88 3f fb b8 e3 3f
       0.5575403 0.2648661 1.0636687 1.7790827
0000d0 c4 ff c7 3f 67 73 b2 3f 1b 2d b9 3e 98 62 cd 3f
       1.5624928 1.3941468 0.36167225 1.6045713
0000e0 06 8e 94 3e 3c 5f 8a 3f a4 09 0f 3f 15 d7 44 bf
       0.29014605 1.0810313 0.55874085 -0.7689069
0000f0 c9 9f f3 3e 77 fb b1 3e 94 7e c3 3f cf 09 d7 3f
       0.47582844 0.34762165 1.5273004 1.6799868

module.Conv6.layers.1.bias f4 [64]
000000 f9 e4 8d bf fa 0d 07 bf 65 73 23 3f b4 8e 4b 3f
       -1.1085502 -0.527557 0.63847953 0.7951462
000010 85 cf 97 3f 06 c6 1c 3f 68 fa 41 3f aa 8b 8a 3f
       1.1860205 0.6123966 0.75772715 1.0823872
000020 df b7 e9 3f e6 0e f6 be 41 2a 16 3f 70 59 47 bf
       1.8259238 -0.48058242 0.58658224 -0.77870846
000030 11 70 f8 be 01 2b a8 3f 90 00 22 3f 63 2d 66 bf
       -0.48523 1.3138124 0.6328211 -0.89913005
000040 cc 66 f6 3f 8c cf bc bf 7a dd 2c 3f 58 8c 90 3f
       1.9250121 -1.4750838 0.67525446 1.129283
000050 2b bf a0 bf 89 0d 26 3f 21 b3 65 bf 62 a2 30 3f
       -1.255834 0.64864403 -0.89726454 0.68997777
000060 1e b4 14 bf 1a a7 1f 3f 65 72 4d 3f 04 c4 24 bf
       -0.58087337 0.6236435 0.8025268 -0.64361596
000070 7d 16 98 bf da c4 79 bf a3 0f 98 3f 90 7f a7 3f
       -1.1881863 -0.97565997 1.1879772 1.3085804
000080 18 bf 6a 3f b6 7a 1c 3f 10 99 8d bf 64 74 c9 3f
       0.91697836 0.6112474 -1.1062336 1.5738645
000090 85 26 fd 3d 04 6e 2c 3f f6 15 3d bf 04 35 66 3f
       0.12360863 0.6735537 -0.73861635 0.89924645
0000a0 84 3a 1d c0 5e f1 92 bf 91 3f 2b bf a6 49 af 3f
       -2.4566965 -1.147991 -0.6689387 1.3694351
0000b0 5f 2f 27 3f eb 49 1f 40 20 4c 17 3f 48 95 35 3f
       0.6530666 2.4888866 0.5910053 0.7093091
0000c0 50 fc 55 bf 2e de 03 bf fe c5 37 bf 0c a3 53 3f
       -0.83588123 -0.51510894 -0.7178649 0.82670665
0000d0 b7 e7 80 3f 44 48 8a 3f aa 00 01 bf c9 3d 06 3f
       1.0070714 1.0803304 -0.5039164 0.52438027
0000e0 73 67 fa be 80 ca c3 bf 62 b7 75 bf 63 4b 46 3e
       -0.4890705 -1.5296173 -0.95982945 0.19364695
0000f0 d7 5e 49 bf 90 8a 0e bf 9a c7 64 3f 4b 45 1b 40
       -0.7866034 -0.5568018 0.8936707 2.4261043

module.Conv6.layers.1.running_mean f4 [64]
000000 a1 01 04 43 48 bf da c2 02 f1 09 43 71 96 fc c2
       132.00636 -109.3736 137.94144 -126.29383
000010 53 ef f4 c2 73 b4 18 43 d9 99 f2 42 a7 90 eb 42
       -122.46743 152.70488 121.30048 117.782524
000020 8b 88 ce 42 9c 5b 3a 42 a6 16 18 43 d6 4b e6 42
       103.266685 46.589462 152.08847 115.14812
000030 cb c2 d9 c2 d3 8c e0 c2 42 b8 0c 43 ba 00 f6 42
       -108.880455 -112.27505 140.71976 123.00142
000040 fb c7 fb c2 d7 3a fa 42 d7 ec 9a c2 6f 78 e1 c2
       -125.89059 125.11492 -77.46258 -112.73522
000050 60 5d e8 42 69 ec 11 43 89 f0 e1 42 79 ce 90 c2
       116.18237 145.92348 112.969795 -72.40327
000060 8e f5 0b c3 9b 55 08 43 92 a8 fa 42 95 49 07 c3
       -139.9592 136.3344 125.32924 -135.28743
000070 3b 0e f2 42 57 2b 02 43 f6 63 e5 c2 16 15 f0 c2
       121.027794 130.1693 -114.69524 -120.04118
000080 2f 3e e5 42 00 7c 0b 43 1c 77 cf 42 96 85 ed c2
       114.62145 139.48438 103.732635 -118.76091
000090 81 b1 07 c3 0d 13 0e 43 9c e6 e0 42 03 99 e4 42
       -135.69337 142.07442 112.45041 114.29885
0000a0 ca df 0c 43 c0 75 06 43 9e f4 9e c2 52 a2 06 c3
       140.87418 134.45996 -79.47777 -134.63406
0000b0 04 d3 07 43 9a 39 b0 c2 b2 d3 0f 43 6e 46 a8 c2
       135.82428 -88.1125 143.82693 -84.13756
0000c0 ff 72 e4 42 bf 51 1e c3 7b 19 9c c0 09 5b 36 c3
       114.2246 -158.31932 -4.8781104 -182.3556
0000d0 86 1b 12 c3 6a 9b d5 c2 d0 3a 0a c3 b0 d8 ea 42
       -146.10751 -106.80354 -138.22974 117.42322
0000e0 9a a7 0a c3 7f eb ed 42 be 54 bb 42 24 c4 07 43
       -138.6547 118.95995 93.66551 135.76617
0000f0 72 c1 e0 42 89 e8 24 c3 f4 3a d7 c2 36 36 05 c3
       112.37782 -164.90834 -107.61514 -133.21176

module.Conv6.layers.1.running_var f4 [64]
000000 9f 7d 14 46 1f 77 0b 46 04 13 9b 46 0f 02 16 46
       9503.405 8925.78 19849.508 9600.515
000010 69 1e 0e 46 8a 17 76 46 12 7d 7a 46 21 6a dc 45
       9095.603 15749.885 16031.268 7053.266
000020 12 46 e4 45 46 7e c8 45 e8 d7 88 46 75 c8 fb 45
       7304.759 6415.784 17515.953 8057.057
000030 dc a2 a3 45 f0 ad f9 45 3d 27 6f 46 97 3c 1b 46
       5236.3574 7989.742 15305.81 9935.147
000040 d2 cc 0d 46 12 6c 1a 46 8b 83 15 46 3d a8 ff 45
       9075.205 9883.018 9568.886 8181.03
000050 00 fe 04 46 0d d5 70 46 8f a5 f0 45 7f 99 03 46
       8511.5 15413.263 7700.695 8422.374
000060 be e2 b2 46 2c 8f 8c 46 af 25 15 46 de 83 74 46
       22897.371 17991.586 9545.421 15648.967
000070 75 24 15 46 9d 2a 31 46 75 1e e8 45 0d ca 1c 46
       9545.114 11338.653 7427.807 10034.513
000080 ce 83 17 46 cf 4f 45 46 40 71 8f 45 49 9c ea 45
       9696.951 12627.952 4590.1562 7507.5356
000090 72 8a 3c 46 41 72 82 46 93 0a 13 46 41 66 d4 45
       12066.611 16697.127 9410.644 6796.7817
0000a0 d3 b9 40 46 b9 d6 1a 46 8f 6d f7 45 46 1b 54 46
       12334.456 9909.681 7917.695 13574.818
0000b0 93 62 23 46 85 96 14 46 56 6f 5e 46 f7 57 84 45
       10456.644 9509.63 14235.834 4234.9956
0000c0 05 09 d6 45 9b 6c 45 46 ec 25 37 45 ac 8e 3b 46
       6849.1274 12635.151 2930.37 12003.668
0000d0 9b 77 30 46 c7 e0 ee 45 2b cd 68 46 ec 69 30 46
       11293.901 7644.097 14899.292 11290.48
0000e0 48 12 88 46 ec 71 18 46 a7 d3 fa 45 27 19 41 46
       17417.14 9756.48 8026.4565 12358.288
0000f0 57 f6 d8 45 cb 1c 86 46 3d 0f 0c 46 df 14 0f 46
       6942.7925 17166.396 8963.81 9157.218

module.Conv7.layers.1.weight f4 [1, 128, 3, 3]
000000 01 bf 16 bf f9 7e 18 bf 23 05 14 bf 41 66 16 bf
       -0.588852 -0.59568745 -0.5782034 -0.5874978
000010 ab 69 15 bf da d4 17 bf f7 f5 2a bf 91 f9 1c bf
       -0.5836436 -0.5930916 -0.6678156 -0.6131831
000020 80 26 22 bf e1 c9 15 3f c6 43 19 3f 5f 65 16 3f
       -0.63339996 0.5851117 0.5986904 0.5874843
000030 05 0d 18 3f 9a 16 15 3f 26 47 16 3f 1c 19 1a 3f
       0.59394866 0.5823761 0.58702314 0.60194564
000040 7f 99 17 3f 38 20 13 3f 77 3c 1a 3f 53 4f 1e 3f
       0.5921859 0.57471037 0.6024851 0.6183979
000050 39 84 19 3f bb cf 14 3f 21 a1 1c 3f a0 b1 16 3f
       0.5996738 0.5812947 0.61183363 0.58864784
000060 fa 97 1e 3f de d7 1d 3f d4 1f 18 3f ce 4d 19 bf
       0.6195065 0.6165751 0.59423566 -0.59884346
000070 8c a2 1d bf d8 70 1c bf cb bf 1f bf c6 50 19 bf
       -0.6157615 -0.61109686 -0.6240203 -0.59888875
000080 72 35 1a bf 16 d0 17 bf a6 3f 14 bf 8d b2 1a bf
       -0.602378 -0.5930189 -0.5790962 -0.60428697
000090 67 cc 1d bf 7d c5 20 bf 49 90 11 bf c8 71 1c bf
       -0.6164002 -0.62801343 -0.56860787 -0.61111116
0000a0 34 d0 1d bf be 04 15 bf 86 bd 13 bf ec 3c 20 bf
       -0.6164582 -0.5821036 -0.57711065 -0.6259296
0000b0 be 52 1a bf ab cf 1f 3f be 49 20 3f c8 1f 20 3f
       -0.60282505 0.6242625 0.6261252 0.62548494
0000c0 71 9a 1b 3f 3e 6b 20 3f be 68 16 3f f4 60 1b 3f
       0.60782534 0.6266364 0.58753574 0.60694814
0000d0 92 ea 12 3f 5c a4 1b 3f 60 ab 19 3f 45 f7 16 3f
       0.57389176 0.6079767 0.6002712 0.58971053
0000e0 80 a6 1b 3f 25 1e 1e 3f b1 2e 13 3f 3b 71 1d 3f
       0.60800934 0.61764747 0.5749312 0.615009
0000f0 38 ff 18 3f 5d 6d 1d 3f af 46 12 3f fa 36 1d 3f
       0.5976443 0.61495 0.57139105 0.6141201
000100 78 8a 13 3f 5a 47 12 3f eb 49 18 3f 66 a1 20 3f
       0.5763316 0.57140124 0.5948779 0.62746274
000110 cb f6 1e 3f de 0d 16 3f db f4 1a 3f fc 17 1f 3f
       0.62095326 0.5861491 0.6052987 0.6214597
000120 4f 12 13 3f 55 74 1b 3f 73 af 19 3f d2 79 1f 3f
       0.5744981 0.60724384 0.6003334 0.6229526
000130 34 10 14 3f 50 d1 1b 3f d6 14 17 3f 2a 8d 18 3f
       0.57837224 0.6086626 0.5901617 0.595904
000140 0f 02 1d 3f b9 ec 20 bf 55 55 15 bf d3 d0 12 bf
       0.61331266 -0.6286121 -0.5833333 -0.5734989
000150 52 99 19 bf ca 20 1c bf 33 db 16 bf d8 a6 1b bf
       -0.59999573 -0.6098753 -0.5892822 -0.6080146
000160 a5 f3 18 bf 9a d4 1a bf 52 ac 17 3f f0 47 18 3f
       -0.5974677 -0.60480654 0.59247315 0.5948477
000170 fe 63 13 3f a6 e3 1c 3f 4e 2e 1b 3f 3a 83 1f 3f
       0.5757445 0.61284864 0.6061753 0.6230961
000180 90 89 17 3f 20 ae 1b 3f 64 90 13 3f b2 94 15 bf
       0.5919428 0.6081257 0.576422 -0.58430016
000190 87 77 17 bf ef 4b 20 bf 4b 61 14 bf 1a 43 16 bf
       -0.5916676 -0.62615865 -0.5796096 -0.5869614
0001a0 d0 27 13 bf f6 65 16 bf d6 10 1e bf 1b eb 18 bf
       -0.57482624 -0.5874933 -0.6174444 -0.5973374
0001b0 ea b5 14 3f e1 9d 16 3f f8 d6 16 3f 81 74 13 3f
       0.5809008 0.58834654 0.58921766 0.57599646
0001c0 a1 1f 14 3f 8b dc 14 3f 7e 4f 1c 3f bc 35 18 3f
       0.5786076 0.5814902 0.61058795 0.5945699
0001d0 f2 b6 1d 3f db 14 16 bf 61 b1 16 bf ed 16 17 bf
       0.6160728 -0.5862557 -0.5886441 -0.59019357
0001e0 b5 5b 1a bf 04 63 1d bf e3 50 1e bf 79 d5 18 bf
       -0.60296184 -0.6147921 -0.61842173 -0.59700733
0001f0 70 7f 1f bf a9 10 19 bf 7b d8 16 3f 13 17 1a 3f
       -0.6230383 -0.59791046 0.58924073 0.6019146
000200 a8 8f 13 3f 32 2c 20 3f a6 4a 16 3f 85 63 1b 3f
       0.5764108 0.62567437 0.58707654 0.6069873
000210 0b 5c 18 3f 15 3d 16 3f 76 f0 17 3f 80 ba 1d bf
       0.59515446 0.58686954 0.5935129 -0.616127
000220 e8 ef 1b bf 9e cd 19 bf 08 b2 13 bf 5e 57 14 bf
       -0.6091294 -0.6007937 -0.5769353 -0.5794581
000230 0d 81 1d bf dc 9c 1a bf e5 1e 17 bf e8 10 13 bf
       -0.6152504 -0.603956 -0.59031516 -0.5744767
000240 0a cc 10 bf 50 79 1b bf 23 6e 16 bf 6c 31 1d bf
       -0.5656134 -0.60731983 -0.58761805 -0.61403537
000250 51 f4 1a bf 30 dd 1f bf f4 d3 0f bf 36 32 1b bf
       -0.6052905 -0.6244688 -0.5618279 -0.6062349
000260 03 2c 1b bf 44 0d 15 bf 1c 2c 1a bf ba a8 16 bf
       -0.6061403 -0.58223367 -0.60223556 -0.58851206
000270 43 77 15 bf bc 24 1e bf f9 de 1d bf 9a 6b 13 bf
       -0.58385104 -0.617748 -0.61668354 -0.5758606
000280 5b 71 1a bf ae 1a 1e bf 89 ff 1f bf f7 95 1b bf
       -0.60329217 -0.6175946 -0.6249929 -0.60775703
000290 af 89 1e bf d9 17 12 bf 7a 10 1d bf bc 8f 18 bf
       -0.6192884 -0.5706764 -0.61353266 -0.5959432
0002a0 74 db 1c bf 78 ca 1e bf 6a 0e 1b bf 07 fa 1f bf
       -0.6127236 -0.6202769 -0.6056887 -0.62490886
0002b0 50 1f 1a bf 96 bf 1a bf fc ae 1e bf c0 64 21 bf
       -0.6020403 -0.60448587 -0.61985755 -0.6304436
0002c0 53 cd 1d bf 64 68 15 bf 65 eb 1d bf a3 ee 11 bf
       -0.61641425 -0.5836241 -0.6168731 -0.57004756
0002d0 d3 c4 16 bf b3 74 1f bf 4c 74 14 bf 8e 6a 13 bf
       -0.5889408 -0.62287444 -0.57989955 -0.57584465
0002e0 5e 00 11 bf 6b 0a 20 bf 84 f7 18 bf 0b 6a 1f bf
       -0.56641185 -0.62515897 -0.5975268 -0.62271184
0002f0 53 59 18 bf f0 73 1a 3f 42 fd 1a 3f 00 8a 1a 3f
       -0.595113 0.60333157 0.6054269 0.6036682
000300 f0 ea 1b 3f c1 57 17 3f 0a 57 18 3f 2a 6a 16 3f
       0.6090536 0.59118277 0.5950781 0.58755744
000310 aa 86 20 3f 48 09 1e 3f 28 31 1a bf 12 16 15 bf
       0.6270548 0.6173291 -0.60231256 -0.582368
000320 f9 0e 17 bf ba f2 15 bf 14 ac 12 bf 6d 11 1c bf
       -0.5900722 -0.58573496 -0.5729382 -0.6096409
000330 f6 ad 14 bf dc 4d 1d bf 2c d0 1f bf ff 46 1d bf
       -0.58077943 -0.6144693 -0.6242702 -0.61436456
000340 bc d5 1c bf b6 3b 1f bf 8d 57 1d bf 3d 65 12 bf
       -0.6126363 -0.62200487 -0.61461717 -0.5718573
000350 bc e7 14 bf 56 7f 16 bf ff 8f 19 bf 3e 6d 1e bf
       -0.581661 -0.5878805 -0.59985346 -0.6188544
000360 58 6c 1a 3f fc 27 14 3f e6 1f 14 3f 62 08 18 3f
       0.6032157 0.5787351 0.57861173 0.5938779
000370 24 17 17 3f c6 b2 1a 3f 00 6b 16 3f 61 2c 13 3f
       0.59019685 0.60429037 0.5875702 0.5748959
000380 71 98 15 3f 7d 04 19 3f e3 f6 16 3f e8 f1 1c 3f
       0.5843573 0.59772474 0.5897047 0.6130662
000390 0d cf 1a 3f 44 d3 18 3f fa 6b 1b 3f 2f ab 1e 3f
       0.60472184 0.59697366 0.60711634 0.61979955
0003a0 7e 8c 1d 3f 17 e1 1f 3f c5 6f 1e 3f 8b 92 18 3f
       0.615425 0.62452835 0.61889297 0.59598607
0003b0 e8 a9 18 3f c0 be 1d 3f 67 66 1a 3f 25 a7 1b 3f
       0.59634256 0.61619186 0.60312504 0.6080192
0003c0 c1 1f 17 3f 23 ec 18 3f 28 a2 19 3f 85 e5 1a 3f
       0.5903283 0.59735316 0.60013056 0.6050647
0003d0 a7 9e 1d 3f 6d ab 19 3f 44 f6 15 3f 42 7d 13 3f
       0.6157021 0.600272 0.58578897 0.57613003
0003e0 ae ef 1f 3f aa 49 16 3f 48 b4 17 3f 71 f8 1a 3f
       0.624751 0.5870615 0.5925946 0.6053534
0003f0 4b c0 1d bf ff 15 1e bf 50 6e 15 bf 33 2e 1a bf
       -0.6162154 -0.61752313 -0.5837145 -0.60226744
