DIDFuse/saved_models/decoder/IR_AE11.pth (torch, 604881 bytes, 13 tensors)

module.Conv5.layers.0.weight f4 [64, 128, 3, 3]
000000 5f ee 17 3f 78 fb 12 3f 81 ab 12 3f 6b 5e 1d 3f
       0.593481 0.5741496 0.57292944 0.61472195
000010 f0 0a 20 3f 9a c1 19 3f 0b b5 1e 3f b1 e9 12 3f
       0.6251669 0.6006104 0.61995 0.57387835
000020 a4 ff 19 3f 65 92 1a 3f ff d6 12 3f 88 c4 1a 3f
       0.601557 0.6037963 0.5735931 0.6045613
000030 a4 cf 16 3f 70 a4 1f 3f 4e c9 1a 3f 0d 2c 12 3f
       0.58910584 0.62360287 0.60463417 0.57098466
000040 7a 14 19 3f e2 e9 17 3f 46 bd 1e 3f b4 4f 18 3f
       0.5979687 0.5934125 0.6200756 0.5949662
000050 b2 16 1a 3f 1f 15 13 3f 0b 21 1e 3f 7c 29 1e 3f
       0.6019088 0.57454103 0.6176917 0.6178205
000060 f0 54 18 3f b0 93 13 3f 76 eb 1b 3f 08 14 14 3f
       0.59504604 0.5764723 0.6090616 0.57843065
000070 56 d3 1c 3f e6 66 15 3f 9f 04 17 3f 10 89 15 3f
       0.61259973 0.58360136 0.58991426 0.58412266
000080 15 bc 17 3f 08 5b 1f 3f e9 2f 1c 3f b0 62 1a 3f
       0.59271365 0.6224828 0.61010605 0.60306835
000090 de bb 1b 3f 69 95 1b 3f 59 ec 1d 3f 6a 69 16 3f
       0.6083354 0.60774857 0.6168876 0.587546
0000a0 95 0d 12 3f 20 75 15 3f 12 81 1f 3f 81 97 11 3f
       0.57051975 0.58381844 0.6230632 0.568718
0000b0 49 a9 17 3f f8 4f 1a 3f 8e 82 17 3f 31 99 13 3f
       0.59242684 0.6027827 0.59183586 0.57655627
0000c0 a8 6f 19 3f 85 c1 1c 3f d0 2e 20 3f 18 48 12 3f
       0.59936 0.6123279 0.6257143 0.57141256
0000d0 4e 13 16 3f 1d da 17 3f fc d0 19 bf 1d 45 16 bf
       0.58623207 0.5931719 -0.6008451 -0.5869921
0000e0 07 c3 1d bf 57 1d 15 bf 18 0f 1b bf 42 e1 10 bf
       -0.61625713 -0.58247894 -0.60569906 -0.56593716
0000f0 78 03 1f bf df 8b 17 bf 68 47 1f bf 35 73 20 3f
       -0.6211467 -0.591978 -0.6221833 0.6267579
000100 f7 af 21 3f f0 bb 18 3f 99 2e 1c 3f f2 e9 1b 3f
       0.63159126 0.5966177 0.610086 0.6090385
000110 2a a8 13 3f 12 dd 1a 3f a4 98 18 3f a5 9a 1a 3f
       0.57678473 0.60493577 0.5960791 0.6039222
000120 01 da 1a bf 68 d1 1b bf a4 74 13 bf d8 31 1e bf
       -0.604889 -0.60866404 -0.57599854 -0.61794806
000130 77 00 11 bf 44 ec 15 bf 3e 42 48 3f 88 1f 47 3f
       -0.56641334 -0.5856364 0.7822608 0.7778249
000140 89 4e 07 bf 2c b5 1f 3f 49 25 13 3f d5 06 12 3f
       -0.5285421 0.6238582 0.5747877 0.57041675
000150 a9 fd 1f 3f 46 de 1a 3f 5a 44 1a 3f 28 dc 14 3f
       0.6249643 0.6049541 0.60260546 0.5814843
000160 09 c8 14 3f 48 29 11 3f 96 7b 17 bf 2a 5c 17 bf
       0.5811773 0.56703615 -0.5917295 -0.59125006
000170 4d 86 1a bf 17 c6 20 bf 81 7a 1a bf e2 ae 20 bf
       -0.60361177 -0.6280226 -0.60343176 -0.6276685
000180 18 77 22 bf b2 30 1a bf 84 59 28 bf 9d 68 14 bf
       -0.6346297 -0.60230553 -0.6576159 -0.5797213
000190 2d 83 13 bf 04 3c 1f bf 40 33 14 bf cf 94 1c bf
       -0.57622033 -0.6220095 -0.578907 -0.61164564
0001a0 bc aa 18 bf e0 ee 13 bf 68 f7 12 bf 5d a1 18 bf
       -0.5963552 -0.5778637 -0.5740876 -0.5962122
0001b0 32 dc 18 bf 65 6c 1e bf 0d ae 21 bf 32 bc 16 bf
       -0.5971099 -0.61884147 -0.63156205 -0.58880913
0001c0 78 b0 1f bf d4 69 16 bf 11 2f 1e bf fa fd 16 bf
       -0.62378645 -0.5875523 -0.6179057 -0.5898129
0001d0 e8 91 16 bf b8 1a 1c 3f 3b e2 1d 3f cf dc 18 3f
       -0.58816385 0.6097827 0.61673325 0.5971193
0001e0 0e 4a 17 3f 15 d7 19 3f 23 e5 18 3f c2 f4 1a 3f
       0.59097373 0.60093814 0.59724635 0.6052972
0001f0 d2 16 15 3f b3 c6 18 3f 27 c3 1d bf 52 3a 17 bf
       0.58237946 0.5967819 -0.61625904 -0.59073365
000200 a7 f2 1c bf 64 0f 18 bf 1e 82 1d bf ec 83 1a bf
       -0.6130776 -0.59398484 -0.6152667 -0.60357547
000210 a8 43 16 bf dd 3b 1d bf 46 63 1c bf b1 bf 17 bf
       -0.58696985 -0.6141947 -0.6108898 -0.5927687
000220 c8 31 1f bf c3 bd 16 bf 4d 12 16 bf a3 60 14 bf
       -0.62185335 -0.58883303 -0.58621675 -0.57959956
000230 9a fb 17 bf 54 e7 18 bf 61 c2 12 bf 54 ca 17 bf
       -0.5936829 -0.5972798 -0.5732785 -0.59293103
000240 79 fb 17 bf fd e8 18 bf a9 81 17 bf 17 07 20 bf
       -0.5936809 -0.5973051 -0.5918222 -0.6251082
000250 60 70 1d bf 75 64 20 bf 04 a1 19 bf a0 79 1d bf
       -0.61499596 -0.62653285 -0.60011315 -0.6151371
000260 6e eb 13 bf 38 16 1f 3f b3 38 20 3f e0 f0 1a 3f
       -0.5778111 0.6214328 0.62586516 0.60523796
000270 15 c9 17 3f 08 71 21 3f 44 07 17 3f b6 17 18 bf
       0.592912 0.63063097 0.5899546 -0.5941118
000280 a6 b8 1e bf 2e 09 0e bf 12 39 17 bf 39 87 15 bf
       -0.620005 -0.5548276 -0.5907146 -0.5840946
000290 b4 d2 1c bf d5 44 2a 3f 14 a6 10 bf 30 58 1b 3f
       -0.6125901 0.6651128 -0.56503415 0.6068144
0002a0 8f 64 18 3f e7 8e 1c 3f a5 4d 1e 3f 32 45 1a 3f
       0.5952844 0.6115555 0.61837226 0.60261834
0002b0 44 7f 16 3f ec 74 19 3f 1d 72 1c 3f c9 fd 1d 3f
       0.5878794 0.59944034 0.61111623 0.6171537
0002c0 8e 51 1c 3f cd 44 17 3f 6f 02 20 3f 14 fb 14 3f
       0.6106194 0.59089357 0.62503713 0.58195615
0002d0 bb 13 19 3f 83 74 1e 3f 56 84 1c 3f b4 4a 14 3f
       0.5979573 0.6189653 0.6113943 0.5792649
0002e0 51 a9 18 3f 7e 6f 1b 3f 22 13 13 bf ac b0 1d bf
       0.59633356 0.60717 -0.5745107 -0.61597705
0002f0 26 69 1a bf 04 63 14 3f b6 62 17 3f 89 a3 20 3f
       -0.60316694 0.57963586 0.59134996 0.62749535
000300 8e b0 13 3f 68 21 17 3f 3a b8 20 3f 79 e1 1c 3f
       0.57691276 0.5903535 0.6278111 0.61281544
000310 37 2f 18 3f 0a bc 18 3f 9d 77 1e 3f 70 10 18 3f
       0.59447044 0.59661925 0.61901265 0.5940008
000320 4d aa 1f 3f 96 f5 20 3f f8 e5 1b 3f 9a 6b 14 3f
       0.62369233 0.62874734 0.6089778 0.57976687
000330 72 67 21 3f 66 4f 15 3f 75 c2 15 3f 07 08 1f bf
       0.6304847 0.5832428 0.5849984 -0.62121624
000340 51 c7 17 bf c7 dd 1c bf eb c2 1f bf 03 17 20 bf
       -0.5928851 -0.61275905 -0.62406796 -0.62535113
000350 51 fe 1d bf 52 6c 31 bf 02 2a 23 bf 24 e9 13 bf
       -0.6171618 -0.6930591 -0.63735974 -0.5777762
000360 9e b4 1b bf 7d 45 16 bf 7a 26 13 bf a3 53 1b bf
       -0.60822475 -0.5869978 -0.57480586 -0.60674495
000370 18 e3 1e bf 2c fb 1f bf 40 4c 1b bf 95 4a 16 bf
       -0.6206527 -0.6249263 -0.60663223 -0.58707553
000380 aa c8 19 bf 9d 72 1a bf 6d 99 16 bf 26 5c 1e bf
       -0.60071814 -0.60331136 -0.5882786 -0.6185936
000390 78 3b 18 bf 93 57 16 bf d9 4d 16 bf eb 5c 1b bf
       -0.5946574 -0.5872738 -0.58712536 -0.60688657
0003a0 f3 49 20 bf ce 2e 1a bf 3e b0 1e 3f 3d 31 14 3f
       -0.6261284 -0.6022767 0.61987674 0.5788763
0003b0 70 7b 14 3f e3 b9 16 3f 9e 03 16 3f ae 94 17 3f
       0.5800085 0.5887739 0.5859927 0.5921124
0003c0 2c 98 12 3f 22 53 17 3f 30 24 19 3f 5d ec 14 bf
       0.57263446 0.59111226 0.5982084 -0.5817316
0003d0 ea 71 14 bf 53 4e 1a bf ef 89 13 bf 03 b4 13 bf
       -0.5798632 -0.60275763 -0.57632345 -0.5769655
0003e0 03 66 1f bf 94 34 1e bf 88 82 16 bf 67 0f 1e bf
       -0.6226503 -0.6179898 -0.58792925 -0.6174225
0003f0 3b 05 1c 3f e1 97 1c 3f a4 ec 1a 3f e8 e6 20 3f
       0.6094548 0.6116925 0.60517335 0.62852335

module.Conv5.layers.0.bias f4 [64]
000000 36 c7 7d bd eb e0 1e bd 8c 70 f9 bd 50 ed bc 3c
       -0.06195756 -0.038788717 -0.1217967 0.023062378
000010 4a 9a c5 bc 44 86 4f bd 9d 87 c4 3d 0f 52 e9 3d
       -0.024121422 -0.050665155 0.09596179 0.113926046
000020 50 2b 69 bd 86 6a 70 3d c0 13 ac 3b 55 55 4f 3d
       -0.05692607 0.05869534 0.005251378 0.05061849
000030 54 42 0c bd 41 1a 9b bd 96 b9 84 3d b4 a8 06 be
       -0.034242943 -0.07573367 0.0648071 -0.13150293
000040 d8 d9 70 bd 78 29 1d bb c7 e9 3b 3d 5e 55 6a bc
       -0.058801502 -0.0023981016 0.045877244 -0.01430258
000050 6a d2 63 bd cc c5 a8 3d b6 7b 0a 3e 83 a0 e0 bd
       -0.05562059 0.08240852 0.13523754 -0.10968115
000060 33 69 b1 bd d2 cf 84 3d 7d ef af ba c4 3f d2 bd
       -0.08662643 0.06484951 -0.0013422813 -0.102660686
000070 ec 68 32 38 b8 c8 a3 3d 0c dc a3 bc 4b 91 f6 bc
       4.2536223e-05 0.079972684 -0.020002387 -0.030098578
000080 94 80 17 3c 6e 09 33 bc 22 6f 4f bc 80 de 8c bc
       0.009246964 -0.010927541 -0.0126607735 -0.01719594
000090 9c 35 4e 3c 4e 1e 48 bd 40 d1 1b 3e 88 df c1 bc
       0.012586024 -0.048857026 0.15216541 -0.023666158
0000a0 51 6c a7 bd 2c a3 00 3c c4 97 fd 3b 12 05 3b 3b
       -0.081749566 0.007851403 0.007739039 0.0028536958
0000b0 49 4e 13 3e 01 64 1d 3e d1 e2 19 3d e6 37 8c bd
       0.14385332 0.1537018 0.037569825 -0.06846599
0000c0 9d 7a 09 3e a0 4c 5e bd 7a 5e 17 3d 52 64 94 3c
       0.1342568 -0.054272294 0.036955334 0.018114243
0000d0 09 2b 29 3e a0 cd 12 bd ee 99 86 3d 24 0b 5a 3d
       0.16520323 -0.03584063 0.065723285 0.05323328
0000e0 ca 6d b9 39 5a eb 86 3c 82 1c 9f bc 8d 7f 31 bb
       0.0003536775 0.016469646 -0.019422773 -0.0027084083
0000f0 5f a4 35 3d 6a 43 4b bc f8 2f 7e 3d 07 d5 fc bd
       0.04434621 -0.0124062095 0.062057465 -0.12345319

module.Conv5.layers.1.weight f4 [64]
000000 f8 5d 1d 3f 26 67 bf 3e 21 1c a6 3f 44 9a bd 3f
       0.6147151 0.37383384 1.2977334 1.4812703
000010 a5 1e 5b 3f 5c 47 d6 3f 2f 5d e2 3e 7b 1e c2 3f
       0.85593635 1.6740527 0.44211718 1.5165552
000020 f5 7c bc 3f 97 49 bc bc 78 f8 6f 3f 94 e8 d1 3f
       1.4725634 -0.02298431 0.9373851 1.6399102
000030 3c 11 f3 3f e9 b0 0d 40 07 dd 9b 3f c1 a2 9f 3f
       1.8989635 2.2139227 1.2176827 1.2471544
000040 0c 6e 34 40 0d 99 26 40 ed a6 dc 3e 03 13 43 40
       2.8192167 2.6030915 0.43096104 3.0480354
000050 b4 b1 01 be f8 11 61 3e ec 6a 26 3f 7d 4f 0e 40
       -0.12665445 0.21979511 0.650069 2.2236016
000060 1b 1d 9d 3f 7a 29 34 3f 30 2c 95 3f 7a 2b a6 3f
       1.2274507 0.7037579 1.165411 1.2982018
000070 31 0e c4 3f e7 58 9a 3f 93 2d 36 40 a4 7a d8 3f
       1.5316831 1.2058381 2.8465316 1.6912427
000080 ed 90 2e 3e 0d f4 4f 3f 36 7e 00 40 bb 56 85 bf
       0.17047472 0.81231767 2.0077033 -1.0417093
000090 10 8a eb 3f ee 25 9f 3f 9f 84 50 3f de 85 9e 3e
       1.8401508 1.243345 0.81452364 0.30961508
0000a0 27 c0 99 3e 18 04 69 3f 27 8c 1f 3f cf b1 ac 3f
       0.30029413 0.9102187 0.6232323 1.3491763
0000b0 e3 06 d8 3e e6 4d 52 3f b8 75 e1 3e 9d a9 21 40
       0.42192754 0.82150114 0.44035125 2.5259774
0000c0 ac a5 48 bf 29 6c 78 3f 41 52 c9 3e d9 26 58 3e
       -0.78377795 0.9704004 0.39320567 0.21108569
0000d0 b4 15 a1 3e 75 79 ad be 24 4d 84 bf 50 b1 c5 3e
       0.3146187 -0.33881727 -1.0336041 0.3861184
0000e0 c3 2c 1e 40 20 82 ef be 4c db 4a 3f f4 92 94 3f
       2.471482 -0.46778965 0.7924087 1.1607347
0000f0 59 de 06 40 a7 b3 cc 3f 6b af 05 3e d2 84 93 3f
       2.107321 1.5992326 0.13055198 1.1524909

module.Conv5.layers.1.bias f4 [64]
000000 6f c0 5b bf 9b d9 88 bf 0f 83 22 3e 32 7a 8b 3f
       -0.85840505 -1.0691408 0.15870307 1.0896666
000010 d1 e9 72 3f d9 a9 e5 3f e8 24 55 bf b8 fc 5d be
       0.94888026 1.7942458 -0.8325944 -0.21678436
000020 ea 13 f7 3e 0b 1e 35 bf 62 78 70 bf ad 25 05 3f
       0.4825738 -0.70748967 -0.9393369 0.52010614
000030 54 5a db 3f b8 b0 90 3f 83 6e b3 3e 5b 4a a3 3f
       1.7136941 1.130393 0.3504525 1.2757066
000040 96 46 ac 3f f7 f7 1e 3f 68 8e 30 bf 45 43 52 c0
       1.3459041 0.62097114 -0.68967295 -3.2853558
000050 3e 91 94 bf 92 9b 08 bf fc 12 7b bf 2c 4b 5d 3f
       -1.1606824 -0.5336238 -0.9807584 0.8644283
000060 23 fa 7f bd e9 5c aa be 28 05 a1 3e a2 04 8c be
       -0.06249441 -0.3327401 0.31449246 -0.27347285
000070 84 1a 68 40 ea bf cf 3d 18 88 22 be b3 0a 86 3f
       3.6266184 0.101440266 -0.15872228 1.0472015
000080 cf ee 07 bf fa 8a de bd 8b cb ad 3e 96 16 7a be
       -0.5309877 -0.108663514 0.33944353 -0.24422678
000090 5b a1 cc 3e 3e 11 e6 bd e7 0b af 3e d9 cf 9a bf
       0.39966854 -0.112337574 0.34188768 -1.209468
0000a0 4a ea 81 bf fe c6 2a be ed b6 66 bf e9 7f 74 3d
       -1.0149624 -0.16677472 -0.9012287 0.059692297
0000b0 64 ad 30 bf 92 82 f2 bd ae e4 15 bf cd 19 84 c0
       -0.69014573 -0.118413106 -0.5855206 -4.1281495
0000c0 5d 9e 58 bf e8 26 43 3f cf c6 5c 3f fc 88 de be
       -0.84616643 0.7623124 0.8624086 -0.43463886
0000d0 5a 11 66 bf 9b 12 98 3f 38 c1 89 bf 48 2d 10 bf
       -0.89870226 1.1880678 -1.0762091 -0.56319094
0000e0 35 93 9d 3f 9a a3 96 3f 88 47 47 3f bb f0 67 3e
       1.2310549 1.1768677 0.77843523 0.22650425
0000f0 44 cf d7 3f 95 54 66 bf cd 3a 14 bf 31 78 ba be
       1.6860127 -0.8997281 -0.5790222 -0.36419824

module.Conv5.layers.1.running_mean f4 [64]
000000 9d 11 65 c3 91 49 47 c3 32 87 00 42 d7 d7 53 43
       -229.0688 -199.28737 32.132027 211.84312
000010 6c 51 34 43 8e e4 63 43 6a 6e 61 43 ff 69 0b c3
       180.31805 227.89279 225.4313 -139.41405
000020 d0 d1 2d 43 b5 30 fa 42 d9 cb 5b c3 3b a1 5e c3
       173.81958 125.09513 -219.79628 -222.6298
000030 47 e8 75 c2 58 9f 4e c3 b3 24 4a c3 17 66 48 c3
       -61.476833 -206.62244 -202.14336 -200.39879
000040 1b 56 0a c3 83 43 11 c3 f9 e7 4e 43 6f 2b 5f c3
       -138.33635 -145.26372 206.90614 -223.16966
000050 ef 37 53 43 d3 1e 45 43 2b 65 4c c3 46 85 1a 43
       211.21849 197.1204 -204.39519 154.5206
000060 81 7b 37 43 23 e1 49 c3 c7 f8 4e c3 97 86 34 43
       183.48244 -201.87944 -206.97179 180.52574
000070 61 26 69 42 cd 28 48 c3 17 8a 10 43 9d ed d6 c2
       58.28748 -200.15938 144.53941 -107.46409
000080 47 de de 42 02 70 3d c3 ab 73 46 43 7c 98 f6 42
       111.434135 -189.43753 198.45183 123.29782
000090 08 7c 4c c3 fb 4f 51 c3 ab 38 19 c3 6c 8e b0 42
       -204.4845 -209.31242 -153.22136 88.27817
0000a0 93 3b 2a 43 29 fa 33 c3 09 b9 42 43 e7 e4 53 c3
       170.23271 -179.97719 194.7228 -211.89415
0000b0 82 f8 43 43 f2 b7 40 c3 12 85 55 43 e6 77 ed c2
       195.97073 -192.71854 213.5198 -118.73418
0000c0 e2 c5 4b 43 03 11 4b c3 1c a3 4f 43 d7 95 03 c3
       203.77298 -203.06645 207.63715 -131.58531
0000d0 54 80 53 43 3f 42 8d 40 49 45 3e 43 37 b3 d7 42
       211.50128 4.4143367 190.27065 107.85003
0000e0 01 46 d4 c2 9b 3e b0 42 1b 09 67 43 47 1a 13 c2
       -106.13673 88.12228 231.03557 -36.77566
0000f0 7a 16 70 43 06 9f 08 43 3e 94 f6 42 27 6a 57 43
       240.0878 136.62119 123.289536 215.41466

module.Conv5.layers.1.running_var f4 [64]
000000 8e 3e 54 45 6b 4f a5 44 6e 8d 28 44 a4 61 0c 45
       3395.9097 1322.4818 674.20984 2246.1025
000010 44 e2 95 44 0a 86 cf 44 ae f1 fa 44 70 d5 c2 44
       1199.0708 1660.1887 2007.5525 1558.6699
000020 46 a2 8a 45 51 11 4d 44 3c 24 13 45 0b 3a 91 45
       4436.284 820.27057 2354.2646 4647.2554
000030 5d 34 63 45 5a aa 80 45 05 ba 5c 45 6c 6a 1d 45
       3635.2727 4117.294 3531.6262 2518.6514
000040 e6 e5 04 45 2b 6a 22 45 c2 57 59 45 ea 8e a0 45
       2126.3687 2598.6355 3477.4849 5137.8643
000050 96 2a 91 44 99 a2 87 45 62 06 aa 44 98 4b c2 45
       1161.3308 4340.3247 1360.1995 6217.449
000060 61 25 66 44 60 70 48 45 e5 a3 4c 45 5f 2b c8 44
       920.58405 3207.0234 3274.2434 1601.3553
000070 8a 04 6e 43 2e 41 bf 44 ac dc 9f 45 83 f0 5f 45
       238.01773 1530.0369 5115.584 3583.032
000080 42 83 45 44 53 da 57 45 f3 68 85 45 c4 27 58 44
       790.0509 3453.6453 4269.1187 864.62134
000090 77 1e 52 45 41 af aa 45 94 8e b1 44 de 4b 35 45
       3361.904 5461.9067 1420.4556 2900.7417
0000a0 40 53 e6 44 60 31 6d 45 d5 a5 00 45 dd e3 79 45
       1842.6016 3795.086 2058.3645 3998.2415
0000b0 71 e5 7a 45 2c cd d0 44 a4 a5 02 45 9b fa 30 43
       4014.34 1670.4116 2090.3525 176.97893
0000c0 2c e9 05 45 3c 60 54 45 74 8e 46 45 43 57 3c 45
       2142.5732 3398.0146 3176.9033 3013.4539
0000d0 b2 40 50 45 17 8d ca 44 05 82 3e 45 8a 5e 27 44
       3332.0435 1620.409 3048.1262 669.4772
0000e0 f4 0e 0d 45 b5 32 4c 45 22 4f 43 45 c7 24 c9 44
       2256.9346 3267.1692 3124.9458 1609.1493
0000f0 1b 02 1d 45 7a d2 b3 43 ff fb 0b 45 63 fc 29 45
       2512.1316 359.64435 2239.7498 2719.7742

module.Conv6.layers.0.weight f4 [64, 128, 3, 3]
000000 cc ad 17 3f e3 d0 1a 3f af b4 13 3f 00 e5 16 3f
       0.5924957 0.60474986 0.57697576 0.58943176
000010 27 74 1b 3f d1 42 1b 3f 90 48 13 3f 64 14 1d 3f
       0.6072411 0.6064883 0.57532597 0.6135924
000020 49 68 21 3f a9 da 17 3f b2 c7 15 3f 91 b5 15 3f
       0.6304975 0.59318024 0.58507836 0.58480173
000030 dc 9c 1f 3f f5 d3 1d 3f 69 47 1e 3f bc 4b 13 3f
       0.62348723 0.61651546 0.61827713 0.57537436
000040 5c 74 14 3f 18 44 14 3f a1 3e 14 bf 53 89 1c bf
       0.5799005 0.579164 -0.57908064 -0.6114704
000050 b0 82 1f bf 09 71 18 bf c5 64 1c bf d2 eb 13 bf
       -0.6230879 -0.5954748 -0.6109126 -0.5778171
000060 03 f5 14 bf 40 ff 13 bf e1 6a 1c bf 0e 7e 15 3f
       -0.5818636 -0.57811356 -0.61100584 0.5839547
000070 a3 65 1e 3f bc 59 1d 3f 0f 20 1a 3f ca 57 12 3f
       0.61873835 0.6146505 0.6020517 0.57165205
000080 93 8f 1c 3f ef 5d 1a 3f 06 a8 1b 3f ff 9d 12 3f
       0.61156577 0.6029958 0.6080326 0.5727233
000090 30 ff 15 3f b0 88 1a 3f 35 9e 12 3f 7a b1 12 3f
       0.5859251 0.6036482 0.57272655 0.5730206
0000a0 f1 52 1a 3f ae ca 16 3f e2 13 17 3f 89 d3 19 3f
       0.6028281 0.58903015 0.59014714 0.600884
0000b0 fa 1b 14 3f 70 71 16 3f cf 79 1e 3f 8f 11 21 3f
       0.5785519 0.5876684 0.61904615 0.6291742
0000c0 de c8 18 3f 31 0d 1c 3f 05 45 16 3f 26 7b 1b 3f
       0.596815 0.6095763 0.58699065 0.60734785
0000d0 52 46 1e 3f a7 c4 20 3f 8d ed 1f 3f 7c e5 20 3f
       0.6182605 0.6280007 0.6247185 0.62850165
0000e0 2f 83 1c 3f 79 05 13 3f 36 2b 1f 3f 4b 9b 13 3f
       0.6113767 0.57430226 0.6217531 0.57658833
0000f0 b4 8e 19 3f 9e 28 1a 3f 4f c8 1a 3f 00 57 1c bf
       0.5998337 0.60218227 0.60461897 -0.6107025
000100 5a 4d 13 bf 92 ca 19 bf ac 50 21 bf f9 6d 16 bf
       -0.57539904 -0.6007472 -0.6301372 -0.58761555
000110 7e 36 1c bf e9 75 1f bf c8 08 16 bf 0d 9a 1f bf
       -0.6102065 -0.6228929 -0.5860715 -0.6234444
000120 79 38 13 bf ee dc 16 bf af ef 1b bf 0b d8 1b bf
       -0.57508045 -0.5893086 -0.60912603 -0.6087653
000130 35 2e 16 bf ba f7 1d bf f5 84 1e bf da e7 1a bf
       -0.58664256 -0.61706126 -0.61921626 -0.6051003
000140 64 99 12 bf d2 52 18 3f 56 ff 1e 3f b1 6a 20 3f
       -0.57265306 0.59501374 0.6210836 0.626628
000150 22 62 18 3f 56 fb 14 3f 15 fe 16 3f ef 68 1b 3f
       0.5952474 0.5819601 0.5898145 0.6070699
000160 5a 40 12 3f a0 f8 1a 3f 45 ee 21 3f 4f 65 22 3f
       0.5712944 0.6053562 0.63254195 0.63435835
000170 42 2b 31 3f fa 6f 15 3f 52 01 20 3f 17 47 18 3f
       0.6920663 0.5837399 0.62502015 0.59483474
000180 26 ef 1b 3f f4 65 18 3f 96 b8 16 3f d3 45 1f 3f
       0.60911787 0.5953057 0.58875406 0.6221592
000190 77 bb 14 3f 5a 24 1e 3f 64 e1 1a 3f c2 af 16 3f
       0.5809855 0.6177422 0.6050017 0.58861935
0001a0 07 23 16 3f b3 d6 18 3f 70 bc 1a 3f 00 0b 15 3f
       0.586472 0.59702605 0.6044378 0.5821991
0001b0 4d 72 17 3f 52 1b 1b 3f a1 a1 1d 3f 24 1c 16 3f
       0.59158784 0.6058856 0.6157475 0.5863669
0001c0 11 ba 1b 3f 0a 2c 15 3f 1b 27 1d 3f 73 68 20 3f
       0.6083079 0.58270323 0.61387795 0.62659377
0001d0 65 73 1c 3f 7c 03 12 3f f4 e4 12 3f b4 b1 20 3f
       0.6111358 0.57036567 0.57380605 0.62771153
0001e0 ad 09 1a 3f 21 2f 17 3f 7e 3a 12 3f 50 d6 1e 3f
       0.60171014 0.5905629 0.571205 0.62045765
0001f0 73 3f 20 3f 81 33 13 3f 5e 7b 1f bf 13 9c 17 bf
       0.62596816 0.57500464 -0.6229762 -0.59222525
000200 6a 17 1e bf 35 c1 7a 3e ac e6 25 bf 5b ab 19 bf
       -0.6175448 0.24487765 -0.648051 -0.6002709
000210 5b 87 1d 3f 00 af 1c 3f e2 2c 1e bf cb 67 10 bf
       0.6153466 0.6120453 -0.61787236 -0.56408376
000220 b1 9e 10 bf 4a 49 35 be 6a 8f 10 bf 17 95 15 bf
       -0.56492144 -0.17703739 -0.5646883 -0.5843062
000230 9d aa 10 bf 4f 92 18 bf 00 ce 1c bf ea 7b 17 bf
       -0.56510335 -0.5959825 -0.6125183 -0.5917345
000240 2a a3 18 3f 20 9b 1a 3f 79 f2 19 3f a6 b0 15 3f
       0.5962397 0.6039295 0.6013561 0.5847267
000250 79 17 1d 3f 52 cc 12 3f 2d a7 14 3f 3d d4 18 3f
       0.6136394 0.5734302 0.5806759 0.5969885
000260 d4 91 16 3f 9a 40 16 3f 95 4d 1a 3f e8 b7 1d 3f
       0.58816266 0.58692324 0.6027463 0.61608744
000270 86 98 20 3f 8c b8 1a 3f 5c ae 12 3f 41 59 17 3f
       0.6273273 0.60437846 0.572973 0.59120566
000280 66 63 17 3f 51 1b 1e 3f 06 16 1b 3f 55 e4 16 3f
       0.59136045 0.6176043 0.6058048 0.5894216
000290 b1 8d 16 3f 92 f6 17 3f e6 44 18 3f bd 97 19 3f
       0.58809954 0.5936061 0.5948013 0.5999716
0002a0 97 10 17 3f 53 dc 15 3f e9 3f 19 3f 16 1a 20 3f
       0.5900969 0.58539313 0.59863144 0.62539804
0002b0 e5 13 15 3f c7 08 1b 3f 88 e1 17 3f 39 8c 16 3f
       0.5823348 0.6056027 0.5932851 0.5880771
0002c0 f3 06 1f 3f 8d 57 1d 3f 1f 41 18 3f 69 3b 1d 3f
       0.6211998 0.61461717 0.59474367 0.6141878
0002d0 28 a6 1d bf 7a 7f 1f bf ef 19 14 bf fa 64 1d bf
       -0.6158166 -0.6230389 -0.5785207 -0.61482203
0002e0 0d b9 1d bf c7 f6 1d bf d1 79 1f bf 2b 4f 16 bf
       -0.6161049 -0.6170468 -0.6229525 -0.5871455
0002f0 15 0a 16 bf c4 22 1b 3f de 8d 12 3f 04 33 13 3f
       -0.58609134 0.60599923 0.5724772 0.5749972
000300 b5 f8 1d 3f 6f 08 18 3f bb d5 1a 3f 55 c2 20 3f
       0.6170762 0.5938787 0.60482377 0.6279653
000310 55 a3 15 3f 59 b1 1e 3f e6 d7 1a 3f e2 9f 21 3f
       0.5845235 0.6198936 0.60485685 0.63134587
000320 ca 20 13 bf 40 4f 1d 3f 98 3a 21 3f 96 1c 19 3f
       -0.5747191 0.6144905 0.6298003 0.59809244
000330 f1 11 13 3f c5 8a 18 3f c2 16 15 3f 5b 12 15 bf
       0.5744925 0.59586746 0.5823785 -0.58231133
000340 df 25 13 bf f5 7a 10 bf 11 3e 1b bf 24 bf 1c bf
       -0.5747966 -0.5643762 -0.6064158 -0.6122916
000350 36 94 1e bf 6a 44 1f bf 90 34 12 bf 79 4b 16 bf
       -0.619449 -0.62213767 -0.57111454 -0.5870891
000360 dc dc 15 bf 11 b2 15 bf 88 d3 20 bf b7 59 1d bf
       -0.5854013 -0.5847483 -0.6282277 -0.6146502
000370 7b 64 15 bf 21 90 1d bf 4a 4c 1a bf 85 56 1e bf
       -0.58356446 -0.6154805 -0.6027266 -0.6185077
000380 57 9d 1f bf f9 67 1e bf c8 ee 20 bf 04 c5 1a bf
       -0.62349457 -0.618774 -0.6286435 -0.6045687
000390 24 97 17 bf 4c 42 16 bf e6 77 19 bf 2e d5 1e bf
       -0.59215 -0.5869491 -0.59948575 -0.62044036
0003a0 38 6b 13 bf b2 b4 1d bf 64 4b 1a 3f 27 1e 1a 3f
       -0.5758548 -0.61603844 0.60271287 0.6020226
0003b0 bb 36 20 3f 6f 22 16 3f 40 ea 1b 3f 4f 68 19 3f
       0.6258351 0.5864629 0.6090431 0.5992479
0003c0 79 a6 1c 3f 3f 39 20 3f 9a 5c 12 3f 2c a2 14 bf
       0.6119152 0.6258735 0.5717255 -0.58059955
0003d0 59 24 19 bf 70 9c 1e bf e8 50 1d bf fe 52 20 bf
       -0.5982109 -0.61957455 -0.6145158 -0.62626636
0003e0 f3 d7 19 bf 0b 43 20 bf 2e 82 20 bf a7 64 19 bf
       -0.6009514 -0.626023 -0.6269864 -0.5991921
0003f0 fe ba 15 3f 48 7b 14 3f 8e ca 18 3f 4e 6f 20 3f
       0.5848845 0.5800061 0.59684074 0.6266984

module.Conv6.layers.0.bias f4 [64]
000000 dc e1 45 3d 66 05 98 bd e6 48 17 bd 95 d2 48 3d
       0.0483111 -0.07422905 -0.036934756 0.04902895
000010 c4 af 5d 3c 77 ad 87 bd 89 94 dd 3c cc ad c2 bd
       0.013530675 -0.06624883 0.027048366 -0.095058054
000020 03 67 40 3d e0 35 b1 3c 21 e3 61 bd 46 4a b9 3d
       0.04697324 0.021632135 -0.055148248 0.0904737
000030 90 6f a4 be c0 6a 75 3c a0 9f cd 3b 5b 34 ec bd
       -0.32116365 0.014979064 0.0062751323 -0.115334235
000040 36 44 7d bd a9 13 f4 bd 06 73 08 be 5d a6 e4 3d
       -0.06183263 -0.119178124 -0.13325128 0.11164544
000050 f7 b0 f7 3d 84 8b b9 3d 34 d6 48 bd ed a5 e5 bd
       0.120943 0.090598136 -0.049032405 -0.112132885
000060 76 a8 3e 3e ab 61 16 3e 1d 23 d8 3c 4d dc 9d 3c
       0.1861895 0.14685695 0.02638393 0.019270087
000070 8c 92 b7 3d be f5 51 bd 0c ae 19 3d 62 24 dc 3c
       0.089634985 -0.05125975 0.0375195 0.026872817
000080 30 90 69 3c 03 80 12 bc 16 40 71 3d 3c d4 4d 3d
       0.014255568 -0.008941653 0.058899008 0.05025123
000090 59 70 7d bb ce 9c cc 3d 27 1c dc 3d 49 a4 8e 3e
       -0.00386717 0.099908456 0.10747557 0.27859715
0000a0 9f 88 1c 3d 03 44 02 bd b6 62 87 3d db 40 fc bc
       0.03821623 -0.031803142 0.066106245 -0.030792644
0000b0 a7 95 b2 bd 33 5d 16 3d 98 5c 3f be 62 46 7a 3d
       -0.0871995 0.036709975 -0.18687665 0.06110228
0000c0 c3 07 5e 3d dd b7 b3 3c e4 e5 81 bc be 97 a3 bc
       0.05420662 0.021938259 -0.01585669 -0.019969817
0000d0 c6 df 4c bd f5 4f 11 be 0f e6 3b 3d 3c 4e 7e 3e
       -0.050018094 -0.14190657 0.045873698 0.24834532
0000e0 b9 e1 a6 bd fd b1 79 3d 9a e4 e1 3d 51 71 63 3d
       -0.08148522 0.06096076 0.110299304 0.05552799
0000f0 fd e3 51 3e 1b bc 25 3e 69 a8 2d be 50 ac c6 bc
       0.20497127 0.16185038 -0.16958775 -0.024252087

module.Conv6.layers.1.weight f4 [64]
000000 01 57 1a 3f 01 62 04 3f cb c9 b5 3f b6 bb 8c 3f
       0.6028901 0.5171204 1.4202207 1.0994785
000010 5f e6 82 3f 98 89 c8 3f 8b d6 2f 3f 43 21 97 3f
       1.0226554 1.566699 0.6868674 1.1807026
000020 48 3d 79 3f 5c f3 28 3f 17 fd dd 3e 86 fa 00 3f
       0.9735913 0.65996337 0.43357155 0.5038227
000030 1d 22 fb 3e 61 26 81 3f d8 15 7c 3e 3e 60 da 3e
       0.49049464 1.0089837 0.24617708 0.42651552
000040 27 43 8d 3f 74 cf 31 3f fb df a7 3f cb e0 ab 3f
       1.1036118 0.69457173 1.3115228 1.3427976
000050 5d 20 93 3f 81 5b c4 3f e3 12 43 3f a8 d5 93 3f
       1.1494251 1.5340425 0.76200694 1.1549578
000060 8e fb f7 3e e3 95 c4 3f 21 e1 af 3f c9 88 2a 3f
       0.48434108 1.5358242 1.3740579 0.6661497
000070 41 ad 27 3f 6d ac 0b 3f d3 d5 8c 3f ea 4d 90 3f
       0.6549874 0.54559976 1.1002754 1.1273777
000080 22 12 00 3f 26 c7 0e 3f f5 b3 8c 3f 1a 3e 9c 3f
       0.5002767 0.55772626 1.0992419 1.2206452
000090 e0 04 28 3f 37 89 bf 3f 95 87 a2 3e 3c 2b b6 3f
       0.6563244 1.496375 0.31744066 1.4231944
0000a0 ee 1b 90 3f 09 87 1e 3f 0f c7 86 3e 86 ea 3a 3f
       1.1258523 0.619248 0.26323745 0.73014104
0000b0 1d 28 ca 3f 96 af 09 40 c9 89 cb 3f cc 73 b0 be
       1.5793492 2.151342 1.5901424 -0.34463346
0000c0 8d 62 3f 3f 9e 4e 8b 3e af df 45 3f 8e 4b b4 3f
       0.7475975 0.27208418 0.7729444 1.4085557
0000d0 66 f5 a4 3f 27 6e 8d 3f ca c0 f8 3e 3c ba cc 3f
       1.288739 1.1049241 0.48584586 1.5994334
0000e0 09 31 27 3f e2 4d 83 3f 51 c9 19 3f ac 36 80 bf
       0.65309197 1.0258143 0.6007281 -1.0016685
0000f0 3a 83 03 3f 0f 0a c4 3e 13 46 b4 3f 8e d2 c0 3f
       0.5137211 0.38288924 1.4083885 1.5064256

module.Conv6.layers.1.bias f4 [64]
000000 ed b9 c4 bf 7e 28 02 bf e0 ff 22 3f 68 69 8d 3f
       -1.536924 -0.50843036 0.63671684 1.1047792
000010 38 a8 cf 3f 5a 58 13 3f 86 7d 74 3f b9 eb ec 3f
       1.6223211 0.5755669 0.95504034 1.8509437
000020 34 f0 f5 3f 8e 7b 66 bf 89 07 21 3f 55 5f 77 bf
       1.9213929 -0.9003228 0.6290212 -0.9662984
000030 f2 28 37 bf 42 05 dc 3f b9 b9 2e 3f 3a 7a 99 bf
       -0.7154685 1.7189105 0.6825214 -1.1990426
000040 ad 32 27 40 44 00 16 c0 c1 1b 6c 3f 83 08 02 40
       2.612468 -2.3437662 0.9222985 2.0317695
000050 d6 df e2 bf c5 5d 14 3f c3 fc 9d bf 18 a4 88 3f
       -1.7724559 0.5795558 -1.2342762 1.0675077
000060 33 b4 14 bf 5a 3d 1a 3f a0 b0 6b 3f c2 89 28 bf
       -0.5808746 0.60249865 0.92066383 -0.658352
000070 03 7d cd bf d3 e0 a8 bf 7a 72 cf 3f f5 b8 09 40
       -1.6053776 -1.3193611 1.620681 2.151914
000080 a3 21 7d 3f 4b f2 28 3f 13 a0 e0 bf b8 b9 12 40
       0.9887945 0.6599471 -1.7548851 2.2925854
000090 0f 44 ed 3e 94 d8 0d 3f 2a 06 5f bf 1b 54 c4 3f
       0.46340987 0.55408597 -0.8711878 1.5338167
0000a0 4a 05 69 c0 0d 33 c2 bf a9 90 2a bf 1c ac 12 40
       -3.6409478 -1.517183 -0.66626984 2.2917547
0000b0 57 fe 0a 3f ed c4 81 40 53 d7 0a 3f 26 c2 58 3f
       0.5429434 4.055289 0.5423481 0.84671247
0000c0 c3 3e 8a bf d0 f0 01 bf 12 a8 10 bf d1 75 71 3f
       -1.0800403 -0.50758076 -0.56506455 0.943204
0000d0 14 9e ca 3f 25 df ce 3f 98 e8 03 bf dd 0c d1 3e
       1.5829492 1.6161848 -0.51526785 0.40830126
0000e0 e1 76 f2 be c0 8f 2a c0 b2 e4 9d bf 89 47 0b 3f
       -0.47356322 -2.6650238 -1.2335417 0.5440603
0000f0 43 d4 83 bf f2 ab 0e bf 81 e4 aa 3f 02 1c 83 40
       -1.0299152 -0.5573112 1.3350984 4.097169

module.Conv6.layers.1.running_mean f4 [64]
000000 56 52 2c 43 a7 c0 1a c3 72 95 31 43 41 86 35 c3
       172.32162 -154.75255 177.58377 -181.52443
000010 e6 ed 27 c3 b6 b1 46 43 1d 1a 1b 43 ad 55 1f 43
       -167.92929 198.69418 155.102 159.33467
000020 1c 8b 12 43 77 c9 98 42 50 40 4b 43 20 03 26 43
       146.5434 76.393486 203.25122 166.0122
000030 8f dc 0e c3 80 2d 20 c3 13 81 35 43 d2 41 25 43
       -142.86156 -160.17773 181.5042 165.25711
000040 98 bc 30 c3 b1 48 1d 43 62 0b ce c2 68 0d 19 c3
       -176.7367 157.28395 -103.02223 -153.05237
000050 7d d0 25 43 8d 9e 41 43 c9 eb 16 43 56 4b c0 c2
       165.8144 193.61934 150.92104 -96.14714
000060 44 7d 41 c3 f6 49 37 43 c2 c6 26 43 83 e5 24 c3
       -193.48932 183.28891 166.7764 -164.89653
000070 a1 c9 23 43 61 68 3f 43 70 1f 1a c3 e6 43 25 c3
       163.78761 191.40773 -154.1228 -165.26523
000080 1d 0a 21 43 bf a2 30 43 d2 2b 1b 43 02 88 20 c3
       161.0395 176.63573 155.17117 -160.53128
000090 4f 48 33 c3 00 dc 3a 43 6c ac 19 43 4d 32 1b 43
       -179.28246 186.85938 153.67352 155.19649
0000a0 31 41 39 43 4b 58 33 43 af 1f e7 c2 f1 e3 30 c3
       185.25465 179.3449 -115.56188 -176.8904
0000b0 33 ad 2f 43 a2 cf 01 c3 c9 2d 3e 43 91 98 cc c2
       175.67656 -129.81107 190.17885 -102.29798
0000c0 33 41 21 43 32 91 52 c3 96 25 07 40 ac 66 5c c3
       161.25468 -210.56717 2.111669 -220.40106
0000d0 8d 6b 41 c3 65 ff 16 c3 78 fb 35 c3 d0 ef 28 43
       -193.42012 -150.99763 -181.9823 168.93677
0000e0 20 1d 39 c3 f7 d6 21 43 79 f1 0e 43 e8 e0 3a 43
       -185.11377 161.8397 142.94325 186.87854
0000f0 9c 53 15 43 e6 57 57 c3 cb 5d 1d c3 51 77 2d c3
       149.3266 -215.34335 -157.36638 -173.46608

module.Conv6.layers.1.running_var f4 [64]
000000 2f 83 ac 45 47 6b 2b 45 91 37 0a 46 78 a3 0d 45
       5520.398 2742.7048 8845.892 2266.2168
000010 82 6a 64 45 ba ee 06 46 d0 78 d7 45 7e da 2c 45
       3654.6567 8635.682 6895.1016 2765.6558
000020 3c 47 2f 45 5f 20 48 46 8d a1 19 46 66 70 f9 44
       2804.4521 12808.093 9832.388 1995.5125
000030 bc fd fa 44 70 3f 31 45 a9 7b 1a 46 8e 19 c6 45
       2007.9292 2835.9648 9886.915 6339.1943
000040 43 3c 88 45 6b d8 f9 45 46 80 e8 44 3b e5 1c 45
       4359.5327 7995.0522 1860.0085 2510.327
000050 4d 68 4b 45 79 0f 00 46 35 7b 3e 45 86 bf ce 44
       3254.5188 8195.868 3047.7004 1653.9851
000060 2f d0 43 46 8f 75 14 46 22 34 7e 45 be 06 1a 46
       12532.046 9501.39 4067.2583 9857.686
000070 5f 2b 9b 45 e7 15 91 45 82 34 48 45 55 3a c8 45
       4965.4214 4642.738 3203.2817 6407.2915
000080 44 58 a0 45 5e 18 ec 45 bb fa 06 45 7a c9 15 45
       5131.033 7555.046 2159.6707 2396.5923
000090 4f 7e 15 46 ce 6c 24 46 01 ed 97 45 8b 9a 18 45
       9567.577 10523.201 4861.6255 2441.659
0000a0 f4 77 11 46 b3 d2 de 45 2e 90 21 46 ce 1d 01 46
       9309.988 7130.3374 10340.045 8263.451
0000b0 61 15 b9 45 a0 f3 1d 46 c1 a6 0d 46 0c 69 a8 45
       5922.6724 10108.906 9065.688 5389.131
0000c0 56 20 47 45 30 7e ed 45 33 10 5d 44 07 e5 30 46
       3186.021 7599.7734 884.2531 11321.257
0000d0 3f 63 0b 46 f0 be 3f 45 19 d5 12 46 75 a0 99 45
       8920.812 3067.9336 9397.274 4916.057
0000e0 63 92 0e 46 44 4c cf 45 f6 a7 32 45 a3 9f 0c 46
       9124.597 6633.533 2858.4976 8999.909
0000f0 4a 45 9a 45 51 58 26 46 8a 57 9f 45 94 7b 96 45
       4936.661 10646.079 5098.9424 4815.4473

module.Conv7.layers.1.weight f4 [1, 128, 3, 3]
000000 96 30 16 bf 6c 06 18 bf 2a 44 13 bf c0 9b 16 bf
       -0.58667886 -0.593848 -0.57525885 -0.58831406
000010 19 d2 15 bf 80 fd 17 bf db b8 2b bf 54 cb 1f bf
       -0.5852371 -0.59371185 -0.6707894 -0.6241963
000020 ce 5c 23 bf 58 eb 15 3f 49 61 19 3f 85 7d 16 3f
       -0.63813484 0.5856223 0.5991407 0.5878528
000030 1a 29 18 3f 21 26 15 3f 5b 57 16 3f be 3e 1a 3f
       0.59437716 0.58261305 0.58727044 0.60251987
000040 36 b9 17 3f e3 3e 13 3f 80 b2 19 3f 59 f6 1d 3f
       0.59266984 0.5751783 0.60037994 0.6170402
000050 d0 2b 19 3f 42 5b 14 3f 91 67 1c 3f 49 7a 16 3f
       0.5983248 0.5795175 0.6109553 0.5878034
000060 33 01 1e 3f 92 6f 1d 3f e2 c4 17 3f f4 8b 18 bf
       0.6172058 0.6149837 0.59284794 -0.5958855
000070 9b f2 1c bf 41 c2 1b bf 19 00 1f bf c5 d1 18 bf
       -0.61307687 -0.6084328 -0.62109524 -0.5969508
000080 a9 a9 19 bf 20 77 16 bf b2 13 13 bf c7 ab 19 bf
       -0.60024506 -0.5877552 -0.5745193 -0.60027736
000090 a8 27 1d bf 8e d4 20 bf db 7b 10 bf da 7b 1c bf
       -0.61388636 -0.6282433 -0.5643899 -0.6112648
0000a0 9e f0 1e bf b1 60 16 bf f1 d5 12 bf 95 9f 1f bf
       -0.620859 -0.5874129 -0.573577 -0.6235288
0000b0 98 8a 19 bf d9 98 1f 3f f8 3d 20 3f d1 10 20 3f
       -0.599771 0.623426 0.62594557 0.6252566
0000c0 8e 65 1b 3f e8 6f 20 3f 96 6d 16 3f 4c fd 1a 3f
       0.60701835 0.62670755 0.58760965 0.6054275
0000d0 0b b2 12 3f e0 79 1b 3f 30 4e 19 3f 35 b3 16 3f
       0.5730292 0.6073284 0.5988493 0.588672
0000e0 ff 66 1b 3f a7 c7 1d 3f e4 fa 12 3f 65 41 1d 3f
       0.60704035 0.6163277 0.5741408 0.6142791
0000f0 0c 91 18 3f 8c 1a 1d 3f f3 fc 11 3f 5a a7 1c 3f
       0.59596324 0.6136863 0.57026595 0.6119286
000100 26 f6 12 3f 58 c3 11 3f 47 bb 17 3f c9 10 20 3f
       0.5740684 0.56938696 0.5927014 0.6252561
000110 4d 67 1e 3f 0d 7b 15 3f 9e 55 1a 3f 21 7e 1e 3f
       0.61876374 0.58390886 0.6028689 0.6191121
000120 69 6b 12 3f bd e3 1a 3f 66 23 19 3f db b9 1e 3f
       0.57195145 0.6050375 0.5981964 0.6200234
000130 a3 73 13 3f 71 39 1b 3f ad 0a 16 3f bf a9 17 3f
       0.5759832 0.60634524 0.5861004 0.59243387
000140 35 33 1c 3f d5 d0 20 bf ea 13 15 bf 7c c0 12 bf
       0.61015636 -0.6281865 -0.5823351 -0.5732496
000150 1d 4e 19 bf ad a7 1b bf b6 9f 16 bf 3f 67 1b bf
       -0.59884816 -0.6080273 -0.5883745 -0.60704416
000160 12 8c 18 bf 69 95 1a bf 4d 58 17 3f a9 fd 17 3f
       -0.5958873 -0.6038423 0.5911911 0.5937143
000170 29 1e 13 3f 8c 8e 1c 3f d1 f3 1a 3f 19 53 1f 3f
       0.57467896 0.6115501 0.60528284 0.6223617
000180 bd 04 17 3f 77 3a 1b 3f 67 3a 13 3f e9 bd 15 bf
       0.58991605 0.60636085 0.5751099 -0.58492905
000190 5f a4 17 bf fa 5e 20 bf 4a b3 14 bf 45 9b 16 bf
       -0.59235185 -0.6264492 -0.58086073 -0.5883067
0001a0 ff 64 13 bf 3c a9 16 bf 58 62 1e bf bf 26 19 bf
       -0.5757598 -0.5885198 -0.6186881 -0.59824747
0001b0 b2 bf 14 3f fa b4 16 3f dc e9 16 3f d6 8d 13 3f
       0.58105004 0.588699 0.5895059 0.576383
0001c0 f8 3d 14 3f 88 f8 14 3f 6e 79 1c 3f 83 66 18 3f
       0.57907057 0.5819173 0.61122787 0.5953142
0001d0 e8 df 1d 3f 1a 12 16 bf b5 e2 16 bf 88 00 17 bf
       0.6166978 -0.5862137 -0.5893968 -0.58985186
0001e0 70 cb 1a bf b6 54 1e bf f3 d9 1e bf 86 51 18 bf
       -0.6046667 -0.6184801 -0.62051314 -0.59499395
0001f0 c0 76 1f bf 57 e0 18 bf 6a 92 16 3f ec d8 19 3f
       -0.62290573 -0.59717315 0.5881716 0.6009662
000200 f3 47 13 3f 35 cd 1f 3f bd fb 15 3f 2a 00 1b 3f
       0.5753166 0.62422496 0.5858725 0.60547125
000210 4c c6 17 3f b1 a0 15 3f dd 0a 17 3f d5 41 1d bf
       0.5928695 0.5844832 0.5900095 -0.61428577
000220 88 72 1b bf df 11 19 bf 19 af 13 bf b6 62 14 bf
       -0.60721636 -0.59792894 -0.5768905 -0.5796312
000230 27 5f 1d bf 8e 97 1a bf 04 31 17 bf 9c 08 13 bf
       -0.61473316 -0.60387504 -0.59059167 -0.5743501
000240 b7 92 11 bf 97 20 1d bf 8f f9 16 bf e3 07 20 bf
       -0.56864494 -0.61377853 -0.58974546 -0.62512034
000250 05 6c 1f bf 3c 81 21 bf 04 e4 0f bf 09 b5 1c bf
       -0.622742 -0.6308782 -0.562073 -0.6121374
000260 c1 de 1b bf a0 07 15 bf 9b eb 19 bf 18 a3 15 bf
       -0.6088677 -0.5821476 -0.6012513 -0.58451986
000270 e6 0f 16 bf 5e 81 1e bf 2d 49 1d bf d3 33 14 bf
       -0.5861801 -0.6191615 -0.6143978 -0.5789158
000280 05 55 1b bf 61 1a 1e bf 25 75 1f bf f7 12 1b bf
       -0.60676605 -0.61759 -0.62288123 -0.60575813
000290 ea dd 1d bf 4f 8f 11 bf f5 ac 1c bf a5 fc 17 bf
       -0.6166674 -0.56859297 -0.6120141 -0.5936988
0002a0 d5 c1 1b bf 58 be 1d bf 95 ef 19 bf f8 43 1f bf
       -0.6084264 -0.61618567 -0.601312 -0.6221309
0002b0 bd d7 19 bf 58 49 1a bf 33 40 1e bf 3f b9 21 bf
       -0.60094815 -0.60268164 -0.6181671 -0.6317329
0002c0 43 e1 1d bf d5 81 13 bf 30 c7 1c bf 0f ec 10 bf
       -0.6167185 -0.5761998 -0.61241436 -0.56610197
0002d0 68 e8 16 bf c3 d4 1f bf c2 47 14 bf 8e 5c 15 bf
       -0.58948374 -0.62434024 -0.57921994 -0.5834435
0002e0 3f 98 13 bf a6 11 22 bf 0d 3c 1b bf 02 08 25 bf
       -0.57654184 -0.6330818 -0.60638505 -0.64465344
0002f0 f4 a9 1b bf 64 52 1a 3f c1 f7 1a 3f 76 7d 1a 3f
       -0.608062 0.6028197 0.6053429 0.6034769
000300 48 d2 1b 3f 61 68 17 3f 1a 61 18 3f 44 25 16 3f
       0.6086774 0.59143645 0.59523165 0.5865061
000310 11 64 20 3f ff ed 1d 3f 82 b6 19 bf 1c 0d 15 bf
       0.6265269 0.6169128 -0.6004411 -0.5822313
000320 86 dd 16 bf 59 52 16 bf b4 3a 13 bf 89 8a 1c bf
       -0.5893177 -0.587194 -0.5751145 -0.6114889
000330 72 e2 14 bf 62 bf 1d bf 5d 32 20 bf d6 e3 1c bf
       -0.5815803 -0.6162015 -0.6257685 -0.6128515
000340 76 86 1c bf dc cc 1e bf f7 f3 1c bf 42 31 12 bf
       -0.6114267 -0.6203134 -0.6130976 -0.5710641
000350 3d 84 14 bf a2 92 15 bf fe bc 18 bf 7c 84 1d bf
       -0.5801428 -0.5842687 -0.5966338 -0.6153028
000360 23 b1 1a 3f e4 5e 14 3f 45 59 14 3f 53 46 18 3f
       0.6042654 0.5795729 0.57948714 0.59482306
000370 20 40 17 3f 8a dd 1a 3f b8 ac 16 3f 3e 5b 13 3f
       0.5908222 0.6049429 0.588573 0.575611
000380 80 c4 15 3f 7e ad 18 3f bb c1 16 3f 21 c4 1c 3f
       0.5850296 0.5963973 0.5888936 0.6123677
000390 8e 85 1a 3f 9a b7 18 3f 34 59 1b 3f 4d 4c 1e 3f
       0.6036004 0.59655154 0.6068299 0.61835176
0003a0 1f 56 1d 3f 26 bb 1f 3f ce 30 1e 3f 4a 53 18 3f
       0.61459535 0.6239494 0.6179322 0.5950209
0003b0 cf 64 18 3f 8f 6c 1d 3f 32 1b 1a 3f cd 51 1b 3f
       0.5952882 0.6149377 0.60197747 0.60671693
0003c0 bf bb 16 3f ea 86 18 3f 84 39 19 3f 44 fa 1a 3f
       0.5888023 0.5958086 0.59853387 0.60538125
0003d0 4a 6d 1d 3f 85 7d 19 3f 03 e8 15 3f e7 2f 13 3f
       0.61494887 0.5995715 0.58557147 0.5749497
0003e0 b9 a2 1f 3f 86 43 16 3f f7 82 17 3f 8c bd 1a 3f
       0.6235767 0.5869678 0.5918421 0.60445476
0003f0 47 f5 1a bf ed ce 19 bf a4 36 13 bf 68 25 1a bf
       -0.60530514 -0.6008137 -0.5750525 -0.6021333
