DIDFuse/saved_models/decoder/IR_AE19.pth (torch, 604881 bytes, 13 tensors)

module.Conv5.layers.0.weight f4 [64, 128, 3, 3]
0	0x3f18c3d3	0.59673804
1	0x3f138fd5	0.57641345
2	0x3f1332c5	0.57499343
3	0x3f1ddc95	0.61664706
4	0x3f208425	0.62701637
5	0x3f1a3a36	0.6024507
6	0x3f1f206b	0.6215884
7	0x3f135c2b	0.5756251
8	0x3f1a73db	0.6033303
9	0x3f1ab4c0	0.6043205
10	0x3f12fd9c	0.5741823
11	0x3f1af3b4	0.6052811
12	0x3f16f734	0.5897095
13	0x3f1fcf6d	0.6242588
14	0x3f1afa90	0.6053858
15	0x3f125cf2	0.57173073
16	0x3f19483c	0.59875846
17	0x3f1821b8	0.5942645
18	0x3f1e4d79	0.61836964
19	0x3f17cc2f	0.59295934
20	0x3f196730	0.59923077
21	0x3f12bd65	0.57320243
22	0x3f1dc48a	0.6162802
23	0x3f1dc6f0	0.6163168
24	0x3f17ef92	0.5934993
25	0x3f133130	0.5749693
26	0x3f1b8d9b	0.6076295
27	0x3f145ad2	0.5795108
28	0x3f1d160b	0.6136176
29	0x3f15b17b	0.5847394
30	0x3f17379d	0.59069234
31	0x3f15b4c0	0.5847893
32	0x3f17e97d	0.5934065
33	0x3f1f960a	0.62338316
34	0x3f1c67f1	0.610961
35	0x3f1aa194	0.604028
36	0x3f1beee4	0.60911393
37	0x3f1bd6cb	0.60874623
38	0x3f1e2e0a	0.61789
39	0x3f16bab5	0.5887864
40	0x3f126c1d	0.5719622
41	0x3f15b9e7	0.5848679
42	0x3f1fdfe8	0.6245103
43	0x3f11f1cd	0.57009584
44	0x3f17ed22	0.5934621
45	0x3f1ada66	0.604895
46	0x3f17e8fc	0.5933988
47	0x3f148838	0.58020353
48	0x3f19da45	0.6009868
49	0x3f1d130e	0.613572
50	0x3f208c0a	0.6271368
51	0x3f128737	0.5723757
52	0x3f165589	0.58724266
53	0x3f182a21	0.59439284
54	0xbf19f959	-0.601461
55	0xbf166aae	-0.5875653
56	0xbf1df4fd	-0.6170195
57	0xbf15693a	-0.5836369
58	0xbf1b51e1	-0.6067181
59	0xbf112f72	-0.5671302
60	0xbf1f4ebb	-0.6222951
61	0xbf17d0e1	-0.593031
62	0xbf1f9471	-0.6233588
63	0x3f1f9fd8	0.6235328
64	0x3f20be9d	0.6279085
65	0x3f178b65	0.59197074
66	0x3f1b8fa8	0.6076608
67	0x3f1b3da1	0.60640913
68	0x3f12eb99	0.57390743
69	0x3f1a4e70	0.60275936
70	0x3f17f2cd	0.5935486
71	0x3f19ec94	0.60126615
72	0xbf1ad008	-0.6047368
73	0xbf1bc6bb	-0.60850114
74	0xbf13676b	-0.5757968
75	0xbf1e2d57	-0.61787933
76	0xbf10fba9	-0.56634
77	0xbf15e09a	-0.5854584
78	0x3f48d4ca	0.7844969
79	0x3f4797d2	0.77966034
80	0xbf06f53c	-0.5271795
81	0x3f1fe61f	0.6246051
82	0x3f1355a5	0.5755256
83	0x3f1239c8	0.5711942
84	0x3f204f2a	0.62620795
85	0x3f1b3540	0.6062813
86	0x3f1a9cc8	0.6039548
87	0x3f164501	0.5869904
88	0x3f16da7e	0.5892714
89	0x3f12ae13	0.57296866
90	0xbf18093c	-0.5938909
91	0xbf181be5	-0.59417564
92	0xbf1c6d36	-0.6110414
93	0xbf211e0f	-0.6293649
94	0xbf1aebb1	-0.60515887
95	0xbf217fad	-0.6308544
96	0xbf233586	-0.63753545
97	0xbf1b8c46	-0.60760915
98	0xbf2bb5a8	-0.6707406
99	0xbf147602	-0.57992566
100	0xbf138f63	-0.57640666
101	0xbf1f4a96	-0.62223184
102	0xbf1442e6	-0.5791458
103	0xbf1ca3de	-0.6118754
104	0xbf18bc3d	-0.5966223
105	0xbf1410e0	-0.5783825
106	0xbf1317dd	-0.5745829
107	0xbf18c38c	-0.5967338
108	0xbf17d83a	-0.5931431
109	0xbf1ad400	-0.60479736
110	0xbf1f0ebe	-0.6213187
111	0xbf1570fd	-0.5837553
112	0xbf1a9bc5	-0.60393935
113	0xbf12e297	-0.57377
114	0xbf1d4ae2	-0.6144239
115	0xbf15e4b6	-0.5855211
116	0xbf15c2a9	-0.5850015
117	0x3f1c22e4	0.6099074
118	0x3f1deabd	0.6168631
119	0x3f18e954	0.5973103
120	0x3f1753c6	0.59112203
121	0x3f19e187	0.6010975
122	0x3f18f2be	0.59745395
123	0x3f1b091e	0.60560787
124	0x3f152c4e	0.5827073
125	0x3f18dd78	0.59712934
126	0xbf1e0523	-0.6172659
127	0xbf177c8c	-0.5917442
128	0xbf1d2fa1	-0.614008
129	0xbf187609	-0.5955511
130	0xbf1defee	-0.6169423
131	0xbf1af06a	-0.6052309
132	0xbf16eb63	-0.5895292
133	0xbf1de930	-0.6168394
134	0xbf1d0cac	-0.6134746
135	0xbf180d8e	-0.5939568
136	0xbf1f6731	-0.6226683
137	0xbf16e8fa	-0.58949244
138	0xbf16ff4c	-0.589833
139	0xbf15279b	-0.5826356
140	0xbf18bae9	-0.596602
141	0xbf1978b7	-0.5994982
142	0xbf1349db	-0.5753457
143	0xbf183cd4	-0.59467816
144	0xbf17f374	-0.59355855
145	0xbf18e1d5	-0.5971959
146	0xbf177771	-0.5916663
147	0xbf1ff9d4	-0.6249058
148	0xbf1d658b	-0.6148307
149	0xbf205485	-0.62628967
150	0xbf1986e3	-0.59971446
151	0xbf1d6285	-0.61478454
152	0xbf13cf6a	-0.57738364
153	0x3f1f3337	0.6218752
154	0x3f205743	0.6263315
155	0x3f1b1c2f	0.6058988
156	0x3f17c11a	0.59279025
157	0x3f2165df	0.6304607
158	0x3f171250	0.5901232
159	0xbf183537	-0.594562
160	0xbf1eca31	-0.6202727
161	0xbf0deb56	-0.5543722
162	0xbf178f8d	-0.59203416
163	0xbf15cc5e	-0.58514965
164	0xbf1d26de	-0.6138743
165	0x3f1cfc31	0.61322314
166	0xbf161c30	-0.5863676
167	0x3f18d8b1	0.59705645
168	0x3f16f9db	0.58975
169	0x3f1a4b15	0.60270816
170	0x3f1cf3db	0.61309594
171	0x3f1a50ba	0.6027943
172	0x3f16891d	0.5880297
173	0x3f197ea0	0.5995884
174	0x3f1c88b6	0.61146104
175	0x3f1e1167	0.61745304
176	0x3f1c63cd	0.61089784
177	0x3f17789a	0.591684
178	0x3f2031b0	0.6257582
179	0x3f1525b9	0.58260685
180	0x3f190a08	0.5978093
181	0x3f1e6543	0.61873263
182	0x3f1c717c	0.61110663
183	0x3f1458dd	0.57948095
184	0x3f18ad67	0.5963959
185	0x3f1b700e	0.60717857
186	0xbf12c8c4	-0.57337594
187	0xbf1d7266	-0.61502683
188	0xbf1a4b0b	-0.60270756
189	0x3f147969	0.5799776
190	0x3f1778b9	0.59168583
191	0x3f20be44	0.6279032
192	0x3f13dbd9	0.57757336
193	0x3f174c36	0.59100664
194	0x3f20e383	0.62847155
195	0x3f1d55c4	0.6145899
196	0x3f1897df	0.59606737
197	0x3f190bac	0.59783435
198	0x3f1e514e	0.6184281
199	0x3f17e3e0	0.59332085
200	0x3f1f7323	0.6228506
201	0x3f20c91c	0.6280687
202	0x3f1bb0de	0.6081675
203	0x3f142ca8	0.5788064
204	0x3f212e68	0.62961435
205	0x3f150fe6	0.58227384
206	0x3f157de0	0.58395195
207	0xbf1f0a05	-0.62124664
208	0xbf17c9a7	-0.5929207
209	0xbf1ce431	-0.6128569
210	0xbf1fc55c	-0.6241052
211	0xbf2019b1	-0.625392
212	0xbf1e07a0	-0.61730385
213	0xbf38b0cf	-0.7214479
214	0xbf23916d	-0.6389378
215	0xbf141c5d	-0.5785578
216	0xbf1ba004	-0.6079104
217	0xbf16326b	-0.5867068
218	0xbf130e2c	-0.574435
219	0xbf1b35b3	-0.60628814
220	0xbf1ec459	-0.6201835
221	0xbf1fd5ca	-0.6243559
222	0xbf1b1f44	-0.6059458
223	0xbf1618f1	-0.5863181
224	0xbf198f76	-0.5998453
225	0xbf1a5f8a	-0.6030203
226	0xbf1673a9	-0.58770233
227	0xbf1e12a2	-0.6174718
228	0xbf183d06	-0.59468114
229	0xbf165261	-0.5871945
230	0xbf1643aa	-0.58697
231	0xbf1b66ae	-0.6070355
232	0xbf204ee9	-0.6262041
233	0xbf1a3036	-0.60229814
234	0x3f1ebd5a	0.6200768
235	0x3f143e16	0.57907236
236	0x3f148835	0.58020335
237	0x3f16be77	0.58884376
238	0x3f160736	0.58604753
239	0x3f179a6b	0.5922
240	0x3f129ead	0.5727337
241	0x3f17590f	0.5912027
242	0x3f192bfd	0.59832746
243	0xbf14e42a	-0.5816065
244	0xbf1469a5	-0.579737
245	0xbf1a445a	-0.60260546
246	0xbf138036	-0.5761751
247	0xbf13a96e	-0.57680404
248	0xbf1f5923	-0.62245387
249	0xbf1e1ddc	-0.6176431
250	0xbf1665c8	-0.58749056
251	0xbf1dec1e	-0.6168841
252	0x3f1c339d	0.61016256
253	0x3f1cc633	0.6123993
254	0x3f1b1e47	0.60593075
255	0x3f2104fb	0.62898225

module.Conv5.layers.0.bias f4 [64]
0	0xbd7dd95f	-0.06197488
1	0xbd1f9427	-0.03895965
2	0xbdf96916	-0.12178247
3	0x3cb94062	0.022613708
4	0xbcc7dda3	-0.024397677
5	0xbd510055	-0.051025707
6	0x3dc4774c	0.095930666
7	0x3de95d18	0.11394709
8	0xbd68a895	-0.056801397
9	0x3d70618a	0.05868677
10	0x3ba6f981	0.005095661
11	0x3d4f1779	0.050559495
12	0xbd0cf99f	-0.034417745
13	0xbd9b980b	-0.07597359
14	0x3d84906b	0.06472858
15	0xbe06768a	-0.13131157
16	0xbd6f357b	-0.058400612
17	0xbb31efa0	-0.0027150884
18	0x3d3bdc1d	0.045864213
19	0xbc57174c	-0.013128113
20	0xbd63eb95	-0.05564459
21	0x3da8c670	0.08240974
22	0x3e0a39de	0.13498637
23	0xbde08071	-0.10961998
24	0xbdb361b6	-0.08758871
25	0x3d84fbec	0.06493363
26	0xbaa5f1eb	-0.0012660598
27	0xbdd06d3a	-0.10177083
28	0xbb39f280	-0.00283733
29	0x3da2e93d	0.07954643
30	0xbca7f072	-0.020500395
31	0xbcf4cd94	-0.029883184
32	0x3c17f4e1	0.009274692
33	0xbc329188	-0.010898955
34	0xbc50c5f8	-0.012742512
35	0xbc8dd05f	-0.017311273
36	0x3c4d40f4	0.012527693
37	0xbd4841d1	-0.048890892
38	0x3e1ca417	0.1529697
39	0xbcc1d6c9	-0.023661988
40	0xbda76c72	-0.08174981
41	0x3c014b6e	0.007891519
42	0x3bfc6c74	0.0077033583
43	0x3b36f812	0.0027918858
44	0x3e134b92	0.14384297
45	0x3e1df75f	0.15426396
46	0x3d19adae	0.03751915
47	0xbd9304f7	-0.07178681
48	0x3e090433	0.13380508
49	0xbd5e612c	-0.05429189
50	0x3d175615	0.03694733
51	0x3c94b07d	0.018150562
52	0x3e292a6a	0.16520086
53	0xbd12bb59	-0.0358232
54	0x3d869938	0.06572193
55	0x3d5a0371	0.05322594
56	0x390d95af	0.0001350257
57	0x3c8659a7	0.016400171
58	0xbca06fc5	-0.019584546
59	0xbb244feb	-0.002507205
60	0x3d3328db	0.043740135
61	0xbc45df8d	-0.012077224
62	0x3d7e2f02	0.06205655
63	0xbdfc4f76	-0.123198435

module.Conv5.layers.1.weight f4 [64]
0	0x3f074d24	0.5285208
1	0x3ea324d6	0.3186404
2	0x3fa3a07b	1.278335
3	0x3f961ea4	1.1728101
4	0x3eff3069	0.49841622
5	0x3f9fb0b4	1.24758
6	0x3ecf5f81	0.4050255
7	0x3faf7813	1.3708519
8	0x3fdcc13e	1.7246473
9	0xbd7b0eac	-0.06129329
10	0x3ed8fe82	0.42381674
11	0x3fd5717d	1.6675259
12	0x3ffe546f	1.9869517
13	0x400c60e7	2.1934144
14	0x3fa70947	1.3049706
15	0x3f911505	1.133454
16	0x4022e961	2.5454943
17	0x40306cfb	2.7566516
18	0x3ed83240	0.42225838
19	0x403dd44c	2.9660826
20	0xbddf1f7f	-0.10894679
21	0x3e642549	0.22279848
22	0x3d18ee29	0.037336502
23	0x400f32af	2.2374685
24	0x3f9926d4	1.1964974
25	0x3f1b04a4	0.60553956
26	0x3f9ede09	1.241151
27	0x3f995c13	1.1981224
28	0x3fcd715a	1.6050217
29	0x3f9228d4	1.141871
30	0x403cca47	2.949846
31	0x3febc2e2	1.8418849
32	0x3e3ac593	0.18239431
33	0x3f4e040a	0.80474913
34	0x400fe72e	2.248485
35	0xbf7f3891	-0.9969569
36	0x3fde5e28	1.7372484
37	0x3fa529ad	1.2903343
38	0x3f65083c	0.8946569
39	0x3eacfc49	0.33786228
40	0x3eb54a1b	0.354081
41	0x3f59b55c	0.8504236
42	0x3f2eac38	0.68231535
43	0x3f94a94a	1.1614163
44	0x3ed0e1d9	0.40797308
45	0x3f508d68	0.8146577
46	0x3ec95b01	0.39327243
47	0x4037ac2f	2.8698843
48	0xbf556575	-0.83357936
49	0x3f5b372e	0.8563107
50	0x3f7b9bd8	0.98284674
51	0x3ebc8768	0.36822057
52	0x3e9efe4e	0.31053394
53	0xbee16b47	-0.4402716
54	0xbf8d3807	-1.1032723
55	0x3eb266a7	0.34843943
56	0x401a155a	2.4075532
57	0xbf27061d	-0.65243703
58	0x3e82f14c	0.2557472
59	0x3fa65da0	1.2997322
60	0x3fcaf5ab	1.5856222
61	0x3fc192e2	1.512295
62	0x3dee5bfc	0.116386384
63	0x3fa4595c	1.283977

module.Conv5.layers.1.bias f4 [64]
0	0xbf865f3a	-1.0497811
1	0xbf9b1596	-1.2115963
2	0x3e1c9639	0.1529168
3	0x3f8a1c52	1.0789893
4	0x3f811364	1.0084043
5	0x3fe6d138	1.8032598
6	0xbf6310a0	-0.8869724
7	0xbe56e6df	-0.20986508
8	0x3ee0e5ea	0.4392541
9	0xbf36c0ef	-0.71388143
10	0xbfa7d9e7	-1.3113374
11	0x3f29c9e1	0.6632367
12	0x3ff3f269	1.9058353
13	0x3fa26151	1.2685949
14	0x3eb15cbf	0.34641072
15	0x3f597488	0.8494344
16	0x3fc1401e	1.5097692
17	0x3f4f52b1	0.8098555
18	0xbf361445	-0.7112468
19	0xc052a521	-3.2913287
20	0xbf923f39	-1.1425544
21	0xbf0a15b7	-0.53939384
22	0xbfca3b6e	-1.5799387
23	0x3f829eb0	1.0204678
24	0x3d68da78	0.056848973
25	0xbebb080b	-0.36529574
26	0x3e5cf161	0.21576454
27	0xbf01c57e	-0.50691974
28	0x40635c09	3.5524924
29	0x3cd7dc67	0.026350213
30	0xbe3f0958	-0.18655908
31	0x3faa0be3	1.3284878
32	0xbf08b5e0	-0.5340252
33	0xbdffed96	-0.12496488
34	0x3e93da54	0.2887751
35	0xbd4a5c2f	-0.04940432
36	0x3e93a61b	0.28837666
37	0x3c03a7f2	0.008035647
38	0x3f093064	0.53589463
39	0xbf9c83a6	-1.2227676
40	0xbf6e5340	-0.9309578
41	0xbe863b1d	-0.26216975
42	0xbf67c149	-0.90529305
43	0x3ecfaea0	0.40562916
44	0xbf364d61	-0.7121182
45	0xbe1a372d	-0.1506011
46	0xbf218621	-0.6309529
47	0xc0905b22	-4.5111246
48	0xbf461d71	-0.77388674
49	0x3ed450e9	0.4146798
50	0x3f23c1a5	0.63967353
51	0x3c6271a4	0.013821039
52	0xbf6bd69a	-0.9212433
53	0x3f893d18	1.0721769
54	0xbf819cb7	-1.012595
55	0xbf127095	-0.57203037
56	0x3faa2a06	1.3294075
57	0x3f7dc2b3	0.9912521
58	0x3f2a51d6	0.6653112
59	0x3ef631c2	0.48084837
60	0x3fdefdf5	1.7421252
61	0xbf6c7300	-0.92362976
62	0xbf15a8e4	-0.5846083
63	0xbe9413bb	-0.28921303

module.Conv5.layers.1.running_mean f4 [64]
0	0xc35a1a55	-218.10286
1	0xc338855c	-184.52094
2	0x414f5876	12.959097
3	0x4351d05f	209.81395
4	0x432f0c79	175.04872
5	0x43597fd0	217.49927
6	0x4357f658	215.96228
7	0xc30991e3	-137.56987
8	0x432827f0	168.156
9	0x42e3198f	113.54992
10	0xc353c080	-211.75195
11	0xc356d6ab	-214.83855
12	0xc28c4892	-70.14174
13	0xc345fcb5	-197.98714
14	0xc3456454	-197.3919
15	0xc33e7310	-190.44946
16	0xc30fe678	-143.90027
17	0xc2ffefbd	-127.96824
18	0x43484e90	200.30688
19	0xc35bb266	-219.69687
20	0x4347da6e	199.85324
21	0x4340b64c	192.7121
22	0xc3434a5a	-195.29044
23	0x4314c41d	148.76607
24	0x432bf1c6	171.94443
25	0xc3455550	-197.33325
26	0xc348e04c	-200.87616
27	0x432cb376	172.70102
28	0x42af4c8a	87.64949
29	0xc33c7ba1	-188.48293
30	0x4310e542	144.89554
31	0xc2bd1ec9	-94.56013
32	0x42c7bb50	99.865845
33	0xc33a611a	-186.3793
34	0x433c147d	188.08003
35	0x42dd0e61	110.52808
36	0xc349b527	-201.70763
37	0xc34b4b2b	-203.29362
38	0xc30f1738	-143.0907
39	0x42a84982	84.14357
40	0x431f01f2	159.0076
41	0xc32e6299	-174.38515
42	0x4337b99a	183.725
43	0xc3502ff3	-208.1873
44	0x433ad71f	186.84032
45	0xc336f275	-182.9471
46	0x434666c2	198.4014
47	0xc313992a	-147.5983
48	0x4341aab6	193.66684
49	0xc349cd4a	-201.80191
50	0x43497bde	201.48386
51	0xc30507f4	-133.03107
52	0x434d8041	205.50099
53	0x40fbadad	7.8649507
54	0x433c3d5f	188.23973
55	0x42e42b3f	114.084465
56	0xc2cc4a31	-102.144905
57	0x42a563af	82.694695
58	0x435c6b4b	220.41911
59	0xc202a07c	-32.656723
60	0x43677fbd	231.49898
61	0x42f047d6	120.140305
62	0x42f8a9ce	124.33165
63	0x434c4ac5	204.29207

module.Conv5.layers.1.running_var f4 [64]
0	0x459321da	4708.2314
1	0x445f65df	893.59174
2	0x446cc1fa	947.0309
3	0x44ea81f1	1876.0607
4	0x446b4201	941.0313
5	0x4485c89b	1070.2689
6	0x451be6a9	2494.4163
7	0x4543834d	3128.2063
8	0x460771fc	8668.496
9	0x4432deab	715.4792
10	0x44fe1605	2032.6881
11	0x45ff6d2f	8173.648
12	0x45d75ad8	6891.3555
13	0x45d8f877	6943.058
14	0x45acbfe3	5527.986
15	0x452f4657	2804.3962
16	0x454abf60	3243.961
17	0x45b377e4	5742.9863
18	0x45998e07	4913.7534
19	0x45d4c949	6809.1606
20	0x443fdca0	767.44727
21	0x45d8dd67	6939.6753
22	0x4489d9dd	1102.8082
23	0x46385354	11796.832
24	0x4424a16e	658.52234
25	0x45992b69	4901.4263
26	0x458e8cf4	4561.619
27	0x44a78a2f	1340.3182
28	0x4483abe6	1053.3718
29	0x44db24a4	1753.145
30	0x460dcf0b	9075.761
31	0x45f42e1b	7813.763
32	0x44031f7f	524.4921
33	0x45beac93	6101.572
34	0x45ec9173	7570.181
35	0x4454d192	851.27454
36	0x45ad1355	5538.4165
37	0x461ef4a1	10173.157
38	0x44d757dc	1722.7456
39	0x459964f9	4908.6216
40	0x44e73675	1849.7018
41	0x45d3c937	6777.152
42	0x44c35ceb	1562.9037
43	0x45d0bf94	6679.9473
44	0x45d4b4df	6806.609
45	0x44f50b42	1960.3518
46	0x4517da44	2429.6416
47	0x43e4b8fc	457.4452
48	0x452efc9a	2799.7876
49	0x459a191b	4931.138
50	0x45820996	4161.198
51	0x45a529ff	5285.2495
52	0x45aa7593	5454.697
53	0x4513ced4	2364.9268
54	0x458c1aa2	4483.329
55	0x4474a12d	978.5184
56	0x4579245e	3986.273
57	0x45b8f256	5918.292
58	0x455e975a	3561.4595
59	0x450512b6	2129.1694
60	0x44dfedf6	1791.4363
61	0x43b6fad7	365.9597
62	0x45469160	3177.086
63	0x45695719	3733.4436

module.Conv6.layers.0.weight f4 [64, 128, 3, 3]
0	0x3f17ab34	0.5924561
1	0x3f1ac75d	0.60460454
2	0x3f13b1cd	0.5769318
3	0x3f16f698	0.5897002
4	0x3f1b73d9	0.60723644
5	0x3f1b48ea	0.60658133
6	0x3f138c6f	0.5763616
7	0x3f1d31ec	0.614043
8	0x3f218d2e	0.6310605
9	0x3f17da4b	0.59317464
10	0x3f15c3ec	0.5850208
11	0x3f15b24c	0.58475184
12	0x3f1fa17b	0.62355775
13	0x3f1dd51c	0.61653304
14	0x3f1e486b	0.6182925
15	0x3f13558d	0.57552415
16	0x3f147ca8	0.5800271
17	0x3f144b3e	0.5792731
18	0xbf13c046	-0.5771526
19	0xbf1bf48e	-0.60920036
20	0xbf1e6986	-0.61879766
21	0xbf18ae49	-0.5964094
22	0xbf1ca25b	-0.61185235
23	0xbf13bb48	-0.57707644
24	0xbf155c90	-0.58344364
25	0xbf1462cf	-0.5796327
26	0xbf1c875a	-0.6114403
27	0x3f15c319	0.5850082
28	0x3f1ece40	0.6203346
29	0x3f1e0870	0.61731625
30	0x3f1a2ba7	0.6022286
31	0x3f127fcf	0.5722627
32	0x3f1cf569	0.61311966
33	0x3f1a56f9	0.6028896
34	0x3f1bb3a4	0.60820985
35	0x3f12e30f	0.57377714
36	0x3f163366	0.5867218
37	0x3f1adb3d	0.6049078
38	0x3f1324a6	0.57477796
39	0x3f128bf8	0.57244825
40	0x3f1a4894	0.60266995
41	0x3f1706f2	0.5899497
42	0x3f16fd85	0.5898059
43	0x3f19c275	0.6006234
44	0x3f144b7b	0.57927674
45	0x3f16ee26	0.58957136
46	0x3f1f3b7b	0.62200135
47	0x3f226ed8	0.63450384
48	0x3f189820	0.59607124
49	0x3f1be802	0.6090089
50	0x3f16abd6	0.5885595
51	0x3f1b6763	0.6070463
52	0x3f1e2a65	0.6178344
53	0x3f21166b	0.6292483
54	0x3f1ff0e8	0.6247697
55	0x3f20e7b9	0.6285358
56	0x3f1c8633	0.6114227
57	0x3f1305d1	0.5743075
58	0x3f1f2a27	0.62173694
59	0x3f139acf	0.57658094
60	0x3f199301	0.59989935
61	0x3f1a2ad4	0.602216
62	0x3f1acb0f	0.6046609
63	0xbf1fe39c	-0.6245668
64	0xbf16f778	-0.5897136
65	0xbf1bdd19	-0.60884243
66	0xbf21d6c4	-0.6321833
67	0xbf17a0aa	-0.5922953
68	0xbf1d3768	-0.6141267
69	0xbf1ee4b5	-0.6206773
70	0xbf162773	-0.58653945
71	0xbf1fcd2f	-0.6242246
72	0xbf1320f1	-0.5747214
73	0xbf168590	-0.5879755
74	0xbf1c0b31	-0.60954577
75	0xbf1c3b9d	-0.6102846
76	0xbf162fb4	-0.5866654
77	0xbf1e5ecd	-0.61863405
78	0xbf2010b6	-0.625255
79	0xbf1c27a4	-0.60997987
80	0xbf140735	-0.578235
81	0x3f185342	0.5950204
82	0x3f1efe92	0.62107193
83	0x3f2068a7	0.62659687
84	0x3f18630c	0.59526134
85	0x3f14fb76	0.581962
86	0x3f16fd60	0.5898037
87	0x3f1b6a35	0.60708934
88	0x3f124109	0.57130486
89	0x3f1af8e8	0.6053605
90	0x3f2046ee	0.6260823
91	0x3f1fa7e4	0.62365556
92	0x3f1d6187	0.6147694
93	0x3f14b474	0.5808785
94	0x3f1f5738	0.6224246
95	0x3f176388	0.5913625
96	0x3f1ae4b9	0.60505253
97	0x3f1772e6	0.59159696
98	0x3f15b9c9	0.5848661
99	0x3f1f1728	0.6214471
100	0x3f146d81	0.5797959
101	0x3f1e21c4	0.6177027
102	0x3f1ad397	0.6047911
103	0x3f167a50	0.58780384
104	0x3f162290	0.5864649
105	0x3f18fd63	0.5976164
106	0x3f1ac799	0.6046081
107	0x3f152d7b	0.5827252
108	0x3f16fb5a	0.5897728
109	0x3f1a6fb1	0.6032668
110	0x3f1d9ea8	0.61570215
111	0x3f15b650	0.5848131
112	0x3f1b01c5	0.60549575
113	0x3f14f006	0.58178747
114	0x3f1d8c51	0.6154223
115	0x3f207913	0.62684745
116	0x3f1cbed2	0.6122867
117	0x3f11d46f	0.5696477
118	0x3f128597	0.5723509
119	0x3f20b400	0.6277466
120	0x3f19f14b	0.6013381
121	0x3f16d328	0.5891595
122	0x3f122384	0.5708544
123	0x3f1f3504	0.6219027
124	0x3f2066a3	0.6265661
125	0x3f137834	0.5760529
126	0xbf268b8a	-0.6505667
127	0xbf1d6c34	-0.6149323
128	0xbf1f254a	-0.62166274
129	0x3d2d07bd	0.042243708
130	0xbf2af0df	-0.6677379
131	0xbf19f107	-0.60133404
132	0x3f1c4b97	0.6105284
133	0x3f1b986b	0.60779446
134	0xbf1e9c5c	-0.61957335
135	0xbf11a0d8	-0.56886053
136	0xbf11c888	-0.5694661
137	0xbe7a25f1	-0.24428536
138	0xbf10871b	-0.56456155
139	0xbf151d11	-0.58247477
140	0xbf0f0120	-0.5586109
141	0xbf1916b9	-0.598003
142	0xbf1cf0ac	-0.61304736
143	0xbf176b70	-0.5914831
144	0x3f18371d	0.59459096
145	0x3f199f64	0.60008836
146	0x3f19eb3b	0.6012456
147	0x3f14cd63	0.58125895
148	0x3f1b671b	0.607042
149	0x3f12089c	0.57044387
150	0x3f14d27c	0.58133674
151	0x3f185ae9	0.5951372
152	0x3f16683a	0.5875279
153	0x3f15b059	0.5847221
154	0x3f198770	0.59972286
155	0x3f1dbf24	0.6161978
156	0x3f202857	0.62561554
157	0x3f19e161	0.60109526
158	0x3f126472	0.5718452
159	0x3f17e9cf	0.5934114
160	0x3f17824a	0.5918318
161	0x3f1e76cd	0.61900026
162	0x3f1b1c7c	0.6059034
163	0x3f16eb1d	0.58952504
164	0x3f169234	0.5881684
165	0x3f17f9a6	0.5936531
166	0x3f1846df	0.5948314
167	0x3f1997ae	0.5999707
168	0x3f17168d	0.59018785
169	0x3f15e0a2	0.5854589
170	0x3f1943f5	0.5986932
171	0x3f2040a1	0.62598616
172	0x3f155edf	0.58347887
173	0x3f1b5962	0.6068326
174	0x3f1813b4	0.59405065
175	0x3f17026f	0.5898809
176	0x3f1f9f0e	0.62352073
177	0x3f1cefd6	0.6130346
178	0x3f182b36	0.59440935
179	0x3f1d4517	0.6143355
180	0xbf1d9c1c	-0.6156633
181	0xbf1f7ae1	-0.62296873
182	0xbf141797	-0.57848495
183	0xbf1d5a24	-0.6146567
184	0xbf1db1db	-0.6159951
185	0xbf1df1ab	-0.6169688
186	0xbf1f6c08	-0.6227422
187	0xbf1643c3	-0.58697146
188	0xbf16003c	-0.5859411
189	0x3f1b2413	0.6060192
190	0x3f128ea6	0.57248914
191	0x3f1332b6	0.57499254
192	0x3f1df981	0.6170884
193	0x3f1808ae	0.59388244
194	0x3f1ad52d	0.6048153
195	0x3f20c3a3	0.6279852
196	0x3f15a3e2	0.5845319
197	0x3f1eb181	0.619896
198	0x3f1a9557	0.60384125
199	0x3f214589	0.6299673
200	0xbf140e3d	-0.57834226
201	0x3f1d2eea	0.6139971
202	0x3f210cfe	0.6291045
203	0x3f17ad2f	0.5924863
204	0x3f12fe0b	0.5741889
205	0x3f186c71	0.5954047
206	0x3f14b7ce	0.58092964
207	0xbf1555e9	-0.58334213
208	0xbf13168b	-0.5745627
209	0xbf10e8cd	-0.56605226
210	0xbf1bddb6	-0.6088518
211	0xbf1cf039	-0.6130405
212	0xbf1f4164	-0.62209153
213	0xbf216fa6	-0.63060987
214	0xbf13ed18	-0.5778365
215	0xbf18730d	-0.59550554
216	0xbf1530f6	-0.58277833
217	0xbf150472	-0.5820991
218	0xbf1f7c35	-0.622989
219	0xbf1dae2f	-0.6159391
220	0xbf15e300	-0.585495
221	0xbf1d5dbd	-0.6147116
222	0xbf1a41eb	-0.6025683
223	0xbf1e887b	-0.61927
224	0xbf1f6c37	-0.622745
225	0xbf1ea93b	-0.61976975
226	0xbf216035	-0.63037425
227	0xbf1b537b	-0.60674256
228	0xbf178584	-0.59188104
229	0xbf162f8d	-0.58666307
230	0xbf1958bd	-0.5990103
231	0xbf1ec711	-0.620225
232	0xbf134d15	-0.5753949
233	0xbf1d8dca	-0.6154448
234	0x3f19ede6	0.6012863
235	0x3f19d1f6	0.60086
236	0x3f1ff2ef	0.6248006
237	0x3f165bfc	0.58734107
238	0x3f1c318e	0.61013114
239	0x3f19cc07	0.60076946
240	0x3f1c4e5c	0.61057067
241	0x3f203ba3	0.62591
242	0x3f126d20	0.5719776
243	0xbf13f772	-0.57799447
244	0xbf188cc1	-0.59589773
245	0xbf1d73c4	-0.6150477
246	0xbf1cfc20	-0.6132221
247	0xbf203501	-0.6258088
248	0xbf193245	-0.5984233
249	0xbf1f7aad	-0.62296563
250	0xbf1fed62	-0.6247159
251	0xbf188d1b	-0.5959031
252	0x3f159a91	0.58438975
253	0x3f1456f0	0.57945156
254	0x3f18f375	0.59746486
255	0x3f1f6d3a	0.6227604

module.Conv6.layers.0.bias f4 [64]
0	0x3d4337a0	0.04766047
1	0xbd971c2d	-0.07378421
2	0xbd16d7d7	-0.036826935
3	0x3d4d5e46	0.050138734
4	0x3c527616	0.012845537
5	0xbd85fab3	-0.06541958
6	0x3cde44a0	0.027132332
7	0xbdc3da24	-0.095630914
8	0x3d400874	0.04688306
9	0x3cb12b0e	0.021626975
10	0xbd61dce5	-0.055142302
11	0x3db83b83	0.08995726
12	0xbea4a702	-0.32158667
13	0x3c858e46	0.016303193
14	0x3bcfebd2	0.0063452506
15	0xbdec6718	-0.11543101
16	0xbd7bef69	-0.061507616
17	0xbdf44e9a	-0.119290546
18	0xbe0724bc	-0.13197607
19	0x3de5ebea	0.11226638
20	0x3df7bdf0	0.120967746
21	0x3dba4e15	0.09096924
22	0xbd49b237	-0.049242225
23	0xbdeb5738	-0.11491245
24	0x3e3efbe4	0.18650776
25	0x3e16e0ed	0.1473424
26	0x3cd62b9d	0.026143843
27	0x3c9fd318	0.019509837
28	0x3db73bd6	0.0894696
29	0xbd523b26	-0.05132594
30	0x3d1854ed	0.037190367
31	0x3cda994d	0.026684428
32	0x3c6a553c	0.014302548
33	0xbc125723	-0.008931908
34	0x3d75fec7	0.060057428
35	0x3d5821d7	0.052766647
36	0xbb75b942	-0.0037494455
37	0x3dcd11d7	0.10013168
38	0x3ddc0de4	0.10744837
39	0x3e8e1a30	0.27754354
40	0x3d1e2c5a	0.038616516
41	0xbcfc9330	-0.030831903
42	0x3d8785d8	0.066173255
43	0xbcfb2927	-0.030659271
44	0xbdb33193	-0.0874969
45	0x3d15f17b	0.036607247
46	0xbe3f092a	-0.1865584
47	0x3d7a756e	0.061147146
48	0x3d5e3efe	0.054259293
49	0x3cb7f036	0.022453409
50	0xbc80d1b5	-0.015724996
51	0xbca0d9a7	-0.019635035
52	0xbd4b5f0d	-0.049651194
53	0xbe10bd62	-0.14134744
54	0x3d3e1591	0.046407286
55	0x3e7dfc2f	0.24803232
56	0xbda60126	-0.08105688
57	0x3d7b17f5	0.061302144
58	0x3de25833	0.11051979
59	0x3d64d923	0.05587114
60	0x3e51ba81	0.20481302
61	0x3e263ed2	0.16234902
62	0xbe2dec15	-0.1698459
63	0xbcc5b681	-0.024134876

module.Conv6.layers.1.weight f4 [64]
0	0x3f20db59	0.628347
1	0x3efe10d8	0.49622226
2	0x3fb2ba99	1.3963195
3	0x3f5f8cc8	0.8732419
4	0x3f555206	0.8332828
5	0x3fc971c5	1.5737845
6	0x3ee5f6f2	0.44914967
7	0x3f8354aa	1.0260212
8	0x3f464979	0.7745586
9	0x3f3573e5	0.70879966
10	0x3eb02fb9	0.3441141
11	0x3eef45eb	0.4673303
12	0x3f436c6a	0.763373
13	0x3f6700a9	0.9023538
14	0x3e4d6bd8	0.2006067
15	0x3ede5f9c	0.4343232
16	0x3f7984dc	0.9746835
17	0x3f5c58bf	0.86072916
18	0x3f896927	1.0735215
19	0x3f92c8be	1.1467512
20	0x3f9361e3	1.1514248
21	0x3fc453ce	1.5338075
22	0x3f4a2fc1	0.78979117
23	0x3f88ba59	1.0681869
24	0x3efb07fa	0.49029523
25	0x3fc38eed	1.5277992
26	0x3f99aa7d	1.2005154
27	0x3f211057	0.6291556
28	0x3f2526c6	0.6451229
29	0x3eb9b647	0.3627188
30	0x3f702063	0.9379942
31	0x3f81e0ba	1.0146706
32	0x3e97fd25	0.2968532
33	0x3eacefbf	0.33776662
34	0x3f8fc165	1.1230894
35	0x3f8b6f10	1.0893269
36	0x3e92d203	0.2867585
37	0x3fb58b6e	1.4183176
38	0x3f165f90	0.58739567
39	0x3fa2643b	1.2686838
40	0x3f8b452e	1.0880487
41	0x3f850dcb	1.0394834
42	0xbcaec8ea	-0.021336038
43	0x3f3a3430	0.7273588
44	0x3fbe8981	1.4885713
45	0x4001873b	2.0238788
46	0x3fca9047	1.582528
47	0xbea5ffb0	-0.32421637
48	0x3f506809	0.81408745
49	0x3dee77ec	0.11643967
50	0x3f903a15	1.1267725
51	0x3f809b31	1.0047361
52	0x3f7ee617	0.9956984
53	0x3f62cadf	0.88590807
54	0x3ef6e10f	0.4821858
55	0x3fc3bdba	1.5292275
56	0x3f15b8cf	0.5848512
57	0x3f8b5a45	1.0886923
58	0x3f1d21dd	0.61379796
59	0xbf6d67a1	-0.9273625
60	0x3eec1e6f	0.4611697
61	0x3ea9ac22	0.3313914
62	0x3f9cc767	1.2248353
63	0x3fb959a0	1.4480476

module.Conv6.layers.1.bias f4 [64]
0	0xbfe55e4d	-1.7919403
1	0xbf27ac92	-0.65497696
2	0x3f23305f	0.63745683
3	0x3fb1cc5e	1.3890493
4	0x3ff30d3c	1.8988414
5	0x3ef88c03	0.4854432
6	0x3f924ab1	1.1429044
7	0x3ffd2a71	1.9778577
8	0x3ffcb2e9	1.9742099
9	0xbf7cae99	-0.98703915
10	0x3f26ff56	0.6523336
11	0xbf83bfb0	-1.0292873
12	0xbeb556b5	-0.35417715
13	0x3ff8781f	1.9411658
14	0x3f2ebcdd	0.6825693
15	0xbfab66a3	-1.3390697
16	0x404c7d5c	3.1951513
17	0xc0274128	-2.6133518
18	0x3f997a66	1.1990478
19	0x401a0026	2.406259
20	0xc010160e	-2.251346
21	0x3efd759e	0.49503797
22	0xbfba0f65	-1.4535948
23	0x3fa43fc0	1.2831955
24	0xbf14c43a	-0.5811192
25	0x3f0508a6	0.5196632
26	0x3f92c89f	1.1467475
27	0xbf476045	-0.7788127
28	0xbfec2c0c	-1.8450942
29	0xbfbd47d6	-1.4787548
30	0x3ff22820	1.8918495
31	0x40206b9f	2.5065687
32	0x3f7d2a7c	0.9889295
33	0x3f8d0652	1.1017554
34	0xc0007f33	-2.0077636
35	0x402704f9	2.6096785
36	0x3f82c4fd	1.0216366
37	0x3ef986ef	0.4873576
38	0xbf5bb180	-0.8581772
39	0x40021808	2.0327168
40	0xc08552bf	-4.166351
41	0xbf4c364b	-0.79770344
42	0xbf2a8d96	-0.66622293
43	0x4022874e	2.5395083
44	0x3f31c135	0.69435436
45	0x40962354	4.6918125
46	0x3f071a71	0.5277472
47	0x3f5901dc	0.8476846
48	0xbfa7d9f2	-1.3113387
49	0xbf01dfb5	-0.50731975
50	0xbf547cc4	-0.8300288
51	0x3fa0d151	1.2563878
52	0x4000933c	2.0089865
53	0x3ff8fc9a	1.9452088
54	0xbf057bd4	-0.5214207
55	0x3f0a7382	0.540825
56	0xbf01d2ac	-0.50712085
57	0xc04097d5	-3.009267
58	0xbfac491b	-1.345981
59	0x3db8078e	0.08985816
60	0xbf959324	-1.1685529
61	0xbf0fa1fe	-0.56106555
62	0x3fd3e82c	1.6555228
63	0x409ad5f6	4.8386183

module.Conv6.layers.1.running_mean f4 [64]
0	0x433a62b7	186.3856
1	0xc32e1cb0	-174.11206
2	0x433ef066	190.93906
3	0xc34ad984	-202.84967
4	0xc337afb3	-183.68633
5	0x4357103d	215.06343
6	0x432ed7e3	174.8433
7	0x4330f949	176.97377
8	0x43255b89	165.35756
9	0x42c2a676	97.32512
10	0x435ed2d0	222.82349
11	0x4335ca4d	181.79024
12	0xc31b5d01	-155.3633
13	0xc3307557	-176.45836
14	0x4346d9b8	198.85046
15	0x43347d8c	180.49042
16	0xc34282c9	-194.51088
17	0x43287aae	168.47922
18	0xc2e172cb	-112.724205
19	0xc3299838	-169.5946
20	0x433581e7	181.50743
21	0x4358b28e	216.69748
22	0x4323d425	163.82869
23	0xc2ef5dad	-119.68296
24	0xc3483a2f	-200.22728
25	0x4340beb0	192.74487
26	0x433a5f30	186.37183
27	0xc3298a2e	-169.53976
28	0x43333486	179.20517
29	0x435473e2	212.45267
30	0xc322cfc2	-162.81155
31	0xc337036e	-183.0134
32	0x43333dfd	179.24214
33	0x43431c0a	195.10953
34	0x432f6842	175.40726
35	0xc3316202	-177.38284
36	0xc33fc7ae	-191.78
37	0x434606b1	198.02614
38	0x432aa7dd	170.65572
39	0x432cd07f	172.81444
40	0x4346e15c	198.88031
41	0x4342542a	194.32877
42	0xc2ef8a21	-119.76978
43	0xc33d6aae	-189.41672
44	0x43433e0a	195.24234
45	0xc3103802	-144.21878
46	0x434ea6d3	206.65166
47	0xc2cf9dbf	-103.8081
48	0x43317823	177.46928
49	0xc363c431	-227.76637
50	0xc23f44fd	-47.81737
51	0xc375733c	-245.45013
52	0xc353b63f	-211.7119
53	0xc3272fdb	-167.18694
54	0xc33dde9c	-189.86957
55	0x4342dc08	194.8595
56	0xc342b0d3	-194.69072
57	0x432d660c	173.39862
58	0x43231d17	163.11363
59	0x434f1d5f	207.11473
60	0x4322c4dd	162.769
61	0xc3631469	-227.07973
62	0xc32cfad7	-172.97984
63	0xc341ea93	-193.9163

module.Conv6.layers.1.running_var f4 [64]
0	0x45ae620c	5580.256
1	0x4581e10d	4156.1313
2	0x45de9086	7122.0654
3	0x452987df	2712.492
4	0x458b66af	4460.8354
5	0x45e2dbc4	7259.4707
6	0x45c8553e	6410.6553
7	0x458c8814	4497.01
8	0x45945601	4746.7505
9	0x4667c545	14833.317
10	0x45edeea2	7613.829
11	0x45179060	2425.0234
12	0x454b91d7	3257.115
13	0x4575a697	3930.4119
14	0x460b4216	8912.521
15	0x45d69806	6867.003
16	0x45ac1f73	5507.931
17	0x4606e4d1	8633.204
18	0x4527988c	2681.5342
19	0x457149cd	3860.6125
20	0x458555c0	4266.7188
21	0x45ed5a82	7595.3135
22	0x456dbe60	3803.8984
23	0x45029ccb	2089.7996
24	0x4621cb04	10354.754
25	0x45eef834	7647.0254
26	0x459eb6cf	5078.851
27	0x460dcf26	9075.787
28	0x45ac7e5e	5519.796
29	0x45993a41	4903.2817
30	0x458b68e7	4461.113
31	0x45f73da4	7911.705
32	0x45b1d281	5690.313
33	0x45cceca3	6557.5796
34	0x455f32cb	3571.1746
35	0x4578a34f	3978.2068
36	0x461b313a	9932.307
37	0x46105384	9236.879
38	0x45a5115e	5282.171
39	0x4573c59a	3900.35
40	0x460060d4	8216.207
41	0x45edbf2c	7607.8965
42	0x460ad0de	8884.217
43	0x45e811fa	7426.247
44	0x45e060d0	7180.1016
45	0x4653b5d6	13549.459
46	0x46000c8c	8195.137
47	0x45916c1e	4653.5146
48	0x457550e7	3925.0564
49	0x45dec89f	7129.0776
50	0x44ac6c43	1379.3832
51	0x45eec20c	7640.256
52	0x4616001e	9600.029
53	0x4584e04d	4252.0376
54	0x460c406c	8976.105
55	0x45e4259f	7300.7026
56	0x460473d2	8476.955
57	0x46036a7c	8410.621
58	0x456e33a9	3811.2288
59	0x4623efaf	10491.921
60	0x45c1ff7c	6207.9355
61	0x4609792d	8798.294
62	0x45b8f9cb	5919.224
63	0x45a04898	5129.074

module.Conv7.layers.1.weight f4 [1, 128, 3, 3]
0	0xbf158a69	-0.5841432
1	0xbf173b94	-0.59075284
2	0xbf131997	-0.5746092
3	0xbf16a269	-0.5884157
4	0xbf168bbd	-0.58806974
5	0xbf19f2c0	-0.6013603
6	0xbf1fcebc	-0.62424827
7	0xbf1a10f8	-0.6018214
8	0xbf24cc32	-0.6437408
9	0x3f15e8dc	0.5855844
10	0x3f194b05	0.59880096
11	0x3f1689e4	0.58804154
12	0x3f180304	0.593796
13	0x3f14ec1f	0.5817279
14	0x3f16542d	0.5872219
15	0x3f1a261d	0.60214406
16	0x3f179f33	0.59227294
17	0x3f136167	0.575705
18	0x3f188b87	0.595879
19	0x3f1dc1d5	0.6162389
20	0x3f18b84d	0.5965622
21	0x3f13dd2b	0.5775935
22	0x3f1cbd44	0.61226296
23	0x3f1673ac	0.5877025
24	0x3f1dabc0	0.61590195
25	0x3f1da298	0.61576223
26	0x3f17a849	0.5924116
27	0xbf181861	-0.594122
28	0xbf1c9b02	-0.61174023
29	0xbf1aecce	-0.60517585
30	0xbf1f158d	-0.6214226
31	0xbf196c48	-0.5993085
32	0xbf197bef	-0.5995473
33	0xbf1586a4	-0.5840857
34	0xbf129762	-0.5726224
35	0xbf18c5e9	-0.59676987
36	0xbf1c83f0	-0.6113882
37	0xbf214d46	-0.63008535
38	0xbf0b262a	-0.5435511
39	0xbf1cf903	-0.6131746
40	0xbf211525	-0.6292289
41	0xbf16a4f2	-0.58845437
42	0xbf11c466	-0.56940305
43	0xbf1ee8cb	-0.62073964
44	0xbf17c80a	-0.5928961
45	0x3f1ef5c5	0.62093765
46	0x3f2022f2	0.6255332
47	0x3f1f8a1b	0.6232011
48	0x3f1b3471	0.60626894
49	0x3f20bbfb	0.62786835
50	0x3f164f08	0.5871434
51	0x3f1ae560	0.6050625
52	0x3f12d75a	0.5735985
53	0x3f1b4e06	0.6066593
54	0x3f18f324	0.59746003
55	0x3f168c8e	0.5880822
56	0x3f1b1cfe	0.60591114
57	0x3f1d7ebb	0.615215
58	0x3f12e832	0.5738555
59	0x3f1d0996	0.6134275
60	0x3f1832fd	0.594528
61	0x3f1ce08d	0.6128014
62	0x3f11a5b8	0.5689349
63	0x3f1c6b6f	0.6110143
64	0x3f1290c6	0.57252157
65	0x3f113507	0.5672154
66	0x3f178678	0.5918956
67	0x3f1fb9aa	0.62392676
68	0x3f1de013	0.61670035
69	0x3f154192	0.5830318
70	0x3f1a0059	0.6015678
71	0x3f1e0380	0.6172409
72	0x3f12043d	0.5703772
73	0x3f1a6e0a	0.60324156
74	0x3f18705c	0.59546447
75	0x3f1e406d	0.61817056
76	0x3f12fdf1	0.57418734
77	0x3f1a81e6	0.6035446
78	0x3f154a58	0.58316565
79	0x3f170149	0.58986336
80	0x3f1b54aa	0.6067606
81	0xbf1ef7e7	-0.6209702
82	0xbf130180	-0.57424164
83	0xbf119124	-0.5686209
84	0xbf17e147	-0.5932812
85	0xbf1a15db	-0.601896
86	0xbf1613c1	-0.5862389
87	0xbf18ecfb	-0.59736603
88	0xbf1669bc	-0.5875509
89	0xbf196e8c	-0.59934306
90	0x3f16d24f	0.58914655
91	0x3f17acf3	0.59248275
92	0x3f12bcee	0.57319534
93	0x3f1c0934	0.6095154
94	0x3f1ab17d	0.60427076
95	0x3f1ef88f	0.6209802
96	0x3f166da3	0.5876104
97	0x3f1ad0a3	0.60474604
98	0x3f12bfde	0.57324016
99	0xbf157de2	-0.58395207
100	0xbf17a579	-0.59236866
101	0xbf204666	-0.6260742
102	0xbf1449a9	-0.57924896
103	0xbf165d57	-0.58736175
104	0xbf13202e	-0.5747098
105	0xbf1609ec	-0.5860889
106	0xbf1de428	-0.61676264
107	0xbf18a37f	-0.59624475
108	0x3f14edf0	0.58175564
109	0x3f17612c	0.5913265
110	0x3f178f0c	0.5920265
111	0x3f13bb8a	0.57708037
112	0x3f14dd69	0.58150345
113	0x3f15987b	0.5843579
114	0x3f1c8fdc	0.6115701
115	0x3f18e352	0.59721863
116	0x3f1e5685	0.6185077
117	0xbf15fba5	-0.58587104
118	0xbf16e52a	-0.58943427
119	0xbf161dba	-0.5863911
120	0xbf1b5f60	-0.60692406
121	0xbf1f3c9d	-0.62201864
122	0xbf1eca5c	-0.62027526
123	0xbf1786c9	-0.5919004
124	0xbf1f1ff7	-0.6215815
125	0xbf17d85d	-0.5931452
126	0x3f162fcb	0.58666676
127	0x3f199b85	0.6000293
128	0x3f12f25d	0.57401067
129	0x3f1f4693	0.6221706
130	0x3f15a74e	0.5845841
131	0x3f1a7176	0.6032938
132	0x3f170bca	0.59002364
133	0x3f14f7c8	0.58190584
134	0x3f15c757	0.58507293
135	0xbf1c8c1c	-0.6115129
136	0xbf1a238e	-0.602105
137	0xbf188c73	-0.5958931
138	0xbf1362b8	-0.5757251
139	0xbf14081d	-0.5782488
140	0xbf1da04e	-0.6157273
141	0xbf19fa3e	-0.60147464
142	0xbf16b1d9	-0.58865124
143	0xbf1307ff	-0.57434076
144	0xbf114354	-0.5674336
145	0xbf1dc1e0	-0.61623955
146	0xbf15f3ef	-0.5857534
147	0xbf225eaa	-0.63425696
148	0xbf23d568	-0.6399751
149	0xbf22056b	-0.6328952
150	0xbf0e14bd	-0.55500394
151	0xbf1d5b33	-0.61467284
152	0xbf1aff0e	-0.6054543
153	0xbf156b77	-0.58367103
154	0xbf19a4b9	-0.6001697
155	0xbf14ec53	-0.581731
156	0xbf16dc94	-0.58930326
157	0xbf1ea199	-0.6196533
158	0xbf1d1a03	-0.61367816
159	0xbf142858	-0.5787406
160	0xbf1acbb5	-0.6046708
161	0xbf1d3437	-0.614078
162	0xbf1f140e	-0.62139976
163	0xbf1a80e8	-0.60352945
164	0xbf1cbb2b	-0.61223096
165	0xbf115bc2	-0.56780636
166	0xbf1c8b44	-0.6115
167	0xbf173f48	-0.59080935
168	0xbf1a5610	-0.6028757
169	0xbf1c6182	-0.61086285
170	0xbf18424d	-0.59476167
171	0xbf1f0588	-0.62117815
172	0xbf19f799	-0.6014343
173	0xbf1965a4	-0.59920716
174	0xbf1e82b3	-0.6191818
175	0xbf226a02	-0.63443005
176	0xbf1dc27c	-0.61624885
177	0xbf12199b	-0.5707032
178	0xbf1bef08	-0.6091161
179	0xbf0fb14c	-0.5612991
180	0xbf1698a4	-0.5882666
181	0xbf206f6e	-0.6267003
182	0xbf15c655	-0.58505756
183	0xbf16ddc6	-0.5893215
184	0xbf1765d5	-0.5913976
185	0xbf27bd34	-0.65523076
186	0xbf177955	-0.59169513
187	0xbf25216a	-0.6450411
188	0xbf1fdff5	-0.62451106
189	0x3f19c1cf	0.60061353
190	0x3f1b0279	0.6055065
191	0x3f1a15df	0.6018962
192	0x3f1ba0ce	0.60792243
193	0x3f17d2f4	0.59306264
194	0x3f185386	0.59502447
195	0x3f15d027	0.5852074
196	0x3f20793a	0.6268498
197	0x3f1da280	0.6157608
198	0xbf17f002	-0.593506
199	0xbf1509ca	-0.5821806
200	0xbf175fda	-0.5913063
201	0xbf15fbc7	-0.58587307
202	0xbf13dd73	-0.5775978
203	0xbf1daae8	-0.6158891
204	0xbf13e7a6	-0.5777534
205	0xbf1d7487	-0.6150593
206	0xbf201587	-0.6253285
207	0xbf1ce52b	-0.6128718
208	0xbf1c7297	-0.6111235
209	0xbf1e45a0	-0.6182499
210	0xbf1d10a8	-0.6135354
211	0xbf127cd3	-0.57221717
212	0xbf1453ae	-0.57940185
213	0xbf148090	-0.5800867
214	0xbf17bce6	-0.5927261
215	0xbf1c51c8	-0.6106229
216	0x3f1ad4d6	0.6048101
217	0x3f141fa3	0.57860774
218	0x3f143bb0	0.57903576
219	0x3f185d29	0.5951715
220	0x3f16f5d3	0.5896885
221	0x3f1ac61e	0.6045855
222	0x3f16aaaa	0.5885416
223	0x3f1319bc	0.5746114
224	0x3f15b5d0	0.5848055
225	0x3f17d320	0.59306526
226	0x3f169543	0.58821505
227	0x3f1c9425	0.6116355
228	0x3f1a0e79	0.60178334
229	0x3f18ee2c	0.5973842
230	0x3f1b7930	0.6073179
231	0x3f1df651	0.61703974
232	0x3f1d85ce	0.61532295
233	0x3f1fd219	0.6242996
234	0x3f1dd5d4	0.616544
235	0x3f17fdd8	0.5937171
236	0x3f17bb8a	0.59270537
237	0x3f1d1b67	0.6136994
238	0x3f19cefc	0.6008146
239	0x3f1aad4f	0.604207
240	0x3f1655d2	0.587247
241	0x3f181e12	0.59420884
242	0x3f188b79	0.5958782
243	0x3f1a7a9d	0.60343343
244	0x3f1bad09	0.60810906
245	0x3f185e02	0.59518445
246	0x3f15789c	0.5838716
247	0x3f11d870	0.5697088
248	0x3f1ea35e	0.6196803
249	0x3f15f7b0	0.58581066
250	0x3f16b221	0.58865553
251	0x3f1a203c	0.60205436
252	0xbf18a73f	-0.596302
253	0xbf12ed01	-0.5739289
254	0xbf1278b1	-0.5721541
255	0xbf1a0472	-0.60163033
