DIDFuse/saved_models/decoder/IR_AE15.pth (torch, 604881 bytes, 13 tensors)

module.Conv5.layers.0.weight f4 [64, 128, 3, 3]
000000 89 84 18 3f 80 69 13 3f 43 0e 13 3f e6 b6 1d 3f
       0.5957723 0.57582855 0.57443637 0.61607206
000010 11 64 20 3f 5f 19 1a 3f 33 00 1f 3f 06 3d 13 3f
       0.6265269 0.60194963 0.6210968 0.5751499
000020 b2 53 1a 3f b3 af 1a 3f eb f8 12 3f c4 ed 1a 3f
       0.6028396 0.60424346 0.5741107 0.6051905
000030 45 ef 16 3f ad c7 1f 3f bc f1 1a 3f 17 51 12 3f
       0.58958846 0.62414056 0.6052511 0.57154983
000040 6c 3c 19 3f 01 15 18 3f 6e 6a 1e 3f 95 ed 17 3f
       0.5985782 0.5940705 0.6188115 0.59346896
000050 da 94 19 3f 57 d4 12 3f ee db 1d 3f 95 e0 1d 3f
       0.59992754 0.57355255 0.6166371 0.6167081
000060 cf 07 18 3f b1 47 13 3f 4d a3 1b 3f c6 3a 14 3f
       0.59386915 0.5753127 0.6079605 0.5790218
000070 c9 f9 1c 3f 94 8d 15 3f bf 23 17 3f 97 a5 15 3f
       0.6131864 0.58419156 0.5903892 0.58455795
000080 35 d8 17 3f 48 80 1f 3f 46 55 1c 3f af 8b 1a 3f
       0.5931428 0.62305117 0.61067617 0.6036939
000090 51 d8 1b 3f f5 bd 1b 3f 3f 13 1e 3f 33 9a 16 3f
       0.6087695 0.60836726 0.6174812 0.5882904
0000a0 02 4c 12 3f 56 a1 15 3f a2 bb 1f 3f a5 d3 11 3f
       0.5714723 0.58449304 0.6239568 0.5696357
0000b0 e7 d5 17 3f 9c f4 1a 3f d6 00 18 3f 2c cb 14 3f
       0.59310764 0.60529494 0.59376276 0.58122516
0000c0 1c e1 19 3f ab 19 1d 3f ef 93 20 3f a2 8d 12 3f
       0.60109115 0.6136729 0.6272573 0.57247365
0000d0 28 5d 16 3f 79 34 18 3f 8f e3 19 bf 16 58 16 bf
       0.58735895 0.59455067 -0.6011285 -0.5872816
0000e0 74 da 1d bf a3 45 15 bf c9 35 1b bf 41 0c 11 bf
       -0.6166146 -0.5830938 -0.60628945 -0.5665932
0000f0 76 2f 1f bf 5f b7 17 bf 84 76 1f bf 05 df 1f 3f
       -0.62181795 -0.5926418 -0.62290215 0.62449676
000100 6c 08 21 3f 94 eb 17 3f 2a bd 1b 3f a9 6e 1b 3f
       0.62903476 0.5934384 0.60835516 0.6071573
000110 3e 23 13 3f 95 73 1a 3f b8 1c 18 3f b2 19 1a 3f
       0.5747565 0.60332614 0.5941882 0.6019546
000120 b4 dc 1a bf 22 d4 1b bf 56 73 13 bf 0c 3e 1e bf
       -0.60493016 -0.60870564 -0.57597864 -0.61813426
000130 83 11 11 bf a4 f3 15 bf 9a 66 47 3f 6f 3a 46 3f
       -0.56667346 -0.5857489 0.7789093 0.7743291
000140 dd 8c 07 bf 8b d7 1f 3f c4 47 13 3f ad 29 12 3f
       -0.52949315 0.6243827 0.5753138 0.5709484
000150 81 36 20 3f 13 1c 1b 3f 22 81 1a 3f ac d4 15 3f
       0.62583166 0.6058971 0.6035329 0.58527637
000160 e4 3b 16 3f bf 33 12 3f 1d d0 17 bf d1 d0 17 bf
       0.58685136 0.5711021 -0.5930193 -0.59303004
000170 02 b7 1b bf c6 fc 20 bf 27 c3 1a bf 92 37 21 bf
       -0.6082612 -0.628857 -0.6045403 -0.6297542
000180 5a e1 22 bf 5e f7 1a bf 21 58 2a bf 9a 73 14 bf
       -0.6362511 -0.605337 -0.66540724 -0.57988894
000190 c1 8d 13 bf ab 48 1f bf 4c 3f 14 bf dd a0 1c bf
       -0.57638174 -0.6222026 -0.57909083 -0.6118296
0001a0 f9 b8 18 bf e0 05 14 bf c6 0d 13 bf 9b b9 18 bf
       -0.59657246 -0.57821465 -0.5744289 -0.5965821
0001b0 f9 36 18 bf a1 19 1c bf 3c 07 20 bf fd e4 15 bf
       -0.5945888 -0.60976607 -0.6251104 -0.58552533
0001c0 e7 4f 1c bf 1f 1d 14 bf cb 95 1d bf c3 3c 16 bf
       -0.6105942 -0.57856935 -0.6155669 -0.58686465
0001d0 0d 05 16 bf fe 21 1c 3f 7c ea 1d 3f 4c e9 18 3f
       -0.58601457 0.6098937 0.6168592 0.5973098
0001e0 93 52 17 3f fc e0 19 3f 78 f2 18 3f 44 03 1b 3f
       0.59110373 0.60108924 0.5974498 0.6055186
0001f0 98 26 15 3f 59 d8 18 3f 96 f8 1d bf cb 70 17 bf
       0.58262014 0.5970512 -0.6170744 -0.59156483
000200 07 25 1d bf e4 5f 18 bf 81 d9 1d bf 25 da 1a bf
       -0.61384624 -0.5952132 -0.6166001 -0.6048911
000210 2d cc 16 bf ae ca 1d bf 9c ee 1c bf ea f3 17 bf
       -0.589053 -0.6163739 -0.6130159 -0.5935656
000220 fc 59 1f bf b7 dc 16 bf 37 b4 16 bf db f1 14 bf
       -0.6224668 -0.58930534 -0.58868736 -0.5818154
000230 e1 83 18 bf ed 4e 19 bf 7d 27 13 bf be 1e 18 bf
       -0.5957623 -0.59886056 -0.5748213 -0.5942191
000240 97 f4 17 bf dd e2 18 bf fb 77 17 bf 2a fc 1f bf
       -0.5935759 -0.59721166 -0.5916745 -0.62494147
000250 8e 67 1d bf c8 55 20 bf e0 91 19 bf bb 6c 1d bf
       -0.61486137 -0.6263089 -0.5998821 -0.61494035
000260 9f d8 13 bf 8f 14 1f 3f 97 3a 20 3f c3 ff 1a 3f
       -0.5775241 0.62140745 0.625894 0.6054651
000270 92 af 17 3f f2 50 21 3f 87 fb 16 3f fd a4 18 bf
       0.59252274 0.6301414 0.5897755 -0.5962675
000280 9d f6 1e bf 16 68 0e bf 7c 99 17 bf df d2 15 bf
       -0.6209505 -0.5562757 -0.59218574 -0.5852489
000290 73 29 1d bf e4 73 1d 3f 85 e0 15 bf 57 0b 19 3f
       -0.6139137 0.6150496 -0.58545715 0.5978293
0002a0 1e 0b 17 3f ce 69 1a 3f dc 0e 1d 3f c5 4c 1a 3f
       0.5900134 0.60317695 0.613508 0.6027339
0002b0 dc 86 16 3f 60 7b 19 3f 00 82 1c 3f 44 0d 1e 3f
       0.5879953 0.5995388 0.61135864 0.6173899
0002c0 0b 5f 1c 3f 3d 68 17 3f 58 25 20 3f c6 19 15 3f
       0.61082524 0.5914343 0.6255698 0.5824245
0002d0 0e 12 19 3f ec 70 1e 3f 7f 7c 1c 3f b5 63 14 3f
       0.59793174 0.61891055 0.61127466 0.5796464
0002e0 12 bc 18 3f 4c 7e 1b 3f 6f af 12 bf 39 4b 1d bf
       0.5966197 0.6073959 -0.5729894 -0.61442906
0002f0 ce 34 1a bf ec 6f 14 3f 48 6f 17 3f 31 b1 20 3f
       -0.60236824 0.5798328 0.59154177 0.6277037
000300 f1 ca 13 3f bc 3b 17 3f db d0 20 3f 4d 2a 1d 3f
       0.5773154 0.5907552 0.6281869 0.6139267
000310 bc 71 18 3f 39 ec 18 3f 30 56 1e 3f f8 e9 17 3f
       0.59548545 0.5973545 0.6185026 0.59341383
000320 39 7c 1f 3f 70 d1 20 3f 3c bb 1b 3f 49 3a 14 3f
       0.62298924 0.62819576 0.6083257 0.57901436
000330 3d 3b 21 3f a6 1e 15 3f f1 8e 15 3f 21 0a 1f bf
       0.62981015 0.5824989 0.58421236 -0.6212483
000340 88 c9 17 bf 25 e5 1c bf 8d c5 1f bf 40 19 20 bf
       -0.5929189 -0.61287147 -0.62410814 -0.6253853
000350 53 09 1e bf 4b 7e 34 bf e1 4d 23 bf dc 08 14 bf
       -0.6173298 -0.7050521 -0.6379071 -0.5782602
000360 9c ac 1b bf 92 3c 16 bf 4c 1b 13 bf 06 45 1b bf
       -0.60810256 -0.5868617 -0.57463527 -0.60652196
000370 d2 d1 1e bf 8f e6 1f bf be 34 1b bf 0a 2e 16 bf
       -0.6203891 -0.6246118 -0.60627353 -0.58664
000380 19 a8 19 bf 09 5f 1a bf dd 7b 16 bf e6 0d 1e bf
       -0.6002212 -0.6030126 -0.5878275 -0.6173996
000390 98 39 18 bf 25 53 16 bf 13 40 16 bf 2b 60 1b bf
       -0.5946288 -0.5872062 -0.5869152 -0.60693616
0003a0 8b 4b 20 bf 28 29 1a bf ed bb 1e 3f 24 3c 14 3f
       -0.6261527 -0.6021905 0.620055 0.5790427
0003b0 64 88 14 3f bc bd 16 3f 68 06 16 3f 75 9a 17 3f
       0.58020616 0.5888326 0.58603525 0.5922006
0003c0 62 9b 12 3f c8 55 17 3f 30 29 19 3f a6 e5 14 bf
       0.57268345 0.59115267 0.5982847 -0.58162916
0003d0 61 6b 14 bf c5 45 1a bf 70 82 13 bf 2b ac 13 bf
       -0.5797635 -0.6026271 -0.57620907 -0.5768458
0003e0 a3 5b 1f bf 5b 25 1e bf e6 6f 16 bf 82 f6 1d bf
       -0.622492 -0.6177575 -0.58764493 -0.61704266
0003f0 d8 2b 1c 3f 90 be 1c 3f ab 18 1b 3f 45 01 21 3f
       0.610044 0.61228275 0.60584515 0.6289256

module.Conv5.layers.0.bias f4 [64]
000000 02 90 7d bd e3 d3 1f bd d2 5c f9 bd 77 cd bb 3c
       -0.061904915 -0.03902043 -0.12175907 0.022925122
000010 d0 67 c6 bc 66 86 51 bd ba 80 c4 3d 7d 03 e9 3d
       -0.024219424 -0.051153563 0.09594865 0.113776185
000020 4f 19 69 bd 50 67 70 3d 24 41 97 3b dd 94 4f 3d
       -0.0569089 0.058692276 0.0046159197 0.050679076
000030 66 d9 0c bd 2d 8f 9b bd ea 7f 84 3d 86 bd 06 be
       -0.034387015 -0.07595668 0.0646971 -0.13158235
000040 8d 75 6f bd 4d 37 3f bb 73 e0 3b 3d 16 fe 50 bc
       -0.058461715 -0.002917725 0.04586835 -0.012755891
000050 fc df 63 bd cb c6 a8 3d 5d 39 0a 3e 50 87 e0 bd
       -0.05563353 0.08241042 0.13498445 -0.10963309
000060 45 21 b2 bd b3 ed 84 3d 5a 86 ad ba 68 80 cf bd
       -0.08697752 0.0649065 -0.0013238892 -0.101319134
000070 16 c6 e3 ba d4 57 a3 3d 23 ee a5 bc 3b a4 f5 bc
       -0.001737776 0.07975736 -0.020255154 -0.029985538
000080 48 c5 17 3c 2b 7a 34 bc b9 3f 54 bc 16 f0 8c bc
       0.009263344 -0.011015455 -0.012954646 -0.017204326
000090 47 92 4d 3c 13 30 48 bd a6 b9 1c 3e 61 dc c1 bc
       0.012547082 -0.048873972 0.15305194 -0.023664655
0000a0 84 6e a7 bd c4 4f 00 3c b7 ac fe 3b 1c 37 36 3b
       -0.08175376 0.007831518 0.007772054 0.0027803844
0000b0 d4 4b 13 3e bb f9 1d 3e 69 bd 19 3d 25 21 8c bd
       0.14384395 0.15427296 0.03753415 -0.06842259
0000c0 3c e2 08 3e 70 15 5e bd da 7e 17 3d 9a a0 94 3c
       0.13367552 -0.054219663 0.03698621 0.018142987
0000d0 6c 2a 29 3e 6a a5 12 bd c1 23 86 3d e3 0a 5a 3d
       0.16520089 -0.035802282 0.06549788 0.05323304
0000e0 53 13 87 38 3e 63 86 3c b3 14 a0 bc af 0e 22 bb
       6.440901e-05 0.016404744 -0.01954112 -0.002472799
0000f0 0c d1 34 3d 96 2b 38 bc 9f 2f 7e 3d 4f 83 fc bd
       0.044144675 -0.01124086 0.062057134 -0.123297326

module.Conv5.layers.1.weight f4 [64]
000000 70 26 0d 3f da 8a 88 3e 3d 49 a4 3f f5 b9 9f 3f
       0.55136776 0.26668435 1.283485 1.2478625
000010 f0 cd 16 3f 44 c5 b1 3f 35 65 d3 3e 75 71 b8 3f
       0.58907986 1.3888326 0.41288152 1.4409624
000020 f2 98 d8 3f d2 11 83 bd 61 46 59 3f 85 e8 d1 3f
       1.6921675 -0.06399883 0.84873015 1.6399084
000030 8f a0 f9 3f 45 31 0c 40 f9 e9 aa 3f 0a 31 99 3f
       1.9502124 2.1905072 1.3352653 1.196809
000040 09 45 26 40 9c ca 2d 40 bb 82 da 3e 77 70 34 40
       2.5979636 2.7154913 0.42677864 2.8193643
000050 bf 94 75 bd 1e 70 61 3e 22 40 21 3d bb d0 0d 40
       -0.05995631 0.22015426 0.039367802 2.215865
000060 61 f2 9e 3f 23 8a 23 3f ac c4 a8 3f bc 5a a3 3f
       1.2417718 0.63882655 1.318502 1.2762065
000070 cd 1a c8 3f f4 0f 95 3f 56 b6 3c 40 01 67 e8 3f
       1.5633179 1.1645494 2.948629 1.8156434
000080 3b 1f 2f 3e c3 63 55 3f 6d 5c 0d 40 99 a8 81 bf
       0.17101757 0.8335535 2.2087662 -1.0129577
000090 6e dd e2 3f 6a f0 a0 3f 42 d2 58 3f 3a f9 ab 3e
       1.7723825 1.2573369 0.8469583 0.33588582
0000a0 a7 e0 b2 3e ff a7 68 3f 38 13 2e 3f 93 a8 9f 3f
       0.3493702 0.9088134 0.67998075 1.247332
0000b0 9c d6 d0 3e e2 92 4f 3f d2 a8 cc 3e 87 05 24 40
       0.40788734 0.810835 0.3997255 2.5628374
0000c0 e3 38 48 bf dc 4f 73 3f 62 6b 34 3f c4 a7 b5 3e
       -0.782118 0.9504373 0.70476353 0.35479558
0000d0 b0 a2 a0 3e 24 a6 c2 be b8 68 92 bf 50 d6 b6 3e
       0.3137412 -0.3801738 -1.1438208 0.35710382
0000e0 3b a2 1a 40 fb ae 1c bf f8 1f ee 3e c9 07 a2 3f
       2.4161518 -0.612045 0.46508765 1.2658626
0000f0 a9 e9 ef 3f c7 dc d9 3f cb 7a f9 3d 61 bb a3 3f
       1.8743182 1.7020501 0.12181624 1.2791559

module.Conv5.layers.1.bias f4 [64]
000000 c7 e4 7e bf dc da 99 bf af b8 f8 3d 6e 4d 8a 3f
       -0.99567837 -1.2019916 0.121446006 1.080488
000010 bf ce 75 3f 64 bb e5 3f 13 0e 5f bf 97 d0 6b be
       0.96018595 1.7947812 -0.8713085 -0.2302879
000020 c8 f6 bd 3e 7c 00 36 bf 2b 75 74 bf 58 ce 20 3f
       0.37102342 -0.7109449 -0.95491284 0.62814856
000030 db b3 f4 3f 0d 9f a1 3f 3f 5f 8e 3e 03 6e 7d 3f
       1.9117388 1.2626663 0.27807042 0.9899599
000040 83 92 bc 3f e3 d2 46 3f 19 b6 34 bf 86 1f 6a c0
       1.4732212 0.7766554 -0.7059036 -3.658174
000050 49 f6 93 bf 98 3d 09 bf cc 5b c8 bf 5a 30 79 3f
       -1.1559535 -0.5360961 -1.5653014 0.97339404
000060 45 65 be 3c c6 b8 b1 be 18 a3 3f 3e 92 ff ce be
       0.023241648 -0.34711283 0.18714559 -0.4042936
000070 8d d0 65 40 85 91 38 3d fe 1f 2a be f0 31 a2 3f
       3.590854 0.045060653 -0.16613767 1.267149
000080 bc 76 07 bf 08 9e 1a be 0d cf aa 3e 9c 7a 06 be
       -0.5291555 -0.15099347 0.33361092 -0.1313271
000090 9d 02 61 3e 8f d1 59 3c a5 24 dc 3e 43 86 9b bf
       0.21973653 0.013294592 0.42996708 -1.2150348
0000a0 3e ce 7a bf 96 f8 73 be 6b 03 66 bf 39 72 d2 3e
       -0.9797095 -0.23825297 -0.89848965 0.4110277
0000b0 87 cc 35 bf 7c 93 0d be a6 07 20 bf ae 44 8d c0
       -0.7101521 -0.13825792 -0.6251167 -4.4146338
0000c0 4c da 86 bf b7 6e f4 3e 65 24 8a 3f ec 4d a3 bd
       -1.0535369 0.4774072 1.0792357 -0.07973847
0000d0 51 ad 6a bf 2b 58 92 3f be f2 84 bf 14 30 11 bf
       -0.9167071 1.1433157 -1.0386579 -0.56713986
0000e0 b7 ad a6 3f 8c 30 8c 3f ac 67 28 3f 89 89 dc 3e
       1.3021764 1.0952315 0.6578319 0.4307368
0000f0 cb 18 db 3f c2 3e 75 bf bb d6 14 bf 2f 64 90 be
       1.7116941 -0.95798886 -0.5814015 -0.28201434

module.Conv5.layers.1.running_mean f4 [64]
000000 ba 70 5d c3 79 fa 3f c3 05 98 95 41 6c 32 56 43
       -221.44034 -191.97841 18.699228 214.19696
000010 0b 92 35 43 45 95 60 43 23 f9 5d 43 19 b7 07 c3
       181.57048 224.58308 221.97319 -135.71523
000020 88 22 27 43 52 4d f2 42 cd 61 58 c3 5c 6d 58 c3
       167.13489 121.15102 -216.38203 -216.42719
000030 4f cb 81 c2 9b 42 45 c3 a7 f8 43 c3 75 0a 41 c3
       -64.89709 -197.26018 -195.9713 -193.04085
000040 a4 1b 0c c3 43 c0 f1 c2 d2 5b 48 43 0a 19 5b c3
       -140.10797 -120.87551 200.35867 -219.09781
000050 76 95 4e 43 f7 07 3f 43 b4 88 4a c3 68 6a 11 43
       206.58383 191.03111 -202.534 145.41565
000060 68 c6 31 43 8a 1f 47 c3 15 aa 4b c3 e9 64 34 43
       177.77502 -199.1232 -203.66438 180.39418
000070 fa 75 aa 42 03 7b 42 c3 96 04 0f 43 55 f3 b4 c2
       85.23042 -194.48051 143.01791 -90.47526
000080 07 fa d4 42 6d 23 3a c3 5b 68 3d 43 23 4b e9 42
       106.488335 -186.13838 189.40764 116.64675
000090 1c e0 48 c3 b1 d3 48 c3 26 af 17 c3 aa e5 9f 42
       -200.87543 -200.82692 -151.68417 79.94856
0000a0 76 88 24 43 90 77 2c c3 23 66 40 43 3b cd 4f c3
       164.53305 -172.46704 192.39897 -207.80168
0000b0 2d 45 3b 43 dc 93 3c c3 40 c8 4a 43 3e d1 1f c3
       187.27022 -188.57758 202.78223 -159.81735
0000c0 ab 44 46 43 d4 aa 48 c3 e4 89 4b 43 20 5c ff c2
       198.26823 -200.6673 203.53864 -127.67993
0000d0 d7 24 4d 43 96 23 60 be df 37 3c 43 eb 51 e9 42
       205.1439 -0.21888575 188.21825 116.659996
0000e0 78 2c c5 c2 14 cc 9e 42 6f 64 60 43 fa 2f 21 c2
       -98.58685 79.39859 224.39232 -40.296852
0000f0 07 50 6c 43 44 f5 ff 42 e5 d0 f2 42 f4 bb 50 43
       236.3126 127.979034 121.408 208.73419

module.Conv5.layers.1.running_var f4 [64]
000000 a0 51 82 45 a0 3c 78 44 f9 6d 8c 44 f5 a2 ff 44
       4170.203 992.94727 1123.4366 2045.0924
000010 47 dd 90 44 b3 73 b3 44 33 db 1b 45 96 93 15 45
       1158.9149 1435.6156 2493.7 2393.224
000020 f0 eb d7 45 0e 2f 7d 44 d5 d4 00 45 16 d4 d8 45
       6909.492 1012.7352 2061.302 6938.5107
000030 ff 2c c2 45 b2 48 b3 45 10 81 8a 45 2c 01 26 45
       6213.6245 5737.087 4432.133 2656.0732
000040 db b2 2d 45 db 34 9e 45 0e 69 7b 45 5b 0b b0 45
       2779.1785 5062.607 4022.566 5633.4194
000050 78 f7 93 44 66 cc b0 45 ce c0 a8 44 4f 22 17 46
       1183.7334 5657.55 1350.0251 9672.577
000060 c8 70 6d 44 22 4b 80 45 56 c7 79 45 e5 7c e8 44
       949.7622 4105.3916 3996.4585 1859.903
000070 ec 3b 6f 44 d6 69 df 44 6f 56 e9 45 e6 48 cd 45
       956.9363 1787.3074 7466.804 6569.1123
000080 24 98 2e 44 f4 5f 99 45 85 2a c9 45 23 b1 4a 44
       698.3772 4907.994 6437.315 810.76776
000090 15 6e 8a 45 f4 01 01 46 42 27 03 45 42 1a 85 45
       4429.7603 8256.488 2098.4536 4259.282
0000a0 a5 db d1 44 a5 17 aa 45 3f 2a cb 44 a0 34 ae 45
       1678.8639 5442.9556 1625.3202 5574.578
0000b0 c9 d3 ab 45 2e fc ef 44 a7 dd 0d 45 a2 80 e7 43
       5498.473 1919.8806 2269.8533 463.00494
0000c0 a6 12 2e 45 d4 e4 77 45 87 c6 60 45 4f ad 89 45
       2785.1655 3966.3018 3596.408 4405.6636
0000d0 45 6e 8c 45 a2 13 14 45 87 9e 67 45 49 75 6f 44
       4493.7837 2369.227 3705.908 957.8326
0000e0 2e 07 50 45 d5 12 a0 45 75 f5 57 45 4f 1b 1e 45
       3328.4487 5122.354 3455.341 2529.7068
0000f0 be a3 f8 44 77 11 27 44 a3 63 2a 45 2b 7b 5b 45
       1989.117 668.2729 2726.2273 3511.698

module.Conv6.layers.0.weight f4 [64, 128, 3, 3]
000000 9c 9c 17 3f 28 c5 1a 3f bd a9 13 3f a7 e3 16 3f
       0.5922334 0.60457087 0.57680875 0.5894112
000010 65 6e 1b 3f 21 3e 1b 3f f9 56 13 3f b7 15 1d 3f
       0.60715324 0.60641676 0.57554585 0.6136126
000020 00 6a 21 3f c1 da 17 3f 58 c7 15 3f 41 b5 15 3f
       0.6305237 0.59318167 0.585073 0.58479697
000030 8d 9f 1f 3f 35 d6 1d 3f 58 49 1e 3f 1a 4f 13 3f
       0.6235283 0.6165498 0.61830664 0.57542574
000040 ab 77 14 3f 02 47 14 3f 46 ca 13 bf 7b 1e 1c bf
       0.579951 0.5792085 -0.5773052 -0.6098401
000050 db d2 1e bf ca 4d 18 bf 61 5c 1c bf 1a b5 13 bf
       -0.6204049 -0.59493697 -0.6107846 -0.57698214
000060 1f d1 14 bf 26 f2 13 bf 78 46 1c bf dd b1 15 3f
       -0.58131593 -0.57791364 -0.61045027 0.5847452
000070 1e b5 1e 3f b7 ce 1d 3f 32 37 1a 3f 75 89 12 3f
       0.6199511 0.61643547 0.6024047 0.5724099
000080 f6 e3 1c 3f 03 63 1a 3f 54 c2 1b 3f d9 d7 12 3f
       0.6128534 0.6030733 0.60843396 0.5736061
000090 60 29 16 3f 69 c7 1a 3f e3 f1 12 3f 3d ac 12 3f
       0.58656883 0.60460526 0.5740034 0.57294065
0000a0 d1 65 1a 3f f6 fc 16 3f e2 08 17 3f 51 d9 19 3f
       0.6031161 0.5897974 0.5899793 0.60097224
0000b0 a3 41 14 3f 79 c6 16 3f 8b ef 1e 3f f3 cb 21 3f
       0.57912654 0.58896595 0.62084264 0.63201827
0000c0 f3 d2 18 3f f3 22 1c 3f ee 97 16 3f 68 98 1b 3f
       0.5969688 0.6099083 0.58825576 0.6077943
0000d0 8b 69 1e 3f 12 17 21 3f fb ef 1f 3f ce e6 20 3f
       0.61879796 0.6292583 0.62475556 0.6285218
0000e0 ac 84 1c 3f 54 06 13 3f e1 2a 1f 3f f9 9a 13 3f
       0.6113994 0.5743153 0.62174803 0.57658345
0000f0 44 91 19 3f ef 29 1a 3f 90 c9 1a 3f 4b 92 20 bf
       0.5998728 0.60220236 0.6046381 -0.62723225
000100 c4 62 17 bf c6 c2 1c bf e8 78 22 bf 7e 07 18 bf
       -0.5913508 -0.612347 -0.6346574 -0.5938643
000110 43 c5 1d bf 6d 6c 1f bf f2 7e 16 bf d9 13 20 bf
       -0.6162912 -0.6227482 -0.58787453 -0.62530285
000120 ea 03 13 bf 1e 87 16 bf 9c bf 1b bf 53 06 1c bf
       -0.5742785 -0.5879992 -0.6083925 -0.6094715
000130 00 25 16 bf 22 00 1e bf d6 54 1f bf 0b 8c 1b bf
       -0.5865021 -0.6171895 -0.62238824 -0.60760564
000140 51 39 13 bf 12 53 18 3f 5f ff 1e 3f 78 6a 20 3f
       -0.5750933 0.59501755 0.62108415 0.6266246
000150 8b 62 18 3f 91 fb 14 3f 1f fe 16 3f 4c 69 1b 3f
       0.59525365 0.5819636 0.5898151 0.60707545
000160 89 40 12 3f b3 f8 1a 3f a2 28 21 3f a5 7f 21 3f
       0.5712972 0.60535735 0.62952626 0.63085395
000170 62 d2 2c 3f 96 24 15 3f 2c e4 1f 3f 43 4e 18 3f
       0.6750852 0.5825895 0.6245754 0.5949442
000180 c0 6f 1b 3f 98 00 18 3f d3 63 16 3f 52 08 1f 3f
       0.6071739 0.59375906 0.5874607 0.6212207
000190 c6 5c 14 3f da e1 1d 3f c2 bc 1a 3f cd 67 16 3f
       0.5795406 0.6167275 0.6044427 0.5875214
0001a0 4f eb 15 3f 13 e4 18 3f e7 b0 1a 3f b5 08 15 3f
       0.5856218 0.59723014 0.6042618 0.5821641
0001b0 64 04 17 3f 7e 76 1a 3f e3 33 1d 3f 35 ae 15 3f
       0.58991075 0.60337055 0.614073 0.58468944
0001c0 ec 10 1b 3f 78 af 14 3f dd 2a 1d 3f d4 37 20 3f
       0.60572696 0.58080244 0.6139353 0.62585187
0001d0 bb 5b 1c 3f 01 d3 11 3f 81 82 12 3f be 70 20 3f
       0.6107747 0.5696259 0.57230383 0.6267203
0001e0 de eb 19 3f fe d8 16 3f 19 fa 11 3f 70 10 1f 3f
       0.6012553 0.58924854 0.57022244 0.62134457
0001f0 46 4a 20 3f 3a 45 13 3f 90 a8 24 bf 6c 15 1c bf
       0.6261333 0.57527506 -0.64319706 -0.6097019
000200 05 22 1f bf 63 2a b2 3d d4 56 2a bf 83 3a 1a bf
       -0.62161285 0.08699491 -0.6653874 -0.6024553
000210 ce b5 1d 3f d1 5e 1c 3f 5e 6a 1d bf e2 38 11 bf
       0.61605537 0.6108218 -0.6149043 -0.5672742
000220 7e 5a 11 bf 1e 87 53 be 18 8d 10 bf ca 58 15 bf
       -0.56778705 -0.20657012 -0.5646529 -0.58338606
000230 be a4 0f bf 98 c0 18 bf 90 d0 1c bf 39 4a 17 bf
       -0.5611075 -0.59668875 -0.6125574 -0.5909763
000240 0e 59 18 3f 82 bd 19 3f 88 9b 19 3f 6d 59 15 3f
       0.59510887 0.6005479 0.60002947 0.5833958
000250 af 01 1c 3f 26 27 12 3f 3e 49 15 3f ab d6 18 3f
       0.6094007 0.57090986 0.58314884 0.5970256
000260 d4 a2 16 3f 3c 9b 15 3f e3 71 19 3f 18 1a 1d 3f
       0.58842206 0.58439994 0.599394 0.6136794
000270 88 ee 1f 3f 6b ce 19 3f 03 f3 11 3f 64 34 17 3f
       0.62473345 0.60080594 0.5701143 0.59064317
000280 3c 00 17 3f 96 d1 1d 3f 84 19 1b 3f 53 e8 16 3f
       0.5898473 0.6164793 0.6058581 0.5894825
000290 26 91 16 3f 9a f7 17 3f b2 45 18 3f 19 98 19 3f
       0.5881523 0.59362185 0.59481347 0.5999771
0002a0 25 11 17 3f 62 dc 15 3f d2 3f 19 3f 5a cb 20 3f
       0.59010535 0.585394 0.5986301 0.6281029
0002b0 d5 b1 15 3f b6 c1 1b 3f 0a a5 18 3f 23 42 17 3f
       0.58474475 0.60842454 0.5962683 0.5908529
0002c0 61 e3 1f 3f 96 f9 1d 3f e7 d9 18 3f 66 f1 1d 3f
       0.6245633 0.6170896 0.5970749 0.6169647
0002d0 96 a3 1d bf 8f 7e 1f bf b4 19 14 bf d0 61 1d bf
       -0.6157774 -0.6230249 -0.5785172 -0.61477375
0002e0 23 b7 1d bf 9a f5 1d bf c4 75 1f bf 1e 4c 16 bf
       -0.6160757 -0.61702883 -0.6228907 -0.58709896
0002f0 a8 07 16 bf 16 23 1b 3f 3b 8e 12 3f 0e 33 13 3f
       -0.5860543 0.6060041 0.57248276 0.5749978
000300 ac f8 1d 3f 75 08 18 3f 8a d5 1a 3f ed c1 20 3f
       0.6170757 0.59387904 0.60482085 0.6279591
000310 f6 a2 15 3f db b0 1e 3f 1a 91 1a 3f 9e 47 21 3f
       0.58451784 0.6198861 0.6037766 0.62999904
000320 0f 0b 14 bf 54 2c 1d 3f 2c 0e 21 3f 78 b1 17 3f
       -0.57829374 0.61395764 0.6291225 0.5925517
000330 57 f3 12 3f a8 63 18 3f b3 8f 14 3f 61 06 15 bf
       0.5740256 0.59527063 0.5803177 -0.5821286
000340 1f e0 12 bf 3c 43 10 bf 6b 83 1b bf a3 bc 1c bf
       -0.5737323 -0.5635259 -0.607474 -0.61225337
000350 7a a0 1e bf 48 78 20 bf 1d 1f 13 bf 38 49 17 bf
       -0.6196362 -0.62683535 -0.5746935 -0.590961
000360 88 8c 15 bf 9d 7a 15 bf d8 6c 20 bf 13 5f 1d bf
       -0.5841756 -0.5839022 -0.6266608 -0.61473197
000370 85 8a 15 bf 03 83 1d bf f2 25 1a bf 7b 50 1e bf
       -0.5841449 -0.61528033 -0.6021415 -0.61841553
000380 62 7b 1f bf 92 9c 1e bf 71 3e 21 bf f3 08 1b bf
       -0.6229764 -0.6195766 -0.62985903 -0.6056053
000390 8b 92 17 bf 60 3f 16 bf fa 61 19 bf 7f b9 1e bf
       -0.5920798 -0.5869045 -0.59915125 -0.62001795
0003a0 27 4e 13 bf 5b 86 1d bf 49 d9 19 3f d0 c7 19 3f
       -0.57541126 -0.61533135 0.60097176 0.60070515
0003b0 d0 e9 1f 3f aa 12 16 3f 8b f1 1b 3f 02 86 19 3f
       0.62466145 0.5862223 0.6091544 0.59970105
0003c0 1e 6e 1c 3f 34 2e 20 3f ce 64 12 3f fb 57 14 bf
       0.61105525 0.625705 0.57185066 -0.5794675
0003d0 7d ef 18 bf 2b 42 1e bf 79 1f 1d bf 84 3d 20 bf
       -0.5974043 -0.61819714 -0.6137615 -0.62593865
0003e0 1a 9d 19 bf 05 e2 1f bf 90 37 20 bf 49 06 19 bf
       -0.6000534 -0.62454253 -0.6258478 -0.59775215
0003f0 bf f2 14 3f a8 d4 13 3f 11 45 18 3f 19 18 1f 3f
       0.581829 0.5774636 0.59480387 0.62146145

module.Conv6.layers.0.bias f4 [64]
000000 cc 41 45 3d 95 90 97 bd e9 56 17 bd b5 ad 4e 3d
       0.048158452 -0.07400624 -0.03694812 0.05045863
000010 03 15 51 3c 3c e7 86 bd 86 1e de 3c 10 09 c4 bd
       0.012761357 -0.06587073 0.027114164 -0.09572041
000020 08 66 40 3d 7b 3d b1 3c 5d e1 61 bd 76 ea b8 3d
       0.046972305 0.021635761 -0.055146564 0.09029095
000030 6d 9e a4 be 0a 2a 83 3c ea 0e d0 3b c8 65 ec bd
       -0.3215212 0.016011257 0.006349434 -0.11542851
000040 c0 ce 7c bd b5 d4 f3 bd 62 26 08 be 30 c6 e5 3d
       -0.06172061 -0.11905805 -0.13295892 0.11219442
000050 26 88 f6 3d 22 0b ba 3d 3f 3a 4a bd f4 4c e9 bd
       0.12037687 0.09084155 -0.049371954 -0.11391631
000060 66 c8 3e 3e 92 d5 16 3e 34 07 d6 3c a1 97 9d 3c
       0.18631133 0.14729908 0.026126482 0.019237341
000070 cf bc b7 3d 60 3c 51 bd d4 2a 18 3d aa 90 db 3c
       0.08971559 -0.05108297 0.03715022 0.02680238
000080 75 eb 6a 3c 47 e7 12 bc dc c6 71 3d da bc 56 3d
       0.014338364 -0.008966274 0.059027538 0.052426197
000090 0b 5f 7f bb 56 fe cc 3d 4d 03 dc 3d 76 34 8e 3e
       -0.0038966562 0.10009448 0.10742817 0.277744
0000a0 d5 69 1c 3d 7f 30 00 bd ae 75 87 3d 96 e0 fc bc
       0.038186867 -0.03129625 0.066142425 -0.03086881
0000b0 7e 8c b2 bd ef c4 15 3d 8f 22 3f be 93 6b 7a 3d
       -0.08718203 0.036564764 -0.18665527 0.061137747
0000c0 99 21 5e 3d 45 45 b7 3c 55 6b 81 bc 16 f9 a0 bc
       0.05423126 0.022371897 -0.01579825 -0.019650023
0000d0 1c 28 4c bd 79 cc 10 be 25 70 3c 3d 4f 32 7e 3e
       -0.04984294 -0.141405 0.046005387 0.24823879
0000e0 bc d3 a5 bd dc cd 79 3d 7f 9f e2 3d 76 05 64 3d
       -0.08097026 0.06098734 0.11065578 0.05566927
0000f0 5d a3 51 3e 0b 26 26 3e ac c5 2d be 93 f9 c0 bc
       0.20472474 0.1622545 -0.16969937 -0.023556506

module.Conv6.layers.1.weight f4 [64]
000000 74 24 33 3f 3a 89 01 3f b7 f4 b2 3f b6 cd 67 3f
       0.699775 0.50600016 1.3980931 0.90548265
000010 49 4b 62 3f d7 04 c9 3f 3d ee fc 3e c8 e8 88 3f
       0.88396126 1.5704602 0.4940051 1.0696039
000020 a3 00 58 3f 37 20 53 3f f6 9f c5 3e 43 66 f5 3e
       0.8437597 0.8247103 0.38598603 0.47929582
000030 97 5c 28 3f 07 a1 72 3f df d3 69 3e 84 69 ff 3e
       0.6576628 0.9477696 0.22834729 0.4988519
000040 1b 41 80 3f a8 1c 51 3f 7e dd 93 3f 2a d9 9a 3f
       1.0019869 0.8168435 1.1551969 1.2097523
000050 2b 5c 94 3f 5e ba c2 3f 6b 29 4b 3f e0 d2 87 3f
       1.1590627 1.5213125 0.79360074 1.0611229
000060 d3 53 f8 3e 35 33 c2 3f 9e e4 9f 3f 2d 4a 1d 3f
       0.48501453 1.5171877 1.2491643 0.6144131
000070 4e 88 38 3f 35 b2 15 3f ea 38 7c 3f d3 d8 88 3f
       0.72082984 0.5847505 0.98524344 1.069117
000080 bd d9 ad 3e 83 b4 be 3e 16 88 86 3f cc e3 95 3f
       0.33955184 0.37247095 1.051028 1.1710143
000090 41 1e 0a 3f 40 bc b4 3f e1 82 d7 3e 06 5a a7 3f
       0.53952414 1.4119949 0.4209204 1.3074348
0000a0 24 c8 a0 3f 5d 27 43 3f 1d c6 ca 3d b1 cc 43 3f
       1.2561078 0.7623194 0.09901068 0.7648421
0000b0 16 06 c0 3f ff ae 04 40 3a af c9 3f 11 71 6a be
       1.5001857 2.073181 1.57566 -0.22894694
0000c0 fd 16 47 3f a5 eb 12 3e d6 fa 1b 3f 9d fd 8e 3f
       0.7776945 0.14347704 0.6092962 1.1171147
0000d0 f8 34 98 3f e8 91 6e 3f 72 2a f4 3e 52 04 c4 3f
       1.1891165 0.93191385 0.47688633 1.5313818
0000e0 3b d6 15 3f 5a 0d 84 3f 3d 5a 17 3f 29 6e 66 bf
       0.58530015 1.0316575 0.5912207 -0.9001184
0000f0 03 cb 01 3f a9 f8 b5 3e 6a 53 a3 3f fa 4e b9 3f
       0.50700396 0.35541275 1.2759831 1.4477227

module.Conv6.layers.1.bias f4 [64]
000000 1e 05 da bf 5f fd 1c bf a9 47 33 3f 36 4c ad 3f
       -1.7032812 -0.61324114 0.7003122 1.3538883
000010 a4 d5 e9 3f ff de 09 3f 28 29 90 3f 1d e4 fc 3f
       1.8268323 0.5385589 1.126256 1.9757115
000020 4d b1 fc 3f f3 2f 91 bf 11 67 24 3f d3 a1 81 bf
       1.9741608 -1.1342758 0.64219767 -1.012751
000030 e4 37 a3 be 19 ce f2 3f de bc 2e 3f e5 54 a4 bf
       -0.3187858 1.8969146 0.6825694 -1.2838408
000040 9a d7 46 40 c6 f6 23 c0 36 31 8e 3f e6 ce 15 40
       3.1069093 -2.5619369 1.1108768 2.340753
000050 58 02 0b c0 df 65 12 3f ba e6 b4 bf 9e 8e 99 3f
       -2.172018 0.5718669 -1.4132912 1.1996648
000060 e5 db 14 bf 02 c5 21 3f 6a 83 90 3f 22 67 3c bf
       -0.5814803 0.63191235 1.1290104 -0.7359487
000070 27 ce e0 bf d5 20 ad bf 4e 26 ec 3f 4e 55 1a 40
       -1.7562913 -1.3525645 1.844919 2.4114566
000080 7c 2a 7d 3f ee c6 8c 3f 73 ce f8 bf df 32 21 40
       0.9889295 1.0998209 -1.9438003 2.51873
000090 4f b9 f5 3e 0e 21 1e 3f 8f 1b 62 bf 37 40 f7 3f
       0.47992942 0.6176919 -0.883233 1.9316472
0000a0 c6 e5 71 c0 e0 f7 c2 bf 9d 8d 2a bf 7f 5e 1c 40
       -3.7796493 -1.5231895 -0.66622335 2.4432676
0000b0 db fe 33 3f e4 2a 95 40 da fe 0e 3f d2 01 59 3f
       0.70310754 4.6614857 0.5585762 0.847684
0000c0 12 b4 a3 bf b3 df 01 bf 2c 9d 2f bf dd 4f 96 3f
       -1.2789328 -0.5073196 -0.685992 1.1743122
0000d0 a7 35 e4 3f ae 1d f3 3f 77 f7 12 bf 1e 18 0f 3f
       1.7828873 1.8993433 -0.5740885 0.55896175
0000e0 22 01 f1 be 5e 35 3d c0 95 78 a9 bf d9 31 9e 3e
       -0.47071177 -2.9563823 -1.3239924 0.30897406
0000f0 2b 3b 91 bf 94 a0 0f bf 1f ed cb 3f 56 d4 95 40
       -1.1346182 -0.561044 1.5931739 4.68217

module.Conv6.layers.1.running_mean f4 [64]
000000 39 08 2a 43 98 54 1a c3 97 11 2b 43 06 e5 36 c3
       170.03212 -154.33044 171.06871 -182.89462
000010 28 3b 26 c3 74 9e 43 43 3d 20 1c 43 a1 50 1d 43
       -166.23108 195.61896 156.12593 157.31496
000020 85 ff 11 43 82 46 88 42 14 7a 47 43 02 3a 25 43
       145.99812 68.13771 199.47687 165.2266
000030 00 2f 0c c3 21 2e 1e c3 f1 f8 30 43 21 ab 22 43
       -140.1836 -158.18019 176.97243 162.66847
000040 50 15 2e c3 3b 68 15 43 b1 48 c2 c2 8f 76 17 c3
       -174.08325 149.40715 -97.141975 -151.46312
000050 ba 1c 22 43 18 26 43 43 25 b0 14 43 e3 e2 cf c2
       162.11221 195.1488 148.68806 -103.94314
000060 d5 49 34 c3 40 c7 2c 43 53 81 28 43 2f 97 16 c3
       -180.2884 172.77832 168.50517 -150.59056
000070 ca e8 21 43 e5 8d 40 43 9a a7 16 c3 ff aa 20 c3
       161.90933 192.55428 -150.6547 -160.66795
000080 69 e4 1f 43 e0 6a 30 43 83 5f 1a 43 42 f6 1e c3
       159.89223 176.41748 154.3731 -158.96194
000090 fd b6 2c c3 ec 59 31 43 e4 73 19 43 b1 c4 1a 43
       -172.7148 177.35126 153.4527 154.76833
0000a0 dc 2b 35 43 f9 c1 2c 43 da 63 d6 c2 96 db 27 c3
       181.17133 172.7577 -107.19502 -167.85776
0000b0 b6 e7 30 43 c3 02 05 c3 83 15 39 43 ce 66 bd c2
       176.90512 -133.01079 185.08403 -94.70079
0000c0 3f 1b 20 43 6e 2d 51 c3 57 e4 17 c2 18 fb 5f c3
       160.10643 -209.17746 -37.97299 -223.98083
0000d0 a8 c1 3e c3 41 d9 15 c3 81 40 2a c3 e0 84 2d 43
       -190.75647 -149.84865 -170.25197 173.51904
0000e0 d0 9f 2e c3 9e d3 16 43 e5 4c 0f 43 b5 8f 37 43
       -174.62427 150.82663 143.30037 183.56136
0000f0 cd 23 11 43 54 59 4e c3 b8 0d 19 c3 fe fc 2f c3
       145.13985 -206.34894 -153.05359 -175.98825

module.Conv6.layers.1.running_var f4 [64]
000000 77 11 b8 45 7d 10 7f 45 5a 21 cd 45 e1 b1 40 45
       5890.183 4081.0305 6564.169 3083.1174
000010 7a 5d 93 45 d1 d1 cc 45 57 17 cf 45 4d b3 8e 45
       4715.6846 6554.227 6626.9175 4566.4126
000020 8c 8e 90 45 ef a5 3f 46 17 a8 ef 45 d3 40 24 45
       4625.8184 12265.483 7669.011 2628.0515
000030 f1 d9 4e 45 9f ca 83 45 6d 1e 0b 46 e9 cc d5 45
       3309.6213 4217.3276 8903.606 6841.614
000040 d6 1d b9 45 18 1c 0a 46 d3 cf 25 45 a9 b3 71 45
       5923.7295 8839.023 2652.989 3867.2288
000050 9d a8 89 45 98 1c d0 45 0a ca 76 45 29 eb 25 45
       4405.0767 6659.574 3948.6274 2654.6975
000060 d6 60 20 46 5b 48 e6 45 f6 51 a6 45 b8 3e 0e 46
       10264.209 7369.0444 5322.245 9103.68
000070 73 66 b0 45 41 60 a5 45 18 86 98 45 82 ce fa 45
       5644.806 5292.0317 4880.7617 8025.8135
000080 11 c4 b3 45 ef 9c d5 45 2e 1b 63 45 4e b1 7d 45
       5752.5083 6835.6167 3633.6987 4059.0815
000090 1b a8 17 46 01 04 06 46 cf 01 a5 45 3f 91 79 45
       9706.026 8577.001 5280.226 3993.078
0000a0 9f 39 01 46 72 06 e2 45 e8 bd 05 46 cb 3a f2 45
       8270.405 7232.8057 8559.477 7751.349
0000b0 8f 58 d3 45 72 5a 53 46 f1 aa ea 45 9a ca 92 45
       6763.07 13526.611 7509.3677 4697.325
0000c0 9a 74 8a 45 c6 0f ce 45 66 73 14 45 26 f3 fb 45
       4430.575 6593.9717 2375.2124 8062.3936
0000d0 6f 8d 1b 46 d0 0d 8b 45 35 a6 ff 45 80 40 d2 45
       9955.358 4449.7266 8180.776 6728.0625
0000e0 02 69 e5 45 f1 ea 09 46 50 5e 83 45 6c c4 1e 46
       7341.126 8826.735 4203.789 10161.105
0000f0 52 74 bb 45 63 ef e7 45 1d 71 c9 45 34 31 a9 45
       5998.54 7421.9233 6446.139 5414.1504

module.Conv7.layers.1.weight f4 [1, 128, 3, 3]
000000 70 eb 15 bf a1 cf 17 bf fd f7 13 bf d9 aa 16 bf
       -0.58562374 -0.5930119 -0.57800275 -0.5885444
000010 a9 03 16 bf 47 5b 19 bf 7f 57 2d bf a3 82 21 bf
       -0.58599335 -0.59904903 -0.67711633 -0.6308996
000020 35 15 28 bf ca e4 15 3f 9e 57 19 3f ae a2 16 3f
       -0.6565736 0.5855223 0.5989932 0.5884198
000030 8d 07 18 3f 4c f5 14 3f d5 57 16 3f 9c 3d 1a 3f
       0.5938652 0.58186793 0.5872777 0.6025026
000040 a6 aa 17 3f 65 59 13 3f ac 38 19 3f 47 eb 1d 3f
       0.59244764 0.5755828 0.598521 0.6168713
000050 94 e0 18 3f 9d 2d 14 3f 4b b0 1c 3f a1 89 16 3f
       0.5971768 0.578821 0.612065 0.58803755
000060 f9 b6 1d 3f 33 87 1d 3f 26 ba 17 3f 4e 42 18 bf
       0.6160732 0.6153442 0.59268415 -0.5947617
000070 bf ac 1c bf c2 27 1b bf a8 01 1f bf 35 13 19 bf
       -0.6120109 -0.6060754 -0.621119 -0.5979493
000080 6c 6e 19 bf 7e e5 15 bf 1a bd 12 bf 7a 0f 19 bf
       -0.59934115 -0.585533 -0.57319796 -0.5978924
000090 ab ea 1c bf cb 1f 21 bf e4 35 0d bf f2 c0 1c bf
       -0.61295575 -0.6293914 -0.55160356 -0.6123191
0000a0 a8 24 20 bf bc 61 16 bf 88 25 12 bf 5a 29 1f bf
       -0.62555933 -0.5874288 -0.5708852 -0.6217247
0000b0 46 6f 18 bf 66 61 1f 3f 2b 42 20 3f 0a b9 1f 3f
       -0.5954479 0.62257993 0.62600964 0.6239172
0000c0 93 62 1b 3f 7a b6 20 3f 9e 6d 16 3f cf cb 1a 3f
       0.6069729 0.6277844 0.5876101 0.6046724
0000d0 2f b9 12 3f 20 59 1b 3f cb 26 19 3f 1a a7 16 3f
       0.5731382 0.6068287 0.5982482 0.58848727
0000e0 93 3a 1b 3f 92 a6 1d 3f 02 fd 12 3f 75 28 1d 3f
       0.6063625 0.6158229 0.5741731 0.6138986
0000f0 71 4c 18 3f e1 f3 1c 3f 47 c5 11 3f 5b 80 1c 3f
       0.5949164 0.6130963 0.56941646 0.61133355
000100 63 b4 12 3f e5 56 11 3f 46 9f 17 3f 68 e4 1f 3f
       0.573065 0.56773216 0.59227407 0.62457895
000110 e5 0f 1e 3f c8 4c 15 3f 5b 1d 1a 3f 65 26 1e 3f
       0.61743003 0.58320284 0.6020104 0.61777335
000120 87 2b 12 3f 3a 94 1a 3f 8f 95 18 3f 79 7b 1e 3f
       0.5709767 0.60382426 0.5960321 0.61907154
000130 be 36 13 3f c3 be 1a 3f c2 85 15 3f ef 3c 17 3f
       0.57505405 0.6044733 0.58407223 0.5907735
000140 0b 97 1b 3f 96 2a 20 bf e0 31 14 bf 6e 83 12 bf
       0.6077735 -0.6256498 -0.57888603 -0.57231796
000150 f2 b5 18 bf 7c c8 1a bf d7 6d 16 bf 08 a9 1a bf
       -0.59652627 -0.60462165 -0.5876135 -0.6041417
000160 c0 ac 17 bf 33 44 1a bf f2 21 17 3f 65 dd 17 3f
       -0.5924797 -0.60260314 0.5903617 0.59322196
000170 8a e0 12 3f ae 5f 1c 3f a1 ec 1a 3f 36 2f 1f 3f
       0.5737387 0.61083496 0.6051732 0.62181413
000180 7a b8 16 3f 89 11 1b 3f ff 00 13 3f c1 a1 15 bf
       0.5887524 0.6057363 0.57423395 -0.5844994
000190 36 af 17 bf 82 76 20 bf ff 68 14 bf 00 68 16 bf
       -0.59251726 -0.6268083 -0.5797271 -0.5875244
0001a0 e6 4a 13 bf bd 49 16 bf 96 0f 1e bf e4 e9 18 bf
       -0.5753616 -0.58706266 -0.6174253 -0.5973189
0001b0 e0 bc 14 3f 7b ed 16 3f 68 36 17 3f b7 82 13 3f
       0.581007 0.58956116 0.5906739 0.5762133
0001c0 70 68 14 3f a4 39 15 3f ea 6e 1c 3f ea 88 18 3f
       0.5797186 0.5829108 0.6110674 0.59583914
0001d0 c9 13 1e 3f 82 22 16 bf 4a fc 16 bf b1 84 16 bf
       0.6174894 -0.58646405 -0.5897871 -0.5879622
0001e0 a7 44 1b bf 0b 05 1f bf d8 e7 1e bf 87 f9 17 bf
       -0.6065163 -0.6211707 -0.62072515 -0.59365124
0001f0 b3 66 1f bf e1 5c 18 bf b3 6d 16 3f 6c c1 19 3f
       -0.6226608 -0.5951672 0.5876114 0.60060763
000200 21 18 13 3f dd 9e 1f 3f b4 e6 15 3f d2 c5 1a 3f
       0.5745869 0.6235178 0.5855515 0.604581
000210 6b 73 17 3f 2e 60 15 3f f3 7c 16 3f 79 00 1d bf
       0.5916049 0.58349884 0.5878441 -0.61328846
000220 8c ff 1a bf 53 5c 19 bf 51 97 13 bf 35 2b 14 bf
       -0.60546184 -0.599065 -0.57652766 -0.5787843
000230 a0 9f 1d bf 86 ae 1a bf 7d 2b 17 bf 61 4a 13 bf
       -0.61571693 -0.6042255 -0.5905073 -0.5753537
000240 0b d9 11 bf 53 d7 1d bf c8 69 16 bf 19 10 22 bf
       -0.56971806 -0.61656684 -0.5875516 -0.63305813
000250 33 a6 22 bf 3d f4 21 bf 35 1f 0f bf 49 5d 1d bf
       -0.6353485 -0.63263303 -0.55906993 -0.61470467
000260 df 7c 1b bf f5 4b 15 bf aa e7 19 bf 5a c3 15 bf
       -0.60737413 -0.58319026 -0.60119116 -0.5850121
000270 d7 8c 16 bf db 85 1e bf b3 6f 1d bf 36 0d 15 bf
       -0.58808655 -0.61923 -0.61498564 -0.58223283
000280 de d1 1b bf 28 dc 1e bf da 15 1f bf e1 8f 1a bf
       -0.60867107 -0.6205468 -0.6214272 -0.6037579
000290 ef ee 1c bf 46 5b 11 bf 99 7e 1c bf ba 56 17 bf
       -0.61302084 -0.567799 -0.6113067 -0.5911671
0002a0 fd f3 1a bf 07 ed 1c bf 9f dc 18 bf f9 44 1f bf
       -0.60528547 -0.61299175 -0.5971164 -0.6221462
0002b0 0a 09 1a bf a3 d0 19 bf b6 82 1e bf 9c 44 22 bf
       -0.6017004 -0.6008398 -0.619182 -0.6338594
0002c0 e3 dd 1d bf bf a6 12 bf 6a 4e 1c bf 58 2d 10 bf
       -0.616667 -0.57285684 -0.6105715 -0.5631919
0002d0 95 04 17 bf ba 8d 20 bf ad d7 16 bf 80 02 16 bf
       -0.58991367 -0.6271626 -0.58922845 -0.58597565
0002e0 64 1a 15 bf 2d dc 25 bf 97 90 1c bf a6 02 28 bf
       -0.58243394 -0.64789087 -0.61158127 -0.6562904
0002f0 c2 1a 22 bf be 13 1a 3f 08 01 1b 3f 43 38 1a 3f
       -0.6332208 0.60186374 0.6054845 0.602421
000300 e6 bb 1b 3f 16 a8 17 3f 17 5d 18 3f e3 d3 15 3f
       0.60833585 0.59240854 0.59517044 0.5852644
000310 d1 5c 20 3f 70 bc 1d 3f c6 b4 18 bf 5c 10 15 bf
       0.62641627 0.6161566 -0.5965084 -0.5822809
000320 5b ad 17 bf 5d fc 15 bf 94 56 13 bf c2 4d 1d bf
       -0.59248894 -0.585882 -0.5755398 -0.61446774
000330 87 b5 14 bf 81 c9 1d bf 9d a9 20 bf 22 be 1c bf
       -0.5808949 -0.61635596 -0.6275881 -0.6122762
000340 34 44 1c bf 92 47 1e bf da cb 1c bf d2 03 12 bf
       -0.6104157 -0.6182796 -0.6124855 -0.5703708
000350 57 0c 14 bf a8 10 15 bf 24 2b 18 bf ae c3 1c bf
       -0.5783133 -0.5822854 -0.5944083 -0.61236084
000360 4f b9 1a 3f a2 3a 14 3f 16 61 14 3f 80 44 18 3f
       0.6043901 0.57901967 0.5796064 0.5947952
000370 86 06 17 3f c1 ce 1a 3f eb b8 16 3f 24 35 13 3f
       0.5899433 0.6047173 0.5887591 0.5750296
000380 01 be 15 3f 42 43 18 3f df a7 16 3f 2d 96 1c 3f
       0.5849305 0.5947763 0.588499 0.6116665
000390 8e 4a 1a 3f e6 d9 18 3f 6e 69 1b 3f 9b 03 1e 3f
       0.6027001 0.59707487 0.6070775 0.6172425
0003a0 91 63 1d 3f 98 c0 1f 3f d7 01 1e 3f 11 1f 18 3f
       0.6148005 0.6240325 0.6172156 0.59422404
0003b0 cf e8 17 3f 5f 41 1d 3f 6e f5 19 3f 69 eb 1a 3f
       0.5933961 0.61427873 0.6014012 0.6051546
0003c0 af 6a 16 3f ee 3d 18 3f 8c c3 18 3f ce c4 1a 3f
       0.58756536 0.594695 0.5967338 0.6045655
0003d0 be 7e 1c 3f 23 05 19 3f 9d b7 15 3f 48 64 12 3f
       0.61130893 0.59773463 0.58483297 0.5718427
0003e0 77 0d 1f 3f 51 5a 16 3f e8 23 17 3f 6c 72 1a 3f
       0.6212992 0.5873156 0.59039164 0.60330844
0003f0 76 bf 19 bf c7 7c 17 bf 99 ea 14 bf fb 01 1a bf
       -0.6005777 -0.5917477 -0.5817047 -0.6015927
