DIDFuse/saved_models/decoder/IR_AE23.pth (torch, 604881 bytes, 13 tensors)

module.Conv5.layers.0.weight f4 [64, 128, 3, 3]
000000 b9 b0 18 3f 58 7b 13 3f d7 22 13 3f 11 d2 1d 3f
       0.5964466 0.5761008 0.57475036 0.6164866
000010 60 75 20 3f 11 2d 1a 3f 35 1c 1f 3f 5d 54 13 3f
       0.626791 0.60225016 0.62152416 0.57550603
000020 3e 6d 1a 3f 13 b6 1a 3f 41 fe 12 3f 94 f5 1a 3f
       0.6032294 0.60434073 0.5741921 0.6053097
000030 43 f8 16 3f 03 d0 1f 3f 27 fc 1a 3f b8 5f 12 3f
       0.5897257 0.62426776 0.60541004 0.57177305
000040 bc 4a 19 3f 63 25 18 3f c7 3f 1e 3f c9 be 17 3f
       0.5987966 0.5943205 0.61816067 0.5927549
000050 a5 51 19 3f 78 b5 12 3f cb bd 1d 3f 40 be 1d 3f
       0.59890205 0.5730815 0.61617726 0.61618423
000060 16 e5 17 3f b9 28 13 3f d7 83 1b 3f 49 41 14 3f
       0.5933393 0.5748401 0.60748047 0.5791212
000070 3d f1 1c 3f be 8e 15 3f e8 27 17 3f 10 a1 15 3f
       0.613056 0.5842093 0.5904527 0.58448887
000080 03 d7 17 3f d0 8b 1f 3f 79 59 1c 3f 7b 92 1a 3f
       0.59312457 0.6232271 0.61074024 0.6037976
000090 ea de 1b 3f 2e b6 1b 3f e8 13 1e 3f 03 a5 16 3f
       0.60887015 0.6082486 0.61749125 0.5884554
0000a0 45 46 12 3f c3 a1 15 3f 24 d3 1f 3f 9a de 11 3f
       0.5713847 0.58449954 0.6243155 0.5698029
0000b0 57 e0 17 3f 38 c5 1a 3f 63 d0 17 3f 02 4f 14 3f
       0.5932669 0.6045718 0.5930235 0.57933056
0000c0 91 cc 19 3f 1d 04 1d 3f a8 7b 20 3f 17 83 12 3f
       0.6007777 0.613344 0.62688684 0.5723128
0000d0 dc 4d 16 3f e1 21 18 3f 62 ed 19 bf f7 58 16 bf
       0.58712554 0.59426695 -0.6012784 -0.587295
0000e0 cf e2 1d bf bc 56 15 bf 96 3a 1b bf fd 17 11 bf
       -0.6167421 -0.5833547 -0.6063627 -0.5667723
0000f0 4a 43 1f bf c4 c1 17 bf eb 85 1f bf 03 93 1f 3f
       -0.6221205 -0.5928004 -0.6231372 0.623337
000100 cb b6 20 3f f1 7a 17 3f 04 8b 1b 3f 50 3d 1b 3f
       0.6277892 0.5917197 0.60758996 0.6064043
000110 9e e7 12 3f e1 46 1a 3f 11 ee 17 3f e0 e4 19 3f
       0.5738467 0.602644 0.59347636 0.6011486
000120 2d c9 1a bf e5 be 1b bf 9e 60 13 bf c1 22 1e bf
       -0.6046322 -0.60838157 -0.575693 -0.6177178
000130 72 ed 10 bf c2 d5 15 bf 9e 56 49 3f d6 1a 48 3f
       -0.5661231 -0.58529294 0.7864779 0.7816595
000140 52 d3 06 bf 37 e2 1f 3f c9 50 13 3f 5d 37 12 3f
       -0.526662 0.6245455 0.57545143 0.5711573
000150 ea 48 20 3f 14 2d 1b 3f 4d 98 1a 3f 66 3e 16 3f
       0.6261126 0.6061566 0.6038864 0.5868896
000160 f0 c8 16 3f f6 ac 12 3f f5 26 18 bf c5 47 18 bf
       0.58900356 0.5729517 -0.59434444 -0.5948451
000170 d6 c2 1c bf fd 32 21 bf 08 0a 1b bf 8e a8 21 bf
       -0.61234796 -0.62968427 -0.6056218 -0.6314782
000180 8f 54 23 bf 44 cd 1b bf 87 25 2c bf 11 73 14 bf
       -0.638009 -0.60860085 -0.6724476 -0.5798808
000190 bb 8b 13 bf ae 47 1f bf ad 3e 14 bf d4 9e 1c bf
       -0.57635087 -0.6221875 -0.57908136 -0.6117985
0001a0 1c b8 18 bf 8e 0b 14 bf 87 11 13 bf 25 bf 18 bf
       -0.5965593 -0.5783013 -0.5744862 -0.59666663
0001b0 34 d9 17 bf 67 fb 1a bf 1f 1d 1f bf 9a 76 15 bf
       -0.593158 -0.6053986 -0.6215381 -0.58384097
0001c0 bc de 1a bf 43 02 13 bf 9d 47 1d bf a0 e8 15 bf
       -0.60496116 -0.57425326 -0.614374 -0.5855808
0001d0 f5 c2 15 bf 50 1e 1c 3f e2 e5 1d 3f 98 e3 18 3f
       -0.58500606 0.60983753 0.616789 0.5972228
0001e0 f6 4d 17 3f 14 db 19 3f b8 eb 18 3f e1 02 1b 3f
       0.59103334 0.6009991 0.5973468 0.6055127
0001f0 bc 25 15 3f e8 d6 18 3f d5 11 1e bf cf 87 17 bf
       0.58260703 0.5970292 -0.6174596 -0.591916
000200 09 3b 1d bf a4 85 18 bf ad fe 1d bf 54 00 1b bf
       -0.61418205 -0.5957892 -0.6171673 -0.60547376
000210 69 05 17 bf dc 00 1e bf 8d 26 1d bf 5f f6 17 bf
       -0.5899263 -0.6172006 -0.6138695 -0.5936031
000220 38 4c 1f bf 12 d4 16 bf e7 c8 16 bf 43 e2 14 bf
       -0.62225676 -0.58917344 -0.589003 -0.5815775
000230 12 7d 18 bf 52 68 19 bf 04 30 13 bf f9 28 18 bf
       -0.5956584 -0.59924805 -0.5749514 -0.5943752
000240 21 f3 17 bf fe e0 18 bf fa 76 17 bf 6c fb 1f bf
       -0.5935536 -0.5971831 -0.5916592 -0.62493014
000250 f6 65 1d bf b4 55 20 bf 16 89 19 bf 47 63 1d bf
       -0.61483705 -0.6263077 -0.599748 -0.6147961
000260 f8 d0 13 bf be 3d 1f 3f 82 63 20 3f 2c 26 1b 3f
       -0.57740736 0.62203586 0.62651837 0.6060512
000270 b4 cb 17 3f 87 77 21 3f c6 20 17 3f c8 11 18 bf
       0.592952 0.6307301 0.59034383 -0.5940213
000280 63 b6 1e bf 0f c6 0d bf fb 86 17 bf a5 c3 15 bf
       -0.6199705 -0.5538034 -0.5919034 -0.58501655
000290 e4 1f 1d bf 9e 9d 1d 3f 6f bc 15 bf a1 f4 18 3f
       -0.61376786 0.6156863 -0.5849065 0.59748274
0002a0 ec f5 16 3f 72 51 1a 3f ee f0 1c 3f ff 46 1a 3f
       0.58968997 0.60280526 0.6130513 0.6026458
0002b0 e9 7c 16 3f 3b 74 19 3f 65 7c 1c 3f fd 02 1e 3f
       0.5878435 0.5994298 0.6112731 0.6172331
0002c0 6e 57 1c 3f 6b 69 17 3f 9c 1f 20 3f d4 15 15 3f
       0.6107091 0.5914523 0.6254823 0.5823643
0002d0 97 0b 19 3f 7a 63 1e 3f ca 72 1c 3f 50 58 14 3f
       0.5978331 0.6187054 0.61112654 0.57947254
0002e0 04 a5 18 3f 67 6c 1b 3f 2a b0 12 bf 03 6f 1d bf
       0.59626794 0.60712284 -0.57300055 -0.61497515
0002f0 42 41 1a bf 67 70 14 3f a8 6e 17 3f b8 b5 20 3f
       -0.60255826 0.5798401 0.59153223 0.6277728
000300 c2 cd 13 3f e4 3b 17 3f 10 d7 20 3f 99 3f 1d 3f
       0.57735837 0.5907576 0.6282816 0.6142517
000310 54 7f 18 3f ce fc 18 3f c5 46 1e 3f 9c d8 17 3f
       0.5956929 0.5976075 0.61826736 0.59314895
000320 73 64 1f 3f df bd 20 3f e9 a3 1b 3f 8b 1c 14 3f
       0.6226265 0.6278972 0.6079698 0.57856053
000330 e4 1f 21 3f b3 ff 14 3f 6e 6b 15 3f c2 09 1f bf
       0.62939286 0.58202666 0.5836705 -0.62124264
000340 4f ca 17 bf f8 e3 1c bf 6d c2 1f bf 5e 17 20 bf
       -0.59293073 -0.6128535 -0.62406045 -0.62535655
000350 e9 03 1e bf 6b ae 36 bf 49 80 23 bf 81 12 14 bf
       -0.61724716 -0.7135989 -0.6386762 -0.57840735
000360 b3 aa 1b bf b4 40 16 bf a8 1c 13 bf 6c 41 1b bf
       -0.6080734 -0.5869248 -0.574656 -0.606467
000370 f8 d4 1e bf ae e7 1f bf 44 28 1b bf 8a 26 16 bf
       -0.62043715 -0.6246289 -0.60608315 -0.58652556
000380 32 9e 19 bf 2f 3b 1a bf d8 41 16 bf 13 c4 1d bf
       -0.6000701 -0.60246557 -0.5869422 -0.6162731
000390 c2 29 18 bf b7 3c 16 bf 23 2a 16 bf ae 59 1b bf
       -0.5943872 -0.58686393 -0.58658046 -0.60683715
0003a0 ad 3e 20 bf 59 1b 1a bf 74 bc 1e 3f 44 3f 14 3f
       -0.62595636 -0.6019798 0.62006307 0.57909036
0003b0 c2 87 14 3f 9c bc 16 3f 4e 06 16 3f fb 98 17 3f
       0.5801965 0.58881545 0.5860337 0.59217805
0003c0 54 9d 12 3f 4d 58 17 3f c3 2a 19 3f e8 e0 14 bf
       0.57271314 0.5911911 0.59830874 -0.5815568
0003d0 1f 66 14 bf e7 40 1a bf f3 7c 13 bf 79 a5 13 bf
       -0.57968324 -0.60255283 -0.5761253 -0.57674366
0003e0 4a 55 1f bf 83 18 1e bf e4 5d 16 bf 02 e4 1d bf
       -0.62239516 -0.6175615 -0.58737016 -0.6167604
0003f0 ff 66 1c 3f 25 fb 1c 3f ed 52 1b 3f de 2e 21 3f
       0.6109466 0.61320716 0.6067341 0.6296214

module.Conv5.layers.0.bias f4 [64]
000000 df 2c 7e bd 0f 17 1d bd 10 90 f9 bd ac bd ba 3c
       -0.06205451 -0.03835207 -0.12185681 0.02279552
000010 7c c1 c8 bc 81 3f 4e bd 20 79 c4 3d e0 35 e9 3d
       -0.024506323 -0.05035353 0.09593415 0.11387229
000020 62 c3 68 bd a6 50 70 3d 33 55 9f 3b a0 12 4f 3d
       -0.056826957 0.058670662 0.0048624515 0.05055487
000030 f6 9f 0c bd 9f 85 9b bd aa 3a 84 3d ba 43 06 be
       -0.03433224 -0.075938456 0.06456502 -0.13111773
000040 20 28 6e bd c1 22 d9 ba e8 dd 3b 3d 9e fb 51 bc
       -0.058143735 -0.0016566144 0.045865923 -0.012816338
000050 59 ef 63 bd 9a c7 a8 3d fa 37 0a 3e 28 60 e0 bd
       -0.05564818 0.08241196 0.13497916 -0.1095584
000060 5d 29 b4 bd fd cc 84 3d 36 d9 b0 ba 54 0b d3 bd
       -0.08796952 0.06484411 -0.0013492468 -0.10304895
000070 97 db 4d bb df 0a a3 3d b8 ec a5 bc 33 c9 f3 bc
       -0.0031411403 0.07961058 -0.020254478 -0.029759025
000080 a1 ac 17 3c 4a 82 35 bc 1a fd 4d bc f9 06 8e bc
       0.0092574665 -0.011078427 -0.012572551 -0.01733731
000090 6c f6 4b 3c 30 22 48 bd 6e 12 1e 3e 50 d3 c1 bc
       0.012448888 -0.04886073 0.15436718 -0.023660332
0000a0 11 6b a7 bd e9 23 00 3c 79 b4 fd 3b e0 f1 41 3b
       -0.08174718 0.007821062 0.0077424613 0.0029593632
0000b0 46 4a 13 3e 3b fd 1d 3e 6a b4 19 3d 46 e1 9f bd
       0.14383802 0.15428631 0.037525572 -0.078066394
0000c0 fb 11 09 3e e6 54 5e bd aa 9e 16 3d f4 cb 94 3c
       0.13385765 -0.054280184 0.036772408 0.018163659
0000d0 dc 29 29 3e 71 9a 12 bd 54 4a 87 3d 01 01 5a 3d
       0.16519874 -0.035791818 0.06605974 0.053223614
0000e0 47 18 8f b9 8b 81 85 3c d2 0d a0 bc 80 f5 33 bb
       -0.00027293173 0.016297122 -0.01953784 -0.0027459562
0000f0 2c a1 32 3d 09 9f 45 bc 5c 2e 7e 3d 74 65 fc bd
       0.043610737 -0.012061843 0.06205593 -0.12324038

module.Conv5.layers.1.weight f4 [64]
000000 f0 70 06 3f b3 9f b2 3e 13 75 a9 3f fc 20 8e 3f
       0.5251608 0.34887466 1.3238853 1.1103816
000010 bf 6e 20 3f 5c 43 b4 3f 93 01 d3 3e 5e d4 c1 3f
       0.62668985 1.4083056 0.4121214 1.5142934
000020 ce 5b ce 3f 45 7a 6e 3d fb 16 7e 3e 5f a8 cf 3f
       1.6121767 0.058222074 0.24813454 1.6223258
000030 2f 3c e1 3f 4f 80 08 40 36 53 b0 3f f3 42 85 3f
       1.7596492 2.1328313 1.3775394 1.0411056
000040 26 3d 1e 40 74 57 2f 40 f4 2d e1 3e be cc 40 40
       2.4724822 2.7397127 0.43980372 3.0124965
000050 d1 ea 15 3e a0 00 81 3e fe 3e 14 3d 71 8d 0c 40
       0.14640357 0.2519579 0.036192887 2.196133
000060 3d 51 8f 3f 8b 97 32 3f d9 69 a3 3f 0a 30 a2 3f
       1.1196667 0.69762486 1.2766677 1.267091
000070 bd 63 bd 3f 18 09 97 3f 85 23 35 40 3c e5 ce 3f
       1.4796063 1.179965 2.830293 1.6163707
000080 40 1c 7c 3d 5f 5d 6c 3f f9 af 0a 40 11 74 0f bf
       0.06155038 0.92329973 2.1669905 -0.5603648
000090 06 f3 e6 3f 62 7a 99 3f c1 8d 51 3f c0 a7 c1 3e
       1.8042915 1.1990473 0.81856924 0.37823296
0000a0 ba 74 99 3e 92 d1 75 3f a9 44 30 3f 2f fe 43 3f
       0.29971868 0.96022904 0.6885477 0.7655973
0000b0 48 4d d7 3e 3c 91 61 3f c1 3b ce 3e 04 2b 4b 40
       0.42051148 0.88112235 0.40279964 3.1745005
0000c0 bb ca 76 bf b5 66 57 3f c3 3b 9a 3f 84 b6 ca 3d
       -0.9640309 0.84141093 1.2049488 0.09898093
0000d0 0c 3a aa 3e cc 6a e5 be fe 21 73 bf f3 bd b1 3e
       0.3324741 -0.44808042 -0.9497374 0.34715232
0000e0 21 12 1a 40 77 8b 27 bf b8 b9 9d 3e 1f 1c ab 3f
       2.4073565 -0.6544718 0.30805755 1.3367957
0000f0 a0 7a c8 3f ba 4a 9f 3f 46 8f f1 3d 8f 45 a9 3f
       1.5662422 1.244468 0.11794905 1.3224353

module.Conv5.layers.1.bias f4 [64]
000000 4a e1 8a bf a5 60 a7 bf 49 9d c1 3d a3 89 86 3f
       -1.0850003 -1.3076369 0.09453828 1.0510753
000010 3b 16 88 3f 00 68 e2 3f 18 35 66 bf bd 4f 14 be
       1.0631784 1.7687988 -0.89924765 -0.14483543
000020 89 98 7e 3e 4c 02 53 bf 0b e1 c1 bf af f7 17 3f
       0.24862875 -0.8242538 -1.5146803 0.5936231
000030 c7 4e 00 40 16 f1 94 3f 70 9e ee 3e fe 63 82 3f
       2.0048082 1.1636074 0.46605253 1.0186765
000040 e7 ed b8 3f a8 4e 46 3f 29 73 36 bf 8b 3d 53 c0
       1.4447602 0.7746377 -0.7126947 -3.3006313
000050 cb e0 91 bf 97 95 0a bf 60 3a cb bf b4 2a 85 3f
       -1.1396726 -0.54134506 -1.587719 1.0403657
000060 83 c7 18 bc ce 9a 5c be e3 a5 ca 3d b7 31 01 bf
       -0.009324911 -0.21543428 0.09894922 -0.50466484
000070 cd 5c 43 40 6b 9b d8 3d 27 7e f3 be 53 2c a9 3f
       3.052539 0.105765186 -0.47557184 1.3216652
000080 0a da 08 bf ff 26 19 3c ff 51 5a 3d b6 1d 3d bf
       -0.534577 0.009347676 0.053300854 -0.7387346
000090 d0 bf ca 3e 19 aa 4a be d1 8c ee 3e 5b 0d 9d bf
       0.39599466 -0.1979145 0.4659181 -1.2269701
0000a0 fc 0f 67 bf 10 f5 f1 bb 40 ad 69 bf c8 6c 8e 3c
       -0.90258765 -0.00738395 -0.91279984 0.017385855
0000b0 47 ca 36 bf 52 d1 72 bd 96 14 23 bf a7 82 9a c0
       -0.714024 -0.059281655 -0.63703287 -4.828449
0000c0 1a b1 7b be ff 67 9d 3e 31 19 7e 3f fc 5f d2 be
       -0.24579278 0.30743405 0.9925719 -0.41088855
0000d0 ba c0 6c bf bc 90 7b 3f 96 04 ac bf ca 2a 13 bf
       -0.9248158 0.9826772 -1.34389 -0.57487166
0000e0 54 ef 9b 3f 40 ee 66 3f 73 a4 0b 3f 45 c9 e4 3e
       1.2182412 0.9020729 0.54547805 0.44684806
0000f0 7e b1 d9 3f eb 38 99 bf a7 5a 16 bf 78 84 67 be
       1.7007291 -1.1970495 -0.58732074 -0.22609127

module.Conv5.layers.1.running_mean f4 [64]
000000 b5 1b 5e c3 08 bd 3a c3 a1 ad 0c 41 df de 55 43
       -222.10823 -186.7384 8.79239 213.87059
000010 7b f1 2d 43 ca 66 5c 43 33 72 5c 43 83 c1 07 c3
       173.94328 220.40152 220.44609 -135.7559
000020 9e 2d 27 43 5d e5 e8 42 16 95 57 c3 d0 e1 58 c3
       167.17819 116.447975 -215.58237 -216.88208
000030 b8 cc 94 c2 d3 fb 3d c3 d1 b0 46 c3 05 d1 3e c3
       -74.39984 -189.98369 -198.69069 -190.81648
000040 58 eb 08 c3 fb dd fd c2 ec af 49 43 78 8f 5c c3
       -136.91931 -126.933556 201.6872 -220.56042
000050 05 7d 4b 43 10 9e 3f 43 66 e4 46 c3 e9 cc 0d 43
       203.48836 191.61743 -198.89218 141.80043
000060 41 95 2f 43 2e 4f 47 c3 f1 eb 4b c3 26 5f 2f 43
       175.58302 -199.3093 -203.92165 175.37167
000070 e2 62 c0 42 b9 07 40 c3 68 63 18 43 41 69 bb c2
       96.19313 -192.03017 152.3883 -93.705574
000080 fd ca cb 42 0e d5 3b c3 3a 89 3f 43 c8 f3 e5 42
       101.89646 -187.83224 191.53604 114.976135
000090 28 81 4b c3 19 3a 49 c3 e0 01 0d c3 85 f0 9e 42
       -203.50452 -201.22694 -141.00732 79.469765
0000a0 1e a6 1f 43 25 24 2e c3 18 b1 3b 43 6b 08 51 c3
       159.6489 -174.14119 187.69177 -209.03288
0000b0 38 c2 36 43 86 7f 38 c3 41 19 4b 43 4e be 22 c3
       182.75867 -184.49814 203.09865 -162.74338
0000c0 bf 09 44 43 66 ee 4b c3 69 62 4c 43 d9 d3 00 c3
       196.03807 -203.93124 204.38441 -128.82753
0000d0 38 09 50 43 2f af 08 41 99 bd 3c 43 c9 40 dd 42
       208.03601 8.542769 188.74062 110.62653
0000e0 09 45 b0 c2 84 65 92 42 94 8f 61 43 55 c0 04 c2
       -88.134834 73.19827 225.56085 -33.187824
0000f0 11 53 6c 43 d5 65 fa 42 52 9e f4 42 5f ac 51 43
       236.32448 125.19889 122.30922 209.67332

module.Conv5.layers.1.running_var f4 [64]
000000 4f cb 5a 45 60 c3 3e 44 e7 19 8f 44 7b 99 c7 44
       3500.7068 763.05273 1144.8094 1596.7963
000010 22 cf 44 44 23 4b 81 44 2f d5 04 45 3e 45 e1 44
       787.23645 1034.348 2125.324 1802.1638
000020 e0 55 a4 45 71 9e 09 44 90 c6 e9 44 26 d3 ac 45
       5258.7344 550.47565 1870.2051 5530.3936
000030 f3 24 5a 45 b2 a0 8a 45 41 6a 6d 45 d2 8b 0b 45
       3490.3093 4436.087 3798.6409 2232.7388
000040 17 f0 01 45 9f 25 1f 45 c3 7c 54 45 eb 34 94 45
       2079.0056 2546.3513 3399.7976 4742.6147
000050 11 11 39 44 9a a9 8b 45 ee 2f 8e 44 8c 8c e3 45
       740.26666 4469.2 1137.4978 7281.5684
000060 0a eb 21 44 09 fc 5a 45 62 96 50 45 a4 e8 90 44
       647.6725 3503.7522 3337.399 1159.27
000070 0c d2 8a 44 b9 a8 c6 44 20 95 b1 45 36 3c 8d 45
       1110.564 1589.2726 5682.6406 4519.5264
000080 b7 42 01 44 91 1c 80 45 79 c9 a1 45 ed dd 27 44
       517.0424 4099.571 5177.184 671.4676
000090 98 83 62 45 5f 85 c7 45 79 24 ac 44 6f 4b 29 45
       3624.2246 6384.6714 1377.1398 2708.7146
0000a0 24 1b b3 44 38 25 85 45 fa cb ae 44 04 1b 8f 45
       1432.8481 4260.6523 1398.3743 4579.377
0000b0 27 65 80 45 1b f3 ca 44 1f dd f9 44 06 88 88 43
       4108.644 1623.597 1998.91 273.06268
0000c0 22 27 10 45 a4 9f 5b 45 3b 66 40 45 90 af 3b 45
       2306.4458 3513.9775 3078.3894 3002.9727
0000d0 3d 31 6b 45 9e fd af 44 63 cb 4c 45 3f 1f 4d 44
       3763.0774 1407.9255 3276.7117 820.4882
0000e0 61 d4 04 45 20 d8 3f 45 88 ad 3c 45 f2 15 aa 44
       2125.2737 3069.5078 3018.8457 1360.6858
0000f0 e8 1b ca 44 8c ec 02 44 fd 89 08 45 73 a4 3f 45
       1616.8721 523.69604 2184.6243 3066.278

module.Conv6.layers.0.weight f4 [64, 128, 3, 3]
000000 a4 b3 17 3f 72 c7 1a 3f fb b6 13 3f 43 f9 16 3f
       0.59258485 0.6046058 0.5770108 0.58974093
000010 d2 70 1b 3f 1a 4a 1b 3f e1 a2 13 3f 67 38 1d 3f
       0.60719025 0.60659945 0.5767041 0.6141419
000020 a2 98 21 3f fb d5 17 3f 7a bf 15 3f 9c b0 15 3f
       0.63123524 0.59310883 0.58495295 0.5847261
000030 b7 9f 1f 3f a2 d2 1d 3f 29 48 1e 3f ff 59 13 3f
       0.6235308 0.61649525 0.6182886 0.575592
000040 5a 81 14 3f 79 50 14 3f 7f 4c 13 bf 88 87 1b bf
       0.58009875 0.5793529 -0.575386 -0.6075368
000050 41 d4 1d bf 65 80 18 bf 9f 83 1c bf d7 79 13 bf
       -0.61652 -0.59570915 -0.6113834 -0.5760779
000060 f0 69 15 bf 02 85 14 bf 13 96 1c bf 3b ac 15 3f
       -0.5836477 -0.58015454 -0.61166495 0.5846593
000070 45 c3 1e 3f 99 f4 1d 3f 6f 18 1a 3f 07 7a 12 3f
       0.6201671 0.6170135 0.6019353 0.5721745
000080 39 eb 1c 3f d6 3d 1a 3f a4 ab 1b 3f d7 dc 12 3f
       0.6129642 0.60250604 0.6080878 0.57368225
000090 64 f3 15 3f 7c c0 1a 3f 36 1d 13 3f d0 50 12 3f
       0.5857451 0.6044996 0.5746645 0.5715456
0000a0 d7 33 1a 3f 88 0a 17 3f 99 d5 16 3f 9e bc 19 3f
       0.6023535 0.59000444 0.58919674 0.6005343
0000b0 94 5d 14 3f 6e d1 16 3f ad 41 1f 3f 4c 85 22 3f
       0.5795529 0.58913314 0.6220959 0.63484645
0000c0 b6 8e 18 3f 3b fe 1b 3f 28 d6 16 3f 59 7b 1b 3f
       0.5959276 0.609348 0.58920527 0.6073509
0000d0 0a 5c 1e 3f 2d 58 21 3f d1 f1 1f 3f 2c e8 20 3f
       0.6185919 0.6302517 0.6247836 0.62854266
0000e0 a0 86 1c 3f 69 06 13 3f 40 2a 1f 3f e1 9a 13 3f
       0.6114292 0.57431656 0.62173843 0.576582
0000f0 3a 94 19 3f 5a 2b 1a 3f 90 cb 1a 3f b5 86 22 bf
       0.599918 0.602224 0.6046686 -0.63486797
000100 eb 67 18 bf 89 9a 1b bf 08 ce 22 bf 92 6e 18 bf
       -0.59533566 -0.60782677 -0.6359563 -0.59543717
000110 a7 71 1d bf 25 2b 1f bf e0 68 16 bf f2 ce 1f bf
       -0.61501545 -0.6217521 -0.58753777 -0.6242515
000120 44 d4 12 bf 1b 45 16 bf 4b 1c 1c bf 70 e5 1b bf
       -0.5735514 -0.58699197 -0.6098067 -0.6089697
000130 e9 d8 15 bf c1 65 1e bf 31 04 20 bf 5a 11 1c bf
       -0.58534104 -0.61874014 -0.62506396 -0.60963976
000140 71 34 14 bf f2 54 18 3f 90 ff 1e 3f 11 69 20 3f
       -0.5789252 0.59504616 0.6210871 0.6266032
000150 f8 64 18 3f d7 fc 14 3f 5e fe 16 3f 4e 6c 1b 3f
       0.59529066 0.58198303 0.58981884 0.60712135
000160 ae 42 12 3f 4b fa 1a 3f bf ff 1f 3f 3b 19 1f 3f
       0.57132995 0.60538167 0.6249961 0.62147874
000170 a3 ac 19 3f c0 90 14 3f 67 27 1f 3f c7 26 17 3f
       0.6002905 0.5803337 0.621695 0.59043545
000180 0a d5 1a 3f c2 62 17 3f 1c ac 15 3f 61 e3 1e 3f
       0.6048132 0.5913507 0.58465743 0.620657
000190 a3 51 14 3f 0b 5a 1e 3f 20 95 1a 3f db 44 16 3f
       0.5793707 0.61856145 0.60383797 0.58698815
0001a0 a4 33 16 3f 6c d7 18 3f fc aa 1a 3f 67 3c 15 3f
       0.5867255 0.5970371 0.6041715 0.5829529
0001b0 14 6d 16 3f da 1b 1a 3f 96 d2 1d 3f 1f 3c 15 3f
       0.5876019 0.6019875 0.61649454 0.5829486
0001c0 fb b3 1a 3f 1e 13 15 3f ad 5f 1d 3f e4 72 20 3f
       0.6043088 0.58232296 0.61474115 0.6267531
0001d0 b2 07 1d 3f 98 90 11 3f 3f 68 12 3f 09 03 21 3f
       0.6133987 0.5686126 0.57190317 0.62895256
0001e0 cb 9e 19 3f a3 94 16 3f 9c 41 12 3f 3f 08 1f 3f
       0.60007924 0.5882055 0.5713136 0.6212196
0001f0 bc 46 20 3f 32 9a 13 3f 7b 81 28 bf 8e 38 1e bf
       0.6260793 0.5765716 -0.6582257 -0.61805046
000200 41 4b 1e bf 08 f9 b5 bd 02 d4 2d bf af 89 19 bf
       -0.6183358 -0.088853896 -0.67901623 -0.59975713
000210 d7 3a 1b 3f c6 bc 1a 3f 36 09 1d bf 94 01 11 bf
       0.6063666 0.60444295 -0.6134218 -0.56643033
000220 20 06 11 bf 56 3f 28 be 13 3b 10 bf 54 b7 14 bf
       -0.5664997 -0.1643041 -0.5634014 -0.58092237
000230 86 a4 0d bf 8e 04 19 bf 8f cc 1c bf 4e 16 17 bf
       -0.5532917 -0.59772575 -0.6124963 -0.5901841
000240 da 51 18 3f 2f f1 19 3f 20 e8 1a 3f a9 63 14 3f
       0.59499896 0.6013364 0.60510445 0.5796457
000250 23 0e 1b 3f 49 6c 12 3f 7e 83 14 3f 52 03 18 3f
       0.60568446 0.5719648 0.5801314 0.59380066
000260 9a 87 16 3f 74 35 15 3f d5 5d 19 3f 6a 39 1e 3f
       0.5880066 0.5828469 0.599088 0.61806357
000270 1e b3 1f 3f f2 a5 19 3f 7c ae 12 3f a6 d6 17 3f
       0.62382686 0.6001884 0.5729749 0.593119
000280 b0 98 17 3f d9 e6 1e 3f 3b 1e 1b 3f 01 ec 16 3f
       0.5921736 0.62070996 0.60593003 0.58953863
000290 2a 90 16 3f 83 fb 17 3f 54 48 18 3f c9 96 19 3f
       0.58813727 0.5936815 0.59485364 0.59995705
0002a0 67 19 17 3f 4d e3 15 3f 90 45 19 3f 57 f4 20 3f
       0.59023136 0.5854996 0.5987177 0.62872833
0002b0 d9 ee 15 3f 19 f0 1b 3f d1 9c 18 3f 5b 6f 17 3f
       0.5856758 0.60913235 0.5961428 0.5915429
0002c0 34 1f 20 3f 2a 3e 1d 3f 93 5c 18 3f 75 78 1d 3f
       0.6254761 0.6142298 0.5951626 0.6151193
0002d0 2c 8c 1d bf 3d 6f 1f bf 84 0e 14 bf 84 4e 1d bf
       -0.6154201 -0.6227911 -0.5783465 -0.6144793
0002e0 a9 a9 1d bf 14 eb 1d bf d3 60 1f bf 58 3b 16 bf
       -0.61587006 -0.61686826 -0.6225712 -0.586843
0002f0 03 f9 15 bf 78 25 1b 3f 7f 8f 12 3f ab 32 13 3f
       -0.58583087 0.6060405 0.5725021 0.5749919
000300 cc fa 1d 3f 7e 09 18 3f 55 d5 1a 3f 1a c5 20 3f
       0.6171081 0.59389484 0.6048177 0.62800753
000310 e2 a4 15 3f 23 b2 1e 3f 9b 9c 1a 3f b9 47 21 3f
       0.58454716 0.61990565 0.6039521 0.63000065
000320 6e 07 14 bf 2c 32 1d 3f e8 0c 21 3f 95 ad 17 3f
       -0.57823837 0.6140468 0.6291032 0.5924924
000330 ee 04 13 3f a6 70 18 3f 49 ca 14 3f c3 2a 15 bf
       0.574294 0.5954689 0.5812116 -0.58268374
000340 68 ed 12 bf 05 2e 11 bf 8f ab 1b bf f7 b1 1c bf
       -0.57393503 -0.56710845 -0.6080865 -0.6120905
000350 4b 6e 1f bf c1 8f 21 bf fe f4 13 bf 3b d9 18 bf
       -0.6227767 -0.63109976 -0.57795703 -0.5970647
000360 88 fc 14 bf 41 c0 14 bf 80 11 1f bf 99 a0 1d bf
       -0.5819783 -0.58105856 -0.6213608 -0.6157318
000370 64 cf 15 bf 12 1f 1d bf 11 2a 1a bf d8 71 1e bf
       -0.5851958 -0.61375535 -0.6022044 -0.6189246
000380 a9 3a 1f bf 3d 9f 1e bf 0e 50 21 bf 22 0d 1b bf
       -0.62198883 -0.6196173 -0.6301278 -0.60566914
000390 4e 87 17 bf 4e 31 16 bf aa 47 19 bf 92 c2 1e bf
       -0.59190834 -0.58668983 -0.59874976 -0.6201564
0003a0 b8 43 13 bf f1 73 1d bf 8f fd 19 3f 63 f0 19 3f
       -0.57525206 -0.6150504 0.60152525 0.60132426
0003b0 d7 58 20 3f 28 45 16 3f b4 2e 1c 3f c5 f4 19 3f
       0.6263556 0.58699274 0.61008763 0.60139114
0003c0 fa 05 1c 3f 43 22 20 3f 57 70 12 3f 97 c0 13 bf
       0.6094662 0.6255228 0.57202667 -0.57715744
0003d0 0b 53 18 bf 86 08 1d bf 81 d4 1c bf 37 16 20 bf
       -0.59501714 -0.6134113 -0.61261755 -0.625339
0003e0 d8 e6 18 bf 92 44 1f bf 50 be 1f bf f3 45 18 bf
       -0.5972724 -0.62214005 -0.6239977 -0.59481734
0003f0 4f 5e 15 3f c5 74 14 3f 6c f1 18 3f 0a 49 1f 3f
       0.5834703 0.57990676 0.5974338 0.62220824

module.Conv6.layers.0.bias f4 [64]
000000 2f dd 42 3d 3f b1 96 bd 6c 7e 18 bd 56 34 47 3d
       0.04757422 -0.07358026 -0.03722994 0.048633896
000010 ef d8 56 3c 91 e9 85 bd 68 32 dd 3c f3 56 c3 bd
       0.013113244 -0.0653869 0.027001575 -0.095380686
000020 21 e7 3f 3d c4 04 b2 3c 23 7d 61 bd 8d 16 b8 3d
       0.04685128 0.021730788 -0.05505098 0.08988676
000030 a9 01 a5 be 01 69 84 3c 44 b3 cf 3b 61 a3 ec bd
       -0.3222783 0.016163351 0.006338509 -0.115545996
000040 5c 98 79 bd c9 83 f4 bd c9 ba 06 be 17 84 e6 3d
       -0.060936317 -0.119391985 -0.1315719 0.11255663
000050 1d 13 f7 3d 54 57 ba 3d eb 6d 49 bd 38 22 eb bd
       0.120641924 0.09098688 -0.04917709 -0.11481136
000060 26 f6 3e 3e 3d 0a 17 3e 85 f6 d7 3c 7c 60 9f 3c
       0.18648586 0.1475 0.026362667 0.019455187
000070 ae 4c b7 3d 77 6a 53 bd fc b8 18 3d 74 f4 d8 3c
       0.08950172 -0.051615205 0.03728579 0.026483752
000080 e8 ac 6a 3c fc 46 11 bc ae 65 72 3d 06 62 54 3d
       0.014323451 -0.008867022 0.059179 0.051851295
000090 4f 5c 74 bb 5a 5e cc 3d 5f 18 dc 3d 11 1d 8e 3e
       -0.0037286466 0.09978934 0.10746836 0.2775655
0000a0 78 e7 1b 3d 9c 82 01 bd ed a7 87 3d 87 93 fa bc
       0.038062543 -0.0316187 0.06623826 -0.030587925
0000b0 d9 94 b2 bd 67 d3 15 3d 6a d5 3e be 49 72 7a 3d
       -0.08719797 0.036578562 -0.18636099 0.061144147
0000c0 da bb 5f 3d 50 88 b8 3c 88 2c 80 bc 47 4b a2 bc
       0.05462251 0.022525936 -0.015646234 -0.019811286
0000d0 c5 15 4b bd 94 3f 10 be 62 b3 3d 3d 93 3b 7e 3e
       -0.049581308 -0.14086753 0.04631365 0.24827413
0000e0 0e 85 a5 bd e1 b3 7a 3d 89 18 e2 3d e7 5c 64 3d
       -0.08082019 0.061206702 0.11039836 0.05575266
0000f0 ae 9d 51 3e 41 6f 26 3e 6e 63 2e be 1d 00 c2 bc
       0.20470306 0.16253377 -0.17030117 -0.023681695

module.Conv6.layers.1.weight f4 [64]
000000 ee 77 05 3f 22 0e e9 3e 4a e9 a7 3f e2 a6 74 3f
       0.52136123 0.45518595 1.3118069 0.9556714
000010 88 8a 60 3f 1f 15 c3 3f 5a 75 9a 3e bf a6 83 3f
       0.8771138 1.5240821 0.30167657 1.0285262
000020 7b 8b 47 3f 7b 8a 61 3f 8a 19 83 3e 2b 45 b7 3e
       0.77947205 0.8810193 0.25605422 0.35794958
000030 61 ab 59 3f dd 3a 64 3f ce 51 13 3e 1f 86 c3 3e
       0.8502713 0.8915232 0.14386675 0.38188264
000040 d5 bd 75 3f e9 bc 4c 3f 8d b4 7d 3f cd 34 94 3f
       0.95992786 0.79975754 0.99103624 1.1578614
000050 e4 ca 71 3f e8 4e bb 3f 02 89 17 3f f4 a8 66 3f
       0.9445021 1.4633455 0.5919343 0.9010155
000060 2c c6 19 3f ce 3f c2 3f b2 de 96 3f 32 89 20 3f
       0.6006801 1.5175722 1.1786711 0.62709343
000070 f0 83 01 3f c7 5d c0 3e 9b b4 65 3f d4 ab 6b 3f
       0.50591946 0.37571546 0.8972871 0.92059064
000080 1b a5 99 3e 86 2a 8b 3e 1e 13 76 3f 2a d6 89 3f
       0.30008778 0.2718088 0.9612292 1.0768483
000090 22 81 64 bd 2b 81 b0 3f ed 84 3c 3f 1d a3 9f 3f
       -0.055787213 1.3789419 0.7364033 1.2471653
0000a0 f4 ed 8d 3f 6a 51 90 3f ce f2 7b be e0 0b 25 3f
       1.1088243 1.1274846 -0.24604341 0.64471245
0000b0 42 6a b8 3f 67 fa 05 40 fe 68 c7 3f c5 20 84 3c
       1.4407427 2.0934083 1.5578916 0.016128907
0000c0 1c 3a 33 3f b7 16 38 3e c8 9d dc 3f be 59 41 3f
       0.7001054 0.17977415 1.7235651 0.7552756
0000d0 a8 02 74 3f 22 dc 60 3f 3b 42 12 3f e3 30 c2 3f
       0.95316553 0.87835896 0.5713231 1.5171169
0000e0 dc 8d 38 3f 5a a2 7e 3f a0 99 d5 3e 02 27 7a bf
       0.7209146 0.9946648 0.4171877 -0.9771577
0000f0 10 df c6 3e 5c fc c8 3e 39 67 97 3f 7c c0 c3 3f
       0.38842058 0.39255035 1.1828376 1.5293117

module.Conv6.layers.1.bias f4 [64]
000000 db 99 fc bf cd ba 25 bf 9b c7 41 3f 4d b4 b3 3f
       -1.9734453 -0.6473816 0.756952 1.4039398
000010 bc 66 02 40 d0 b3 f0 3e 39 4b 92 3f 27 a8 fd 3f
       2.0375204 0.47012186 1.1429206 1.9816941
000020 32 b5 fc 3f c8 c2 a5 bf 7c 64 23 3f 43 89 89 bf
       1.9742796 -1.2950068 0.638252 -1.0745014
000030 61 38 a6 be 46 94 06 40 e6 bc 2e 3f 00 6b b9 bf
       -0.3246489 2.1028 0.68256986 -1.4485779
000040 f3 1f 64 40 5d f5 36 c0 fe e2 a5 3f f9 36 27 40
       3.56445 -2.8587258 1.2959898 2.6127303
000050 b3 0c 1d c0 08 0d f1 3e 82 e1 cb bf c0 7f ca 3f
       -2.4539 0.47080255 -1.5928195 1.5820236
000060 c9 0e 13 bf 59 68 eb 3e 60 05 96 3f f2 cd 2c bf
       -0.57444435 0.45978048 1.172039 -0.6750175
000070 9a 7f 01 c0 5f 4a c8 bf ed 75 01 40 fa 8f 30 40
       -2.0234132 -1.5647696 2.0228226 2.7587876
000080 5b 2a 7d 3f 6a 06 8d 3f 37 2d 09 c0 07 0b 37 40
       0.98892754 1.1017582 -2.1433847 2.860048
000090 43 6c 94 3f 93 57 e0 3e 74 1c 56 bf 6c cf 0a 40
       1.1595539 0.43816814 -0.83637166 2.16891
0000a0 38 a4 90 c0 15 f6 28 bf 68 7d 58 bf 7e 42 36 40
       -4.520046 -0.6600049 -0.84566355 2.8478084
0000b0 b4 02 40 3f 38 a6 99 40 78 c7 06 3f e5 01 59 3f
       0.75004125 4.8015404 0.52648115 0.84768516
0000c0 1c 4b b4 bf b0 df 01 bf 01 b4 86 bf e7 f3 d2 3f
       -1.4085422 -0.50731945 -1.0523683 1.6480683
0000d0 65 70 06 40 d2 63 04 40 83 a2 09 bf 0a be 0e 3f
       2.10061 2.0685925 -0.537636 0.55758727
0000e0 be bd eb be 74 b8 50 c0 d7 fd b7 bf 15 a9 6d bd
       -0.460432 -3.2612581 -1.4374341 -0.058022577
0000f0 f2 9a a2 bf 0e cd 0f bf 1a 93 e0 3f 3d fd a6 40
       -1.2703536 -0.56172264 1.7544892 5.218413

module.Conv6.layers.1.running_mean f4 [64]
000000 d7 9f 3b 43 18 4a 2e c3 a2 08 45 43 4b a4 58 c3
       187.62437 -174.28943 197.03372 -216.64177
000010 3c 91 39 c3 7a 97 59 43 1a b6 2e 43 f1 06 32 43
       -185.56732 217.5917 174.71133 178.02711
000020 e9 62 23 43 87 48 e2 42 4b 41 64 43 da 94 3f 43
       163.38637 113.141655 228.25505 191.58145
000030 8e e5 1c c3 6d f4 35 c3 af ea 49 43 e1 5c 34 43
       -156.8967 -181.95479 201.91673 180.36281
000040 06 ff 45 c3 89 7d 2c 43 ac 45 e9 c2 59 a7 2c c3
       -197.99619 172.49037 -116.63608 -172.6537
000050 51 90 36 43 d4 f8 5c 43 fb 43 25 43 ca 1c 08 c3
       182.56374 220.97198 165.26555 -136.11246
000060 7f 36 4d c3 60 65 48 43 f1 b6 3b 43 54 19 31 c3
       -205.21288 200.396 187.71461 -177.09894
000070 3c 96 33 43 e8 9b 5d 43 bd ed 23 c3 a7 a3 37 c3
       179.58685 221.60901 -163.92867 -183.63927
000080 14 7b 32 43 96 31 43 43 6b ce 2f 43 cb 19 38 c3
       178.48077 195.1937 175.80632 -184.10075
000090 25 de 3d c3 75 b3 4c 43 b1 59 28 43 23 ef 2d 43
       -189.86775 204.701 168.35036 173.93413
0000a0 97 4e 4a 43 36 80 48 43 9e e5 fb c2 7b 10 47 c3
       202.30699 200.50082 -125.94847 -199.06438
0000b0 42 f7 3e 43 10 5e 09 c3 28 e1 51 43 c2 01 e1 c2
       190.96585 -137.36743 209.87952 -112.50343
0000c0 a0 1d 35 43 73 f4 63 c3 28 08 6c c2 e9 aa 7a c3
       181.11572 -227.95488 -59.007965 -250.66762
0000d0 e3 fa 53 c3 41 9c 27 c3 c8 9e 3f c3 9e 75 3d 43
       -211.98003 -167.61037 -191.62024 189.45944
0000e0 2b 51 4b c3 22 3f 33 43 73 c0 28 43 a1 88 4f 43
       -203.31706 179.24661 168.75175 207.5337
0000f0 7d cf 20 43 da 74 68 c3 04 d8 31 c3 d2 c7 47 c3
       160.8105 -232.45645 -177.84381 -199.78055

module.Conv6.layers.1.running_var f4 [64]
000000 4c cd 67 45 ff 8c 32 45 9c b8 05 46 12 2d 18 45
       3708.831 2856.8123 8558.152 2434.817
000010 3c b7 34 45 91 d8 06 46 70 6a a3 45 a2 38 40 45
       2891.4521 8630.142 5229.3047 3075.5396
000020 3d 52 44 45 b9 87 9d 46 78 8b f3 45 78 2a d7 44
       3141.14 20163.861 7793.4336 1721.3271
000030 a7 22 fe 44 1b 02 27 45 0f 7a ff 45 9f ad 99 45
       2033.0829 2672.1316 8175.2573 4917.7026
000040 7c dd 71 45 9a 0c ce 45 ca 1f fd 44 c8 e5 14 45
       3869.8428 6593.575 2024.9934 2382.3613
000050 8d 4e 29 45 77 10 0d 46 05 57 0d 45 76 15 06 45
       2708.9094 9028.116 2261.4387 2145.3413
000060 a8 65 60 46 61 f9 07 46 30 40 5a 45 3a f0 12 46
       14361.414 8702.345 3492.0117 9404.057
000070 93 9c 6e 45 30 70 9b 45 23 d4 34 45 f2 30 ba 45
       3817.786 4974.0234 2893.2585 5958.118
000080 28 10 9c 45 06 40 9f 45 fe f0 4a 45 2c 1a 21 45
       4994.0195 5096.003 3247.062 2577.6357
000090 4a 67 ff 45 6f f8 18 46 f7 4f 5f 45 2c db 1d 45
       8172.911 9790.108 3572.9978 2525.6982
0000a0 89 20 de 45 df c2 dc 45 c2 12 1e 46 e4 38 d2 45
       7108.067 7064.359 10116.689 6727.1113
0000b0 2e 81 ac 45 04 b7 25 46 f9 a9 03 46 88 13 9b 45
       5520.1475 10605.754 8426.493 4962.4414
0000c0 62 a3 1d 45 b3 48 fc 45 c1 ef c9 44 45 84 b2 45
       2522.2114 8073.0874 1615.4923 5712.5337
0000d0 21 22 d6 45 11 3e 1d 45 19 44 0c 46 7d 33 be 45
       6852.266 2515.8792 8977.024 6086.436
0000e0 85 ac 29 46 20 98 d0 45 cb 4f 2b 45 2b 74 0c 46
       10859.13 6675.0156 2740.987 8989.042
0000f0 aa d0 82 45 ab 62 21 46 50 47 7f 45 68 fe 6e 45
       4186.083 10328.667 4084.457 3823.9004

module.Conv7.layers.1.weight f4 [1, 128, 3, 3]
000000 b0 ed 14 bf 99 c7 16 bf 74 a3 12 bf d8 59 16 bf
       -0.5817518 -0.5889831 -0.5728066 -0.5873084
000010 8a 06 17 bf 59 f8 1a bf d1 be 18 bf a2 93 19 bf
       -0.5899435 -0.605352 -0.5966616 -0.59990895
000020 c1 55 27 bf bf b3 15 3f cc 13 19 3f ec 41 16 3f
       -0.65365225 0.58477396 0.5979583 0.5869434
000030 88 cc 17 3f d2 bf 14 3f 2d 2f 16 3f f9 ed 19 3f
       0.59296465 0.58105195 0.58665735 0.6012874
000040 b5 84 17 3f 90 64 13 3f 03 b1 17 3f 2f 63 1d 3f
       0.5918687 0.5757532 0.59254473 0.6147947
000050 23 1b 18 3f 00 8d 13 3f c8 e3 1c 3f 67 47 16 3f
       0.5941641 0.57637024 0.61285067 0.587027
000060 83 5c 1d 3f 99 b2 1d 3f da 70 17 3f e9 52 18 bf
       0.61469287 0.61600643 0.5915657 -0.5950151
000070 a4 d4 1c bf 22 e6 1a bf fd 91 1f bf 96 18 1a bf
       -0.61261964 -0.60507405 -0.62332135 -0.60193765
000080 66 b1 19 bf 14 77 15 bf 85 99 12 bf a5 72 18 bf
       -0.60036314 -0.58384824 -0.572655 -0.59549934
000090 fd e5 1d bf 0f f0 22 bf 52 14 0c bf 8d fc 1d bf
       -0.6167906 -0.6364755 -0.54718506 -0.61713487
0000a0 ad e9 22 bf 49 26 18 bf fa a8 11 bf d9 d4 1e bf
       -0.6363781 -0.5943342 -0.5689846 -0.6204353
0000b0 64 1b 17 bf d9 3c 1e 3f 18 ad 1f 3f 6e be 1e 3f
       -0.5902617 0.61811596 0.62373495 0.6200932
0000c0 33 e5 1a 3f b2 b6 20 3f cb ec 15 3f 5b 98 1a 3f
       0.6050598 0.6277877 0.5856444 0.60388726
0000d0 be b7 12 3f 71 e4 1a 3f ae c4 18 3f 05 6b 16 3f
       0.5731162 0.60504824 0.5967511 0.5875705
0000e0 0f eb 1a 3f 9f 69 1d 3f 42 df 12 3f 60 e9 1c 3f
       0.6051492 0.6148929 0.57371914 0.612936
0000f0 28 1f 18 3f e3 d1 1c 3f 9b 80 11 3f 6f 97 1c 3f
       0.5942254 0.6125776 0.5683686 0.6116857
000100 a8 92 12 3f 79 36 11 3f 25 9c 17 3f 44 a2 1f 3f
       0.5725503 0.56723744 0.5922263 0.6235697
000110 5e bb 1d 3f b6 55 15 3f b9 e3 19 3f 78 d0 1d 3f
       0.61614025 0.5833391 0.601131 0.61646223
000120 a5 22 12 3f 87 68 1a 3f 88 68 18 3f 08 4b 1e 3f
       0.57084113 0.60315746 0.595345 0.6183324
000130 24 e2 12 3f b9 55 1a 3f a5 4e 15 3f dc d4 16 3f
       0.57376313 0.6028705 0.5832313 0.5891855
000140 09 09 1b 3f 08 c7 1f bf f3 35 13 bf 25 07 12 bf
       0.6056066 -0.6241307 -0.57504195 -0.5704215
000150 c9 55 18 bf f2 dd 19 bf 77 61 16 bf 13 ce 18 bf
       -0.595059 -0.60104287 -0.5874247 -0.59689444
000160 be b4 15 bf eb 2a 19 bf f1 8d 16 3f db 6f 17 3f
       -0.58478916 -0.5983111 0.58810335 0.5915505
000170 91 69 12 3f 79 d5 1b 3f 74 8d 1a 3f a7 b5 1e 3f
       0.5719233 0.6087261 0.6037209 0.6199593
000180 91 35 16 3f 75 a2 1a 3f cc 77 12 3f ff e8 14 bf
       0.58675486 0.6040414 0.57214046 -0.58168024
000190 6e 4f 17 bf 0a cd 1f bf 48 d9 13 bf e0 30 16 bf
       -0.59105575 -0.6242224 -0.5775342 -0.5866833
0001a0 dc de 12 bf cb 85 15 bf ac ac 1d bf 5d 66 18 bf
       -0.57371306 -0.58407277 -0.615916 -0.59531194
0001b0 c7 c4 14 3f 57 9e 17 3f 0d a3 17 3f b4 cf 13 3f
       0.5811276 0.5922598 0.5923317 0.57738805
0001c0 ec 4c 15 3f 98 e8 15 3f 62 a1 1c 3f b8 56 19 3f
       0.583205 0.58558035 0.6118375 0.5989795
0001d0 a6 ae 1e 3f dc 71 16 bf 95 45 17 bf 77 13 16 bf
       0.6198524 -0.58767486 -0.5909055 -0.5862345
0001e0 ba 15 1c bf a3 f6 1f bf 13 ea 1e bf 7b 89 17 bf
       -0.6097065 -0.6248571 -0.6207592 -0.59194154
0001f0 b4 03 1f bf 80 2f 17 bf b6 01 16 3f d5 70 19 3f
       -0.62115026 -0.59056854 0.5859636 0.59937793
000200 ca ab 12 3f f0 19 1f 3f 0e 80 15 3f ae 13 1a 3f
       0.5729338 0.6214895 0.5839852 0.6018628
000210 38 cf 16 3f 57 b3 14 3f 5b 1a 15 3f 1b 43 1c bf
       0.5890994 0.5808615 0.5824334 -0.61039895
000220 4a af 19 bf 29 5e 18 bf f7 3e 13 bf 51 f8 13 bf
       -0.60033095 -0.59518677 -0.5751795 -0.57800776
000230 f2 e9 1d bf 54 b3 19 bf ae 9a 16 bf 74 3e 13 bf
       -0.616851 -0.6003926 -0.5882977 -0.5751717
000240 30 03 12 bf 33 db 1e bf 45 d4 15 bf 8b 78 25 bf
       -0.57036114 -0.6205322 -0.5852702 -0.6463706
000250 d9 9e 27 bf 07 c6 22 bf 0c f5 0e bf f3 a3 1e bf
       -0.6547676 -0.63583416 -0.5584266 -0.61968917
000260 e9 c0 1a bf d2 62 15 bf 5b 7a 19 bf b3 d9 14 bf
       -0.6045061 -0.5835391 -0.59952325 -0.5814468
000270 ec da 16 bf 5c 75 1e bf 4c 60 1d bf 72 bb 13 bf
       -0.589278 -0.61897826 -0.6147506 -0.57707894
000280 fc 47 1a bf d5 18 1d bf f7 4a 1f bf 83 84 1a bf
       -0.6026609 -0.61366016 -0.6222376 -0.60358447
000290 92 84 1c bf 69 7e 11 bf 65 90 1c bf de fb 16 bf
       -0.61139786 -0.5683351 -0.6115783 -0.5897807
0002a0 bd f6 19 bf a2 d9 1b bf e7 7f 17 bf 62 fd 1f bf
       -0.6014212 -0.60878956 -0.5917954 -0.62496006
0002b0 0b f1 1a bf 4d d2 19 bf a1 5f 1f bf 9c 51 23 bf
       -0.6052405 -0.6008652 -0.62255293 -0.637964
0002c0 4d 33 1e bf de da 11 bf fa a8 1b bf 38 26 0f bf
       -0.6179703 -0.5697459 -0.6080471 -0.5591769
0002d0 b6 18 14 bf 77 54 1f bf 7c 81 13 bf 0c 80 15 bf
       -0.57850206 -0.6223826 -0.5761945 -0.5839851
0002e0 bd 82 18 bf 11 be 28 bf 45 a3 11 bf 73 43 24 bf
       -0.5957449 -0.6591502 -0.56889755 -0.6416542
0002f0 30 ca 20 bf ce 24 19 3f 9d aa 1a 3f fa 75 19 3f
       -0.62808514 0.59821784 0.60416585 0.5994564
000300 18 62 1b 3f 3d df 17 3f 41 0d 18 3f 7e 7c 15 3f
       0.60696554 0.5932501 0.59395224 0.58393085
000310 95 5d 20 3f 6a 3e 1d 3f 0b d1 14 bf c6 10 14 bf
       0.62642795 0.6142336 -0.58131474 -0.57838094
000320 e3 3f 16 bf f9 07 15 bf 54 06 14 bf 7a bf 1d bf
       -0.58691233 -0.5821529 -0.57822156 -0.61620295
000330 54 c6 12 bf 9a 3e 1d bf 11 dc 1f bf cd a5 1c bf
       -0.57333875 -0.6142365 -0.6244517 -0.6119049
000340 7e 39 1c bf 87 cc 1d bf 6b e1 1c bf 0e 6e 12 bf
       -0.61025226 -0.6164021 -0.6128146 -0.5719918
000350 76 ea 13 bf 24 7b 13 bf eb ab 16 bf 1d fd 1a bf
       -0.57779634 -0.5760977 -0.58856076 -0.6054247
000360 4e 54 1b 3f 10 58 14 3f 56 7e 14 3f 32 b1 18 3f
       0.60675514 0.5794687 0.58005273 0.5964538
000370 cf fb 16 3f 11 e5 1a 3f 20 f3 16 3f 65 1d 13 3f
       0.5897798 0.6050578 0.5896473 0.5746673
000380 85 d0 15 3f b6 4a 17 3f 83 61 16 3f 58 3b 1c 3f
       0.585213 0.59098375 0.5874254 0.6102805
000390 bc e3 19 3f 99 1f 19 3f 25 77 1b 3f f8 c4 1d 3f
       0.6011312 0.5981384 0.60728675 0.61628675
0003a0 c4 a9 1d 3f b9 c6 1f 3f eb cf 1d 3f b5 ef 17 3f
       0.61587167 0.624126 0.6164538 0.5935014
0003b0 25 93 17 3f b6 25 1d 3f 23 ca 19 3f 20 81 1a 3f
       0.592089 0.6138567 0.6007406 0.6035328
0003c0 36 57 16 3f a7 09 18 3f d5 4f 18 3f b8 63 1a 3f
       0.58726823 0.5938973 0.59496814 0.6030841
0003d0 fc f5 1a 3f 9f 19 18 3f 46 1b 15 3f 45 02 11 3f
       0.6053159 0.59414095 0.5824474 0.5664409
0003e0 b7 20 1e 3f 43 c1 15 3f c3 27 16 3f 58 c9 19 3f
       0.6176867 0.5849802 0.5865442 0.6007285
0003f0 9a da 16 bf b0 2a 0f bf fb d6 10 bf cf b4 19 bf
       -0.5892731 -0.5592451 -0.56578034 -0.60041517
