DIDFuse/saved_models/decoder/IR_AE17.pth (torch, 604881 bytes, 13 tensors)

module.Conv5.layers.0.weight f4 [64, 128, 3, 3]
0.59564745 0.5756735 0.5742815 0.6160606 0.6264763 0.6018832 0.6211066 0.57513463
0.60281056 0.6042359 0.57409793 0.6051733 0.58959925 0.6241496 0.60525846 0.57157224
0.5986003 0.5940931 0.61887854 0.5935494 0.60006684 0.57357466 0.61666405 0.6167415
0.59390205 0.57534677 0.60800153 0.5786627 0.61274123 0.58372724 0.590225 0.5843698
0.59294933 0.62292993 0.6105287 0.6035165 0.6086298 0.60808337 0.6172191 0.58817023
0.5712352 0.5843185 0.62389934 0.56952745 0.59301645 0.60448134 0.59312004 0.5793429
0.6007222 0.6133871 0.6269019 0.5722431 0.5871248 0.5942332 -0.60100746 -0.58709747
-0.6163814 -0.5829827 -0.60612565 -0.566391 -0.6217365 -0.59252393 -0.6227553 0.6245491
0.62909067 0.5934939 0.60838115 0.6071973 0.57478774 0.6033381 0.59421766 0.6019848
-0.604755 -0.6085297 -0.57580525 -0.61785704 -0.56632996 -0.5854129 0.78423554 0.7790773
-0.5272444 0.62436414 0.57530063 0.57095563 0.62583256 0.6059048 0.60356635 0.5853999
0.5870529 0.57131535 -0.5935886 -0.5937543 -0.61019266 -0.6291856 -0.6049166 -0.63051116
-0.63711935 -0.6067903 -0.6690728 -0.57988876 -0.5763758 -0.62219405 -0.57909954 -0.61183316
-0.5965733 -0.5782573 -0.5744638 -0.5966109 -0.5947711 -0.6105859 -0.62566817 -0.5856241
-0.61124235 -0.57892776 -0.6155627 -0.586904 -0.58604044 0.60989386 0.6168493 0.5972919
0.5911088 0.6010843 0.597438 0.6055508 0.5826443 0.59706753 -0.6170588 -0.59154767
-0.6138177 -0.59522223 -0.61660695 -0.6048859 -0.58903086 -0.61635053 -0.6129739 -0.5931205
-0.6220314 -0.58890295 -0.58796996 -0.5810098 -0.59496015 -0.59858406 -0.5744922 -0.59392464
-0.5935718 -0.5972164 -0.59168535 -0.62492716 -0.61486286 -0.6263197 -0.59981394 -0.614893
-0.57748735 0.6218778 0.62632823 0.605926 0.5928872 0.63058573 0.5902693 -0.59426767
-0.62017244 -0.5539876 -0.591724 -0.58491486 -0.6135448 0.6240346 -0.58210117 0.59908795
0.59070283 0.60414004 0.61400044 0.6026455 0.5878873 0.5994429 0.6112708 0.61728615
0.61073315 0.5913275 0.6254415 0.5823032 0.59768325 0.6186153 0.61096835 0.57907206
0.5960826 0.6068198 -0.57422566 -0.6157857 -0.6031839 0.57976526 0.5914821 0.6276655
0.57723737 0.59068036 0.62814534 0.613813 0.5953843 0.59730536 0.6185443 0.5934465
0.6230075 0.62821317 0.6083308 0.57900053 0.6298085 0.58248466 0.58418196 -0.62124753
-0.5929074 -0.6128491 -0.62411284 -0.62536734 -0.61729693 -0.71277326 -0.6382441 -0.57834005
-0.60817826 -0.58697 -0.57475525 -0.6065752 -0.6204792 -0.62472004 -0.6062968 -0.5866941
-0.60029423 -0.6028154 -0.58754426 -0.61704075 -0.5945582 -0.5871167 -0.5868324 -0.60692304
-0.6261244 -0.6021697 0.6200624 0.5790259 0.58018297 0.5888401 0.58603287 0.5921915
0.5727058 0.59116876 0.5982963 -0.58162767 -0.57976294 -0.6026303 -0.5762028 -0.57684034
-0.62249 -0.61772704 -0.5876102 -0.61701155 0.6101713 0.61239606 0.60595006 0.6290219
00000000: 5a7c 183f 575f 133f 1d04 133f 26b6 1d3f
00000010: c060 203f 0415 1a3f d800 1f3f 063c 133f
00000020: cb51 1a3f 34af 1a3f 15f8 123f a3ec 1a3f
00000030: faef 163f 45c8 1f3f 38f2 1a3f 8f52 123f
00000040: df3d 193f 7c16 183f d36e 1e3f daf2 173f
00000050: fb9d 193f cad5 123f b2dd 1d3f c5e2 1d3f
00000060: f709 183f ed49 133f fda5 1b3f 3d23 143f
00000070: 9cdc 1c3f 266f 153f fc18 173f 4299 153f
00000080: 87cb 173f 5678 1f3f 9c4b 1c3f 0f80 1a3f
00000090: 2acf 1b3f 5aab 1b3f 1202 1e3f 5392 163f
000000a0: 783c 123f e695 153f deb7 1f3f 8dcc 113f
000000b0: edcf 173f 4abf 1a3f b7d6 173f d14f 143f
000000c0: eec8 193f f006 1d3f a57c 203f 867e 123f
000000d0: d04d 163f ab1f 183f a0db 19bf 054c 16bf
000000e0: 2ccb 1dbf 5b3e 15bf 0d2b 1bbf 00ff 10bf
000000f0: 202a 1fbf a6af 17bf e46c 1fbf 73e2 1f3f
00000100: 160c 213f 37ef 173f debe 1b3f 4871 1b3f
00000110: 4a25 133f 5e74 1a3f a61e 183f ad1b 1a3f
00000120: 39d1 1abf 9ac8 1bbf f967 13bf e12b 1ebf
00000130: 00fb 10bf 9fdd 15bf a9c3 483f 9c71 473f
00000140: 7df9 06bf 54d6 1f3f e746 133f 262a 123f
00000150: 9036 203f 941c 1b3f 5383 1a3f c5dc 153f
00000160: 1949 163f b941 123f 6cf5 17bf 4800 18bf
00000170: 9635 1cbf 4f12 21bf d0db 1abf 2e69 21bf
00000180: 411a 23bf 9c56 1bbf 5b48 2bbf 9773 14bf
00000190: 5d8d 13bf 1c48 1fbf de3f 14bf 19a1 1cbf
000001a0: 07b9 18bf ac08 14bf 0f10 13bf 7ebb 18bf
000001b0: eb42 18bf 5c4f 1cbf ca2b 20bf 76eb 15bf
000001c0: 617a 1cbf 9c34 14bf 8495 1dbf 573f 16bf
000001d0: bf06 16bf 0122 1c3f d6e9 1d3f 1fe8 183f
000001e0: e852 173f a9e0 193f b2f1 183f 6105 1b3f
000001f0: 2d28 153f 6bd9 183f 91f7 1dbf ab6f 17bf
00000200: 2823 1dbf 7c60 18bf f4d9 1dbf cdd9 1abf
00000210: baca 16bf 26c9 1dbf dceb 1cbf bfd6 17bf
00000220: 733d 1fbf 58c2 16bf 3385 16bf 0fbd 14bf
00000230: 4f4f 18bf ce3c 19bf ec11 13bf 720b 18bf
00000240: 52f4 17bf 2de3 18bf b178 17bf 3afb 1fbf
00000250: a767 1dbf 7d56 20bf 688d 19bf a169 1dbf
00000260: 36d6 13bf 6233 1f3f 0c57 203f f71d 1b3f
00000270: 75c7 173f 116e 213f e41b 173f ed21 18bf
00000280: 9fc3 1ebf 22d2 0dbf 397b 17bf fbbc 15bf
00000290: 4611 1dbf bbc0 1f3f 9504 15bf d45d 193f
000002a0: 4d38 173f eca8 1a3f 222f 1d3f fa46 1a3f
000002b0: c87f 163f 1775 193f 3e7c 1c3f 7706 1e3f
000002c0: 0259 1c3f 3d61 173f ef1c 203f d311 153f
000002d0: c501 193f 935d 1e3f 6c68 1c3f 113e 143f
000002e0: df98 183f 8b58 1b3f 7400 13bf 22a4 1dbf
000002f0: 436a 1abf 7f6b 143f 5f6b 173f b0ae 203f
00000300: d4c5 133f d436 173f 22ce 203f d922 1d3f
00000310: 1b6b 183f 01e9 183f eb58 1e3f 1cec 173f
00000320: 6b7d 1f3f 94d2 203f 91bb 1b3f 6139 143f
00000330: 213b 213f b71d 153f f38c 153f 140a 1fbf
00000340: c8c8 17bf aee3 1cbf dcc5 1fbf 1318 20bf
00000350: 2c07 1ebf 4f78 36bf f763 23bf 180e 14bf
00000360: 92b1 1bbf aa43 16bf 2923 13bf 8348 1bbf
00000370: bad7 1ebf a7ed 1fbf 4436 1bbf 9631 16bf
00000380: e2ac 19bf 1c52 1abf 4d69 16bf 62f6 1dbf
00000390: f734 18bf 484d 16bf a63a 16bf 4f5f 1bbf
000003a0: b049 20bf cb27 1abf 69bc 1e3f 0b3b 143f
000003b0: df86 143f 3abe 163f 4006 163f dd99 173f
000003c0: d99c 123f d656 173f f229 193f 8de5 14bf
000003d0: 586b 14bf fb45 1abf 0782 13bf cfab 13bf
000003e0: 815b 1fbf 5c23 1ebf 9f6d 16bf 78f4 1dbf
000003f0: 3034 1c3f fdc5 1c3f 8b1f 1b3f 9407 213f

module.Conv5.layers.0.bias f4 [64]
-0.061951086 -0.03898346 -0.121781476 0.022782763 -0.024200173 -0.05084018 0.09593337 0.113856114
-0.056863237 0.058685966 0.004703539 0.05062955 -0.034490913 -0.07597833 0.06467974 -0.13144283
-0.05840882 -0.0027966038 0.045864798 -0.012903719 -0.05563739 0.08240981 0.13498878 -0.109676115
-0.086885944 0.06492804 -0.0012632825 -0.101263344 -0.0025069509 0.07959271 -0.020456474 -0.029892158
0.009252483 -0.010943781 -0.012878142 -0.01727314 0.012511686 -0.04887824 0.15301268 -0.023661168
-0.081752285 0.007877652 0.0076896334 0.0027861367 0.14384642 0.15430126 0.037520017 -0.06340789
0.1336761 -0.05418596 0.036981184 0.018150507 0.16519941 -0.035801202 0.06558547 0.053224135
0.00012263007 0.016414106 -0.019554839 -0.0024747686 0.044040952 -0.011552492 0.062056832 -0.12326715
00000000: 6cc0 7dbd 1fad 1fbd 9168 f9bd eba2 ba3c
00000010: 713f c6bc cb3d 50bd b778 c43d 652d e93d
00000020: 6de9 68bd b260 703d 2520 9a3b ee60 4f3d
00000030: 5846 0dbd 879a 9bbd d076 843d f398 06be
00000040: 163e 6fbd 3a47 37bb badc 3b3d 1f6a 53bc
00000050: 08e4 63bd 79c6 a83d 803a 0a3e df9d e0bd
00000060: 42f1 b1bd fef8 843d ba94 a5ba 2863 cfbd
00000070: a84b 24bb 8101 a33d 5694 a7bc 66e0 f4bc
00000080: ba97 173c 8b4d 33bc d8fe 52bc 6680 8dbc
00000090: d1fd 4c3c 8d34 48bd 5baf 1c3e 11d5 c1bc
000000a0: be6d a7bd 4411 013c 52f9 fb3b 9e97 363b
000000b0: 7a4c 133e 2601 1e3e 97ae 193d ffdb 81bd
000000c0: 63e2 083e 19f2 5dbd 9579 173d 5fb0 943c
000000d0: 092a 293e 48a4 12bd ad51 863d 8d01 5a3d
000000e0: 4296 0039 e076 863c 7831 a0bc ba2f 22bb
000000f0: 4964 343d aa46 3dbc 4e2f 7e3d 7d73 fcbd

module.Conv5.layers.1.weight f4 [64]
0.56856006 0.29137224 1.2279543 1.1591439 0.54864097 1.34193 0.41088217 1.4649312
1.7284429 -0.07260497 0.7618809 1.6427091 1.9272124 2.1837676 1.3375889 1.1214885
2.5950499 2.7045243 0.42060667 2.9688213 -0.07180576 0.22279657 0.044937443 2.205622
1.227456 0.61810035 1.2656745 1.2687165 1.532037 1.1367402 2.9465833 1.7308035
0.15352577 0.828662 2.2432246 -1.0289668 1.7777901 1.2280036 0.84796894 0.34284464
0.3576938 0.9094823 0.6945643 1.1623034 0.40924552 0.8070377 0.3955274 2.6810029
-0.77730256 0.9405695 0.88597447 0.31160522 0.31187102 -0.39195043 -1.1735842 0.34676185
2.416122 -0.6050337 0.39185578 1.26606 1.7118418 1.6013298 0.11385393 1.2987262
00000000: 278d 113f be2e 953e 9b2d 9d3f d45e 943f
00000010: bc73 0c3f 5dc4 ab3f 265f d23e de82 bb3f
00000020: 9e3d dd3f eab1 94bd a00a 433f 4b44 d23f
00000030: e5ae f63f d9c2 0b40 1d36 ab3f ef8c 8f3f
00000040: 4c15 2640 ed16 2d40 c259 d73e 2b01 3e40
00000050: e60e 93bd c924 643e 5310 383d e928 0d40
00000060: 471d 9d3f d33b 1e3f 9f01 a23f 4d65 a23f
00000070: ca19 c43f b480 913f d294 3c40 f88a dd3f
00000080: dc35 1d3e 3123 543f fe90 0f40 2fb5 83bf
00000090: a08e e33f 392f 9d3f 7e14 593f 5589 af3e
000000a0: a423 b73e d5d3 683f f7ce 313f 5cc6 943f
000000b0: a188 d13e 069a 4e3f 9182 ca3e 8d95 2b40
000000c0: 4dfd 46bf 2ac9 703f 39cf 623f b88a 9f3e
000000d0: 8fad 9f3e baad c8be 0238 96bf c58a b13e
000000e0: bea1 1a40 7de3 1abf 52a1 c83e 410e a23f
000000f0: a21d db3f 60f8 cc3f 402c e93d a93c a63f

module.Conv5.layers.1.bias f4 [64]
-0.98533845 -1.2025287 0.1420459 1.0568997 0.9561858 1.7680099 -0.88160986 -0.16287532
0.36926797 -0.7130603 -1.0480179 0.6375108 1.8918053 1.2585161 0.36220494 0.9564162
1.4827837 0.78650177 -0.709879 -3.4536607 -1.1472924 -0.5384954 -1.575094 1.003979
0.057383128 -0.35336894 0.22777097 -0.41546464 3.5104814 0.033666793 -0.18397723 1.310499
-0.5327573 -0.062278558 0.23509003 -0.121812016 0.26918167 -0.0008448243 0.4504158 -1.220615
-0.9447004 -0.19999112 -0.89609516 0.4150042 -0.7121952 -0.13728186 -0.6293847 -4.4551063
-1.0489738 0.41396794 0.88709646 -0.06056111 -0.91960275 1.0970362 -0.9797464 -0.57053703
1.3045523 1.0432227 0.6212321 0.4516546 1.7138164 -0.97975665 -0.5834696 -0.32405534
00000000: 243f 7cbf 76ec 99bf 7b74 113e 7d48 873f
00000010: 98c8 743f 264e e23f 2fb1 61bf cac8 26be
00000020: b110 bd3e 1f8b 36bf 7325 86bf e833 233f
00000030: ad26 f23f 0e17 a13f ed72 b93e b1d7 743f
00000040: dbcb bd3f 2e58 493f a1ba 35bf c708 5dc0
00000050: 7ada 92bf d6da 09bf ae9c c9bf 6282 803f
00000060: 920a 6b3d c6ec b4be cb3c 693e c8b7 d4be
00000070: baab 6040 31e6 093d 8764 3cbe 6ebe a73f
00000080: c862 08bf cd17 7fbd 71bb 703e 9478 f9bd
00000090: 2ed2 893e 3377 5dba e69c e63e 1d3d 9cbf
000000a0: e3d7 71bf 79ca 4cbe 7e66 65bf 6e7b d43e
000000b0: 6d52 36bf 9e93 0cbe 5b1f 21bf 3b90 8ec0
000000c0: c644 86bf 9bf3 d33e c118 633f ed0e 78bd
000000d0: 166b 6bbf af6b 8c3f a9d0 7abf b70e 12bf
000000e0: 92fb a63f 5288 853f 1109 1f3f 463f e73e
000000f0: 565e db3f 55d1 7abf 445e 15bf 95ea a5be

module.Conv5.layers.1.running_mean f4 [64]
-224.89087 -188.3033 13.728834 213.75066 178.27756 222.6628 221.86319 -143.02759
175.15347 117.06623 -217.38054 -222.46768 -75.84957 -205.72523 -204.34453 -196.63768
-147.25847 -131.44176 206.97731 -227.43523 203.8449 199.59784 -199.6503 155.60995
175.26022 -202.98872 -206.75752 174.91064 88.34851 -195.60445 151.36153 -100.10668
103.181244 -193.00317 194.69109 119.84166 -208.41039 -210.74121 -144.86404 89.75793
164.26778 -181.37402 187.84949 -214.67888 194.4736 -188.22041 206.70413 -146.63715
199.20837 -208.0283 207.07526 -138.40836 211.98549 9.007656 194.47668 115.79114
-107.16959 88.7734 227.1752 -32.243813 238.1345 124.16721 128.00612 211.36884
00000000: 10e4 60c3 a54d 3cc3 4ea9 5b41 2bc0 5543
00000010: 0e47 3243 ada9 5e43 fadc 5d43 1007 0fc3
00000020: 4a27 2f43 e921 ea42 6b61 59c3 ba77 5ec3
00000030: fbb2 97c2 a9b9 4dc3 3358 4cc3 3fa3 44c3
00000040: 2b42 13c3 1771 03c3 31fa 4e43 6b6f 63c3
00000050: 4bd8 4b43 0c99 4743 7aa6 47c3 269c 1b43
00000060: 9e42 2f43 1dfd 4ac3 edc1 4ec3 20e9 2e43
00000070: 70b2 b042 bd9a 43c3 8d5c 1743 9f36 c8c2
00000080: cc5c ce42 d000 41c3 ebb0 4243 eeae ef42
00000090: 0f69 50c3 c0bd 52c3 32dd 10c3 0f84 b342
000000a0: 8d44 2443 c05f 35c3 78d9 3b43 cbad 56c3
000000b0: 3e79 4243 6d38 3cc3 42b4 4e43 1ca3 12c3
000000c0: 5835 4743 3f07 50c3 4413 4f43 8a68 0ac3
000000d0: 49fc 5343 5c1f 1041 087a 4243 1095 e742
000000e0: d556 d6c2 fb8b b142 da2c 6343 aaf9 00c2
000000f0: 6f22 6e43 9d55 f842 9101 0043 6c5e 5343

module.Conv5.layers.1.running_var f4 [64]
4305.872 835.5634 1156.1982 1820.7145 891.4071 932.1557 2188.242 2739.7754
7910.4556 724.7634 1735.2341 7623.7925 6208.6855 6867.1743 5153.5635 2476.3184
3366.297 5311.103 4686.5366 6822.82 619.7142 6677.375 941.1279 11018.919
483.70337 4387.077 4102.3687 1389.5004 938.3829 1470.2753 8305.042 6853.6294
494.91733 5596.439 6749.277 605.53534 5064.872 9572.345 1946.2195 4798.887
1743.5533 6232.411 1493.5984 6250.025 6563.6987 1677.4971 2058.0996 251.98534
2461.5916 4578.996 3734.4785 5048.243 4971.041 2782.0757 4364.1523 1025.6987
4104.826 5728.399 3178.8674 2314.489 1764.9875 332.885 3287.816 3289.7988
00000000: fa8e 8645 0fe4 5044 5886 9044 dd96 e344
00000010: 0eda 5e44 f709 6944 dfc3 0845 683c 2b45
00000020: a533 f745 dc30 3544 7ee7 d844 573e ee45
00000030: 7c05 c245 6599 d645 820c a145 18c5 1a45
00000040: c164 5245 d3f8 a545 4b74 9245 8f36 d545
00000050: b5ed 1a44 00ab d045 3048 6b44 ad2b 2c46
00000060: 08da f143 9e18 8945 f332 8045 03b0 ad44
00000070: 8198 6a44 cfc8 b744 2bc4 0146 092d d645
00000080: 6b75 f743 83e3 ae45 37ea d245 4362 1744
00000090: fa46 9e45 6191 1546 0647 f344 19f7 9545
000000a0: b5f1 d944 4ac3 c245 26b3 ba44 3350 c345
000000b0: 971d cd45 e8af d144 98a1 0045 3ffc 7b43
000000c0: 77d9 1945 f817 8f45 a867 6945 f2c1 9d45
000000d0: 5458 9b45 36e1 2d45 3861 8845 5c36 8044
000000e0: 9c46 8045 3103 b345 e1ad 4645 d3a7 1045
000000f0: 9a9f dc44 4871 a643 0e7d 4d45 c89c 4d45

module.Conv6.layers.0.weight f4 [64, 128, 3, 3]
0.5925059 0.6046541 0.57690656 0.5897497 0.60729223 0.60656106 0.57621986 0.6139692
0.6308832 0.5932077 0.58507466 0.5847875 0.623585 0.61658436 0.61832434 0.57550704
0.5800195 0.5792579 -0.57748246 -0.60954916 -0.6193111 -0.5958587 -0.6113351 -0.576817
-0.5822807 -0.57852316 -0.61053365 0.5846954 0.61991507 0.6166629 0.60212016 0.5720936
0.6127633 0.6027618 0.6080581 0.5734504 0.58654356 0.60466015 0.57437545 0.57240963
0.6026352 0.5897507 0.58956933 0.6004905 0.57903886 0.58903706 0.6210542 0.6332319
0.5960514 0.6088166 0.58811855 0.60713434 0.61789477 0.62912583 0.6247738 0.6285322
0.6114239 0.57431024 0.62173367 0.5765821 0.59989136 0.60220635 0.6046546 -0.62848824
-0.59045583 -0.61136705 -0.63391227 -0.5926478 -0.61522394 -0.62259346 -0.58729 -0.6251304
-0.57431597 -0.5879207 -0.60885626 -0.6099298 -0.58678734 -0.6179923 -0.6238652 -0.60902035
-0.5767992 0.5950263 0.62108296 0.626617 0.59526527 0.58196753 0.5898144 0.6070927
0.5713075 0.60536486 0.62824446 0.6283169 0.652318 0.5823678 0.6243605 0.59421366
0.6067018 0.5933865 0.5868458 0.62085176 0.57937443 0.6167125 0.60431683 0.587589
0.58575416 0.59700036 0.6042127 0.582065 0.58896106 0.60253084 0.6139296 0.58389163
0.60493 0.580516 0.61362135 0.62551725 0.6106855 0.5691273 0.57202435 0.62677073
0.6008782 0.5890266 0.5702218 0.62106806 0.62603104 0.5752382 -0.6525684 -0.61193
-0.62182534 0.04456823 -0.6613278 -0.6012113 0.6119375 0.6106905 -0.6153864 -0.56881255
-0.5686357 -0.23570596 -0.5644043 -0.5822067 -0.55906874 -0.5972597 -0.61237884 -0.5910373
0.59404516 0.6002849 0.6007115 0.58172023 0.60832125 0.570817 0.5818975 0.59629107
0.5881892 0.58332175 0.5983667 0.61332107 0.623937 0.59987444 0.5695915 0.590502
0.5895221 0.61626107 0.6058911 0.58948797 0.5881469 0.59363455 0.59478927 0.59994334
0.5901477 0.5853992 0.59863544 0.6273922 0.58496785 0.6088631 0.595685 0.59128964
0.6253784 0.6159145 0.5968237 0.6170609 -0.61568874 -0.62298614 -0.5784995 -0.61468315
-0.6160195 -0.616992 -0.6227833 -0.5870148 -0.58598495 0.6060155 0.57248276 0.57499194
0.61708254 0.59387434 0.6048116 0.6279733 0.58451945 0.6198856 0.60384065 0.6299892
-0.57830155 0.6139956 0.62911445 0.59251845 0.5741391 0.59535235 0.5806763 -0.58251995
-0.5740415 -0.56460804 -0.60803694 -0.61268336 -0.62084687 -0.62860656 -0.5763532 -0.59328175
-0.5840065 -0.58369243 -0.62520814 -0.6160475 -0.58571744 -0.6156067 -0.60276175 -0.61937076
-0.62319 -0.61949277 -0.6296067 -0.60568744 -0.5917487 -0.5863723 -0.5987097 -0.6198352
-0.5749557 -0.61509866 0.6006911 0.6007733 0.6242788 0.58689994 0.6100573 0.60029286
0.61062837 0.62599874 0.57173073 -0.57955873 -0.597564 -0.6174214 -0.6144282 -0.6268997
-0.60013014 -0.62448597 -0.6260622 -0.5975008 0.5819568 0.5770973 0.5941837 0.62124664
00000000: 77ae 173f 9cca 1a3f 26b0 133f d6f9 163f
00000010: 8177 1b3f 9647 1b3f 2583 133f 162d 1d3f
00000020: 9081 213f 76dc 173f 74c7 153f a2b4 153f
00000030: 44a3 1f3f 79d8 1d3f 814a 1e3f 6e54 133f
00000040: 287c 143f 3f4a 143f e4d5 13bf 6a0b 1cbf
00000050: 2c8b 1ebf 328a 18bf 7580 1cbf 47aa 13bf
00000060: 5910 15bf 181a 14bf ef4b 1cbf 99ae 153f
00000070: c1b2 1e3f 9fdd 1d3f 8c24 1a3f ba74 123f
00000080: 0ede 1c3f 994e 1a3f b2a9 1b3f a5cd 123f
00000090: b827 163f 02cb 1a3f 450a 133f 7089 123f
000000a0: 4d46 1a3f e7f9 163f 04ee 163f bfb9 193f
000000b0: e43b 143f 22cb 163f 68fd 1e3f 7c1b 223f
000000c0: d396 183f 68db 1b3f f08e 163f 286d 1b3f
000000d0: 5a2e 1e3f 640e 213f 2df1 1f3f 7ce7 203f
000000e0: 4786 1c3f ff05 133f f029 1f3f e29a 133f
000000f0: 7b92 193f 322a 1a3f a5ca 1a3f 9be4 20bf
00000100: 1d28 17bf 8d82 1cbf 1348 22bf c4b7 17bf
00000110: 517f 1dbf 4962 1fbf a358 16bf 8c08 20bf
00000120: 5f06 13bf f981 16bf 01de 1bbf 5c24 1cbf
00000130: b237 16bf be34 1ebf a1b5 1fbf c2e8 1bbf
00000140: 1da9 13bf a553 183f 4bff 1e3f f969 203f
00000150: 4e63 183f d3fb 143f 14fe 163f 6d6a 1b3f
00000160: 3541 123f 31f9 1a3f a1d4 203f 60d9 203f
00000170: 50fe 263f 0e16 153f 17d6 1f3f 631e 183f
00000180: cf50 1b3f 2de8 173f 873b 163f 24f0 1e3f
00000190: e251 143f dfe0 1d3f 82b4 1a3f 3c6c 163f
000001a0: fcf3 153f 04d5 183f afad 1a3f 3602 153f
000001b0: 27c6 163f 763f 1a3f 7e2a 1d3f ec79 153f
000001c0: b1dc 1a3f b29c 143f 4a16 1d3f e621 203f
000001d0: e355 1c3f 54b2 113f 3070 123f 0c74 203f
000001e0: 27d3 193f 72ca 163f 0efa 113f 51fe 1e3f
000001f0: 9243 203f d042 133f b90e 27bf 72a7 1cbf
00000200: f22f 1fbf 2d8d 363d c74c 29bf fce8 19bf
00000210: f0a7 1c3f 3656 1c3f f789 1dbf b39d 11bf
00000220: 1c92 11bf e75c 71be cd7c 10bf 800b 15bf
00000230: 211f 0fbf 03e6 18bf dcc4 1cbf 384e 17bf
00000240: 5813 183f 45ac 193f 3bc8 193f 9eeb 143f
00000250: f1ba 1b3f 1021 123f 3cf7 143f 88a6 183f
00000260: 9193 163f 9354 153f 8f2e 193f 9c02 1d3f
00000270: 56ba 1f3f 5f91 193f c0d0 113f 242b 173f
00000280: ecea 163f 49c3 1d3f ae1b 1b3f afe8 163f
00000290: cc90 163f 6ff8 173f 1c44 183f e395 193f
000002a0: eb13 173f b9dc 153f 2c40 193f c69c 203f
000002b0: 74c0 153f 74de 1b3f d07e 183f c25e 173f
000002c0: cc18 203f 93ac 1d3f 70c9 183f b4f7 1d3f
000002d0: c79d 1dbf 057c 1fbf 8b18 14bf e05b 1dbf
000002e0: 74b3 1dbf 30f3 1dbf ba6e 1fbf 9a46 16bf
000002f0: 1c03 16bf d523 1b3f 3b8e 123f ac32 133f
00000300: 1ff9 1d3f 2608 183f efd4 1a3f dcc2 203f
00000310: 11a3 153f d3b0 1e3f 4d95 1a3f f946 213f
00000320: 920b 14bf d12e 1d3f a50d 213f 4aaf 173f
00000330: c8fa 123f 0369 183f 34a7 143f 0720 15bf
00000340: 62f4 12bf 278a 10bf 4fa8 1bbf d1d8 1cbf
00000350: d2ef 1ebf 5cec 20bf e28b 13bf 50e1 17bf
00000360: 7381 15bf de6c 15bf a40d 20bf 4ab5 1dbf
00000370: 94f1 15bf 6798 1dbf 984e 1abf 158f 1ebf
00000380: 6189 1fbf 1497 1ebf e82d 21bf 550e 1bbf
00000390: d87c 17bf 7f1c 16bf 0a45 19bf 85ad 1ebf
000003a0: 4c30 13bf 1b77 1dbf e4c6 193f 47cc 193f
000003b0: bcd0 1f3f 133f 163f b72c 1c3f cbac 193f
000003c0: 2452 1c3f 7441 203f f25c 123f f65d 14bf
000003d0: f4f9 18bf 540f 1ebf 2b4b 1dbf 807c 20bf
000003e0: 21a2 19bf 50de 1fbf 9d45 20bf d0f5 18bf
000003f0: 1ffb 143f a6bc 133f 6c1c 183f 050a 1f3f

module.Conv6.layers.0.bias f4 [64]
0.047939993 -0.07390512 -0.037114818 0.050258692 0.012819822 -0.06548443 0.027172627 -0.095680214
0.04693696 0.021642527 -0.05513002 0.09022746 -0.3215174 0.016078457 0.0063514747 -0.11550962
-0.0617883 -0.11923004 -0.13223863 0.11224586 0.120457366 0.09102502 -0.049279347 -0.11409587
0.1863606 0.14744844 0.026121788 0.019337112 0.08970693 -0.05107499 0.037169762 0.026685286
0.014337534 -0.008948525 0.0595527 0.052574266 -0.003809305 0.10014459 0.10744332 0.27767622
0.03852774 -0.030999672 0.066151835 -0.030800512 -0.087268166 0.036554538 -0.18652861 0.061136294
0.05416751 0.022439625 -0.015690435 -0.019578459 -0.049780853 -0.1413923 0.04631226 0.24814118
-0.08108295 0.061180323 0.110647246 0.055805143 0.20480984 0.16224241 -0.16972817 -0.02375145
00000000: ba5c 443d 915b 97bd b505 18bd 0fdc 4d3d
00000010: 3b0a 523c b31c 86bd 2199 de3c fdf3 c3bd
00000020: f840 403d ab4b b13c 04d0 61bd 2dc9 b83d
00000030: ee9d a4be f8b6 833c 0820 d03b 4f90 ecbd
00000040: ba15 7dbd e12e f4bd 9069 07be 28e1 e53d
00000050: 5ab2 f63d 536b ba3d 24d9 49bd 18ab e9bd
00000060: 50d5 3e3e b9fc 163e 5cfd d53c dd68 9e3c
00000070: 44b8 b73d 0234 51bd 523f 183d 1a9b da3c
00000080: fae7 6a3c d69c 12bc 88ed 733d 1d58 573d
00000090: 88a5 79bb 9b18 cd3d 3e0b dc3d 942b 8e3e
000000a0: 43cf 1d3d 06f3 fdbc 9d7a 873d 5b51 fcbc
000000b0: a7b9 b2bd 36ba 153d 5b01 3fbe 0d6a 7a3d
000000c0: c0de 5d3d 4ed3 b73c 3a89 80bc 0163 a0bc
000000d0: 02e7 4bbd 25c9 10be edb1 3d3d b918 7e3e
000000e0: d10e a6bd 3898 7a3d 069b e23d ef93 643d
000000f0: acb9 513e e022 263e 39cd 2dbe 6792 c2bc

module.Conv6.layers.1.weight f4 [64]
0.6451952 0.4758772 1.4608952 0.91232854 0.8846569 1.5988619 0.56136686 1.0620894
0.8378557 0.8545928 0.47144347 0.4201961 0.7053917 0.93018234 0.31364405 0.44023094
1.002381 0.7576382 1.1177471 1.1763673 1.1086543 1.5583936 0.7587016 1.1053582
0.4584607 1.5482153 1.2292576 0.514 0.6617965 0.491944 0.9592766 1.0975304
0.41310874 0.45410123 1.0959473 1.1224843 0.3607946 1.4605886 0.41202313 1.2871939
1.1362596 0.86576056 0.14190133 0.7926103 1.5082631 2.0855834 1.5904114 -0.2676462
0.7694776 0.035608232 0.7699147 1.144512 1.133117 0.9095436 0.39207706 1.5435207
0.50355685 0.95125777 0.56780905 -0.8018035 0.45599824 0.30983675 1.2683741 1.4998941
00000000: 832b 253f 2da6 f33e 9dfe ba3f 5d8e 693f
00000010: e078 623f 82a7 cc3f bdb5 0f3f 8cf2 873f
00000020: b67d 563f 98c6 5a3f 0a61 f13e f123 d73e
00000030: 8d94 343f 6e20 6e3f f495 a03e f365 e13e
00000040: 054e 803f 94f4 413f 5612 8f3f 3493 963f
00000050: 62e8 8d3f 7179 c73f 453a 423f 617c 8d3f
00000060: 5cbb ea3e eb2b c63f 5058 9d3f 8195 033f
00000070: 7f6b 293f 15e0 fb3e 2793 753f e07b 8c3f
00000080: fd82 d33e f57f e83e 0048 8c3f 91ad 8f3f
00000090: 12ba b83e 91f4 ba3f b2f4 d23e c5c2 a43f
000000a0: f470 913f 7ca2 5d3f 954e 113e 82e8 4a3f
000000b0: c40e c13f 337a 0540 9a92 cb3f ec08 89be
000000c0: 7cfc 443f f0d9 113d 2119 453f 5f7f 923f
000000d0: fa09 913f d9d7 683f 53be c83e 1692 c53f
000000e0: 1ae9 003f a185 733f ef5b 113f ff42 4dbf
000000f0: 9a78 e93e eca2 9e3e 155a a23f 88fc bf3f

module.Conv6.layers.1.bias f4 [64]
-1.7051142 -0.64768773 0.6013401 1.3604339 1.8422204 0.48733243 1.1424212 1.9777808
1.9742082 -1.0502968 0.6516584 -1.0209979 -0.28907913 1.9117297 0.68256915 -1.2844337
3.1381552 -2.5606375 1.1521995 2.365828 -2.189647 0.49998307 -1.4190713 1.1760405
-0.58119017 0.5316655 1.1765997 -0.7872027 -1.75588 -1.37402 1.8713081 2.4181473
0.9889292 1.1016985 -1.9734132 2.5687969 0.8233965 0.5034793 -0.85690695 2.0201235
-3.8720777 -1.009338 -0.66622293 2.478583 0.69130856 4.725049 0.53100693 0.84768444
-1.2938157 -0.50731987 -0.63408273 1.1467012 1.8629537 1.9221505 -0.5632208 0.54145664
-0.43238166 -2.971983 -1.3290908 0.41044605 -1.1348703 -0.5610711 1.6090237 4.6687274
00000000: 2f41 dabf ddce 25bf 6df1 193f b322 ae3f
00000010: e1cd eb3f a383 f93e dc3a 923f ec27 fd3f
00000020: dbb2 fc3f 2070 86bf 16d3 263f 0fb0 82bf
00000030: 2e02 94be 8fb3 f43f dabc 2e3f 5368 a4bf
00000040: 89d7 4840 7ce1 23c0 467b 933f ba69 1740
00000050: 2d23 0cc0 c8fd ff3e 21a4 b5bf 7f88 963f
00000060: e1c8 14bf 3b1b 083f d29a 963f 1e86 49bf
00000070: adc0 e0bf e3df afbf 0687 ef3f edc2 1a40
00000080: 772a 7d3f 7504 8d3f ce98 fcbf 2b67 2440
00000090: 1dca 523f 05e4 003f 415e 5bbf b449 0140
000000a0: 1fd0 77c0 fd31 81bf 968d 2abf 1ba1 1e40
000000b0: 99f9 303f 9a33 9740 12f0 073f d901 593f
000000c0: c19b a5bf b7df 01bf 3f53 22bf 1bc7 923f
000000d0: 4475 ee3f 0709 f63f 3d2f 10bf e79c 0a3f
000000e0: 2161 ddbe f834 3ec0 a61f aabf fc25 d23e
000000f0: 6e43 91bf 5ba2 0fbf 7df4 cd3f 3766 9540

module.Conv6.layers.1.running_mean f4 [64]
183.14886 -169.09058 186.93176 -199.69824 -180.80676 210.08188 170.67543 172.14752
159.9243 80.82564 217.76056 178.17133 -151.14491 -173.42062 193.45102 176.24889
-190.82419 163.77145 -108.93142 -165.55273 177.33347 212.01694 160.2565 -118.22289
-198.13945 189.1197 182.68016 -162.6888 175.21193 209.89882 -161.3053 -178.61255
175.29213 190.89328 166.29616 -174.00812 -187.17429 194.8987 165.70013 168.61914
195.83356 189.84865 -119.74885 -186.37225 190.51186 -144.42772 201.28136 -104.11755
174.07773 -223.20007 -38.74673 -240.35674 -208.9974 -164.08066 -185.24963 190.49391
-189.84485 168.60484 158.62491 201.70108 157.23666 -221.81073 -170.80365 -190.17278
00000000: 1c26 3743 3017 29c3 88ee 3a43 c0b2 47c3
00000010: 88ce 34c3 f614 5243 e9ac 2a43 c425 2c43
00000020: 9fec 1f43 baa6 a142 b4c2 5943 dc2b 3243
00000030: 1925 17c3 ae6b 2dc3 7673 4143 b73f 3043
00000040: fed2 3ec3 7ec5 2343 e3dc d9c2 808d 25c3
00000050: 5e55 3143 5604 5443 aa41 2043 1f72 ecc2
00000060: b323 46c3 a51e 3d43 1fae 3643 55b0 22c3
00000070: 4136 2f43 19e6 5143 284e 21c3 d09c 32c3
00000080: c94a 2f43 aee4 3e43 d14b 2643 1402 2ec3
00000090: 9e2c 3bc3 11e6 4243 3cb3 2543 809e 2843
000000a0: 64d5 4343 41d9 3d43 697f efc2 4c5f 3ac3
000000b0: 0983 3e43 7f6d 10c3 0748 4943 303c d0c2
000000c0: e613 2e43 3833 5fc3 a7fc 1ac2 535b 70c3
000000d0: 56ff 50c3 a614 24c3 e83f 39c3 717e 3e43
000000e0: 48d8 3dc3 d79a 2843 fa9f 1e43 7ab3 4943
000000f0: 963c 1d43 8ccf 5dc3 bccd 2ac3 3b2c 3ec3

module.Conv6.layers.1.running_var f4 [64]
5102.5996 3639.604 7812.58 2485.821 4003.7197 7664.3423 5846.722 3969.9526
4112.0415 11429.728 8202.59 2332.1206 3022.2778 3619.1597 9105.016 6424.555
5045.3765 8302.923 2326.7734 3417.162 3809.8333 7860.9272 3365.8645 1948.2153
11961.465 9123.382 4458.593 9406.8955 5038.428 4414.7783 4136.159 7495.754
5625.408 6349.8975 3739.6494 3564.41 9959.173 9894.68 4802.419 3447.8218
7853.307 7246.6514 9749.454 7875.324 6555.108 12051.893 8663.522 4603.603
3623.7195 7352.6704 1237.8383 7673.4873 9332.663 3902.1218 9423.522 6900.375
9631.607 8226.374 3370.798 10103.994 5630.8325 9513.293 5700.5356 4698.3096
00000000: cc74 9f45 aa79 6345 a424 f445 235d 1b45
00000010: 843b 7a45 bd82 ef45 c7b5 b645 3e1f 7845
00000020: 5580 8045 e996 3246 5c2a 0046 eec1 1145
00000030: 72e4 3c45 8e32 6245 1044 0e46 71c4 c845
00000040: 03ab 9d45 b1bb 0146 606c 1145 9892 5545
00000050: 551d 6e45 6ba7 f545 d55d 5245 e486 f344
00000060: dce5 3a46 878d 0e46 be54 8b45 95fb 1246
00000070: 6d73 9d45 3af6 8945 4641 8145 083e ea45
00000080: 44cb af45 2e6f c645 64ba 6945 8fc6 5e45
00000090: b19c 1b46 b89a 1a46 5a13 9645 267d 5745
000000a0: 756a f545 3675 e245 d155 1846 981a f645
000000b0: ddd8 cc45 924f 3c46 175e 0746 d3dc 8f45
000000c0: 837b 6245 5dc5 e545 d3ba 9a44 e6cb ef45
000000d0: a7d2 1146 f3e1 7345 173e 1346 00a3 d745
000000e0: 6e7e 1646 7f89 0046 c5ac 5245 fadf 1d46
000000f0: a9f6 af45 2ca5 1446 4924 b245 7ad2 9245

module.Conv7.layers.1.weight f4 [1, 128, 3, 3]
-0.5831817 -0.5902319 -0.5757825 -0.586996 -0.5849684 -0.5988951 -0.65282416 -0.61359763
-0.64880896 0.5852687 0.5985572 0.5880779 0.59363395 0.58146185 0.5870083 0.6023703
0.59224623 0.5755239 0.59821707 0.6173758 0.59723836 0.57907903 0.6129941 0.5884114
0.61635596 0.6159878 0.5928421 -0.59459955 -0.6120497 -0.60573995 -0.6214325 -0.59888226
-0.5996814 -0.5848028 -0.5730899 -0.5975858 -0.61254436 -0.63019097 -0.54814 -0.6126682
-0.6275258 -0.5882943 -0.56974673 -0.6210041 -0.5940656 0.6226862 0.6266526 0.6239671
0.60737985 0.62864166 0.5879435 0.60507846 0.57372034 0.6070182 0.59810346 0.5885276
0.60625345 0.61569774 0.5742343 0.6138182 0.5947132 0.61300105 0.56921583 0.6113438
0.5730317 0.5676272 0.59217095 0.6244664 0.6172659 0.58306 0.60187066 0.6176426
0.5709591 0.6038354 0.59592277 0.61884475 0.5749681 0.6043028 0.5835942 0.59050846
0.60750455 -0.6239712 -0.5771378 -0.5714684 -0.5953369 -0.6033275 -0.5872877 -0.6027564
-0.5912521 -0.6020059 0.5900285 0.59312654 0.57356215 0.6104325 0.60504436 0.62158144
0.5882258 0.60537064 0.57381225 -0.5839756 -0.5921072 -0.62620926 -0.5791895 -0.5869787
-0.57464784 -0.58631116 -0.61660385 -0.5963 0.5812543 0.59023744 0.59115934 0.57658094
0.5804422 0.583464 0.61131597 0.5964033 0.6178338 -0.58614 -0.5896683 -0.58723027
-0.6066134 -0.62168914 -0.620649 -0.5924092 -0.6220063 -0.594263 0.58731186 0.60047764
0.5743793 0.62304205 0.5853067 0.60415393 0.5908644 0.5828484 0.5866593 -0.6108585
-0.6020801 -0.5968289 -0.5752791 -0.5775004 -0.6151425 -0.6028332 -0.58936036 -0.57473665
-0.56906 -0.6170344 -0.5868774 -0.6337356 -0.63825715 -0.6330856 -0.55595934 -0.61435497
-0.6065372 -0.581396 -0.59869397 -0.5819725 -0.58682674 -0.61681265 -0.6116092 -0.5795451
-0.60460955 -0.6151881 -0.6214679 -0.60379094 -0.61286026 -0.56772536 -0.6114871 -0.5911648
-0.60384345 -0.6117811 -0.59599805 -0.6217281 -0.6016864 -0.6001025 -0.6189272 -0.63406366
-0.6164199 -0.57120436 -0.60954887 -0.5621109 -0.58666795 -0.6244693 -0.5860136 -0.5852438
-0.5823646 -0.64797544 -0.60335284 -0.6462071 -0.62528 0.6019729 0.60612845 0.6023946
0.6086926 0.5932874 0.5954039 0.5853522 0.6268134 0.6160267 -0.593372 -0.5808962
-0.5914298 -0.58528644 -0.57551783 -0.61433023 -0.57964945 -0.6154555 -0.62609595 -0.6128627
-0.6111928 -0.61892897 -0.61267734 -0.5710987 -0.5790105 -0.5808633 -0.5934374 -0.6117228
0.604192 0.5784707 0.5792562 0.59455544 0.589367 0.60439557 0.5885346 0.57461184
0.5847547 0.5944905 0.5888403 0.6118895 0.6027994 0.5977814 0.6075817 0.61741245
0.6154086 0.62442166 0.6171675 0.5942589 0.59314007 0.6141593 0.60136414 0.60483855
0.58728266 0.5944427 0.5962864 0.6024894 0.60849965 0.5959833 0.5835157 0.5700261
0.62006605 0.5862756 0.589228 0.6025356 -0.5904989 -0.569648 -0.57545096 -0.59983176
00000000: 654b 15bf 7019 17bf 7b66 13bf 5f45 16bf
00000010: 7dc0 15bf 3051 19bf 7c1f 27bf bc14 1dbf
00000020: 5818 26bf 2bd4 153f 0b3b 193f 468c 163f
00000030: 65f8 173f afda 143f 2d46 163f f134 1a3f
00000040: 739d 173f 8955 133f c124 193f 570c 1e3f
00000050: 9de4 183f 863e 143f 2eed 1c3f 21a2 163f
00000060: 81c9 1d3f 60b1 1d3f 80c4 173f ad37 18bf
00000070: 4aaf 1cbf c611 1bbf 3316 1fbf 5950 19bf
00000080: b884 19bf a3b5 15bf 05b6 12bf 62fb 18bf
00000090: b5cf 1cbf 3254 21bf e752 0cbf d3d7 1cbf
000000a0: 88a5 20bf 759a 16bf ecda 11bf 20fa 1ebf
000000b0: af14 18bf 5d68 1f3f 4e6c 203f 4fbc 1f3f
000000c0: 3f7d 1b3f a9ee 203f 7783 163f 6ce6 1a3f
000000d0: 56df 123f 8b65 1b3f 4f1d 193f bfa9 163f
000000e0: 6d33 1b3f 5e9e 1d3f 0501 133f 3123 1d3f
000000f0: 203f 183f a3ed 1c3f 21b8 113f 0781 1c3f
00000100: 35b2 123f 0450 113f 8498 173f 08dd 1f3f
00000110: 2305 1e3f 6c43 153f 3214 1a3f d31d 1e3f
00000120: 602a 123f f594 1a3f 658e 183f 9c6c 1e3f
00000130: 1c31 133f 97b3 1a3f 6e66 153f 902b 173f
00000140: 6b85 1b3f 94bc 1fbf 4ebf 13bf c14b 12bf
00000150: 0068 18bf ac73 1abf 7d58 16bf 3e4e 1abf
00000160: 4c5c 17bf 0f1d 1abf 1c0c 173f 24d7 173f
00000170: f8d4 123f 4e45 1c3f 30e4 1a3f f61f 1f3f
00000180: f795 163f 92f9 1a3f 5ce5 123f 6d7f 15bf
00000190: 5694 17bf 404f 20bf c345 14bf 3c44 16bf
000001a0: 1f1c 13bf 7d18 16bf c0d9 1dbf 1ea7 18bf
000001b0: 15cd 143f cd19 173f 3856 173f cf9a 133f
000001c0: dc97 143f e65d 153f 347f 1c3f e3ad 183f
000001d0: 5b2a 1e3f 450d 16bf 80f4 16bf b954 16bf
000001e0: 044b 1bbf 0527 1fbf dae2 1ebf 21a8 17bf
000001f0: ce3b 1fbf 9f21 18bf 125a 163f e7b8 193f
00000200: 860a 133f af7f 1f3f a9d6 153f d5a9 1a3f
00000210: e442 173f 8e35 153f 4e2f 163f 3961 1cbf
00000220: ec21 1abf c7c9 18bf 7e45 13bf 11d7 13bf
00000230: fb79 1dbf 4753 1abf 52e0 16bf f121 13bf
00000240: ebad 11bf f7f5 1dbf 993d 16bf 7f3c 22bf
00000250: d264 23bf e611 22bf 5a53 0ebf 5e46 1dbf
00000260: 0646 1bbf 5ed6 14bf 0244 19bf 26fc 14bf
00000270: 473a 16bf 6fe7 1dbf 6c92 1cbf 115d 14bf
00000280: b1c7 1abf f87c 1dbf 8518 1fbf 0b92 1abf
00000290: 69e4 1cbf 7356 11bf 6b8a 1cbf 9456 17bf
000002a0: 7c95 1abf b09d 1cbf 5493 18bf 9329 1fbf
000002b0: 1f08 1abf 51a0 19bf 0372 1ebf ff51 22bf
000002c0: b2cd 1dbf 733a 12bf 650b 1cbf 80e6 0fbf
000002d0: df2f 16bf 38dd 1fbf fd04 16bf 8ad2 15bf
000002e0: d915 15bf b8e1 25bf 5575 1abf d46d 25bf
000002f0: 5a12 20bf e51a 1a3f 3c2b 1b3f 8836 1a3f
00000300: 47d3 1b3f afe1 173f 646c 183f a4d9 153f
00000310: d876 203f edb3 1d3f 3ae7 17bf 9db5 14bf
00000320: f267 17bf 55d5 15bf 2355 13bf bf44 1dbf
00000330: e863 14bf 7e8e 1dbf d347 20bf 92e4 1cbf
00000340: 2277 1cbf 2172 1ebf 6cd8 1cbf 8633 12bf
00000350: 083a 14bf 75b3 14bf 83eb 17bf de99 1cbf
00000360: 54ac 1a3f a816 143f 224a 143f c934 183f
00000370: c1e0 163f abb9 1a3f 34aa 163f c319 133f
00000380: 7cb2 153f 8830 183f 3dbe 163f caa4 1c3f
00000390: 1051 1a3f 3408 193f 798a 1b3f be0e 1e3f
000003a0: 6b8b 1d3f 19da 1f3f b0fe 1d3f 5a21 183f
000003b0: 07d8 173f 8b39 1d3f 00f3 193f b3d6 1a3f
000003c0: 2858 163f 662d 183f 3aa6 183f bf3c 1a3f
000003d0: a2c6 1b3f 5d92 183f 4961 153f 3bed 113f
000003e0: a6bc 1e3f 2816 163f a5d7 163f c63f 1a3f
000003f0: f02a 17bf 74d4 11bf c150 13bf 938e 19bf
