DIDFuse/saved_models/decoder/IR_AE18.pth (torch, 604881 bytes, 13 tensors)

module.Conv5.layers.0.weight f4 [64, 128, 3, 3]
000000 40 98 18 3f 60 71 13 3f 11 16 13 3f 26 c6 1d 3f
       0.59607315 0.5759487 0.57455546 0.61630476
000010 e6 6e 20 3f 32 24 1a 3f 6d 0e 1f 3f 68 49 13 3f
       0.6266922 0.6021148 0.62131387 0.57533884
000020 22 60 1a 3f ff b1 1a 3f d1 fa 12 3f 3a f0 1a 3f
       0.6030294 0.6042785 0.57413965 0.60522807
000030 7a f3 16 3f ac cb 1f 3f 4f f6 1a 3f d2 57 12 3f
       0.58965266 0.62420154 0.6053209 0.57165253
000040 0b 43 19 3f 33 1c 18 3f 33 60 1e 3f 6d e2 17 3f
       0.59867924 0.5941803 0.6186554 0.59329873
000050 fc 86 19 3f 86 ca 12 3f 5b d2 1d 3f 57 d6 1d 3f
       0.59971595 0.57340276 0.616491 0.6165518
000060 d1 fd 17 3f c7 3e 13 3f 12 9b 1b 3f cd 36 14 3f
       0.5937167 0.57517666 0.60783494 0.5789612
000070 6c ef 1c 3f f0 85 15 3f b8 24 17 3f 12 a3 15 3f
       0.6130283 0.584075 0.59040403 0.5845195
000080 82 d6 17 3f 44 84 1f 3f 7d 56 1c 3f 13 8d 1a 3f
       0.5931169 0.62311196 0.6106947 0.6037151
000090 83 dc 1b 3f d5 bc 1b 3f 5f 14 1e 3f 8d a4 16 3f
       0.6088335 0.6083501 0.61749834 0.58844835
0000a0 33 51 12 3f e7 a5 15 3f 95 ca 1f 3f 71 dd 11 3f
       0.5715515 0.5845627 0.6241849 0.5697852
0000b0 55 dd 17 3f 72 a8 1a 3f 44 c3 17 3f da 16 14 3f
       0.593221 0.6041328 0.59282327 0.5784737
0000c0 48 bf 19 3f c4 fe 1c 3f 93 71 20 3f 3b 78 12 3f
       0.600575 0.6132624 0.626733 0.5721471
0000d0 76 46 16 3f 8f 15 18 3f be e7 19 bf d6 57 16 bf
       0.58701265 0.59407896 -0.60119236 -0.58727777
0000e0 25 dc 1d bf 25 51 15 bf 4c 3b 1b bf dc 13 11 bf
       -0.6166404 -0.5832694 -0.60637355 -0.5667093
0000f0 b6 3a 1f bf 2a be 17 bf 71 7e 1f bf 45 c1 1f 3f
       -0.6219896 -0.5927454 -0.6230231 0.6240428
000100 e5 e5 20 3f 26 be 17 3f 9f a6 1b 3f f5 56 1b 3f
       0.6285079 0.5927452 0.6080112 0.6067956
000110 f3 07 13 3f 0c 61 1a 3f 86 08 18 3f e3 03 1a 3f
       0.57434005 0.6030433 0.59388006 0.6016218
000120 d4 c9 1a bf 49 c0 1b bf bd 60 13 bf 66 1f 1e bf
       -0.60464215 -0.6084028 -0.57569486 -0.6176666
000130 c0 e8 10 bf ec cd 15 bf bf 9c 49 3f 3a 57 48 3f
       -0.5660515 -0.58517337 0.787548 0.782581
000140 a2 94 06 bf ba dd 1f 3f be 4d 13 3f 8a 31 12 3f
       -0.52570546 0.624477 0.575405 0.5710684
000150 8e 42 20 3f 7c 28 1b 3f c4 8f 1a 3f 52 10 16 3f
       0.62601554 0.6060865 0.6037562 0.5861865
000160 45 90 16 3f 2b 77 12 3f 8a 0d 18 bf 9e 21 18 bf
       0.5881389 0.57213086 -0.5939566 -0.59426296
000170 9a 80 1c bf 52 22 21 bf 3b f1 1a bf d9 8b 21 bf
       -0.6113373 -0.62942994 -0.6052434 -0.63104016
000180 96 3d 23 bf 6b 9a 1b bf 95 e0 2b bf be 74 14 bf
       -0.6376585 -0.607825 -0.6713956 -0.57990634
000190 5d 8e 13 bf 57 49 1f bf 5b 41 14 bf 7f a2 1c bf
       -0.57639104 -0.6222128 -0.57912225 -0.6118545
0001a0 a5 ba 18 bf ed 0c 14 bf 2f 14 13 bf b9 bf 18 bf
       -0.59659797 -0.57832223 -0.5745267 -0.59667546
0001b0 d3 0e 18 bf 27 9b 1b bf 2a a5 1f bf e8 ad 15 bf
       -0.5939762 -0.6078362 -0.62361395 -0.58468485
0001c0 54 8f 1b bf 81 8f 13 bf b3 6f 1d bf 30 12 16 bf
       -0.60765576 -0.57640845 -0.61498564 -0.586215
0001d0 eb e4 15 bf 4c 22 1c 3f 4f ea 1d 3f 9c e8 18 3f
       -0.58552426 0.6098983 0.6168565 0.59729934
0001e0 4d 53 17 3f 3a e1 19 3f 38 f2 18 3f 6b 07 1b 3f
       0.5911148 0.60109293 0.59744596 0.60558194
0001f0 a2 2a 15 3f ad db 18 3f a8 fd 1d bf 3d 75 17 bf
       0.5826818 0.597102 -0.61715174 -0.59163266
000200 9c 28 1d bf 80 6a 18 bf e1 e3 1d bf 25 e4 1a bf
       -0.6139009 -0.59537506 -0.6167584 -0.6050437
000210 71 d9 16 bf 2d d7 1d bf 72 fa 1c bf 53 e3 17 bf
       -0.5892554 -0.6165646 -0.6131965 -0.59331244
000220 6a 44 1f bf d7 c7 16 bf 78 a8 16 bf b8 d7 14 bf
       -0.62213767 -0.5889868 -0.5885081 -0.5814166
000230 ba 67 18 bf ee 4d 19 bf 1d 20 13 bf 2f 17 18 bf
       -0.59533274 -0.59884536 -0.57470876 -0.59410375
000240 53 f4 17 bf a8 e2 18 bf 6d 78 17 bf 01 fb 1f bf
       -0.59357184 -0.5972085 -0.5916813 -0.62492377
000250 91 66 1d bf d2 55 20 bf 88 8a 19 bf e4 65 1d bf
       -0.6148463 -0.6263095 -0.59977007 -0.614836
000260 06 d3 13 bf f2 43 1f 3f e9 67 20 3f 5d 2d 1b 3f
       -0.5774387 0.6221305 0.62658554 0.60616094
000270 5c d7 17 3f 7b 85 21 3f 09 32 17 3f 78 d7 17 bf
       0.5931299 0.630943 0.5906072 -0.59313154
000280 3e a0 1e bf ca 74 0d bf f5 6b 17 bf 24 b0 15 bf
       -0.6196326 -0.5525633 -0.59149104 -0.58471894
000290 c4 01 1d bf 16 dc 20 3f dc 84 14 bf 79 99 19 3f
       -0.6133082 0.62835824 -0.5801523 0.59999806
0002a0 6a 52 17 3f 83 d6 1a 3f ce 4a 1d 3f 59 4a 1a 3f
       0.5911013 0.6048357 0.6144227 0.60269696
0002b0 b4 82 16 3f 2c 78 19 3f 39 81 1c 3f 86 0a 1e 3f
       0.5879319 0.5994899 0.6113468 0.6173481
0002c0 02 5d 1c 3f 34 6b 17 3f 6d 25 20 3f d4 19 15 3f
       0.6107942 0.59147954 0.6255711 0.58242536
0002d0 35 fc 18 3f 43 56 1e 3f 73 60 1c 3f b5 33 14 3f
       0.5975984 0.61850375 0.6108467 0.578914
0002e0 1d 8e 18 3f 74 4b 1b 3f 68 1c 13 bf 08 c7 1d bf
       0.5959185 0.6066201 -0.5746522 -0.6163182
0002f0 44 80 1a bf 5b 71 14 3f d6 70 17 3f 2f b5 20 3f
       -0.6035197 0.57985467 0.5915655 0.62776464
000300 80 cf 13 3f f4 3f 17 3f 59 d7 20 3f 23 39 1d 3f
       0.57738495 0.5908196 0.62828594 0.6141531
000310 5a 7e 18 3f f0 f7 18 3f 78 55 1e 3f 6b e8 17 3f
       0.595678 0.5975332 0.61849165 0.59339017
000320 a9 78 1f 3f 42 ce 20 3f c2 b6 1b 3f 77 33 14 3f
       0.6229349 0.62814724 0.6082574 0.5789103
000330 29 35 21 3f 56 17 15 3f d4 85 15 3f 77 09 1f bf
       0.6297174 0.5823873 0.5840733 -0.6212382
000340 cd c8 17 bf 1e e3 1c bf ca c4 1f bf 98 18 20 bf
       -0.5929077 -0.61284053 -0.6240965 -0.6253753
000350 79 06 1e bf 0e 32 37 bf 1c 7a 23 bf 97 13 14 bf
       -0.61728626 -0.7156075 -0.638582 -0.5784239
000360 19 aa 1b bf a3 3c 16 bf 55 1a 13 bf e5 3f 1b bf
       -0.60806423 -0.58686274 -0.57462054 -0.6064437
000370 28 cf 1e bf e7 e2 1f bf 2e 2b 1b bf fa 25 16 bf
       -0.62034845 -0.624556 -0.6061276 -0.586517
000380 ec 9e 19 bf 11 50 1a bf f9 62 16 bf 68 f0 1d bf
       -0.6000812 -0.6027842 -0.5874477 -0.61694956
000390 31 34 18 bf ce 4a 16 bf c6 38 16 bf 1d 5f 1b bf
       -0.5945464 -0.5870789 -0.5868038 -0.60692006
0003a0 0d 48 20 bf 6f 26 1a bf 64 bb 1e 3f e1 3b 14 3f
       -0.6260994 -0.60214895 0.62004685 0.5790387
0003b0 af 86 14 3f ee bd 16 3f b4 06 16 3f e3 99 17 3f
       0.5801801 0.5888356 0.5860398 0.5921919
0003c0 93 9d 12 3f fb 57 17 3f d6 2a 19 3f 14 e5 14 bf
       0.5727169 0.5911862 0.5983099 -0.58162045
0003d0 93 6a 14 bf 56 45 1a bf 4f 81 13 bf a7 aa 13 bf
       -0.5797512 -0.6026205 -0.57619184 -0.5768227
0003e0 76 5a 1f bf eb 20 1e bf c2 69 16 bf 95 f0 1d bf
       -0.6224741 -0.6176898 -0.58755124 -0.61695224
0003f0 d7 38 1c 3f 3f cb 1c 3f 2e 24 1b 3f 77 0a 21 3f
       0.6102423 0.6124763 0.6060208 0.62906593

module.Conv5.layers.0.bias f4 [64]
000000 b3 d3 7d bd 46 28 20 bd f3 74 f9 bd 10 cb b9 3c
       -0.06196947 -0.039100908 -0.121805094 0.022679836
000010 5a 7e c7 bc 23 98 50 bd fe 77 c4 3d ff 4d e9 3d
       -0.024352241 -0.05092634 0.09593199 0.1139183
000020 91 c4 68 bd 4d 5f 70 3d b7 53 a4 3b 97 2a 4f 3d
       -0.056828085 0.058684636 0.0050148624 0.050577726
000030 1a 26 0d bd 23 8c 9b bd a7 84 84 3d d9 81 06 be
       -0.034460165 -0.07595088 0.06470614 -0.1313547
000040 65 4c 6f bd 53 a1 38 bb 50 dc 3b 3d cb 61 56 bc
       -0.058422465 -0.0028172329 0.045864403 -0.013084839
000050 eb ea 63 bd 45 c6 a8 3d 6b 3a 0a 3e d8 96 e0 bd
       -0.055643957 0.08240942 0.13498847 -0.10966271
000060 9f f6 b2 bd b9 fe 84 3d f5 3e a7 ba ab fc cf bd
       -0.087384455 0.06493897 -0.0012759852 -0.101556145
000070 49 e1 30 bb dd fc a2 3d 96 f0 a7 bc df b3 f4 bc
       -0.002698975 0.07958386 -0.020500463 -0.029870925
000080 82 ba 17 3c 46 c3 32 bc 66 b6 51 bc ee a0 8d bc
       0.0092607755 -0.010910815 -0.012799835 -0.017288651
000090 a4 29 4d 3c c5 41 48 bd e4 c1 1c 3e 7a d3 c1 bc
       0.012522135 -0.048890848 0.15308338 -0.02366041
0000a0 b9 6c a7 bd f9 40 01 3c fd ef fb 3b af 4e 36 3b
       -0.08175034 0.007889026 0.007688521 0.0027817895
0000b0 0f 4c 13 3e 7b 0b 1e 3e 41 aa 19 3d af 97 87 bd
       0.14384483 0.15434067 0.037515882 -0.06620728
0000c0 d7 fb 08 3e a8 2d 5e bd 2f 56 17 3d f6 bf 94 3c
       0.1337732 -0.05424276 0.036947425 0.01815794
0000d0 27 2a 29 3e ff ad 12 bd ed 65 86 3d 2f 02 5a 3d
       0.16519986 -0.035810467 0.065624095 0.05322474
0000e0 a0 bc 0e 39 22 5e 86 3c a3 64 a0 bc 07 4b 21 bb
       0.00013612444 0.016402308 -0.019579237 -0.002461137
0000f0 ff c2 33 3d 3b 97 43 bc 19 2f 7e 3d a8 55 fc bd
       0.043887135 -0.011937912 0.062056635 -0.12321025

module.Conv5.layers.1.weight f4 [64]
000000 2a 0a 10 3f 67 4c b3 3e 5e de 9e 3f 5d 4f 92 3f
       0.5626551 0.35019228 1.2411611 1.143047
000010 a5 fe f3 3e f6 c8 a0 3f 59 83 cd 3e fc 5d b4 3f
       0.47655216 1.2561328 0.40139273 1.4091182
000020 fa 29 df 3f 8f 07 9c bd 56 77 21 3f 35 26 d4 3f
       1.7434685 -0.07618629 0.6307272 1.657416
000030 c1 a0 f8 3f 55 8a 0c 40 01 5e a9 3f 0e 2b 8a 3f
       1.9424058 2.195943 1.3231813 1.0794389
000040 6e 56 25 40 fe 2f 2e 40 26 80 d6 3e 12 58 3d 40
       2.5834002 2.7216792 0.41894644 2.9585004
000050 33 c4 28 bc 87 37 63 3e af 6b 7d 3d 10 9c 0c 40
       -0.010300684 0.22189151 0.061870273 2.1970253
000060 6c bc 9c 3f 13 61 1a 3f 9a 49 9f 3f 05 8c 9f 3f
       1.2245002 0.60304374 1.2444336 1.2464606
000070 dd ac c6 3f 51 26 90 3f 32 0a 3d 40 69 81 e0 3f
       1.5521504 1.1261693 2.9537473 1.7539493
000080 5b d6 14 3e ff 05 51 3f 79 ee 10 40 94 67 85 bf
       0.14534895 0.81649774 2.2645552 -1.0422235
000090 3d 0f df 3f 37 30 a0 3f 32 5c 51 3f 65 7a af 3e
       1.7426525 1.2514714 0.81781304 0.34273067
0000a0 14 53 bf 3e c4 fd 63 3f 55 65 36 3f b9 49 99 3f
       0.3736807 0.8905909 0.7124837 1.1975623
0000b0 34 1b d1 3e ad 9f 4c 3f 02 ea c8 3e 9b e8 31 40
       0.40841067 0.79931146 0.39241034 2.779822
0000c0 d7 f9 47 bf 30 25 68 3f 06 73 58 3f f7 c6 9a 3e
       -0.781156 0.90681744 0.8455051 0.30229923
0000d0 89 cc 9e 3e 6b d0 c6 be 1f 52 91 bf 53 5a b0 3e
       0.31015423 -0.38830885 -1.1353186 0.34443912
0000e0 59 d4 1a 40 0b 63 1d bf 52 8b ab 3e 2e 8d a2 3f
       2.4192107 -0.6147925 0.3350473 1.2699335
0000f0 3a 9b ce 3f 2a ca cb 3f 46 41 e9 3d 78 d0 a8 3f
       1.6141121 1.592107 0.11389403 1.318862

module.Conv5.layers.1.bias f4 [64]
000000 13 9f 81 bf 84 c5 98 bf d8 b3 16 3e a3 01 88 3f
       -1.0126671 -1.1935277 0.14717042 1.06255
000010 20 81 79 3f f1 7c e2 3f b2 41 62 bf 6b 66 47 be
       0.97462654 1.7694379 -0.88381493 -0.19472663
000020 55 1b d0 3e 67 a2 36 bf 9d c2 99 bf 6c 9c 23 3f
       0.40645853 -0.71341556 -1.2012516 0.63910556
000030 9a 55 f1 3f 05 f8 a0 3f a5 0b b1 3e a6 26 76 3f
       1.8854249 1.257569 0.34579197 0.9615272
000040 4e 39 be 3f 30 b4 4d 3f d4 ea 35 bf e2 8c 57 c0
       1.4861238 0.8035307 -0.71061444 -3.3679738
000050 da 9a 92 bf 3d f2 09 bf dd df c9 bf c7 5e 80 3f
       -1.1453507 -0.5388525 -1.5771443 1.0028924
000060 48 de 6e 3d 2f 39 ba be e3 46 5b 3e 72 ff e6 be
       0.058317453 -0.36371753 0.2141376 -0.45116764
000070 e0 69 60 40 f5 52 02 3d cd 2f 37 be 8d 4c a9 3f
       3.506462 0.031817395 -0.17889328 1.3226486
000080 d2 9a 08 bf 2e 94 ce bd 53 6b 87 3e 07 ae 93 bd
       -0.5336124 -0.10086857 0.2644907 -0.072109275
000090 73 8d 8a 3e 2f 3f 7c 3b 4f 86 eb 3e e6 59 9c bf
       0.27061042 0.0038489809 0.46000907 -1.2214935
0000a0 6f 73 70 bf 8e 34 6e be a5 ea 64 bf 2c fb db 3e
       -0.9392614 -0.23262236 -0.8942054 0.42965066
0000b0 91 5c 36 bf 4c 20 11 be 2d 5c 21 bf a2 a7 8f c0
       -0.71234995 -0.14172477 -0.63031274 -4.489213
0000c0 70 94 78 bf db 20 d1 3e ad d8 46 3f 84 86 80 3b
       -0.971015 0.4084538 0.7767437 0.0039222855
0000d0 40 9a 6b bf 57 90 8b 3f c0 6d 7d bf 36 35 12 bf
       -0.9203224 1.0903424 -0.9899559 -0.57112443
0000e0 99 7a a7 3f dc ee 83 3f 93 ae 22 3f 61 cd eb 3e
       1.3084289 1.0307269 0.6354763 0.4605513
0000f0 2d a2 db 3f d2 ea 6e bf 91 7c 15 bf 60 2a 9a be
       1.7158867 -0.9332706 -0.583932 -0.30110455

module.Conv5.layers.1.running_mean f4 [64]
000000 f7 a8 60 c3 a8 bb 3b c3 eb 92 5d 41 6b 48 56 43
       -224.66002 -187.73303 13.848369 214.28288
000010 b3 35 32 43 b7 45 5e 43 10 91 5d 43 a7 e5 0f c3
       178.20976 222.27232 221.56665 -143.89708
000020 2f d1 2e 43 71 e8 e8 42 00 23 5a c3 0e d7 5d c3
       174.81712 116.45399 -218.13672 -221.84006
000030 ae 4b 9b c2 e2 74 4c c3 ca 1a 4d c3 21 8a 44 c3
       -77.64781 -204.45657 -205.10464 -196.53957
000040 9d e8 12 c3 e7 f5 06 c3 1c 78 4f 43 42 ae 62 c3
       -146.90865 -134.96056 207.46918 -226.6807
000050 dd 27 4c 43 2d 73 47 43 ce b7 47 c3 0a c6 1a 43
       204.15572 199.4499 -199.71799 154.77359
000060 2f 8f 2f 43 cb 1e 4b c3 14 bb 4e c3 86 75 2f 43
       175.55931 -203.12029 -206.73077 175.45908
000070 1d b0 b2 42 00 8c 42 c3 e9 d9 16 43 6f ee ca c2
       89.34397 -194.54688 150.85121 -101.46569
000080 7e 10 cc 42 e8 1d 41 c3 c6 6f 42 43 30 5f e9 42
       102.03221 -193.11682 194.43661 116.68591
000090 61 c7 50 c3 08 54 52 c3 a7 b0 10 c3 93 72 b1 42
       -208.77882 -210.32825 -144.69005 88.72378
0000a0 d9 c8 23 43 41 82 35 c3 8b 97 3a 43 01 92 56 c3
       163.78456 -181.5088 186.59196 -214.57033
0000b0 a3 71 41 43 9f 99 3b c3 99 95 4d 43 9f df 0a c3
       193.4439 -187.60008 205.58437 -138.87352
0000c0 ad 11 47 43 19 21 51 c3 c7 a7 4f 43 2e 08 0a c3
       199.06905 -209.12929 207.65538 -138.03195
0000d0 d5 a3 54 43 4c cc 11 41 bf a1 42 43 3f 98 e3 42
       212.63997 9.112377 194.63182 113.797356
0000e0 19 65 d5 c2 6e 79 ae 42 d6 b1 62 43 7c ba ff c1
       -106.69746 87.23717 226.69467 -31.966057
0000f0 4e eb 6d 43 59 2e f7 42 5f 0a 00 43 c3 77 52 43
       237.91916 123.59052 128.04051 210.46782

module.Conv5.layers.1.running_var f4 [64]
000000 c7 0a 8f 45 10 6b 72 44 06 7f 66 44 eb 1a ed 44
       4577.347 969.67285 921.98474 1896.8412
000010 5a 67 78 44 be 66 91 44 a2 ae 16 45 95 7f 30 45
       993.61487 1163.2107 2410.9146 2823.9739
000020 f8 e7 f6 45 a4 71 2c 44 64 a0 ff 44 f7 8f f0 45
       7900.996 689.77563 2045.0122 7697.9956
000030 da bc b9 45 2e d4 d0 45 3f 90 a4 45 55 bf 2b 45
       5943.6064 6682.5225 5266.031 2747.9583
000040 92 e8 46 45 58 99 9d 45 25 1c 95 45 2c 0a cd 45
       3182.5356 5043.168 4771.518 6561.2715
000050 75 ca 43 44 e9 e7 cc 45 85 6d 89 44 6a e3 29 46
       783.1634 6556.989 1099.4225 10872.854
000060 f6 7c 17 44 01 b5 90 45 56 f5 87 45 d3 1b ab 44
       605.9525 4630.6255 4350.667 1368.8695
000070 91 4c 76 44 1e d6 d9 44 ba 31 03 46 02 d6 d6 45
       985.19635 1742.6912 8396.432 6874.751
000080 99 b5 ea 43 fc 06 b4 45 8b fc d8 45 81 e2 3a 44
       469.41873 5760.873 6943.568 747.5391
000090 05 4c a2 45 62 e9 14 46 8b b9 de 44 d1 4a 8b 45
       5193.5024 9530.346 1781.7982 4457.352
0000a0 68 6d e8 44 21 8d c3 45 69 bf c9 44 0e c3 c4 45
       1859.419 6257.641 1613.9816 6296.382
0000b0 20 88 cc 45 32 33 eb 44 93 ec 13 45 44 55 97 43
       6545.0156 1881.5999 2366.786 302.66614
0000c0 51 a4 29 45 bd 44 93 45 e1 82 78 45 cb 9c 95 45
       2714.2698 4712.5923 3976.18 4787.599
0000d0 14 b0 a0 45 a0 c0 15 45 cc e8 86 45 e7 96 6a 44
       5142.01 2396.039 4317.0996 938.35785
0000e0 0f 75 6d 45 42 67 a6 45 a4 93 5a 45 05 94 fe 44
       3799.3162 5324.907 3497.2275 2036.6256
0000f0 3a 52 f3 44 93 a0 94 43 3f fc 44 45 b7 51 61 45
       1946.5696 297.2545 3151.7654 3605.1072

module.Conv6.layers.0.weight f4 [64, 128, 3, 3]
000000 9c ae 17 3f a8 c9 1a 3f d8 b1 13 3f 77 fa 16 3f
       0.5925081 0.60463953 0.57693243 0.5897593
000010 f6 76 1b 3f cc 49 1b 3f 19 8b 13 3f db 31 1d 3f
       0.60728395 0.6065948 0.5763412 0.614042
000020 7c 8a 21 3f b8 dc 17 3f 3a c7 15 3f ff b4 15 3f
       0.63101935 0.59321165 0.5850712 0.58479303
000030 67 a3 1f 3f 19 d8 1d 3f c4 4a 1e 3f ad 55 13 3f
       0.6235871 0.61657864 0.61832833 0.57552606
000040 51 7d 14 3f cd 4b 14 3f 18 d3 13 bf f2 01 1c bf
       0.5800372 0.5792816 -0.5774398 -0.6094047
000050 71 72 1e bf 0d ab 18 bf c5 9a 1c bf 7e b3 13 bf
       -0.61893374 -0.59636 -0.6117366 -0.5769576
000060 b6 44 15 bf 79 47 14 bf 4b 6b 1c bf 34 b8 15 3f
       -0.5830797 -0.5792156 -0.61101216 0.58484197
000070 c2 be 1e 3f f2 ef 1d 3f 93 28 1a 3f 6e 79 12 3f
       0.62009823 0.6169425 0.6021816 0.57216537
000080 a6 e7 1c 3f 6e 54 1a 3f 60 ae 1b 3f 9e d6 12 3f
       0.6129097 0.6028508 0.6081295 0.5735873
000090 57 2d 16 3f c4 d0 1a 3f e0 12 13 3f 8a 8b 12 3f
       0.58662933 0.604748 0.57450676 0.5724417
0000a0 83 45 1a 3f ff fb 16 3f 2a f6 16 3f 7f bb 19 3f
       0.60262316 0.58978266 0.58969367 0.6005172
0000b0 ae 3e 14 3f 8e d6 16 3f 1b 11 1f 3f 20 33 22 3f
       0.5790814 0.58921134 0.62135476 0.6335926
0000c0 ca 91 18 3f d7 d6 1b 3f d4 8c 16 3f a1 60 1b 3f
       0.59597456 0.60874695 0.58808637 0.6069432
0000d0 98 1d 1e 3f fa fe 20 3f 80 f0 1f 3f fe e6 20 3f
       0.61763906 0.62889063 0.6247635 0.62852466
0000e0 56 85 1c 3f 6d 05 13 3f 7f 29 1f 3f 0a 9a 13 3f
       0.61140954 0.57430154 0.62172693 0.5765692
0000f0 63 92 19 3f 14 2a 1a 3f 30 ca 1a 3f b1 c6 20 bf
       0.59988993 0.60220456 0.60464764 -0.6280318
000100 63 64 17 bf 6f 60 1c bf 32 22 22 bf c1 c2 17 bf
       -0.5913755 -0.61084646 -0.6333343 -0.59281546
000110 39 68 1d bf 93 1c 1f bf 98 3e 16 bf 10 e3 1f bf
       -0.61487156 -0.62152976 -0.5868926 -0.62455845
000120 fc 16 13 bf ef 86 16 bf 40 f6 1b bf dd 33 1c bf
       -0.57456946 -0.5879964 -0.6092262 -0.6101664
000130 c3 37 16 bf 96 4c 1e bf 6b ea 1f bf ab 0f 1c bf
       -0.58678836 -0.6183561 -0.6246707 -0.6096141
000140 fd df 13 bf c0 53 18 3f 4b ff 1e 3f ba 69 20 3f
       -0.57763654 0.5950279 0.62108296 0.62661326
000150 60 63 18 3f e6 fb 14 3f 06 fe 16 3f 72 6a 1b 3f
       0.59526634 0.58196867 0.5898136 0.607093
000160 4c 41 12 3f 43 f9 1a 3f 65 9e 20 3f 36 5d 20 3f
       0.57130885 0.60536593 0.6274169 0.6264223
000170 64 e4 22 3f 65 ee 14 3f 2b a4 1f 3f c8 d5 17 3f
       0.63629746 0.5817626 0.62359875 0.5931058
000180 4a 1b 1b 3f 7b b1 17 3f 00 03 16 3f b2 fb 1e 3f
       0.60588515 0.5925519 0.5859833 0.62102807
000190 9c 53 14 3f 21 f9 1d 3f 96 bf 1a 3f 43 6b 16 3f
       0.5794008 0.61708266 0.60448587 0.5875742
0001a0 2d 06 16 3f e6 ea 18 3f 8a ba 1a 3f 5d 1a 15 3f
       0.58603173 0.59733427 0.60440886 0.5824335
0001b0 1d cc 16 3f ad 38 1a 3f 8e 44 1d 3f d2 8d 15 3f
       0.589052 0.6024273 0.6143273 0.58419526
0001c0 1b dc 1a 3f 94 b0 14 3f a0 52 1d 3f 94 47 20 3f
       0.60492104 0.58081937 0.614542 0.6260922
0001d0 49 81 1c 3f 81 b3 11 3f 82 66 12 3f 2b 83 20 3f
       0.61134773 0.56914526 0.57187665 0.62700146
0001e0 49 d6 19 3f ec be 16 3f 93 01 12 3f 04 15 1f 3f
       0.600926 0.58885074 0.5703365 0.6214144
0001f0 ad 4d 20 3f 26 58 13 3f 53 a8 27 bf 32 ad 1d bf
       0.62618524 0.5755638 -0.6549122 -0.615924
000200 cf 45 1f bf 2e f8 62 bb f3 36 2b bf ef 0a 1a bf
       -0.62215894 -0.003463279 -0.6688072 -0.60172933
000210 92 30 1c 3f 8d b2 1b 3f 12 39 1e bf 77 6d 11 bf
       0.6101161 0.6081932 -0.6180583 -0.56807655
000220 c6 62 11 bf 34 50 55 be 4e 6d 10 bf 2f f2 14 bf
       -0.5679134 -0.20831376 -0.56416786 -0.5818204
000230 ee 88 0e bf 4d f2 18 bf 00 c6 1c bf b3 25 17 bf
       -0.5567769 -0.5974472 -0.61239624 -0.590419
000240 82 ea 17 3f 06 67 19 3f 6c aa 19 3f c1 a0 14 3f
       0.59342206 0.59922826 0.6002567 0.5805779
000250 9e 52 1b 3f b4 e5 11 3f 10 ba 14 3f c1 55 18 3f
       0.6067294 0.56991124 0.5809641 0.5950585
000260 8f 5d 16 3f 49 6b 15 3f 1a 39 19 3f d6 3d 1d 3f
       0.5873651 0.5836683 0.59852755 0.6142248
000270 e3 ec 1f 3f 12 aa 19 3f 7d 07 12 3f 26 98 17 3f
       0.62470835 0.6002513 0.57042676 0.59216535
000280 e5 3a 17 3f 97 1c 1e 3f f3 1c 1b 3f d1 ea 16 3f
       0.5907424 0.61762375 0.6059105 0.5895205
000290 dc 91 16 3f 2c fa 17 3f b2 46 18 3f 70 97 19 3f
       0.58816314 0.59366107 0.5948287 0.599967
0002a0 7c 16 17 3f fa df 15 3f dd 42 19 3f 8f 3d 20 3f
       0.59018683 0.58544886 0.5986765 0.6259393
0002b0 81 68 15 3f 2d 7e 1b 3f da 0c 18 3f 35 fe 16 3f
       0.58362585 0.60739404 0.5939461 0.5898164
0002c0 5e b1 1f 3f c4 10 1d 3f f3 45 18 3f 9b 70 1d 3f
       0.62380016 0.6135371 0.59481734 0.6149995
0002d0 62 9c 1d bf c4 7a 1f bf 99 17 14 bf 76 5a 1d bf
       -0.61566746 -0.622967 -0.5784851 -0.6146616
0002e0 ed b1 1d bf d7 f1 1d bf f6 6c 1f bf 8b 44 16 bf
       -0.6159962 -0.61697143 -0.62275636 -0.5869834
0002f0 13 01 16 bf 4c 24 1b 3f cd 8e 12 3f f2 32 13 3f
       -0.5859539 0.6060226 0.57249147 0.5749961
000300 b3 f9 1d 3f c5 08 18 3f 50 d5 1a 3f a5 c3 20 3f
       0.61709136 0.5938838 0.6048174 0.6279853
000310 d0 a3 15 3f 6a b1 1e 3f bc 95 1a 3f f3 46 21 3f
       0.58453083 0.6198946 0.60384727 0.62998885
000320 22 0b 14 bf 30 2f 1d 3f d2 0d 21 3f 76 b2 17 3f
       -0.5782949 0.6140013 0.62911713 0.59256685
000330 0b fd 12 3f a2 6b 18 3f ec b2 14 3f e6 36 15 bf
       0.5741736 0.59539235 0.58085513 -0.58286893
000340 e9 00 13 bf a8 b3 10 bf 29 c0 1b bf 2d e1 1c bf
       -0.57423264 -0.56524134 -0.6084009 -0.6128109
000350 71 14 1f bf 75 32 21 bf 57 c0 13 bf 3c 2f 18 bf
       -0.62140566 -0.62967616 -0.5771536 -0.59447074
000360 9e 6f 15 bf 00 4e 15 bf ae d8 1f bf 95 c8 1d bf
       -0.5837344 -0.58322144 -0.6244 -0.6163419
000370 54 02 16 bf 33 93 1d bf 77 58 1a bf ac 9d 1e bf
       -0.585973 -0.61552733 -0.60291237 -0.6195934
000380 26 8e 1f bf 7d 97 1e bf d0 38 21 bf df 10 1b bf
       -0.62326276 -0.619499 -0.62977314 -0.6057262
000390 06 7c 17 bf 52 1e 16 bf 46 3f 19 bf 50 b3 1e bf
       -0.5917362 -0.58640015 -0.5986217 -0.6199236
0003a0 b2 34 13 bf 60 71 1d bf 91 ec 19 3f 2c e2 19 3f
       -0.5750228 -0.6150112 0.60126597 0.60110736
0003b0 ad 09 20 3f 7c 61 16 3f 66 41 1c 3f 6b de 19 3f
       0.62514764 0.587425 0.6103729 0.6010501
0003c0 6c 6f 1c 3f f1 56 20 3f 30 8a 12 3f 3a 3f 14 bf
       0.61107516 0.6263266 0.5724211 -0.57908976
0003d0 23 da 18 bf 68 d5 1d bf 50 30 1d bf e9 68 20 bf
       -0.5970785 -0.6165376 -0.61401844 -0.6266008
0003e0 9b 79 19 bf f4 ab 1f bf be 1b 20 bf 09 c5 18 bf
       -0.5995118 -0.62371755 -0.6254233 -0.5967565
0003f0 c6 78 15 3f 0c 2f 14 3f 8d b0 18 3f 01 71 1f 3f
       0.5838741 0.5788429 0.59644395 0.62281805

module.Conv6.layers.0.bias f4 [64]
000000 1e 88 43 3d b1 0d 97 bd e5 38 18 bd ca c8 4d 3d
       0.047737233 -0.07375658 -0.037163634 0.050240315
000010 e8 aa 51 3c 1b fc 85 bd b3 53 de 3c 0c e7 c3 bd
       0.012797095 -0.06542226 0.02713952 -0.09565553
000020 57 17 40 3d 64 20 b1 3c 10 d4 61 bd 29 6c b8 3d
       0.04689726 0.02162189 -0.05513388 0.09005005
000030 dd 9e a4 be 79 57 85 3c 2d d4 cf 3b 9a 73 ec bd
       -0.32152453 0.016277062 0.006342432 -0.11545487
000040 c3 db 7c bd 4d 53 f4 bd 20 2f 07 be 3f 22 e6 3d
       -0.06173302 -0.11929951 -0.1320157 0.11237001
000050 2b 05 f8 3d 64 b9 ba 3d 0a bc 49 bd ec ed e9 bd
       0.12110361 0.09117392 -0.049251594 -0.11422333
000060 78 dd 3e 3e 45 f5 16 3e 10 c9 d5 3c 73 c0 9e 3c
       0.18639171 0.14742 0.02609685 0.019378876
000070 e1 68 b7 3d fa 44 51 bd 55 34 18 3d cd e1 da 3c
       0.08955551 -0.05109117 0.037159283 0.026718998
000080 18 62 6a 3c c5 57 12 bc ff 0f 75 3d ec a7 57 3d
       0.014305614 -0.008932059 0.05982971 0.052650377
000090 49 da 76 bb 0d 0d cd 3d ea 0b dc 3d f6 25 8e 3e
       -0.003766673 0.10012255 0.1074446 0.27763337
0000a0 6e 96 1d 3d 1e b3 fd bc c7 82 87 3d 53 79 fb bc
       0.03847354 -0.030969199 0.06616741 -0.0306975
0000b0 de d0 b2 bd 46 ee 15 3d 1c f8 3e be cc 81 7a 3d
       -0.087312445 0.03660419 -0.18649334 0.06115894
0000c0 f7 ee 5d 3d 66 ed b7 3c 0a 91 80 bc 49 c2 9f bc
       0.054182973 0.022452068 -0.01569416 -0.019501822
0000d0 28 88 4b bd 57 bd 10 be bb d9 3d 3d 4f 0c 7e 3e
       -0.049690396 -0.14134727 0.046350222 0.24809383
0000e0 27 e4 a5 bd 48 37 7b 3d 2d 68 e2 3d 14 b6 64 3d
       -0.08100157 0.061332017 0.11055026 0.055837706
0000f0 92 c3 51 3e 12 21 26 3e 2c d4 2d be 5f 57 c4 bc
       0.2048476 0.16223553 -0.16975468 -0.023967443

module.Conv6.layers.1.weight f4 [64]
000000 04 e0 33 3f 82 6c f9 3e 11 67 b5 3f 44 37 69 3f
       0.70263696 0.48715597 1.4172078 0.91099954
000010 ed b3 64 3f 08 f4 c8 3f f4 84 ef 3e fe d3 84 3f
       0.89337045 1.5699472 0.46781123 1.0377195
000020 3d 7f 4b 3f a2 48 4b 3f 4e a2 c5 3e ca 67 e1 3e
       0.79491025 0.79407704 0.3860039 0.44024497
000030 92 de 3b 3f 50 16 72 3f 7c 3d 6e 3e 8f d6 fd 3e
       0.7338649 0.94565296 0.23265642 0.49577758
000040 df 06 82 3f a0 93 5b 3f ca d4 89 3f 95 e7 98 3f
       1.0158347 0.8577213 1.0768063 1.1945673
000050 65 8b 98 3f 95 4a c2 3f ad a6 4f 3f 30 4e 87 3f
       1.191754 1.5179011 0.811137 1.0570736
000060 a0 55 f6 3e dc 9f c4 3f 0e b8 95 3f 91 8d 13 3f
       0.48112202 1.5361285 1.1696794 0.5763789
000070 20 da 39 3f 27 7a f6 3e 1a e7 77 3f a7 ac 8b 3f
       0.7259846 0.4814007 0.9683701 1.0912064
000080 39 3c b2 3e 67 ba b4 3e 63 7e 8a 3f dd 52 91 3f
       0.3481157 0.35298464 1.081982 1.1353413
000090 6a 74 8b 3e 73 09 b6 3f 1e b4 16 3f 6f 41 a3 3f
       0.27237254 1.4221634 0.58868587 1.2754344
0000a0 f3 0b 96 3f 6d 43 81 3f 46 29 28 3d 5b df 51 3f
       1.1722397 1.0098702 0.041054986 0.8198144
0000b0 52 39 bc 3f 73 43 03 40 fa dd c9 3f 3c e5 75 be
       1.4704993 2.0509918 1.5770867 -0.24013227
0000c0 6c a2 4f 3f ca 62 e0 3d f6 65 80 3f 6e 89 85 3f
       0.8110721 0.109563425 1.0031116 1.0432565
0000d0 14 f9 85 3f 99 8e 6d 3f 65 93 e0 3e f7 24 c3 3f
       1.0466638 0.9279571 0.43862453 1.5245656
0000e0 92 1c 0b 3f b7 f7 86 3f ff 09 22 3f 74 37 61 bf
       0.5434047 1.0544347 0.632965 -0.8797524
0000f0 78 c9 fb 3e 30 cf a6 3e 1d 80 a1 3f 92 3e c0 3f
       0.49177146 0.32579947 1.2617222 1.5019095

module.Conv6.layers.1.bias f4 [64]
000000 c6 82 dd bf 03 3b 2a bf 99 a6 21 3f 83 d6 ae 3f
       -1.7305534 -0.66496295 0.6314483 1.3659214
000010 da 88 ed 3f 93 e5 fd 3e 59 48 92 3f 0a 2a fd 3f
       1.8557389 0.49589214 1.1428329 1.9778454
000020 e6 b2 fc 3f 49 69 70 bf c2 f9 26 3f b6 41 82 bf
       1.9742095 -0.9391065 0.6522485 -1.0176303
000030 08 ef ae be 38 29 f4 3f dc bc 2e 3f b2 a4 a6 bf
       -0.3416674 1.9075079 0.68256927 -1.3019011
000040 0f 51 47 40 0a 74 22 c0 f6 f5 99 3f c6 31 17 40
       3.1143224 -2.5383325 1.2028186 2.362413
000050 ab 7f 0c c0 90 aa 05 3f f8 9d b5 bf 78 cf 9f 3f
       -2.1952922 0.5221338 -1.4188833 1.248519
000060 04 c8 14 bf 14 e9 08 3f 9d a5 9f 3f 67 0d 4d bf
       -0.581177 0.5348065 1.2472416 -0.80098575
000070 a2 47 e4 bf c9 1d b8 bf ab e9 ee 3f c6 b0 1b 40
       -1.7834361 -1.438409 1.866506 2.4326644
000080 79 2a 7d 3f 07 06 8d 3f 8d 66 fc bf ff 9c 23 40
       0.98892933 1.1017464 -1.9718796 2.5564573
000090 18 fe 81 3f f1 c9 05 3f 29 35 5a bf a8 d8 01 40
       1.0155668 0.52261263 -0.85237366 2.0288486
0000a0 dc 9a 80 c0 e6 56 58 bf 94 8d 2a bf f0 19 1e 40
       -4.0189037 -0.84507596 -0.6662228 2.470333
0000b0 78 d7 39 3f 21 8e 96 40 3b 10 0a 3f db 01 59 3f
       0.72594404 4.7048497 0.53931016 0.84768456
0000c0 73 46 a5 bf b5 df 01 bf a6 84 2c bf 2c 54 9a 3f
       -1.2912124 -0.50731975 -0.67389905 1.2056937
0000d0 24 88 fb 3f 20 92 f5 3f 6b 1e 10 bf cf d2 0d 3f
       1.9650922 1.9185219 -0.56296414 0.55399793
0000e0 c4 f1 d4 be ea 64 3c c0 d2 72 a9 bf 1c ac 45 3e
       -0.41590703 -2.9436593 -1.3238165 0.19303936
0000f0 25 b2 91 bf 0f a2 0f bf ba ca cf 3f eb 03 96 40
       -1.138249 -0.56106657 1.6233742 4.6879783

module.Conv6.layers.1.running_mean f4 [64]
000000 33 d1 40 43 82 7a 35 c3 d5 23 45 43 f4 fe 54 c3
       192.81718 -181.47855 197.13997 -212.99591
000010 81 10 40 c3 53 65 5c 43 2d 15 36 43 98 e4 38 43
       -192.06447 220.3958 182.08272 184.89294
000020 c2 e5 2b 43 b4 34 c2 42 4c 8a 66 43 c7 d7 3d 43
       171.89749 97.102936 230.54022 189.84288
000030 6c 7f 21 c3 6e 13 3a c3 33 07 4d 43 c4 ae 3a 43
       -161.49774 -186.0759 205.02812 186.68268
000040 5c 07 4c c3 5d 1d 2e 43 d1 a5 f3 c2 c1 c0 31 c3
       -204.02875 174.1147 -121.82386 -177.75294
000050 d8 98 3d 43 b0 c3 5c 43 e0 05 2a 43 49 45 01 c3
       189.59705 220.7644 170.02295 -129.27065
000060 3b 94 51 c3 0c 29 49 43 18 0b 42 43 91 3e 30 c3
       -209.57903 201.16034 194.04333 -176.2444
000070 36 23 39 43 0c 69 5d 43 5d fd 2b c3 5d 25 3f c3
       185.13754 221.41034 -171.9897 -191.14595
000080 ca 10 3a 43 51 10 49 43 b1 a4 34 43 f0 af 3a c3
       186.06558 201.06374 180.64333 -186.68726
000090 2e 8d 45 c3 66 f2 4e 43 f0 94 30 43 8c 62 34 43
       -197.55148 206.94687 176.58179 180.38495
0000a0 51 95 4c 43 7c db 4a 43 63 cc f9 c2 40 cc 46 c3
       204.58327 202.85736 -124.89919 -198.79785
0000b0 6e 52 48 43 3f 23 18 c3 b3 b5 54 43 91 47 d9 c2
       200.32199 -152.13768 212.70976 -108.63978
0000c0 f4 8b 39 43 6e fe 68 c3 80 8a 2c c2 29 b6 7e c3
       185.54669 -232.99387 -43.135254 -254.71156
0000d0 28 d4 5b c3 3b 7a 2f c3 dc 28 44 c3 85 c7 48 43
       -219.82874 -175.47746 -196.1596 200.77937
0000e0 aa 8f 4a c3 5b 81 35 43 9a 40 2b 43 d6 75 56 43
       -202.56119 181.5053 171.25235 214.4603
0000f0 fe 46 27 43 be 66 69 c3 4e 41 37 c3 e0 6a 49 c3
       167.27731 -233.40134 -183.2551 -201.41748

module.Conv6.layers.1.running_var f4 [64]
000000 c8 47 b1 45 12 4b 81 45 d4 9b 07 46 7d 76 39 45
       5672.9727 4137.384 8678.957 2967.4055
000010 a5 77 90 45 e1 87 07 46 b9 29 de 45 d8 c9 89 45
       4622.9556 8673.97 7109.2153 4409.2305
000020 f3 7b 8f 45 8a 00 59 46 05 ae 0a 46 98 af 1a 45
       4591.4937 13888.135 8875.505 2474.9746
000030 ac 8b 41 45 b1 15 7e 45 6e 84 16 46 f6 9e da 45
       3096.7295 4065.3557 9633.107 6995.87
000040 57 4c b2 45 a5 53 05 46 93 95 2b 45 83 0c 75 45
       5705.5425 8532.911 2745.3484 3920.782
000050 39 e9 85 45 93 1f 0a 46 3a 69 6c 45 93 3c 13 45
       4285.153 8839.894 3782.5767 2355.786
000060 2f 4d 46 46 7b dc 17 46 02 c2 a5 45 8c 0e 1b 46
       12691.296 9719.12 5304.251 9923.637
000070 b8 74 ad 45 c5 87 9b 45 0b a0 8b 45 cd 35 f5 45
       5550.59 4976.971 4468.0054 7846.725
000080 c1 30 bd 45 cf 0e df 45 80 3a 5a 45 38 b8 7b 45
       6054.094 7137.851 3491.6562 4027.5137
000090 ab ff 22 46 01 fa 22 46 da e5 a6 45 f5 ff 70 45
       10431.917 10430.501 5340.7314 3855.9973
0000a0 4b 53 06 46 90 ac 08 46 e9 a3 1d 46 fa e3 00 46
       8596.823 8747.141 10088.978 8248.994
0000b0 94 ac ea 45 bc 77 4a 46 08 8d 11 46 b6 56 9d 45
       7509.5723 12957.934 9315.258 5034.839
0000c0 5b 4f 73 45 0c 2a 00 46 1a ba 9e 44 a5 46 1e 46
       3892.9597 8202.512 1269.8157 10129.661
0000d0 31 33 1a 46 e2 fd 86 45 82 aa 1c 46 69 d3 ec 45
       9868.798 4319.7354 10026.627 7578.4263
0000e0 4a 46 24 46 02 53 01 46 1a 28 6b 45 48 9d 27 46
       10513.572 8276.752 3762.5063 10727.32
0000f0 43 cc bb 45 5f 0f 27 46 1a 19 bf 45 86 3f ad 45
       6009.5327 10691.843 6115.1377 5543.9404

module.Conv7.layers.1.weight f4 [1, 128, 3, 3]
000000 db b0 15 bf 5d 76 17 bf e2 91 13 bf f7 ae 16 bf
       -0.58472985 -0.59164983 -0.57644475 -0.58860725
000010 31 6d 16 bf 12 f7 19 bf 84 2d 24 bf 43 75 1c bf
       -0.5876036 -0.60142624 -0.6413195 -0.6111643
000020 14 51 26 bf c0 e9 15 3f ec 4d 19 3f 39 94 16 3f
       -0.64967465 0.585598 0.59884524 0.5881992
000030 32 03 18 3f 55 e8 14 3f 04 51 16 3f d0 2c 1a 3f
       0.59379876 0.5816701 0.5871737 0.6022463
000040 c1 9c 17 3f bb 59 13 3f 04 d2 18 3f 3c d9 1d 3f
       0.5922356 0.5755879 0.5969546 0.616596
000050 12 ba 18 3f 88 0f 14 3f 0b ce 1c 3f 6f 7b 16 3f
       0.5965892 0.578362 0.61251897 0.58782095
000060 7c c2 1d 3f b4 a8 1d 3f 87 ab 17 3f 6d 29 18 bf
       0.61624885 0.61585546 0.59246105 -0.5943821
000070 69 a8 1c bf d6 06 1b bf 50 1b 1f bf 23 65 19 bf
       -0.61194474 -0.60557306 -0.6215105 -0.5991995
000080 e3 8b 19 bf 0a b0 15 bf 21 bb 12 bf 9a f7 18 bf
       -0.59979075 -0.5847174 -0.57316786 -0.5975281
000090 c5 b7 1c bf fe 5f 21 bf 51 fc 0b bf c6 fa 1c bf
       -0.6121791 -0.630371 -0.5468188 -0.6132015
0000a0 9c f4 20 bf 14 dd 16 bf 55 e8 11 bf ae 0f 1f bf
       -0.62873244 -0.5893109 -0.56995136 -0.621333
0000b0 ab 16 18 bf c0 14 1f 3f 94 24 20 3f e7 7c 1f 3f
       -0.5940959 0.62141037 0.62555814 0.6229996
0000c0 3d 47 1b 3f 13 bc 20 3f 1d 4b 16 3f c2 dc 1a 3f
       0.60655576 0.6278698 0.58708364 0.604931
0000d0 2e cb 12 3f 75 42 1b 3f 7a 00 19 3f 71 93 16 3f
       0.5734128 0.6064828 0.5976635 0.5881873
0000e0 09 21 1b 3f d7 89 1d 3f b8 ef 12 3f 5d 11 1d 3f
       0.6059728 0.6153845 0.5739703 0.6135462
0000f0 72 37 18 3f 1f e5 1c 3f 12 ac 11 3f 0b 6d 1c 3f
       0.594596 0.6128711 0.56903183 0.61103886
000100 c5 99 12 3f 82 3d 11 3f 0d 8a 17 3f 48 c7 1f 3f
       0.57265884 0.5673448 0.59195024 0.62413454
000110 a9 f0 1d 3f dd 40 15 3f 72 0a 1a 3f 6f 12 1e 3f
       0.61695343 0.583021 0.6017219 0.6174688
000120 e3 0a 12 3f d6 77 1a 3f e5 77 18 3f ea 4d 1e 3f
       0.5704786 0.60339105 0.59557945 0.6183764
000130 8a 11 13 3f 01 97 1a 3f e8 55 15 3f dc 16 17 3f
       0.5744864 0.60386664 0.5833421 0.59019256
000140 45 6f 1b 3f 1f 58 1f bf a1 6f 13 bf 6c 07 12 bf
       0.6071666 -0.6224384 -0.5759221 -0.57042575
000150 3b f0 17 bf 7f 31 1a bf d3 39 16 bf d3 3e 19 bf
       -0.5935094 -0.60231775 -0.5868198 -0.5986149
000160 42 af 16 bf 8d b3 19 bf 54 e9 16 3f c0 bb 17 3f
       -0.5886117 -0.600396 0.5894978 0.5927086
000170 d1 c2 12 3f 5b 22 1c 3f 75 c5 1a 3f 1e 07 1f 3f
       0.57328516 0.6098992 0.60457546 0.62120235
000180 06 7e 16 3f 7d e0 1a 3f d7 cd 12 3f e9 80 15 bf
       0.58786047 0.6049879 0.57345337 -0.58399826
000190 eb 99 17 bf f8 42 20 bf 77 48 14 bf 6c 4b 16 bf
       -0.59219235 -0.62602186 -0.5792307 -0.58708835
0001a0 13 13 13 bf fe 0d 16 bf f9 d4 1d bf bd 95 18 bf
       -0.5745098 -0.586151 -0.61653095 -0.5960348
0001b0 78 e4 14 3f 3e 41 17 3f d0 72 17 3f c9 af 13 3f
       0.58161116 0.59083927 0.59159565 0.576901
0001c0 54 bc 14 3f a9 79 15 3f 9e 85 1c 3f c4 c3 18 3f
       0.58099866 0.58388764 0.61141384 0.59673715
0001d0 2f 39 1e 3f 85 07 16 bf a7 f2 16 bf 0b 47 16 bf
       0.61806005 -0.58605224 -0.5896401 -0.5870215
0001e0 8f 5c 1b bf 37 3d 1f bf 56 e9 1e bf 0f b0 17 bf
       -0.6068811 -0.6220278 -0.6207479 -0.5925302
0001f0 73 4a 1f bf 13 1d 18 bf 1e 40 16 3f 0a a6 19 3f
       -0.62222975 -0.59419364 0.58691585 0.6001898
000200 1b fa 12 3f 08 5d 1f 3f 41 b9 15 3f e2 86 1a 3f
       0.5741288 0.6225133 0.584858 0.60362065
000210 c3 20 17 3f 26 0f 15 3f 6c ef 15 3f bf a6 1c bf
       0.59034365 0.5822624 0.58568454 -0.61191934
000220 cf 61 1a bf 10 ec 18 bf 5b 6a 13 bf ec 0c 14 bf
       -0.60305494 -0.597352 -0.5758416 -0.5783222
000230 c3 af 1d bf 12 2e 1a bf 68 d4 16 bf d4 27 13 bf
       -0.61596316 -0.6022655 -0.58917856 -0.5748265
000240 33 61 11 bf c8 bc 1d bf 21 0b 16 bf 8b 3f 22 bf
       -0.5678894 -0.6161618 -0.5861073 -0.6337821
000250 4a 8b 23 bf 31 06 22 bf 2c 5d 0e bf 40 6d 1d bf
       -0.63884413 -0.632907 -0.5561092 -0.6149483
000260 3e 35 1b bf 27 3d 15 bf fc 8f 19 bf 19 24 15 bf
       -0.60628116 -0.58296436 -0.5998533 -0.58258206
000270 5e 93 16 bf 0e 4e 1e bf 9d ff 1c bf ee 40 14 bf
       -0.58818614 -0.6183785 -0.61327535 -0.57911575
000280 92 c7 1a bf 86 81 1d bf 9b 0b 1f bf 83 82 1a bf
       -0.6046077 -0.6152576 -0.62127084 -0.60355395
000290 bb ce 1c bf b9 50 11 bf 02 86 1c bf 38 4c 17 bf
       -0.61252946 -0.567638 -0.6114198 -0.59100676
0002a0 5a 71 1a bf a2 7e 1c bf 5e 6f 18 bf 2a 24 1f bf
       -0.6032921 -0.61130726 -0.5954493 -0.62164557
0002b0 94 0e 1a bf 28 98 19 bf 14 8c 1e bf 7d 71 22 bf
       -0.60178494 -0.59997797 -0.6193249 -0.6345442
0002c0 d2 e1 1d bf 53 49 12 bf 35 1c 1c bf 56 ef 0f bf
       -0.616727 -0.57143134 -0.6098054 -0.5622457
0002d0 c0 ed 16 bf 97 96 20 bf d1 6a 16 bf 00 c7 16 bf
       -0.5895653 -0.6272978 -0.5875674 -0.588974
0002e0 f0 ad 16 bf 52 48 27 bf 44 48 19 bf bb ac 25 bf
       -0.5885916 -0.6534473 -0.59875894 -0.6471669
0002f0 48 63 20 bf c1 d5 19 3f 98 f7 1a 3f 79 05 1a 3f
       -0.6265149 0.6009179 0.6053405 0.601646
000300 85 a8 1b 3f 02 c2 17 3f 0a 45 18 3f d1 ca 15 3f
       0.60804015 0.5928041 0.59480345 0.585126
000310 7e 67 20 3f 5d 96 1d 3f 90 3d 18 bf 71 13 15 bf
       0.62657917 0.6155756 -0.59468937 -0.5823279
000320 e1 8a 17 bf ed 02 16 bf ae ae 13 bf 14 8b 1d bf
       -0.5919629 -0.58598214 -0.57688415 -0.6154034
000330 d9 2c 14 bf a2 84 1d bf f1 30 20 bf b2 c1 1c bf
       -0.5788093 -0.61530507 -0.6257468 -0.61233056
000340 50 59 1c bf 6c 46 1e bf 8e d8 1c bf f9 3f 12 bf
       -0.6107378 -0.61826205 -0.61267936 -0.57128865
000350 c0 34 14 bf 65 87 14 bf 59 c4 17 bf f6 69 1c bf
       -0.5789299 -0.58019096 -0.5928398 -0.61099184
000360 92 c5 1a 3f f1 26 14 3f 4c 55 14 3f 89 45 18 3f
       0.6045772 0.5787192 0.5794265 0.594811
000370 08 ef 16 3f 8a cb 1a 3f f4 a0 16 3f b4 17 13 3f
       0.5895848 0.60466826 0.58839345 0.57458043
000380 97 ba 15 3f 64 01 18 3f 79 a5 16 3f 04 94 1c 3f
       0.5848784 0.5937712 0.5884624 0.61163354
000390 bb 33 1a 3f cb f9 18 3f be 7a 1b 3f a2 0b 1e 3f
       0.60235184 0.59756154 0.60734165 0.617365
0003a0 b8 8b 1d 3f ec d1 1f 3f 93 d7 1d 3f f3 fb 17 3f
       0.6154132 0.6242969 0.61657065 0.5936882
0003b0 fa b5 17 3f 5f 1e 1d 3f aa d3 19 3f e8 b3 1a 3f
       0.5926205 0.6137447 0.600886 0.60430765
0003c0 e6 51 16 3f 8c 1f 18 3f 30 91 18 3f 2f 58 1a 3f
       0.5871872 0.59423137 0.5959654 0.6029081
0003d0 4b c1 1b 3f 28 8c 18 3f d5 5b 15 3f c5 da 11 3f
       0.60841817 0.5958886 0.5834325 0.5697444
0003e0 ab b4 1e 3f 77 f0 15 3f 84 b7 16 3f 4a 2e 1a 3f
       0.6199443 0.58570045 0.5887377 0.6022688
0003f0 35 38 19 bf d3 ce 14 bf 95 ce 13 bf 77 0c 1a bf
       -0.5985139 -0.5812809 -0.57737094 -0.6017527
