DIDFuse/saved_models/decoder/IR_AE22.pth (torch, 604881 bytes, 13 tensors)

module.Conv5.layers.0.weight f4 [64, 128, 3, 3]
0.59740967 0.5768745 0.57542294 0.61699635 0.6273462 0.6027891 0.62189245 0.57594484
0.60366553 0.60448164 0.574357 0.6054819 0.5898861 0.6244459 0.6055873 0.5719426
0.5989792 0.59449077 0.6177785 0.59225965 0.5982242 0.5728251 0.6158803 0.6158682
0.5930675 0.5745517 0.6072075 0.579919 0.6140306 0.58521664 0.5908946 0.5849661
0.59360164 0.62360495 0.6111688 0.6042749 0.6092604 0.60891134 0.6180698 0.58895904
0.5721287 0.5850001 0.6247349 0.57028913 0.59361595 0.60599333 0.59420955 0.5827059
0.6015446 0.6139752 0.6276849 0.57273775 0.5875975 0.59489137 -0.6016153 -0.5877183
-0.61723834 -0.5838272 -0.60688215 -0.5673486 -0.6224847 -0.5931987 -0.62356806 0.62255806
0.626788 0.5905071 0.60704505 0.6057306 0.57314533 0.6022309 0.5929298 0.60059136
-0.604967 -0.60875666 -0.57603604 -0.61837906 -0.56706923 -0.58614326 0.7760798 0.77089506
-0.5314659 0.62476075 0.575677 0.57135826 0.62643886 0.6065271 0.604216 0.58803666
0.59081304 0.5741509 -0.59408146 -0.59440887 -0.6115064 -0.6294665 -0.60527134 -0.6309818
-0.63764447 -0.60773885 -0.6707725 -0.5799496 -0.5764241 -0.6222559 -0.5791671 -0.6118917
-0.5966463 -0.5784407 -0.574634 -0.59679466 -0.5919671 -0.60056627 -0.61809784 -0.5825651
-0.59922266 -0.5704047 -0.61364675 -0.58456343 -0.58427215 0.6098972 0.61684227 0.597295
0.59109825 0.60106057 0.59742266 0.60559213 0.58268017 0.5971111 -0.6176485 -0.5921274
-0.61437315 -0.596058 -0.61748546 -0.6057801 -0.59034014 -0.6176713 -0.6143154 -0.5944885
-0.6230761 -0.58990544 -0.59087026 -0.58350766 -0.59755296 -0.60013115 -0.57592076 -0.5952077
-0.5935184 -0.5971639 -0.5916252 -0.6248593 -0.6147997 -0.6262452 -0.5996491 -0.6147351
-0.57732093 0.6213934 0.6258589 0.60543 0.59221447 0.629657 0.58932155 -0.59731865
-0.62150586 -0.5578211 -0.59281486 -0.58577174 -0.61469835 0.59181434 -0.59515005 0.5928173
0.5875819 0.5993048 0.61096364 0.6028288 0.58805186 0.5996184 0.611497 0.6174715
0.61092323 0.59179664 0.6258438 0.58269644 0.5981525 0.6191045 0.61154026 0.5803501
0.5971127 0.6080497 -0.5711112 -0.61276853 -0.60125065 0.58004665 0.59175354 0.627996
0.5776749 0.5911066 0.62858963 0.6149014 0.5963403 0.59806794 0.6181568 0.5930163
0.622498 0.6277744 0.6078205 0.5784184 0.62926626 0.58187956 0.58354145 -0.6212679
-0.5929434 -0.61289155 -0.62411875 -0.62539256 -0.61732227 -0.72466904 -0.63902545 -0.57862645
-0.6078632 -0.5866782 -0.5743897 -0.6062417 -0.62015545 -0.6243128 -0.605856 -0.5862359
-0.5997431 -0.60288346 -0.58752054 -0.6171786 -0.594643 -0.587146 -0.5869118 -0.60703856
-0.6261967 -0.60228074 0.6201508 0.57913405 0.5802526 0.58885705 0.58605194 0.59221
0.5727447 0.5912093 0.59833825 -0.5815293 -0.57966274 -0.60252655 -0.5760907 -0.57671547
-0.62235934 -0.6174887 -0.58729786 -0.6166688 0.61061645 0.61284214 0.6063772 0.62933636
00000000: d7ef 183f 0cae 133f eb4e 133f 79f3 1d3f
00000010: c399 203f 6350 1a3f 5834 1f3f 1f71 133f
00000020: d389 1a3f 4fbf 1a3f 0f09 133f dd00 1b3f
00000030: c702 173f b0db 1f3f c507 1b3f d56a 123f
00000040: b356 193f 8c30 183f bb26 1e3f 549e 173f
00000050: 3925 193f aaa4 123f 55aa 1d3f 8aa9 1d3f
00000060: 46d3 173f d215 133f f371 1b3f 9275 143f
00000070: 1c31 1d3f c2d0 153f de44 173f 57c0 153f
00000080: 47f6 173f 93a4 1f3f 8f75 1c3f c3b1 1a3f
00000090: 7df8 1b3f 9de1 1b3f d339 1e3f 05c6 163f
000000a0: 0777 123f 91c2 153f a0ee 1f3f 78fe 113f
000000b0: 37f7 173f 6122 1b3f 1e1e 183f 372c 153f
000000c0: d4fe 193f 7b2d 1d3f f5af 203f f19e 123f
000000d0: ca6c 163f cd4a 183f 7603 1abf b574 16bf
000000e0: 5503 1ebf b375 15bf a15c 1bbf c23d 11bf
000000f0: 285b 1fbf dfdb 17bf 28a2 1fbf f75f 1f3f
00000100: 2e75 203f 792b 173f 4e67 1b3f 2911 1b3f
00000110: a7b9 123f ce2b 1a3f 3fca 173f 5bc0 193f
00000120: 1edf 1abf 7ad7 1bbf 1977 13bf 174e 1ebf
00000130: 732b 11bf 7c0d 16bf 2aad 463f 6159 453f
00000140: 260e 08bf 52f0 1f3f 915f 133f 8944 123f
00000150: 4c5e 203f 5c45 1b3f e6ad 1a3f 9289 163f
00000160: 863f 173f 8efb 123f b915 18bf 2e2b 18bf
00000170: af8b 1cbf b724 21bf 10f3 1abf 0688 21bf
00000180: ab3c 23bf c694 1bbf bfb7 2bbf 9477 14bf
00000190: 8890 13bf 2a4c 1fbf 4c44 14bf efa4 1cbf
000001a0: d0bd 18bf b114 14bf 371b 13bf 89c7 18bf
000001b0: 288b 17bf b6be 19bf a93b 1ebf fd22 15bf
000001c0: a866 19bf 0b06 12bf f417 1dbf f3a5 15bf
000001d0: dc92 15bf 3922 1c3f 60e9 1d3f 53e8 183f
000001e0: 3752 173f 1bdf 193f b1f0 183f 1608 1b3f
000001f0: 872a 153f 46dc 183f 361e 1ebf a995 17bf
00000200: 8f47 1dbf 4297 18bf 8713 1ebf 6814 1bbf
00000210: 8820 17bf b51f 1ebf c643 1dbf 6630 18bf
00000220: ea81 1fbf 0b04 17bf 4643 17bf c260 15bf
00000230: 3bf9 18bf 32a2 19bf 8b6f 13bf 885f 18bf
00000240: d2f0 17bf bcdf 18bf c074 17bf c7f6 1fbf
00000250: 8363 1dbf 9b51 20bf 9a82 19bf 485f 1dbf
00000260: 4ecb 13bf a313 1f3f 4a38 203f 76fd 1a3f
00000270: 5e9b 173f 3331 213f c7dd 163f e0e9 18bf
00000280: 021b 1fbf 5dcd 0ebf b7c2 17bf 23f5 15bf
00000290: df5c 1dbf 2581 173f c15b 18bf e0c2 173f
000002a0: c46b 163f 0a6c 193f 1d68 1c3f fd52 1a3f
000002b0: 918a 163f 9780 193f 118b 1c3f 9d12 1e3f
000002c0: 7765 1c3f fc7f 173f 4d37 203f 982b 153f
000002d0: 8620 193f a27d 1e3f e78d 1c3f d391 143f
000002e0: 61dc 183f 25a9 1b3f 5834 12bf 66de 1cbf
000002f0: 90eb 19bf f07d 143f 297d 173f 59c4 203f
00000300: 81e2 133f c352 173f 40eb 203f 2e6a 1d3f
00000310: c2a9 183f fb1a 193f 863f 1e3f ebcf 173f
00000320: 075c 1f3f d3b5 203f 209a 1b3f 3a13 143f
00000330: 9817 213f 0ff6 143f f962 153f 6a0b 1fbf
00000340: 23cb 17bf 76e6 1cbf 3fc6 1fbf ba19 20bf
00000350: d508 1ebf e983 39bf 2c97 23bf dd20 14bf
00000360: ec9c 1bbf 8b30 16bf 340b 13bf a832 1bbf
00000370: 82c2 1ebf f7d2 1fbf 6119 1bbf 8e13 16bf
00000380: c488 19bf 9256 1abf bf67 16bf 6bff 1dbf
00000390: 863a 18bf 334f 16bf da3f 16bf e166 1bbf
000003a0: 6d4e 20bf 122f 1abf 34c2 1e3f 2142 143f
000003b0: 6f8b 143f 56bf 163f 8007 163f 139b 173f
000003c0: 669f 123f 7e59 173f b22c 193f 1bdf 14bf
000003d0: c764 14bf 2e3f 1abf ae7a 13bf a0a3 13bf
000003e0: f152 1fbf bd13 1ebf 2759 16bf 02de 1dbf
000003f0: 5c51 1c3f 39e3 1c3f 893b 1b3f 301c 213f

module.Conv5.layers.0.bias f4 [64]
-0.06203305 -0.03864392 -0.12181462 0.022823524 -0.024387984 -0.049981236 0.09593246 0.11407818
-0.05682207 0.058671877 0.004824325 0.05057463 -0.03442261 -0.07595106 0.064584 -0.13115074
-0.058202963 -0.0022686243 0.04586506 -0.012886095 -0.05564947 0.08241125 0.1349792 -0.109659046
-0.08808625 0.06488364 -0.0013431958 -0.10276705 -0.0032388573 0.07941916 -0.020330995 -0.029853582
0.009259939 -0.010933351 -0.012628938 -0.017340716 0.012475144 -0.048892222 0.15477417 -0.023666425
-0.08174879 0.007897473 0.0077340254 0.0028740559 0.143841 0.15431042 0.037526403 -0.07040046
0.13378197 -0.054262955 0.036872704 0.018164087 0.1651973 -0.03581373 0.06594185 0.053222112
-0.00026797457 0.016338117 -0.019577686 -0.0026193862 0.044079 -0.0121289985 0.062055804 -0.12322868
00000000: 5e16 7ebd 1649 1ebd f279 f9bd 66f8 ba3c
00000010: 4fc9 c7bc 20b9 4cbd 3d78 c43d d2a1 e93d
00000020: 42be 68bd ec51 703d 5f15 9e3b 5827 4f3d
00000030: b9fe 0cbd 3b8c 9bbd 9e44 843d 614c 06be
00000040: 3b66 6ebd 33ad 14bb 00dd 3b3d 3320 53bc
00000050: b3f0 63bd 3bc7 a83d fd37 0a3e ec94 e0bd
00000060: 9066 b4bd b7e1 843d 2c0e b0ba 8877 d2bd
00000070: 0243 54bb 83a6 a23d 308d a6bc 808f f4bc
00000080: 00b7 173c cc21 33bc 9be9 4ebc 1e0e 8ebc
00000090: 8c64 4c3c 3643 48bd 1f7d 1e3e 17e0 c1bc
000000a0: e96b a7bd 6764 013c b56d fd3b a85a 3c3b
000000b0: 0e4b 133e 8d03 1e3e 49b5 193d 1e2e 90bd
000000c0: 24fe 083e d542 5ebd d507 173d dacc 943c
000000d0: 7b29 293e 6bb1 12bd 850c 873d 6eff 593d
000000e0: f07e 8cb9 84d7 853c 6261 a0bc 02aa 2bbb
000000f0: 2e8c 343d b5b8 46bc 3a2e 7e3d 515f fcbd

module.Conv5.layers.1.weight f4 [64]
0.49608335 0.40444523 1.3030325 1.1236684 0.6434756 1.5260639 0.40399212 1.4584033
1.6834567 0.066926956 0.4261462 1.632186 1.8339678 2.1641903 1.3086226 1.0536752
2.5493834 2.762176 0.4288978 2.953511 0.15023443 0.2385848 0.040788542 2.168853
1.119753 0.6493621 1.2049433 1.2429299 1.461708 1.1583003 2.8678226 1.6759965
0.07614734 0.8581867 2.233875 -0.6498831 1.7326708 1.1786227 0.7797722 0.35460925
0.3071203 0.9004256 0.6767229 0.9823188 0.41463563 0.8482994 0.39868417 3.1285548
-0.8854438 0.74798524 0.97851956 0.15878281 0.3244464 -0.41967192 -0.9598051 0.34472537
2.4433272 -0.65106714 0.3799634 1.3144346 1.6596502 1.2796915 0.11801274 1.3910257
00000000: a3fe fd3e 7213 cf3e c5c9 a63f 5ed4 8f3f
00000010: d1ba 243f 1056 c33f 0ed8 ce3e f6ac ba3f
00000020: 827b d73f 0011 893d d62f da3e 79eb d03f
00000030: 75bf ea3f 1882 0a40 f280 a73f d4de 863f
00000040: 1929 2340 7ec7 3040 7e98 db3e 5306 3d40
00000050: 0ed7 193e 934f 743e e311 273d 7dce 0a40
00000060: 1154 8f3f 983c 263f 953b 9a3f 5418 9f3f
00000070: 3f19 bb3f 2f43 943f 688a 3740 0e87 d63f
00000080: 23f3 9b3d 20b2 5b3f cff7 0e40 bd5e 26bf
00000090: 28c8 dd3f 1cdd 963f 279f 473f 588f b53e
000000a0: df3e 9d3e 4b82 663f b63d 2d3f 3f79 7b3f
000000b0: 1f4b d43e 262a 593f 5520 cc3e 3e3a 4840
000000c0: 72ac 62bf f67b 3f3f 4280 7a3f f697 223e
000000d0: d71d a63e 3ddf d6be c9b5 75bf d87f b03e
000000e0: 795f 1c40 56ac 26bf 908a c23e 653f a83f
000000f0: 6b6f d43f eecc a33f aab0 f13d 210d b23f

module.Conv5.layers.1.bias f4 [64]
-1.1157036 -1.2519573 0.063651465 1.052549 1.0380429 1.7462801 -0.89839387 -0.16222207
0.31433102 -0.8182767 -1.3910252 0.55535364 1.9514313 1.1814079 0.37000304 1.0995504
1.4511552 0.7803079 -0.7130737 -3.40056 -1.1400676 -0.5409987 -1.5871817 1.0265783
-0.0025857836 -0.28447166 0.05381789 -0.5253172 3.1188557 0.0849136 -0.3913514 1.332137
-0.53528374 -0.0539668 0.2110433 -0.58077383 0.32749665 -0.22022825 0.53203845 -1.2261413
-0.90763235 -0.1693815 -0.91322345 0.158993 -0.7134668 -0.09186892 -0.6358686 -4.742063
-0.5714651 0.19945532 0.79989564 -0.36955908 -0.9243367 0.9985864 -1.3154529 -0.57413125
1.233882 0.8921989 0.5731104 0.44840237 1.6885916 -1.1689473 -0.5866824 -0.21224886
00000000: 60cf 8ebf 2340 a0bf b35b 823d edb9 863f
00000010: 97de 843f 1b86 df3f 24fd 65bf 8b1d 26be
00000020: ffef a03e 957a 51bf 1d0d b2bf a82b 0e3f
00000030: 80c8 f93f 6038 973f 0a71 bd3e 11be 8c3f
00000040: 74bf b93f 42c2 473f ff8b 36bf c6a2 59c0
00000050: bced 91bf e47e 0abf c528 cbbf eb66 833f
00000060: 4076 29bb 45a6 91be 2670 5c3d 307b 06bf
00000070: 559b 4740 2ee7 ad3d 365f c8be 7783 aa3f
00000080: 5b08 09bf 4b0c 5dbd bc1b 583e 98ad 14bf
00000090: a4ad a73e 8483 61be ac33 083f 33f2 9cbf
000000a0: 985a 68bf 5872 2dbe 03c9 69bf 10cf 223e
000000b0: c3a5 36bf c625 bcbd 49c8 22bf fbbe 97c0
000000c0: 894b 12bf 043e 4c3e f6c5 4c3f d936 bdbe
000000d0: 54a1 6cbf 5ca3 7f3f c360 a8bf 44fa 12bf
000000e0: d8ef 9d3f 2667 643f 5db7 123f ff94 e53e
000000f0: c523 d83f 11a0 95bf d130 16bf c457 59be

module.Conv5.layers.1.running_mean f4 [64]
-217.64209 -184.41502 6.9380827 208.8369 170.05182 216.00877 216.58673 -130.45108
162.98753 112.77588 -210.55746 -212.86084 -73.617294 -188.2837 -193.40503 -186.79211
-139.22687 -129.96545 197.46376 -218.15256 199.41765 188.15579 -194.34184 138.84589
170.72356 -194.90947 -198.9802 171.39734 96.38409 -187.03102 145.75955 -91.79679
99.50354 -183.38737 186.01807 108.23013 -198.13374 -197.5124 -138.32974 80.46532
157.20343 -169.06487 186.5181 -205.33987 180.05156 -180.4916 197.06595 -162.60616
192.26195 -198.8281 199.8025 -127.56292 203.46542 11.072819 186.38722 113.901924
-92.39873 76.4683 220.19739 -29.774803 229.55426 119.4007 124.33859 204.4166
00000000: 60a4 59c3 3f6a 38c3 c604 de40 3fd6 5043
00000010: 440d 2a43 3f02 5843 3496 5843 7a73 02c3
00000020: cffc 2243 408d e142 b68e 52c3 60dc 54c3
00000030: 0e3c 93c2 a148 3cc3 b067 41c3 c8ca 3ac3
00000040: 143a 0bc3 28f7 01c3 b976 4543 0e27 5ac3
00000050: eb6a 4743 e227 3c43 8357 42c3 8cd8 0a43
00000060: 3bb9 2a43 d3e8 42c3 eefa 46c3 b865 2b43
00000070: a7c4 c042 f107 3bc3 72c2 1143 f597 b7c2
00000080: d001 c742 2b63 37c3 a004 3a43 d475 d842
00000090: 3d22 46c3 2d83 45c3 6a54 0ac3 3eee a042
000000a0: 1434 1d43 9b10 29c3 a284 3a43 0257 4dc3
000000b0: 330d 3443 d97d 34c3 e210 4543 2d9b 22c3
000000c0: 0f43 4043 fed3 46c3 71cd 4743 3720 ffc2
000000d0: 2677 4b43 442a 3141 2163 3a43 c9cd e342
000000e0: 26cc b8c2 c5ef 9842 8832 5c43 cc32 eec1
000000f0: e48d 6543 29cd ee42 5cad f842 a66a 4c43

module.Conv5.layers.1.running_var f4 [64]
4825.26 1070.541 906.7369 1692.6781 1040.7821 1437.288 3248.1052 2520.6436
7262.9756 569.59283 2270.4531 7685.4175 4618.51 5864.7544 4955.7896 2887.9866
2216.0283 3383.009 4351.0674 5254.727 1029.9672 5713.805 1668.2543 9976.329
890.22 4770.995 4651.629 1116.1587 1017.4367 2189.5383 7996.7256 6296.2217
586.3102 5646.8955 7247.402 1141.0308 4824.0723 8682.935 1121.129 3221.376
1848.8668 5826.7485 1781.2616 6197.684 5581.056 2516.9963 2604.5764 514.6318
3385.6 4425.175 4140.6167 3912.9385 5069.072 1300.5612 4135.091 972.576
2491.7002 3821.736 3983.7827 1321.0548 1803.8451 507.3817 2044.8865 4210.598
00000000: 14ca 9645 50d1 8544 29af 6244 b395 d344
00000010: 0719 8244 37a9 b344 af01 4b45 4c8a 1d45
00000020: cef7 e245 f165 0e44 40e7 0d45 572b f045
00000030: 1454 9045 0946 b745 51de 9a45 c97f 3445
00000040: 7480 0a45 2570 5345 8af8 8745 d135 a445
00000050: f3be 8044 718e b245 2388 d044 51e1 1b46
00000060: 148e 5e44 f617 9545 085d 9145 1485 8b44
00000070: f35b 7e44 9dd8 0845 cee5 f945 c6c1 c445
00000080: da93 1244 2a77 b045 377b e245 fca0 8e44
00000090: 94c0 9645 bdab 0746 2124 8c44 0456 4945
000000a0: bd1b e744 fd15 b645 5fa8 de44 79ad c145
000000b0: 7368 ae45 f14f 1d45 39c9 2245 6fa8 0044
000000c0: 9a99 5345 6649 8a45 ef64 8145 048f 7445
000000d0: 9368 9e45 f591 a244 ba38 8145 dd24 7344
000000e0: 34bb 1b45 c7db 6e45 86fc 7845 c121 a544
000000f0: 0b7b e144 dcb0 fd43 5e9c ff44 c994 8345

module.Conv6.layers.0.weight f4 [64, 128, 3, 3]
0.5926945 0.6046613 0.57705265 0.5898553 0.60726064 0.6066593 0.57679546 0.6142135
0.63129836 0.5931627 0.58501047 0.5847712 0.623606 0.6165827 0.61836225 0.5756522
0.5801739 0.57942444 -0.5767078 -0.6088545 -0.6179101 -0.5970826 -0.6127386 -0.5774483
-0.58491087 -0.58136314 -0.61282164 0.58483785 0.6203052 0.61722934 0.60216826 0.5723693
0.61321574 0.6028855 0.60842603 0.5740565 0.5860097 0.60466576 0.57477427 0.5718315
0.60252756 0.59007865 0.5894812 0.6007176 0.5796159 0.5889737 0.6218614 0.6346351
0.5956431 0.60895324 0.5887803 0.60702926 0.6181503 0.62976193 0.6247639 0.62851846
0.611408 0.57429194 0.6217094 0.5765549 0.59989816 0.60219944 0.6046463 -0.64004767
-0.59782755 -0.6116798 -0.6378875 -0.5964031 -0.61688274 -0.62505054 -0.5895566 -0.62668705
-0.5739129 -0.58725566 -0.60975814 -0.6092093 -0.585518 -0.61856693 -0.62476104 -0.60931724
-0.5783124 0.59504646 0.6210858 0.6266022 0.59529054 0.5819816 0.58981735 0.6071212
0.5713286 0.60538036 0.6252411 0.6218895 0.6027564 0.58049333 0.62190026 0.5907036
0.60491467 0.59148115 0.58481646 0.6203216 0.57909286 0.6178465 0.6036651 0.5869231
0.58622366 0.5965349 0.6037512 0.5821872 0.58730465 0.6017008 0.6156615 0.5827139
0.6041114 0.58159715 0.61399287 0.6260362 0.6122558 0.5680298 0.57138646 0.6279802
0.59961784 0.58785737 0.57053745 0.6203055 0.6252557 0.57536715 -0.6708978 -0.62518877
-0.6224573 -0.21990791 -0.68814343 -0.60341907 0.5972821 0.5970879 -0.64720684 -0.56793225
-0.5679183 -0.20922768 -0.5639523 -0.5813028 -0.5553205 -0.5983109 -0.61294407 -0.5912454
0.591672 0.59860367 0.60210145 0.57687515 0.6035267 0.5694169 0.57705605 0.59125936
0.5852628 0.58206767 0.5983419 0.6166605 0.6232339 0.5997007 0.5718999 0.5920128
0.5911912 0.6192886 0.6059279 0.5895252 0.58813924 0.5936754 0.59483325 0.59994954
0.59023935 0.5854975 0.5987278 0.6265931 0.58386415 0.6072968 0.59423643 0.58985305
0.6235919 0.6125179 0.59364843 0.61345345 -0.61544853 -0.622824 -0.5783696 -0.61450475
-0.61589956 -0.61689085 -0.62258977 -0.58686596 -0.5858495 0.60603946 0.5724988 0.574993
0.6171066 0.59389126 0.60481757 0.62801063 0.58454794 0.61990935 0.6039631 0.63000864
-0.5781887 0.61405545 0.6291106 0.5926172 0.5743064 0.59548086 0.5812884 -0.58274
-0.5739754 -0.56668043 -0.6079358 -0.6119292 -0.6220532 -0.63012654 -0.5769742 -0.59546924
-0.58254135 -0.5816029 -0.6219433 -0.61622256 -0.58568054 -0.614343 -0.60267943 -0.6193736
-0.62251276 -0.6201504 -0.63073725 -0.60706073 -0.59209585 -0.5868193 -0.5991299 -0.6206233
-0.57562184 -0.61562586 0.60059434 0.6006794 0.6250656 0.58650744 0.6099388 0.6009047
0.60857564 0.6252025 0.5714824 -0.5780762 -0.59589696 -0.61434126 -0.6134812 -0.62614733
-0.5981717 -0.62289757 -0.6247116 -0.5956013 0.58504975 0.5813379 0.5988547 0.6241252
00000000: d4ba 173f 15cb 1a3f b9b9 133f c200 173f
00000010: 6f75 1b3f 064e 1b3f dea8 133f 193d 1d3f
00000020: c59c 213f 83d9 173f 3fc3 153f 91b3 153f
00000030: a5a4 1f3f 5dd8 1d3f fd4c 1e3f f15d 133f
00000040: 4786 143f 2955 143f 1fa3 13bf e3dd 1bbf
00000050: 5b2f 1ebf 68da 18bf 70dc 1cbf a7d3 13bf
00000060: b8bc 15bf 37d4 14bf e1e1 1cbf efb7 153f
00000070: 52cc 1e3f be02 1e3f b327 1a3f cb86 123f
00000080: b5fb 1c3f b456 1a3f cfc1 1b3f 5ef5 123f
00000090: bb04 163f 60cb 1a3f 6824 133f 8d63 123f
000000a0: 3f3f 1a3f 650f 173f 3de8 163f a1c8 193f
000000b0: b561 143f fbc6 163f 4f32 1f3f 7277 223f
000000c0: 117c 183f 5ce4 1b3f 4eba 163f 4566 1b3f
000000d0: 193f 1e3f 1438 213f 87f0 1f3f 96e6 203f
000000e0: 3c85 1c3f cc04 133f 5928 1f3f 1a99 133f
000000f0: ed92 193f be29 1a3f 1aca 1a3f 2ada 23bf
00000100: 3a0b 19bf 0c97 1cbf 984c 23bf e0ad 18bf
00000110: 07ec 1dbf 5003 20bf 2eed 16bf 906e 20bf
00000120: f5eb 12bf 6356 16bf 1c19 1cbf 24f5 1bbf
00000130: 82e4 15bf 675a 1ebf 57f0 1fbf 37fc 1bbf
00000140: 480c 14bf f754 183f 7bff 1e3f 0069 203f
00000150: f664 183f bffc 143f 45fe 163f 4c6c 1b3f
00000160: 9742 123f 35fa 1a3f cd0f 203f 2634 1f3f
00000170: 3e4e 1a3f 369b 143f db34 1f3f 5a38 173f
00000180: b0db 1a3f 4f6b 173f 88b6 153f 65cd 1e3f
00000190: 6e3f 143f 302b 1e3f cc89 1a3f 9840 163f
000001a0: c112 163f 83b6 183f 708f 1a3f 380a 153f
000001b0: 9959 163f 1009 1a3f fe9b 1d3f bd2c 153f
000001c0: 0ba7 1a3f 8de3 143f a32e 1d3f e943 203f
000001d0: ccbc 1c3f 676a 113f 6246 123f 4fc3 203f
000001e0: 8e80 193f d27d 163f be0e 123f 57cc 1e3f
000001f0: c210 203f 434b 133f f5bf 2bbf 5f0c 20bf
00000200: 5d59 1fbf 8a2f 61be 2b2a 30bf ac79 1abf
00000210: 7be7 183f c1da 183f 59af 25bf 0264 11bf
00000220: 1863 11bf c83f 56be 2e5f 10bf 43d0 14bf
00000230: 7c29 0ebf e72a 19bf e7e9 1cbf dc5b 17bf
00000240: d177 173f 173e 193f 5223 1a3f 17ae 133f
00000250: ba80 1a3f 4ec5 113f f2b9 133f c65c 173f
00000260: c8d3 153f 6302 153f ef2c 193f 76dd 1d3f
00000270: 428c 1f3f fc85 193f 0868 123f 278e 173f
00000280: 4e58 173f b389 1e3f 171e 1b3f 20eb 163f
00000290: 4b90 163f 1cfb 173f fe46 183f 4b96 193f
000002a0: ed19 173f 2ae3 153f 3a46 193f 6868 203f
000002b0: 1f78 153f ce77 1b3f e11f 183f 9c00 173f
000002c0: b8a3 1f3f f9cd 1c3f 58f9 173f 490b 1d3f
000002d0: 098e 1dbf 6571 1fbf 0810 14bf 2f50 1dbf
000002e0: 98ab 1dbf 8fec 1dbf 0b62 1fbf d93c 16bf
000002f0: 3cfa 15bf 6725 1b3f 488f 123f be32 133f
00000300: b3fa 1d3f 4209 183f 53d5 1a3f 4ec5 203f
00000310: efa4 153f 61b2 1e3f 539d 1a3f 3f48 213f
00000320: 2d04 14bf bd32 1d3f 640d 213f c3b5 173f
00000330: bf05 133f 6f71 183f 51cf 143f 732e 15bf
00000340: 0df0 12bf f811 11bf aea1 1bbf 64a7 1cbf
00000350: e13e 1fbf f94f 21bf 95b4 13bf ac70 18bf
00000360: 6e21 15bf ede3 14bf ad37 1fbf c3c0 1dbf
00000370: 29ef 15bf 9545 1dbf 3349 1abf 458f 1ebf
00000380: ff5c 1fbf 2dc2 1ebf ff77 21bf 5568 1bbf
00000390: 9893 17bf ca39 16bf 9460 19bf 2be1 1ebf
000003a0: f45b 13bf a899 1dbf 8dc0 193f 20c6 193f
000003b0: 4d04 203f 5a25 163f f324 1c3f e4d4 193f
000003c0: 9dcb 1b3f 450d 203f ac4c 123f cdfc 13bf
000003d0: b48c 18bf 7845 1dbf 1b0d 1dbf 314b 20bf
000003e0: c821 19bf 3776 1fbf 19ed 1fbf 5479 18bf
000003f0: d2c5 153f 90d2 143f 8b4e 193f abc6 1f3f

module.Conv6.layers.0.bias f4 [64]
0.047616795 -0.07353184 -0.03720387 0.048487913 0.013074978 -0.06539501 0.027029041 -0.09547076
0.046866685 0.021711461 -0.05506627 0.09005061 -0.32202566 0.016114818 0.0063419505 -0.11554893
-0.06135709 -0.11942992 -0.13170956 0.112301916 0.12072813 0.09096651 -0.049197696 -0.1148814
0.18659374 0.1475192 0.026337214 0.019483007 0.089458875 -0.051584486 0.037236486 0.026380725
0.0143221095 -0.008866501 0.05924588 0.05189805 -0.0037320654 0.09982563 0.10746799 0.27757946
0.038200773 -0.031497974 0.06623105 -0.030662369 -0.087358974 0.03655356 -0.18639974 0.061141286
0.05487348 0.022515746 -0.015706511 -0.019607313 -0.049539905 -0.14080817 0.046364833 0.24823801
-0.08086292 0.0611878 0.11046727 0.05573564 0.2047223 0.16250642 -0.17036603 -0.023876736
00000000: d409 433d dd97 96bd 1663 18bd 439b 463d
00000010: 6f38 563c d2ed 85bd 026c dd3c 2c86 c3bd
00000020: 48f7 3f3d 3cdc b13c 2b8d 61bd 746c b83d
00000030: 8ce0 a4be 3903 843c 23d0 cf3b eba4 ecbd
00000040: 9251 7bbd ad97 f4bd dfde 06be 8cfe e53d
00000050: 4f40 f73d a64c ba3d 8683 49bd f046 ebbd
00000060: 6e12 3f3e 460f 173e 24c1 d73c d49a 9f3c
00000070: 3736 b73d 414a 53bd 4985 183d 641c d83c
00000080: 48a7 6a3c cd44 11bc cfab 723d 0d93 543d
00000090: ab95 74bb 6171 cc3d 2d18 dc3d e51e 8e3e
000000a0: 6a78 1c3d 0504 01bd 25a4 873d a62f fbbc
000000b0: 43e9 b2bd 30b9 153d 93df 3ebe 496f 7a3d
000000c0: 04c3 603d f172 b83c f1aa 80bc 849f a0bc
000000d0: 5bea 4abd 0430 10be 0de9 3d3d 1b32 7e3e
000000e0: 759b a5bd 0fa0 7a3d aa3c e23d 0e4b 643d
000000f0: b9a2 513e 1568 263e 6f74 2ebe 2599 c3bc

module.Conv6.layers.1.weight f4 [64]
0.59333533 0.4891333 1.4252965 0.9218891 0.89240146 1.5750175 0.41889971 1.0009513
0.7453107 0.7687187 0.44467878 0.4424525 0.8396035 0.9111344 0.29784232 0.40612954
1.023239 0.7650755 1.0031848 1.1642317 1.1359848 1.5211219 0.78726 0.82795346
0.5249943 1.5672238 1.1755989 0.45123634 0.5880743 0.38983455 0.91974634 1.038893
0.40546283 0.38750052 1.0917414 1.097985 -0.10563314 1.469667 0.6952948 1.230376
1.0724306 1.0697389 -0.030467894 0.7926714 1.4652164 2.1626644 1.5839373 -0.085036986
0.833175 0.037083954 1.5501333 0.764256 1.0071609 0.8975679 0.39565378 1.5396068
0.50036263 0.95963234 0.5856754 -0.844845 0.45689255 0.29375112 1.2205073 1.5677907
00000000: d3e4 173f ae6f fa3e 1e70 b63f ed00 6c3f
00000010: 6c74 643f 2c9a c93f 067a d63e 2c1f 803f
00000020: afcc 3e3f c0ca 443f f0ac e33e 2289 e23e
00000030: 41f0 563f 1b40 693f ca7e 983e 36f0 cf3e
00000040: 7ff9 823f fddb 433f 5c68 803f 8b05 953f
00000050: f367 913f 1fb4 c23f df89 493f c2f4 533f
00000060: 0766 063f ca9a c83f 067a 963f 7308 e73e
00000070: 0a8c 163f 6598 c73e 7f74 6b3f 72fa 843f
00000080: d398 cf3e 7866 c63e 2fbe 8b3f c68a 8c3f
00000090: 3056 d8bd 0c1e bc3f d7fe 313f f67c 9d3f
000000a0: 6845 893f 34ed 883f ce97 f9bc 83ec 4a3f
000000b0: 368c bb3f 1869 0a40 75be ca3f df27 aebd
000000c0: f54a 553f 58e5 173d c56a c63f 48a6 433f
000000d0: a6ea 803f 03c7 653f 2293 ca3e d611 c53f
000000e0: c417 003f 77aa 753f d3ee 153f c347 58bf
000000f0: d2ed e93e 8c66 963e 9539 9c3f 5ead c83f

module.Conv6.layers.1.bias f4 [64]
-1.8993526 -0.6497881 0.6707431 1.4223536 1.9880564 0.44287917 1.1429211 1.9804114
1.9742374 -1.1197827 0.6470654 -1.0496367 -0.40668362 2.0366223 0.6825699 -1.4061722
3.400555 -2.7522588 1.2550092 2.5279403 -2.3712406 0.4373662 -1.5310882 1.5379685
-0.5754956 0.41852683 1.1746694 -0.7049409 -1.95166 -1.5200782 1.966031 2.6555238
0.9889292 1.1017585 -2.0931294 2.7438745 1.1578203 0.38991052 -0.839367 2.1562295
-4.3549223 -0.36854273 -0.8618544 2.754078 0.7275339 4.6967883 0.5111774 0.8476852
-1.3616146 -0.50731945 -1.1215677 1.659426 2.080317 2.0162554 -0.5528337 0.5365521
-0.40893233 -3.1395614 -1.3949199 0.11103635 -1.2281349 -0.56165045 1.7151246 5.0864277
00000000: fc1d f3bf 8358 26bf d2b5 2b3f af0f b63f
00000010: a278 fe3f 0fc1 e23e 3d4b 923f 1f7e fd3f
00000020: d0b3 fc3f 0a55 8fbf 14a6 253f 7f5a 86bf
00000030: d638 d0be 0558 0240 e7bc 2e3f 73fd b3bf
00000040: b1a2 5940 0225 30c0 24a4 a03f c6c9 2140
00000050: 68c2 17c0 76ee df3e b3fa c3bf 27dc c43f
00000060: ae53 13bf 2649 d63e 915b 963f 0277 34bf
00000070: ffcf f9bf ec91 c2bf e7a6 fb3f 1af4 2940
00000080: 772a 7d3f 6c06 8d3f d5f5 05c0 a49b 2f40
00000090: 7533 943f 5aa2 c73e c1e0 56bf aaff 0940
000000a0: 865b 8bc0 a2b1 bcbe 7da2 5cbf d042 3040
000000b0: a93f 3a3f 174c 9640 86dc 023f e601 593f
000000c0: 6349 aebf b0df 01bf 888f 8fbf 1268 d43f
000000d0: ea23 0540 540a 0140 8286 0dbf 7a5b 093f
000000e0: 945f d1be 93ee 48c0 bc8c b2bf 0767 e33d
000000f0: 8633 9dbf 53c8 0fbf 3489 db3f 04c4 a240

module.Conv6.layers.1.running_mean f4 [64]
197.34302 -188.68782 208.78264 -228.24292 -198.02458 230.28632 187.4663 194.05453
177.81647 114.396545 238.96335 201.86612 -167.30281 -196.12239 211.40863 190.85866
-213.45451 181.55536 -130.65062 -185.55772 195.33353 233.10506 174.00195 -145.43466
-217.74606 212.55884 200.27612 -186.777 189.68279 234.88155 -177.24197 -198.65385
193.45795 205.10391 193.8164 -198.33977 -200.7596 216.3315 179.61418 187.92706
210.28052 208.15244 -131.9507 -212.3475 203.89828 -154.2427 220.75269 -114.43968
194.61128 -240.52307 -55.72585 -260.98798 -226.04173 -180.93912 -201.07283 203.83925
-213.51707 192.80807 180.59196 221.30125 171.42186 -241.84012 -191.96873 -210.74849
00000000: d057 4543 15b0 3cc3 5bc8 5043 303e 64c3
00000010: 4b06 46c3 4c49 6643 5f77 3b43 f60d 4243
00000020: 04d1 3143 08cb e442 9ef6 6e43 badd 4943
00000030: 854d 27c3 551f 44c3 9c68 5343 d1db 3e43
00000040: 5b74 55c3 2c8e 3543 8fa6 02c3 c78e 39c3
00000050: 6255 4343 e51a 6943 8000 2e43 466f 11c3
00000060: febe 59c3 108f 5443 b046 4843 e9c6 3ac3
00000070: cbae 3d43 ade1 6a43 f23d 31c3 63a7 46c3
00000080: 3c75 4143 9a1a 4d43 00d1 4143 fb56 46c3
00000090: 75c2 48c3 dd54 5843 3b9d 3343 54ed 3b43
000000a0: d047 5243 0627 5043 61f3 03c3 f658 54c3
000000b0: f6e5 4b43 223e 1ac3 b0c0 5c43 1ee1 e4c2
000000c0: 7d9c 4243 e885 70c3 45e7 5ec2 767e 82c3
000000d0: af0a 62c3 6af0 34c3 a512 49c3 d9d6 4b43
000000e0: 5f84 55c3 dece 4043 8b97 3443 1f4d 5d43
000000f0: ff6b 2b43 12d7 71c3 fff7 3fc3 9dbf 52c3

module.Conv6.layers.1.running_var f4 [64]
3514.8577 2734.0422 7132.5957 2369.3828 2880.2754 7360.9116 4987.7217 2980.2744
2993.7407 18785.379 6640.9624 1569.9121 1771.0688 2656.0874 6946.9116 4559.715
3871.1191 5756.5356 2173.5051 2350.182 2600.2722 7736.1597 2124.484 2107.7332
12773.952 7058.154 3510.0168 7684.134 3604.9946 4841.0986 2813.0173 5365.933
4354.145 4694.836 2541.6868 2548.1226 7162.2646 7928.7793 3333.988 2439.636
6348.088 6603.51 8541.891 5776.9834 5258.502 9538.595 7132.305 4817.83
2402.2812 6907.441 756.3144 5609.2793 6464.4263 2474.0442 7424.6636 5307.203
8811.883 5853.994 2723.3281 7921.3184 3762.054 8696.628 3966.376 3869.527
00000000: b9ad 5b45 ade0 2a45 c4e4 de45 2016 1445
00000010: 6804 3445 4b07 e645 c6dd 9b45 6444 3a45
00000020: da1b 3b45 c2c2 9246 b387 cf45 303d c444
00000030: 3462 dd44 6601 2645 4b17 d945 b87d 8e45
00000040: e8f1 7145 49e4 b345 15d8 0745 e9e2 1245
00000050: 5b84 2245 47c1 f145 bec7 0445 bbbb 0345
00000060: cf97 4746 3b91 dc45 4560 5b45 1221 f045
00000070: ea4f 6145 ca48 9745 47d0 2f45 77af a745
00000080: 2911 8845 b0b6 9245 fdda 1e45 f641 1f45
00000090: 1ed2 df45 3cc6 f745 cf5f 5045 2d7a 1845
000000a0: b460 c645 145c ce45 9077 0546 de87 b445
000000b0: 0454 a445 610a 1546 71e2 de45 a48e 9645
000000c0: 8024 1645 87db d745 1f14 3d44 3c4a af45
000000d0: 6903 ca45 b5a0 1a45 4f05 e845 a0d9 a545
000000e0: 88af 0946 f4ef b645 4035 2a45 8c8a f745
000000f0: dd20 6b45 83e2 0746 04e6 7745 6fd8 7145

module.Conv7.layers.1.weight f4 [1, 128, 3, 3]
-0.58185786 -0.5885851 -0.5734564 -0.58715093 -0.5889707 -0.60560566 -0.6016853 -0.60038483
-0.6579027 0.5850381 0.598156 0.5874182 0.5932922 0.58132595 0.5871723 0.6017571
0.59225535 0.576312 0.5942736 0.6162048 0.59555805 0.57766813 0.6137663 0.58789474
0.61610734 0.6170462 0.59245753 -0.5950141 -0.61272365 -0.60514885 -0.62307364 -0.60159475
-0.60005 -0.5837596 -0.57246816 -0.5951618 -0.61602366 -0.63577545 -0.54638386 -0.61654073
-0.6350713 -0.5922868 -0.5691512 -0.6205357 -0.59015167 0.6196419 0.62526387 0.62158847
0.60625404 0.62878007 0.58656883 0.6051648 0.57418746 0.6059605 0.59705204 0.58786994
0.60542494 0.6150893 0.573886 0.61308515 0.5944103 0.6127326 0.568496 0.6114095
0.5724793 0.56702054 0.59197515 0.6234819 0.6159239 0.5830032 0.60093236 0.6161493
0.57065886 0.60316956 0.5951958 0.61810815 0.5736959 0.6026151 0.5828268 0.58893204
0.6051272 -0.6220864 -0.57336587 -0.568978 -0.59243774 -0.5990464 -0.58574986 -0.59454244
-0.58304584 -0.59700865 0.5886692 0.5921914 0.5725432 0.6092783 0.6042905 0.6204461
0.5874135 0.6047003 0.5726212 -0.58209556 -0.59121907 -0.62478477 -0.57794094 -0.5868536
-0.5743043 -0.5847932 -0.6164297 -0.5962098 0.58132726 0.5920471 0.5923709 0.5774865
0.5829525 0.58552843 0.6122578 0.5989815 0.6200392 -0.5873641 -0.59075594 -0.5862263
-0.60904855 -0.6240681 -0.62026983 -0.59173805 -0.62095606 -0.59046274 0.5863459 0.5997869
0.57343125 0.62193507 0.58444756 0.6024738 0.5897151 0.5815745 0.58348507 -0.6099689
-0.59965163 -0.5951383 -0.57484037 -0.5775653 -0.6168172 -0.60027283 -0.58811593 -0.57528514
-0.5708643 -0.621184 -0.58593965 -0.6449065 -0.65216213 -0.635071 -0.5587206 -0.6189883
-0.6041583 -0.5818662 -0.59780616 -0.58004326 -0.58766335 -0.617338 -0.6136435 -0.5753368
-0.60076594 -0.61307544 -0.621861 -0.6033587 -0.6112725 -0.5678653 -0.6111172 -0.5894353
-0.6012728 -0.60868394 -0.5916997 -0.6240174 -0.6042742 -0.60010076 -0.62168324 -0.6368344
-0.616937 -0.5697545 -0.60796046 -0.5588541 -0.58267 -0.6242567 -0.5817864 -0.5883074
-0.59735054 -0.6658267 -0.5825375 -0.65671474 -0.6504428 0.5992794 0.60514045 0.6004373
0.6077462 0.59383005 0.59451336 0.58484185 0.62712 0.6148265 -0.58611524 -0.580194
-0.58969706 -0.584354 -0.57911986 -0.6184688 -0.5759842 -0.6161798 -0.6279456 -0.6111827
-0.60957694 -0.61568713 -0.61170936 -0.5707556 -0.5765629 -0.57506394 -0.58747816 -0.60423326
0.60579854 0.5786116 0.57924956 0.5955343 0.5890484 0.60440797 0.5886562 0.5738918
0.58460426 0.59225595 0.5884514 0.6112984 0.6021582 0.5988527 0.60797584 0.6174851
0.61675423 0.62490314 0.6164959 0.5936702 0.59218985 0.6138204 0.60079485 0.60351956
0.5871715 0.59386384 0.5948445 0.6016274 0.60427445 0.5932402 0.5817224 0.5661406
0.61745167 0.5841873 0.5861582 0.60047245 -0.5888934 -0.5563352 -0.56767714 -0.6002171
00000000: a3f4 14bf 83ad 16bf 0ace 12bf 864f 16bf
00000010: c9c6 16bf f908 1bbf 0c08 1abf d2b2 19bf
00000020: 506c 28bf 0fc5 153f c020 193f 0a61 163f
00000030: ffe1 173f c7d1 143f ed50 163f c10c 1a3f
00000040: 0c9e 173f 2f89 133f 5122 183f 99bf 1d3f
00000050: 7e76 183f 0fe2 133f ca1f 1d3f 4580 163f
00000060: 36b9 1d3f bdf6 1d3f 4cab 173f d852 18bf
00000070: 75db 1cbf 09eb 1abf c181 1fbf 1d02 1abf
00000080: e09c 19bf 4571 15bf 468d 12bf 865c 18bf
00000090: bab3 1dbf 2ec2 22bf d0df 0bbf 9dd5 1dbf
000000a0: 0894 22bf 1ca0 17bf e5b3 11bf 6ddb 1ebf
000000b0: 2e14 17bf daa0 1e3f 4b11 203f 6c20 1f3f
000000c0: 7733 1b3f bbf7 203f 6029 163f 15ec 1a3f
000000d0: f3fd 123f 3a20 1b3f 67d8 183f a57e 163f
000000e0: 21fd 1a3f 7e76 1d3f 31ea 123f 26f3 1c3f
000000f0: 462b 183f 0bdc 1c3f f488 113f 5585 1c3f
00000100: 018e 123f 4228 113f af8b 173f 839c 1f3f
00000110: 30ad 1d3f b33f 153f b4d6 193f f6bb 1d3f
00000120: b316 123f 5269 1a3f c05e 183f 563c 1e3f
00000130: bcdd 123f fc44 1a3f 2334 153f 40c4 163f
00000140: 9ee9 1a3f 0e41 1fbf 1bc8 12bf 8ba8 11bf
00000150: 00aa 17bf 1b5b 19bf b4f3 15bf ef33 18bf
00000160: 7e42 15bf 8fd5 18bf 06b3 163f db99 173f
00000170: 3192 123f aaf9 1b3f c8b2 1a3f 8ed5 1e3f
00000180: bb60 163f a4cd 1a3f 4e97 123f 3704 15bf
00000190: 225a 17bf e5f1 1fbf f0f3 13bf 0a3c 16bf
000001a0: 9b05 13bf 02b5 15bf 56ce 1dbf 35a1 18bf
000001b0: ddd1 143f 6690 173f 9fa5 173f 28d6 133f
000001c0: 603c 153f 31e5 153f edbc 1c3f da56 193f
000001d0: e4ba 1e3f 7e5d 16bf c83b 17bf ed12 16bf
000001e0: 9bea 1bbf edc2 1fbf 01ca 1ebf 257c 17bf
000001f0: faf6 1ebf 9128 17bf c41a 163f a28b 193f
00000200: 64cc 123f 2337 1f3f 5b9e 153f b93b 1a3f
00000210: 92f7 163f 11e2 143f 475f 153f ec26 1cbf
00000220: c582 19bf fc5a 18bf bd28 13bf 52db 13bf
00000230: bbe7 1dbf 7bab 19bf c48e 16bf e345 13bf
00000240: 2a24 12bf ea05 1fbf 2400 16bf 9818 25bf
00000250: 19f4 26bf 0394 22bf 5008 0fbf 0476 1ebf
00000260: 1eaa 1abf 2ff5 14bf d309 19bf b77d 14bf
00000270: 1b71 16bf dd09 1ebf be17 1dbf 4649 13bf
00000280: cccb 19bf 83f2 1cbf 4832 1fbf b775 1abf
00000290: 5b7c 1cbf 9f5f 11bf 2d72 1cbf 3be5 16bf
000002a0: 04ed 19bf b6d2 1bbf a279 17bf 9bbf 1fbf
000002b0: b7b1 1abf 34a0 19bf a226 1fbf 9407 23bf
000002c0: 95ef 1dbf 6edb 11bf 4ca3 1bbf 1011 0fbf
000002d0: dc29 15bf 49cf 1fbf f4ef 14bf 509b 16bf
000002e0: f7eb 18bf 9e73 2abf 2d21 15bf 751e 28bf
000002f0: 6b83 26bf 606a 193f 7cea 1a3f 42b6 193f
00000300: 4195 1b3f 3f05 183f 0732 183f 32b8 153f
00000310: f08a 203f 4565 1d3f a60b 16bf 9887 14bf
00000320: 63f6 16bf 3998 15bf 3341 14bf f953 1ebf
00000330: b373 13bf f6bd 1dbf 0bc1 20bf 7876 1cbf
00000340: 3c0d 1cbf ac9d 1dbf fc98 1cbf 0a1d 12bf
00000350: a099 13bf 6437 13bf f864 16bf 08af 1abf
00000360: 9d15 1b3f e41f 143f b349 143f f074 183f
00000370: e0cb 163f 7bba 1a3f 2cb2 163f 93ea 123f
00000380: a0a8 153f 169e 173f c0a4 163f 0d7e 1c3f
00000390: 0a27 1a3f 694e 193f 4ea4 1b3f 8113 1e3f
000003a0: 9be3 1d3f a7f9 1f3f add2 1d3f c5fa 173f
000003b0: c199 173f 5523 1d3f b1cd 193f 4280 1a3f
000003c0: df50 163f 7607 183f bb47 183f 4104 1a3f
000003d0: bbb1 1a3f 97de 173f c2eb 143f 97ee 103f
000003e0: 5011 1e3f 4d8d 153f 770e 163f 90b8 193f
000003f0: b8c1 16bf fc6b 0ebf 4a53 11bf d4a7 19bf
