DIDFuse/saved_models/decoder/IR_AE12.pth (torch, 604881 bytes, 13 tensors)

module.Conv5.layers.0.weight f4 [64, 128, 3, 3]
000000 7e 1e 18 3f e8 1f 13 3f af ca 12 3f 95 7c 1d 3f
       0.5942153 0.5747056 0.5734052 0.6151822
000010 e3 29 20 3f da de 19 3f 36 cf 1e 3f eb 06 13 3f
       0.62563914 0.6010567 0.6203493 0.5743243
000020 cf 1b 1a 3f 6d a3 1a 3f 65 ea 12 3f 80 db 1a 3f
       0.6019868 0.6040562 0.5738891 0.6049118
000030 a3 e1 16 3f 12 b8 1f 3f 40 df 1a 3f e7 40 12 3f
       0.58938044 0.62390244 0.604969 0.57130283
000040 73 2a 19 3f f5 00 18 3f 0f a1 1e 3f 69 2e 18 3f
       0.598304 0.5937646 0.61964506 0.59445816
000050 04 ee 19 3f 64 fc 12 3f b6 06 1e 3f 52 0f 1e 3f
       0.6012881 0.5741637 0.6172899 0.61742127
000060 7b 36 18 3f ce 75 13 3f 82 d0 1b 3f 65 0f 14 3f
       0.5945813 0.5760163 0.6086503 0.5783599
000070 c3 cd 1c 3f 8c 5d 15 3f f9 07 17 3f 23 8c 15 3f
       0.6125147 0.58345866 0.5899654 0.58416957
000080 c4 bd 17 3f 8f 61 1f 3f c3 36 1c 3f 99 68 1a 3f
       0.59273934 0.6225824 0.6102106 0.60315853
000090 86 b5 1b 3f 78 8c 1b 3f 93 e2 1d 3f fb 69 16 3f
       0.6082386 0.60761213 0.6167385 0.58755463
0000a0 e3 0e 12 3f 7e 74 15 3f 13 87 1f 3f 42 9e 11 3f
       0.57053965 0.5838088 0.6231548 0.5688211
0000b0 ae ac 17 3f 63 95 1a 3f 56 ba 17 3f 5b 12 14 3f
       0.59247863 0.60384196 0.592687 0.5784051
0000c0 5b a3 19 3f 4e eb 1c 3f 37 5b 20 3f 48 67 12 3f
       0.60014886 0.61296546 0.6263918 0.57188845
0000d0 5c 35 16 3f 74 01 18 3f 99 c5 19 bf 0d 38 16 bf
       0.5867517 0.5937722 -0.60067135 -0.58679277
0000e0 d9 b0 1d bf 90 16 15 bf 5e 08 1b bf 94 d6 10 bf
       -0.61597973 -0.5823755 -0.6055964 -0.5657742
0000f0 d7 02 1f bf 95 8b 17 bf 62 44 1f bf 13 4f 20 3f
       -0.6211371 -0.5919736 -0.6221372 0.6262066
000100 a6 87 21 3f e7 8d 18 3f 0a 0d 1c 3f cb c5 1b 3f
       0.6309761 0.59591526 0.60957396 0.60848683
000110 3d 83 13 3f 26 bb 1a 3f 2a 71 18 3f e6 73 1a 3f
       0.5762213 0.60441816 0.59547675 0.60333097
000120 f0 e3 1a bf 24 dc 1b bf 18 7c 13 bf 85 49 1e bf
       -0.60504055 -0.6088278 -0.5761123 -0.6183093
000130 22 21 11 bf 4d 04 16 bf 3c b2 46 3f 3e 91 45 3f
       -0.5669118 -0.5860031 0.77615714 0.77174747
000140 e8 e2 07 bf ee be 1f 3f 35 2f 13 3f 43 10 12 3f
       -0.53080606 0.6240071 0.5749391 0.57056063
000150 4c 0f 20 3f 7d f1 1a 3f 2d 56 1a 3f 7f 2b 15 3f
       0.6252334 0.6052473 0.60287744 0.58269495
000160 3f 3e 15 3f 73 79 11 3f ff 9e 17 bf e4 8d 17 bf
       0.58298105 0.5682594 -0.59226984 -0.5920088
000170 a0 08 1b bf c4 dc 20 bf 0d 9a 1a bf 8e ea 20 bf
       -0.60560036 -0.6283686 -0.6039131 -0.628579
000180 c9 9b 22 bf b8 79 1a bf 34 21 29 bf 32 6f 14 bf
       -0.6351896 -0.6034198 -0.6606629 -0.5798217
000190 72 89 13 bf 87 43 1f bf 11 3a 14 bf 7b 9b 1c bf
       -0.576316 -0.62212414 -0.579011 -0.61174744
0001a0 b3 b2 18 bf b9 fb 13 bf 95 03 13 bf b2 ae 18 bf
       -0.59647673 -0.57805973 -0.5742734 -0.59641564
0001b0 b7 c9 18 bf 58 2c 1e bf ec 92 21 bf 5b 8f 16 bf
       -0.5968279 -0.61786413 -0.6311481 -0.58812493
0001c0 e1 fd 1e bf fe 01 16 bf 11 0a 1e bf 57 cf 16 bf
       -0.6210614 -0.5859679 -0.6173411 -0.58910125
0001d0 c4 73 16 bf e3 1a 1c 3f 39 e2 1d 3f 9b de 18 3f
       -0.58770394 0.60978526 0.61673313 0.5971467
0001e0 71 4a 17 3f 46 d7 19 3f 07 e7 18 3f 89 f7 1a 3f
       0.59097964 0.60094106 0.5972752 0.6053396
0001f0 58 19 15 3f ad ca 18 3f b7 db 1d bf 48 53 17 bf
       0.58241796 0.5968426 -0.61663383 -0.5911145
000200 ee 08 1d bf b5 35 18 bf 8c ab 1d bf 66 ab 1a bf
       -0.6134175 -0.5945695 -0.61589885 -0.60417783
000210 8c 85 16 bf 54 80 1d bf db a3 1c bf b9 c0 17 bf
       -0.58797526 -0.6152394 -0.61187524 -0.59278446
000220 b3 33 1f bf 86 b9 16 bf 69 35 16 bf eb 84 14 bf
       -0.6218826 -0.58876836 -0.5867525 -0.58015317
000230 ad 13 18 bf 09 fe 18 bf 79 db 12 bf d4 da 17 bf
       -0.5940502 -0.59762627 -0.5736614 -0.5931828
000240 d0 f6 17 bf 1c e5 18 bf 19 7b 17 bf bc 00 20 bf
       -0.5936098 -0.59724593 -0.5917221 -0.6250112
000250 d5 6b 1d bf 8e 5b 20 bf e4 97 19 bf 95 72 1d bf
       -0.61492664 -0.626397 -0.5999739 -0.61502963
000260 d6 df 13 bf 14 14 1f 3f 5e 39 20 3f c5 f6 1a 3f
       -0.5776342 0.6214001 0.62587535 0.6053279
000270 32 be 17 3f f8 65 21 3f ff 04 17 3f 5a 6c 18 bf
       0.5927459 0.63046217 0.58992 -0.5954033
000280 8d d9 1e bf 91 40 0e bf 55 55 17 bf 4d 9e 15 bf
       -0.62050706 -0.5556727 -0.5911458 -0.5844467
000290 62 e7 1c bf 26 bf 25 3f 7f 91 12 bf b0 9b 1a 3f
       -0.6129056 0.64744794 -0.5725326 0.6039381
0002a0 e1 f0 17 3f 1b d0 1b 3f 37 eb 1d 3f 54 3d 1a 3f
       0.5935193 0.6086442 0.61687034 0.6024983
0002b0 ac 76 16 3f 7b 6c 19 3f 99 6c 1c 3f 22 f8 1d 3f
       0.5877483 0.59931153 0.61103207 0.61706746
0002c0 cf 4b 1c 3f f8 3f 17 3f af fd 1f 3f 45 f5 14 3f
       0.61053175 0.59081984 0.62496465 0.5818675
0002d0 c7 06 19 3f 11 67 1e 3f 7f 72 1c 3f 32 39 14 3f
       0.59775966 0.61876017 0.6111221 0.57899773
0002e0 02 9d 18 3f 4a 5b 1b 3f 4b 36 13 bf af cb 1d bf
       0.59614575 0.6068617 -0.5750472 -0.6163892
0002f0 54 82 1a bf 99 60 14 3f 11 60 17 3f 06 a0 20 3f
       -0.60355115 0.57959896 0.5913096 0.62744176
000300 2e b1 13 3f 95 21 17 3f 61 b7 20 3f a2 e8 1c 3f
       0.5769223 0.5903562 0.62779814 0.6129247
000310 48 35 18 3f 3e be 18 3f 24 64 1e 3f 69 fa 17 3f
       0.594563 0.59665287 0.6187155 0.5936647
000320 99 91 1f 3f b6 e0 20 3f c9 cd 1b 3f 7a 51 14 3f
       0.6233154 0.6284288 0.6086088 0.57936823
000330 01 4f 21 3f e4 34 15 3f 13 a8 15 3f 6d 09 1f bf
       0.63011175 0.5828383 0.58459586 -0.6212376
000340 47 c8 17 bf cb e2 1c bf 34 c3 1f bf 95 14 20 bf
       -0.59289974 -0.6128356 -0.6240723 -0.62531406
000350 c9 03 1e bf 5b c6 32 bf 83 30 23 bf e6 fa 13 bf
       -0.61724526 -0.69833916 -0.637459 -0.57804716
000360 85 bc 1b bf 8b 4d 16 bf 81 2f 13 bf 65 58 1b bf
       -0.6083453 -0.5871207 -0.5749436 -0.60681754
000370 23 e8 1e bf 5d 01 20 bf 52 4e 1b bf 93 4c 16 bf
       -0.6207296 -0.6250208 -0.6066638 -0.58710593
000380 01 cc 19 bf 5a 7a 1a bf 54 a3 16 bf 66 5a 1e bf
       -0.6007691 -0.60342944 -0.5884297 -0.6185669
000390 af 44 18 bf 9c 60 16 bf bc 53 16 bf ea 64 1b bf
       -0.594798 -0.58741164 -0.5872152 -0.6070086
0003a0 68 52 20 bf ce 34 1a bf c0 b8 1e 3f 23 38 14 3f
       -0.6262574 -0.60236824 0.62000656 0.5789816
0003b0 98 84 14 3f f3 bb 16 3f 8f 04 16 3f 20 98 17 3f
       0.5801482 0.5888054 0.58600706 0.592165
0003c0 19 9a 12 3f 64 54 17 3f 4b 27 19 3f 1e e8 14 bf
       0.57266384 0.59113145 0.5982558 -0.5816668
0003d0 0f 6e 14 bf 22 49 1a bf 94 85 13 bf d1 af 13 bf
       -0.57980436 -0.6026784 -0.576257 -0.5769015
0003e0 30 60 1f bf 82 2b 1e bf 3b 78 16 bf 23 01 1e bf
       -0.62256145 -0.6178514 -0.5877721 -0.61720484
0003f0 8c 21 1c 3f 3a b4 1c 3f b1 0d 1b 3f 25 fa 20 3f
       0.6098869 0.61212504 0.60567766 0.6288169

module.Conv5.layers.0.bias f4 [64]
000000 77 bb 7d bd 86 91 1e bd 42 1d f9 bd 6a 5c bc 3c
       -0.06194636 -0.038713 -0.121637836 0.022993285
000010 fb 0c c6 bc 3d 19 50 bd d7 83 c4 3d 31 57 e9 3d
       -0.024176111 -0.05080532 0.09595459 0.113935836
000020 21 8a 68 bd 9f 69 70 3d ce a0 9b 3b 7e 5a 4f 3d
       -0.056772355 0.058694478 0.004749394 0.05062341
000030 3e 8c 0c bd c7 4a 9b bd fd 94 84 3d c5 c1 06 be
       -0.034313433 -0.07582622 0.0647373 -0.13159855
000040 50 92 70 bd 3c d2 2a bb 65 e9 3b 3d 0b 7e 62 bc
       -0.058733284 -0.002606525 0.04587688 -0.013823996
000050 f3 d8 63 bd ab c6 a8 3d 0f 3b 0a 3e 50 89 e0 bd
       -0.05562682 0.08241018 0.13499092 -0.1096369
000060 ed 4f b2 bd e9 e3 84 3d 8b 87 b9 ba bc 56 d1 bd
       -0.08706651 0.06488783 -0.0014154775 -0.102216214
000070 d7 ad 0f ba 69 ab a3 3d a8 da a5 bc de 9e f6 bc
       -0.0005480921 0.07991678 -0.020245865 -0.03010505
000080 00 91 17 3c 3e 8c 34 bc d7 36 4f bc 5d 0c 8d bc
       0.009250879 -0.0110197645 -0.012647352 -0.01721781
000090 34 b8 4e 3c 38 18 48 bd f6 72 1c 3e 53 e3 c1 bc
       0.01261716 -0.04885122 0.15278229 -0.023667967
0000a0 55 6e a7 bd 38 1f 00 3c 7b 84 fd 3b 65 b9 36 3b
       -0.08175341 0.007819943 0.00773674 0.00278815
0000b0 88 4c 13 3e 66 43 1d 3e 0d d3 19 3d 64 ac 8a bd
       0.14384663 0.15357742 0.03755479 -0.06771162
0000c0 48 1f 09 3e 73 fa 5d bd 2c 4a 17 3d f5 54 94 3c
       0.13390839 -0.054193925 0.03693597 0.018106917
0000d0 1d 2b 29 3e ec c7 12 bd 28 96 86 3d 83 0e 5a 3d
       0.16520353 -0.03583519 0.06571609 0.053236496
0000e0 c0 f3 3b 39 e5 89 86 3c 0f 94 9f bc 10 09 29 bb
       0.00017924514 0.016423175 -0.01947978 -0.0025792755
0000f0 f0 db 35 3d 73 04 43 bc 7b 2f 7e 3d df 8c fc bd
       0.044399202 -0.011902916 0.062057 -0.123315565

module.Conv5.layers.1.weight f4 [64]
000000 6c 9e 0c 3f 22 b8 a9 3e ee b8 a8 3f 32 4f b4 3f
       0.5492923 0.33148295 1.3181436 1.4086668
000010 53 19 4b 3f 53 a7 d3 3f b5 38 db 3e 76 f5 be 3f
       0.79335517 1.6535438 0.42816702 1.4918659
000020 a7 cb c7 3f de 03 47 bd 60 a4 78 3f 71 85 cf 3f
       1.5609025 -0.048587672 0.97125816 1.6212598
000030 31 f2 f2 3f f7 b5 0b 40 1b 01 a2 3f ed bc 9e 3f
       1.8980161 2.1829813 1.2656587 1.2401406
000040 01 99 2c 40 e0 65 28 40 b5 a0 db 3e 27 9e 36 40
       2.6968386 2.631218 0.42896047 2.8534029
000050 a8 3c af bd 03 39 68 3e 80 44 e7 3e 04 a5 0e 40
       -0.08556491 0.22677998 0.4516945 2.2288218
000060 ca ec 9b 3f 20 b6 39 3f b3 15 9e 3f fd 8b a5 3f
       1.2181637 0.72543526 1.2350372 1.2933346
000070 d4 c0 bd 3f e4 6a 9c 3f 27 3f 3a 40 1b 11 d8 3f
       1.4824471 1.222012 2.9101045 1.688022
000080 18 53 12 3e b5 d1 60 3f 85 9e 05 40 2b ba 53 bf
       0.1428951 0.8781999 2.0878003 -0.82705945
000090 fa c7 e4 3f 49 7f 99 3f 33 22 54 3f cd ca a5 3e
       1.7873528 1.1991969 0.82864684 0.32381287
0000a0 7d 82 9a 3e e5 5f 71 3f 74 3b 24 3f 6b 9f 9a 3f
       0.3017768 0.9428695 0.6415322 1.20799
0000b0 52 55 d6 3e 5d 51 59 3f 63 53 df 3e f2 38 23 40
       0.4186197 0.84889776 0.43618307 2.5503507
0000c0 a7 33 53 bf 6e 11 65 3f d7 96 af 3e eb bf a8 3e
       -0.8250069 0.8947972 0.3429477 0.32958922
0000d0 34 39 9f 3e af 4b c4 be 59 61 81 bf 9a f8 c1 3e
       0.3109833 -0.38338992 -1.0107833 0.3788498
0000e0 b9 77 1b 40 92 dc 09 bf bb 06 39 3f b3 8d 9a 3f
       2.4291823 -0.5385219 0.72275895 1.2074493
0000f0 65 fd 02 40 e6 66 c9 3f 15 aa 05 3e 32 0b a0 3f
       2.046716 1.5734527 0.13053162 1.2503417

module.Conv5.layers.1.bias f4 [64]
000000 d1 24 76 bf 2c 46 91 bf ff 38 05 3e af fc 90 3f
       -0.9614993 -1.134954 0.13010024 1.1327113
000010 41 4d 80 3f 23 16 eb 3f a9 c2 5b bf 79 e2 82 be
       1.0023576 1.836613 -0.858439 -0.2556341
000020 2d 94 dc 3e 83 52 35 bf 23 85 77 bf c5 b3 10 3f
       0.430818 -0.7082903 -0.96687526 0.56524307
000030 cf e9 e9 3f 0a 86 96 3f 02 6e 85 3e 6f 39 a2 3f
       1.8274478 1.1759655 0.26060492 1.2673777
000040 c9 8d af 3f 03 a6 2e 3f f9 29 32 bf 43 cc 63 c0
       1.3715144 0.68222064 -0.69595295 -3.5593421
000050 0c cb 94 bf 28 a7 08 bf a2 8c a2 bf 9e ab 66 3f
       -1.1624465 -0.5338006 -1.2699168 0.9010562
000060 b7 a9 c9 bd 6a 2f 9e be 41 24 50 3e db 85 ae be
       -0.09846824 -0.3089555 0.2032633 -0.340865
000070 30 a4 69 40 f3 dc 91 3d 9d d4 de bd a4 46 92 3f
       3.6506462 0.07122221 -0.108803965 1.1427808
000080 b6 ee 07 bf c7 44 e2 bd 10 76 a1 3e 3d 2b af be
       -0.5309862 -0.110482745 0.31535387 -0.34212676
000090 da e3 89 3e 7e af d4 bd 22 65 c9 3e a7 d3 9a bf
       0.2693165 -0.10385035 0.3933497 -1.2095841
0000a0 a3 9e 81 bf 58 9a 3a be c4 b2 66 bf 8e 49 21 3e
       -1.0126537 -0.1822294 -0.90116525 0.15750715
0000b0 0e 83 32 bf 28 3b d9 bd be 08 17 bf 2c 94 89 c0
       -0.69731224 -0.10606986 -0.58997715 -4.2993374
0000c0 63 4b 2f bf 44 b5 21 3f 65 c1 81 3f 93 34 a2 be
       -0.68474406 0.63167214 1.0137144 -0.31680736
0000d0 6f 53 69 bf d0 fc 97 3f 36 3d 9a bf 83 3f 10 bf
       -0.91142935 1.1874027 -1.204993 -0.5634691
0000e0 93 80 a1 3f b6 ac 96 3f 24 ca 4a 3f 40 23 a0 3e
       1.2617363 1.1771457 0.7921469 0.31276894
0000f0 4f 25 e0 3f 28 4d 85 bf 66 47 14 bf 26 14 96 be
       1.7511386 -1.0414171 -0.57921445 -0.29312247

module.Conv5.layers.1.running_mean f4 [64]
000000 09 24 65 c3 b0 31 45 c3 3a bd d1 41 3a 8b 50 43
       -229.14076 -197.19409 26.217396 208.54385
000010 f6 cd 34 43 f4 04 64 43 4a b6 63 43 d9 f1 08 c3
       180.80453 228.01935 227.71207 -136.94472
000020 a6 46 31 43 87 8f f4 42 5c e3 57 c3 7a 58 63 c3
       177.27597 122.28033 -215.88812 -227.34561
000030 c8 f1 8f c2 16 69 4e c3 f8 2b 48 c3 16 73 45 c3
       -71.97223 -206.41049 -200.17175 -197.44955
000040 d0 92 0b c3 e0 60 05 c3 4d ad 4c 43 a7 15 5e c3
       -139.57349 -133.37842 204.67696 -222.08458
000050 61 87 4f 43 f5 65 45 43 56 c8 4d c3 c1 0f 20 43
       207.52882 197.39827 -205.78256 160.06154
000060 7f 84 35 43 90 31 4b c3 2f 6f 51 c3 5f b6 30 43
       181.51756 -203.1936 -209.43431 176.71239
000070 ce 93 7d 42 91 62 49 c3 72 1f 14 43 13 b9 d3 c2
       63.39434 -201.38503 148.12283 -105.86147
000080 08 0d d8 42 58 d5 3e c3 4d a7 49 43 04 f8 f6 42
       108.02545 -190.83337 201.65352 123.484406
000090 17 76 4c c3 10 57 54 c3 76 b2 14 c3 55 7b b4 42
       -204.46129 -212.34009 -148.69711 90.24088
0000a0 19 ac 26 43 54 22 35 c3 17 e0 41 43 cb d7 55 c3
       166.67226 -181.1341 193.87535 -213.84294
0000b0 14 b6 45 43 fd 89 43 c3 f6 ff 53 43 3b 07 1c c3
       197.71124 -195.53902 211.99985 -156.02824
0000c0 c7 9c 4d 43 78 08 4a c3 4a 0e 4f 43 b8 7c 06 c3
       205.61241 -202.03308 207.05582 -134.48718
0000d0 ad 10 52 43 77 a2 f1 40 d5 23 3f 43 dd a5 e3 42
       210.06514 7.551082 191.13997 113.82395
0000e0 df e7 d5 c2 ab 58 b7 42 60 e1 68 43 58 ec f4 c1
       -106.95287 91.67318 232.88037 -30.615402
0000f0 db 06 6f 43 b2 c9 07 43 6d c6 f3 42 a4 bd 5a 43
       239.02678 135.78787 121.88755 218.74078

module.Conv5.layers.1.running_var f4 [64]
000000 d9 31 a7 45 84 5f e1 44 31 10 05 44 d6 37 06 45
       5350.231 1802.9849 532.253 2147.4897
000010 38 80 c6 44 4b 34 f3 44 c6 e7 52 45 d3 06 24 45
       1588.0068 1945.6342 3374.4858 2624.4265
000020 16 65 f5 45 26 18 5c 44 21 1e 1f 45 38 14 fe 45
       7852.6357 880.3773 2545.883 8130.5273
000030 7e 6a c7 45 ef 84 de 45 4c 97 a5 45 79 87 3e 45
       6381.3115 7120.6167 5298.912 3048.467
000040 38 23 15 45 e0 46 a6 45 34 49 9a 45 4d 3c be 45
       2386.2012 5320.8594 4937.1504 6087.5376
000050 7b 2c ab 44 ba a2 ca 45 18 7f e9 44 88 6e 30 46
       1369.39 6484.341 1867.9717 11291.633
000060 8a 87 8c 44 56 3b 9d 45 da af 96 45 7a e7 c7 44
       1124.2356 5031.417 4821.9814 1599.2336
000070 c9 21 dd 43 23 11 06 45 8b bf 0e 46 25 ba db 45
       442.26395 2145.071 9135.886 7031.268
000080 a5 87 3f 44 1b f7 b2 45 ca 2f e7 45 43 a5 7d 44
       766.11945 5726.888 7397.9736 1014.5822
000090 e4 a3 a2 45 88 78 1a 46 35 11 bc 44 47 09 6d 45
       5204.4863 9886.133 1504.5377 3792.5798
0000a0 e0 a8 27 45 59 41 c8 45 fb b5 26 45 33 7f ce 45
       2682.5547 6408.1685 2667.3738 6607.9
0000b0 2d e9 dd 45 9d 0b 1e 45 82 24 2d 45 ee 1c 3f 44
       7101.147 2528.7258 2770.2817 764.452
0000c0 7f 33 52 45 a7 38 8f 45 e6 4d 91 45 31 f1 8b 45
       3363.2185 4583.0815 4649.7373 4478.149
0000d0 f8 0d a9 45 ad a2 d3 44 2a d7 8c 45 17 03 6c 44
       5409.746 1693.0836 4506.8955 944.0483
0000e0 58 97 43 45 30 b8 91 45 9d 1d 74 45 58 33 d2 44
       3129.459 4663.0234 3905.8508 1681.6045
0000f0 4e 74 1c 45 37 77 0b 44 3c 4a 0e 45 46 4a 74 45
       2503.269 557.86273 2276.6396 3908.642

module.Conv6.layers.0.weight f4 [64, 128, 3, 3]
000000 fc bb 17 3f 30 d6 1a 3f 57 bb 13 3f 9d f4 16 3f
       0.59271216 0.60483074 0.5770773 0.58967
000010 6b 7b 1b 3f 7c 4b 1b 3f 16 5e 13 3f e1 1f 1d 3f
       0.60735196 0.60662055 0.5756544 0.6137677
000020 1d 76 21 3f 5e dc 17 3f 35 c9 15 3f c6 b6 15 3f
       0.6307085 0.5932063 0.5851014 0.58482015
000030 5a 9f 1f 3f 57 d6 1d 3f 75 49 1e 3f 87 4e 13 3f
       0.62352526 0.6165518 0.61830837 0.575417
000040 48 77 14 3f cb 46 14 3f 0c db 13 bf cc 21 1c bf
       0.5799451 0.5792052 -0.57756114 -0.6098907
000050 92 06 1f bf 95 12 18 bf 77 06 1c bf 23 81 13 bf
       -0.621194 -0.59403354 -0.60947365 -0.5761892
000060 da 95 14 bf 0a a2 13 bf 85 08 1c bf 03 8b 15 3f
       -0.58041155 -0.57669127 -0.609505 0.5841524
000070 25 77 1e 3f f1 6e 1d 3f 58 28 1a 3f da 64 12 3f
       0.6190055 0.6149741 0.6021781 0.5718514
000080 dd 9f 1c 3f 65 5f 1a 3f 8b ad 1b 3f 6f a6 12 3f
       0.6118143 0.6030181 0.6081168 0.5728521
000090 93 21 16 3f fc ad 1a 3f e6 bf 12 3f 51 d1 12 3f
       0.5864498 0.6042173 0.57324064 0.5735064
0000a0 37 77 1a 3f e8 ea 16 3f 68 27 17 3f 0d ed 19 3f
       0.6033816 0.5895219 0.59044504 0.60127336
0000b0 42 34 14 3f cd b9 16 3f bb d5 1e 3f 0b 6d 21 3f
       0.5789224 0.5887726 0.62044877 0.6305701
0000c0 89 09 19 3f 51 5d 1c 3f 20 90 16 3f a5 ab 1b 3f
       0.59780174 0.6107989 0.5881367 0.60808784
0000d0 41 81 1e 3f 6a fc 20 3f 14 ed 1f 3f ce e4 20 3f
       0.61915976 0.62885153 0.6247113 0.6284913
0000e0 23 82 1c 3f eb 04 13 3f 73 2a 1f 3f 29 9a 13 3f
       0.6113607 0.5742938 0.6217415 0.57657105
0000f0 3d 8e 19 3f f5 27 1a 3f 52 c7 1a 3f d8 2d 1e bf
       0.59982663 0.6021722 0.6046039 -0.617887
000100 7c e2 14 bf 81 c7 1a bf bf 30 22 bf 4b 52 17 bf
       -0.5815809 -0.6046067 -0.6335563 -0.59109944
000110 1e f7 1c bf f2 18 20 bf 09 a5 16 bf 9d 15 20 bf
       -0.6131457 -0.62538064 -0.58845574 -0.6253298
000120 0a 2d 13 bf 11 cd 16 bf ce e3 1b bf b4 dc 1b bf
       -0.574906 -0.58906657 -0.6089448 -0.6088364
000130 8f 2c 16 bf cf f6 1d bf 40 9e 1e bf 79 fd 1a bf
       -0.5866174 -0.61704725 -0.6196022 -0.6054302
000140 e1 ae 12 bf ea 52 18 3f 66 ff 1e 3f bd 6a 20 3f
       -0.57298094 0.59501517 0.6210846 0.6266287
000150 41 62 18 3f 6b fb 14 3f 26 fe 16 3f 1d 69 1b 3f
       0.59524924 0.58196133 0.5898155 0.60707265
000160 7c 40 12 3f bd f8 1a 3f 31 d1 21 3f b2 32 22 3f
       0.57129645 0.60535794 0.63209826 0.63358605
000170 05 3b 30 3f 02 78 15 3f 92 0e 20 3f 2c 63 18 3f
       0.68840057 0.5838624 0.6252223 0.59526324
000180 d1 03 1c 3f 6b 83 18 3f 59 e1 16 3f 5e 21 1f 3f
       0.60943323 0.5957553 0.58937603 0.6216029
000190 ab 87 14 3f 58 00 1e 3f 9e b6 1a 3f 84 73 16 3f
       0.5801951 0.61719275 0.604349 0.5877001
0001a0 f9 f2 15 3f b1 b6 18 3f ea 90 1a 3f ca e9 14 3f
       0.5857387 0.59653765 0.6037737 0.58169234
0001b0 d1 5f 17 3f 1a fc 1a 3f 50 8f 1d 3f 10 f6 15 3f
       0.5913058 0.60540926 0.615468 0.58578587
0001c0 97 86 1b 3f b7 05 15 3f 57 03 1d 3f 69 39 20 3f
       0.6075224 0.58211845 0.6133322 0.625876
0001d0 38 51 1c 3f a2 ec 11 3f 90 c0 12 3f 43 9d 20 3f
       0.6106143 0.570017 0.5732508 0.6273996
0001e0 e0 e9 19 3f 46 00 17 3f 7f 1a 12 3f 17 c1 1e 3f
       0.6012249 0.5898479 0.5707168 0.6201338
0001f0 b9 1c 20 3f c2 1c 13 3f f3 3c 22 bf a7 03 1a bf
       0.6254383 0.57465756 -0.6337425 -0.60161823
000200 f5 a5 1e bf d3 96 6f 3d 68 2d 2a bf 51 54 1a bf
       -0.6197198 0.058493447 -0.66475534 -0.60284907
000210 3d 9b 1c 3f 7b 7b 1b 3f 72 ad 20 bf 40 b9 10 bf
       0.61174375 0.6073529 -0.62764657 -0.5653267
000220 ad 18 11 bf 25 29 45 be e6 a4 10 bf 37 b9 15 bf
       -0.5667828 -0.19253977 -0.56501615 -0.5848574
000230 18 a2 10 bf d5 86 18 bf 97 c3 1c bf b0 41 17 bf
       -0.56497335 -0.5958074 -0.61235946 -0.59084606
000240 34 b2 18 3f 1a 95 1a 3f b6 17 1a 3f 62 a7 15 3f
       0.59646916 0.6038376 0.6019243 0.5845853
000250 55 f3 1c 3f 7b d4 12 3f 2b c4 14 3f 89 d9 18 3f
       0.61308795 0.5735547 0.5811183 0.5970693
000260 d2 b0 16 3f 29 11 16 3f 77 0e 1a 3f bc 8b 1d 3f
       0.58863556 0.58619934 0.6017832 0.6154134
000270 85 4c 20 3f 2a 5b 1a 3f e6 61 12 3f 06 19 17 3f
       0.6261676 0.60295355 0.5718063 0.5902256
000280 a1 13 17 3f e5 d8 1d 3f 2e 15 1b 3f 0f e3 16 3f
       0.59014326 0.6165908 0.6057919 0.58940214
000290 a9 8b 16 3f 87 f5 17 3f 5d 43 18 3f 7d 95 19 3f
       0.58806854 0.5935902 0.5947779 0.59993726
0002a0 54 0f 17 3f 8e da 15 3f 45 3d 19 3f bd 76 20 3f
       0.59007764 0.58536613 0.59859115 0.6268118
0002b0 f9 62 15 3f a7 65 1b 3f dc 4b 18 3f 7c ed 16 3f
       0.58354145 0.60701984 0.5949075 0.5895612
0002c0 52 7f 1f 3f fd c4 1d 3f 01 a9 18 3f 08 ba 1d 3f
       0.6230365 0.61628705 0.5963288 0.61611986
0002d0 b2 a5 1d bf 33 7f 1f bf c6 19 14 bf 71 64 1d bf
       -0.61580956 -0.62303466 -0.5785183 -0.61481386
0002e0 af b8 1d bf 85 f6 1d bf 11 79 1f bf 8e 4e 16 bf
       -0.6160993 -0.61704284 -0.6229411 -0.58713615
0002f0 92 09 16 bf 2b 22 1b 3f 3c 8d 12 3f 4b 32 13 3f
       -0.58608353 0.6059901 0.57246757 0.57498616
000300 2d f8 1d 3f ef 07 18 3f 22 d5 1a 3f d1 c1 20 3f
       0.6170681 0.59387106 0.60481465 0.6279574
000310 e0 a2 15 3f cb b0 1e 3f 50 a3 1a 3f a2 5e 21 3f
       0.5845165 0.61988515 0.60405445 0.63035023
000320 0e d5 13 bf 60 36 1d 3f 66 1b 21 3f ee 11 18 3f
       -0.5774697 0.61411095 0.6293243 0.5940236
000330 26 fb 12 3f 70 6e 18 3f 6c ae 14 3f 38 0f 15 bf
       0.5741447 0.59543514 0.58078647 -0.58226347
000340 ad 1c 13 bf 7e 70 10 bf 59 45 1b bf 03 c1 1c bf
       -0.5746563 -0.5642165 -0.6065269 -0.6123201
000350 80 96 1e bf eb 60 1f bf cb 4c 12 bf 8b 67 16 bf
       -0.61948395 -0.6225726 -0.57148427 -0.58751744
000360 4a a3 15 bf 34 7b 15 bf b8 a1 20 bf 37 29 1d bf
       -0.58452284 -0.5839112 -0.62746763 -0.61391014
000370 3b 35 15 bf e2 62 1d bf 87 27 1a bf b9 33 1e bf
       -0.5828435 -0.6147901 -0.60216564 -0.6179767
000380 74 7b 1f bf 54 a3 1e bf 6a 4b 21 bf 59 24 1b bf
       -0.6229775 -0.6196797 -0.630057 -0.6060234
000390 80 ba 17 bf 90 74 16 bf 64 a6 19 bf 67 f8 1e bf
       -0.5926895 -0.5877161 -0.60019517 -0.6209778
0003a0 9e 9a 13 bf 56 d6 1d bf 86 f9 19 3f f9 ca 19 3f
       -0.576578 -0.61655176 0.6014637 0.60075337
0003b0 99 ea 1f 3f 0b d7 15 3f d1 a6 1b 3f 08 31 19 3f
       0.6246734 0.58531255 0.60801417 0.5984044
0003c0 7e 70 1c 3f 63 0d 20 3f f9 42 12 3f 81 7d 14 bf
       0.6110915 0.62520427 0.5713344 -0.58004004
0003d0 58 03 19 bf e3 7b 1e bf 25 30 1d bf 23 35 20 bf
       -0.5977073 -0.61907786 -0.6140159 -0.6258108
0003e0 d4 b9 19 bf ca 26 20 bf e9 67 20 bf 70 49 19 bf
       -0.60049176 -0.6255919 -0.62658554 -0.5987768
0003f0 dc 05 15 3f 12 ac 13 3f e2 00 18 3f 27 74 1f 3f
       0.58212066 0.57684433 0.5937635 0.6228661

module.Conv6.layers.0.bias f4 [64]
000000 d4 db 45 3d 3a d7 97 bd fc e1 17 bd 01 ac 49 3d
       0.048305348 -0.07414098 -0.03708075 0.0492363
000010 92 92 5c 3c cc de 87 bd ba a2 dd 3c 3d 35 c3 bd
       0.013462679 -0.06634292 0.027055133 -0.09531639
000020 81 6b 40 3d 5e 26 b1 3c e9 d7 61 bd 1b 4a b9 3d
       0.046977524 0.02162474 -0.05513755 0.090473376
000030 53 8c a4 be 36 3d 7d 3c a6 0b ce 3b 12 45 ec bd
       -0.3213831 0.015456488 0.0062880097 -0.115366116
000040 b0 8c 7c bd e3 1b f4 bd 5c b2 08 be 7a 8f e5 3d
       -0.061657608 -0.119193815 -0.13349289 0.112090066
000050 64 4b f7 3d 6a b0 b9 3d b3 bd 49 bd a8 19 e7 bd
       0.120749265 0.090668514 -0.049253177 -0.112841904
000060 e1 af 3e 3e 89 63 16 3e 9a c9 d6 3c 51 fa 9d 3c
       0.1862178 0.14686407 0.026219178 0.0192844
000070 d3 b7 b7 3d 95 0e 51 bd 7d b5 19 3d 89 aa db 3c
       0.089706086 -0.051039297 0.037526596 0.026814716
000080 dc d6 69 3c 33 1f 12 bc f1 13 70 3d 3a 15 53 3d
       0.014272418 -0.008918571 0.058612768 0.051533915
000090 4e d8 80 bb 0e c1 cc 3d 54 15 dc 3d 66 5c 8e 3e
       -0.0039320355 0.0999776 0.107462555 0.2780487
0000a0 8a 20 1d 3d b6 97 01 bd b9 69 87 3d 06 80 fc bc
       0.03836111 -0.031638823 0.06611962 -0.030822765
0000b0 07 bc b2 bd c9 5d 16 3d c6 47 3f be 9b 54 7a 3d
       -0.087272696 0.036710534 -0.18679723 0.061115842
0000c0 f7 31 5e 3d 18 39 b4 3c 4d 16 82 bc 47 71 a3 bc
       0.05424687 0.02199988 -0.015879774 -0.019951476
0000d0 1f 55 4c bd 3d f2 10 be 15 4d 3c 3d c9 28 7e 3e
       -0.049885865 -0.14154907 0.04597195 0.24820246
0000e0 b2 09 a7 bd 19 1f 79 3d 47 75 e2 3d 60 95 63 3d
       -0.08156146 0.060820673 0.11057525 0.055562377
0000f0 80 d6 51 3e d8 bd 25 3e 09 9f 2d be 4e 78 c5 bc
       0.20491982 0.16185701 -0.16955198 -0.024105217

module.Conv6.layers.1.weight f4 [64]
000000 3c 04 20 3f b0 b8 05 3f 19 b1 ae 3f df 02 83 3f
       0.6250646 0.52234936 1.3647796 1.0235251
000010 00 cb 7d 3f eb 28 c8 3f 45 f6 12 3f 54 d3 91 3f
       0.9913788 1.5637487 0.5740703 1.1392617
000020 b3 cf 6d 3f dd 87 0e 3f fc c0 cb 3e 3a 06 f0 3e
       0.9289505 0.5567606 0.39795673 0.4687975
000030 91 84 0c 3f 33 db 7d 3f 94 a9 6f 3e 9c a8 db 3e
       0.5488978 0.99162596 0.23404533 0.42902076
000040 e9 bd 88 3f 5f 9f 31 3f df e8 9f 3f d9 fd a1 3f
       1.0682956 0.69383806 1.2492942 1.2655593
000050 21 a3 98 3f 73 54 c3 3f 32 5d 43 3f 33 ea 90 3f
       1.1924783 1.5260147 0.7631408 1.1321472
000060 67 e6 01 3f b9 0e c1 3f b0 ea a6 3f e0 9f 34 3f
       0.5074219 1.5082618 1.3040371 0.7055645
000070 43 88 2e 3f 54 fa 13 3f 5e 7f 88 3f f8 8b 8f 3f
       0.6817667 0.57803845 1.0663869 1.121459
000080 5c a1 d6 3e 29 f8 01 3f 97 c2 80 3f 75 d9 99 3f
       0.41919982 0.5076929 1.0059384 1.2019488
000090 bc 9f 18 3f e0 f2 b8 3f 53 c5 a4 3e c2 81 b3 3f
       0.59618735 1.444912 0.32181796 1.4023974
0000a0 51 8c 98 3f 3b 75 46 3f 09 4c 1a 3e f5 cb 35 3f
       1.1917821 0.7752263 0.15068068 0.7101434
0000b0 29 98 c6 3f 26 35 0c 40 61 90 ca 3f 05 96 7d be
       1.5515186 2.190744 1.5825311 -0.24764259
0000c0 7a a9 40 3f 31 76 4e 3e 10 cc 53 3f 7f 6c af 3f
       0.752586 0.20162274 0.8273325 1.3704985
0000d0 3f 0f 9c 3f a2 c9 86 3f 81 6b 03 3f 9f d3 ca 3f
       1.2192153 1.0530283 0.5133591 1.5845832
0000e0 b2 6f 3c 3f 17 c9 7a 3f c0 ff 06 3f 4f f4 6d bf
       0.73607934 0.9796309 0.52733994 -0.9295091
0000f0 61 13 ec 3e f9 4c c6 3e 87 24 ad 3f 86 b2 be 3f
       0.46108535 0.387306 1.3526772 1.4898231

module.Conv6.layers.1.bias f4 [64]
000000 59 a9 cc bf b7 c2 07 bf 61 a9 34 3f 21 79 9b 3f
       -1.5989181 -0.53031486 0.7057095 1.2146341
000010 6f 04 d7 3f 67 8a 12 3f 9f 73 7a 3f 79 d4 f2 3f
       1.6798228 0.57242435 0.97832674 1.8971092
000020 39 79 fb 3f 05 26 a0 bf f3 18 21 3f 6a f3 7c bf
       1.9646369 -1.2511603 0.62928694 -0.9880892
000030 89 08 20 bf fa d6 e5 3f 59 bc 2e 3f 8d ce 9d bf
       -0.62513024 1.7956231 0.68256146 -1.2328659
000040 57 a3 35 40 57 b6 1d c0 b9 7a 80 3f 36 32 0c 40
       2.8380945 -2.4642541 1.0037452 2.1905646
000050 92 46 ee bf 62 97 18 3f 02 f6 a5 bf 3b 79 8f 3f
       -1.8615286 0.5960599 -1.2965701 1.1208872
000060 74 b4 14 bf 14 51 25 3f 40 7e 88 3f 18 a3 32 bf
       -0.5808785 0.6457684 1.0663528 -0.6978011
000070 31 29 d4 bf fa da a9 bf d8 e7 da 3f 12 c5 10 40
       -1.6575071 -1.3269951 1.7102003 2.2620282
000080 f6 28 7d 3f 91 49 3b 3f db 05 f0 bf 0d 08 19 40
       0.98890626 0.7315913 -1.8751787 2.3911164
000090 7b 07 17 3f ed 61 19 3f 82 bd 62 bf 93 af c7 3f
       0.5899579 0.5991505 -0.88570416 1.5600456
0000a0 c8 ed 70 c0 60 d7 b8 bf 2e 8e 2a bf 67 c2 18 40
       -3.764513 -1.4440727 -0.666232 2.3868654
0000b0 4e 74 19 3f 06 51 85 40 80 ac 0c 3f c4 f6 58 3f
       0.5994309 4.1661406 0.54950714 0.84751534
0000c0 a3 9c 93 bf a8 e2 01 bf 41 7d 0b bf 2f 4c 64 3f
       -1.1532177 -0.50736475 -0.54488 0.89178747
0000d0 5d 85 de 3f 86 f3 dc 3f 65 37 08 bf cb 9d db 3e
       1.7384449 1.7261817 -0.53209525 0.42893824
0000e0 73 51 fc be 6d e0 33 c0 84 90 a3 bf bd 0f 2e 3f
       -0.4928089 -2.8105729 -1.2778478 0.67992765
0000f0 c9 a5 89 bf 0c b2 0e bf 2c 2e bc 3f 78 d7 8b 40
       -1.0753719 -0.5574043 1.470159 4.3700523

module.Conv6.layers.1.running_mean f4 [64]
000000 f4 c7 39 43 eb d5 2c c3 20 e2 40 43 f4 4b 4c c3
       185.78107 -172.83562 192.8833 -204.29669
000010 fd 33 39 c3 e7 74 55 43 72 00 2a 43 3a 2b 32 43
       -185.20308 213.45665 170.00174 178.16885
000020 bb 51 22 43 1c e3 be 42 50 a6 5c 43 d4 9f 38 43
       162.31926 95.44357 220.64966 184.62433
000030 6e 6e 1c c3 2d 11 35 c3 e3 1c 43 43 c9 68 31 43
       -156.43137 -181.0671 195.11284 177.40932
000040 16 15 45 c3 da b1 29 43 9b 83 ee c2 4e 69 29 c3
       -197.08237 169.69473 -119.25704 -169.41135
000050 5e 63 37 43 aa f1 52 43 80 f6 22 43 0f e0 e4 c2
       183.38815 210.944 162.96289 -114.437614
000060 8b 4a 54 c3 06 f7 47 43 5d 29 38 43 15 63 2f c3
       -212.29118 199.96494 184.16158 -175.38704
000070 08 f5 30 43 d8 88 5a 43 e0 fb 2c c3 48 dc 36 c3
       176.95715 218.53455 -172.98389 -182.86047
000080 2f ae 33 43 5e 1f 3e 43 4f 27 2c 43 95 1e 34 c3
       179.6804 190.12253 172.15355 -180.11946
000090 c1 1a 3f c3 eb cf 49 43 2a 37 25 43 d8 da 2c 43
       -191.1045 201.81218 165.21548 172.85486
0000a0 55 79 47 43 f6 ca 45 43 dd 35 01 c3 e6 4b 43 c3
       199.47395 197.79282 -129.2104 -195.29648
0000b0 1d 1a 3d 43 aa 9e 0a c3 18 a2 4b 43 a3 74 de c2
       189.102 -138.61978 203.63318 -111.227806
0000c0 92 e8 33 43 c7 03 62 c3 15 a2 04 c1 11 8c 68 c3
       179.90848 -226.01476 -8.289571 -232.54713
0000d0 cd b3 52 c3 ec 99 27 c3 0a b5 41 c3 67 f5 3a 43
       -210.70235 -167.60126 -193.70718 186.9586
0000e0 40 2d 48 c3 7c e7 32 43 b9 1f 23 43 37 32 4c 43
       -200.17676 178.90424 163.12392 204.19615
0000f0 28 72 1f 43 a4 38 64 c3 24 b8 30 c3 4b e5 3c c3
       159.44592 -228.22125 -176.7193 -188.89568

module.Conv6.layers.1.running_var f4 [64]
000000 c2 67 5b 45 cf 3c ea 44 03 64 c6 45 9b 50 be 44
       3510.4849 1873.9003 6348.5015 1522.5189
000010 55 43 16 45 3b c1 c5 45 db 48 92 45 b8 6e fe 44
       2404.2083 6328.154 4681.107 2035.46
000020 b4 f4 f7 44 ef 93 4b 46 ee 1e d4 45 38 e7 9e 44
       1983.647 13028.983 6787.866 1271.2256
000030 cd 7b c2 44 ac 7e fc 44 79 9d d1 45 4f e0 80 45
       1555.8688 2019.9585 6707.684 4124.0386
000040 3c bd 39 45 2f e4 ab 45 4f d5 a3 44 cb 1f dd 44
       2971.8271 5500.523 1310.6659 1768.9935
000050 43 be 04 45 aa 2b bc 45 69 b0 f6 44 31 a2 b0 44
       2123.8914 6021.458 1973.5128 1413.0685
000060 b8 4b 26 46 69 c4 d9 45 10 39 2f 45 45 a4 db 45
       10642.93 6968.5513 2803.5664 7028.5337
000070 57 cb 44 45 74 5d 5a 45 d5 df 10 45 04 20 85 45
       3148.7087 3493.8408 2317.9895 4260.002
000080 e1 e3 5e 45 d2 a0 9b 45 25 09 df 44 30 4b dd 44
       3566.2424 4980.1025 1784.2858 1770.3496
000090 b6 2e ca 45 70 d7 e6 45 46 8b 3d 45 f7 4b dc 44
       6469.839 7386.9297 3032.7046 1762.3739
0000a0 b7 fa c6 45 2f 79 a4 45 87 6b 26 46 a1 4d b8 45
       6367.3394 5263.148 10650.882 5897.7036
0000b0 72 72 6e 45 fe bc ee 45 ee a0 c1 45 98 64 96 45
       3815.1528 7639.624 6196.116 4812.574
0000c0 2c d8 08 45 4d 4d ad 45 95 83 65 44 b5 bc 05 46
       2189.5107 5545.6626 918.05597 8559.177
0000d0 f3 6c be 45 e3 93 00 45 5a 8b bf 45 50 cf 41 45
       6093.6187 2057.243 6129.419 3100.957
0000e0 be 0a d3 45 df 3a 8e 45 1b 71 fc 44 4d b7 c5 45
       6753.343 4551.359 2019.5345 6326.9126
0000f0 8b 46 54 45 94 b7 ef 45 0e dc 51 45 ec 16 42 45
       3396.409 7670.9473 3357.7534 3105.4326

module.Conv7.layers.1.weight f4 [1, 128, 3, 3]
000000 13 e1 15 bf 5a cf 17 bf 9c 34 13 bf 27 92 16 bf
       -0.5854656 -0.5930077 -0.5750215 -0.5881676
000010 15 ef 15 bf 84 52 18 bf 89 5d 2b bf 11 66 20 bf
       -0.58567935 -0.5950091 -0.669396 -0.6265574
000020 3b 69 24 bf 85 ea 15 3f 96 65 19 3f 3c 88 16 3f
       -0.6422307 0.58560973 0.5992063 0.5880163
000030 8b 24 18 3f 68 24 15 3f 3a 5e 16 3f e1 36 1a 3f
       0.5943076 0.58258677 0.5873753 0.6023999
000040 1e b5 17 3f 6b 42 13 3f e0 99 19 3f 73 ec 1d 3f
       0.5926074 0.5752322 0.6000042 0.6168892
000050 03 14 19 3f 45 37 14 3f 69 54 1c 3f 91 5b 16 3f
       0.5979616 0.57896835 0.610663 0.5873347
000060 f5 c2 1d 3f da 3d 1d 3f 44 8d 17 3f f1 74 18 bf
       0.61625606 0.61422503 0.5919993 -0.5955344
000070 b0 d5 1c bf b1 93 1b bf 34 f5 1e bf c7 ce 18 bf
       -0.6126356 -0.60772234 -0.620929 -0.5969052
000080 83 8b 19 bf 3e 4e 16 bf 22 f1 12 bf 97 7a 19 bf
       -0.59978503 -0.5871314 -0.5739919 -0.5995268
000090 a2 2c 1d bf f2 e6 20 bf 18 e6 0f bf af 6f 1c bf
       -0.6139623 -0.62852395 -0.5621047 -0.61107916
0000a0 4c 07 1f bf 69 0d 16 bf 45 96 12 bf 92 5f 1f bf
       -0.6212051 -0.5861421 -0.57260543 -0.62255204
0000b0 d2 20 19 bf 0e a0 1f 3f 2c 4d 20 3f 24 0c 20 3f
       -0.59815705 0.623536 0.62617755 0.62518525
0000c0 bc 5d 1b 3f 5a 72 20 3f 87 61 16 3f 6b e0 1a 3f
       0.606899 0.62674487 0.58742565 0.60498685
0000d0 55 9c 12 3f 86 5c 1b 3f 32 42 19 3f 91 ac 16 3f
       0.57269794 0.60688055 0.5986663 0.58857065
0000e0 60 59 1b 3f 9b b4 1d 3f 4a ef 12 3f 34 30 1d 3f
       0.6068325 0.6160371 0.57396376 0.6140168
0000f0 bf 72 18 3f 3b 02 1d 3f 5d e1 11 3f 2b 96 1c 3f
       0.5955009 0.6133153 0.569845 0.6116664
000100 26 d8 12 3f c9 9e 11 3f ed a8 17 3f a2 f3 1f 3f
       0.57361066 0.5688291 0.59242135 0.6248113
000110 a6 41 1e 3f fe 70 15 3f e3 41 1a 3f f6 63 1e 3f
       0.6181892 0.5837554 0.60256785 0.6187128
000120 cc 51 12 3f 21 c1 1a 3f a5 f5 18 3f c1 9c 1e 3f
       0.5715606 0.6045094 0.59749824 0.6195794
000130 e4 50 13 3f 2f 0b 1b 3f 07 ed 15 3f ca 87 17 3f
       0.57545304 0.6056394 0.585648 0.5919157
000140 ca 09 1c 3f 25 7c 20 bf 83 c1 14 bf e5 a7 12 bf
       0.60952437 -0.6268943 -0.58107775 -0.57287437
000150 61 30 19 bf f7 7f 1b bf 5d a8 16 bf bd 96 1b bf
       -0.59839445 -0.60742134 -0.5885065 -0.60776883
000160 1b aa 18 bf 1b c6 1a bf 58 4b 17 3f 1f f4 17 3f
       -0.5963456 -0.60458535 0.5909934 0.59356874
000170 17 10 13 3f 6a 7c 1c 3f 23 e7 1a 3f 07 43 1f 3f
       0.57446426 0.6112734 0.60508937 0.6221165
000180 20 e4 16 3f 90 1c 1b 3f ff 1d 13 3f b2 af 15 bf
       0.5894184 0.6059046 0.57467645 -0.58471215
000190 3a a6 17 bf 86 5e 20 bf f5 95 14 bf 67 8b 16 bf
       -0.59238017 -0.6264423 -0.58041316 -0.5880646
0001a0 1b 57 13 bf eb 68 16 bf 09 30 1e bf 7d f7 18 bf
       -0.5755479 -0.5875384 -0.61792046 -0.5975264
0001b0 69 c6 14 3f 7a cb 16 3f dc 00 17 3f 9c 95 13 3f
       0.5811525 0.5890423 0.58985686 0.5765016
0001c0 3d 54 14 3f bd 0f 15 3f 71 6f 1c 3f a5 6b 18 3f
       0.5794104 0.5822714 0.61107546 0.5953925
0001d0 7d e6 1d 3f 4c 1d 16 bf 41 e6 16 bf 34 e1 16 bf
       0.6167982 -0.58638453 -0.5894509 -0.5893738
0001e0 f1 eb 1a bf f7 75 1e bf 4e d5 1e bf 87 54 18 bf
       -0.6051627 -0.6189875 -0.6204423 -0.5950398
0001f0 bf 7e 1f bf c4 c9 18 bf 64 87 16 3f b7 cf 19 3f
       -0.62302774 -0.5968287 0.5880034 0.6008257
000200 da 39 13 3f 76 ba 1f 3f dc eb 15 3f 88 e6 1a 3f
       0.5751015 0.6239389 0.5856302 0.6050801
000210 ff a4 17 3f f3 7c 15 3f 03 cd 16 3f d0 f2 1c bf
       0.5923614 0.5839378 0.58906573 -0.61308
000220 86 21 1b bf 13 e3 18 bf dc 8f 13 bf 89 49 14 bf
       -0.6059803 -0.5972149 -0.57641387 -0.57924706
000230 56 5a 1d bf db 86 1a bf b4 27 17 bf 3c 0a 13 bf
       -0.61465967 -0.60362023 -0.5904496 -0.5743749
000240 0d d4 11 bf ee 6e 1d bf 2d e7 16 bf 4d c9 20 bf
       -0.5696419 -0.6149739 -0.58946496 -0.6280716
000250 6d 66 20 bf 3f ad 21 bf 9e f4 0f bf fd 01 1d bf
       -0.6265629 -0.6315498 -0.5623263 -0.6133116
000260 85 d8 1b bf 19 e4 14 bf 68 b4 19 bf dc 5c 15 bf
       -0.6087726 -0.5816055 -0.60040903 -0.5834482
000270 24 0f 16 bf b5 5c 1e bf e9 0d 1d bf 5a 3f 14 bf
       -0.5861685 -0.6186021 -0.6134935 -0.57909167
000280 bc 46 1b bf 19 fb 1d bf eb 45 1f bf e6 d3 1a bf
       -0.6065481 -0.6171127 -0.6221606 -0.6047958
000290 8e 81 1d bf f1 6e 11 bf 34 87 1c bf 16 b6 17 bf
       -0.6152581 -0.5680991 -0.61143804 -0.59262216
0002a0 ef 84 1b bf d1 7a 1d bf d2 98 19 bf 74 3a 1f bf
       -0.60749716 -0.6151553 -0.5999881 -0.6219857
0002b0 d4 d5 19 bf 63 22 1a bf 3c 29 1e bf 8e b5 21 bf
       -0.600919 -0.6020872 -0.6178167 -0.63167655
0002c0 8f be 1d bf d5 29 13 bf 0c 87 1c bf f3 9f 10 bf
       -0.61618894 -0.57485706 -0.61143565 -0.56494063
0002d0 31 dc 16 bf 11 26 20 bf 16 e3 14 bf 44 d9 15 bf
       -0.58929735 -0.62558085 -0.58159006 -0.58534646
0002e0 52 ac 14 bf 4d 90 23 bf 9a 11 1b bf 05 3f 26 bf
       -0.5807544 -0.6389206 -0.6057373 -0.6493991
0002f0 df 1e 1d bf d1 50 1a 3f 3b fd 1a 3f a0 75 1a 3f
       -0.6137523 0.60279566 0.6054265 0.6033573
000300 0a cb 1b 3f 4e 6b 17 3f 13 59 18 3f 9f 0c 16 3f
       0.6085669 0.5914811 0.59510916 0.5861301
000310 e9 53 20 3f 78 d8 1d 3f 74 4f 19 bf c3 11 15 bf
       0.62628037 0.6165843 -0.5988686 -0.5823023
000320 80 06 17 bf de 44 16 bf e9 5f 13 bf aa d1 1c bf
       -0.58994293 -0.58698833 -0.5756822 -0.6125742
000330 16 b3 14 bf a2 b5 1d bf 62 36 20 bf e7 db 1c bf
       -0.58085763 -0.61605275 -0.6258298 -0.61273044
000340 9d 71 1c bf 06 ab 1e bf 2e ee 1c bf 61 26 12 bf
       -0.6111086 -0.6197971 -0.61300933 -0.5708981
000350 7b 67 14 bf b1 74 15 bf fb 97 18 bf 09 55 1d bf
       -0.579704 -0.5838118 -0.59606904 -0.6145788
000360 8c ae 1a 3f c2 56 14 3f 6c 5c 14 3f f6 4f 18 3f
       0.6042259 0.5794488 0.57953525 0.5949701
000370 47 42 17 3f 43 ea 1a 3f 83 cb 16 3f 23 74 13 3f
       0.59085506 0.60513705 0.58904284 0.57599086
000380 d4 e3 15 3f 81 94 18 3f 10 b3 16 3f ff af 1c 3f
       0.58550763 0.596016 0.5886698 0.6120605
000390 db 63 1a 3f e8 a2 18 3f 80 3f 1b 3f 26 18 1e 3f
       0.6030862 0.59623575 0.6064377 0.617556
0003a0 18 2c 1d 3f 95 8e 1f 3f cc 1f 1e 3f 7f 3a 18 3f
       0.61395407 0.6232694 0.6176727 0.5946426
0003b0 4f 3d 18 3f ea 52 1d 3f 7f fc 19 3f 62 25 1b 3f
       0.5946855 0.6145464 0.60150903 0.60603917
0003c0 88 9d 16 3f 48 64 18 3f b6 0d 19 3f 44 d0 1a 3f
       0.58834124 0.5952802 0.59786546 0.6047404
0003d0 bd 25 1d 3f 87 54 19 3f e9 dc 15 3f ec 08 13 3f
       0.6138571 0.59894603 0.5854021 0.5743549
0003e0 1d 8a 1f 3f ae 55 16 3f 9d 7f 17 3f 2a c0 1a 3f
       0.6232012 0.58724487 0.591791 0.6044947
0003f0 cb 94 19 bf 52 3b 18 bf 0d 22 13 bf e0 16 1a bf
       -0.59992665 -0.59465516 -0.5747383 -0.60191154
