DIDFuse/saved_models/decoder/IR_AE3.pth (torch, 604342 bytes, 13 tensors)

module.Conv5.layers.0.weight f4 [64, 128, 3, 3]
0	0x3f16cfc2	0.58910763
1	0x3f123882	0.57117474
2	0x3f11bbe8	0.5692735
3	0x3f1c5d0c	0.6107948
4	0x3f1f3ed9	0.6220527
5	0x3f18daf0	0.5970907
6	0x3f1da252	0.61575806
7	0x3f11fd1b	0.57026833
8	0x3f18fd49	0.5976148
9	0x3f19e2b3	0.6011154
10	0x3f124b91	0.57146555
11	0x3f1a32d2	0.60233796
12	0x3f162cf9	0.5866237
13	0x3f1f2465	0.6216491
14	0x3f1a3f91	0.60253245
15	0x3f1186d3	0.5684635
16	0x3f18910c	0.59596324
17	0x3f1755e6	0.59115446
18	0x3f1e1aa6	0.6175941
19	0x3f1766a5	0.59141
20	0x3f1950cf	0.5988893
21	0x3f125ed5	0.5717595
22	0x3f1d3d00	0.61421204
23	0x3f1d51a2	0.61452687
24	0x3f17c2ee	0.59281814
25	0x3f12d20f	0.57351774
26	0x3f1b320e	0.6062325
27	0x3f13e532	0.577716
28	0x3f1d0a0c	0.61343455
29	0x3f158dd4	0.5841954
30	0x3f167bdd	0.5878275
31	0x3f15217a	0.58254206
32	0x3f1749cb	0.59096974
33	0x3f1eb7ca	0.6199919
34	0x3f1badf2	0.60812294
35	0x3f19e1ef	0.6011037
36	0x3f1b4f55	0.60667926
37	0x3f1bb12e	0.6081723
38	0x3f1ddbc4	0.6166346
39	0x3f1610cc	0.5861938
40	0x3f122a27	0.5709557
41	0x3f153164	0.5827849
42	0x3f1efafd	0.6210173
43	0x3f114210	0.5674143
44	0x3f172228	0.59036493
45	0x3f197867	0.59949344
46	0x3f17191f	0.59022707
47	0x3f13ec6c	0.57782626
48	0x3f188c55	0.5958913
49	0x3f1c1747	0.6097302
50	0x3f1f8f39	0.62327915
51	0x3f113d73	0.5673439
52	0x3f1534d3	0.5828373
53	0x3f16fa87	0.58976024
54	0xbf196ab4	-0.5992844
55	0xbf16242d	-0.5864895
56	0xbf1db8fd	-0.61610395
57	0xbf14e487	-0.58161205
58	0xbf1b0cb8	-0.6056628
59	0xbf10eafc	-0.5660856
60	0xbf1e9892	-0.61951554
61	0xbf174910	-0.5909586
62	0xbf1f0702	-0.6212007
63	0x3f1ebe53	0.6200916
64	0x3f1f3d88	0.62203264
65	0x3f161a0a	0.5863348
66	0x3f1ab619	0.6043411
67	0x3f19fff0	0.60156155
68	0x3f11c55c	0.5694177
69	0x3f19a816	0.60022104
70	0x3f1707a6	0.58996046
71	0x3f1914b0	0.5979719
72	0xbf1af7a4	-0.6053412
73	0xbf1c17e9	-0.60973984
74	0xbf139a1f	-0.57657045
75	0xbf1f4788	-0.62218523
76	0xbf130d31	-0.57442003
77	0xbf179ad5	-0.5922063
78	0x3f2866c3	0.657818
79	0x3f25369f	0.6453647
80	0xbf14ce95	-0.5812772
81	0x3f1f2b9c	0.6217592
82	0x3f12b110	0.57301426
83	0x3f1182ca	0.56840193
84	0x3f1fa2b0	0.62357616
85	0x3f1aaf0b	0.60423344
86	0x3f19fb09	0.60148674
87	0x3f15ed06	0.58564794
88	0x3f177815	0.59167606
89	0x3f128a74	0.5724251
90	0xbf153273	-0.58280104
91	0xbf143d2c	-0.5790584
92	0xbf1503cb	-0.5820891
93	0xbf1ecc5a	-0.62030566
94	0xbf17f251	-0.5935412
95	0xbf1d58b3	-0.6146347
96	0xbf1f8527	-0.6231255
97	0xbf14d543	-0.5813791
98	0xbf1e677f	-0.6187667
99	0xbf13df65	-0.5776275
100	0xbf130976	-0.5743631
101	0xbf1eba9a	-0.6200348
102	0xbf13b9df	-0.5770549
103	0xbf1c2f63	-0.61009806
104	0xbf183a56	-0.59464014
105	0xbf13c522	-0.57722676
106	0xbf12e8e0	-0.5738659
107	0xbf187085	-0.5954669
108	0xbf1851f5	-0.59500057
109	0xbf1c3a5b	-0.61026543
110	0xbf20dacd	-0.62833863
111	0xbf161231	-0.5862151
112	0xbf1c9f3c	-0.6118047
113	0xbf14fb2c	-0.5819576
114	0xbf1dc111	-0.6162272
115	0xbf1621e1	-0.58645445
116	0xbf15dab9	-0.5853687
117	0x3f1b8128	0.6074395
118	0x3f1d6953	0.61488837
119	0x3f18641c	0.59527755
120	0x3f16b7a4	0.58873963
121	0x3f1969d7	0.59927124
122	0x3f186e25	0.5954307
123	0x3f1a6837	0.6031527
124	0x3f14adc9	0.58077675
125	0x3f184715	0.5948346
126	0xbf1d32e0	-0.61405754
127	0xbf16dfb5	-0.589351
128	0xbf1c740f	-0.6111459
129	0xbf17ab76	-0.59246004
130	0xbf1d7259	-0.61502606
131	0xbf1a4c8e	-0.60273063
132	0xbf15ffaf	-0.5859327
133	0xbf1d65a9	-0.61483246
134	0xbf1c4ecd	-0.6105774
135	0xbf17c6a2	-0.59287465
136	0xbf1f5d3b	-0.62251633
137	0xbf16cd53	-0.5890705
138	0xbf16ee51	-0.5895739
139	0xbf15c6ba	-0.5850636
140	0xbf195d96	-0.59908426
141	0xbf18a7e3	-0.59631175
142	0xbf12d47a	-0.57355464
143	0xbf17b9a9	-0.5926767
144	0xbf16fd75	-0.58980495
145	0xbf17e590	-0.5933466
146	0xbf168461	-0.58795744
147	0xbf1eea90	-0.62076664
148	0xbf1c4b59	-0.6105247
149	0xbf1f4925	-0.62220985
150	0xbf186fb0	-0.5954542
151	0xbf1c3a94	-0.61026883
152	0xbf12b702	-0.573105
153	0x3f1dbf84	0.61620355
154	0x3f1e8777	0.6192545
155	0x3f1951b2	0.5989028
156	0x3f167ebe	0.58787143
157	0x3f1f71d0	0.6228304
158	0x3f151fce	0.58251655
159	0xbf1777be	-0.5916709
160	0xbf1eb2d2	-0.6199161
161	0xbf0f4414	-0.55963254
162	0xbf1656fb	-0.5872647
163	0xbf14f374	-0.5818398
164	0xbf1c372d	-0.6102169
165	0x3f27a203	0.65481585
166	0xbf14aff8	-0.58081007
167	0x3f188bca	0.595883
168	0x3f180aa2	0.59391224
169	0x3f1b0bdd	0.60564977
170	0x3f1d3568	0.61409616
171	0x3f199d01	0.60005194
172	0x3f15d790	0.5853205
173	0x3f18d48a	0.5969931
174	0x3f1bcbd2	0.6085788
175	0x3f1d5218	0.6145339
176	0x3f1bae65	0.6081298
177	0x3f16d61d	0.5892046
178	0x3f1f8947	0.62318844
179	0x3f14917a	0.5803448
180	0x3f1869d6	0.5953649
181	0x3f1dbf6e	0.61620224
182	0x3f1bf1a6	0.609156
183	0x3f13e6ae	0.57773864
184	0x3f180b0d	0.5939186
185	0x3f1b1983	0.605858
186	0xbf107774	-0.5643227
187	0xbf1b753e	-0.6072577
188	0xbf184e87	-0.59494823
189	0x3f139f89	0.57665306
190	0x3f16a88c	0.5885093
191	0x3f1fed2b	0.62471265
192	0x3f1300a4	0.5742285
193	0x3f16816a	0.5879122
194	0x3f2013d5	0.6253026
195	0x3f1c7357	0.61113495
196	0x3f17d1f1	0.5930472
197	0x3f183d21	0.59468275
198	0x3f1cf5bd	0.61312467
199	0x3f166b16	0.5875715
200	0x3f1df75d	0.6170557
201	0x3f1f7531	0.62288195
202	0x3f1a3d42	0.6024972
203	0x3f12bc1d	0.5731829
204	0x3f1fe4d7	0.62458557
205	0x3f13ab62	0.57683384
206	0x3f14260e	0.57870567
207	0xbf1e1cde	-0.617628
208	0xbf16a0fe	-0.58839405
209	0xbf1bd9b8	-0.6087909
210	0xbf1eb3c8	-0.61993074
211	0xbf1e57c4	-0.6185267
212	0xbf1cb3d4	-0.61211896
213	0xbf357361	-0.7087918
214	0xbf1f9613	-0.6233837
215	0xbf12a7c4	-0.5728724
216	0xbf1b026c	-0.6055057
217	0xbf1572ac	-0.583781
218	0xbf1276da	-0.57212603
219	0xbf1a93ab	-0.60381573
220	0xbf1e0060	-0.6171932
221	0xbf1f3b47	-0.62199825
222	0xbf1aa2b7	-0.60404533
223	0xbf15834b	-0.5840346
224	0xbf192711	-0.59825236
225	0xbf198a7f	-0.59976953
226	0xbf164790	-0.58702946
227	0xbf1e1ad4	-0.61759686
228	0xbf17502a	-0.59106696
229	0xbf15ae73	-0.58469313
230	0xbf159f2b	-0.58445996
231	0xbf1a3f58	-0.60252905
232	0xbf1f65b6	-0.62264574
233	0xbf19380e	-0.5985116
234	0x3f1e7a1c	0.61905074
235	0x3f1382e3	0.5762159
236	0x3f13ec93	0.5778286
237	0x3f160caf	0.58613104
238	0x3f151a93	0.58243674
239	0x3f16c77d	0.58898145
240	0x3f11dfc3	0.5698206
241	0x3f167997	0.5877928
242	0x3f185d7b	0.5951764
243	0xbf13d1d3	-0.5774204
244	0xbf135e35	-0.57565624
245	0xbf1934fe	-0.59846485
246	0xbf12709d	-0.57203084
247	0xbf129fe7	-0.5727524
248	0xbf1e4aba	-0.61832774
249	0xbf1ceb38	-0.61296415
250	0xbf1532f6	-0.58280885
251	0xbf1cabc2	-0.6119958
252	0x3f19600a	0.5991217
253	0x3f19c443	0.60065097
254	0x3f182280	0.5942764
255	0x3f1e8e93	0.619363

module.Conv5.layers.0.bias f4 [64]
0	0xbd8159c9	-0.06315953
1	0xbd29e245	-0.041475553
2	0xbdfb996e	-0.12285124
3	0x3cc05dd1	0.023482235
4	0xbca47cfc	-0.020079128
5	0xbd2f4415	-0.042789537
6	0x3dc41b4c	0.09575519
7	0x3de86fb0	0.11349428
8	0xbd69f0a1	-0.057114247
9	0x3d704302	0.058657654
10	0x3bb2cc28	0.005456466
11	0x3d578718	0.05261907
12	0xbd0b99d8	-0.034082264
13	0xbd91c5c4	-0.07117799
14	0x3d8336dd	0.06406949
15	0xbe08e51e	-0.13368651
16	0xbc872e7e	-0.016501661
17	0xbb979ea8	-0.0046270676
18	0x3d412b33	0.04716034
19	0xbc2342d1	-0.009964661
20	0xbd62e2e4	-0.05539216
21	0x3dab7964	0.08372763
22	0x3e0a62b1	0.1351421
23	0xbde574d6	-0.11203925
24	0xbdb12d56	-0.08651225
25	0x3d8248a5	0.06361512
26	0x3a71a3cf	0.000921783
27	0xbdd33a0c	-0.10313806
28	0xbb05404d	-0.0020332516
29	0x3da4824c	0.08032665
30	0xbc8daf1a	-0.017295409
31	0xbcf20075	-0.029541234
32	0x3c195b81	0.009360195
33	0xbc258546	-0.010102576
34	0xbc104372	-0.008805143
35	0xbc8bdf1a	-0.017074157
36	0x3bea8285	0.0071566724
37	0xbd568da4	-0.052381173
38	0x3e174f29	0.14776291
39	0xbcc1c177	-0.023651822
40	0xbda7879b	-0.081801616
41	0x3bf1b402	0.007376195
42	0x3c00dd0c	0.007865202
43	0x3b4f478e	0.0031628343
44	0x3e11878e	0.14211866
45	0x3e1c4c11	0.15263392
46	0x3d1cff5a	0.03832946
47	0xbda53cab	-0.08068212
48	0x3e084801	0.13308717
49	0xbd5f1f81	-0.054473404
50	0x3d14a9cb	0.03629474
51	0x3c93ace2	0.018026773
52	0x3e29ff30	0.16601253
53	0xbd0d5168	-0.034501463
54	0x3d7c6ef3	0.061629247
55	0x3d5976aa	0.053091682
56	0x3b311890	0.0027022697
57	0x3cae45bc	0.021273486
58	0xbc8b4346	-0.016999852
59	0xbb186a21	-0.0023256617
60	0x3d3bb484	0.04582645
61	0xbc4e2457	-0.012581906
62	0x3d83759c	0.064189166
63	0xbdffce2a	-0.124904945

module.Conv5.layers.1.weight f4 [64]
0	0x3ed900c5	0.423834
1	0x3f5e722c	0.8689296
2	0x3fdb7ae1	1.7146875
3	0x3f300291	0.68753916
4	0x3f5fea4f	0.874669
5	0x3f8ed1b1	1.1157743
6	0x3ed4a921	0.41535285
7	0x3fe4df1e	1.788059
8	0x3f7c5a2b	0.98575085
9	0x3eb014ec	0.34390962
10	0x3f792f1b	0.973375
11	0x3fc2b841	1.521248
12	0x3fc0cbc1	1.5062181
13	0x3fd5474c	1.6662383
14	0x3eef049f	0.46683213
15	0x3f9489a5	1.1604506
16	0x3fec853b	1.8478159
17	0x3fd00d56	1.625407
18	0x3ef274ba	0.4735468
19	0x400b9160	2.180748
20	0x3f30b5c5	0.6902736
21	0x3f198933	0.59974974
22	0xbd47ba69	-0.04876176
23	0x3ffbd285	1.967362
24	0x3fc23a31	1.5174009
25	0x3eddacbe	0.43295854
26	0x3f07248d	0.5279015
27	0x3fc15594	1.5104241
28	0x3f5f7f85	0.87303954
29	0x3f3bb402	0.73321545
30	0x4016d195	2.3565419
31	0x3f90716b	1.1284612
32	0x3ebd30e7	0.36951372
33	0x3ed95592	0.42448097
34	0x3fd09e9a	1.6298401
35	0x3f2fd6d5	0.6868718
36	0x3fc82740	1.5636978
37	0x3fd03c12	1.6268332
38	0x3e8332c3	0.25624666
39	0x3dad7ba6	0.0847085
40	0x3e63b556	0.22237143
41	0x3ef3cc79	0.47616938
42	0x3f6c371c	0.9227159
43	0x3f1c0835	0.6095002
44	0x3ef46cac	0.4773916
45	0x3f020d8e	0.5080193
46	0x3ed1df92	0.40990883
47	0x3ff2e0f1	1.8974897
48	0xbcc281e9	-0.023743587
49	0x3fcb05ba	1.5861123
50	0x3e8bf436	0.27334756
51	0x3e9b949c	0.30386817
52	0x3efedd29	0.49778107
53	0x3f2d2bcf	0.6764497
54	0x3ef48912	0.47760826
55	0x3ecf6de2	0.4051352
56	0x3fd8bebf	1.6933211
57	0x3f48c91e	0.7843188
58	0x3f6b3d99	0.91890866
59	0x3f160869	0.5860658
60	0x3fe0e235	1.7569033
61	0x3f8fd3dc	1.1236529
62	0x3ef7dff7	0.4841306
63	0x3fc76eb5	1.558066

module.Conv5.layers.1.bias f4 [64]
0	0xbf2a62c6	-0.66556966
1	0xbe21ca92	-0.1579993
2	0x3f1d7989	0.6151357
3	0x3e759c0f	0.23985313
4	0x3e7a532a	0.24445787
5	0x3f88dfa9	1.0693256
6	0xbefbcf37	-0.4918153
7	0x3ed00a79	0.4063299
8	0xbdc9718b	-0.0983611
9	0xbf056a48	-0.521153
10	0xbe225cca	-0.15855709
11	0x3e7719b6	0.24130902
12	0x3f7813e7	0.9690537
13	0x3f2fcdf3	0.6867363
14	0xbeb8c0ff	-0.36084744
15	0x3e93fbd6	0.28903073
16	0x3f5177f0	0.81823635
17	0x3e548564	0.2075401
18	0xbefdb046	-0.49548548
19	0xc0089899	-2.1343138
20	0xbec84315	-0.3911368
21	0xbeb7fea7	-0.35936472
22	0xbf7fc5fa	-0.99911463
23	0x3f2d5dcf	0.67721266
24	0x3ecaf4a4	0.3963977
25	0xbedd3a9a	-0.43208772
26	0xbecbdca5	-0.39816776
27	0x3ebd8f01	0.37023166
28	0x4048beed	3.1366532
29	0xbe958142	-0.29200178
30	0x3eb1b50f	0.3470845
31	0x3f2a981d	0.66638356
32	0xbf04a889	-0.51819664
33	0xbf00ea3c	-0.50357413
34	0x3eadbcb8	0.33933043
35	0xbe87cf38	-0.26525283
36	0x3f0e114b	0.55495137
37	0xbe0427f5	-0.12905867
38	0xbedde44d	-0.43338242
39	0xbf99df98	-1.202136
40	0xbf8112a1	-1.008381
41	0xbebee27d	-0.37282172
42	0xbeba9178	-0.3643911
43	0xbed6d947	-0.41962644
44	0xbf12e56e	-0.5738133
45	0xbee55237	-0.44789287
46	0xbf1202be	-0.57035434
47	0xc01d6054	-2.4590044
48	0x3f018467	0.50592655
49	0x3f027ac3	0.5096857
50	0x3ecad5e3	0.39616308
51	0xbf173d5d	-0.5907801
52	0xbeb62ded	-0.35581914
53	0x3f868c63	1.0511593
54	0xbf19ef74	-0.60131
55	0xbf119f2d	-0.5688351
56	0x3f1762eb	0.5913531
57	0x3f4d4c0a	0.8019415
58	0x3f97d2c5	1.1861197
59	0xbeb7997f	-0.35859296
60	0x3f72684c	0.94690394
61	0xbf7cf6ba	-0.98813975
62	0xbe90f735	-0.28313604
63	0x3f00cae5	0.5030959

module.Conv5.layers.1.running_mean f4 [64]
0	0xc2ad42cc	-86.63046
1	0xc2c16079	-96.68842
2	0xc0c5fe82	-6.187318
3	0x428d6c38	70.711365
4	0x426809f1	58.00971
5	0x42a396e3	81.7947
6	0x42a75d5a	83.68233
7	0xc200c2e5	-32.190327
8	0x4257fe16	53.99813
9	0x4220ff6a	40.249428
10	0xc2ab6a45	-85.70756
11	0xc2a30bc1	-81.52296
12	0x40f07648	7.5144386
13	0xc2ce56ef	-103.16979
14	0xc29c3e8b	-78.122154
15	0xc298bb9c	-76.366425
16	0xc2a6052a	-83.010086
17	0xc2989898	-76.298035
18	0x42a9681d	84.70335
19	0xc2cffc29	-103.9925
20	0x42abdeb5	85.934975
21	0x42b13245	88.59818
22	0xc29a1c8e	-77.05577
23	0x42425139	48.57932
24	0x428b7391	69.725716
25	0xc284fd29	-66.49445
26	0xc27907fb	-62.257793
27	0x428bbae4	69.86502
28	0x4281c0ba	64.87642
29	0xc2931875	-73.54777
30	0x423ccc8f	47.199764
31	0xc06c782b	-3.6948345
32	0x420d318a	35.298378
33	0xc2785139	-62.07932
34	0x42658651	57.38117
35	0x4222332d	40.549976
36	0xc2912516	-72.57243
37	0xc2bfbb21	-95.865486
38	0xc2753a0e	-61.306694
39	0x420ff9de	35.99401
40	0x42a86432	84.195694
41	0xc2825242	-65.16066
42	0x42e1c6c7	112.88824
43	0xc29d1226	-78.535446
44	0x42b615d8	91.04266
45	0xc2806cef	-64.21276
46	0x42916828	72.70343
47	0xc29c40fd	-78.12693
48	0x4280acdc	64.337616
49	0xc288ba17	-68.36346
50	0x4279cd41	62.450443
51	0xc2774c08	-61.82425
52	0x42a98a7c	84.77048
53	0x41fdb8ca	31.715229
54	0x42b7ea2e	91.95738
55	0x42e4a9bb	114.331505
56	0xc2954d0d	-74.65049
57	0x429137a5	72.60868
58	0x429615cb	75.042564
59	0xc1ad7b3d	-21.685175
60	0x4293840c	73.757904
61	0x42659e09	57.40433
62	0x42c2d104	97.40823
63	0x427f8aa0	63.885376

module.Conv5.layers.1.running_var f4 [64]
0	0x43310523	177.02007
1	0x447ef029	1019.7525
2	0x44073a62	540.91223
3	0x44268768	666.1157
4	0x44271cb9	668.4488
5	0x44503cff	832.95306
6	0x43e9909e	467.12982
7	0x4407b124	542.7678
8	0x440d1f3a	564.4879
9	0x447f1b50	1020.42676
10	0x4452f884	843.88306
11	0x4325fa3e	165.97751
12	0x453c2232	3010.1372
13	0x43c681ba	397.0135
14	0x4301a278	129.63464
15	0x43ec5f78	472.74585
16	0x43d84910	432.5708
17	0x44417935	773.89386
18	0x435325b0	211.14722
19	0x439821e8	304.2649
20	0x445930ef	868.7646
21	0x4339fbf2	185.98416
22	0x449d4bb7	1258.3661
23	0x444b61c5	813.52765
24	0x4476be66	986.975
25	0x4302f659	130.9623
26	0x430a43e3	138.26518
27	0x44ac89d3	1380.307
28	0x43f28474	485.0348
29	0x44178a87	606.1645
30	0x4411a650	582.59863
31	0x448a52e8	1106.5908
32	0x4414980e	594.37585
33	0x432cf19d	172.9438
34	0x437aee80	250.93164
35	0x42cf65b2	103.69862
36	0x430a90df	138.5659
37	0x43509e7c	208.61908
38	0x4467b183	926.7736
39	0x4440b631	770.84674
40	0x43edb6c9	475.428
41	0x438d72e7	282.89767
42	0x44a53df5	1321.9362
43	0x433dfb89	189.98256
44	0x43a00862	320.0655
45	0x4417a5c1	606.5899
46	0x439e8993	317.0748
47	0x43324e6d	178.30635
48	0x438591a9	267.13797
49	0x43260448	166.01672
50	0x42f4426b	122.12972
51	0x443c967e	754.35144
52	0x430f6726	143.40292
53	0x44046f60	529.74023
54	0x4356663f	214.3994
55	0x44599817	870.3764
56	0x44112a16	580.6576
57	0x43f69cff	493.22653
58	0x43a1a1a2	323.26276
59	0x44d2a446	1685.1335
60	0x4405e2cd	535.54376
61	0x44302228	704.5337
62	0x4429a42a	678.56506
63	0x434903a1	201.01418

module.Conv6.layers.0.weight f4 [64, 128, 3, 3]
0	0x3f168d5e	0.5880946
1	0x3f19df7d	0.6010664
2	0x3f12bb9b	0.57317513
3	0x3f15f3fa	0.58575404
4	0x3f1a9955	0.60390216
5	0x3f1a61a5	0.60305244
6	0x3f124643	0.5713846
7	0x3f1c3b90	0.61028385
8	0x3f20882b	0.62707776
9	0x3f169a28	0.58828974
10	0x3f148bf4	0.5802605
11	0x3f147b98	0.5800109
12	0x3f1e601e	0.61865413
13	0x3f1c9e58	0.61179113
14	0x3f1d14a4	0.6135962
15	0x3f120ddf	0.57052416
16	0x3f133a9c	0.57511306
17	0x3f130d5d	0.57442266
18	0xbf138245	-0.5762065
19	0xbf1b91ee	-0.60769546
20	0xbf1e8d81	-0.6193467
21	0xbf1792ae	-0.5920819
22	0xbf1b4d81	-0.60665137
23	0xbf12ce66	-0.5734619
24	0xbf14269a	-0.578714
25	0xbf13048d	-0.5742882
26	0xbf1b67a0	-0.60704994
27	0x3f147d7c	0.58003974
28	0x3f1d6592	0.6148311
29	0x3f1c53ae	0.61065185
30	0x3f1919a1	0.5980473
31	0x3f115005	0.56762725
32	0x3f1b81cf	0.6074495
33	0x3f194b1a	0.5988022
34	0x3f1a93db	0.6038186
35	0x3f1183a9	0.5684152
36	0x3f14bb4c	0.5809829
37	0x3f195b20	0.5990467
38	0x3f116383	0.5679247
39	0x3f118ab8	0.56852293
40	0x3f1941aa	0.5986582
41	0x3f15a82f	0.5845975
42	0x3f15c1fd	0.5849913
43	0x3f189a11	0.59610087
44	0x3f12d93a	0.5736271
45	0x3f1487f9	0.5801998
46	0x3f1ca07f	0.611824
47	0x3f1f4029	0.62207276
48	0x3f170606	0.58993566
49	0x3f1a6ca2	0.6032201
50	0x3f14bec9	0.58103615
51	0x3f199263	0.59988993
52	0x3f1c8818	0.6114516
53	0x3f1f25a3	0.62166804
54	0x3f1edfe3	0.62060374
55	0x3f1fe46f	0.62457937
56	0x3f1b836f	0.60747427
57	0x3f120140	0.5703316
58	0x3f1e3591	0.61800486
59	0x3f12a8ca	0.572888
60	0x3f188363	0.5957548
61	0x3f192af0	0.5983114
62	0x3f19ce23	0.60080165
63	0xbf19314c	-0.59840846
64	0xbf10b372	-0.5652381
65	0xbf18192e	-0.5941342
66	0xbf1ef81e	-0.62097347
67	0xbf14484e	-0.5792283
68	0xbf1a7052	-0.6032764
69	0xbf1d24a9	-0.61384064
70	0xbf140516	-0.5782026
71	0xbf1df596	-0.6170286
72	0xbf143716	-0.57896554
73	0xbf1704bc	-0.589916
74	0xbf1bfc6d	-0.60932046
75	0xbf1be8eb	-0.6090228
76	0xbf157c0c	-0.58392406
77	0xbf1d722e	-0.6150235
78	0xbf1e36fc	-0.6180265
79	0xbf19fb95	-0.6014951
80	0xbf11e155	-0.56984454
81	0x3f17613f	0.5913276
82	0x3f1e0ec8	0.61741304
83	0x3f1f795d	0.6229456
84	0x3f1770ef	0.591567
85	0x3f140b05	0.57829314
86	0x3f160d31	0.5861388
87	0x3f1a7759	0.6033836
88	0x3f114f95	0.5676206
89	0x3f1a0752	0.6016742
90	0x3f2054da	0.62629473
91	0x3f20494d	0.6261185
92	0x3f26a19d	0.6509035
93	0x3f141d0e	0.57856834
94	0x3f1e9416	0.6194471
95	0x3f16810f	0.5879068
96	0x3f1aaef7	0.60423225
97	0x3f17139a	0.59014285
98	0x3f153b2a	0.582934
99	0x3f1ea97d	0.6197737
100	0x3f143b71	0.579032
101	0x3f1d8259	0.6152702
102	0x3f1a4868	0.60266733
103	0x3f16357a	0.5867535
104	0x3f158c3c	0.58417106
105	0x3f181ec0	0.5942192
106	0x3f1a17ac	0.6019237
107	0x3f144be0	0.57928276
108	0x3f16c283	0.5889055
109	0x3f1a6529	0.6031061
110	0x3f1ce11f	0.6128101
111	0x3f153661	0.582861
112	0x3f1abf3d	0.60448056
113	0x3f1426a1	0.57871443
114	0x3f1c2bb3	0.6100418
115	0x3f1f52d3	0.62235755
116	0x3f1b4f50	0.60667896
117	0x3f1166d1	0.5679751
118	0x3f126788	0.57189226
119	0x3f201b37	0.62541527
120	0x3f1953ab	0.5989329
121	0x3f169669	0.5882326
122	0x3f118ae2	0.56852543
123	0x3f1dedea	0.61691153
124	0x3f1f6c82	0.62274945
125	0x3f124e3a	0.57150614
126	0xbf19de9a	-0.6010529
127	0xbf12024a	-0.5703474
128	0xbf1c0ec9	-0.6096006
129	0x3f39a2f7	0.7251429
130	0xbf1c6ed4	-0.6110661
131	0xbf17674d	-0.59142
132	0x3f1dadff	0.6159362
133	0x3f1dc221	0.6162434
134	0xbf19899c	-0.599756
135	0xbf12ae03	-0.5729677
136	0xbf134da7	-0.57540363
137	0xbf0b4ea0	-0.5441685
138	0xbf115d42	-0.56782925
139	0xbf169d59	-0.58833843
140	0xbf15f3a5	-0.585749
141	0xbf19153c	-0.59798026
142	0xbf1d7672	-0.6150886
143	0xbf199685	-0.599953
144	0x3f1912db	0.59794396
145	0x3f1b494a	0.60658705
146	0x3f19e6b8	0.60117674
147	0x3f165d99	0.5873657
148	0x3f1e0ceb	0.6173846
149	0x3f1303df	0.5742778
150	0x3f148795	0.5801938
151	0x3f18f26b	0.597449
152	0x3f163f43	0.5869028
153	0x3f15300c	0.5827644
154	0x3f19650b	0.59919804
155	0x3f1cb96f	0.6122045
156	0x3f1f7b8f	0.6229791
157	0x3f19c70d	0.6006935
158	0x3f11aa06	0.5690006
159	0x3f160abf	0.5861015
160	0x3f1636de	0.5867747
161	0x3f1ce46d	0.6128605
162	0x3f19fd8a	0.60152495
163	0x3f15dbb8	0.5853839
164	0x3f157da1	0.5839482
165	0x3f16eb73	0.58953017
166	0x3f175229	0.5910974
167	0x3f189fe4	0.59618974
168	0x3f15f81b	0.58581704
169	0x3f14d59e	0.58138454
170	0x3f183217	0.5945143
171	0x3f1e47c7	0.61828274
172	0x3f138ece	0.5763978
173	0x3f196154	0.59914136
174	0x3f167b7f	0.5878219
175	0x3f156514	0.5835736
176	0x3f1dace2	0.61591923
177	0x3f1bf87a	0.6092602
178	0x3f1717da	0.5902077
179	0x3f1be7ed	0.60900766
180	0xbf1cd786	-0.6126636
181	0xbf1ea9de	-0.61977947
182	0xbf134106	-0.5752109
183	0xbf1c8d0f	-0.6115274
184	0xbf1cdc27	-0.61273426
185	0xbf1d1855	-0.6136525
186	0xbf1e9f9f	-0.6196231
187	0xbf15714f	-0.5837602
188	0xbf152bde	-0.5827006
189	0x3f1a26f1	0.6021567
190	0x3f11909e	0.56861293
191	0x3f123562	0.57112706
192	0x3f1cf96d	0.61318094
193	0x3f170868	0.589972
194	0x3f19d4eb	0.6009051
195	0x3f1fc1f0	0.624053
196	0x3f14a306	0.58061254
197	0x3f1dafeb	0.61596555
198	0x3f19c25e	0.60062206
199	0x3f208039	0.6269565
200	0xbf12cc3d	-0.5734289
201	0x3f1c4be0	0.61053276
202	0x3f203079	0.62573963
203	0x3f170d43	0.5900461
204	0x3f121a3c	0.5707128
205	0x3f178d54	0.59200025
206	0x3f13d2ef	0.57743734
207	0xbf15ae3c	-0.58468986
208	0xbf133001	-0.57495123
209	0xbf10e0d2	-0.5659305
210	0xbf1b2d7b	-0.6061627
211	0xbf1bfa6c	-0.6092899
212	0xbf1e200c	-0.6176765
213	0xbf1f1bb8	-0.6215167
214	0xbf114afe	-0.56755054
215	0xbf15aa4f	-0.58462995
216	0xbf153495	-0.5828336
217	0xbf14f33a	-0.58183634
218	0xbf2017a9	-0.625361
219	0xbf1c9a45	-0.61172897
220	0xbf149128	-0.5803399
221	0xbf1cc22e	-0.61233795
222	0xbf199008	-0.599854
223	0xbf1d88f2	-0.61537087
224	0xbf1ed307	-0.6204075
225	0xbf1d0f4e	-0.6135148
226	0xbf1f4123	-0.62208766
227	0xbf192fef	-0.59838766
228	0xbf16522e	-0.58719146
229	0xbf14cae2	-0.58122075
230	0xbf180f20	-0.5939808
231	0xbf1d93cd	-0.6155365
232	0xbf11f4ac	-0.57013965
233	0xbf1c698b	-0.61098546
234	0x3f19e080	0.60108185
235	0x3f19c9a8	0.6007333
236	0x3f1fce31	0.62424
237	0x3f15c098	0.58497
238	0x3f1b8e32	0.6076385
239	0x3f18f1e3	0.5974409
240	0x3f1c086e	0.6095036
241	0x3f1fa386	0.6235889
242	0x3f119eed	0.56883126
243	0xbf138972	-0.576316
244	0xbf1808a0	-0.5938816
245	0xbf1d88f5	-0.61537105
246	0xbf1c3e3e	-0.61032474
247	0xbf1f3e53	-0.62204474
248	0xbf18c9ea	-0.59683096
249	0xbf1f3c63	-0.6220152
250	0xbf1f7a49	-0.6229597
251	0xbf1861c1	-0.5952416
252	0x3f15afba	0.5847126
253	0x3f14cd9a	0.58126223
254	0x3f195560	0.59895897
255	0x3f201c16	0.62542856

module.Conv6.layers.0.bias f4 [64]
0	0x3d499df7	0.049222913
1	0xbd96efdb	-0.073699676
2	0xbd1668ee	-0.036721162
3	0x3d436415	0.047702868
4	0x3c737a9e	0.014860777
5	0xbd874d0c	-0.066064924
6	0x3cdd44c0	0.027010322
7	0xbdc1b610	-0.09458554
8	0x3d40461e	0.04694187
9	0x3cb0cac3	0.02158106
10	0xbd616c81	-0.055035118
11	0x3db8059b	0.08985444
12	0xbea3ae77	-0.31969044
13	0x3c75b5f6	0.014996996
14	0x3bcd48b4	0.0062647704
15	0xbdebe356	-0.1151797
16	0xbd7e7375	-0.062121827
17	0xbdf29474	-0.118447214
18	0xbe08070b	-0.13283937
19	0x3de8433b	0.11340948
20	0x3df9532f	0.12174069
21	0x3db86935	0.09004442
22	0xbd483f4a	-0.048888482
23	0xbde65c46	-0.112480685
24	0x3e3e242c	0.18568486
25	0x3e161e70	0.14660048
26	0x3cd3960f	0.02582839
27	0x3c9fc333	0.019502258
28	0x3db99b1d	0.09062789
29	0xbd5423cb	-0.051791947
30	0x3d126d4d	0.03574877
31	0x3ce08fa4	0.027412243
32	0x3c6d52a6	0.014485037
33	0xbc138788	-0.009004481
34	0x3d62e582	0.055394657
35	0x3d44fc2d	0.048092056
36	0xbb8a6efb	-0.0042246557
37	0x3dcc07fb	0.0996246
38	0x3ddbacb2	0.107262984
39	0x3e8f8a81	0.28035358
40	0x3d1d08ba	0.0383384
41	0xbcf603b5	-0.030031065
42	0x3d86be52	0.065792695
43	0xbcfe883f	-0.031070827
44	0xbdb3a4a1	-0.08771635
45	0x3d19c3f8	0.037540406
46	0xbe3ef48c	-0.18647975
47	0x3d7a20c7	0.061066415
48	0x3d5dafbc	0.05412267
49	0x3caf728f	0.02141693
50	0xbc7f9f80	-0.015601993
51	0xbcb93563	-0.022608465
52	0xbd45c392	-0.048282214
53	0xbe11026e	-0.14161083
54	0x3d3afa9c	0.045649156
55	0x3e7dca50	0.24784207
56	0xbda67526	-0.08127813
57	0x3d7abd39	0.061215613
58	0x3de30057	0.11084049
59	0x3d640a57	0.055673923
60	0x3e50fff9	0.20410146
61	0x3e254193	0.16138296
62	0xbe2c9fba	-0.16857806
63	0xbcc40cf6	-0.023931962

module.Conv6.layers.1.weight f4 [64]
0	0x3ee884e9	0.45413902
1	0x3ed268eb	0.4109567
2	0x3fc349f6	1.5256946
3	0x3fc60efa	1.547332
4	0x3fbaa1ad	1.458059
5	0x3fc95d1a	1.5731537
6	0x3fc2d92e	1.5222528
7	0x3fcc3b75	1.5955645
8	0x3fc6ff7c	1.5546718
9	0x3f10339c	0.5632875
10	0x3f93085c	1.1486926
11	0x3ed83f61	0.42235854
12	0x3ed60a8f	0.4180493
13	0x3fbffab3	1.4998382
14	0x3f8fb552	1.122721
15	0x3ee68018	0.45019603
16	0x3fa95f9d	1.3232304
17	0x3ef80f71	0.4844928
18	0x3fc86ac8	1.5657587
19	0x3fc1a404	1.5128179
20	0x3efda63e	0.49540895
21	0x3fc8fa1d	1.5701329
22	0x3ee4dd05	0.44699875
23	0x3fc530f2	1.5405562
24	0x3ed4a539	0.41532305
25	0x3fc8c68c	1.5685592
26	0x3fcb3994	1.5876946
27	0x3f1a77ca	0.60339034
28	0x3ef52842	0.47882277
29	0x3ee491ef	0.44642588
30	0x3fc2d240	1.5220413
31	0x3fbff382	1.4996188
32	0x3fa888b6	1.3166721
33	0x3f8249e3	1.0178798
34	0x3ee3cdd7	0.4449298
35	0x3fbe2a3d	1.485664
36	0x3f106cfe	0.5641631
37	0x3fc78e90	1.5590382
38	0x3ebd01a4	0.36915314
39	0x3fcc3339	1.5953132
40	0x3f02d5f8	0.5110774
41	0x3ef63912	0.48090416
42	0x3ed544db	0.41654095
43	0x3fb98f07	1.4496773
44	0x3fcced33	1.6009887
45	0x40266900	2.6001587
46	0x3fcb56d0	1.5885868
47	0x3ebb12f6	0.36537904
48	0x3edcf50c	0.43155706
49	0x3eee3dba	0.4653147
50	0x3f183cb2	0.59467614
51	0x3fc80266	1.5625732
52	0x3fc7cecb	1.5609983
53	0x3fc17c66	1.5116088
54	0x3f04cd30	0.5187559
55	0x3fcab038	1.5835028
56	0x3f11b5a0	0.5691776
57	0x3effcb27	0.4995968
58	0x3ee99c70	0.45627165
59	0x3eb42a1b	0.35188374
60	0x3edddcd5	0.43332544
61	0x3edccdc5	0.4312574
62	0x3fc8a4a9	1.567525
63	0x3fbdc988	1.4827127

module.Conv6.layers.1.bias f4 [64]
0	0xbf079bfc	-0.5297239
1	0xbf139643	-0.57651156
2	0x3f063d90	0.52437687
3	0x3f13a3de	0.57671916
4	0x3f12dd6f	0.5736913
5	0x3f0d21c8	0.5512967
6	0xbed140d8	-0.40869784
7	0x3e95fcf0	0.29294538
8	0xbf61742a	-0.8806788
9	0xbeb8161b	-0.35954365
10	0x3ddbaa22	0.1072581
11	0xbf14a64d	-0.58066255
12	0xbf08547e	-0.53253925
13	0x3f148453	0.5801441
14	0x3dc97f39	0.09838719
15	0xbf0df9e7	-0.55459446
16	0x3f0498d5	0.51795703
17	0xbedf318e	-0.43592495
18	0x3f13da6b	0.57755154
19	0x3f1211f7	0.5705866
20	0xbf0bfb58	-0.54680395
21	0x3f0598e1	0.521864
22	0xbf0f46cf	-0.5596742
23	0x3f0c30d8	0.5476203
24	0xbf13cf9a	-0.5773865
25	0x3f0b2db0	0.5436659
26	0x3ebd81b5	0.3701302
27	0xbea2f2cd	-0.31825867
28	0xbf06e07c	-0.52686286
29	0xbf0ddb6f	-0.55412954
30	0x3f126ce8	0.5719743
31	0x3f0667b1	0.5250197
32	0xbf889c9f	-1.0672797
33	0xbef11999	-0.47089842
34	0xbf066231	-0.5249358
35	0x3f08d977	0.53456825
36	0xbea70475	-0.32620588
37	0x3efcd31c	0.49379814
38	0xbf102a8e	-0.56314933
39	0x3ed137e0	0.40862942
40	0xbed406e1	-0.41411498
41	0xbef801eb	-0.48438963
42	0xbf2a7e1e	-0.6659869
43	0x3eec19a1	0.46113303
44	0x3f03be25	0.5146201
45	0x3f4aca49	0.7921491
46	0x3f0fb7e3	0.56139964
47	0xbdd393cf	-0.103309266
48	0xbf112da7	-0.56710285
49	0xbf0285c6	-0.5098537
50	0xbeec56bc	-0.46159923
51	0x3f10a0eb	0.5649554
52	0x3f137d72	0.5761329
53	0x3f124600	0.5713806
54	0xbf0020c1	-0.5004998
55	0x3f0a14e3	0.5393812
56	0xbebec64a	-0.37260658
57	0xbed3a498	-0.41336513
58	0xbf0edee7	-0.5580887
59	0xbf48d6cc	-0.78452754
60	0xbf0f60f2	-0.560073
61	0xbf0da5a5	-0.5533088
62	0x3f14e1c4	0.5815699
63	0x3e9f23ff	0.3108215

module.Conv6.layers.1.running_mean f4 [64]
0	0x42dbed88	109.96393
1	0xc2baba0a	-93.36336
2	0x42f75559	123.666695
3	0xc2d04a80	-104.14551
4	0xc2d4cf6c	-106.40512
5	0x4308907c	136.56439
6	0x42b83ffe	92.124985
7	0x42b6e36e	91.4442
8	0x42a844f2	84.13466
9	0x4294c73b	74.38912
10	0x430bad7d	139.67769
11	0x42ba006e	93.00084
12	0xc2a2d902	-81.42384
13	0xc2b22ab7	-89.08343
14	0x42fa8f09	125.279366
15	0x42cdbb03	102.86526
16	0xc2d25f58	-105.18622
17	0x42d3c3a4	105.88211
18	0xc23a40fe	-46.56347
19	0xc2bd9384	-94.78812
20	0x42cc1028	102.031555
21	0x42ee86c8	119.263245
22	0x42b84a44	92.14505
23	0xc21e09b4	-39.509476
24	0xc3237099	-163.43983
25	0x42fc1788	126.04596
26	0x42c0e560	96.448
27	0xc3012d8b	-129.1779
28	0x42caa253	101.31704
29	0x42e22555	113.072914
30	0xc2a67197	-83.221855
31	0xc2cdf711	-102.98255
32	0x42a15158	80.658875
33	0x42f29136	121.283615
34	0x42998961	76.76832
35	0xc2c5fd38	-98.99457
36	0xc2ed5d3e	-118.68211
37	0x42fa4023	125.12527
38	0x42c3eae4	97.95877
39	0x42b5268a	90.57527
40	0x42e9a52d	116.82261
41	0x42f575fd	122.730446
42	0xc2e6553f	-115.1665
43	0xc2ede8db	-118.954796
44	0x42cf4fba	103.655716
45	0xc165b75c	-14.357265
46	0x42fbdd8f	125.93273
47	0xc2ca34f0	-101.10339
48	0x42b7d00f	91.906364
49	0xc30eae3b	-142.68059
50	0x41a578a0	20.683899
51	0xc3387762	-184.46634
52	0xc30318bc	-131.09662
53	0xc2b37b28	-89.74054
54	0xc2efbc37	-119.86761
55	0x42bb37c7	93.60894
56	0xc3044e66	-132.30624
57	0x42d3a702	105.82619
58	0x42a32afe	81.58397
59	0x42f03b5f	120.11596
60	0x42affd3e	87.99461
61	0xc3141883	-148.09575
62	0xc2be44fc	-95.134735
63	0xc2e564bb	-114.69674

module.Conv6.layers.1.running_var f4 [64]
0	0x45ee3d55	7623.6665
1	0x45b226bc	5700.842
2	0x4611ee14	9339.52
3	0x45cdc328	6584.3945
4	0x45d8573d	6922.905
5	0x45f108ba	7713.091
6	0x45c6a597	6356.6987
7	0x45ad6172	5548.1807
8	0x459fdc48	5115.535
9	0x45eaa97f	7509.187
10	0x4629c08d	10864.138
11	0x45ba7308	5966.379
12	0x45866397	4300.4487
13	0x45a9a201	5428.2505
14	0x46183ef7	9743.741
15	0x45ebece6	7549.6123
16	0x45ced148	6618.16
17	0x45e09b03	7187.3765
18	0x456548bf	3668.5466
19	0x45a5eb2f	5309.398
20	0x45c5dca5	6331.5806
21	0x45d6b0dd	6870.108
22	0x45b44a26	5769.2686
23	0x4590bcad	4631.5845
24	0x464c58cc	13078.199
25	0x461a8c0d	9891.013
26	0x45bbfb17	6015.386
27	0x46225a51	10390.579
28	0x45dfa3dd	7156.483
29	0x4605e62f	8569.546
30	0x45b2bc8b	5719.568
31	0x45d53d3c	6823.6543
32	0x45affa83	5631.314
33	0x46063b48	8590.82
34	0x458f50da	4586.1064
35	0x45a379ef	5231.2417
36	0x45ef6e48	7661.785
37	0x4611bf9b	9327.901
38	0x45e3766e	7278.8037
39	0x45a3f1f9	5246.2466
40	0x46061609	8581.509
41	0x45d70bd5	6881.479
42	0x4586d37d	4314.436
43	0x46094f1d	8787.778
44	0x45c59885	6323.065
45	0x448f703a	1147.5071
46	0x45f755aa	7914.708
47	0x453e13dc	3041.2412
48	0x45d85fc9	6923.973
49	0x45d551c1	6826.219
50	0x43d4efda	425.87384
51	0x46281679	10757.618
52	0x460cc5a8	9009.414
53	0x45bc0d28	6017.6445
54	0x46063d55	8591.333
55	0x45bc7b5b	6031.4194
56	0x4618e9c6	9786.443
57	0x45cda6f0	6580.867
58	0x45c3dd6f	6267.679
59	0x45fc5b86	8075.4404
60	0x45b14211	5672.2583
61	0x461b6d7e	9947.373
62	0x45e5fff9	7359.9966
63	0x45f52b1f	7845.39

module.Conv7.layers.1.weight f4 [1, 128, 3, 3]
0	0xbf1551dc	-0.5832803
1	0xbf177b53	-0.5917255
2	0xbf127b5e	-0.57219493
3	0xbf155f09	-0.5834814
4	0xbf14e216	-0.5815748
5	0xbf16b30c	-0.58866954
6	0xbf23ab85	-0.63933593
7	0xbf191e29	-0.59811646
8	0xbf1cf620	-0.61313057
9	0x3f14d7f5	0.58142024
10	0x3f186b70	0.59538937
11	0x3f156d91	0.5837031
12	0x3f173cac	0.5907695
13	0x3f14653d	0.5796698
14	0x3f15768c	0.58384013
15	0x3f191d07	0.5980992
16	0x3f16b6c5	0.58872634
17	0x3f1220c5	0.5708125
18	0x3f195c76	0.5990671
19	0x3f1d4092	0.6142665
20	0x3f18a554	0.5962727
21	0x3f13b4ce	0.5769776
22	0x3f1b50f7	0.6067042
23	0x3f1590b5	0.5842393
24	0x3f1dbf41	0.61619955
25	0x3f1cd090	0.6125574
26	0x3f173fb8	0.590816
27	0xbf191943	-0.5980417
28	0xbf1d1d9a	-0.61373293
29	0xbf1c4b28	-0.6105218
30	0xbf1f16fd	-0.6214445
31	0xbf1834b0	-0.59455395
32	0xbf199110	-0.5998697
33	0xbf17f6d0	-0.5936098
34	0xbf13f1a7	-0.5779061
35	0xbf1ac9bd	-0.6046408
36	0xbf1c87c5	-0.6114467
37	0xbf1dce96	-0.6164335
38	0xbf10b052	-0.56519043
39	0xbf1a0f0f	-0.6017923
40	0xbf195043	-0.59888095
41	0xbf0fe2fd	-0.5620573
42	0xbf13172a	-0.5745722
43	0xbf1ec083	-0.620125
44	0xbf19b7ce	-0.6004609
45	0x3f1ef867	0.6209778
46	0x3f1f393f	0.62196726
47	0x3f1f56f1	0.6224204
48	0x3f1a7130	0.6032896
49	0x3f1f02b5	0.62113506
50	0x3f1544a7	0.5830788
51	0x3f1a8913	0.6036541
52	0x3f11ddc0	0.5697899
53	0x3f1acb08	0.6046605
54	0x3f19307c	0.59839606
55	0x3f16478d	0.5870293
56	0x3f1b3fca	0.6064421
57	0x3f1d56ab	0.6146037
58	0x3f122bb4	0.57097936
59	0x3f1cb8f1	0.612197
60	0x3f18919d	0.5959719
61	0x3f1cc93f	0.6124458
62	0x3f11dfe3	0.5698225
63	0x3f1cfc39	0.6132236
64	0x3f130960	0.5743618
65	0x3f121a76	0.57071626
66	0x3f17a3ea	0.5923449
67	0x3f1fb303	0.62382525
68	0x3f1e5f39	0.6186405
69	0x3f15d25c	0.5852411
70	0x3f1a7dcc	0.603482
71	0x3f1eef4c	0.6208389
72	0x3f135cd8	0.57563543
73	0x3f1b3ec0	0.60642624
74	0x3f1a09a2	0.6017095
75	0x3f1f4b28	0.62224054
76	0x3f135840	0.57556534
77	0x3f1bb0f6	0.60816896
78	0x3f1810ea	0.5940081
79	0x3f18d33b	0.5969731
80	0x3f1ded47	0.6169018
81	0xbf206156	-0.6264852
82	0xbf14ed3a	-0.5817448
83	0xbf122d18	-0.5710006
84	0xbf193b6c	-0.59856296
85	0xbf1be831	-0.6090117
86	0xbf165ddc	-0.5873697
87	0xbf1abd8b	-0.6044547
88	0xbf18400d	-0.59472734
89	0xbf1a08a8	-0.6016946
90	0x3f173964	0.59071946
91	0x3f17ab01	0.59245306
92	0x3f131050	0.57446766
93	0x3f1c1f42	0.60985196
94	0x3f1a1a6d	0.6019657
95	0x3f1ec1cd	0.62014467
96	0x3f1725f9	0.59042317
97	0x3f1b09d2	0.6056186
98	0x3f1329e8	0.5748582
99	0xbf144ac9	-0.57926613
100	0xbf1646fa	-0.5870205
101	0xbf1f0584	-0.6211779
102	0xbf132e0f	-0.57492155
103	0xbf1526d7	-0.5826239
104	0xbf11f72f	-0.570178
105	0xbf150d0a	-0.5822302
106	0xbf1cd302	-0.6125947
107	0xbf1795b3	-0.592128
108	0x3f13b6d7	0.57700866
109	0x3f15b899	0.584848
110	0x3f15d53b	0.5852849
111	0x3f12921b	0.5725419
112	0x3f135672	0.5755378
113	0x3f13f769	0.5779939
114	0x3f1b4165	0.6064666
115	0x3f1742ae	0.5908612
116	0x3f1cac75	0.6120065
117	0xbf15ad0b	-0.5846717
118	0xbf159888	-0.5843587
119	0xbf170be6	-0.5900253
120	0xbf18e4b8	-0.59724
121	0xbf1ace54	-0.6047108
122	0xbf1cfbe2	-0.6132184
123	0xbf190f3f	-0.5978889
124	0xbf1eaa4f	-0.6197862
125	0xbf1930bf	-0.59840006
126	0x3f16a01c	0.5883806
127	0x3f19a981	0.6002427
128	0x3f13a281	0.57669836
129	0x3f1fada3	0.62374324
130	0x3f1567ac	0.58361316
131	0x3f1b2df0	0.6061697
132	0x3f187ead	0.5956829
133	0x3f160f3b	0.5861699
134	0x3f193501	0.598465
135	0xbf1c4d89	-0.6105581
136	0xbf1b009e	-0.60547817
137	0xbf184451	-0.5947924
138	0xbf12bb90	-0.5731745
139	0xbf13becf	-0.57713026
140	0xbf1c7f1f	-0.6113147
141	0xbf193b79	-0.59856373
142	0xbf160b3b	-0.58610886
143	0xbf11b207	-0.56912273
144	0xbf10354a	-0.5633131
145	0xbf1986ea	-0.5997149
146	0xbf162c1f	-0.58661073
147	0xbf1988d4	-0.5997441
148	0xbf14d6fc	-0.5814054
149	0xbf1e04f7	-0.61726326
150	0xbf107cef	-0.56440634
151	0xbf199b73	-0.6000282
152	0xbf1b1c8b	-0.6059043
153	0xbf140bff	-0.57830805
154	0xbf1982d6	-0.59965265
155	0xbf15ab53	-0.58464545
156	0xbf14dd30	-0.58150005
157	0xbf1e0e17	-0.6174025
158	0xbf1d9f87	-0.61571544
159	0xbf1229b5	-0.5709489
160	0xbf19b0df	-0.6003551
161	0xbf1c8b2e	-0.6114987
162	0xbf1fa2dd	-0.62357885
163	0xbf1b0840	-0.60559464
164	0xbf1e58a0	-0.6185398
165	0xbf116806	-0.5679935
166	0xbf1c2240	-0.6098976
167	0xbf17f8bb	-0.5936391
168	0xbf1cbd82	-0.61226666
169	0xbf1e7bb0	-0.6190748
170	0xbf1b07ac	-0.6055858
171	0xbf1e1053	-0.6174366
172	0xbf178582	-0.5918809
173	0xbf1907d0	-0.59777546
174	0xbf1bd841	-0.6087685
175	0xbf1dcf8b	-0.6164481
176	0xbf1b132a	-0.6057612
177	0xbf14199f	-0.57851595
178	0xbf1be6a5	-0.6089881
179	0xbf108a25	-0.5646079
180	0xbf157c7c	-0.58393073
181	0xbf1eba16	-0.62002695
182	0xbf13088b	-0.5743491
183	0xbf12ccdb	-0.57343835
184	0xbf11293c	-0.56703544
185	0xbf1f60ac	-0.62256885
186	0xbf162dba	-0.58663523
187	0xbf1de057	-0.6167044
188	0xbf145948	-0.5794873
189	0x3f19b86a	0.6004702
190	0x3f1a131b	0.601854
191	0x3f19da04	0.6009829
192	0x3f1aeec5	0.60520583
193	0x3f16253f	0.58650583
194	0x3f175f72	0.59130013
195	0x3f15b54d	0.5847977
196	0x3f1f9eb1	0.6235152
197	0x3f1d4eda	0.6144844
198	0xbf1883cf	-0.59576124
199	0xbf13ff2e	-0.5781125
200	0xbf1590ce	-0.5842408
201	0xbf14e76b	-0.58165616
202	0xbf11e0c7	-0.5698361
203	0xbf1aecc2	-0.60517514
204	0xbf134090	-0.5752039
205	0xbf1c1959	-0.6097618
206	0xbf1e29ca	-0.61782515
207	0xbf1d1121	-0.6135426
208	0xbf1c6687	-0.61093944
209	0xbf1f15b4	-0.6214249
210	0xbf1cd121	-0.61256605
211	0xbf1199c4	-0.5687525
212	0xbf14651d	-0.57966787
213	0xbf167923	-0.5877859
214	0xbf1949be	-0.59878147
215	0xbf1e61e4	-0.6186812
216	0x3f198543	0.59968966
217	0x3f134ce2	0.5753919
218	0x3f133852	0.5750781
219	0x3f17362a	0.5906702
220	0x3f165432	0.5872222
221	0x3f19e16e	0.60109603
222	0x3f1589f8	0.5841365
223	0x3f12598d	0.57167894
224	0x3f14b8a9	0.5809427
225	0x3f1829c3	0.59438723
226	0x3f15f7ed	0.5858143
227	0x3f1c0d46	0.60957754
228	0x3f19c7c1	0.60070425
229	0x3f17a055	0.5922902
230	0x3f1a54ae	0.6028546
231	0x3f1dd078	0.61646223
232	0x3f1c85c3	0.61141604
233	0x3f1ef480	0.6209183
234	0x3f1ddeec	0.61668277
235	0x3f17cc5a	0.5929619
236	0x3f182e21	0.5944539
237	0x3f1ce3b6	0.6128496
238	0x3f194e56	0.59885156
239	0x3f1ad3eb	0.6047961
240	0x3f168f0d	0.5881203
241	0x3f1825cd	0.5943268
242	0x3f1914d0	0.5979738
243	0x3f1a2302	0.6020967
244	0x3f1d2dff	0.6139831
245	0x3f18e504	0.5972445
246	0x3f157d32	0.5839416
247	0x3f13415b	0.575216
248	0x3f1f76cd	0.6229065
249	0x3f15672b	0.58360547
250	0x3f1702b4	0.589885
251	0x3f1a1f97	0.6020445
252	0xbf1bdd99	-0.60885006
253	0xbf1edc39	-0.62054783
254	0xbf13ab72	-0.5768348
255	0xbf199c2e	-0.60003936
