DIDFuse/saved_models/decoder/IR_AE20.pth (torch, 604881 bytes, 13 tensors)

module.Conv5.layers.0.weight f4 [64, 128, 3, 3]
000000 07 a1 18 3f 1b 74 13 3f 32 1a 13 3f 04 cc 1d 3f
       0.5962071 0.5759904 0.57461846 0.6163943
000010 54 72 20 3f 9e 28 1a 3f 26 15 1f 3f 0a 4f 13 3f
       0.6267445 0.60218227 0.62141645 0.5754248
000020 a6 66 1a 3f 65 b4 1a 3f 06 fd 12 3f 2c f3 1a 3f
       0.6031288 0.6043151 0.57417333 0.605273
000030 47 f7 16 3f 6c cf 1f 3f ac fa 1a 3f af 5d 12 3f
       0.58971065 0.62425876 0.60538745 0.571742
000040 ff 48 19 3f b5 22 18 3f 19 59 1e 3f 59 da 17 3f
       0.5987701 0.5942796 0.618547 0.5931755
000050 56 7a 19 3f 79 c4 12 3f 71 cc 1d 3f 2f cf 1d 3f
       0.59952295 0.57331043 0.6164008 0.6164426
000060 d0 f6 17 3f 8a 38 13 3f 95 94 1b 3f 09 39 14 3f
       0.5936098 0.57508147 0.60773593 0.5789953
000070 29 ee 1c 3f 55 88 15 3f f5 25 17 3f 3a a2 15 3f
       0.61300904 0.5841115 0.5904229 0.58450663
000080 04 d7 17 3f 41 87 1f 3f aa 57 1c 3f 64 8f 1a 3f
       0.5931246 0.62315756 0.61071265 0.60375047
000090 13 e0 1b 3f f5 bd 1b 3f 40 18 1e 3f 9b a9 16 3f
       0.60888785 0.60836726 0.6175575 0.5885255
0000a0 f8 52 12 3f e1 a8 15 3f 00 d3 1f 3f e0 e2 11 3f
       0.5715785 0.58460814 0.62431335 0.5698681
0000b0 5b e2 17 3f 37 94 1a 3f db af 17 3f e0 e3 13 3f
       0.59329766 0.6038241 0.5925271 0.57769585
0000c0 34 b6 19 3f cf f5 1c 3f af 66 20 3f f3 72 12 3f
       0.60043645 0.61312574 0.6265668 0.5720665
0000d0 a4 3f 16 3f 96 0c 18 3f fe eb 19 bf 1d 5a 16 bf
       0.5869086 0.59394205 -0.6012572 -0.5873125
0000e0 5c e1 1d bf 21 58 15 bf 56 3f 1b bf c3 1a 11 bf
       -0.61671996 -0.583376 -0.6064352 -0.5668146
0000f0 ee 41 1f bf 19 c3 17 bf 7c 85 1f bf 10 b9 1f 3f
       -0.62209976 -0.5928207 -0.62313056 0.6239176
000100 e9 dc 20 3f 30 af 17 3f 1a a0 1b 3f fa 50 1b 3f
       0.6283708 0.5925169 0.6079117 0.60670435
000110 1b ff 12 3f 51 5a 1a 3f d4 01 18 3f 76 fb 19 3f
       0.5742051 0.6029406 0.5937779 0.60149324
000120 fd bf 1a bf a9 b6 1b bf 76 58 13 bf 24 12 1e bf
       -0.604492 -0.6082559 -0.57556856 -0.6174643
000130 1c d9 10 bf 9c c0 15 bf 34 89 4a 3f 91 2f 49 3f
       -0.5658128 -0.58497024 0.79115605 0.78588206
000140 b7 3a 06 bf 82 df 1f 3f 18 4f 13 3f 5f 34 12 3f
       -0.5243334 0.6245042 0.5754256 0.5711116
000150 64 46 20 3f e4 2b 1b 3f 22 95 1a 3f 74 2a 16 3f
       0.6260741 0.60613847 0.6038381 0.5865853
000160 80 b3 16 3f d2 96 12 3f c7 24 18 bf d9 40 18 bf
       0.58867645 0.57261384 -0.5943112 -0.5947395
000170 e9 bd 1c bf 2f 30 21 bf 4a 03 1b bf eb a4 21 bf
       -0.6122728 -0.6296415 -0.60551894 -0.6314227
000180 f0 57 23 bf a3 cc 1b bf 81 41 2c bf d1 74 14 bf
       -0.63806057 -0.60859126 -0.6728745 -0.5799075
000190 19 8e 13 bf 57 49 1f bf bb 41 14 bf 9e a2 1c bf
       -0.576387 -0.6222128 -0.57912797 -0.61185634
0001a0 14 bb 18 bf 72 0f 14 bf 71 16 13 bf 6e c2 18 bf
       -0.5966046 -0.5783607 -0.5745612 -0.59671676
0001b0 c9 08 18 bf 36 92 1b bf a9 94 1f bf 2f a1 15 bf
       -0.59388405 -0.60769975 -0.6233621 -0.5844907
0001c0 9e 71 1b bf fb 6f 13 bf ca 64 1d bf 46 08 16 bf
       -0.6072024 -0.57592744 -0.61481917 -0.58606374
0001d0 54 dc 15 bf 7f 21 1c 3f 45 e9 1d 3f 62 e7 18 3f
       -0.5853932 0.6098861 0.61684066 0.5972806
0001e0 91 52 17 3f 39 e0 19 3f 19 f1 18 3f d2 07 1b 3f
       0.5911036 0.6010776 0.59742886 0.6055881
0001f0 07 2b 15 3f f7 db 18 3f 9d 02 1e bf c2 79 17 bf
       0.5826878 0.5971064 -0.6172274 -0.5917016
000200 13 2d 1d bf 5d 73 18 bf da ec 1d bf 91 ed 1a bf
       -0.613969 -0.5955103 -0.6168953 -0.6051875
000210 6d e7 16 bf fb e4 1d bf 1e 09 1d bf d5 e1 17 bf
       -0.5894688 -0.6167752 -0.61342037 -0.5932897
000220 ea 3f 1f bf 7e c5 16 bf 52 a9 16 bf 34 d0 14 bf
       -0.622069 -0.588951 -0.5885211 -0.5813019
000230 2f 64 18 bf f6 50 19 bf 07 1f 13 bf 30 17 18 bf
       -0.5952787 -0.5988916 -0.5746922 -0.5941038
000240 22 f4 17 bf 64 e2 18 bf 49 78 17 bf c8 fa 1f bf
       -0.5935689 -0.59720445 -0.59167916 -0.62492037
000250 31 66 1d bf 9f 55 20 bf f8 87 19 bf 36 63 1d bf
       -0.61484057 -0.6263065 -0.59973097 -0.6147951
000260 92 d0 13 bf 42 52 1f 3f 2e 75 20 3f d2 38 1b 3f
       -0.5774013 0.6223489 0.626788 0.60633576
000270 51 e0 17 3f b7 90 21 3f 50 3c 17 3f d8 a6 17 bf
       0.59326655 0.6311144 0.59076405 -0.5923896
000280 10 8c 1e bf 30 45 0d bf 40 65 17 bf 39 ab 15 bf
       -0.6193247 -0.55183697 -0.5913887 -0.5846439
000290 56 fd 1c bf 87 e6 20 3f 36 81 14 bf 95 97 19 3f
       -0.6132406 0.62851757 -0.5800966 0.5999692
0002a0 97 53 17 3f b2 d8 1a 3f 24 4a 1d 3f 3c 4a 1a 3f
       0.5911192 0.604869 0.61441255 0.6026952
0002b0 d5 81 16 3f 18 78 19 3f 6c 81 1c 3f b4 09 1e 3f
       0.5879186 0.59948874 0.6113498 0.61733556
0002c0 f1 5c 1c 3f 10 6e 17 3f bb 26 20 3f a0 1b 15 3f
       0.6107932 0.5915232 0.625591 0.5824528
0002d0 d9 f9 18 3f f5 51 1e 3f 1f 5d 1c 3f 63 2f 14 3f
       0.5975624 0.61843807 0.6107959 0.57884806
0002e0 96 86 18 3f c8 44 1b 3f 85 24 13 bf e6 d8 1d bf
       0.5958036 0.60651827 -0.574776 -0.61659086
0002f0 ad 89 1a bf 0e 71 14 3f 48 70 17 3f 20 b6 20 3f
       -0.60366327 0.5798501 0.591557 0.627779
000300 e1 cf 13 3f af 3f 17 3f e8 d8 20 3f 09 3e 1d 3f
       0.57739073 0.5908155 0.6283097 0.61422783
000310 64 81 18 3f 22 fc 18 3f 29 50 1e 3f 8f e2 17 3f
       0.59572434 0.59759724 0.61841065 0.59330076
000320 07 71 1f 3f 09 c7 20 3f 3c ae 1b 3f 1d 29 14 3f
       0.6228184 0.62803704 0.60812736 0.57875234
000330 ff 2a 21 3f ca 0b 15 3f f9 78 15 3f 55 09 1f bf
       0.6295623 0.58221114 0.58387715 -0.62123615
000340 e2 c8 17 bf df e2 1c bf 3b c4 1f bf 68 18 20 bf
       -0.592909 -0.6128368 -0.624088 -0.6253724
000350 ab 05 1e bf 78 fc 37 bf 30 8a 23 bf d8 17 14 bf
       -0.617274 -0.7186961 -0.6388273 -0.5784888
000360 77 a8 1b bf 6d 3c 16 bf e1 18 13 bf c6 3d 1b bf
       -0.6080393 -0.5868595 -0.5745984 -0.60641134
000370 92 ce 1e bf 34 e1 1f bf 84 26 1b bf 4b 22 16 bf
       -0.6203395 -0.6245301 -0.60605645 -0.58646077
000380 00 9a 19 bf 23 40 1a bf 0f 4c 16 bf 02 cd 1d bf
       -0.6000061 -0.60254115 -0.58709806 -0.6164094
000390 9e 2c 18 bf b2 41 16 bf 11 2e 16 bf 6e 5a 1b bf
       -0.5944308 -0.58693993 -0.5866404 -0.6068486
0003a0 c3 41 20 bf 26 1e 1a bf 4a bb 1e 3f 4c 3c 14 3f
       -0.62600344 -0.6020225 0.6200453 0.57904506
0003b0 7e 86 14 3f c6 bd 16 3f c4 06 16 3f b1 99 17 3f
       0.5801772 0.5888332 0.58604074 0.5921889
0003c0 35 9e 12 3f c0 58 17 3f 72 2b 19 3f 88 e3 14 bf
       0.57272655 0.59119797 0.5983192 -0.58159685
0003d0 f0 68 14 bf ba 43 1a bf 47 7f 13 bf 4f a8 13 bf
       -0.5797262 -0.6025959 -0.57616085 -0.57678694
0003e0 18 58 1f bf 27 1c 1e bf 53 63 16 bf a8 e9 1d bf
       -0.62243795 -0.6176171 -0.58745307 -0.61684656
0003f0 fe 42 1c 3f a1 d5 1c 3f dc 2c 1b 3f d8 10 21 3f
       0.6103972 0.6126347 0.60615325 0.62916327

module.Conv5.layers.0.bias f4 [64]
000000 5c f6 7d bd 97 90 1e bd f3 66 f9 bd 36 2a b9 3c
       -0.062002525 -0.03871211 -0.12177839 0.022603136
000010 8f b2 c7 bc f8 bc 50 bd 89 75 c4 3d 81 64 e9 3d
       -0.024377136 -0.050961465 0.095927306 0.11396123
000020 cc a1 68 bd 7e 64 70 3d 1f 6e a4 3b 01 14 4f 3d
       -0.056794927 0.058689587 0.0050180103 0.050556187
000030 02 d2 0c bd f6 8f 9b bd 9b 8c 84 3d a6 6c 06 be
       -0.034379967 -0.07595818 0.06472131 -0.13127384
000040 2a 86 6f bd 67 56 2c bb 0c db 3b 3d 45 6b 54 bc
       -0.05847756 -0.0026296617 0.045863196 -0.012965028
000050 7f f8 63 bd 41 c6 a8 3d 89 38 0a 3e 82 8f e0 bd
       -0.055656906 0.08240939 0.13498129 -0.10964872
000060 88 bf b3 bd b0 f5 84 3d 97 f7 a8 ba 8e b5 d0 bd
       -0.08776766 0.06492174 -0.001289117 -0.10190879
000070 4b ae 4c bb 7e 05 a3 3d da a5 a7 bc ab ed f4 bc
       -0.0031231816 0.07960032 -0.020464826 -0.029898485
000080 04 ec 17 3c 80 83 32 bc e8 21 50 bc 55 be 8d bc
       0.009272579 -0.01089561 -0.012703396 -0.017302671
000090 91 4d 4d 3c 28 53 48 bd 8a e7 1c 3e 4a da c1 bc
       0.0125307 -0.04890743 0.153227 -0.023663659
0000a0 64 6b a7 bd 2b df 00 3c 7e d1 fc 3b e6 8a 39 3b
       -0.0817478 0.007865707 0.007715403 0.002831155
0000b0 b8 4a 13 3e c7 1d 1e 3e 26 b0 19 3d 93 3d 8e bd
       0.14383972 0.15441047 0.037521504 -0.06945338
0000c0 85 f5 08 3e 03 9a 5e bd 75 49 17 3d e3 ca 94 3c
       0.13374908 -0.054346096 0.03693529 0.01816315
0000d0 4d 2a 29 3e 11 bd 12 bd 05 ce 86 3d 19 fc 59 3d
       0.16520043 -0.03582484 0.06582264 0.053218935
0000e0 88 2c e9 38 69 37 86 3c e5 7c a0 bc aa 46 23 bb
       0.000111186004 0.016383843 -0.019590804 -0.0024913945
0000f0 34 97 32 3d 20 f3 3e bc 13 2f 7e 3d d4 4c fc bd
       0.04360123 -0.011654645 0.062056612 -0.12319341

module.Conv5.layers.1.weight f4 [64]
000000 d4 11 0f 3f 37 5e ce 3e 0b 1e a1 3f 29 f8 90 3f
       0.5588658 0.40306255 1.2587293 1.1325732
000010 c5 0f ff 3e 3b 83 a3 3f ab e7 c6 3e 6d 2f b3 3f
       0.4981672 1.2774423 0.38848624 1.3998848
000020 bf 42 db 3f d7 85 ad bd 3f 76 06 3f e2 71 d5 3f
       1.7129744 -0.084727935 0.5252418 1.6675379
000030 fc 0f f4 3f d2 f2 0b 40 a4 64 a2 3f 66 69 85 3f
       1.9067378 2.1866956 1.2686963 1.042279
000040 9b cf 23 40 1f ec 2d 40 35 9f d4 3e ea 16 3f 40
       2.5595462 2.7175367 0.41527715 2.9857736
000050 98 88 f2 3d 37 0d 66 3e a2 c9 90 3d 29 59 0c 40
       0.118424594 0.22465979 0.070697084 2.192942
000060 14 d8 99 3f 90 61 18 3f cd d6 98 3f c8 48 9d 3f
       1.2019067 0.5952387 1.1940552 1.2287836
000070 30 a6 c9 3f f6 5c 8d 3f 1f a7 3a 40 f9 6e de 3f
       1.5753841 1.1043994 2.9164503 1.7377616
000080 1c 9d d3 3d 8a 47 47 3f 23 d6 0f 40 fd 85 72 bf
       0.103327006 0.77843535 2.2474449 -0.947357
000090 a9 b4 dc 3f d5 fd a0 3f 0c 22 4c 3f a1 53 b3 3e
       1.7242633 1.2577463 0.7973945 0.3502474
0000a0 ac f2 bf 3e 6f 58 5b 3f fd ea 33 3f 71 53 96 3f
       0.3748983 0.85681814 0.7028044 1.1744214
0000b0 c9 4b d2 3e 1c 74 49 3f b1 b0 c8 3e 16 0e 42 40
       0.41073444 0.78692794 0.39197305 3.0321097
0000c0 09 af 4a bf 72 b0 69 3f 4d 25 6f 3f 73 bb 98 3e
       -0.7917333 0.9128486 0.9341629 0.29830512
0000d0 19 f8 9f 3e ac d8 cb be 36 94 8d bf b4 5c af 3e
       0.3124397 -0.39813745 -1.1060855 0.34250414
0000e0 ae 57 19 40 09 fa 1b bf 36 20 95 3e 7e ba a2 3f
       2.3959765 -0.609284 0.29126137 1.2713163
0000f0 db 60 cc 3f 69 96 c9 3f 0c 18 ec 3d 00 ce ab 3f
       1.5967058 1.5749027 0.11528024 1.3422241

module.Conv5.layers.1.bias f4 [64]
000000 85 fe 84 bf 7c 42 9a bf b2 ff 35 3e 6f 51 86 3f
       -1.0390173 -1.205154 0.17773321 1.0493602
000010 27 47 7b 3f 7d b9 df 3f ea 35 64 bf 1b bf 42 be
       0.98155445 1.7478482 -0.89144766 -0.19018213
000020 d9 7d d2 3e 20 d6 36 bf b0 86 a5 bf e2 5a 24 3f
       0.4111164 -0.7142048 -1.2931728 0.64201176
000030 23 32 ee 3f 6d ba 9d 3f 5b 64 ae 3e d4 4b 6b 3f
       1.860905 1.2322518 0.3406094 0.9191258
000040 a6 6e bc 3f 53 2b 43 3f 8d 63 36 bf 41 e3 56 c0
       1.4721267 0.7623798 -0.7124565 -3.3576205
000050 54 81 92 bf 91 38 0a bf ac 9a ca bf 2d aa 7b 3f
       -1.1445718 -0.53992563 -1.5828452 0.9830654
000060 a4 26 a0 3d bd 83 b5 be 39 f0 37 3e d9 fc f5 be
       0.0781987 -0.3545207 0.17962731 -0.4804447
000070 ae e6 5c 40 cf 65 47 3d b8 87 68 be c8 9c a1 3f
       3.4515796 0.048681077 -0.22708023 1.2625971
000080 4d 18 09 bf e1 49 f4 bd 49 4b 8d 3e 3e f4 e8 bd
       -0.53552705 -0.11928154 0.275965 -0.113747105
000090 b7 50 9f 3e 66 73 85 bc f5 eb fe 3e e8 a8 9c bf
       0.31116268 -0.016290378 0.49789396 -1.2239046
0000a0 4d 4f 6c bf 27 58 80 be 53 9f 69 bf f4 82 ae 3e
       -0.92308503 -0.25067255 -0.91258734 0.34084284
0000b0 6f 35 36 bf c7 a3 0e be 37 a6 21 bf 6a c2 90 c0
       -0.71175283 -0.13929664 -0.6314425 -4.523732
0000c0 98 ab 4a bf 20 f7 da 3e a9 77 1f 3f eb 6c 16 b9
       -0.7916808 0.42766666 0.6229196 -0.0001434569
0000d0 bc 25 6c bf 92 79 86 3f 9a f4 81 bf b3 9c 12 bf
       -0.9224508 1.050585 -1.0152771 -0.57270354
0000e0 af 8c a5 3f 78 8b 78 3f 2b c8 1c 3f d4 a6 e1 3e
       1.2933558 0.9708781 0.6124293 0.44072592
0000f0 3f f9 d7 3f 38 c6 5e bf 43 d5 15 bf eb 61 7d be
       1.6872939 -0.8702121 -0.58528537 -0.24744384

module.Conv5.layers.1.running_mean f4 [64]
000000 0c 64 5b c3 68 f1 38 c3 00 9a 4e 41 97 83 52 43
       -219.39081 -184.943 12.912598 210.51402
000010 e8 0c 30 43 d5 28 5b 43 1b a2 59 43 5b 18 08 c3
       176.05042 219.1595 217.63322 -136.09514
000020 40 de 27 43 f5 dd e3 42 73 c4 56 c3 77 63 56 c3
       167.86816 113.93351 -214.76738 -214.38853
000030 d5 79 83 c2 5a 63 46 c3 5d 7a 46 c3 d7 31 40 c3
       -65.73795 -198.38809 -198.47798 -192.19469
000040 ac ff 12 c3 b3 e3 f7 c2 bb 79 49 43 3c c9 5d c3
       -146.99872 -123.944725 201.47551 -221.78607
000050 60 15 49 43 23 0e 40 43 36 b8 44 c3 95 6d 12 43
       201.0835 192.05522 -196.71957 146.42805
000060 8e 9d 2c 43 ac 03 47 c3 e3 b5 4a c3 bc 10 2e 43
       172.61545 -199.01434 -202.7105 174.06537
000070 69 a9 b4 42 34 9d 3d c3 c1 d0 0f 43 18 6a b7 c2
       90.33088 -189.61407 143.81544 -91.707214
000080 26 cf c8 42 79 bc 3a c3 47 62 3d 43 ac 59 de 42
       100.40459 -186.73622 189.3839 111.17514
000090 81 a8 4a c3 e4 99 4a c3 d3 65 10 c3 ac 03 a7 42
       -202.65822 -202.60114 -144.39775 83.50717
0000a0 af 5c 20 43 07 f5 2d c3 58 49 3a 43 5d 22 50 c3
       160.36205 -173.95714 186.2865 -208.13423
0000b0 ef ac 39 43 64 f5 37 c3 01 43 47 43 84 7b 1f c3
       185.67552 -183.95856 199.26173 -159.48248
0000c0 03 5b 43 43 36 c4 4b c3 02 ac 4b 43 ca 99 05 c3
       195.35551 -203.76645 203.6719 -133.60074
0000d0 db 1c 4f 43 53 b8 e5 40 4b 7b 3d 43 63 1c e8 42
       207.11272 7.1787505 189.48161 116.05544
0000e0 f3 64 cb c2 7e 70 a2 42 a0 d4 5e 43 6b 56 05 c2
       -101.69717 81.21971 222.83057 -33.334393
0000f0 77 d7 69 43 2a c6 f0 42 8a 15 fd 42 22 6c 4e 43
       233.84166 120.38704 126.54207 206.4224

module.Conv5.layers.1.running_var f4 [64]
000000 43 ff 86 45 97 c3 6c 44 3a c0 4e 44 c0 2e e5 44
       4319.9077 947.0561 827.00354 1833.4609
000010 60 f2 7f 44 03 9f 98 44 bb d1 18 45 93 91 32 45
       1023.7871 1220.9691 2445.1082 2857.0984
000020 8c 0d e2 45 67 5b 43 44 f9 cd 09 45 07 c2 d7 45
       7233.6934 781.42816 2204.8733 6904.2534
000030 3e 11 b0 45 15 b2 b3 45 02 23 9d 45 ca c7 2d 45
       5634.1553 5750.2603 5028.376 2780.4868
000040 ab b2 24 45 28 27 91 45 17 ed 8a 45 6c c7 b6 45
       2635.1667 4644.8945 4445.636 5848.9277
000050 a5 63 65 44 19 ed b5 45 cb 90 91 44 7b 1e 17 46
       917.55695 5821.637 1164.5248 9671.62
000060 d3 fd 2d 44 c8 62 8b 45 8a a7 83 45 d7 a6 b2 44
       695.966 4460.3477 4212.9424 1429.2137
000070 cf 87 56 44 5e a5 de 44 8f 7e ea 45 02 13 d1 45
       858.122 1781.1677 7503.82 6690.376
000080 d4 e5 0c 44 4e 3a a8 45 32 a1 d1 45 06 ab 4b 44
       563.59106 5383.288 6708.1494 814.67224
000090 5a f4 9b 45 2f 58 05 46 7a c2 ce 44 be 44 73 45
       4990.544 8534.046 1654.0774 3892.2964
0000a0 1c 02 e9 44 26 78 b7 45 0a ac de 44 23 eb b1 45
       1864.0659 5871.0186 1781.3762 5693.392
0000b0 9d 62 b0 45 71 3a ee 44 8f 5c 0f 45 cf 57 92 44
       5644.3267 1905.8263 2293.785 1170.744
0000c0 55 cc 29 45 4a f4 8d 45 64 c4 71 45 2c 26 84 45
       2716.7708 4542.536 3868.2744 4228.7715
0000d0 c0 4f 9b 45 a5 9a ed 44 9b af 70 45 0b 47 4f 44
       4969.9688 1900.8326 3850.9753 829.11005
0000e0 ef b3 3d 45 d3 37 90 45 32 ef 57 45 e1 bc ec 44
       3035.2458 4614.978 3454.9497 1893.9025
0000f0 29 3c df 44 04 74 a7 43 82 39 22 45 db 57 5b 45
       1785.88 334.90637 2595.5942 3509.491

module.Conv6.layers.0.weight f4 [64, 128, 3, 3]
000000 29 b9 17 3f 16 cb 1a 3f 9d b6 13 3f d2 01 17 3f
       0.59266907 0.60466135 0.5770052 0.5898715
000010 f1 76 1b 3f da 4c 1b 3f f9 a3 13 3f 6d 3b 1d 3f
       0.60728365 0.6066414 0.5767208 0.614188
000020 75 97 21 3f 5c de 17 3f d7 c6 15 3f 0a b5 15 3f
       0.6312173 0.5932367 0.5850653 0.5847937
000030 06 a7 1f 3f 5e d9 1d 3f 30 4c 1e 3f 36 5d 13 3f
       0.6236423 0.616598 0.61835 0.57564104
000040 b3 83 14 3f 68 51 14 3f 55 85 13 bf 17 c1 1b bf
       0.5801346 0.57936716 -0.57625324 -0.60841507
000050 63 2c 1e bf 44 96 18 bf 11 98 1c bf 28 ac 13 bf
       -0.6178648 -0.5960429 -0.61169535 -0.57684565
000060 ce 56 15 bf c6 6c 14 bf 4d 92 1c bf 23 b5 15 3f
       -0.5833558 -0.57978475 -0.6116074 0.5847952
000070 b8 c6 1e 3f 9a 04 1e 3f 34 1e 1a 3f 52 7a 12 3f
       0.6202197 0.6172577 0.60202336 0.57217896
000080 76 f5 1c 3f 23 47 1a 3f e2 ad 1b 3f 6e e5 12 3f
       0.61312044 0.60264796 0.608122 0.5738133
000090 86 0c 16 3f 04 c8 1a 3f 2b 1f 13 3f a2 5b 12 3f
       0.5861286 0.6046145 0.57469434 0.5717107
0000a0 08 2f 1a 3f 42 ff 16 3f fd cd 16 3f 62 a7 19 3f
       0.60228014 0.5898324 0.58908063 0.6002103
0000b0 60 43 14 3f 71 a3 16 3f 7e 03 1f 3f 1f 52 22 3f
       0.57915306 0.5884314 0.62114704 0.63406557
0000c0 12 46 18 3f e4 a8 1b 3f 11 8a 16 3f 3e 19 1b 3f
       0.5948192 0.6080458 0.5880442 0.6058539
0000d0 07 f1 1d 3f f4 f7 20 3f 88 ee 1f 3f 81 e5 20 3f
       0.61695904 0.62878346 0.62473345 0.62850195
0000e0 5a 84 1c 3f 1e 03 13 3f 9f 27 1f 3f 9a 98 13 3f
       0.6113945 0.5742663 0.6216983 0.57654727
0000f0 d3 90 19 3f ae 28 1a 3f 43 c9 1a 3f 5c e9 1f bf
       0.5998661 0.6021832 0.6046335 -0.62465453
000100 09 02 17 bf 7b dc 1b bf 7e b4 21 bf 99 8f 17 bf
       -0.5898748 -0.608833 -0.63166034 -0.5920349
000110 6a 2d 1d bf cd bd 1e bf 47 13 16 bf f7 c7 1f bf
       -0.6139742 -0.62008363 -0.58623165 -0.624145
000120 2a 4e 13 bf aa a1 16 bf dd 2c 1c bf d2 70 1c bf
       -0.57541144 -0.5884043 -0.61005956 -0.6110965
000130 cb 52 16 bf 31 87 1e bf 98 50 20 bf 16 59 1c bf
       -0.5872008 -0.61925036 -0.62622976 -0.61073434
000140 2e 3b 14 bf fb 53 18 3f ce fe 1e 3f a5 68 20 3f
       -0.579028 0.59503144 0.6210755 0.62659675
000150 b4 63 18 3f af fb 14 3f 69 fd 16 3f fb 6a 1b 3f
       0.59527135 0.5819654 0.58980423 0.60710114
000160 6a 41 12 3f 27 f9 1a 3f 51 3b 20 3f 00 7d 1f 3f
       0.57131064 0.60536426 0.6259051 0.6230011
000170 b3 e7 1b 3f c2 af 14 3f 58 4a 1f 3f 79 4c 17 3f
       0.6090042 0.58080685 0.62222815 0.59101063
000180 9f e4 1a 3f 38 70 17 3f 32 b5 15 3f aa 21 1f 3f
       0.605051 0.5915561 0.5847961 0.6216074
000190 bf 7b 14 3f 78 35 1e 3f 46 e2 1a 3f 61 8b 16 3f
       0.5800132 0.61800337 0.60501516 0.58806425
0001a0 4f 37 16 3f 1f 0b 19 3f 23 d6 1a 3f 72 3b 15 3f
       0.58678144 0.59782594 0.60482997 0.5829383
0001b0 1e bd 16 3f 62 45 1a 3f 8d 93 1d 3f 81 87 15 3f
       0.5888232 0.6026212 0.6155327 0.5840989
0001c0 9c e4 1a 3f 94 eb 14 3f 96 71 1d 3f 39 6e 20 3f
       0.6050508 0.58171964 0.61501443 0.62668186
0001d0 1d c4 1c 3f 33 c6 11 3f d6 7e 12 3f ed bd 20 3f
       0.61236745 0.56943053 0.57224786 0.62789804
0001e0 00 e7 19 3f c2 cb 16 3f 07 28 12 3f e4 31 1f 3f
       0.60118103 0.5890466 0.57092327 0.621855
0001f0 e0 63 20 3f 30 7a 13 3f 52 6f 24 bf 2d 37 1c bf
       0.626524 0.5760832 -0.6423236 -0.6102169
000200 5b bc 1e bf 9c 20 2b 3e 6f a0 28 bf 5b 7d 19 bf
       -0.6200616 0.16711658 -0.658698 -0.599569
000210 31 5c 1d 3f 03 67 1c 3f f3 a4 1c bf 9f 9a 10 bf
       0.614688 0.61094683 -0.6118919 -0.56485933
000220 0a b8 10 bf 33 cb 37 be 56 ea 0f bf 39 73 14 bf
       -0.5653082 -0.17948608 -0.56216943 -0.57988316
000230 7f a5 0d bf 9b b4 18 bf 8b 8a 1c bf ef ed 16 bf
       -0.5533065 -0.5965058 -0.611489 -0.5895681
000240 4d 29 18 3f 67 9b 19 3f d5 05 1a 3f fa a0 14 3f
       0.5943802 0.6000275 0.6016515 0.5805813
000250 6e 36 1b 3f 3a f7 11 3f 1c a8 14 3f d9 23 18 3f
       0.6062993 0.5701786 0.58069015 0.594297
000260 23 3e 16 3f 3b 7d 15 3f f1 6f 19 3f 7c c7 1d 3f
       0.58688563 0.5839421 0.59936434 0.61632514
000270 d8 07 20 3f b0 d8 19 3f b2 75 12 3f 15 e0 17 3f
       0.6251197 0.60096264 0.5721084 0.593263
000280 a2 8b 17 3f e3 91 1e 3f 04 1a 1b 3f 16 e8 16 3f
       0.5919744 0.61941355 0.6058657 0.58947885
000290 fd 8e 16 3f f6 f6 17 3f c3 43 18 3f a2 94 19 3f
       0.5881193 0.5936121 0.59478396 0.5999242
0002a0 9f 14 17 3f 88 de 15 3f 3e 42 19 3f ae 80 20 3f
       0.5901584 0.5854268 0.598667 0.6269635
0002b0 6f 7b 15 3f 0c 67 1b 3f 0b 4a 18 3f 56 16 17 3f
       0.5839147 0.6070411 0.5948798 0.59018457
0002c0 ac a0 1f 3f ac 15 1d 3f 0f 33 18 3f d5 36 1d 3f
       0.6235454 0.61361194 0.5945291 0.6141179
0002d0 da 93 1d bf b3 74 1f bf 04 13 14 bf a7 53 1d bf
       -0.6155373 -0.62287444 -0.57841516 -0.6145577
0002e0 e6 ac 1d bf da ed 1d bf fe 65 1f bf d8 3e 16 bf
       -0.6159195 -0.6169106 -0.62265 -0.5868964
0002f0 17 fc 15 bf 06 24 1b 3f 72 8e 12 3f 66 32 13 3f
       -0.58587784 0.6060184 0.57248604 0.57498777
000300 5d f9 1d 3f 76 08 18 3f e8 d4 1a 3f a5 c3 20 3f
       0.61708623 0.5938791 0.6048112 0.6279853
000310 db a3 15 3f 88 b1 1e 3f f6 98 1a 3f f7 46 21 3f
       0.5845315 0.6198964 0.6038965 0.6299891
000320 ff 09 14 bf ed 30 1d 3f 9d 0d 21 3f 2f b3 17 3f
       -0.5782775 0.6140278 0.629114 0.5925779
000330 f9 01 13 3f 5f 6f 18 3f 25 c4 14 3f eb 63 15 bf
       0.57424885 0.5954494 0.5811179 -0.5835559
000340 89 1e 13 bf b0 06 11 bf ba ed 1b bf 77 f4 1c bf
       -0.5746847 -0.5665083 -0.60909617 -0.61310524
000350 d5 57 1f bf 73 97 21 bf 52 04 14 bf b0 94 18 bf
       -0.62243396 -0.6312172 -0.5781909 -0.5960188
000360 c6 43 15 bf 31 04 15 bf 32 60 1f bf ef d3 1d bf
       -0.5830654 -0.5820952 -0.6225616 -0.6165151
000370 eb fa 15 bf 55 5a 1d bf a4 5f 1a bf c1 9c 1e bf
       -0.58585995 -0.6146596 -0.60302186 -0.6195794
000380 1a 6e 1f bf a1 77 1e bf dd 29 21 bf 0b 22 1b bf
       -0.62277377 -0.6190129 -0.62954503 -0.6059882
000390 69 61 17 bf 12 09 16 bf ee 34 19 bf 66 96 1e bf
       -0.5913301 -0.5860759 -0.5984639 -0.6194824
0003a0 1f 1b 13 bf 7c 64 1d bf ea 59 1a 3f b3 21 1a 3f
       -0.5746326 -0.6148145 0.6029345 0.6020767
0003b0 10 42 20 3f 46 d7 16 3f fd 83 1c 3f 60 19 1a 3f
       0.62600803 0.5892223 0.611389 0.6019497
0003c0 63 ce 1c 3f c3 87 20 3f 57 ac 12 3f 2e f5 13 bf
       0.6125242 0.62707156 0.5729422 -0.5779599
0003d0 90 7e 18 bf af 4f 1d bf 84 ff 1c bf 21 2f 20 bf
       -0.5956812 -0.6144971 -0.61327386 -0.62571913
0003e0 4f 17 19 bf 77 77 1f bf ac e3 1f bf fa 75 18 bf
       -0.5980119 -0.62291664 -0.62456775 -0.5955502
0003f0 74 86 15 3f df 65 14 3f 2c fb 18 3f 22 67 1f 3f
       0.58408284 0.5796794 0.5975826 0.62266743

module.Conv6.layers.0.bias f4 [64]
000000 89 fa 42 3d d9 1e 97 bd bf 16 17 bd 51 c3 4c 3d
       0.04760221 -0.073789306 -0.036886927 0.049990956
000010 30 aa 50 3c 7d e3 85 bd e7 67 de 3c 73 de c3 bd
       0.012735888 -0.065375306 0.027149154 -0.09563913
000020 17 08 40 3d 01 20 b1 3c f9 d6 61 bd 10 eb b7 3d
       0.046882715 0.021621706 -0.055136655 0.089803815
000030 ad 9c a4 be ed c2 84 3c 0d 3a d0 3b 92 66 ec bd
       -0.32150784 0.01620623 0.0063545764 -0.11543001
000040 4a 10 7c bd 2d 58 f4 bd 8f 42 07 be 35 a8 e5 3d
       -0.061538972 -0.11930881 -0.13208984 0.112137236
000050 ee 9f f7 3d 14 6b ba 3d d1 9a 49 bd 37 c6 ec bd
       0.12091051 0.09102455 -0.04921991 -0.11561244
000060 0f 17 3f 3e 65 d9 16 3e 16 e1 d6 3c 22 e0 9f 3c
       0.1866114 0.14731367 0.026230376 0.019516055
000070 22 1d b7 3d 3e 4d 52 bd 6e 7a 18 3d d8 aa d9 3c
       0.089411035 -0.051343195 0.037226133 0.026570722
000080 e3 41 6a 3c 3e 3b 12 bc d9 98 76 3d ec 02 58 3d
       0.014297935 -0.008925257 0.06020436 0.05273716
000090 4b de 74 bb 46 14 cd 3d 3c 0c dc 3d 7d 19 8e 3e
       -0.0037363942 0.100136325 0.10744521 0.2775382
0000a0 bc ea 1d 3d 52 7f fc bc fc 83 87 3d ca c4 fa bc
       0.03855394 -0.03082243 0.06616971 -0.030611414
0000b0 8f 84 b3 bd 72 c5 15 3d 99 fd 3e be 78 6f 7a 3d
       -0.08765518 0.03656525 -0.18651427 0.06114146
0000c0 a0 a0 5e 3d 48 0b b8 3c 81 2a 81 bc 14 3e a1 bc
       0.054352403 0.022466317 -0.015767338 -0.019682921
0000d0 f9 1e 4b bd e5 b8 10 be 5f 53 3e 3d bd e1 7d 3e
       -0.049590085 -0.14133032 0.046466228 0.24793144
0000e0 e1 ed a5 bd 5b d9 7a 3d a3 5e e2 3d 30 8c 64 3d
       -0.081020124 0.061242443 0.11053207 0.055797756
0000f0 30 bd 51 3e ae 4d 26 3e 71 f9 2d be 25 31 c6 bc
       0.20482326 0.1624057 -0.16989686 -0.024193356

module.Conv6.layers.1.weight f4 [64]
000000 f7 ac 20 3f 4b 37 ea 3e 9a f0 b1 3f bc 70 70 3f
       0.62763923 0.4574531 1.3901551 0.9392202
000010 42 7c 73 3f f0 44 c7 3f 47 6e f7 3e a2 80 86 3f
       0.9511148 1.5567913 0.48326322 1.0508006
000020 63 c9 50 3f d0 64 2c 3f 08 e2 c0 3e 96 32 cd 3e
       0.8155729 0.6734133 0.37672448 0.40077657
000030 1e 4c 44 3f fc e7 7f 3f 5c ef 6e 3e f4 d0 eb 3e
       0.76678646 0.99963355 0.23333496 0.46057856
000040 83 14 8b 3f d7 13 62 3f ac bf 8f 3f ab ea 9f 3f
       1.0865635 0.88311523 1.1230369 1.249349
000050 51 30 8b 3f 56 b3 c0 3f fe d9 37 3f 67 c9 89 3f
       1.087412 1.5054729 0.71817005 1.0764588
000060 a2 31 02 3f b8 1c c4 3f 23 af 99 3f 94 5f 11 3f
       0.50856984 1.5321264 1.2006572 0.56786466
000070 12 60 21 3f e8 9f c9 3e 7b 8d 7d 3f 58 8c 8c 3f
       0.63037217 0.3937981 0.9904401 1.098033
000080 94 fb af 3e 3f a9 b6 3e 33 b3 82 3f fb 49 98 3f
       0.34371626 0.35676 1.0210937 1.1897577
000090 7f 21 fd 3d cf bc b4 3f 24 d0 15 3f 75 45 a4 3f
       0.123599045 1.412012 0.5852072 1.2833697
0000a0 f2 4b 91 3f a7 a5 8e 3f cd 32 a2 bb cd 2d 53 3f
       1.1351302 1.1144303 -0.0049499036 0.8249176
0000b0 60 1b bc 3f 3c 40 08 40 fa 65 c9 3f 0a 13 73 be
       1.4695854 2.1289206 1.5734246 -0.23737732
0000c0 c3 e5 45 3f d9 43 ed 3d 19 af a1 3f 70 ad 54 3f
       0.77303714 0.115852065 1.263156 0.83077145
0000d0 58 cf 83 3f 60 d6 7a 3f a8 5e ea 3e ab e9 c2 3f
       1.0297651 0.9798336 0.45775342 1.522756
0000e0 56 5d 0a 3f 01 6d 89 3f 6a 8f 11 3f 58 be 5f bf
       0.5404867 1.073639 0.5685946 -0.87399817
0000f0 7e b4 f6 3e 81 a7 a8 3e ea 40 a1 3f fd 4e ca 3f
       0.4818458 0.32940295 1.2597935 1.5805355

module.Conv6.layers.1.bias f4 [64]
000000 c8 07 e3 bf db e4 28 bf 14 42 2f 3f 9b 48 b2 3f
       -1.773675 -0.65974206 0.684602 1.3928407
000010 a1 35 f2 3f a6 0d 00 3f 26 4b 92 3f 86 2a fd 3f
       1.8922616 0.50020826 1.1429183 1.9778602
000020 f5 b2 fc 3f e0 a1 8f bf 54 00 27 3f e2 af 82 bf
       1.9742113 -1.1221275 0.65234876 -1.0209925
000030 04 0f cb be a8 cd f6 3f e7 bc 2e 3f 6a bc a9 bf
       -0.39659894 1.9281511 0.6825699 -1.3260624
000040 a7 ad 49 40 0c 04 24 c0 a9 b5 96 3f 04 ed 18 40
       3.151224 -2.562747 1.1774188 2.3894663
000050 df 24 0f c0 db 1b 06 3f b2 89 b8 bf d2 f9 a8 3f
       -2.2366254 0.52386254 -1.4417021 1.3201239
000060 de c2 14 bf 65 04 06 3f 1d e2 9d 3f a7 1b 4b bf
       -0.58109844 0.52350456 1.2334629 -0.7933907
000070 f6 f3 e9 bf f5 3e bb bf e0 de f1 3f a7 ae 1f 40
       -1.8277576 -1.4628588 1.8896141 2.495035
000080 88 2a 7d 3f 6b 06 8d 3f 32 d6 00 c0 40 52 25 40
       0.9889302 1.1017584 -2.0130734 2.5831451
000090 dd 2a 8c 3f 6b 16 06 3f a7 55 56 bf ae 45 02 40
       1.0950581 0.5237796 -0.83724445 2.035503
0000a0 91 3e 84 c0 ae ca 0f bf 20 5f 45 bf c2 88 23 40
       -4.1326375 -0.5616864 -0.77098274 2.555222
0000b0 63 a6 41 3f df 67 95 40 f0 89 0b 3f e6 01 59 3f
       0.7564451 4.6689296 0.5450735 0.8476852
0000c0 15 7d a6 bf af df 01 bf ac 5c 92 bf db fd c1 3f
       -1.3006922 -0.5073194 -1.1434531 1.5155596
0000d0 53 5b 01 40 95 9a f7 3f 18 ae 0b bf 7f 6a 12 3f
       2.021199 1.934405 -0.5456252 0.5719375
0000e0 d8 05 09 bf 18 5e 3d c0 b9 75 aa bf 3b b8 95 3c
       -0.5352454 -2.958868 -1.3317176 0.018276324
0000f0 bb d8 93 bf 3e a1 0f bf a2 08 d4 3f 9b 50 99 40
       -1.1550516 -0.5610541 1.6565135 4.7910895

module.Conv6.layers.1.running_mean f4 [64]
000000 47 6b 3c 43 b9 6a 2f c3 40 fa 3d 43 e6 ff 4b c3
       188.41905 -175.41689 189.97754 -203.9996
000010 fe 6e 39 c3 08 96 56 43 cf 2a 2e 43 53 5c 32 43
       -185.43356 214.58606 174.16722 178.36064
000020 1f 41 27 43 f7 e3 c6 42 f3 1c 5f 43 0e ac 37 43
       167.25438 99.445244 223.11308 183.67209
000030 20 d0 1d c3 46 1d 32 c3 8b 25 48 43 41 66 36 43
       -157.81299 -178.11435 200.14665 182.39943
000040 9b 7c 43 c3 fa 2f 2b 43 96 55 e4 c2 2e 95 2b c3
       -195.48674 171.18741 -114.16716 -171.58273
000050 62 44 37 43 4b d4 57 43 c5 6d 26 43 ef c5 f6 c2
       183.26712 215.82927 166.42879 -123.38659
000060 a8 d5 45 c3 d3 94 40 43 eb e4 3a 43 9e 9d 2b c3
       -197.8346 192.58134 186.89421 -171.61569
000070 e1 16 36 43 e7 15 56 43 27 2f 24 c3 32 fa 37 c3
       182.08937 214.08556 -164.18419 -183.97733
000080 f0 af 32 43 f0 43 43 43 13 2f 32 43 40 76 33 c3
       178.68726 195.26538 178.18388 -179.46191
000090 6d e0 40 c3 79 07 46 43 f4 96 2c 43 a2 6e 2e 43
       -192.87666 198.02919 172.58966 174.43216
0000a0 0c 64 48 43 98 15 43 43 1e bc e9 c2 94 ef 3d c3
       200.39081 195.08435 -116.86742 -189.93585
0000b0 0c 62 43 43 3b 8f 0d c3 73 3e 4f 43 86 a9 ce c2
       195.383 -141.5595 207.24394 -103.3311
0000c0 4a cd 33 43 8e 5d 63 c3 63 de 49 c2 6c df 73 c3
       179.80191 -227.36545 -50.467175 -243.87274
0000d0 e4 31 54 c3 1d 85 28 c3 29 a2 3e c3 d0 04 42 43
       -212.19489 -168.51997 -190.63344 194.0188
0000e0 b7 fd 42 c3 af 04 30 43 f9 c0 24 43 34 fe 4f 43
       -194.99107 176.0183 164.7538 207.99298
0000f0 38 30 25 43 fa f6 62 c3 aa 27 2e c3 91 28 44 c3
       165.18835 -226.96475 -174.15494 -196.15846

module.Conv6.layers.1.running_var f4 [64]
000000 f0 7d b5 45 a4 d2 84 45 c2 40 f3 45 fc 92 35 45
       5807.742 4250.33 7784.0947 2905.1865
000010 45 a9 8f 45 48 c5 f5 45 d6 57 d4 45 d6 aa 8a 45
       4597.1587 7864.66 6794.9795 4437.3545
000020 0a 9c 93 45 5a d4 8d 46 ab fd fd 45 4b b7 14 45
       4723.505 18154.176 8127.7085 2379.4558
000030 43 78 3a 45 73 a5 74 45 2e 22 12 46 b8 b2 de 45
       2983.5164 3914.3406 9352.545 7126.34
000040 64 0a ae 45 a6 a6 07 46 00 d3 22 45 fd 9f 6c 45
       5569.299 8681.662 2605.1875 3785.9993
000050 95 f4 87 45 9b 6d 00 46 f7 e2 6d 45 52 5a 18 45
       4350.5728 8219.401 3806.1853 2437.645
000060 a1 01 3f 46 0f 58 f8 45 ff 98 a3 45 34 98 18 46
       12224.407 7947.0073 5235.1245 9766.051
000070 0a cc b7 45 b6 00 b8 45 6e c7 85 45 19 01 f5 45
       5881.505 5888.089 4280.9287 7840.137
000080 e4 28 b3 45 b3 bc d6 45 ae a6 48 45 25 f8 71 45
       5733.1113 6871.5874 3210.4175 3871.509
000090 37 2d 1c 46 58 3a 14 46 0d 1d ab 45 89 84 6e 45
       9995.304 9486.586 5475.6313 3816.2834
0000a0 67 a9 0e 46 1d af 05 46 08 c1 18 46 3d f8 ea 45
       9130.351 8555.778 9776.258 7519.03
0000b0 14 50 e4 45 0d de 38 46 6e 73 05 46 a8 96 9e 45
       7306.01 11831.513 8540.857 5074.832
0000c0 06 c0 71 45 66 66 f0 45 5b 56 90 44 89 c2 e6 45
       3868.0015 7692.8 1154.6986 7384.317
0000d0 40 ef 15 46 3a cd 82 45 1d 8b 12 46 f6 b3 e4 45
       9595.8125 4185.6533 9378.778 7318.495
0000e0 48 d3 0e 46 0a b6 03 46 30 70 76 45 ca ce 2a 46
       9140.82 8429.51 3943.0117 10931.697
0000f0 58 a0 c0 45 d3 21 13 46 69 4a b7 45 00 c4 a9 45
       6164.043 9416.456 5865.3013 5432.5

module.Conv7.layers.1.weight f4 [1, 128, 3, 3]
000000 37 39 15 bf b8 d1 16 bf a9 c4 12 bf e3 65 16 bf
       -0.5829043 -0.58913755 -0.5733133 -0.58749217
000010 c2 4e 16 bf ac f1 19 bf e5 7c 1d bf 49 7e 18 bf
       -0.58713925 -0.60134387 -0.615187 -0.59567696
000020 c7 c9 24 bf 3a c6 15 3f bc 23 19 3f c4 67 16 3f
       -0.6437039 0.58505595 0.5982015 0.58752084
000030 ae e1 17 3f 15 c8 14 3f 4e 3a 16 3f 5a 0c 1a 3f
       0.59328735 0.581178 0.58682716 0.60175097
000040 8f 87 17 3f 68 57 13 3f 37 53 18 3f 08 c6 1d 3f
       0.5919122 0.57555246 0.59501976 0.61630297
000050 1e b4 18 3f a8 c5 13 3f 31 e3 1c 3f a3 8d 16 3f
       0.59649837 0.57723475 0.61284167 0.5880987
000060 63 8d 1d 3f 30 b9 1d 3f 7c b7 17 3f f2 50 18 bf
       0.61543864 0.616107 0.5926435 -0.5949851
000070 34 d4 1c bf a2 08 1b bf f7 62 1f bf e6 c8 19 bf
       -0.61261296 -0.6056005 -0.62260383 -0.6007217
000080 1d ab 19 bf 9d ae 15 bf d1 cb 12 bf cb d4 18 bf
       -0.60026723 -0.58469564 -0.5734225 -0.59699696
000090 00 59 1d bf aa 50 22 bf 5e ae 0c bf 79 7f 1d bf
       -0.6146393 -0.63404334 -0.54953563 -0.6152263
0000a0 84 fa 21 bf 88 cf 17 bf 0c e6 11 bf 7c 26 1f bf
       -0.6327288 -0.5930104 -0.5699165 -0.621681
0000b0 50 e4 17 bf d9 b2 1e 3f 5a 10 20 3f 78 6c 1f 3f
       -0.5933275 0.6199165 0.6252495 0.62274885
0000c0 cf 07 1b 3f 50 c1 20 3f 47 47 16 3f 00 b6 1a 3f
       0.6055879 0.6279497 0.5870251 0.6043396
0000d0 74 ce 12 3f c5 3c 1b 3f b2 ed 18 3f 35 91 16 3f
       0.5734627 0.606396 0.59737694 0.5881532
0000e0 bc 1c 1b 3f 9d 7c 1d 3f 63 f0 12 3f d5 0b 1d 3f
       0.6059072 0.6151827 0.5739805 0.6134618
0000f0 6d 2d 18 3f a5 e2 1c 3f e6 a2 11 3f 44 88 1c 3f
       0.59444314 0.6128333 0.5688919 0.61145425
000100 91 a4 12 3f ae 3e 11 3f f1 9a 17 3f 47 c5 1f 3f
       0.5728236 0.56736267 0.59220797 0.62410396
000110 a8 df 1d 3f 06 51 15 3f 64 06 1a 3f b4 fc 1d 3f
       0.616694 0.58326757 0.60166 0.6171372
000120 60 21 12 3f 3f 82 1a 3f bf 7a 18 3f b4 58 1e 3f
       0.57082176 0.6035499 0.59562296 0.618541
000130 70 0e 13 3f 73 84 1a 3f d5 5b 15 3f 73 0a 17 3f
       0.57443905 0.6035835 0.5834325 0.5900032
000140 4c 4c 1b 3f 73 32 1f bf 70 e1 12 bf 47 7d 11 bf
       0.60663295 -0.62186354 -0.5737524 -0.56831783
000150 03 19 18 bf 86 d6 19 bf 01 e8 15 bf 31 1b 19 bf
       -0.59413165 -0.6009296 -0.58557135 -0.59807116
000160 ba 25 16 bf 3a 2b 19 bf ef c8 16 3f 62 b1 17 3f
       -0.58651316 -0.59831583 0.5890035 0.5925504
000170 5f be 12 3f 42 01 1c 3f b3 bb 1a 3f 7a fc 1e 3f
       0.57321733 0.6093942 0.60442656 0.62104
000180 fd 60 16 3f c5 d3 1a 3f 1b bd 12 3f 9e 28 15 bf
       0.5874174 0.60479385 0.573198 -0.582651
000190 1a 66 17 bf 83 0d 20 bf 40 f9 13 bf 58 24 16 bf
       -0.5914017 -0.6252062 -0.578022 -0.58649206
0001a0 b8 f4 12 bf 34 b8 15 bf ad ac 1d bf 50 7e 18 bf
       -0.5740466 -0.58484197 -0.6159161 -0.5956774
0001b0 02 cc 14 3f a2 5b 17 3f ba 8b 17 3f 36 aa 13 3f
       0.5812379 0.59124196 0.5919758 0.57681596
0001c0 bb e6 14 3f 7c a6 15 3f 07 84 1c 3f 63 f3 18 3f
       0.58164567 0.5845716 0.6113896 0.5974638
0001d0 08 6b 1e 3f c3 4e 16 bf b2 35 17 bf cd 47 16 bf
       0.61882067 -0.5871393 -0.5906631 -0.5870331
0001e0 db c7 1b bf a8 a9 1f bf 1b 01 1f bf 54 c7 17 bf
       -0.6085183 -0.6236825 -0.6211106 -0.59288526
0001f0 5c 60 1f bf 8c de 17 bf 46 2a 16 3f 00 9d 19 3f
       -0.6225641 -0.59323955 0.58658254 0.6000519
000200 a4 f0 12 3f 34 40 1f 3f 0e ac 15 3f 93 6f 1a 3f
       0.5739844 0.6220734 0.5846566 0.603265
000210 9b fe 16 3f bf f4 14 3f f3 b5 15 3f c3 6a 1c bf
       0.5898225 0.5818595 0.5848076 -0.61100405
000220 cc d3 19 bf e1 59 18 bf 9e 54 13 bf 0a e5 13 bf
       -0.600888 -0.59512144 -0.5755099 -0.5777136
000230 fc 98 1d bf 65 ec 19 bf 54 9e 16 bf 15 09 13 bf
       -0.6156156 -0.60126334 -0.5883534 -0.57435733
000240 31 d2 11 bf b2 8e 1e bf 43 2a 16 bf 89 9d 23 bf
       -0.5696135 -0.61936486 -0.58658236 -0.63912255
000250 dd 5a 25 bf 81 71 22 bf db ab 0e bf 25 20 1e bf
       -0.6459177 -0.63454443 -0.5573098 -0.617678
000260 b8 2b 1b bf cc 5e 15 bf e2 65 19 bf 19 9b 14 bf
       -0.60613585 -0.58347774 -0.59921086 -0.5804916
000270 28 e8 16 bf 40 6a 1e bf 24 d4 1c bf c3 2e 14 bf
       -0.5894799 -0.61880875 -0.612612 -0.5788385
000280 f3 93 1a bf 8d f1 1c bf 58 61 1f bf 0e c2 1a bf
       -0.60382 -0.6130608 -0.6225791 -0.60452354
000290 16 e5 1c bf 70 a4 11 bf 25 d1 1c bf 8d 6c 17 bf
       -0.6128706 -0.56891537 -0.6125663 -0.5915001
0002a0 96 71 1a bf 26 7b 1c bf 7e 47 18 bf cc 93 1f bf
       -0.6032957 -0.6112541 -0.5948409 -0.62334895
0002b0 ed 84 1a bf be b8 19 bf d5 09 1f bf f2 ec 22 bf
       -0.6035908 -0.6004752 -0.6212438 -0.636428
0002c0 51 14 1e bf c9 54 12 bf 0c 24 1c bf 2b c0 0f bf
       -0.6174975 -0.5716062 -0.60992503 -0.561526
0002d0 e0 4e 15 bf 9b 7b 1f bf b3 bc 14 bf 0b b8 15 bf
       -0.5832348 -0.6229798 -0.5810043 -0.5848395
0002e0 d3 8e 16 bf 9b 45 27 bf 67 0a 15 bf b0 a1 22 bf
       -0.5881168 -0.65340585 -0.58219 -0.63527966
0002f0 0b 22 1f bf d1 8b 19 3f fd f2 1a 3f 3c f8 19 3f
       -0.6216132 0.5997897 0.6052702 0.601444
000300 77 7c 1b 3f 8d d8 17 3f 93 49 18 3f c8 9e 15 3f
       0.60736793 0.59314805 0.59487265 0.58445406
000310 27 6c 20 3f 36 8a 1d 3f 58 78 16 bf 0b 47 14 bf
       0.6266503 0.6153902 -0.5877738 -0.579209
000320 d0 d8 16 bf b3 62 15 bf 35 87 13 bf 2f 77 1d bf
       -0.5892458 -0.5835373 -0.57628185 -0.61509985
000330 b4 6a 13 bf e8 27 1d bf 4d e8 1f bf 38 14 1d bf
       -0.5758469 -0.6138902 -0.6246384 -0.61358976
000340 82 9e 1c bf 96 54 1e bf 62 38 1d bf 99 ad 12 bf
       -0.61179364 -0.6184782 -0.6141416 -0.5729614
000350 52 62 14 bf 62 59 14 bf 1d 96 17 bf f8 13 1c bf
       -0.57962525 -0.5794889 -0.5921343 -0.6096797
000360 1d fb 1a 3f 0e 23 14 3f ec 3c 14 3f 33 7b 18 3f
       0.6053942 0.5786599 0.5790546 0.5956299
000370 d1 eb 16 3f ac bb 1a 3f d3 ca 16 3f 52 14 13 3f
       0.5895358 0.60442615 0.58903235 0.5745288
000380 92 ae 15 3f 54 b1 17 3f 82 9a 16 3f 76 97 1c 3f
       0.584695 0.59254956 0.5882951 0.6116861
000390 c3 00 1a 3f 20 0d 19 3f 40 94 1b 3f 5e e1 1d 3f
       0.6015741 0.5978565 0.60773087 0.6167201
0003a0 67 9c 1d 3f 7a e7 1f 3f b7 e3 1d 3f 36 10 18 3f
       0.61566776 0.6246258 0.6167559 0.59399736
0003b0 75 c1 17 3f f0 28 1d 3f 2a e0 19 3f 42 af 1a 3f
       0.59279567 0.6139059 0.6010767 0.6042367
0003c0 2f 5b 16 3f e4 24 18 3f 9b 84 18 3f af 80 1a 3f
       0.58732885 0.5943129 0.5957734 0.60352606
0003d0 1e 63 1b 3f 6d 28 18 3f 06 74 15 3f 0f 96 11 3f
       0.60698116 0.59436685 0.5838016 0.56869596
0003e0 36 6a 1e 3f e5 04 16 3f 46 90 16 3f d2 fe 19 3f
       0.61880815 0.5860122 0.58813894 0.6015445
0003f0 17 60 17 bf 34 88 0f bf 90 72 11 bf fe bb 19 bf
       -0.59130996 -0.56067204 -0.56815434 -0.6005248
