DIDFuse/saved_models/decoder/IR_AE21.pth (torch, 604881 bytes, 13 tensors)

module.Conv5.layers.0.weight f4 [64, 128, 3, 3]
0	0x3f18e861	0.5972958
1	0x3f13a931	0.5768004
2	0x3f134a2f	0.5753507
3	0x3f1defc4	0.6169398
4	0x3f20968f	0.62729734
5	0x3f1a4cf7	0.6027369
6	0x3f1f30d1	0.6218386
7	0x3f136daf	0.5758924
8	0x3f1a862f	0.60361
9	0x3f1abe54	0.6044667
10	0x3f1307ef	0.5743398
11	0x3f1aff82	0.60546124
12	0x3f1701bc	0.5898702
13	0x3f1fda82	0.6244279
14	0x3f1b0678	0.60556746
15	0x3f126988	0.5719228
16	0x3f19553f	0.598957
17	0x3f182f0a	0.59446776
18	0x3f1e2dba	0.61788523
19	0x3f17a640	0.5923805
20	0x3f193035	0.59839183
21	0x3f12a921	0.5728932
22	0x3f1daee4	0.61594987
23	0x3f1dae7f	0.61594385
24	0x3f17d868	0.59314585
25	0x3f131aa8	0.5746255
26	0x3f1b76ba	0.6072804
27	0x3f146f55	0.5798238
28	0x3f1d2b56	0.6139425
29	0x3f15ca3e	0.5851172
30	0x3f1741c0	0.590847
31	0x3f15bde3	0.5849287
32	0x3f17f3ab	0.5935618
33	0x3f1fa0ef	0.6235494
34	0x3f1c725e	0.6111201
35	0x3f1aae1c	0.6042192
36	0x3f1bf77e	0.6092452
37	0x3f1be143	0.608906
38	0x3f1e3924	0.6180594
39	0x3f16c4fd	0.5889433
40	0x3f1276ff	0.57212824
41	0x3f15c261	0.58499724
42	0x3f1fec6a	0.62470114
43	0x3f11fd11	0.57026774
44	0x3f17f61f	0.59359926
45	0x3f1b0b68	0.6056428
46	0x3f180d2b	0.5939509
47	0x3f14f948	0.58192873
48	0x3f19f363	0.60137004
49	0x3f1d2526	0.6138481
50	0x3f20a4e5	0.6275161
51	0x3f1297aa	0.5726267
52	0x3f1665a2	0.5874883
53	0x3f1840dd	0.59473974
54	0xbf1a0284	-0.6016009
55	0xbf167407	-0.58770794
56	0xbf1e01fc	-0.6172178
57	0xbf1574d6	-0.583814
58	0xbf1b5c57	-0.60687774
59	0xbf113cfd	-0.56733686
60	0xbf1f59b0	-0.6224623
61	0xbf17dae5	-0.5931838
62	0xbf1fa0d9	-0.6235481
63	0x3f1f6b86	0.6227344
64	0x3f208136	0.6269716
65	0x3f173aa0	0.5907383
66	0x3f1b6ed0	0.6071596
67	0x3f1b18ac	0.6058452
68	0x3f12c1b9	0.5732685
69	0x3f1a32a1	0.60233504
70	0x3f17d1af	0.59304327
71	0x3f19c81f	0.60070986
72	0xbf1adb31	-0.6049071
73	0xbf1bd378	-0.6086955
74	0xbf137361	-0.5759793
75	0xbf1e468c	-0.61826396
76	0xbf11212c	-0.5669124
77	0xbf1603bd	-0.58599454
78	0x3f472ce4	0.7780287
79	0x3f45d8c8	0.77283907
80	0xbf07cf5b	-0.53050774
81	0x3f1fef1d	0.6247423
82	0x3f135e8b	0.57566136
83	0x3f12434e	0.5713395
84	0x3f205c8e	0.6264123
85	0x3f1b43c6	0.6065029
86	0x3f1aac0c	0.6041877
87	0x3f168020	0.58789253
88	0x3f17331d	0.5906237
89	0x3f12f1cd	0.5740021
90	0xbf1818eb	-0.5941302
91	0xbf182f3e	-0.59447086
92	0xbf1c95b5	-0.61165935
93	0xbf2126ed	-0.6295002
94	0xbf1af5da	-0.6053139
95	0xbf218d56	-0.63106287
96	0xbf234278	-0.637733
97	0xbf1b9f9e	-0.6079043
98	0xbf2bd3e3	-0.6712019
99	0xbf1477b9	-0.5799518
100	0xbf1390b9	-0.57642704
101	0xbf1f4c3f	-0.6222572
102	0xbf14448b	-0.5791709
103	0xbf1ca53d	-0.61189634
104	0xbf18bdfe	-0.59664905
105	0xbf1414de	-0.5784434
106	0xbf131b77	-0.57463783
107	0xbf18c79b	-0.59679574
108	0xbf179dc4	-0.59225106
109	0xbf19ff18	-0.6015487
110	0xbf1e6a69	-0.6188112
111	0xbf1535a3	-0.5828497
112	0xbf19ae9e	-0.6003207
113	0xbf123700	-0.57115173
114	0xbf1d23f1	-0.6138297
115	0xbf15b472	-0.5847846
116	0xbf159d93	-0.58443564
117	0x3f1c22c1	0.6099053
118	0x3f1de9fa	0.61685145
119	0x3f18e8e7	0.5973038
120	0x3f1752ea	0.5911089
121	0x3f19dff2	0.6010734
122	0x3f18f17b	0.5974347
123	0x3f1b08d0	0.6056032
124	0x3f152b60	0.5826931
125	0x3f18dcff	0.59712213
126	0xbf1e1a6c	-0.61759067
127	0xbf179200	-0.59207153
128	0xbf1d4407	-0.61431926
129	0xbf189253	-0.59598273
130	0xbf1e0e74	-0.61740804
131	0xbf1b0f41	-0.6057015
132	0xbf171869	-0.5902162
133	0xbf1e17b5	-0.61754924
134	0xbf1d3bb3	-0.6141922
135	0xbf1825b2	-0.5943252
136	0xbf1f79d3	-0.62295264
137	0xbf16fc3a	-0.5897862
138	0xbf172e9c	-0.59055495
139	0xbf154f79	-0.5832439
140	0xbf18e73e	-0.5972785
141	0xbf1995d3	-0.5999424
142	0xbf136452	-0.5757495
143	0xbf185576	-0.59505403
144	0xbf17f10c	-0.59352183
145	0xbf18dffa	-0.5971676
146	0xbf177512	-0.5916301
147	0xbf1ff6e5	-0.62486106
148	0xbf1d63ad	-0.6148022
149	0xbf2051e5	-0.6262496
150	0xbf1982a1	-0.5996495
151	0xbf1d5f5d	-0.6147364
152	0xbf13cb87	-0.57732433
153	0x3f1f1d4a	0.62154067
154	0x3f20416e	0.6259984
155	0x3f1b064e	0.60556495
156	0x3f17a5ce	0.5923737
157	0x3f213f4a	0.62987196
158	0x3f16ebd0	0.5895357
159	0xbf18b822	-0.59655964
160	0xbf1f0551	-0.6211749
161	0xbf0e90f5	-0.55689937
162	0xbf17b249	-0.59256417
163	0xbf15e865	-0.5855773
164	0xbf1d4c22	-0.61444294
165	0x3f192743	0.59825534
166	0xbf17b1c5	-0.5925563
167	0x3f1814de	0.5940684
168	0x3f169606	0.5882267
169	0x3f19ad8f	0.60030454
170	0x3f1c9140	0.61159134
171	0x3f1a52b4	0.60282445
172	0x3f168a9d	0.5880526
173	0x3f198089	0.59961754
174	0x3f1c8ac5	0.61149246
175	0x3f1e12bb	0.6174733
176	0x3f1c6582	0.6109239
177	0x3f177e7d	0.5917738
178	0x3f20366f	0.6258306
179	0x3f152abf	0.5826835
180	0x3f1919fe	0.59805286
181	0x3f1e7693	0.6189968
182	0x3f1c85ec	0.6114185
183	0x3f14817c	0.5801008
184	0x3f18cec5	0.59690505
185	0x3f1b990d	0.6078041
186	0xbf125e7f	-0.5717544
187	0xbf1d08b6	-0.61341417
188	0xbf1a067a	-0.6016613
189	0x3f147ccf	0.5800294
190	0x3f177c3d	0.5917395
191	0x3f20c32d	0.62797815
192	0x3f13e0dc	0.57764983
193	0x3f17516c	0.59108615
194	0x3f20e9c7	0.62856716
195	0x3f1d6511	0.6148234
196	0x3f18a5bd	0.59627897
197	0x3f1917c4	0.5980189
198	0x3f1e414c	0.61818385
199	0x3f17d1f8	0.5930476
200	0x3f1f5e82	0.6225358
201	0x3f20b7cf	0.6278047
202	0x3f1b9c89	0.6078573
203	0x3f141606	0.57846105
204	0x3f211a04	0.6293032
205	0x3f14f8de	0.5819224
206	0x3f1565f8	0.58358717
207	0xbf1f0b49	-0.62126595
208	0xbf17caea	-0.59294
209	0xbf1ce621	-0.6128865
210	0xbf1fc64b	-0.62411946
211	0xbf2019b7	-0.6253924
212	0xbf1e08a9	-0.61731964
213	0xbf399f36	-0.7250856
214	0xbf23986f	-0.6390447
215	0xbf1420f5	-0.5786279
216	0xbf1b9d3f	-0.60786813
217	0xbf163085	-0.58667785
218	0xbf130b56	-0.5743917
219	0xbf1b32e8	-0.6062455
220	0xbf1ec256	-0.62015283
221	0xbf1fd2e3	-0.6243116
222	0xbf1b1a43	-0.6058695
223	0xbf161421	-0.58624464
224	0xbf198978	-0.59975386
225	0xbf1a549a	-0.6028534
226	0xbf1665ea	-0.5874926
227	0xbf1dfa6f	-0.61710256
228	0xbf183973	-0.5946266
229	0xbf164e7f	-0.58713526
230	0xbf163e71	-0.5868903
231	0xbf1b655e	-0.6070155
232	0xbf204d38	-0.62617826
233	0xbf1a2d27	-0.60225147
234	0x3f1ec1e1	0.62014586
235	0x3f1441ae	0.5791272
236	0x3f148b0c	0.5802467
237	0x3f16bf61	0.5888577
238	0x3f160785	0.58605224
239	0x3f179b08	0.59220934
240	0x3f129f7a	0.5727459
241	0x3f17598b	0.59121007
242	0x3f192cb7	0.59833854
243	0xbf14dfbd	-0.581539
244	0xbf146570	-0.5796728
245	0xbf1a3fdf	-0.6025371
246	0xbf137b61	-0.57610136
247	0xbf13a46e	-0.57672775
248	0xbf1f53c7	-0.6223721
249	0xbf1e14cd	-0.6175049
250	0xbf165aaa	-0.5873209
251	0xbf1ddfac	-0.6166942
252	0x3f1c4c84	0.61054254
253	0x3f1cde59	0.61276776
254	0x3f1b365c	0.6062982
255	0x3f211846	0.62927663

module.Conv5.layers.0.bias f4 [64]
0	0xbd7e0f36	-0.062026225
1	0xbd1e2b23	-0.038615357
2	0xbdf96544	-0.12177518
3	0x3cb9a871	0.022663327
4	0xbcc7a4b3	-0.024370527
5	0xbd4d53d8	-0.050128788
6	0x3dc4775c	0.095930785
7	0x3de96717	0.11396616
8	0xbd68dddd	-0.05685221
9	0x3d705903	0.05867864
10	0x3ba161f8	0.004925009
11	0x3d4f04ca	0.050541677
12	0xbd0ce415	-0.034397203
13	0xbd9b8470	-0.0759362
14	0x3d84569a	0.064618304
15	0xbe0654ea	-0.1311833
16	0xbd6ede46	-0.058317445
17	0xbb1e9bda	-0.0024201781
18	0x3d3bdc42	0.04586435
19	0xbc53bd64	-0.012923572
20	0xbd63f200	-0.05565071
21	0x3da8c70b	0.082410894
22	0x3e0a381c	0.13497967
23	0xbde08785	-0.10963348
24	0xbdb450fc	-0.08804509
25	0x3d84e887	0.064896636
26	0xbab1afba	-0.0013556399
27	0xbdd19670	-0.10233772
28	0xbb527798	-0.003211474
29	0x3da2a424	0.079414636
30	0xbca76e29	-0.02043827
31	0xbcf4b458	-0.02987115
32	0x3c17c66b	0.009263615
33	0xbc334c2b	-0.010943453
34	0xbc4fdc1c	-0.0126867555
35	0xbc8dcb39	-0.017308818
36	0x3c4c343e	0.012463627
37	0xbd48492f	-0.04889792
38	0x3e1dd248	0.15412247
39	0xbcc1de9d	-0.02366572
40	0xbda76bc7	-0.08174854
41	0x3c01d635	0.007924606
42	0x3bfd11c6	0.007723066
43	0x3b3b40e3	0.002857261
44	0x3e134b10	0.14384103
45	0x3e1e0029	0.15429749
46	0x3d19b35c	0.037524566
47	0xbd91da76	-0.07121746
48	0x3e08fff4	0.13378888
49	0xbd5e71a2	-0.054307587
50	0x3d174ee9	0.03694049
51	0x3c94ce5a	0.018164802
52	0x3e2929e0	0.1651988
53	0xbd12bb88	-0.035823375
54	0x3d86fa23	0.065906785
55	0x3d59fc5d	0.053219188
56	0xb995e84f	-0.00028592578
57	0x3c860eb0	0.016364425
58	0xbca07fb6	-0.019592147
59	0xbb2b0b5d	-0.0026099302
60	0x3d33c59d	0.04388963
61	0xbc45a158	-0.012062393
62	0x3d7e2e7b	0.062056046
63	0xbdfc6b31	-0.12325133

module.Conv5.layers.1.weight f4 [64]
0	0x3f005a9f	0.50138277
1	0x3eb10146	0.34571284
2	0x3fa6f090	1.3042164
3	0x3f94b584	1.1617894
4	0x3f2a010d	0.66407853
5	0x3fba4884	1.455338
6	0x3eccef3c	0.4002627
7	0x3fbbbe43	1.4667438
8	0x3fd0db99	1.6317016
9	0x3c176a95	0.00924172
10	0x3ed98c12	0.42489678
11	0x3fd549af	1.6663111
12	0x3feaa076	1.8330219
13	0x4009e95a	2.1548676
14	0x3fad27f7	1.3527821
15	0x3f897a71	1.0740491
16	0x4020bbd1	2.5114634
17	0x402e47c2	2.7231297
18	0x3edc30be	0.43005937
19	0x403ed69f	2.9818494
20	0x3de5152e	0.1118568
21	0x3e728c90	0.23686433
22	0x3d2f57eb	0.042808454
23	0x400c227f	2.1896055
24	0x3f918b71	1.1370679
25	0x3f253939	0.6454044
26	0x3fa21d13	1.2665123
27	0x3f9fe672	1.2492201
28	0x3fbd089a	1.476825
29	0x3f9612e2	1.1724513
30	0x4036cd56	2.8562827
31	0x3fd21c84	1.6414952
32	0x3dcc4ffb	0.099761926
33	0x3f59f47d	0.85138685
34	0x400a8f32	2.16499
35	0xbf4dccf1	-0.8039084
36	0x3fe9afcd	1.8256775
37	0x3fa0e8ae	1.2571008
38	0x3f4ff2c0	0.8122978
39	0x3eb4ad7a	0.35288602
40	0x3e9d0e3d	0.30674925
41	0x3f67dca6	0.9057106
42	0x3f2b5c66	0.66937864
43	0x3f67eb46	0.90593374
44	0x3ed4756a	0.4149583
45	0x3f595dbe	0.84908664
46	0x3ecd54c2	0.40103728
47	0x40451fd5	3.0800679
48	0xbf604a4a	-0.87613356
49	0x3f70bb74	0.9403603
50	0x3f92930b	1.1451124
51	0x3e85b47a	0.26114255
52	0x3ea58722	0.3232966
53	0xbee34a19	-0.4439247
54	0xbf8b0790	-1.0861683
55	0x3eb240aa	0.3481496
56	0x401aa427	2.416269
57	0xbf1e94d3	-0.6194584
58	0x3e98a8df	0.29816338
59	0x3fa53519	1.2906829
60	0x3fd7720e	1.6831682
61	0x3fb130fa	1.3843071
62	0x3df52f88	0.119719565
63	0x3fa25312	1.2681601

module.Conv5.layers.1.bias f4 [64]
0	0xbf8d5997	-1.1042966
1	0xbfa11576	-1.2584674
2	0x3ddb1b37	0.1069855
3	0x3f8844fe	1.0646055
4	0x3f843b37	1.0330571
5	0x3fe43922	1.7829936
6	0xbf655404	-0.8958132
7	0xbda027c1	-0.078200825
8	0x3e9a109e	0.30090803
9	0xbf49585e	-0.7865046
10	0xbfafe48a	-1.374162
11	0x3f1aa9f9	0.6041561
12	0x3ff2e204	1.8975224
13	0x3f963111	1.1733724
14	0x3eeedfd9	0.46655157
15	0x3f6ee493	0.93317527
16	0x3fb615bc	1.4225383
17	0x3f44439f	0.7666568
18	0xbf369cd0	-0.71333027
19	0xc0579aa1	-3.3688128
20	0xbf922d9a	-1.1420166
21	0xbf0a6476	-0.5405954
22	0xbfcaf57f	-1.585617
23	0x3f835534	1.0260377
24	0x3a36b502	0.0006969721
25	0xbe962ad7	-0.2932956
26	0x3e8576e0	0.26067257
27	0xbefed48d	-0.49771538
28	0x405acd24	3.4187708
29	0x3db77c8f	0.089593045
30	0xbeb979e5	-0.3622581
31	0x3fa492d1	1.2857305
32	0xbf0942fd	-0.5361784
33	0x3d8c4e62	0.06850888
34	0x3dcf7a48	0.10130745
35	0xbe803d3b	-0.25046715
36	0x3ec61b94	0.38692915
37	0xbdd05ada	-0.101735786
38	0x3f0d0b0e	0.55094993
39	0xbf9cd84d	-1.225351
40	0xbf69d43f	-0.91339487
41	0xbdd1629d	-0.10223887
42	0xbf69cd33	-0.91328734
43	0x3dfc2f67	0.12313729
44	0xbf365a09	-0.7123113
45	0xbdb4422e	-0.08801685
46	0xbf21e1f0	-0.6323538
47	0xc095548c	-4.6665707
48	0xbedabeab	-0.42723593
49	0x3edd5611	0.43229726
50	0x3f6352ff	0.88798517
51	0xbe566385	-0.20936401
52	0xbf6c7e3d	-0.92380124
53	0x3f82c2d1	1.0215703
54	0xbf8e863b	-1.1134714
55	0xbf12d9fb	-0.5736386
56	0x3f9b8d94	1.2152581
57	0x3f6a1eaa	0.9145304
58	0x3f212e05	0.62960845
59	0x3ed807cb	0.42193446
60	0x3fd7d0c9	1.6860591
61	0xbf853b68	-1.0408754
62	0xbf161164	-0.58620286
63	0xbeb27a3a	-0.34858876

module.Conv5.layers.1.running_mean f4 [64]
0	0xc35d2197	-221.13121
1	0xc33b6ec2	-187.43265
2	0x4142f517	12.184836
3	0x43539613	211.58623
4	0x432e9a78	174.6034
5	0x435d2950	221.16138
6	0x435c38a2	220.22122
7	0xc306fe48	-134.99329
8	0x43255a76	165.35336
9	0x42e98a9f	116.770744
10	0xc35662e2	-214.38626
11	0xc357e31e	-215.88718
12	0xc28c4c8e	-70.14952
13	0xc33fed3c	-191.9267
14	0xc3452b83	-197.16997
15	0xc33ffbc5	-191.98347
16	0xc30bad40	-139.67676
17	0xc301769b	-129.4633
18	0x4348165e	200.08737
19	0xc35a65f9	-218.39833
20	0x434b5f66	203.37265
21	0x433e3497	190.20543
22	0xc34687a1	-198.5298
23	0x430ef5cd	142.96016
24	0x432ee195	174.88118
25	0xc346f925	-198.97322
26	0xc34b7374	-203.45099
27	0x43300f6c	176.06024
28	0x42b3f1c8	89.97223
29	0xc33f7389	-191.45131
30	0x4311941b	145.57854
31	0xc2bc5bc0	-94.1792
32	0x42cb54bf	101.66552
33	0xc33af87d	-186.97066
34	0x433eb8b7	190.72154
35	0x42e20ae9	113.02131
36	0xc349b13d	-201.69234
37	0xc34918c4	-201.09674
38	0xc3101396	-144.0765
39	0x42a0912f	80.28356
40	0x431ee8e3	158.90971
41	0xc32c93db	-172.57756
42	0x433b9fdb	187.62444
43	0xc34fc778	-207.77917
44	0x43376302	183.38675
45	0xc339a5fd	-185.64839
46	0x43499c4d	201.61055
47	0xc324d76e	-164.84152
48	0x4344e65e	196.89987
49	0xc34a3358	-202.20056
50	0x434bdb5d	203.85689
51	0xc301d52a	-129.83267
52	0x434e97ac	206.59247
53	0x40cfed81	6.497742
54	0x433b928c	187.57245
55	0x42e5954d	114.7916
56	0xc2bcc878	-94.39154
57	0x429a7df7	77.246025
58	0x436069cb	224.41325
59	0xc209c431	-34.441593
60	0x436ad577	234.83385
61	0x42f72d19	123.58808
62	0x42f62a28	123.08234
63	0x43504368	208.2633

module.Conv5.layers.1.running_var f4 [64]
0	0x458b080c	4449.006
1	0x4462d8df	907.3886
2	0x443c7256	753.7865
3	0x44c8f049	1607.5089
4	0x4460a1b9	898.5269
5	0x44907a78	1155.8271
6	0x452833ca	2691.2368
7	0x45293725	2707.4465
8	0x45e27c46	7247.534
9	0x441a056d	616.0848
10	0x4500baa7	2059.6658
11	0x45e2b099	7254.0747
12	0x459eb86a	5079.052
13	0x45ba7826	5967.0186
14	0x459ae81d	4957.014
15	0x452a14eb	2721.3074
16	0x451beac0	2494.6719
17	0x45810829	4129.02
18	0x4589e64e	4412.788
19	0x45ae3e21	5575.766
20	0x44469a1e	794.4081
21	0x45b53166	5798.175
22	0x44a25ba7	1298.8641
23	0x461b02df	9920.718
24	0x442300a9	652.0103
25	0x458c14da	4482.6064
26	0x45883210	4358.258
27	0x4488c71a	1094.2219
28	0x44510d90	836.2119
29	0x44e99ab0	1868.834
30	0x45f3cdc0	7801.7188
31	0x45cb5201	6506.2505
32	0x4408c466	547.0687
33	0x45a97f3d	5423.905
34	0x45d5b918	6839.1367
35	0x4466c174	923.0227
36	0x45974c4b	4841.5366
37	0x46067436	8605.053
38	0x44a1e8a6	1295.2703
39	0x456b0c00	3760.75
40	0x44dafeba	1751.9602
41	0x45b481cf	5776.226
42	0x44c5583e	1578.7576
43	0x45b7a123	5876.142
44	0x45b112eb	5666.3647
45	0x4502ec8d	2094.7844
46	0x45137f3b	2359.952
47	0x43aaa6ab	341.3021
48	0x4537b82a	2939.5103
49	0x458acb86	4441.4404
50	0x4574318e	3907.0972
51	0x4583417f	4200.187
52	0x459a549f	4938.5776
53	0x44dabb45	1749.8522
54	0x45778319	3960.1936
55	0x4452bfa5	842.99445
56	0x453a6170	2982.0898
57	0x458c3009	4486.0044
58	0x4560b48d	3595.2844
59	0x44cd042c	1640.1304
60	0x44d1a33d	1677.1012
61	0x43abfac4	343.9591
62	0x4511533d	2325.2024
63	0x456a1320	3745.1953

module.Conv6.layers.0.weight f4 [64, 128, 3, 3]
0	0x3f17bdf4	0.5927422
1	0x3f1acc66	0.6046814
2	0x3f13b95e	0.5770472
3	0x3f170627	0.5899376
4	0x3f1b7845	0.6073039
5	0x3f1b4f64	0.60668015
6	0x3f13af6e	0.5768956
7	0x3f1d40fd	0.6142729
8	0x3f219ebe	0.63132846
9	0x3f17dbfb	0.5932004
10	0x3f15c551	0.58504206
11	0x3f15b461	0.5847836
12	0x3f1fa7a0	0.6236515
13	0x3f1ddb33	0.61662596
14	0x3f1e4e95	0.61838657
15	0x3f135f9e	0.57567775
16	0x3f1487d2	0.58019745
17	0x3f1455ff	0.5794372
18	0xbf134eed	-0.57542306
19	0xbf1b6fde	-0.6071757
20	0xbf1dc575	-0.6162942
21	0xbf1881a1	-0.595728
22	0xbf1c6c26	-0.6110252
23	0xbf136932	-0.5758239
24	0xbf156ba8	-0.58367395
25	0xbf146fde	-0.57983196
26	0xbf1c819d	-0.61135274
27	0x3f159fe1	0.5844708
28	0x3f1eafc7	0.61986965
29	0x3f1deab3	0.6168625
30	0x3f1a084b	0.60168904
31	0x3f1261f7	0.5718073
32	0x3f1cda0c	0.61270213
33	0x3f1a344b	0.6023604
34	0x3f1b997f	0.6078109
35	0x3f12cf80	0.5734787
36	0x3f15f844	0.5858195
37	0x3f1ab9a4	0.60439515
38	0x3f13160f	0.57455534
39	0x3f1243f3	0.5713493
40	0x3f1a1b8f	0.601983
41	0x3f16f1ca	0.5896269
42	0x3f16beac	0.5888469
43	0x3f19998f	0.59999937
44	0x3f14398b	0.57900304
45	0x3f16b01f	0.5886249
46	0x3f1f18bc	0.62147117
47	0x3f226cf7	0.6344752
48	0x3f1846d2	0.59483063
49	0x3f1baae4	0.60807633
50	0x3f168fb3	0.5881302
51	0x3f1b1ca9	0.60590607
52	0x3f1df289	0.61698204
53	0x3f20fab0	0.6288252
54	0x3f1fefcf	0.62475294
55	0x3f20e643	0.6285135
56	0x3f1c8521	0.6114064
57	0x3f1303ea	0.5742785
58	0x3f1f27da	0.62170184
59	0x3f1398ce	0.57655036
60	0x3f1991bd	0.59988004
61	0x3f1a28f1	0.6021872
62	0x3f1ac97b	0.60463685
63	0xbf1f96a5	-0.6233924
64	0xbf169756	-0.5882467
65	0xbf1b6175	-0.6069558
66	0xbf2191d1	-0.63113123
67	0xbf176858	-0.5914359
68	0xbf1d0372	-0.6133338
69	0xbf1eacf0	-0.6198263
70	0xbf16005f	-0.58594316
71	0xbf1fc2af	-0.6240644
72	0xbf134216	-0.57522714
73	0xbf169761	-0.58824736
74	0xbf1c3771	-0.61022097
75	0xbf1c610a	-0.6108557
76	0xbf164252	-0.58694947
77	0xbf1e8f1e	-0.6193713
78	0xbf204e7f	-0.62619776
79	0xbf1c55e5	-0.61068565
80	0xbf144948	-0.5792432
81	0x3f18549d	0.5950411
82	0x3f1eff42	0.6210824
83	0x3f2068d7	0.6265997
84	0x3f18649c	0.5952852
85	0x3f14fc7d	0.58197767
86	0x3f16fe0e	0.58981407
87	0x3f1b6be9	0.6071153
88	0x3f124248	0.5713239
89	0x3f1af9ec	0.605376
90	0x3f201c1a	0.6254288
91	0x3f1f4953	0.6222126
92	0x3f1ab499	0.6043182
93	0x3f14a3e1	0.5806256
94	0x3f1f3fac	0.6220653
95	0x3f1743c5	0.59087783
96	0x3f1ae079	0.6049877
97	0x3f1770ac	0.591563
98	0x3f15bb17	0.584886
99	0x3f1f1bd5	0.62151843
100	0x3f148458	0.5801444
101	0x3f1e4cfd	0.61836225
102	0x3f1add7c	0.6049421
103	0x3f16915b	0.58815545
104	0x3f16481a	0.5870377
105	0x3f19039d	0.5977114
106	0x3f1ad7b8	0.6048541
107	0x3f15408e	0.5830163
108	0x3f16a931	0.58851916
109	0x3f1a3fdc	0.6025369
110	0x3f1da623	0.6158163
111	0x3f1575d5	0.5838292
112	0x3f1ada79	0.6048961
113	0x3f14f054	0.5817921
114	0x3f1d6b65	0.61491996
115	0x3f206d26	0.6266655
116	0x3f1cc7ba	0.6124226
117	0x3f11c564	0.5694182
118	0x3f129071	0.5725165
119	0x3f20e247	0.6284527
120	0x3f19e349	0.60112435
121	0x3f16d56b	0.589194
122	0x3f123fbe	0.5712851
123	0x3f1f29fe	0.6217345
124	0x3f2067a9	0.6265817
125	0x3f1385fb	0.5762631
126	0xbf2562c4	-0.6460383
127	0xbf1c32cf	-0.6101503
128	0xbf1e8a8d	-0.6193016
129	0x3e02235c	0.12708801
130	0xbf2868da	-0.6578499
131	0xbf194533	-0.59871215
132	0x3f1c9062	0.6115781
133	0x3f1c2b18	0.61003256
134	0xbf1cbe5c	-0.61227965
135	0xbf10fc0e	-0.56634605
136	0xbf10fb92	-0.56633866
137	0xbe470921	-0.19437076
138	0xbf1009d4	-0.56264997
139	0xbf147440	-0.57989883
140	0xbf0d88d0	-0.55286884
141	0xbf18d901	-0.5970612
142	0xbf1c9435	-0.61163646
143	0xbf16ef1b	-0.58958596
144	0x3f18a4c0	0.5962639
145	0x3f1a3da2	0.60250294
146	0x3f1aa8b3	0.60413665
147	0x3f14f936	0.58192766
148	0x3f1baffa	0.60815394
149	0x3f1277fb	0.57214326
150	0x3f14c751	0.5811663
151	0x3f185ebe	0.59519565
152	0x3f1682a2	0.5879308
153	0x3f155109	0.58326775
154	0x3f1952df	0.59892076
155	0x3f1dc7e2	0.6163312
156	0x3f1fe213	0.62454337
157	0x3f19b9fa	0.600494
158	0x3f12687e	0.5719069
159	0x3f17d098	0.59302664
160	0x3f178082	0.5918046
161	0x3f1e8c4e	0.6193284
162	0x3f1b1b02	0.60588086
163	0x3f16e7fb	0.58947724
164	0x3f168e12	0.5881053
165	0x3f17f7ac	0.5936229
166	0x3f184348	0.59477663
167	0x3f199366	0.5999054
168	0x3f171611	0.59018046
169	0x3f15dee4	0.5854323
170	0x3f194219	0.5986648
171	0x3f20e850	0.6285448
172	0x3f15e71e	0.5855578
173	0x3f1bca98	0.6085601
174	0x3f18a312	0.59623826
175	0x3f177eac	0.5917766
176	0x3f201376	0.62529695
177	0x3f1d3a5e	0.61417186
178	0x3f1868a1	0.5953465
179	0x3f1d78b3	0.615123
180	0xbf1d8f20	-0.61546516
181	0xbf1f71d6	-0.62283075
182	0xbf14109c	-0.57837844
183	0xbf1d50cf	-0.6145143
184	0xbf1daba9	-0.6159006
185	0xbf1decc9	-0.6168943
186	0xbf1f6314	-0.62260556
187	0xbf163d5e	-0.5868739
188	0xbf15fad2	-0.58585846
189	0x3f1b244a	0.6060225
190	0x3f128e53	0.5724842
191	0x3f133212	0.57498276
192	0x3f1df99a	0.61708987
193	0x3f18085c	0.59387755
194	0x3f1ad4a2	0.604807
195	0x3f20c425	0.6279929
196	0x3f15a3ff	0.58453363
197	0x3f1eb193	0.61989707
198	0x3f1a9b29	0.60393006
199	0x3f2146d3	0.62998694
200	0xbf140a11	-0.5782786
201	0x3f1d322e	0.61404693
202	0x3f210d73	0.62911147
203	0x3f17b2bf	0.5925712
204	0x3f1304b9	0.5742908
205	0x3f1870fc	0.595474
206	0x3f14cb95	0.5812314
207	0xbf158672	-0.5840827
208	0xbf133d64	-0.5751555
209	0xbf11413e	-0.56740177
210	0xbf1c0a5a	-0.60953295
211	0xbf1d0887	-0.61341137
212	0xbf1f83c5	-0.6231044
213	0xbf21bb7c	-0.63176703
214	0xbf141d63	-0.5785734
215	0xbf18be3b	-0.5966527
216	0xbf15234b	-0.5825698
217	0xbf14e380	-0.5815964
218	0xbf1f373f	-0.62193674
219	0xbf1dcaac	-0.6163738
220	0xbf15f5f3	-0.58578414
221	0xbf1d4c2e	-0.61444366
222	0xbf1a599c	-0.60292983
223	0xbf1e9c79	-0.6195751
224	0xbf1f693b	-0.62269944
225	0xbf1e80c3	-0.61915225
226	0xbf2130ee	-0.62965286
227	0xbf1b3295	-0.6062406
228	0xbf17612f	-0.59132665
229	0xbf16046e	-0.5860051
230	0xbf193270	-0.59842587
231	0xbf1e9608	-0.6194768
232	0xbf13115f	-0.5744838
233	0xbf1d5da6	-0.6147102
234	0x3f1a287f	0.6021804
235	0x3f1a096b	0.6017062
236	0x3f202be7	0.6256699
237	0x3f16b250	0.58865833
238	0x3f1c7c26	0.61126935
239	0x3f1a16dd	0.60191137
240	0x3f1c9096	0.6115812
241	0x3f207a4d	0.62686616
242	0x3f12a351	0.5728045
243	0xbf14018e	-0.5781487
244	0xbf188eee	-0.59593093
245	0xbf1d4edf	-0.6144847
246	0xbf1d16ba	-0.61362803
247	0xbf205002	-0.6262208
248	0xbf192b12	-0.59831345
249	0xbf1f83f2	-0.6231071
250	0xbf1ff771	-0.6248694
251	0xbf1884d1	-0.5957766
252	0x3f14c987	0.58120006
253	0x3f13a81b	0.57678384
254	0x3f1833aa	0.59453833
255	0x3f1ecb46	0.6202892

module.Conv6.layers.0.bias f4 [64]
0	0x3d42cb7c	0.04755734
1	0xbd96c85c	-0.07362434
2	0xbd1861af	-0.037202533
3	0x3d499890	0.04921776
4	0x3c544e40	0.012958109
5	0xbd85aabe	-0.06526707
6	0x3cde373d	0.027125949
7	0xbdc3a503	-0.09552958
8	0x3d400d4b	0.046887677
9	0x3cb14b5b	0.021642378
10	0xbd61ccc3	-0.055126917
11	0x3db82bb9	0.089927144
12	0xbea4afb9	-0.32165316
13	0x3c834db1	0.016028257
14	0x3bcff6fc	0.0063465815
15	0xbdec73bc	-0.11545512
16	0xbd7c1f27	-0.061553147
17	0xbdf46c5a	-0.11934729
18	0xbe0734fb	-0.13203804
19	0x3de5de9d	0.11224101
20	0x3df768e4	0.12080553
21	0x3dba699d	0.091021754
22	0xbd4a316e	-0.049363546
23	0xbded2b30	-0.11580503
24	0x3e3f2090	0.18664765
25	0x3e16dc1d	0.14732404
26	0x3cd67084	0.026176699
27	0x3c9f7c6b	0.019468507
28	0x3db75f69	0.08953745
29	0xbd529f04	-0.05142118
30	0x3d18e104	0.037323967
31	0x3cd8a1a0	0.026444256
32	0x3c6a6456	0.0143061485
33	0xbc1246af	-0.008927985
34	0x3d734237	0.05938932
35	0x3d559a54	0.052149132
36	0xbb749019	-0.0037317334
37	0x3dcc8025	0.09985379
38	0x3ddc1313	0.107458256
39	0x3e8e2f0c	0.2777027
40	0x3d1daca9	0.03849474
41	0xbcfd8bf3	-0.030950522
42	0x3d878d57	0.06618755
43	0xbcfaa2a8	-0.030595139
44	0xbdb38aa0	-0.08766675
45	0x3d15b281	0.036547188
46	0xbe3f0d53	-0.18657427
47	0x3d7a5d80	0.061124325
48	0x3d5f4a8f	0.054514464
49	0x3cb81d59	0.022474932
50	0xbc80f4da	-0.015741754
51	0xbca0cdb9	-0.019629346
52	0xbd4af85c	-0.04955326
53	0xbe10757e	-0.1410732
54	0x3d3e3774	0.046439603
55	0x3e7dfcab	0.24803416
56	0xbda5fd7b	-0.08104988
57	0x3d7af89e	0.061272256
58	0x3de24e03	0.11050036
59	0x3d649042	0.055801637
60	0x3e51ae3e	0.20476624
61	0x3e264510	0.16237283
62	0xbe2e1b90	-0.17002702
63	0xbcc38416	-0.023866694

module.Conv6.layers.1.weight f4 [64]
0	0x3f147b0b	0.5800025
1	0x3ee436c4	0.44573033
2	0x3fa7f32b	1.3121084
3	0x3f755211	0.9582835
4	0x3f6be8e8	0.9215226
5	0x3fc4a902	1.5364077
6	0x3ece96a5	0.40349308
7	0x3f87f669	1.0622073
8	0x3f54591a	0.8294846
9	0x3f688769	0.9083162
10	0x3e8c607a	0.27417356
11	0x3ea9e056	0.33178967
12	0x3f47cc15	0.7804578
13	0x3f7c64b3	0.98591155
14	0x3e2251ec	0.15851563
15	0x3ed8af8d	0.42321435
16	0x3f86b7e3	1.0524868
17	0x3f61c6d7	0.8819403
18	0x3f8b3f0a	1.0878613
19	0x3f9dff55	1.2343546
20	0x3f81404c	1.0097747
21	0x3fbe2f29	1.4858142
22	0x3f2739c6	0.6532253
23	0x3f9074ad	1.1285607
24	0x3f0fbb37	0.5614504
25	0x3fc0bfb3	1.5058502
26	0x3f9800c3	1.1875232
27	0x3f2a933b	0.66630906
28	0x3f1499db	0.58047265
29	0x3ec10fe3	0.37707433
30	0x3f7dd126	0.9914726
31	0x3f839aa7	1.0281571
32	0x3e91796b	0.28412947
33	0x3ea3d451	0.31997922
34	0x3f78a0c8	0.9712033
35	0x3f975abd	1.1824566
36	0xbca259a6	-0.019818138
37	0x3faefa33	1.3670105
38	0x3f10d851	0.5658007
39	0x3fa508c7	1.2893304
40	0x3f92f53f	1.1481093
41	0x3f92e36b	1.1475652
42	0xbe159bee	-0.14610264
43	0x3f30bbfe	0.69036853
44	0x3fba7e58	1.4569807
45	0x4007e9e0	2.1236496
46	0x3fc804a9	1.5626422
47	0xbde2631e	-0.11054061
48	0x3f37a4fe	0.71736133
49	0x3e288975	0.16458686
50	0x3fa6c011	1.3027364
51	0x3f4a0a07	0.7892155
52	0x3f7da12b	0.9907405
53	0x3f755cbb	0.9584462
54	0x3f0a9a8a	0.5414206
55	0x3fc23733	1.5173095
56	0x3f34654d	0.7046707
57	0x3f8aa73e	1.0832288
58	0x3efac4ed	0.48978367
59	0xbf6f82fc	-0.9355924
60	0x3edfca7d	0.43709174
61	0x3ec0ca84	0.37654507
62	0x3f9e0d00	1.2347717
63	0x3fc52b20	1.5403786

module.Conv6.layers.1.bias f4 [64]
0	0xbff026c9	-1.8761836
1	0xbf267797	-0.6502623
2	0x3f38e617	0.7222609
3	0x3fb626ac	1.4230552
4	0x3ffb78a3	1.964619
5	0x3ef3cbcd	0.47616425
6	0x3f924b30	1.1429195
7	0x3ffd364f	1.9782199
8	0x3ffcb2ee	1.9742105
9	0xbf8dc8d4	-1.1076913
10	0x3f270e57	0.65256256
11	0xbf85894b	-1.0432523
12	0xbe923a59	-0.2856014
13	0x4000812e	2.0078845
14	0x3f2ebce3	0.6825697
15	0xbfb2136b	-1.3912176
16	0x40562293	3.3458602
17	0xc02dfdef	-2.7186239
18	0x3f9c2f0a	1.2201855
19	0x401f6b09	2.490908
20	0xc015b0d8	-2.3389187
21	0x3ef6d888	0.48212075
22	0xbfc12696	-1.50899
23	0x3fae14bb	1.3600076
24	0xbf14e260	-0.5815792
25	0x3ef879eb	0.48530516
26	0x3f9fc42e	1.2481744
27	0xbf4ecd86	-0.80782354
28	0xbff74314	-1.9317346
29	0xbfc33401	-1.5250245
30	0x3ff8f16a	1.9448674
31	0x40275548	2.6145802
32	0x3f7d2a82	0.98892987
33	0x3f8d0665	1.1017576
34	0xc0042f74	-2.0653963
35	0x402d1578	2.7044353
36	0x3f92e80c	1.1477065
37	0x3eef2e44	0.46714985
38	0xbf57b3a1	-0.84258467
39	0x4002b39b	2.0422122
40	0xc08b66fd	-4.356322
41	0xbf0da2f5	-0.5532678
42	0xbf527835	-0.8221467
43	0x402e42b5	2.7228215
44	0x3f3c0b3d	0.7345465
45	0x4095b5f4	4.678461
46	0x3f076196	0.5288328
47	0x3f5901e2	0.847685
48	0xbfac2a9a	-1.3450501
49	0xbf01dfb3	-0.5073196
50	0xbf6f2d38	-0.93428373
51	0x3fce5e4d	1.6122528
52	0x40049a02	2.0719
53	0x3fff8818	1.9963408
54	0xbf167980	-0.58779144
55	0x3f0d70fa	0.55250514
56	0xbf1040b1	-0.5634871
57	0xc0469752	-3.1029859
58	0xbfb0d660	-1.3815422
59	0x3daa3822	0.08311488
60	0xbf9b0cf7	-1.2113332
61	0xbf0fac8c	-0.5612266
62	0x3fd9cb48	1.7015162
63	0x40a21788	5.0653725

module.Conv6.layers.1.running_mean f4 [64]
0	0x4345bcc9	197.73744
1	0xc337b42d	-183.70381
2	0x434a79dd	202.47603
3	0xc35894e1	-216.58156
4	0xc342e827	-194.90685
5	0x436203bd	226.0146
6	0x4336a81e	182.65671
7	0x433a4d9f	186.3032
8	0x432d4ff7	173.31236
9	0x42e1ea0b	112.957115
10	0x436b68a4	235.40875
11	0x4342be07	194.7423
12	0xc3245af5	-164.3553
13	0xc33be494	-187.89288
14	0x435186a8	209.526
15	0x433e7ee9	190.49574
16	0xc34e60fc	-206.37885
17	0x433425cf	180.14769
18	0xc2f3b7b7	-121.85882
19	0xc333d2e1	-179.82375
20	0x4340fc34	192.98517
21	0x436609fd	230.03902
22	0x432e0ab4	174.04181
23	0xc3080263	-136.00932
24	0xc352eaa2	-210.91653
25	0x434cc4f1	204.7693
26	0x4342f688	194.96301
27	0xc333357c	-179.20892
28	0x433e6b23	190.4185
29	0x43656f5a	229.43497
30	0xc32b4552	-171.27078
31	0xc3415e35	-193.368
32	0x433b37a5	187.21736
33	0x434c35a1	204.20949
34	0x4339ded5	185.87044
35	0xc33de832	-189.90701
36	0xc347b333	-199.7
37	0x4351805a	209.50137
38	0x43324b77	178.29478
39	0x43366073	182.37675
40	0x43535196	211.3187
41	0x435013de	208.0776
42	0xc2fe59ba	-127.17525
43	0xc34c1ce1	-204.11281
44	0x4349b01c	201.68793
45	0xc317c53d	-151.77046
46	0x43593480	217.20508
47	0xc2e67b08	-115.240295
48	0x433dac35	189.67268
49	0xc36cc777	-236.77916
50	0xc24b4d26	-50.82534
51	0xc380fccb	-257.97495
52	0xc35f7048	-223.4386
53	0xc3314768	-177.27893
54	0xc346aab9	-198.66689
55	0x4349b7c7	201.71788
56	0xc34e7466	-206.45468
57	0x433a59e8	186.3512
58	0x432f3b4d	175.23164
59	0x435a3340	218.2002
60	0x432b0708	171.02747
61	0xc36e132a	-238.07486
62	0xc339cd52	-185.80203
63	0xc34c7917	-204.473

module.Conv6.layers.1.running_var f4 [64]
0	0x456e008d	3808.0344
1	0x45330beb	2864.7449
2	0x45dbc889	7033.067
3	0x44e14efa	1802.468
4	0x45336b7a	2870.7173
5	0x45dbf28c	7038.3184
6	0x45872933	4325.15
7	0x453fac36	3066.7632
8	0x45487fee	3207.9956
9	0x468ef1e4	18296.945
10	0x45ca40c1	6472.094
11	0x44d47486	1699.6414
12	0x4513a7c1	2362.4846
13	0x45230b63	2608.7117
14	0x45e00d6f	7169.679
15	0x4599de52	4923.79
16	0x4563e1f4	3646.122
17	0x45ce8876	6609.0576
18	0x44e8e4a7	1863.1454
19	0x451a61e2	2470.1177
20	0x45343ec2	2883.9224
21	0x45e503b2	7328.462
22	0x451bbc46	2491.767
23	0x44f1aef4	1933.4673
24	0x463ea5e0	12201.469
25	0x45dece32	7129.7744
26	0x454631ba	3171.108
27	0x45f8cd48	7961.66
28	0x4574296e	3906.5894
29	0x45830234	4192.2754
30	0x453aa7e4	2986.4932
31	0x45b7ea68	5885.301
32	0x458cad0d	4501.6313
33	0x45928d52	4689.665
34	0x4554ce42	3404.891
35	0x4521a184	2586.0947
36	0x45f14fa3	7721.9546
37	0x45fc76f1	8078.8677
38	0x45628aa2	3624.6646
39	0x45221762	2593.4614
40	0x45c94bda	6441.4814
41	0x45bd4769	6056.9263
42	0x4615e6d5	9593.708
43	0x45b9900b	5938.0054
44	0x459f0ae6	5089.3623
45	0x460c5573	8981.362
46	0x45dbe6bf	7036.8433
47	0x4589550d	4394.6313
48	0x452baf56	2746.9585
49	0x45d06760	6668.922
50	0x44803165	1025.5436
51	0x45a0007b	5120.06
52	0x45d7830f	6896.3823
53	0x452bd330	2749.1992
54	0x45ead4f2	7514.618
55	0x45ab8583	5488.689
56	0x4602c4c9	8369.196
57	0x45cec17b	6616.185
58	0x453735b6	2931.357
59	0x46021d83	8327.378
60	0x458c2d28	4485.6445
61	0x45fd6723	8108.892
62	0x457f7b7d	4087.718
63	0x454b59cc	3253.6123

module.Conv7.layers.1.weight f4 [1, 128, 3, 3]
0	0xbf14c3a4	-0.58111024
1	0xbf1694e2	-0.5882093
2	0xbf129c8d	-0.5727013
3	0xbf166d03	-0.5876009
4	0xbf16e80d	-0.5894783
5	0xbf1ae607	-0.60507244
6	0xbf1afb03	-0.60539263
7	0xbf19fd70	-0.6015234
8	0xbf27836a	-0.65434897
9	0x3f159af6	0.58439577
10	0x3f18ffca	0.59765303
11	0x3f1645cc	0.5870025
12	0x3f17cc87	0.5929646
13	0x3f14c314	0.58110166
14	0x3f164197	0.5869383
15	0x3f19f8b4	0.60145116
16	0x3f1789f6	0.59194887
17	0x3f136dd7	0.5758948
18	0x3f181542	0.59407437
19	0x3f1d91ec	0.61550784
20	0x3f186aea	0.5953814
21	0x3f1391b3	0.57644194
22	0x3f1caaa4	0.61197877
23	0x3f163258	0.5867057
24	0x3f1d7474	0.6150582
25	0x3f1d902e	0.61548126
26	0x3f176552	0.5913898
27	0xbf18939d	-0.5960024
28	0xbf1d0fdb	-0.6135232
29	0xbf1b33b4	-0.6062577
30	0xbf1f9184	-0.62331414
31	0xbf19f446	-0.60138357
32	0xbf19b39b	-0.6003968
33	0xbf15b9e5	-0.5848678
34	0xbf12c0a4	-0.57325196
35	0xbf18a682	-0.5962907
36	0xbf1e0737	-0.6172976
37	0xbf22e2ad	-0.6362713
38	0xbf0d46f1	-0.55186373
39	0xbf1dc1ae	-0.61623657
40	0xbf223962	-0.6336881
41	0xbf17860d	-0.5918892
42	0xbf11efce	-0.5700654
43	0xbf1f0bce	-0.6212739
44	0xbf177733	-0.5916626
45	0x3f1e98e8	0.61952066
46	0x3f1febe6	0.6246933
47	0x3f1f2a8d	0.621743
48	0x3f1aebf0	0.6051626
49	0x3f2091c7	0.6272244
50	0x3f15f330	0.585742
51	0x3f1ab53b	0.60432786
52	0x3f12b1b7	0.5730242
53	0x3f1af78d	0.6053398
54	0x3f18ea7c	0.59732795
55	0x3f168a8f	0.58805174
56	0x3f1b0f03	0.6056978
57	0x3f1d7684	0.61508965
58	0x3f12e3e3	0.5737898
59	0x3f1cf500	0.6131134
60	0x3f182cdb	0.59443444
61	0x3f1cd983	0.61269397
62	0x3f118dec	0.5685718
63	0x3f1caf03	0.61204547
64	0x3f12bc28	0.57318354
65	0x3f115380	0.56768036
66	0x3f17a6b9	0.59238774
67	0x3f1fbe59	0.6239982
68	0x3f1dd16b	0.6164767
69	0x3f155afc	0.58341956
70	0x3f19fb4b	0.6014907
71	0x3f1de5d6	0.61678827
72	0x3f124c85	0.5714801
73	0x3f1a9b41	0.6039315
74	0x3f1891aa	0.59597266
75	0x3f1e64a7	0.61872333
76	0x3f1303d7	0.57427734
77	0x3f1a6e39	0.60324436
78	0x3f1563ed	0.583556
79	0x3f16f2b5	0.5896409
80	0x3f1b1e25	0.6059287
81	0xbf1f9673	-0.6233894
82	0xbf133e07	-0.5751652
83	0xbf11da72	-0.56973946
84	0xbf18929c	-0.5959871
85	0xbf1a52ee	-0.6028279
86	0xbf1672a2	-0.58768666
87	0xbf191728	-0.5980096
88	0xbf163bf8	-0.58685255
89	0xbf196a07	-0.5992741
90	0x3f16c1af	0.5888929
91	0x3f17a6cb	0.5923888
92	0x3f12ab27	0.5729241
93	0x3f1bf469	0.60919815
94	0x3f1aa4d4	0.6040776
95	0x3f1ed7ff	0.62048334
96	0x3f165a32	0.5873138
97	0x3f1abeaf	0.6044721
98	0x3f1297f7	0.5726313
99	0xbf14e1b6	-0.5815691
100	0xbf1730b7	-0.5905871
101	0xbf1fd1a1	-0.62429243
102	0xbf13d3f7	-0.5774531
103	0xbf161453	-0.5862476
104	0xbf12e36d	-0.57378274
105	0xbf1596bf	-0.58433145
106	0xbf1da5bf	-0.61581033
107	0xbf187c3c	-0.59564567
108	0x3f149fb7	0.58056206
109	0x3f174e01	0.591034
110	0x3f1772a3	0.59159297
111	0x3f139bc9	0.57659584
112	0x3f14f508	0.5818639
113	0x3f15ac65	0.5846618
114	0x3f1c7d37	0.6112856
115	0x3f19085f	0.597784
116	0x3f1e79cb	0.6190459
117	0xbf16ac38	-0.58856535
118	0xbf178522	-0.5918752
119	0xbf1680e2	-0.5879041
120	0xbf1c0b4e	-0.6095475
121	0xbf1fd990	-0.6244135
122	0xbf1f043b	-0.6211583
123	0xbf17dcd9	-0.5932136
124	0xbf1f4f4d	-0.6223038
125	0xbf179b8a	-0.5922171
126	0x3f162614	0.5865185
127	0x3f19975a	0.5999657
128	0x3f12e3f3	0.5737907
129	0x3f1f367e	0.62192523
130	0x3f159bb5	0.58440715
131	0x3f1a4a35	0.6026948
132	0x3f16f6e6	0.5897049
133	0x3f14df03	0.5815279
134	0x3f1573a8	0.583796
135	0xbf1c12d1	-0.6096621
136	0xbf19950c	-0.5999305
137	0xbf1848ac	-0.5948589
138	0xbf1351b4	-0.57546544
139	0xbf141a57	-0.5785269
140	0xbf1dfe13	-0.6171581
141	0xbf19ca4d	-0.6007431
142	0xbf16b1b5	-0.5886491
143	0xbf134c5a	-0.5753838
144	0xbf12bc8b	-0.57318944
145	0xbf1f808b	-0.62305516
146	0xbf1681ef	-0.5879201
147	0xbf24ca71	-0.643714
148	0xbf263e23	-0.64938563
149	0xbf2288ea	-0.63490164
150	0xbf0f4968	-0.55971384
151	0xbf1e4e35	-0.61838084
152	0xbf1adc71	-0.60492617
153	0xbf154127	-0.5830254
154	0xbf196ff7	-0.5993647
155	0xbf14be20	-0.5810261
156	0xbf1724db	-0.5904061
157	0xbf1f0f9f	-0.6213321
158	0xbf1e2148	-0.61769533
159	0xbf141c3f	-0.578556
160	0xbf1b17d3	-0.6058323
161	0xbf1e520e	-0.61843956
162	0xbf1f87a2	-0.62316334
163	0xbf1ad2ca	-0.6047789
164	0xbf1ce6ad	-0.61289483
165	0xbf11a872	-0.5689765
166	0xbf1cc290	-0.6123438
167	0xbf174527	-0.59089893
168	0xbf1a4aa2	-0.6027013
169	0xbf1c3b33	-0.6102783
170	0xbf17ef5d	-0.59349614
171	0xbf200adf	-0.6251659
172	0xbf1ae1f8	-0.6050105
173	0xbf19ec20	-0.60125923
174	0xbf1f5ae0	-0.6224804
175	0xbf231d3c	-0.63716483
176	0xbf1e181b	-0.6175553
177	0xbf1272af	-0.57206243
178	0xbf1c1884	-0.6097491
179	0xbf0f8a86	-0.56070745
180	0xbf13e977	-0.57778114
181	0xbf1ec4dc	-0.62019134
182	0xbf13cf55	-0.5773824
183	0xbf15693e	-0.5836371
184	0xbf178293	-0.59183615
185	0xbf28d830	-0.65954876
186	0xbf1348e6	-0.5753311
187	0xbf242112	-0.6411296
188	0xbf227df9	-0.6347347
189	0x3f197ba1	0.5995427
190	0x3f1ae3ac	0.6050365
191	0x3f19cdc5	0.60079604
192	0x3f1b6e65	0.60715324
193	0x3f17c34d	0.5928238
194	0x3f1812b0	0.59403515
195	0x3f159cc8	0.58442354
196	0x3f2059d9	0.62637097
197	0x3f1d5237	0.61453575
198	0xbf15469e	-0.5831088
199	0xbf13d4bc	-0.5774648
200	0xbf16671c	-0.5875108
201	0xbf153490	-0.5828333
202	0xbf13bc74	-0.5770943
203	0xbf1dbdfb	-0.6161801
204	0xbf13289e	-0.5748385
205	0xbf1d4459	-0.61432415
206	0xbf20293e	-0.6256293
207	0xbf1da10c	-0.61573863
208	0xbf1d0eee	-0.61350906
209	0xbf1eb1fc	-0.6199033
210	0xbf1d85cf	-0.615323
211	0xbf12e3b2	-0.57378685
212	0xbf147c35	-0.58002025
213	0xbf1460b2	-0.57960045
214	0xbf1779c1	-0.59170157
215	0xbf1bdb85	-0.60881835
216	0x3f1b18f2	0.6058494
217	0x3f143bc9	0.57903725
218	0x3f145a54	0.5795033
219	0x3f189da1	0.5961552
220	0x3f171137	0.5901064
221	0x3f1aeefb	0.60520905
222	0x3f16da02	0.58926404
223	0x3f132d9d	0.57491475
224	0x3f15dc4e	0.58539283
225	0x3f1785f2	0.5918876
226	0x3f167790	0.5877619
227	0x3f1c692d	0.61097986
228	0x3f19d92f	0.6009702
229	0x3f18e719	0.5972763
230	0x3f1b5946	0.60683095
231	0x3f1dc91e	0.61635005
232	0x3f1d7cc2	0.6151849
233	0x3f1fac81	0.62372595
234	0x3f1df474	0.6170113
235	0x3f18174d	0.59410554
236	0x3f17c155	0.59279376
237	0x3f1d2a71	0.61392885
238	0x3f19d114	0.6008465
239	0x3f1a90f6	0.6037744
240	0x3f165ed8	0.5873847
241	0x3f18149a	0.59406435
242	0x3f1861c9	0.5952421
243	0x3f1a9234	0.6037934
244	0x3f1b6c0b	0.60711735
245	0x3f184e47	0.5949444
246	0x3f158d3a	0.5841862
247	0x3f11b107	0.5691075
248	0x3f1ea47e	0.61969745
249	0x3f160729	0.58604676
250	0x3f169e48	0.5883527
251	0x3f1a2dc7	0.602261
252	0xbf15a4f0	-0.584548
253	0xbf0dfbee	-0.5546254
254	0xbf111180	-0.5666733
255	0xbf19cde6	-0.600798
