DIDFuse/saved_models/decoder/IR_AE5.pth (torch, 604342 bytes, 13 tensors)

module.Conv5.layers.0.weight f4 [64, 128, 3, 3]
000000 bc 37 19 3f 74 07 14 3f b7 9c 13 3f b9 f1 1d 3f
       0.5985067 0.5782387 0.57661 0.61696965
000010 68 af 20 3f aa 67 1a 3f 3f 18 1f 3f 93 64 13 3f
       0.6276765 0.6031443 0.6214637 0.5757534
000020 de 7e 1a 3f 80 05 1b 3f 50 60 13 3f de 5d 1b 3f
       0.60349834 0.6055527 0.57568836 0.60690105
000030 be 47 17 3f 4b 2d 20 3f b4 59 1b 3f af ac 12 3f
       0.59093845 0.6256911 0.6068375 0.57294744
000040 d7 a2 19 3f 6e 76 18 3f 6a 2e 1e 3f 6b 84 17 3f
       0.600141 0.5955571 0.6178957 0.5918643
000050 a8 e0 18 3f 9b cd 12 3f fe c0 1d 3f 41 b4 1d 3f
       0.597178 0.5734498 0.6162261 0.6160317
000060 21 19 18 3f 88 47 13 3f 80 94 1b 3f e7 64 15 3f
       0.59413344 0.57531023 0.6077347 0.5835709
000070 cb 6f 1e 3f 32 23 17 3f de a5 17 3f 48 37 16 3f
       0.6188933 0.5903808 0.5923747 0.586781
000080 73 71 18 3f bd de 1f 3f 24 c6 1c 3f 45 12 1b 3f
       0.5954811 0.62449247 0.6123984 0.6057475
000090 00 99 1c 3f 73 05 1d 3f 80 46 1f 3f 23 5b 17 3f
       0.6117096 0.6133644 0.6221695 0.5912344
0000a0 6b 6b 13 3f b6 6f 16 3f 37 44 20 3f 8b 73 12 3f
       0.5758578 0.5876421 0.6260409 0.57207555
0000b0 21 52 18 3f 6a be 1b 3f 2d d1 18 3f 95 e6 17 3f
       0.5950032 0.60837424 0.59694177 0.59336215
0000c0 2c 04 1a 3f 48 4c 1d 3f fb ff 20 3f c6 85 12 3f
       0.60162616 0.6144452 0.62890595 0.5723537
0000d0 db 65 16 3f 21 63 18 3f f4 b0 1a bf 2c 5b 17 bf
       0.5874917 0.5952626 -0.6042626 -0.5912349
0000e0 ba 1f 1f bf 94 34 16 bf 2f 3d 1c bf ec 44 12 bf
       -0.62157786 -0.5867398 -0.6103086 -0.57136416
0000f0 0d d8 1f bf 84 70 18 bf c6 4d 20 bf e9 8d 1e 3f
       -0.6243904 -0.59546685 -0.6261867 0.6193529
000100 9b 28 1f 3f 99 70 15 3f 2a 01 1b 3f 00 64 1a 3f
       0.62171334 0.58374935 0.6054865 0.6030884
000110 7c f3 11 3f 66 0e 1a 3f 4e 77 17 3f 79 5a 19 3f
       0.5701215 0.6017822 0.5916642 0.59903675
000120 c8 c8 1b bf d5 d4 1c bf 72 6a 14 bf ff ed 1f bf
       -0.6085324 -0.61262256 -0.5797492 -0.6247253
000130 b1 6f 13 bf c3 30 18 bf 1b d2 2c 3f 8a 9a 2b 3f
       -0.575923 -0.59449404 0.67508096 0.6703268
000140 63 23 14 bf 6e 34 20 3f d8 aa 13 3f 5c 85 12 3f
       -0.57866496 0.6258 0.5768256 0.5723474
000150 b3 ae 20 3f f6 a7 1b 3f 38 02 1b 3f ba 61 17 3f
       0.6276657 0.60803163 0.6055026 0.59133494
000160 cc c5 18 3f d5 f4 13 3f 52 2e 16 bf 50 71 15 bf
       0.59676814 0.5779546 -0.5866443 -0.58376026
000170 a0 2e 16 bf 68 d5 1f bf c4 24 19 bf 31 83 1e bf
       -0.58664894 -0.6243501 -0.59821725 -0.6191893
000180 b5 b8 20 bf a5 a8 16 bf 43 71 20 bf f9 d2 14 bf
       -0.6278184 -0.5885108 -0.62672824 -0.5813442
000190 7d f1 13 bf 23 ab 1f bf 63 a8 14 bf 0f 12 1d bf
       -0.57790357 -0.6237051 -0.5806944 -0.6135568
0001a0 15 27 19 bf bd b6 14 bf 7e c7 13 bf 38 60 19 bf
       -0.5982526 -0.58091336 -0.57726276 -0.59912443
0001b0 88 21 17 bf b3 fd 16 bf 8e 10 1c bf 0d 2e 15 bf
       -0.5903554 -0.58980864 -0.6096276 -0.5827339
0001c0 a1 17 18 bf 60 f3 10 bf 56 74 1d bf 52 d9 15 bf
       -0.59411055 -0.5662136 -0.6150564 -0.5853473
0001d0 28 a8 15 bf 37 97 1c 3f dc 6f 1e 3f cd 7e 19 3f
       -0.5845971 0.61168236 0.61889434 0.5995911
0001e0 31 c3 17 3f 34 66 1a 3f 8a 7b 19 3f 4a 7b 1b 3f
       0.59282213 0.603122 0.5995413 0.60735
0001f0 fa af 15 3f 4a 58 19 3f c5 1a 1e bf 65 a8 17 bf
       0.58471644 0.59900343 -0.617596 -0.59241325
000200 91 5d 1d bf 31 7d 18 bf b3 16 1e bf 1c 1e 1b bf
       -0.61470896 -0.59566027 -0.61753386 -0.6059282
000210 74 d6 16 bf 13 fc 1d bf 55 29 1d bf 85 2b 19 bf
       -0.5892098 -0.6171276 -0.6139119 -0.5983203
000220 f9 8a 20 bf 2d 12 18 bf c5 99 18 bf e9 19 17 bf
       -0.62712055 -0.59402734 -0.59609634 -0.5902391
000230 ab f5 1a bf e4 fc 19 bf b5 01 14 bf a6 fe 18 bf
       -0.6053111 -0.60151505 -0.57815105 -0.5976356
000240 64 d3 17 bf ed c6 18 bf 1b 5a 17 bf 9f cc 1f bf
       -0.5930693 -0.59678537 -0.59121865 -0.624216
000250 5f 43 1d bf f5 2e 20 bf 21 51 19 bf 69 38 1d bf
       -0.61430925 -0.6257165 -0.5988942 -0.614142
000260 dc a2 13 bf 08 f2 1d 3f 59 ef 1e 3f 7b 96 19 3f
       -0.5767038 0.61697435 0.62083966 0.5999524
000270 35 c0 16 3f 3a bf 1f 3f 53 32 15 3f 76 b1 1b bf
       0.58887035 0.62401164 0.58279914 -0.6081766
000280 65 a8 20 bf 47 fa 13 bf 31 40 18 bf 8f 76 16 bf
       -0.6275695 -0.5780377 -0.5947295 -0.58774656
000290 5e 16 1e bf 6b ed 12 3f 90 d2 1b bf e5 a9 15 3f
       -0.6175288 0.5739352 -0.6086817 0.58462363
0002a0 6e b0 16 3f 9d 49 19 3f e5 12 1c 3f 01 8a 1a 3f
       0.5886296 0.5987795 0.6096633 0.6036683
0002b0 4d ca 16 3f 6b c0 19 3f 1b ba 1c 3f 58 46 1e 3f
       0.58902436 0.6005923 0.61221474 0.61826086
0002c0 e0 9a 1c 3f 0d bd 17 3f ba 79 20 3f 61 76 15 3f
       0.6117382 0.59272844 0.6268574 0.58383757
0002d0 61 47 19 3f c2 a8 1e 3f 76 cb 1c 3f 9e bd 14 3f
       0.5987454 0.61976254 0.61247957 0.5810183
0002e0 9c fe 18 3f 08 ee 1b 3f 8e c3 11 bf 8e 7b 1c bf
       0.59763503 0.6091008 -0.5693902 -0.6112603
0002f0 ab 7b 19 bf bb a7 14 3f 03 ac 17 3f 83 f4 20 3f
       -0.5995433 0.58068436 0.59246844 0.62873095
000300 3e 10 14 3f 0f 8b 17 3f 86 1d 21 3f 95 ae 1d 3f
       0.57837284 0.5919656 0.62935674 0.61594516
000310 e0 f9 18 3f b4 58 19 3f d8 0e 1e 3f 04 98 17 3f
       0.5975628 0.59900975 0.617414 0.5921633
000320 1a 21 1f 3f e8 91 20 3f 8d 70 1b 3f e4 e9 13 3f
       0.62159884 0.62722635 0.60718614 0.57778764
000330 ce 01 21 3f 5a dc 14 3f c7 4b 15 3f 68 b2 1e bf
       0.6289338 0.5814873 0.5831875 -0.61990976
000340 51 32 17 bf 6a 44 1c bf 43 06 1f bf 2f 99 1e bf
       -0.5906115 -0.6104189 -0.6211893 -0.6195249
000350 8a da 1c bf 15 8f b8 be 25 01 1d bf 61 df 11 bf
       -0.61270964 -0.36046663 -0.6132987 -0.56981474
000360 71 76 1b bf 83 fb 15 bf 5b d6 12 bf 0a 1b 1b bf
       -0.607276 -0.585869 -0.5735833 -0.60588133
000370 53 9b 1e bf c2 aa 1f bf 85 16 1b bf fa 04 16 bf
       -0.61955756 -0.6236993 -0.6058124 -0.58601344
000380 b0 79 19 bf 83 c9 1b bf a8 70 18 bf fa e7 21 bf
       -0.59951305 -0.6085436 -0.595469 -0.63244593
000390 34 d1 18 bf d1 00 17 bf 54 40 17 bf 05 b7 1b bf
       -0.5969422 -0.5898562 -0.5908253 -0.6082614
0003a0 bd ba 20 bf 24 dd 1a bf 3d a6 1d 3f 07 da 12 3f
       -0.6278494 -0.60493684 0.61581784 0.57363933
0003b0 5f b3 13 3f 29 3e 16 3f 4a 7e 15 3f 4f 25 17 3f
       0.57695574 0.586886 0.58395827 0.59041303
0003c0 d9 54 12 3f 63 07 17 3f 34 dc 18 3f d7 d2 14 bf
       0.5716072 0.58995646 0.59711003 -0.58134216
0003d0 86 5d 14 bf bb 35 1a bf 22 72 13 bf 3b a1 13 bf
       -0.57955205 -0.60238236 -0.5759603 -0.57667893
0003e0 23 4e 1f bf 4b 06 1e bf b1 57 16 bf c0 d7 1d bf
       -0.622286 -0.6172835 -0.58727556 -0.61657333
0003f0 74 96 1a 3f 66 16 1b 3f f5 59 19 3f 3d c8 1f 3f
       0.60385823 0.6058105 0.5990289 0.62414914

module.Conv5.layers.0.bias f4 [64]
000000 b5 1c 80 bd 7b dd 23 bd 35 c1 fa bd 47 ea bf 3c
       -0.062554754 -0.040006142 -0.122438826 0.023427142
000010 75 a8 a4 bc 75 cf 30 bd 02 42 c4 3d 30 6c e9 3d
       -0.020099858 -0.043166596 0.095829025 0.11397588
000020 86 21 6c bd 05 cc 70 3d 5c e3 ba 3b d1 06 53 3d
       -0.057649158 0.05878832 0.005703373 0.051520173
000030 73 77 0b bd de ed 8e bd bf 90 86 3d 1e 49 0a be
       -0.034049463 -0.06978963 0.06570577 -0.13504454
000040 80 a0 c6 bc 23 73 26 bb d8 27 3e 3d cb 8f 0d bc
       -0.024246454 -0.0025398217 0.046424717 -0.00864024
000050 b9 28 62 bd c9 71 a9 3d 82 98 0a 3e 59 4f e0 bd
       -0.055214617 0.08273656 0.1353474 -0.10952634
000060 5a 9d b1 bd 8a 73 83 3d 15 4d a2 3a a3 ec d3 bd
       -0.086725906 0.06418522 0.0012382591 -0.10347869
000070 d7 82 8b ba 0d c2 a2 3d e0 28 96 bc a3 73 f3 bc
       -0.0010643852 0.079471685 -0.018330038 -0.029718226
000080 a1 c7 18 3c 81 1e 20 bc b7 b8 3a bc 59 e3 8c bc
       0.009324939 -0.009772898 -0.0113965785 -0.017198252
000090 41 04 0e 3c 4e b5 5d bd fc f7 17 3e 16 e4 c1 bc
       0.008668006 -0.054127984 0.14840692 -0.02366833
0000a0 88 7f a7 bd c3 42 fb 3b f6 4b 01 3c fd f2 52 3b
       -0.081786215 0.0076678707 0.007891646 0.003218829
0000b0 c6 4e 13 3e 35 07 1d 3e e2 30 1b 3d b5 c6 3c bd
       0.14385518 0.1533478 0.037888415 -0.04608794
0000c0 f1 35 08 3e 6b 8e 61 bd 31 f2 15 3d e3 2b 94 3c
       0.13301827 -0.05506746 0.036607925 0.018087333
0000d0 8e d1 29 3e 8c ab 13 bd 5b 37 84 3d e9 6d 5a 3d
       0.16583845 -0.03605227 0.06455871 0.053327475
0000e0 73 13 52 3b da f2 86 3c b6 1b 8f bc b6 08 1b bb
       0.003205505 0.016473223 -0.017469268 -0.0023656315
0000f0 2b 97 3b 3d 48 85 49 bc 70 8c 7e 3d de 96 fe bd
       0.045798462 -0.012299843 0.06214565 -0.124311194

module.Conv5.layers.1.weight f4 [64]
000000 a5 a3 95 3e cd 0d 3a 3f 3f 53 b1 3f 19 aa 43 3f
       0.29226413 0.7267731 1.385353 0.76431423
000010 23 18 72 3f e8 d3 a5 3f 20 50 b1 3e 49 1e e9 3f
       0.9456808 1.2955294 0.34631443 1.8212367
000020 9f 10 93 3f b9 03 96 3e 96 b5 3b 3f e0 be c2 3f
       1.1489447 0.29299715 0.73323953 1.52145
000030 1c c4 c7 3f 21 86 dc 3f 58 31 1c 3f 58 bb b2 3f
       1.5606723 1.7228433 0.6101279 1.3963423
000040 4c 90 06 40 92 b4 c7 3f f7 a1 a6 3e 53 5a e0 3f
       2.1025572 1.5601981 0.32545444 1.7527565
000050 6e fd 00 3f e9 a1 2d 3e 04 a5 71 3d af a7 06 40
       0.50386703 0.16956295 0.05899526 2.1039846
000060 91 c7 be 3f 05 40 d8 3e c9 e8 36 3f 44 5c bd 3f
       1.4904653 0.42236343 0.7144895 1.4793782
000070 25 54 88 3f 6b 16 57 3f 4e 55 27 40 ec 1c 98 3f
       1.0650679 0.8401858 2.6145816 1.1883826
000080 01 0d 8e 3e 58 68 cd 3e 0d 2e d8 3f c2 18 2c 3f
       0.27744296 0.4011867 1.6889054 0.6722528
000090 b6 59 cc 3f f5 89 ce 3f c9 88 af 3e 9a ef f9 3d
       1.5964878 1.6135851 0.34284046 0.122039035
0000a0 25 e5 92 3e 16 41 e7 3e 17 0d 47 3f 4c cf e9 3e
       0.28690448 0.45166844 0.7775435 0.45665967
0000b0 c2 dc b9 3e 8d 38 0b 3f 2d 07 7a 3e 56 49 be 3f
       0.36301237 0.54383165 0.244168 1.486613
0000c0 14 dd c1 be eb 80 a4 3f ca 1d 76 3f ed bd 81 3e
       -0.37863982 1.2851843 0.96139205 0.25340214
0000d0 08 c8 c5 3e 43 e7 bf 3e 0b c7 86 be c8 c8 e6 3e
       0.38629174 0.37481126 -0.26323733 0.4507506
0000e0 85 98 e6 3f ff e5 cc 3e 45 a6 29 3f 94 fc 1b 3f
       1.8015295 0.40019223 0.6626933 0.6093228
0000f0 88 9d d8 3f 8c 9f a0 3f a1 ec 39 3e 1d 05 d2 3f
       1.6923075 1.254869 0.18156673 1.640781

module.Conv5.layers.1.bias f4 [64]
000000 a8 19 6b bf e6 0b 98 be 73 e4 26 3f dd 3e a0 3e
       -0.91836023 -0.29696578 0.65192336 0.3129796
000010 c6 34 ab 3e 5f 24 87 3f 75 69 11 bf f0 69 8c 3e
       0.334387 1.0557975 -0.5680154 0.27424574
000020 95 21 85 3d 06 53 07 bf 40 24 d1 be 14 c3 02 3e
       0.06500546 -0.5286106 -0.4084797 0.12769729
000030 7a 4e 7b 3f 20 27 3c 3f 41 08 79 be c1 67 27 3f
       0.9816662 0.734972 -0.24319555 0.6539269
000040 3a aa 5a 3f 84 96 9f 3d 26 0f 11 bf 6a 79 3f c0
       0.85415995 0.077923805 -0.5666374 -2.9917855
000050 95 4b 49 bf ab b5 f9 be b0 3a 81 bf 01 6b 22 3f
       -0.78630954 -0.48771414 -1.0096035 0.63444525
000060 03 e6 af 3e 33 d9 bd be 5d 28 47 be 56 0b 9b 3e
       0.34355173 -0.37079772 -0.19448991 0.30282086
000070 cb 50 3a 40 e5 4e 98 be 78 d4 9c 3e aa ff 46 3f
       2.9111812 -0.29747692 0.3063085 0.7773386
000080 91 e2 05 bf bb e9 d6 be da 10 3f 3e f8 63 b8 3d
       -0.5229884 -0.41975197 0.18658772 0.090034425
000090 76 fc e9 3e ef e3 f8 bd 69 b0 b4 be a9 0f 9c bf
       0.45700425 -0.1215285 -0.3529084 -1.2192279
0000a0 5a e6 7c bf 26 85 e3 be dd 13 24 bf 77 6b 82 bf
       -0.9878899 -0.44437522 -0.6409281 -1.0189046
0000b0 1a 04 27 bf f8 30 ef be 21 3e 3a bf d7 0c 5b c0
       -0.65240633 -0.46717048 -0.7275105 -3.4226587
0000c0 ee 30 e7 3e 97 f0 ca 3e d2 fc 0d 3f c0 48 15 bf
       0.45154518 0.3963668 0.554639 -0.5831413
0000d0 a1 3e cc be aa e2 7f 3f 78 7e af bf 3c b5 13 bf
       -0.39891532 0.99955237 -1.371047 -0.57698417
0000e0 ed 04 27 3f f8 42 8c 3f 8b c2 a8 3f a5 f9 ca be
       0.6524189 1.0957937 1.318437 -0.3964359
0000f0 9b 29 85 3f ab 23 93 bf 05 2a 13 bf 24 39 b4 3e
       1.0403322 -1.149526 -0.5748599 0.35199845

module.Conv5.layers.1.running_mean f4 [64]
000000 e8 46 a1 c2 c5 56 d1 c2 e1 35 b4 bf 4a 2b 88 42
       -80.63849 -104.66947 -1.4078943 68.08455
000010 9b 5c 70 42 03 b9 a0 42 f1 29 a5 42 23 c7 24 c1
       60.090435 80.36135 82.58192 -10.298617
000020 05 74 04 42 ac d1 31 42 8f 64 9e c2 0b 79 8a c2
       33.1133 44.454758 -79.1964 -69.23641
000030 29 b9 a1 41 3b d8 b8 c2 fb 87 79 c2 96 5a 82 c2
       20.21541 -92.422325 -62.382793 -65.176926
000040 0f 2d 9d c2 27 9d 80 c2 e2 ec 8c 42 b2 70 c2 c2
       -78.588005 -64.30694 70.46266 -97.22011
000050 be 68 aa 42 44 ff 8d 42 60 20 91 c2 77 75 f2 41
       85.204575 70.998566 -72.56323 30.307356
000060 be 66 85 42 a7 fc 5c c2 87 0a 6a c2 42 fe 87 42
       66.70067 -55.24673 -58.51028 67.9966
000070 fc b9 a1 42 31 cd 8c c2 5d 85 11 42 89 f4 86 41
       80.86325 -70.400764 36.380238 16.869402
000080 56 40 0a 42 60 14 37 c2 d0 96 2d 42 8b ba 20 42
       34.562828 -45.769897 43.397278 40.18217
000090 1e 2d 64 c2 34 3c 9d c2 b0 60 89 c2 77 28 d6 41
       -57.04406 -78.617584 -68.68884 26.769758
0000a0 63 8f 9c 42 3a db 25 c2 6d 89 f1 42 21 71 85 c2
       78.28005 -41.46409 120.76841 -66.720955
0000b0 8d 17 94 42 7d 59 6b c2 9c 3a 8f 42 20 f1 00 c3
       74.046 -58.83739 71.61447 -128.9419
0000c0 35 4b 78 42 d8 5f 55 c2 49 ed 5a 42 63 80 57 c2
       62.073444 -53.343597 54.731724 -53.875378
0000d0 64 14 89 42 20 59 87 41 69 1b b1 42 0e 00 f4 42
       68.539825 16.918518 88.553535 122.00011
0000e0 7a 2c 93 c2 13 6c 16 42 de db 90 42 7e f8 e5 c1
       -73.58687 37.60554 72.42943 -28.746334
0000f0 33 6b 92 42 da a9 6c 42 8f 2b cc 42 d5 ff 7f 42
       73.20937 59.16587 102.085075 63.999836

module.Conv5.layers.1.running_var f4 [64]
000000 b6 c5 59 43 55 88 d0 44 0f e3 24 44 16 4e c2 44
       217.77231 1668.2604 659.5478 1554.4402
000010 b0 42 c0 44 e0 7d a4 44 9d 5b 34 44 f7 da cb 43
       1538.084 1315.9336 721.43146 407.71066
000020 26 34 01 44 64 cc ce 44 d6 f5 c1 44 79 67 42 43
       516.8148 1654.3872 1551.6824 194.40419
000030 66 cd 61 45 b1 cd a9 43 04 8b c9 43 28 b8 3a 44
       3612.8374 339.60696 403.08606 746.87744
000040 71 98 58 43 ed fe 35 44 91 de ff 43 0a 93 47 43
       216.59547 727.9832 511.7388 199.57437
000050 69 f8 be 44 25 eb 13 43 cd 5a fc 44 d2 63 27 44
       1527.7628 147.91853 2018.8375 669.5597
000060 57 17 e3 44 d2 65 a4 43 16 b4 a9 43 75 c9 18 45
       1816.7294 328.79547 339.40692 2444.591
000070 e8 14 56 44 e8 db 71 44 f1 87 d8 43 7c a9 68 44
       856.32666 967.43604 433.06204 930.6482
000080 69 98 83 44 a4 8e 77 43 94 86 5b 43 93 b1 9e 43
       1052.7628 247.55719 219.5257 317.3873
000090 37 08 81 43 58 24 45 43 29 ea dc 44 aa 16 36 44
       258.06418 197.14197 1767.3175 728.3541
0000a0 ea b1 fa 43 63 32 96 43 69 31 5d 44 20 99 17 43
       501.38995 300.39365 884.77203 151.59814
0000b0 ca 61 9e 43 3d 85 86 44 a4 f0 36 44 3e 7c d3 43
       316.76398 1076.1637 731.76 422.97064
0000c0 e1 14 fd 43 89 ea 04 44 87 54 b6 43 61 92 2f 44
       506.16312 531.6646 364.66037 702.2872
0000d0 2e b2 c0 43 33 d5 d4 43 07 43 19 43 00 44 e1 43
       385.39203 425.66562 153.26183 450.53125
0000e0 ef 6e a1 43 00 09 96 44 26 d9 0e 44 d6 c3 15 45
       322.86667 1200.2812 571.39294 2396.2397
0000f0 53 c9 8f 44 85 0b 94 44 17 91 40 44 dc 81 e8 43
       1150.2914 1184.36 770.267 465.01453

module.Conv6.layers.0.weight f4 [64, 128, 3, 3]
000000 8b 6f 17 3f 5f c4 1a 3f 48 a1 13 3f 8a d3 16 3f
       0.59154576 0.6045589 0.5766797 0.58916533
000010 e9 7b 1b 3f bd 44 1b 3f 1d 26 13 3f a3 1c 1d 3f
       0.60735947 0.6065176 0.5748003 0.6137182
000020 2e 69 21 3f aa 7f 17 3f dd 6e 15 3f 63 61 15 3f
       0.63051116 0.59179175 0.5837229 0.58351725
000030 76 42 1f 3f b5 7d 1d 3f a9 f7 1d 3f c0 f1 12 3f
       0.62210786 0.6151994 0.61706024 0.5740013
000040 d1 1b 14 3f 8b f1 13 3f 6a 88 14 bf 6c 98 1c bf
       0.57854944 0.5779044 -0.5802065 -0.6117008
000050 de 94 1f bf f9 8f 18 bf 07 4a 1c bf 98 cb 13 bf
       -0.6233653 -0.59594685 -0.61050457 -0.57732534
000060 c8 1f 15 bf 43 fc 13 bf 24 60 1c bf 29 66 15 3f
       -0.5825162 -0.57806796 -0.610842 0.5835901
000070 7e 4f 1e 3f 5e 3d 1d 3f 01 04 1a 3f f9 3b 12 3f
       0.61840045 0.61421764 0.6016236 0.5712276
000080 b5 6d 1c 3f 9a 35 1a 3f 06 80 1b 3f ad 6f 12 3f
       0.611049 0.6023804 0.60742223 0.57201654
000090 9e a4 15 3f 62 46 1a 3f b9 4d 12 3f b4 77 12 3f
       0.5845431 0.60263646 0.57149845 0.572139
0000a0 00 31 1a 3f a6 95 16 3f 8d af 16 3f b5 8a 19 3f
       0.6023102 0.58822095 0.5886162 0.59977275
0000b0 e0 c7 13 3f 6c 7a 15 3f 20 99 1d 3f 1b 34 20 3f
       0.5772686 0.58389926 0.61561775 0.62579507
0000c0 1f ff 17 3f cd 6c 1b 3f 36 b9 15 3f fb 88 1a 3f
       0.5937366 0.6071289 0.58485734 0.60365266
0000d0 29 85 1d 3f 9a 1d 20 3f 55 c8 1f 3f ca cc 20 3f
       0.6153131 0.6254517 0.6241506 0.62812483
0000e0 c8 6b 1c 3f cf e9 12 3f 0f 1e 1f 3f 50 91 13 3f
       0.6110196 0.57388014 0.6215524 0.57643604
0000f0 04 6c 19 3f 8c 13 1a 3f cf b6 1a 3f 77 57 19 bf
       0.59930444 0.60186076 0.60435194 -0.59899086
000100 ce f2 10 bf d1 78 18 bf 2e c3 1f bf e4 05 15 bf
       -0.5662049 -0.5955935 -0.62407196 -0.58212113
000110 90 27 1b bf 3f 1f 1e bf c7 ed 14 bf 6f d7 1e bf
       -0.6060724 -0.6176643 -0.5817532 -0.62047476
000120 d1 40 15 bf 4d 05 18 bf 88 f9 1c bf a4 e8 1c bf
       -0.58302027 -0.5938309 -0.61318254 -0.6129248
000130 bb 72 16 bf 3c 69 1e bf 34 3d 1f bf 23 fa 1a bf
       -0.58768815 -0.61879325 -0.62202764 -0.6053793
000140 95 df 12 bf 4b 49 18 3f be f6 1e 3f 4f 61 20 3f
       -0.5737241 0.59486836 0.6209525 0.6264848
000150 1e 59 18 3f 28 f3 14 3f 53 f5 16 3f 9c 5f 1b 3f
       0.5951098 0.58183527 0.58968085 0.60692763
000160 d7 37 12 3f 9a ef 1a 3f 30 17 21 3f 8e e2 20 3f
       0.57116455 0.6052185 0.62926006 0.62845695
000170 12 f2 25 3f bc e4 14 3f 6a 4d 1f 3f 72 35 17 3f
       0.64822495 0.5816152 0.622275 0.59065926
000180 91 7d 1b 3f ae d8 17 3f 5b 02 16 3f 1c a1 1f 3f
       0.60738474 0.59315 0.58597344 0.6235521
000190 53 32 15 3f e9 7c 1e 3f 86 37 1b 3f 06 22 17 3f
       0.58279914 0.6190935 0.606316 0.5903629
0001a0 39 7d 16 3f 2d 11 19 3f f4 06 1b 3f a7 3e 15 3f
       0.58784825 0.59791833 0.60557485 0.58298725
0001b0 f6 b2 17 3f ef 5a 1b 3f 34 d3 1d 3f 6b 2a 16 3f
       0.5925745 0.6068563 0.61650395 0.58658475
0001c0 3a b9 1b 3f 59 1d 15 3f 46 1c 1d 3f e3 48 20 3f
       0.6082951 0.58247906 0.61371267 0.62611216
0001d0 d5 42 1c 3f 20 52 12 3f 1c 53 13 3f 39 09 21 3f
       0.6103948 0.5715656 0.5754869 0.629047
0001e0 e3 3f 1a 3f c9 82 17 3f 62 79 12 3f b2 e0 1e 3f
       0.60253733 0.5918394 0.57216465 0.6206161
0001f0 f4 5f 20 3f 80 43 13 3f 27 60 1b bf ba 66 13 bf
       0.6264641 0.5752487 -0.6069359 -0.57578623
000200 1e 0f 1d bf 9f b0 1e 3f 33 ab 1e bf 8a 86 18 bf
       -0.6135119 0.6198825 -0.6197998 -0.5958029
000210 89 45 1e 3f 8f 3e 1e 3f 10 86 1b bf ef e0 13 bf
       0.6182485 0.61814207 -0.6075144 -0.57765096
000220 92 a7 14 bf e1 6f 14 bf 3b 82 12 bf c2 df 17 bf
       -0.5806819 -0.57983214 -0.57229966 -0.593258
000230 43 a1 17 bf 2a 2a 1a bf 38 9e 1e bf 0c d7 1a bf
       -0.5923044 -0.6022059 -0.6196017 -0.60484385
000240 94 f9 19 3f ed 30 1c 3f 6e cf 1a 3f bc 46 17 3f
       0.6014645 0.61012155 0.6047276 0.5909231
000250 a4 f6 1e 3f f6 ed 13 3f 6e 79 15 3f a8 e4 19 3f
       0.62095094 0.57784975 0.5838841 0.60114527
000260 14 30 17 3f b4 2b 16 3f dd 5f 1a 3f b2 b5 1d 3f
       0.59057736 0.58660436 0.60302526 0.6160537
000270 07 76 20 3f 21 c0 1a 3f 7f a4 12 3f 3d 07 17 3f
       0.62680095 0.60449415 0.5728225 0.5899542
000280 6c 32 17 3f 9a e0 1d 3f 98 eb 1a 3f 02 cb 16 3f
       0.5906131 0.6167084 0.6051574 0.58903515
000290 8c 6d 16 3f 8f d8 17 3f 41 40 18 3f 60 8e 19 3f
       0.58760905 0.5931482 0.59473044 0.5998287
0002a0 00 e4 16 3f 38 c2 15 3f 52 1f 19 3f 58 43 1f 3f
       0.5894165 0.5849948 0.59813416 0.62212133
0002b0 1d 82 14 3f cf 56 1a 3f 6f 74 17 3f 4d 55 16 3f
       0.5801104 0.6028871 0.5916204 0.5872391
0002c0 7f 9f 1e 3f ee f9 1c 3f 75 10 18 3f 05 e2 1c 3f
       0.6196212 0.6131886 0.5940011 0.6128238
0002d0 23 c6 1d bf 56 98 1f bf 35 2e 14 bf 7a 79 1d bf
       -0.6163046 -0.6234182 -0.57883006 -0.61513484
0002e0 65 c8 1d bf e2 03 1e bf 8b 8a 1f bf 12 5c 16 bf
       -0.616339 -0.61724675 -0.62320775 -0.5873424
0002f0 57 16 16 bf d4 16 1b 3f 77 81 12 3f 05 26 13 3f
       -0.5862784 0.6058171 0.572288 0.5747989
000300 4e eb 1d 3f 96 fa 17 3f 13 c7 1a 3f ff b3 20 3f
       0.6168717 0.5936674 0.60460013 0.6277465
000310 cc 94 15 3f c5 a1 1e 3f e7 ab 1a 3f 52 6a 21 3f
       0.5843017 0.6196559 0.6041855 0.63052857
000320 d3 b0 13 bf 02 35 1d 3f f7 19 21 3f 70 fd 17 3f
       -0.5769169 0.6140901 0.62930244 0.5937109
000330 1c 03 13 3f 8a 76 18 3f 97 bd 14 3f 4d b3 16 bf
       0.5742662 0.59555876 0.5810179 -0.5886734
000340 0b 33 14 bf 51 e9 11 bf 8a 2b 1c bf 25 f3 1c bf
       -0.57890385 -0.5699664 -0.61003935 -0.6130851
000350 32 1d 1f bf 2c 2c 20 bf 49 54 12 bf 25 b6 16 bf
       -0.62153924 -0.625674 -0.5715986 -0.5887168
000360 e0 22 16 bf 4a dd 15 bf 8a 03 21 bf ec 82 1d bf
       -0.58646965 -0.58540785 -0.62896025 -0.61527896
000370 18 75 15 bf 1c a8 1d bf 43 79 1a bf ed 6d 1e bf
       -0.58381796 -0.6158464 -0.6034128 -0.61886483
000380 5b b9 1f bf 8c 02 1e bf ef 3a 20 bf fb 25 1a bf
       -0.62392205 -0.61722636 -0.62589926 -0.60214204
000390 9c 46 17 bf ed c4 15 bf a0 08 19 bf 43 8a 1e bf
       -0.59092116 -0.5850361 -0.59778786 -0.6192972
0003a0 4e f2 12 bf 17 64 1d bf 48 ba 1a 3f 3b a0 1a 3f
       -0.5740098 -0.6148085 0.6044049 0.6040074
0003b0 0c a6 20 3f 7f 91 16 3f 68 5e 1c 3f d2 c2 19 3f
       0.6275337 0.5881576 0.6108155 0.600629
0003c0 56 de 1c 3f 71 78 20 3f 01 76 12 3f a2 77 14 bf
       0.6127676 0.6268378 0.5721131 -0.57995045
0003d0 3b f3 18 bf d2 75 1e bf 6c 27 1d bf e0 22 20 bf
       -0.5974614 -0.6189853 -0.6138828 -0.62553215
0003e0 36 b1 19 bf c3 26 20 bf a3 60 20 bf e9 49 19 bf
       -0.6003603 -0.62559146 -0.62647456 -0.598784
0003f0 4d a3 16 3f 02 c6 15 3f af 4b 1a 3f 05 0f 21 3f
       0.5884293 0.5850526 0.60271734 0.62913543

module.Conv6.layers.0.bias f4 [64]
000000 51 75 4a 3d c8 29 97 bd 0d 84 16 bd 90 97 43 3d
       0.049428288 -0.07381016 -0.036747027 0.047751963
000010 0c 90 76 3c 13 76 87 bd 33 66 dc 3c 8d a3 c2 bd
       0.015048992 -0.06614318 0.026904201 -0.09503851
000020 75 4a 41 3d 59 01 b1 3c ee c4 61 bd 5d 5d b8 3d
       0.04719015 0.021607088 -0.055119447 0.09002183
000030 9c 67 a4 be a6 e7 7b 3c a7 c9 cb 3b e0 6a ec bd
       -0.32110298 0.0153750535 0.006219107 -0.11543822
000040 b2 aa 7e bd 86 ec f2 bd 50 4d 08 be b0 2c e9 3d
       -0.062174506 -0.118615195 -0.13310742 0.113854766
000050 0a 9e f9 3d 6d b5 b8 3d f5 0e 48 bd 41 d6 e6 bd
       0.12188347 0.09018979 -0.04884239 -0.112713344
000060 c8 91 3e 3e 24 71 16 3e 1f 6f d2 3c c3 a3 9f 3c
       0.18610299 0.14691597 0.025687752 0.019487267
000070 e6 1f ba 3d 26 83 54 bd 78 97 12 3d 09 2d da 3c
       0.090881154 -0.051882885 0.035788983 0.026632803
000080 3a a4 6c 3c ae 91 14 bc b4 48 62 3d 90 92 47 3d
       0.014443452 -0.009067936 0.055245116 0.048723757
000090 ad 9c 8e bb 0d 43 cc 3d 15 21 dc 3d 76 b5 8f 3e
       -0.0043521733 0.099737264 0.107484974 0.2806813
0000a0 dd 5d 1d 3d ca 98 f5 bc 0c 1d 87 3d 1c e4 fe bc
       0.038419593 -0.029980082 0.06597337 -0.03111463
0000b0 d1 02 b4 bd 7a 18 19 3d f7 75 3f be 46 62 7a 3d
       -0.087896 0.03737686 -0.18697344 0.061128877
0000c0 32 38 5e 3d 38 00 b0 3c fe 07 7f bc 80 d2 bc bc
       0.05425281 0.02148448 -0.01556587 -0.023049593
0000d0 5f 82 46 bd 75 8c 11 be 16 88 3b 3d 5e 32 7e 3e
       -0.048464175 -0.14213736 0.04578408 0.24823901
0000e0 bc ae a6 bd 9b 4a 7c 3d ad 7e e3 3d ae 7f 63 3d
       -0.08138797 0.061594587 0.11108146 0.055541687
0000f0 22 60 51 3e 0a 93 25 3e 9c b4 2c be b7 1d c3 bc
       0.20446828 0.16169372 -0.16865772 -0.02381788

module.Conv6.layers.1.weight f4 [64]
000000 a6 c8 1d 3f 15 ac df 3e 11 e4 b9 3f 03 59 be 3f
       0.6163429 0.43685976 1.4522725 1.4870914
000010 05 80 a0 3f a4 ad c5 3f b4 bc 91 3f 62 25 c2 3f
       1.2539068 1.5443616 1.1385713 1.5167658
000020 97 c4 a8 3f 28 ee 25 3f 55 59 39 3f 4e 37 ea 3e
       1.3184994 0.6481652 0.72401935 0.4574532
000030 a2 95 e9 3e ec 4d aa 3f 9a ab 26 3f e5 fe 15 3f
       0.45621973 1.330503 0.65105593 0.58592063
000040 36 35 74 3f 0c 1a 2e 3f 70 93 c4 3f 43 0f b6 3f
       0.95393693 0.68008494 1.5357494 1.4223408
000050 a3 fa 51 3f b4 0d c4 3f 76 5c 2d 3f d0 18 bf 3f
       0.82023066 1.5316682 0.6771921 1.4929447
000060 59 5a de 3e 69 25 c5 3f c9 2b c1 3f 67 a3 48 3f
       0.43428305 1.5402042 1.5091487 0.7837433
000070 03 74 2f 3f f1 b8 e4 3e c8 b9 b4 3f 26 ac a8 3f
       0.68536395 0.4467235 1.4119196 1.3177536
000080 60 f2 86 3f 4e 1a 0f 3f af 78 37 3f d0 b5 ac 3f
       1.0542717 0.5589951 0.71668524 1.3492985
000090 8e 3f 46 3f c1 f7 be 3f fd a2 e7 3e 4b ed c7 3f
       0.77440727 1.4919358 0.45241538 1.5619291
0000a0 78 ad 73 3f 45 b0 2d 3f 25 e6 a5 3e 33 84 a0 3f
       0.9518657 0.6784709 0.3240215 1.2540344
0000b0 6a 51 c6 3f 13 8e 36 40 81 2d c9 3f 6b e6 4c 3e
       1.5493596 2.8524215 1.5717012 0.20009772
0000c0 e7 15 01 3f 1f 91 0d 3f a6 79 3f 3f 83 8b c0 3f
       0.50424045 0.5529956 0.74794996 1.5042576
0000d0 69 61 c1 3f 7f e8 ac 3f c6 2a 2b 3f 54 79 c7 3f
       1.5107852 1.3508452 0.6686214 1.5583901
0000e0 50 eb 44 3f 81 30 53 3f 93 99 0d 3f d4 85 02 bf
       0.7692156 0.82495886 0.5531246 -0.50985456
0000f0 ae c8 0d 3f 4c fe f2 3e f1 6d c5 3f b2 7b a2 3f
       0.5538434 0.47459638 1.5424176 1.2693999

module.Conv6.layers.1.bias f4 [64]
000000 3f 67 3b bf 87 79 14 bf 65 52 0e 3f a6 98 22 3f
       -0.73204416 -0.57997936 0.55594474 0.63514173
000010 f9 c3 4e 3f 55 c8 11 3f 48 e0 0a 3f 68 4a 20 3f
       0.8076778 0.5694631 0.54248476 0.62613535
000020 07 a1 59 3f 22 cb 2a bf c8 74 8d 3d e4 dc 25 bf
       0.85011333 -0.66716206 0.0690704 -0.6479018
000030 64 d0 0c bf 9d d0 5c 3f 23 d5 4e 3d 83 93 2a bf
       -0.5500548 0.8625582 0.05049623 -0.66631335
000040 73 7f ab 3f c0 78 63 bf 49 d5 16 3f 0b 6c 5d 3f
       1.339827 -0.88856125 0.589192 0.86492985
000050 f1 3a 48 bf 2a a2 0d 3f 86 81 26 bf b7 d2 0c 3f
       -0.7821494 0.5532557 -0.6504139 0.55009025
000060 4c ac 14 bf a6 05 12 3f 79 3f 11 3f c9 ca a0 be
       -0.58075404 0.5703987 0.56737477 -0.31404713
000070 a1 50 43 bf 46 1d 3f bf e6 2e 42 3f bd 86 4d 3f
       -0.76294905 -0.7465404 0.7585281 0.8028372
000080 74 d6 2d 3e c0 f8 09 3f 89 9a 30 bf 9a 14 79 3f
       0.16976339 0.5389519 -0.689858 0.9729706
000090 30 a3 a8 be c2 d8 0b 3f 97 d7 19 bf d4 2d 21 3f
       -0.32937002 0.5462762 -0.6009459 0.62960553
0000a0 c8 8c b4 bf 49 88 5d bf 6a 68 2b bf c3 37 30 3f
       -1.4105463 -0.8653608 -0.669562 0.68835086
0000b0 94 c3 14 3f b6 4e 8a 3f e8 fa 12 3f 9f bd 20 be
       0.5811093 1.0805271 0.574141 -0.15697335
0000c0 cf 1f 25 bf 5a 6e 03 bf 0e 7c ef be 6d f7 32 3f
       -0.6450166 -0.5134026 -0.46774334 0.6990879
0000d0 f9 6d 3b 3f ae 1d 46 3f 42 b5 00 bf 8b 8a 0b 3f
       0.7321468 0.7738904 -0.5027658 0.54508275
0000e0 1f 66 c6 be d3 eb 58 bf a2 a7 2e bf 8d 41 56 bf
       -0.38749787 -0.8473484 -0.6822454 -0.8369377
0000f0 6f 6d 22 bf d6 75 0e bf bf ef 2e 3f c0 be bc 3f
       -0.6344823 -0.55648553 0.68334574 1.4745712

module.Conv6.layers.1.running_mean f4 [64]
000000 5e fe ef 42 89 d0 d2 c2 56 47 03 43 33 e7 e5 c2
       119.99681 -105.407295 131.27866 -114.95156
000010 24 1b e9 c2 c6 0e 10 43 68 d5 db 42 1a e1 d2 42
       -116.55301 144.05771 109.91681 105.43965
000020 40 26 bf 42 e1 71 93 42 67 cc 0f 43 5d e0 ca 42
       95.57471 73.72242 143.79845 101.43821
000030 49 67 ba c2 8a 18 cd c2 20 24 02 43 7d 23 e0 42
       -93.20173 -102.54793 130.14111 112.06931
000040 e7 28 ed c2 da f3 de 42 bc 66 71 c2 a6 ef d6 c2
       -118.57989 111.47627 -60.350327 -107.46806
000050 e1 86 df 42 6e de 01 43 09 b0 ca 42 12 6f 57 c2
       111.763435 129.86887 101.34382 -53.858467
000060 22 d7 25 c3 81 65 03 43 50 bb de 42 0b 8e 04 c3
       -165.84036 131.3965 111.365845 -132.55486
000070 27 3b dc 42 2c 63 f6 42 b9 b4 c3 c2 54 e0 e2 c2
       110.11553 123.193695 -97.852974 -113.43814
000080 31 dc c4 42 f1 63 03 43 8e 4b a8 42 9c 0c e0 c2
       98.43006 131.3904 84.14757 -112.02463
000090 f0 32 f5 c2 7f 9e 00 43 56 b3 d5 42 73 73 cf 42
       -122.59949 128.61913 106.850266 103.72549
0000a0 d6 b6 f8 42 41 15 fd 42 a7 2e e3 c2 df 6f fb c2
       124.3571 126.54151 -113.59112 -125.7185
0000b0 a3 ef ee 42 40 1a 76 c1 f6 19 02 43 41 85 c3 c2
       119.46804 -15.381409 130.10141 -97.76026
0000c0 4c 60 cc 42 5b 13 16 c3 cc b5 0d 41 3c 9e 39 c3
       102.18808 -150.0756 8.856884 -185.6181
0000d0 0d 6c 0d c3 ae 61 ca c2 85 a1 f4 c2 24 0e d6 42
       -141.42207 -101.19078 -122.31547 107.02762
0000e0 5c 39 0a c3 c2 23 de 42 c2 79 b6 42 44 fd 01 43
       -138.22406 111.06984 91.23781 129.98932
0000f0 59 fa c1 42 ef 89 18 c3 b1 08 ce c2 18 56 fb c2
       96.98896 -152.5388 -103.016975 -125.66815

module.Conv6.layers.1.running_var f4 [64]
000000 13 6e b6 45 e1 20 8f 45 1d e6 20 46 d4 f5 b9 45
       5837.7593 4580.11 10297.528 5950.7285
000010 cb 2b 9e 45 82 26 fc 45 7c 1f cc 45 2f 97 93 45
       5061.474 8068.8135 6531.9355 4722.898
000020 ed c6 84 45 b3 21 a8 45 17 b2 25 46 c8 6e a8 45
       4248.8657 5380.2124 10604.522 5389.8477
000030 a2 5f 4e 45 0a 60 88 45 c7 ff 14 46 e3 eb b6 45
       3301.977 4364.005 9535.944 5853.486
000040 ac a8 a6 45 63 00 c2 45 a0 7c 73 45 80 3a 79 45
       5333.084 6208.0483 3895.789 3987.6562
000050 97 64 90 45 a6 2e e3 45 5a 4c 7f 45 ba c2 ab 45
       4620.5737 7269.831 4084.772 5496.341
000060 d0 fc 3c 46 81 e5 18 46 42 2e 9d 45 ca 23 1d 46
       12095.203 9785.376 5029.782 10056.947
000070 f5 ee aa 45 e9 b5 00 46 68 50 9a 45 dc cc b7 45
       5469.8696 8237.478 4938.051 5881.6074
000080 c2 c0 b8 45 e3 3b e1 45 88 4a 4d 45 11 99 72 45
       5912.0947 7207.486 3284.6582 3881.5667
000090 bf 0a d6 45 b4 2c 0d 46 20 de aa 45 bd 43 83 45
       6849.3433 9035.176 5467.7656 4200.4673
0000a0 9f 04 cf 45 8d bd 94 45 f3 1d ff 44 30 e4 fb 45
       6624.5776 4759.694 2040.9359 8060.5234
0000b0 8f 2d a4 45 fa 8b 07 45 93 3a e3 45 c6 56 ea 44
       5253.695 2168.7485 7271.322 1874.7117
0000c0 84 75 a9 45 15 31 cc 45 fe 25 3e 44 5c 98 f1 45
       5422.6895 6534.1353 760.5936 7731.045
0000d0 24 16 e2 45 22 26 88 45 54 a0 f9 45 8a ea a9 45
       7234.7676 4356.7666 7988.041 5437.3174
0000e0 ed 5b 19 46 ee 53 b2 45 bd 0c 9c 45 14 e3 d8 45
       9814.981 5706.491 4993.5923 6940.385
0000f0 c3 ba 90 45 a1 fd 16 46 2b cf b6 45 4e 16 b5 45
       4631.345 9663.407 5849.896 5794.788

module.Conv7.layers.1.weight f4 [1, 128, 3, 3]
000000 d4 ed 16 bf 3d dc 18 bf b8 2a 14 bf 0a c6 16 bf
       -0.58956647 -0.59711057 -0.57877684 -0.58895934
000010 10 f4 15 bf 69 26 18 bf db e2 29 bf 82 0b 1d bf
       -0.58575535 -0.5943361 -0.6636178 -0.61345685
000020 7d 21 21 bf 69 da 15 3f 38 60 19 3f 61 75 16 3f
       -0.62941724 0.5853639 0.59912443 0.58772856
000030 65 2c 18 3f 67 44 15 3f 69 68 16 3f 5e 1f 1a 3f
       0.5944274 0.583075 0.5875307 0.6020411
000040 50 aa 17 3f cf 24 13 3f fa f0 19 3f c2 ee 1d 3f
       0.5924425 0.5747804 0.60133326 0.6169244
000050 b7 38 19 3f a2 70 14 3f cc 26 1c 3f a3 4c 16 3f
       0.59852165 0.57984364 0.609967 0.5871069
000060 00 64 1e 3f 8d 8c 1d 3f 17 e5 17 3f 35 9e 19 bf
       0.6187134 0.6154259 0.5933394 -0.6000703
000070 24 cf 1d bf b6 c5 1c bf 81 e0 1f bf de 3d 19 bf
       -0.61644197 -0.6123918 -0.6245194 -0.59860027
000080 c6 54 1a bf e6 66 18 bf 6b a6 14 bf bf 40 1b bf
       -0.60285604 -0.5953201 -0.58066434 -0.6064567
000090 57 31 1c bf 6d 76 1e bf 30 bf 0d bf 3e f9 1a bf
       -0.61012787 -0.61899453 -0.55369854 -0.60536563
0000a0 d9 23 1b bf dc d0 10 bf f2 6e 13 bf 96 82 1f bf
       -0.60601574 -0.56568694 -0.57591164 -0.62308633
0000b0 22 cf 19 bf ba 8a 1f 3f de e5 1f 3f 2b de 1f 3f
       -0.60081685 0.62321055 0.62460124 0.62448376
0000c0 79 3c 1b 3f 78 ef 1f 3f 2f 0d 16 3f 7d 39 1b 3f
       0.6063915 0.62474775 0.58613867 0.60634595
0000d0 dc ac 12 3f b4 7c 1b 3f cc b3 19 3f f3 ec 16 3f
       0.5729501 0.60737157 0.60039973 0.58955306
0000e0 ff b2 1b 3f 0e 10 1e 3f b0 0b 13 3f 4b 66 1d 3f
       0.6082 0.6174325 0.5743971 0.6148421
0000f0 5c 19 19 3f 01 76 1d 3f 77 62 12 3f 1b 89 1d 3f
       0.5980432 0.61508185 0.57181495 0.6153733
000100 e5 c0 13 3f c1 9d 12 3f 7b 73 18 3f df ae 20 3f
       0.5771621 0.57271963 0.5955121 0.6276683
000110 18 28 1f 3f 0c 6c 16 3f 71 3f 1b 3f f0 82 1f 3f
       0.62170553 0.58758616 0.6064368 0.6230917
000120 b9 75 13 3f 36 ad 1b 3f 1b 17 1a 3f 91 bb 1f 3f
       0.57601506 0.60811174 0.60191506 0.6239558
000130 a8 22 14 3f d9 15 1c 3f c6 d7 17 3f ce 12 19 3f
       0.5786538 0.60970837 0.5931362 0.5979432
000140 0d bd 1d 3f 65 67 21 bf 6d d9 15 bf 8f 25 13 bf
       0.61616594 -0.6304839 -0.5853489 -0.57479185
000150 4b 3b 1a bf da cb 1c bf 82 4d 17 bf 0b ec 1b bf
       -0.60246724 -0.6124855 -0.5910264 -0.6090705
000160 eb 4f 19 bf c0 15 1b bf d6 c5 17 3f ca 4f 18 3f
       -0.5988757 -0.6058006 0.5928625 0.5949675
000170 69 86 13 3f 45 df 1c 3f 92 09 1b 3f 53 7e 1f 3f
       0.5762697 0.6127818 0.6056148 0.6230213
000180 c7 b1 17 3f 66 be 1b 3f 13 b8 13 3f 15 62 15 bf
       0.5925564 0.608374 0.5770275 -0.58352786
000190 42 50 17 bf 84 1d 20 bf 7a 33 14 bf 0b 1d 16 bf
       -0.5910684 -0.6254504 -0.57891047 -0.58638066
0001a0 2b fd 12 bf ac 24 16 bf 7a d9 1d bf 12 ac 18 bf
       -0.57417554 -0.58649707 -0.6165997 -0.5963756
0001b0 4a c3 14 3f c3 b3 16 3f 3c e1 16 3f 27 8b 13 3f
       0.5811049 0.58868045 0.5893743 0.57634205
0001c0 29 3e 14 3f 3e ef 14 3f ed 4d 1c 3f b4 3c 18 3f
       0.5790735 0.58177555 0.61056405 0.59467626
0001d0 6d b4 1d 3f b1 24 16 bf c1 77 16 bf e0 52 17 bf
       0.6160343 -0.58649737 -0.5877648 -0.5911083
0001e0 94 e4 19 bf 33 63 1c bf f2 ed 1d bf f3 4b 19 bf
       -0.6011441 -0.61088866 -0.616912 -0.59881514
0001f0 89 85 1f bf 9a 83 19 bf 34 21 17 3f cc 4f 1a 3f
       -0.62313133 -0.59966433 0.5903504 0.6027801
000200 e9 f8 13 3f 15 68 20 3f 14 6a 16 3f fe ca 1b 3f
       0.5780168 0.62658817 0.5875561 0.60856616
000210 4e e1 18 3f 04 b7 16 3f 69 12 19 3f 49 fa 1d bf
       0.5971879 0.5887301 0.59793717 -0.6171003
000220 85 75 1c bf f9 09 1a bf fb f9 13 bf d4 bc 14 bf
       -0.6111682 -0.6017147 -0.57803315 -0.5810063
000230 a0 ba 1d bf e1 90 1a bf 88 2c 17 bf 37 fd 12 bf
       -0.6161289 -0.6037732 -0.59052324 -0.57417625
000240 05 38 10 bf aa 56 1a bf c8 4d 16 bf ab dd 1a bf
       -0.5633548 -0.6028849 -0.58712435 -0.6049449
000250 09 bd 17 bf 56 02 1f bf 02 b6 0f bf cd 66 1a bf
       -0.5927282 -0.6211294 -0.56137097 -0.6031311
000260 2a 3a 1b bf f5 7c 15 bf 42 c2 1a bf 50 45 17 bf
       -0.60635626 -0.58393794 -0.60452664 -0.5909014
000270 e5 08 16 bf 65 fc 1e bf d0 fe 1e bf e1 a6 13 bf
       -0.5860732 -0.62103873 -0.62107563 -0.5767651
000280 c9 ff 1a bf 2d 95 1e bf 39 39 20 bf 50 bb 1b bf
       -0.6054655 -0.61946374 -0.62587315 -0.6083269
000290 2f d7 1e bf 77 34 12 bf f7 12 1d bf 41 b6 18 bf
       -0.62047094 -0.57111305 -0.61357063 -0.596531
0002a0 8d 4c 1d bf 27 28 1f bf 99 8a 1b bf 31 8f 1e bf
       -0.6144493 -0.6217064 -0.6075836 -0.6193724
0002b0 de 81 18 bf 69 82 19 bf c9 e9 1c bf 85 66 1f bf
       -0.5957316 -0.59964615 -0.6129423 -0.6226581
0002c0 20 29 1c bf 93 79 14 bf 7b d3 1c bf 64 16 11 bf
       -0.6100025 -0.5799801 -0.61260194 -0.5667479
0002d0 32 62 17 bf a6 2f 20 bf da 1c 15 bf 25 6c 14 bf
       -0.5913421 -0.62572706 -0.5824715 -0.57977515
0002e0 f2 51 12 bf 90 3f 21 bf da 77 19 bf b3 2f 21 bf
       -0.5715629 -0.62987614 -0.59948504 -0.6296341
0002f0 57 da 18 bf 64 62 1a 3f 67 d7 1a 3f bc 7e 1a 3f
       -0.5970816 0.6030638 0.6048493 0.6034963
000300 bb c1 1b 3f 09 17 17 3f fc 31 18 3f e6 6a 16 3f
       0.60842484 0.59019524 0.5945127 0.58756864
000310 c5 72 20 3f 0d 0a 1e 3f f1 86 1a bf f7 70 15 bf
       0.62675124 0.61734086 -0.60362154 -0.58375496
000320 9a 30 17 bf 66 30 16 bf b6 f5 12 bf cd 42 1c bf
       -0.59058535 -0.586676 -0.57406175 -0.6103943
000330 e1 a0 14 bf 4d 55 1d bf 3b b0 1f bf b4 a4 1d bf
       -0.5805798 -0.61458284 -0.6237828 -0.6157944
000340 2d 15 1d bf 26 9b 1f bf 5c 9b 1d bf 4b 84 12 bf
       -0.61360437 -0.6234611 -0.61565185 -0.57233113
000350 7c 25 15 bf 2f 12 17 bf df 01 1a bf 79 f7 1e bf
       -0.5826032 -0.5901212 -0.60159105 -0.62096363
000360 5b 7f 1a 3f f6 42 14 3f e5 34 14 3f b1 27 18 3f
       0.6035058 0.57914674 0.5789321 0.59435564
000370 a8 40 17 3f d2 d4 1a 3f 2d 80 16 3f af 4a 13 3f
       0.5908303 0.6048099 0.5878933 0.57535833
000380 25 b0 15 3f ad d8 18 3f 81 bb 16 3f 16 c2 1c 3f
       0.584719 0.5970562 0.5887986 0.6123365
000390 64 8e 1a 3f ac 7d 18 3f f6 21 1b 3f 2b 85 1e 3f
       0.6037352 0.5956676 0.60598695 0.6192195
0003a0 ad 50 1d 3f 84 af 1f 3f 7c 7b 1e 3f 9d 8a 18 3f
       0.61451226 0.6237719 0.6190717 0.5958651
0003b0 fe bd 18 3f c6 b1 1d 3f 35 42 1a 3f c3 9d 1b 3f
       0.59664905 0.61599386 0.60257274 0.607876
0003c0 0e 38 17 3f 36 f1 18 3f 60 bd 19 3f da 6c 1b 3f
       0.5906991 0.5974306 0.6005459 0.6071297
0003d0 1c 4f 1e 3f 74 1f 1a 3f f7 7a 16 3f 1e 22 14 3f
       0.6183946 0.60204244 0.5878138 0.5786456
0003e0 fa 70 20 3f ef 7b 16 3f c7 fd 17 3f 32 2e 1b 3f
       0.6267239 0.5878286 0.5937161 0.60617363
0003f0 48 12 20 bf 54 4e 23 bf 37 a1 16 bf 5d 21 1b bf
       -0.62527895 -0.63791394 -0.58839744 -0.60597783
