DIDFuse/saved_models/encoder/VIS_AE20.pth (torch, 460446 bytes, 24 tensors)

module.Conv1.layers.1.weight f4 [64, 1, 3, 3]
0	0x3f26f3bb	0.65215653
1	0x3e8f6e3a	0.28013784
2	0x3f213a62	0.6297971
3	0x3f14368b	0.57895726
4	0x3f292fdd	0.6608866
5	0x3ebd6a91	0.36995366
6	0x3f18c8cb	0.59681386
7	0x3f5a97d8	0.85387945
8	0x3f172457	0.59039825
9	0xbf3f4a20	-0.7472248
10	0xbf25cf56	-0.64769495
11	0xbf5c1b0f	-0.8597879
12	0xbf4a3e08	-0.790009
13	0xbea9441f	-0.33059785
14	0xbe94530a	-0.28969604
15	0xbe9cfab1	-0.30660012
16	0xbe9daddd	-0.3079671
17	0xbf13fffb	-0.5781247
18	0xbf238d2a	-0.63887274
19	0xbf27145f	-0.6526546
20	0xbefb48e3	-0.49079046
21	0xbf4bc05c	-0.7959039
22	0x3f6ef98d	0.93349534
23	0xbf6013e9	-0.8753038
24	0xbedfb3ee	-0.43691963
25	0x3e907fa2	0.28222376
26	0x3f1bf294	0.6091702
27	0xbfcbaa77	-1.5911397
28	0xbf4f4464	-0.8096373
29	0xbf859422	-1.0435832
30	0x3e0312f6	0.12800202
31	0x3efb552e	0.49088424
32	0xbdcc2a0d	-0.09968958
33	0xbf89656c	-1.0734076
34	0xbe2a0cb7	-0.16606413
35	0xc02ba3e6	-2.6818786
36	0xbf654a33	-0.89566344
37	0xbf653c45	-0.8954509
38	0xbf7a05e1	-0.9766522
39	0x3d134b50	0.035960495
40	0xbbdc4f5f	-0.006723329
41	0xbe30a25d	-0.17249437
42	0x3e7a8bd9	0.2446741
43	0x3f3ecd8f	0.7453241
44	0x3ebb6e67	0.36607668
45	0x3e952ec2	0.29137236
46	0x3f2533a7	0.6453194
47	0x3f68ad80	0.9088974
48	0x3f09ceab	0.53830975
49	0x3ed4b631	0.4154525
50	0x3eda5a57	0.4264705
51	0x3f06ceca	0.52659285
52	0x3f6d23b4	0.92632604
53	0x3f4b289d	0.79358846
54	0xbf3d4d92	-0.7394649
55	0xbf0bdd7f	-0.5463485
56	0xbec87eb5	-0.3915917
57	0xbfd41972	-1.6570265
58	0x3fc456c6	1.5338981
59	0xbf60dfa5	-0.87841254
60	0x3d83bf26	0.06432943
61	0x3ea15a5b	0.31514248
62	0xbf514547	-0.81746334
63	0xbf3d01ba	-0.7383076
64	0xbf426f02	-0.75950634
65	0xbf3270af	-0.6970319
66	0xbef14527	-0.47123072
67	0xbf39b278	-0.72537947
68	0xbed8347d	-0.42227545
69	0xbf0368b1	-0.5133162
70	0xbe8bc007	-0.27294943
71	0xbf099054	-0.5373585
72	0xbf8d90ee	-1.1059854
73	0xbfd35973	-1.6511673
74	0xbfbd0333	-1.4766601
75	0xbee903a3	-0.45510587
76	0xbe32fd08	-0.17479336
77	0x3d9fd745	0.07804731
78	0xbf0d3f73	-0.5517494
79	0xbe0a988e	-0.13534757
80	0x3ec33e7c	0.3813361
81	0x3eeb00b0	0.45898962
82	0x3e9a2a41	0.30110362
83	0x3f3a4f0f	0.72776884
84	0x3f48162b	0.78158826
85	0x3f687357	0.90800995
86	0x3f2d52b4	0.6770432
87	0x3f4fdee9	0.8119951
88	0x3eb1ebbe	0.3475017
89	0x3f0a3dd6	0.54000604
90	0xbf605dfd	-0.87643415
91	0x3ec9a2f8	0.39382148
92	0xbf9b0ba7	-1.2112931
93	0x3d82ca30	0.063862205
94	0x40253741	2.5814974
95	0x3f78da97	0.9720854
96	0xbfd2d0bb	-1.646995
97	0x3ea2e720	0.3181696
98	0xbfbdb270	-1.482008
99	0xbf3477ae	-0.70495117
100	0xbe107615	-0.14107545
101	0x3f8e5f7b	1.1122888
102	0xbf594fd6	-0.84887445
103	0xbe8c776c	-0.27434862
104	0xbf125a44	-0.57168984
105	0xbf288fa3	-0.6584417
106	0xbec993d5	-0.393706
107	0xbf393254	-0.7234242
108	0x3ecd4df1	0.40098527
109	0x3e8293fc	0.25503528
110	0xbdea3f51	-0.11437858
111	0x3f65f5cb	0.89828175
112	0x3fa0c588	1.2560282
113	0x3face8c9	1.350854
114	0x3f259c1f	0.64691347
115	0x3eaeaf54	0.3411814
116	0x3f145f82	0.57958233
117	0x3f4a7302	0.7908174
118	0x3f8cb650	1.0993137
119	0x3f441de5	0.76608115
120	0x3cd26594	0.025683202
121	0x3ecccdeb	0.40000853
122	0x3daa4748	0.08314377
123	0xbe38a718	-0.18032491
124	0xbed61232	-0.41810757
125	0xbf1cccab	-0.612498
126	0xbf9aa90d	-1.208284
127	0xbe3a2994	-0.18179923
128	0xbf7e6ff1	-0.9938956
129	0x3d4a31c0	0.04936385
130	0x3fcad29f	1.5845526
131	0x3eb1c8f9	0.34723642
132	0xbfac66e1	-1.3468896
133	0x3d3baa5f	0.045816775
134	0xbfb3b625	-1.4039961
135	0x3f5e57fc	0.86853004
136	0xbe7f3837	-0.24923788
137	0x3f8eeedc	1.1166644
138	0xbec7a7ed	-0.38995305
139	0xc01482d7	-2.3204858
140	0xbe14d514	-0.14534408
141	0x3f6eb5e8	0.93246317
142	0xbf19b373	-0.6003944
143	0x3f1e7447	0.61896175
144	0xbf996b92	-1.1985953
145	0xbf0df84e	-0.5545701
146	0x3e27cac0	0.16385937
147	0xbf84cbdb	-1.0374712
148	0x3f813328	1.0093737
149	0x3f55d1c4	0.835232
150	0xbf57ffdf	-0.84374803
151	0xbf5d5a9e	-0.86466396
152	0xbd86c293	-0.06580081
153	0xbf4db63f	-0.8035621
154	0x3f104683	0.5635759
155	0x3ebc66db	0.36797222
156	0xbef5370f	-0.4789357
157	0xbf027421	-0.5095845
158	0xbf42fae2	-0.76164067
159	0xbf26816d	-0.6504124
160	0xbf28743c	-0.6580236
161	0xbf5035f5	-0.8133233
162	0xbf281d4f	-0.6566972
163	0x3f625169	0.8840547
164	0xbe993df1	-0.2993007
165	0x3f86b7cd	1.0524842
166	0x4046752c	3.1009016
167	0x3f1abe03	0.60446185
168	0xbf6d5bbc	-0.927181
169	0x3f4ff5ef	0.8123464
170	0xbf8d1514	-1.1022058
171	0xc04f539f	-3.2394788
172	0xbf360807	-0.71106
173	0xbf6ee51f	-0.9331836
174	0xbf94502b	-1.1586965
175	0x3fa5304b	1.2905363
176	0x3e942b7c	0.28939426
177	0xbf423f50	-0.7587786
178	0xbf4814ca	-0.7815672
179	0xbef8e7c1	-0.48614314
180	0xbeeaab18	-0.4583366
181	0xbedca44d	-0.43094102
182	0xbfc8e354	-1.5694375
183	0x3f36d378	0.71416426
184	0x401a88ce	2.4146
185	0x3f361e59	0.71140057
186	0xbf1a4811	-0.60266215
187	0x3f90c9ca	1.1311581
188	0xbdb804df	-0.08985304
189	0x3f7ae441	0.9800454
190	0x3fd4c980	1.6623993
191	0x3f5db920	0.86610603
192	0x3f648ac6	0.8927425
193	0x4010f02f	2.2646596
194	0x3faebfc0	1.3652267
195	0xbf6205ee	-0.882903
196	0xbdd76280	-0.10516834
197	0xbf47ddef	-0.7807302
198	0x3f656147	0.8960156
199	0xbefd373b	-0.494562
200	0x3f8a91dd	1.0825764
201	0xbf1696dd	-0.5882395
202	0xbfcd1796	-1.6022823
203	0xbf80f32f	-1.0074214
204	0x401509fb	2.3287342
205	0xbf7f9e94	-0.99851346
206	0x400fa155	2.244222
207	0xbede576f	-0.43426082
208	0x3e23d1f2	0.15998057
209	0xbf2984be	-0.66218174
210	0x3f457a70	0.7713995
211	0x3f78b2d6	0.9714788
212	0xbf6a32a8	-0.91483545
213	0xbef235cc	-0.4730667
214	0x3d859d7a	0.06524177
215	0xbfe90209	-1.8203746
216	0x3eb438ce	0.3519959
217	0x3f326c57	0.69696563
218	0x3eb5af46	0.35485286
219	0x3f5bf7e1	0.8592511
220	0x3ebaa0ac	0.36450708
221	0x3efbebb4	0.49203265
222	0x3ea4b0bf	0.32166097
223	0x3f51d6d9	0.81968457
224	0x3f5d6c63	0.8649351
225	0xbf6e3c76	-0.93061006
226	0xbea03ea5	-0.31297794
227	0xbf28bf25	-0.65916663
228	0xbf34a962	-0.7057096
229	0xbf37732b	-0.7166011
230	0xbf4d246e	-0.8013371
231	0x3e96bf50	0.29442835
232	0x3f03d627	0.51498646
233	0x3ed536ab	0.4164327
234	0x3e8e6b1c	0.27816093
235	0xbe904951	-0.28180936
236	0x3f4f21e6	0.809111
237	0xbf3e0a2a	-0.7423426
238	0xbfe67488	-1.8004313
239	0xbf954597	-1.1661862
240	0x3dff03d6	0.124519035
241	0xbfa4b6c2	-1.2868273
242	0xbeb0166c	-0.34392107
243	0x3ed4e73e	0.41582674
244	0xbfbb794d	-1.4646393
245	0x3f8761d0	1.0576725
246	0xbf6cb210	-0.924592
247	0xc041f0e2	-3.0303273
248	0xbfb08d7a	-1.3793175
249	0x3ee33c2c	0.44381845
250	0xbf0949cb	-0.53628224
251	0x3eb51d73	0.3537403
252	0xbe87caac	-0.26521814
253	0xbe0e83ff	-0.1391754
254	0xbf238bae	-0.6388501
255	0x40213789	2.5190146

module.Conv1.layers.1.bias f4 [64]
0	0xbeec586b	-0.46161208
1	0x3ef245c6	0.47318858
2	0x3f1047f1	0.56359774
3	0xbeae5de6	-0.34056014
4	0xbea1e40a	-0.31619292
5	0xbf338096	-0.7011808
6	0xbe15fa43	-0.14646249
7	0x3eaeab06	0.34114856
8	0x3ef8d250	0.48597956
9	0xbe690e8e	-0.22759458
10	0x3db5469a	0.08851357
11	0xbd6fa553	-0.058507275
12	0x3ed8bd45	0.423319
13	0x3e2f9115	0.17145188
14	0x3efb79c9	0.49116352
15	0xbe7695a8	-0.24080527
16	0x3e90b017	0.28259346
17	0xbf0494de	-0.51789653
18	0xbeb5949c	-0.35464942
19	0x3f0b0abe	0.54313266
20	0xbeb7d948	-0.3590796
21	0x3e6825fb	0.22670738
22	0x3ed1c550	0.4097085
23	0x3e4a4162	0.19751504
24	0x3d748bcc	0.059703633
25	0xbe7d12db	-0.24714224
26	0x3ef6c218	0.48194957
27	0x3e84bbe4	0.259246
28	0xbf26e56d	-0.65193826
29	0xbf19152b	-0.59797925
30	0xbec88004	-0.39160168
31	0xbe67a9fb	-0.22623436
32	0xbeb2432d	-0.34816876
33	0xbe39729d	-0.18110128
34	0xbc0306da	-0.007997239
35	0x3f394a30	0.72378826
36	0xbe01eb94	-0.12687522
37	0xbf47f20d	-0.78103715
38	0x3e944e7a	0.28966123
39	0xbe8bf5da	-0.27336007
40	0xbdb6865a	-0.08912344
41	0x3e9ca56c	0.30594957
42	0xbf1ba9de	-0.6080607
43	0x3ed9b74e	0.42522663
44	0x3e852526	0.26004905
45	0xbe0f48ab	-0.13992564
46	0xbe586c9e	-0.21135184
47	0x3e6e655c	0.23280853
48	0x3dcf7eda	0.10131617
49	0x3f513379	0.81719166
50	0xbbcd5824	-0.0062666107
51	0xbdc5bf2a	-0.09655602
52	0xbe4a674b	-0.19765966
53	0xbe918125	-0.28418842
54	0x3ee711f2	0.4513088
55	0xbf36dd31	-0.7143126
56	0xbe032174	-0.1280573
57	0xbed90186	-0.42383975
58	0x3dc7f8a4	0.09764221
59	0xbec72a2b	-0.3889936
60	0x3e9b5e36	0.30345315
61	0x3ef44fa3	0.47717008
62	0x3e690943	0.2275744
63	0xbe2a5a7e	-0.16636083

module.Conv1.layers.2.weight f4 [64]
0	0x3efe6a63	0.49690542
1	0x3ef84884	0.48492825
2	0x3efabef6	0.48973817
3	0x3fc002cc	1.5000854
4	0x3e00e183	0.12586026
5	0x3fd6fde5	1.6796232
6	0xbe8673a1	-0.26260093
7	0x3ef167fa	0.4714964
8	0x3fb8d1ee	1.4439065
9	0x3f444998	0.76674795
10	0x4010743d	2.2570946
11	0x3fca55f1	1.5807477
12	0x3ef10552	0.47074372
13	0x3effbb8b	0.4994777
14	0x3fed07bd	1.8517987
15	0x3f7a8634	0.9786103
16	0x3efb6371	0.49099305
17	0xbe56fe02	-0.20995334
18	0x40237e87	2.5545976
19	0x3f9fc907	1.2483224
20	0x4080cf38	4.0252953
21	0x3f0e10ce	0.5549439
22	0x4027e41f	2.6232984
23	0x3fd74de4	1.6820645
24	0x3eeb3942	0.45942122
25	0x3d5936a8	0.05303064
26	0x400753e4	2.1144953
27	0x3fd2d8bd	1.6472393
28	0x3fc28e7b	1.5199732
29	0x3fd4655f	1.6593436
30	0x3fb25057	1.3930768
31	0x3ec1ea32	0.3787399
32	0x3f0ee146	0.5581249
33	0x3fd12240	1.6338577
34	0xbe415177	-0.18878733
35	0x3f0de9b0	0.55434704
36	0x3ff37119	1.901889
37	0x3fdf48d9	1.7444106
38	0x3f6609a6	0.8985847
39	0x3f8cc6c5	1.099816
40	0x4003aa44	2.0572672
41	0x3fcc8651	1.597849
42	0x3fe5d076	1.7954242
43	0x3f8efffa	1.1171868
44	0x3ff8b565	1.9430357
45	0x3e699e14	0.22814208
46	0x3f1cb380	0.61211395
47	0x3ef50b1f	0.47860047
48	0xbcb88210	-0.022522956
49	0x3fab8fbf	1.3403243
50	0x3bac5ad2	0.00525985
51	0x3fbcfadc	1.4764056
52	0x3faa26ca	1.3293087
53	0x3fe7c099	1.8105651
54	0x3fb1f4c5	1.3902823
55	0x3fd8ad7d	1.6927944
56	0x3fbc4ac1	1.4710313
57	0x3f1151a5	0.56765205
58	0xbd770e74	-0.060316518
59	0x4003a2cd	2.0568116
60	0x3f6c6ff4	0.92358327
61	0x3faf3279	1.3687278
62	0x3ebdd4fb	0.37076554
63	0x3f45702d	0.7712429

module.Conv1.layers.2.bias f4 [64]
0	0xbf19a1e1	-0.6001263
1	0xbf1a87a5	-0.6036323
2	0xbf242646	-0.641209
3	0x3f07aa68	0.52994394
4	0xbf4d8742	-0.8028451
5	0x3f610fa5	0.87914497
6	0xbf64caff	-0.8937225
7	0xbf14b7f4	-0.5809319
8	0xbf0f2dbb	-0.55929154
9	0xc020c6e5	-2.5121396
10	0x3f923263	1.1421627
11	0x3f597d18	0.849565
12	0xbfbf0cfe	-1.492584
13	0xbf9df3b1	-1.2339994
14	0x3f7e8b61	0.99431425
15	0xbe3e652b	-0.1859328
16	0xbfa91070	-1.3208141
17	0xbf3a144a	-0.7268721
18	0x3f012f40	0.5046272
19	0xbf267c1c	-0.65033126
20	0xbe7e9bec	-0.24864167
21	0xbfd47f19	-1.6601287
22	0x3f388e7a	0.720924
23	0x3edd2350	0.43191004
24	0xbf119fcf	-0.56884474
25	0xbf5b575a	-0.8568016
26	0x3f885a4a	1.0652554
27	0x400ae290	2.1700783
28	0x3f3d706a	0.73999655
29	0x3f3159ea	0.6927782
30	0x3ec04146	0.375498
31	0xbf2f8695	-0.6856473
32	0xbf1a319b	-0.6023194
33	0x3f03addf	0.5143718
34	0xbf3aa3a0	-0.7290592
35	0xbf396471	-0.72418886
36	0x3f471ef0	0.7778158
37	0x3f415a3f	0.7552833
38	0xc0378065	-2.8672116
39	0x3b103157	0.0022002065
40	0x3f15bda4	0.58492494
41	0x3f459ab2	0.7718917
42	0x3f699a4e	0.91251075
43	0xbf6fc8b8	-0.9366565
44	0xbf84cad6	-1.0374401
45	0xbf335b57	-0.7006125
46	0xbf05185e	-0.51990306
47	0xbf3e57c3	-0.74352664
48	0xbf402375	-0.75054103
49	0x3f5bd2d5	0.8586858
50	0xbf643a2d	-0.8915127
51	0x3f0080a1	0.5019627
52	0xbea8fb9c	-0.33004463
53	0xbee98680	-0.45610428
54	0x3d07b50e	0.03313165
55	0x3e6235e6	0.22090873
56	0xbef2bbb8	-0.47408843
57	0xbf002fb6	-0.500728
58	0xbf466a23	-0.775057
59	0x3f20c276	0.62796724
60	0x3f8d3fa4	1.1035047
61	0xbfa3286c	-1.2746711
62	0xbf92541d	-1.1431919
63	0xbe58c323	-0.21168189

module.Conv1.layers.2.running_mean f4 [64]
0	0xc0378f31	-2.8681147
1	0x402df0d1	2.7178233
2	0x3fc5d72b	1.5456289
3	0x403533e1	2.8312914
4	0x3eca6394	0.39529097
5	0xc04e9a99	-3.228186
6	0x3fab1904	1.3367009
7	0x402db586	2.7142043
8	0x403075e2	2.757195
9	0xc032a345	-2.7912152
10	0x3f38fd94	0.7226193
11	0x3fb4c1a8	1.4121599
12	0xc00ac4a0	-2.168251
13	0xbf39b3ff	-0.7254028
14	0x3ff9da3b	1.9519724
15	0xbf5420c7	-0.82862514
16	0x3fbd59c1	1.4793016
17	0x3f99ef85	1.202622
18	0xc0038f52	-2.0556226
19	0x40646d4e	3.5691714
20	0xbfbda484	-1.4815831
21	0xc02ad5b9	-2.6692946
22	0xbf3037d9	-0.68835217
23	0x3f60f62b	0.8787562
24	0xc0139fc6	-2.3066268
25	0x3f8b948b	1.0904707
26	0x4022cf21	2.5438921
27	0x4028afd9	2.635733
28	0xc0462ffc	-3.0966787
29	0x3fbe9281	1.488846
30	0x3ff6f9ed	1.9295021
31	0x4010f778	2.2651043
32	0xbffac1f1	-1.9590436
33	0x4019cc4d	2.4030945
34	0x3f9c2cfb	1.2201227
35	0x404d3e43	3.2069252
36	0xc058546c	-3.3801527
37	0xbe3fbda5	-0.18724687
38	0xbf9edf86	-1.2411964
39	0x40132757	2.299276
40	0x4008112e	2.1260486
41	0x402b5fba	2.6777177
42	0xc058f9ee	-3.3902545
43	0xbf808c86	-1.0042884
44	0xc013aded	-2.3074906
45	0x3f8492c0	1.0357285
46	0xc04ead2b	-3.2293193
47	0x4004da5c	2.0758276
48	0x3fda748f	1.7066821
49	0x4056d946	3.3570113
50	0x4008ce8f	2.1376073
51	0x3f2db584	0.67855096
52	0x402d159b	2.7044437
53	0xc031a60f	-2.7757604
54	0x401f6b84	2.4909372
55	0xc04fa8ed	-3.2446854
56	0xc010a669	-2.2601569
57	0x4005be82	2.0897527
58	0x4033b123	2.8076866
59	0xc041fbb6	-3.0309882
60	0xbf3f3a71	-0.7469855
61	0x402e35a2	2.7220235
62	0xbfee62e3	-1.8623928
63	0xbf761a74	-0.96134114

module.Conv1.layers.2.running_var f4 [64]
0	0x40535342	3.3019567
1	0x40378e5c	2.868064
2	0x3f0efed8	0.5585761
3	0x40b5e90e	5.684699
4	0x3ea4f293	0.3221632
5	0x40689db5	3.6346257
6	0x3fa089a6	1.2542007
7	0x404d593c	3.2085714
8	0x403d1bc1	2.954819
9	0x40701308	3.7511616
10	0x3e730c88	0.23735249
11	0x3fa15a78	1.2605734
12	0x4076b5bf	3.854843
13	0x3efac3d1	0.4897752
14	0x3f98fd82	1.1952364
15	0x3e8873b2	0.2665077
16	0x3f567411	0.83770853
17	0x3fda8b79	1.7073814
18	0x3fdb4d2d	1.7132927
19	0x40a700fa	5.218869
20	0x3f4a8148	0.7910352
21	0x409c2df9	4.880612
22	0x3f34f542	0.70686734
23	0x3ea52b71	0.32259706
24	0x404c65ee	3.1937213
25	0x3f85b85f	1.044689
26	0x401e807e	2.4765925
27	0x40529d7c	3.290862
28	0x406249e6	3.5357604
29	0x401d715f	2.4600446
30	0x4044dae1	3.0758593
31	0x4062bcf4	3.5427828
32	0x3fbafd20	1.4608498
33	0x40735317	3.8019464
34	0x3f5f05ab	0.87118024
35	0x4060fbfb	3.5153797
36	0x40cdc2c5	6.4300256
37	0x3e6b0321	0.22950412
38	0x3fae0e49	1.359811
39	0x4071a7f8	3.775877
40	0x40338e8f	2.805576
41	0x404baf1b	3.1825626
42	0x408f9dc6	4.4880095
43	0x3f99dcd2	1.2020514
44	0x407122ba	3.7677445
45	0x3f4e0f56	0.8049215
46	0x40a5ec87	5.185123
47	0x3ff9a997	1.950488
48	0x3fbdaabd	1.481773
49	0x406bcb91	3.6842997
50	0x40278751	2.617634
51	0x3ec2363e	0.37932009
52	0x409a28bb	4.817472
53	0x40632cbc	3.5496054
54	0x401c1649	2.4388602
55	0x406a0cf0	3.6570396
56	0x40268c67	2.6023195
57	0x4066a56b	3.6038463
58	0x4085dd3e	4.183257
59	0x4080dd88	4.0270424
60	0x3f27ae26	0.65500104
61	0x40362193	2.8457992
62	0x401ec17d	2.4805596
63	0x3ebb5374	0.36587107

module.Conv2.layers.0.weight f4 [64, 64, 3, 3]
0	0xbf1bc54d	-0.6084793
1	0xbf19d268	-0.6008668
2	0xbf1b47e0	-0.6065655
3	0xbf22e793	-0.63634604
4	0xbf1f3c63	-0.6220152
5	0xbf132ed0	-0.57493305
6	0xbf14a458	-0.5806327
7	0xbf243be7	-0.64153904
8	0xbf131d65	-0.5746673
9	0x3f19bbd5	0.60052234
10	0x3f17a5c0	0.5923729
11	0x3f0f705c	0.5603082
12	0x3f23e8e8	0.6402726
13	0x3f205fa1	0.6264592
14	0x3f18cf0a	0.59690917
15	0x3f166608	0.5874944
16	0x3f112592	0.5669795
17	0x3f0fde11	0.5619822
18	0x3f16be3e	0.58884037
19	0x3f1d708b	0.6149985
20	0x3f242167	0.6411347
21	0x3f133a65	0.5751098
22	0x3f1e0540	0.6172676
23	0x3f15c49d	0.58503133
24	0x3f1afd45	0.6054271
25	0x3f18e770	0.59728146
26	0x3f180293	0.5937893
27	0x3f1dd092	0.6164638
28	0x3f1be865	0.6090148
29	0x3f1c994f	0.6117143
30	0x3f11cb6d	0.5695103
31	0x3f1dbd7a	0.61617243
32	0x3f1d93ed	0.6155384
33	0x3f1c9fef	0.6118154
34	0x3f23b24a	0.6394392
35	0x3f13a8c9	0.5767942
36	0xbf228daf	-0.6349744
37	0xbf1620a7	-0.58643574
38	0xbf0fe22d	-0.5620449
39	0xbf1f7509	-0.62287956
40	0xbf15c488	-0.5850301
41	0xbf1b62aa	-0.60697424
42	0xbf2060b7	-0.62647575
43	0xbf221a3c	-0.6332128
44	0xbf1843af	-0.59478277
45	0x3f22fdc6	0.6366848
46	0x3f1c11ff	0.6096496
47	0x3f198800	0.59973145
48	0x3f12a557	0.5728354
49	0x3f1c31b0	0.6101332
50	0x3f1a0b55	0.6017354
51	0x3f237800	0.6385498
52	0x3f152517	0.5825972
53	0x3f19d020	0.600832
54	0xbf1b8e21	-0.60763747
55	0xbf1cbdf2	-0.61227334
56	0xbf11c09a	-0.5693451
57	0xbf190752	-0.59776795
58	0xbf16be44	-0.5888407
59	0xbf198e1c	-0.59982467
60	0xbf115a5a	-0.5677849
61	0xbf15bc9f	-0.5849094
62	0xbf1de1a3	-0.6167242
63	0x3f23ab61	0.6393338
64	0x3f21ccae	0.6320294
65	0x3f1c4815	0.6104749
66	0x3f187548	0.59553957
67	0x3f11df4a	0.5698134
68	0x3f1be4e0	0.6089611
69	0x3f14c896	0.5811857
70	0x3f1b3fe1	0.60644346
71	0x3f1c212c	0.60988116
72	0xbf0fc9a4	-0.56167054
73	0xbf18a995	-0.5963376
74	0xbf1db7a2	-0.61608326
75	0xbf13b428	-0.5769677
76	0xbf2184e7	-0.6309342
77	0xbf13995c	-0.5765588
78	0xbf22c5ec	-0.63583255
79	0xbf11d3e0	-0.5696392
80	0xbf16b01b	-0.58862466
81	0x3f1799fc	0.59219337
82	0x3f19e610	0.6011667
83	0x3f1e0874	0.6173165
84	0x3f145758	0.57945776
85	0x3f15b31f	0.5847644
86	0x3f12c784	0.57335687
87	0x3f1f600c	0.6225593
88	0x3f1894f1	0.59602267
89	0x3f10b080	0.5651932
90	0x3f1fccfd	0.6242216
91	0x3f114a33	0.56753844
92	0x3f191c35	0.59808666
93	0x3f150c52	0.58221924
94	0x3f1c0f6a	0.6096102
95	0x3f170e05	0.5900577
96	0x3f19ed97	0.6012816
97	0x3f143efa	0.57908595
98	0x3f21da0d	0.63223344
99	0x3f125721	0.571642
100	0x3f1819c2	0.59414303
101	0x3f2327af	0.6373243
102	0x3f158c22	0.5841695
103	0x3f1dc149	0.61623055
104	0x3f1c039c	0.6094301
105	0x3f16e5f8	0.58944654
106	0x3f10be71	0.5654059
107	0x3f0febb5	0.56219035
108	0x3f20b9b1	0.6278334
109	0x3f1b19d5	0.6058629
110	0x3f241185	0.6408923
111	0x3f21fb72	0.632743
112	0x3f15515b	0.58327264
113	0x3f179fd7	0.5922827
114	0x3f0f4144	0.5595896
115	0x3f11097b	0.5665509
116	0x3f150db2	0.5822402
117	0x3f0f4474	0.55963826
118	0x3f0f8b16	0.56071603
119	0x3f20f8b9	0.6287952
120	0x3f225e3d	0.63425046
121	0x3f1ed820	0.6204853
122	0x3f1cc634	0.61239934
123	0x3f1fc357	0.6240744
124	0x3f130873	0.5743477
125	0x3f1b4ae2	0.6066114
126	0x3f20428d	0.6260155
127	0x3f125ba0	0.5717106
128	0x3f19ffd2	0.60155976
129	0x3f1a418d	0.6025627
130	0x3f1703e9	0.5899034
131	0x3f208ea6	0.62717664
132	0x3f1ab272	0.60428536
133	0x3f1a837a	0.6035687
134	0x3f1e01eb	0.61721677
135	0xbf1c92f4	-0.6116173
136	0xbf1a6e3b	-0.6032445
137	0xbf0ff5f7	-0.5623469
138	0xbf11b049	-0.56909615
139	0xbf11c3cc	-0.5693939
140	0xbf13f279	-0.5779186
141	0xbf2192a2	-0.6311437
142	0xbf1398da	-0.5765511
143	0xbf13fea6	-0.5781044
144	0x3f18d7d3	0.5970432
145	0x3f195e9a	0.59909976
146	0x3f221891	0.63318735
147	0x3f178b45	0.59196883
148	0x3f19e8c7	0.60120815
149	0x3f1d1644	0.613621
150	0x3f1d015b	0.61330193
151	0x3f0fa94b	0.56117696
152	0x3f21ba8a	0.6317526
153	0xbf116e9d	-0.5680941
154	0xbf18c71a	-0.59678805
155	0xbf1c8fcc	-0.61156917
156	0xbf152113	-0.5825359
157	0xbf14c100	-0.58106995
158	0xbf17de6a	-0.5932375
159	0xbf17b0d6	-0.59254205
160	0xbf154b33	-0.5831787
161	0xbf243c1b	-0.64154214
162	0x3f138484	0.5762408
163	0x3f1a2527	0.6021294
164	0x3f1ea4c8	0.61970186
165	0x3f168e28	0.58810663
166	0x3f225a45	0.6341899
167	0x3f24bc2f	0.64349645
168	0x3f1df40d	0.61700517
169	0x3f2410d3	0.6408817
170	0x3f0f8636	0.56064165
171	0x3f1b0a10	0.6056223
172	0x3f194abc	0.5987966
173	0x3f146057	0.579595
174	0x3f21787c	0.6307447
175	0x3f1552b5	0.58329326
176	0x3f198912	0.5997478
177	0x3f231bcd	0.63714296
178	0x3f22ac2a	0.6354395
179	0x3f197fa2	0.5996038
180	0x3f20f69f	0.62876314
181	0x3f218ca1	0.6310521
182	0x3f12607d	0.5717848
183	0x3f222f4c	0.6335342
184	0x3f1b63bd	0.60699064
185	0x3f1d30c7	0.61402553
186	0x3f209b28	0.6273675
187	0x3f155e6c	0.583472
188	0x3f0f2253	0.5591175
189	0x3f1a06d2	0.60166657
190	0x3f18c0bd	0.59669095
191	0x3f14b8c0	0.58094406
192	0x3f123a8d	0.5712059
193	0x3f124e3e	0.5715064
194	0x3f169dd4	0.58834577
195	0x3f0fa55a	0.5611168
196	0x3f14b209	0.5808416
197	0x3f17bafe	0.592697
198	0xbf140931	-0.57826525
199	0xbf111e2d	-0.5668667
200	0xbf213853	-0.6297657
201	0xbf140d63	-0.57832927
202	0xbf188972	-0.59584725
203	0xbf1607d5	-0.586057
204	0xbf2527b0	-0.64513683
205	0xbf14e3df	-0.58160204
206	0xbf1db951	-0.61610895
207	0x3f20ab46	0.6276134
208	0x3f1f07d5	0.62121326
209	0x3f1ac272	0.6045295
210	0x3f0ecc58	0.55780554
211	0x3f141bd9	0.5785499
212	0x3f15da40	0.5853615
213	0x3f16a35b	0.5884301
214	0x3f205763	0.6263334
215	0x3f169889	0.588265
216	0xbf14c46f	-0.58112234
217	0xbf1ea26f	-0.61966604
218	0xbf22a62f	-0.63534826
219	0xbf1d7430	-0.61505413
220	0xbf1ff482	-0.62482464
221	0xbf1315e6	-0.5745529
222	0xbf13cf12	-0.5773784
223	0xbf111e66	-0.5668701
224	0xbf1a6981	-0.60317236
225	0xbf21f62c	-0.63266253
226	0xbf22aa02	-0.6354066
227	0xbf1f779e	-0.62291896
228	0xbf1fe13e	-0.6245307
229	0xbf1c47d7	-0.6104712
230	0xbf1b9ccd	-0.60786134
231	0xbf140e69	-0.5783449
232	0xbf15d0d4	-0.5852177
233	0xbf12bd27	-0.57319874
234	0xbf22d1d7	-0.6360144
235	0xbf106e4f	-0.5641832
236	0xbf1f7817	-0.6229262
237	0xbf1026e8	-0.56309366
238	0xbf153194	-0.58278775
239	0xbf194ef1	-0.5988608
240	0xbf18b4a2	-0.59650624
241	0xbf21db29	-0.63225037
242	0xbf1c2e59	-0.6100822
243	0xbf129efd	-0.57273847
244	0xbf1d1b6a	-0.61369956
245	0xbf214aaa	-0.63004553
246	0xbf16a057	-0.5883841
247	0xbf1f97cf	-0.62341017
248	0xbf18570b	-0.5950782
249	0xbf118cc6	-0.5685543
250	0xbf181835	-0.59411937
251	0xbf1e5d10	-0.6186075
252	0x3f122a3f	0.5709571
253	0x3f210805	0.6290286
254	0x3f1c01c2	0.6094018
255	0x3f2059f9	0.6263729

module.Conv2.layers.0.bias f4 [64]
0	0xbc4917e9	-0.012273767
1	0xbe35a373	-0.17738132
2	0x3d32cbf8	0.04365155
3	0xbe5b36fc	-0.21407694
4	0x3ec72a54	0.3889948
5	0xbda9db84	-0.082938224
6	0xbe0b16a9	-0.13582863
7	0xbe947d68	-0.29001927
8	0x3d4d85d2	0.05017645
9	0x3d297838	0.041374415
10	0x3d811579	0.06302924
11	0xbd028fec	-0.031875536
12	0x3e04b297	0.12958752
13	0xbdebbcbf	-0.1151061
14	0xbd6daf97	-0.058028784
15	0xbc8af2e8	-0.01696153
16	0xbdebcc17	-0.115135364
17	0x3e0d163f	0.13778017
18	0xbe1d9abd	-0.15391059
19	0xbe5d1daf	-0.21593355
20	0xbe313af6	-0.17307648
21	0x3e9b621e	0.30348295
22	0xbdee1780	-0.11625576
23	0xbd34ab3a	-0.044108607
24	0x3e780e12	0.24224117
25	0x3d0dce71	0.034620706
26	0x3d0660fb	0.03280733
27	0xbd8daef1	-0.06918133
28	0x3e6a2fc3	0.22869782
29	0x3e3cf30f	0.18452094
30	0xbd87df19	-0.066343494
31	0xbdf0ffcf	-0.117675416
32	0x3d1092ad	0.03529613
33	0x3e6e61bb	0.23279469
34	0x3cfe1f0e	0.031020667
35	0x3c1a1b0d	0.0094058635
36	0xbe267bf7	-0.16258226
37	0xbe084d3d	-0.13310714
38	0x3da9e102	0.0829487
39	0x3c7b5689	0.015340456
40	0x3dda7181	0.106661804
41	0xbdc6f904	-0.09715465
42	0xbd4172e0	-0.047228694
43	0xbea0c238	-0.31398177
44	0xbc66d84c	-0.014089655
45	0xbdb275b3	-0.087138556
46	0x3c5a077c	0.0133074485
47	0xbd8650f1	-0.06558407
48	0x3e02e39d	0.1278214
49	0x3d9f125c	0.07767174
50	0xbc819c86	-0.015821707
51	0x3de094e7	0.10965901
52	0x3d54424e	0.051821046
53	0x3e11f2ba	0.14252749
54	0x3d903141	0.070406444
55	0xbd893eb3	-0.06701412
56	0xbe0179c4	-0.12644106
57	0x3e329635	0.17440112
58	0xbdba49f3	-0.09096136
59	0x3bdc7c47	0.006728682
60	0xbe1065f7	-0.14101397
61	0xbe066abc	-0.13126653
62	0x3db0e948	0.08638245
63	0xbe1e1cd5	-0.15440686

module.Conv2.layers.1.weight f4 [64]
0	0x3fd17cc6	1.6366203
1	0x3ed212fb	0.41030106
2	0x3fcbd181	1.592331
3	0x3eda992e	0.42694992
4	0x3efaff4f	0.4902291
5	0x3fbbd68e	1.4674852
6	0x3f9672f0	1.1753826
7	0x3f24c96b	0.6436984
8	0xbd6dead5	-0.05808528
9	0x3f836542	1.0265276
10	0x3f94574d	1.1589142
11	0x3dedb75d	0.116072394
12	0x3f421773	0.7581703
13	0x3f39b2c8	0.72538424
14	0x3f78747c	0.9705274
15	0x3fcda0b5	1.6064669
16	0x3ec04732	0.37554318
17	0x3f45dee7	0.77293247
18	0x3eb5fdb3	0.3554512
19	0x3fdf021e	1.7422521
20	0x4000684a	2.0063653
21	0x3e926f57	0.2860057
22	0x3f4744cd	0.77839357
23	0x3f60fd4d	0.87886506
24	0x3fe38a3b	1.777656
25	0x3f9a8142	1.2070696
26	0x3fca936d	1.5826241
27	0x3f4183f4	0.7559197
28	0x401eb276	2.4796424
29	0x3e19941a	0.14997903
30	0x3ee8017c	0.45313632
31	0x3bfe427c	0.0077593904
32	0x3e23eb15	0.16007645
33	0x3e2ec1cf	0.1706612
34	0x3fb0fd0b	1.3827223
35	0x3d9f4960	0.07777667
36	0x3fad0c97	1.3519467
37	0x40127bff	2.2888181
38	0x3ed60a7e	0.4180488
39	0x3f0fd175	0.5617898
40	0x3f10b65f	0.56528276
41	0x3fc27158	1.519084
42	0x3f338edb	0.70139855
43	0x3fc7b9a5	1.5603529
44	0x3f83e3d4	1.0303903
45	0xbe9cfb27	-0.30660364
46	0x3ea148dd	0.31500903
47	0x3fbbce77	1.4672383
48	0xbdc6746b	-0.09690174
49	0x3fa45e10	1.2841206
50	0x3f999890	1.1999683
51	0x400458ba	2.0679154
52	0x3fb9050a	1.4454663
53	0x4014a6b6	2.3226752
54	0x401049f2	2.2545133
55	0x3fe92c9b	1.8216738
56	0x40152e39	2.3309462
57	0x3f1d79d5	0.61514026
58	0x3d915fb8	0.07098335
59	0x3eb4f403	0.35342416
60	0x3da2f993	0.07957759
61	0x3fdf2876	1.7434223
62	0x3fa8e01b	1.3193392
63	0x3f376a08	0.71646166

module.Conv2.layers.1.bias f4 [64]
0	0xbe2932fd	-0.16523357
1	0xbf0f333e	-0.55937564
2	0x3f99301c	1.1967807
3	0xbeffec74	-0.49985087
4	0xbeec2a57	-0.46126053
5	0xbbaea205	-0.005329373
6	0xbf09f182	-0.53884137
7	0xbf42da37	-0.7611422
8	0xbf1cad7e	-0.6120223
9	0xbfb60f50	-1.4223423
10	0x3b826baf	0.003980122
11	0xbf79bf57	-0.97557586
12	0xbe0ef1d5	-0.13959439
13	0xbd2ddf23	-0.042449128
14	0xbfc62ed3	-1.548304
15	0xbe8a5546	-0.27018183
16	0xbeeb56ec	-0.45964754
17	0xbf8f06e6	-1.117398
18	0xbf427710	-0.75962925
19	0x3f2d25ee	0.67636
20	0xbd1fd22a	-0.039018787
21	0xbf955d8f	-1.1669177
22	0x3f1f8267	0.62308353
23	0x3f725597	0.9466185
24	0xbf360528	-0.7110162
25	0x3de87483	0.11350348
26	0xc09f4890	-4.9776077
27	0xbe37601e	-0.1790776
28	0xbf28e27c	-0.6597059
29	0xbf1df47f	-0.61701196
30	0xbfbe1c9c	-1.4852481
31	0xbfd1cb9a	-1.6390259
32	0xbed1dd40	-0.40989113
33	0xbf0b0064	-0.5429747
34	0x3e772a1c	0.24137157
35	0xbedf4ade	-0.43611807
36	0xbeafb238	-0.34315658
37	0xbfcff33d	-1.6246105
38	0xbeef75dc	-0.46769607
39	0xbd38b09c	-0.045090303
40	0x3e5f5c7f	0.21812628
41	0xbd882c22	-0.06649043
42	0xbe903e4c	-0.2817253
43	0x3df2d265	0.11856536
44	0x3f6c5c31	0.9232817
45	0xbf81fd53	-1.0155433
46	0xbec936fc	-0.39299762
47	0xbe49cf0f	-0.19707893
48	0xbf5f1dda	-0.87154925
49	0x3f43bf18	0.7646346
50	0x3e9e6617	0.30937263
51	0x4006e225	2.1075528
52	0x3fd97d14	1.6991296
53	0xc034309d	-2.8154671
54	0x3fbbea10	1.4680805
55	0xbfb78c6d	-1.433973
56	0xc0732705	-3.7992566
57	0xc00de8b7	-2.2173288
58	0xbf5a6505	-0.85310394
59	0xbf339d10	-0.70161533
60	0xbed513a1	-0.41616538
61	0xbdf77057	-0.12081974
62	0x3dd5f489	0.10447032
63	0x3f57e4c6	0.84333456

module.Conv2.layers.1.running_mean f4 [64]
0	0x421725b2	37.78681
1	0xc1e11880	-28.136963
2	0x42ff9e66	127.80937
3	0xc21bc0c5	-38.93825
4	0xc219b2be	-38.424553
5	0x421cc255	39.189777
6	0xc21b92c0	-38.89331
7	0xc219dcb9	-38.46555
8	0xc28ae127	-69.43975
9	0x42cb89f9	101.76948
10	0xc288bff3	-68.3749
11	0x421576f1	37.366154
12	0xc2107729	-36.116367
13	0x421803d5	38.003742
14	0x421b81e0	38.87683
15	0x42a8942e	84.28941
16	0x4185d890	16.730743
17	0x40b43dfe	5.6325674
18	0xc116a52f	-9.415328
19	0x42cc9baf	102.30407
20	0x421ecde5	39.70107
21	0xc20cc1b1	-35.18915
22	0xc1ce3ca2	-25.779606
23	0xc1d0134d	-26.009424
24	0x422dbe3c	43.435776
25	0xc218afcd	-38.17168
26	0x425a5ebc	54.592514
27	0xc1e2f926	-28.371655
28	0x4219c145	38.43874
29	0xc2c5b5bc	-98.85495
30	0x42810179	64.50288
31	0x42e2dcac	113.431
32	0xc23f1582	-47.771004
33	0xc2177f35	-37.874226
34	0xc117fed7	-9.499717
35	0xc266923f	-57.64282
36	0x42bec775	95.389565
37	0x42a8145f	84.03979
38	0xc2c43f9e	-98.12425
39	0x42e43f70	114.1239
40	0x42ef1afa	119.55269
41	0x42edb8fc	118.8613
42	0x428b7940	69.73682
43	0x42e056b7	112.169365
44	0xc2370baf	-45.76141
45	0x4210f62e	36.24041
46	0xc28c463c	-70.13718
47	0x428e19e8	71.0506
48	0x42e0cc2b	112.398766
49	0x42a9eb62	84.95973
50	0x427a61aa	62.595375
51	0xc271f301	-60.48731
52	0xc2c03a17	-96.11346
53	0x4220449e	40.06701
54	0xc28a20bb	-69.06393
55	0x42ed161b	118.543175
56	0x42c8e0a5	100.43876
57	0x419b246f	19.39279
58	0x422a71e1	42.61121
59	0xc27af93a	-62.743385
60	0xc2af0550	-87.510376
61	0x421502d3	37.252758
62	0x42c34591	97.63587
63	0xc21ccb30	-39.198425

module.Conv2.layers.1.running_var f4 [64]
0	0x45bb94c9	6002.598
1	0x45c6eb37	6365.402
2	0x4632ac4a	11435.072
3	0x45b9d848	5947.035
4	0x45b01283	5634.314
5	0x45c90197	6432.1987
6	0x45b03c5c	5639.545
7	0x45bc9317	6034.386
8	0x44cbcfc8	1630.4932
9	0x4552804f	3368.0193
10	0x459194b7	4658.5894
11	0x45b31c12	5731.509
12	0x45a5c7e3	5304.986
13	0x45bbee3f	6013.781
14	0x45bc58f9	6027.1216
15	0x4597ebe5	4861.487
16	0x450b008b	2224.034
17	0x443b6924	749.6428
18	0x44a71d6a	1336.9192
19	0x45c751a4	6378.205
20	0x45b5a76b	5812.9272
21	0x45be3c06	6087.503
22	0x451ad5f4	2477.372
23	0x45553da2	3411.852
24	0x4546f04f	3183.0193
25	0x45a59ab5	5299.3384
26	0x461fe7cb	10233.948
27	0x455503dd	3408.2415
28	0x45b9a7d0	5940.9766
29	0x450da6ff	2266.4373
30	0x4506b686	2155.4077
31	0x458ed784	4570.9395
32	0x44a3321d	1305.566
33	0x45b46a0f	5773.2573
34	0x4535470b	2900.4402
35	0x44ecfbc8	1895.8682
36	0x45934041	4712.0317
37	0x45068b1e	2152.6948
38	0x458fbdba	4599.716
39	0x45cd0499	6560.5747
40	0x4594cbb2	4761.462
41	0x45a362bc	5228.342
42	0x45f4c853	7833.0405
43	0x45a7430c	5352.381
44	0x45b9d0cb	5946.099
45	0x43d0f83b	417.9393
46	0x459934b3	4902.5874
47	0x4593cbbd	4729.4673
48	0x459343f8	4712.496
49	0x456f125c	3825.1475
50	0x44a1e988	1295.2979
51	0x44ab6d45	1371.4147
52	0x44d8184d	1728.7594
53	0x45b6284e	5829.038
54	0x4500b887	2059.533
55	0x45a36aef	5229.3667
56	0x454d5fb8	3285.9824
57	0x44b1a5ea	1421.1848
58	0x4401cac9	519.1685
59	0x46005a30	8214.547
60	0x44f75edd	1978.9645
61	0x45b659bd	5835.2173
62	0x4530ea95	2830.6614
63	0x45ba0457	5952.5425

module.Conv3.layers.0.weight f4 [64, 64, 3, 3]
0	0x3f14c8e6	0.58119047
1	0x3f232a49	0.637364
2	0x3f11e478	0.5698924
3	0xbf132a51	-0.57486445
4	0x3f09a65c	0.5376947
5	0x3f193abb	0.5985524
6	0xbf236ca4	-0.6383765
7	0xbf1f0cd9	-0.6212898
8	0xbf1f4d77	-0.62227577
9	0xbf137ecc	-0.5761535
10	0xbf17a577	-0.59236854
11	0xbf17e4db	-0.5933358
12	0xbf0fe55a	-0.5620934
13	0xbf19fe75	-0.60153896
14	0xbf15e9b0	-0.58559704
15	0xbf16dd4f	-0.5893144
16	0xbf1d86c8	-0.61533785
17	0xbf191e02	-0.59811413
18	0x3f1b3efe	0.60642993
19	0x3f141f2f	0.5786008
20	0x3f1eec39	0.620792
21	0x3f199063	0.5998594
22	0x3f22fb82	0.6366502
23	0x3f25386d	0.64539224
24	0x3f1ef06c	0.62085605
25	0x3f1e1b9f	0.61760896
26	0x3f13330e	0.5749978
27	0xbf129057	-0.57251495
28	0xbf181ad3	-0.5941593
29	0xbf117cc1	-0.56830984
30	0xbf14a7c3	-0.58068484
31	0xbf1ef41b	-0.62091225
32	0xbf0ff158	-0.56227636
33	0xbf1f2dd6	-0.62179315
34	0xbf0fea22	-0.56216633
35	0xbf141da2	-0.57857716
36	0xbf11ec42	-0.57001126
37	0xbf1a3fd3	-0.6025364
38	0xbf12d73d	-0.5735968
39	0xbf129a16	-0.57266366
40	0xbf22c976	-0.63588655
41	0xbf17d5e2	-0.59310734
42	0xbf138fb9	-0.5764118
43	0xbf172dc5	-0.59054214
44	0xbf162e84	-0.5866473
45	0xbf1eabf0	-0.61981106
46	0xbf1c5d6e	-0.6108006
47	0xbf23b158	-0.6394248
48	0xbf189d93	-0.5961544
49	0xbf1ae886	-0.6051105
50	0xbf1898f4	-0.5960839
51	0xbf18937a	-0.5960003
52	0xbf1d6716	-0.6148542
53	0xbf1674ce	-0.5877198
54	0x3f13bacd	0.5770691
55	0x3f1c01df	0.60940355
56	0xbf08e1b4	-0.53469396
57	0x3f0b3e99	0.5439239
58	0x3f215fd1	0.6303683
59	0x3f1a4117	0.6025557
60	0x3f1cf36f	0.6130895
61	0x3f145336	0.5793947
62	0x3f15cf19	0.5851913
63	0xbf1e5274	-0.61844563
64	0xbf1beac4	-0.609051
65	0xbf203223	-0.625765
66	0xbf1ab05c	-0.60425353
67	0xbf20600d	-0.6264656
68	0xbf1e279a	-0.6177918
69	0xbf1ccf3b	-0.6125371
70	0xbf2141d5	-0.62991077
71	0xbf244b48	-0.6417737
72	0x3f1eabaf	0.6198072
73	0x3f23d316	0.63993967
74	0x3f20c4ec	0.6280048
75	0x3f1ca559	0.611898
76	0x3f132edb	0.5749337
77	0x3f14bdae	0.5810193
78	0x3f1079bd	0.5643576
79	0x3f21191f	0.62928957
80	0x3f131e15	0.57467777
81	0xbf12e727	-0.5738396
82	0xbf17a71e	-0.59239376
83	0xbf2169da	-0.6305214
84	0xbf0f10b3	-0.55884856
85	0xbf146631	-0.5796843
86	0xbf1c2001	-0.60986334
87	0xbf1a44a8	-0.6026101
88	0xbf233fb6	-0.6376909
89	0xbf1035ac	-0.56331897
90	0x3f1f316e	0.621848
91	0x3f1aac79	0.6041942
92	0x3f230b3b	0.6368901
93	0x3f167daf	0.5878553
94	0x3f19ef66	0.6013092
95	0x3f135d32	0.5756408
96	0x3f25f975	0.64833766
97	0x3f16a930	0.5885191
98	0x3f248a46	0.6427349
99	0x3f17fe40	0.5937233
100	0x3f1bbf67	0.6083893
101	0x3f1bbe14	0.6083691
102	0x3f13124e	0.57449806
103	0x3f182297	0.5942778
104	0x3f1c0b97	0.60955185
105	0x3f194599	0.5987182
106	0x3f14c960	0.58119774
107	0x3f102cb0	0.5631819
108	0x3f140f83	0.5783617
109	0x3f213de1	0.62985045
110	0x3f248ea5	0.6428016
111	0x3f1383fb	0.5762326
112	0x3f191b0f	0.59806913
113	0x3f21fe2b	0.63278455
114	0x3f1260b3	0.571788
115	0x3f1a2f99	0.6022888
116	0x3f11c1fa	0.5693661
117	0xbf1017cf	-0.5628633
118	0xbf1b84b6	-0.60749376
119	0xbf1faae2	-0.6237012
120	0xbf116ef3	-0.5680992
121	0xbf1c700d	-0.61108476
122	0xbf1fbce7	-0.6239762
123	0xbf1584db	-0.58405846
124	0xbf14ff0f	-0.5820169
125	0xbf0fdb4f	-0.56194013
126	0xbf1242e0	-0.57133293
127	0xbf1c7cdc	-0.6112802
128	0xbf129629	-0.57260376
129	0xbf19b30c	-0.6003883
130	0xbf1e6e21	-0.61886793
131	0xbf16f0d3	-0.5896122
132	0xbf11da98	-0.5697417
133	0xbf1bfca3	-0.6093237
134	0xbf15dd5a	-0.5854088
135	0xbf191f39	-0.59813267
136	0xbf200646	-0.6250957
137	0xbf11c8ad	-0.5694683
138	0xbf1d01fd	-0.6133116
139	0xbf131e25	-0.5746787
140	0xbf1aced3	-0.6047184
141	0xbf1b1860	-0.6058407
142	0xbf16543d	-0.5872229
143	0xbf1fbb49	-0.6239515
144	0xbf20b9dc	-0.627836
145	0xbf152d41	-0.58272177
146	0xbf1dc811	-0.616334
147	0xbf1f87f2	-0.6231681
148	0xbf10090d	-0.5626381
149	0xbf11ac30	-0.5690336
150	0xbf1d6f5a	-0.61498034
151	0xbf1088f3	-0.5645897
152	0xbf1a7efe	-0.60350025
153	0xbf17b7ff	-0.5926513
154	0xbf16f299	-0.58963925
155	0xbf1ba5fd	-0.60800153
156	0xbf13cdb9	-0.5773578
157	0xbf180807	-0.5938725
158	0xbf224321	-0.6338368
159	0xbf1d637d	-0.6147993
160	0xbf101c48	-0.56293154
161	0xbf20c87f	-0.6280593
162	0x3f23022e	0.636752
163	0x3f139298	0.5764556
164	0x3f21c826	0.6319603
165	0x3f0fbd80	0.5614853
166	0x3f0fb9b7	0.56142753
167	0x3f139a8b	0.5765769
168	0x3f150248	0.58206606
169	0x3f0f7069	0.560309
170	0x3f1e189f	0.6175632
171	0xbf1f3b31	-0.62199694
172	0xbf17f1fb	-0.5935361
173	0xbf180e2a	-0.5939661
174	0xbf0d823d	-0.5527685
175	0xbf0f2880	-0.55921173
176	0xbf19daee	-0.60099685
177	0xbf13f152	-0.577901
178	0xbf106297	-0.56400436
179	0xbf1b011d	-0.60548574
180	0xbf258019	-0.64648587
181	0xbf122b14	-0.5709698
182	0xbf1ccfae	-0.61254394
183	0xbf1e63f3	-0.6187126
184	0xbf19069d	-0.59775716
185	0xbf13ae27	-0.5768761
186	0xbf164d2c	-0.58711505
187	0xbf1b7842	-0.60730374
188	0xbf1c4286	-0.61039007
189	0x3f1dc729	0.6163202
190	0x3f11be64	0.5693114
191	0x3f201228	0.62527704
192	0x3f1f8cb1	0.62324053
193	0x3f13e66a	0.5777346
194	0x3f230832	0.6368438
195	0x3f13cdec	0.57736087
196	0x3f106478	0.56403303
197	0x3f1e1a5c	0.6175897
198	0xbf1fd5f0	-0.6243582
199	0xbf179f57	-0.5922751
200	0xbf212bd0	-0.6295748
201	0xbf216cad	-0.6305645
202	0xbf22d9df	-0.63613695
203	0xbf12eea7	-0.57395405
204	0xbf1c1286	-0.60965765
205	0xbf1500d6	-0.582044
206	0xbf1078cc	-0.5643432
207	0xbf1ba817	-0.6080336
208	0xbf143f60	-0.579092
209	0xbf1d1fdf	-0.61376756
210	0xbf1b05c2	-0.6055566
211	0xbf0eb0e0	-0.5573864
212	0xbf23f6bb	-0.64048356
213	0xbf205882	-0.6263505
214	0xbf1f0b2d	-0.6212643
215	0xbf23bcab	-0.6395976
216	0xbf1c79e2	-0.6112348
217	0xbf11d63b	-0.56967515
218	0xbf241d74	-0.6410744
219	0xbf109ea0	-0.5649204
220	0xbf1fd6e7	-0.6243729
221	0xbf22ffa0	-0.636713
222	0xbf18dd5e	-0.5971278
223	0xbf1b7271	-0.607215
224	0xbf120f48	-0.5705457
225	0x3f1e99b3	0.61953276
226	0x3f236f9f	0.63842195
227	0x3f194190	0.59865665
228	0x3f22b72b	0.6356074
229	0x3f1d4866	0.61438596
230	0x3f15f4e1	0.5857678
231	0x3f1318d5	0.57459766
232	0x3f144b0f	0.5792703
233	0x3f1b24a6	0.60602796
234	0xbf19fe94	-0.6015408
235	0xbf1e6a54	-0.61880994
236	0xbf147367	-0.5798859
237	0xbf11a7f0	-0.5689688
238	0xbf1776d5	-0.591657
239	0xbf224815	-0.6339124
240	0xbf0fee30	-0.5622282
241	0xbf17d18a	-0.59304106
242	0xbf1c81a9	-0.61135346
243	0x3f171971	0.59023196
244	0x3f11a52c	0.5689266
245	0x3f11cd0b	0.56953496
246	0x3f17a309	0.59233147
247	0x3f100fab	0.5627391
248	0x3f214bc0	0.6300621
249	0x3f14bfa1	0.581049
250	0x3f193d54	0.59859204
251	0x3f15157b	0.582359
252	0xbf17d4cd	-0.59309083
253	0xbf1301b8	-0.574245
254	0xbf1044a7	-0.56354755
255	0xbf172f9b	-0.59057015

module.Conv3.layers.0.bias f4 [64]
0	0x3ccbff08	0.024901882
1	0x3ca02d54	0.019552864
2	0xbcf8fc4c	-0.030393742
3	0xbd1eb7bb	-0.038749438
4	0x3d58131f	0.05275261
5	0x3ca63f47	0.020293845
6	0x3d7507fe	0.059822075
7	0xbd9b180b	-0.07572945
8	0xbd9a6222	-0.075382486
9	0x3dab3d03	0.083612464
10	0xbd595e13	-0.05306823
11	0x3cfdc935	0.030979732
12	0xbdd049ed	-0.1017035
13	0xbd1df5e1	-0.038564567
14	0x3ce8def1	0.02842662
15	0xbdd41b23	-0.103567384
16	0xbd5acc19	-0.0534173
17	0xbdda47dd	-0.10658238
18	0x3e2d3018	0.16912878
19	0xbc82ef5c	-0.015983276
20	0xbdd19473	-0.102333926
21	0xbc6eebff	-0.014582633
22	0x3d11ca55	0.03559335
23	0xbe0da86a	-0.13833776
24	0x3cd2d299	0.025735186
25	0xbd84bdd1	-0.06481517
26	0xbe1c01be	-0.1523504
27	0x3d11f0fb	0.035630208
28	0xbd0772e3	-0.03306855
29	0x3d6e2665	0.058142085
30	0xbd2647e4	-0.040595904
31	0xbd952e8b	-0.07284268
32	0xbd25e5b2	-0.040502258
33	0x3d306448	0.043064386
34	0x3ca4c27d	0.02011227
35	0xbd557941	-0.05211759
36	0x3ba7b4da	0.0051179947
37	0xbde280cd	-0.11059723
38	0x3dc187d8	0.09449738
39	0x3d01d20c	0.031694457
40	0x3d20095c	0.039071426
41	0x3b21f6e4	0.0024713809
42	0xbbdba2dc	-0.006702764
43	0xba2fb3e4	-0.0006702526
44	0x3d6ad162	0.05732859
45	0x3bc95510	0.0061441734
46	0x3b74a80a	0.0037331604
47	0x3d31863f	0.043340918
48	0xbd9f002c	-0.07763705
49	0xbd861e31	-0.06548727
50	0x3d4aecca	0.049542226
51	0xbc33a1ff	-0.010963916
52	0x3dc6e4a4	0.097115785
53	0x3b900533	0.004395151
54	0x3e194b94	0.14970237
55	0xbd8078e5	-0.06273059
56	0xbda7fba9	-0.08202297
57	0xbda7f664	-0.08201292
58	0x3db6279c	0.08894274
59	0xbdc3d7ca	-0.09562643
60	0xbda95410	-0.08267987
61	0xbdc50139	-0.09619374
62	0x3d39e767	0.045386698
63	0x3cc5fa54	0.024167217

module.Conv3.layers.1.weight f4 [64]
0	0x40229a2e	2.5406604
1	0x3fb3ed1e	1.4056737
2	0x3f57ef28	0.843493
3	0x3fdc05fc	1.7189326
4	0x3fbb50e7	1.4634064
5	0x3feed085	1.8657385
6	0x3fe91d38	1.8212042
7	0x4003570a	2.0521874
8	0x3eedba7b	0.46431336
9	0x3fb62943	1.4231342
10	0x3f0d3eeb	0.5517413
11	0x3f7e8de1	0.9943524
12	0x3f6ba999	0.9205566
13	0x3f9bcf8d	1.2172714
14	0x3f8beafc	1.0931087
15	0x3fb2f6f7	1.3981618
16	0x3eeee08f	0.466557
17	0x3fbf0f13	1.4926475
18	0x400e087a	2.2192674
19	0x3f652282	0.8950578
20	0xbfd7a959	-1.6848556
21	0x3f98b355	1.1929728
22	0x3f876c74	1.0579972
23	0xbed1e4af	-0.40994784
24	0x3f85daf5	1.0457445
25	0x401487a9	2.32078
26	0xbeae6c7e	-0.34067148
27	0xbf1ee18d	-0.62062913
28	0x3ed33b04	0.41255963
29	0x3f6b4ffe	0.91918933
30	0x3fc6747d	1.5504299
31	0x40039640	2.0560455
32	0x3f4b8dbe	0.79513156
33	0x3f5388d1	0.8263064
34	0x3fc61e68	1.5478029
35	0x3ed80b4c	0.4219612
36	0x3f0687ed	0.52551156
37	0xbed8282c	-0.4221815
38	0x3f4cdde6	0.8002609
39	0x3ed5ff43	0.41796312
40	0x3f0c9cd9	0.5492683
41	0x3ecbf05a	0.3983181
42	0x3e2ac055	0.16674931
43	0x3fcbaa70	1.5911388
44	0xbda9ec30	-0.08297002
45	0x3f58ccc9	0.8468748
46	0x3f904962	1.1272395
47	0x3f63ad0f	0.8893594
48	0x3f83202b	1.0244192
49	0x3faf04d1	1.3673345
50	0x401e3dcd	2.472522
51	0x3f1f9c62	0.62347996
52	0x3fa2a6a4	1.2707105
53	0x3ffc0650	1.9689426
54	0x3fca5cd9	1.5809585
55	0x3f9b7e15	1.2147852
56	0x3fc7f3c8	1.5621271
57	0x3f924f12	1.143038
58	0x3fc597ac	1.5436912
59	0xbf942948	-1.1575098
60	0xbecc2e71	-0.39879182
61	0x3fa83b9a	1.3143189
62	0x3f12b872	0.5731269
63	0x3efe60a1	0.49683097

module.Conv3.layers.1.bias f4 [64]
0	0xbdc940dc	-0.09826824
1	0xbf21b57b	-0.6316754
2	0xbfd02c4f	-1.6263522
3	0xbea5ec26	-0.3240673
4	0xbed8fb76	-0.4237935
5	0x3f0a0c46	0.5392498
6	0x3f2c494a	0.6729933
7	0xc005d05c	-2.0908422
8	0xbfdd8fe8	-1.7309542
9	0x3d709977	0.058740105
10	0x4053ab50	3.307331
11	0x3f841be9	1.0321018
12	0x3f84c4ff	1.0372618
13	0xc008bb22	-2.1364217
14	0xbf9469de	-1.1594808
15	0x3ccf64aa	0.025316555
16	0xbfc31e50	-1.5243626
17	0xbfd05bee	-1.6278055
18	0xbf328620	-0.6973591
19	0xbf410b29	-0.75407654
20	0xbea5836e	-0.32326835
21	0xbd9ef8e4	-0.07762316
22	0xbdeac679	-0.11463637
23	0x401e778d	2.4760468
24	0xbf3c6aea	-0.7360064
25	0xbf7eca7e	-0.9952773
26	0xbffa2352	-1.9542029
27	0xbf564f5a	-0.8371483
28	0xc03ca7e5	-2.9477475
29	0xbf8d5dfa	-1.1044304
30	0x3b7200a2	0.0036926647
31	0x3f249fe4	0.64306474
32	0xbea943c9	-0.33059528
33	0x3f50af13	0.8151714
34	0xbf1288aa	-0.5723978
35	0x40642fe7	3.5654237
36	0x3feb988c	1.8405929
37	0xc0273f1f	-2.6132276
38	0xbfb781fd	-1.4336544
39	0x4047caba	3.1217484
40	0xbc96c238	-0.018403158
41	0x40079414	2.118413
42	0xbfe2d343	-1.7720722
43	0x3e83b279	0.257221
44	0xc018e3a8	-2.388895
45	0x3d1dfddb	0.038572174
46	0xbd31510b	-0.04329018
47	0xbe6800fc	-0.22656626
48	0x3fc9038b	1.5704206
49	0x3f1945c7	0.59872097
50	0xbf32342d	-0.69610864
51	0x3ec48235	0.3838059
52	0xbeeb1aa8	-0.45918775
53	0xbedc41e0	-0.4301901
54	0x3e8a95f5	0.27067533
55	0xbf99850e	-1.199373
56	0x3e863846	0.26214808
57	0xbf4c76f4	-0.7986901
58	0x3f439f81	0.7641526
59	0xbfcf8034	-1.6211
60	0x3fe89ea6	1.8173416
61	0xbf887589	-1.0660869
62	0xc04bf459	-3.1867888
63	0x3fc9d90d	1.5769364

module.Conv3.layers.1.running_mean f4 [64]
0	0xc2c8d352	-100.412735
1	0xc2a86707	-84.201225
2	0x42e233b3	113.100975
3	0xc2af7d5d	-87.74485
4	0xc30214b5	-130.08089
5	0xc2c943d9	-100.632515
6	0x42d03f96	104.12419
7	0x4292ce46	73.40288
8	0x42af00bf	87.50146
9	0xc299fd86	-76.99516
10	0xc2f78aca	-123.77107
11	0x42f96eac	124.716156
12	0xc303109e	-131.06491
13	0xc2ced741	-103.42042
14	0x428dbead	70.87241
15	0x42deda8e	111.426865
16	0xc2ae6e92	-87.21596
17	0x42b0ec8e	88.46202
18	0x428c0ecc	70.0289
19	0xc293cb46	-73.89702
20	0x42d30eb9	105.528755
21	0xc27035a2	-60.052376
22	0x42954aa5	74.64579
23	0xc29b1b86	-77.55376
24	0xc2e65bea	-115.17952
25	0x4256c81c	53.69542
26	0x42cb2188	101.56549
27	0x42841c80	66.055664
28	0x42fe2d2c	127.08823
29	0x42a51ef5	82.56046
30	0xc29d7e58	-78.746765
31	0xc2d8f387	-108.47564
32	0x42439b65	48.901752
33	0xc28094c5	-64.290565
34	0xc309a7d5	-137.6556
35	0xc2e76d24	-115.713165
36	0x41e91e89	29.13991
37	0xc21afa91	-38.744694
38	0xc2a99d9a	-84.807816
39	0xc27c4699	-63.068943
40	0xc2f5b8ac	-122.86069
41	0xc29c9a4b	-78.30135
42	0xc30179dc	-129.47601
43	0xc2bec7df	-95.39037
44	0x428fdd04	71.93167
45	0xc31da8ed	-157.65987
46	0xc2c41034	-98.03165
47	0xc24babd3	-50.917797
48	0xc2c54791	-98.63978
49	0xc259e2da	-54.471535
50	0x41f6012e	30.750576
51	0x42e5b5a0	114.85474
52	0x42a08ab9	80.27094
53	0xc299e481	-76.9463
54	0x42d6fe50	107.496704
55	0xc2f0fa34	-120.48868
56	0xc2a60f49	-83.029854
57	0x42d36192	105.69057
58	0x432e4de5	174.30428
59	0xc32116f7	-161.0897
60	0xc2d180e8	-104.75177
61	0xc305916d	-133.56807
62	0x42bedba8	95.429016
63	0xc2d04068	-104.12579

module.Conv3.layers.1.running_var f4 [64]
0	0x45a48eac	5265.834
1	0x45ac2563	5508.6733
2	0x45d236ba	6726.841
3	0x45308c26	2824.7593
4	0x456eda57	3821.6462
5	0x44b66e23	1459.4418
6	0x456d7c91	3799.7854
7	0x455f4419	3572.256
8	0x44ea9ca7	1876.8954
9	0x454f7ba7	3319.7283
10	0x451bea3f	2494.6404
11	0x458a3640	4422.7812
12	0x4541f1bd	3103.1086
13	0x45723c6e	3875.7769
14	0x44f0cc79	1926.3898
15	0x44d71e98	1720.956
16	0x457adf68	4013.963
17	0x448e28ce	1137.2751
18	0x44432f6b	780.7409
19	0x4503fdb7	2111.8572
20	0x44cda9b4	1645.3032
21	0x44ef056d	1912.1696
22	0x4530a864	2826.5244
23	0x448718f1	1080.7794
24	0x456a36a8	3747.416
25	0x4522b9ed	2603.6204
26	0x4585b679	4278.809
27	0x4583626a	4204.302
28	0x45a0c0bf	5144.0933
29	0x4546e72d	3182.4485
30	0x44a42d23	1313.4105
31	0x459cd6b9	5018.8403
32	0x4469dbcc	935.4343
33	0x4524bc3d	2635.765
34	0x4548441d	3204.257
35	0x45572ea6	3442.9155
36	0x4607e476	8697.115
37	0x45cc1f0a	6531.88
38	0x458e01c0	4544.2188
39	0x459ae06a	4956.052
40	0x4586bb27	4311.394
41	0x452b4831	2740.512
42	0x4550eec4	3342.9229
43	0x4555f139	3423.0764
44	0x441886e9	610.108
45	0x465b0c80	14019.125
46	0x45bb2fcf	5989.976
47	0x4418ecea	611.7018
48	0x44e5cd9c	1838.4253
49	0x44ddfebb	1775.9603
50	0x45a1c3b4	5176.463
51	0x4578a050	3978.0195
52	0x44b66267	1459.0751
53	0x45333038	2867.0137
54	0x4515b939	2395.5764
55	0x460e746a	9117.104
56	0x4592e6aa	4700.833
57	0x456d7c73	3799.778
58	0x46979198	19400.797
59	0x459d3bc3	5031.47
60	0x46118991	9314.392
61	0x45dcf618	7070.7617
62	0x44e9a99a	1869.3
63	0x44d25200	1682.5625

module.Conv4.layers.0.weight f4 [64, 64, 3, 3]
0	0x3f1ad982	0.6048814
1	0xbf20c9a2	-0.6280767
2	0x3f1b4496	0.6065153
3	0x3f104ceb	0.5636737
4	0x3f214a8d	0.6300438
5	0x3f0ff4c6	0.5623287
6	0x3f183b0f	0.59465116
7	0x3f10643d	0.5640295
8	0x3f20bb75	0.62786037
9	0xbf1ecfa1	-0.62035567
10	0xbf159555	-0.5843099
11	0xbf1bb40b	-0.608216
12	0xbf0e9177	-0.5569071
13	0xbf0fe8b8	-0.56214476
14	0xbf1f7de6	-0.6230148
15	0xbf188e2f	-0.59591955
16	0xbf19db3c	-0.6010015
17	0xbf16bd0a	-0.588822
18	0x3f1fbff4	0.6240227
19	0x3f27a302	0.65483105
20	0x3f90db91	1.1317006
21	0x3f290142	0.66017544
22	0x3f250a0a	0.64468443
23	0x3f29f934	0.6639588
24	0x3f29e8bf	0.6637077
25	0x3f2cd939	0.67518955
26	0x3f32fc0b	0.6991584
27	0xbf0f0488	-0.5586629
28	0xbf11b89d	-0.5692232
29	0xbf1f2883	-0.6217119
30	0xbf143d1d	-0.5790575
31	0xbf17a8a8	-0.59241724
32	0xbf1cbff9	-0.6123043
33	0xbf12b918	-0.5731368
34	0xbf1cbad9	-0.61222607
35	0xbf1244e4	-0.5713637
36	0xbf14436e	-0.5791539
37	0xbf1ef691	-0.6209498
38	0xbf1275f6	-0.57211244
39	0xbf20bce2	-0.6278821
40	0xbf13a889	-0.5767904
41	0xbf133e17	-0.57516617
42	0xbf1b75e2	-0.6072675
43	0xbf20b314	-0.6277325
44	0xbf0e93af	-0.556941
45	0xbf15d8ed	-0.5853413
46	0xbf185d1c	-0.59517074
47	0xbf12e3f6	-0.5737909
48	0xbf1e0937	-0.6173281
49	0xbf0a75db	-0.54086083
50	0xbf098bf6	-0.5372919
51	0xbf0d766e	-0.55258834
52	0xbf1b1177	-0.60573524
53	0xbf16b3a3	-0.58867854
54	0xbf10ea9b	-0.5660798
55	0xbf14b3da	-0.5808693
56	0xbf13804c	-0.5761764
57	0xbf196115	-0.5991376
58	0xbf15645c	-0.5835626
59	0xbf15fc71	-0.5858832
60	0xbf1c0fef	-0.6096181
61	0xbf16d9cf	-0.589261
62	0xbf1133e2	-0.5671979
63	0xbf1dbb53	-0.6161396
64	0xbf208623	-0.62704676
65	0xbf200398	-0.62505484
66	0xbf20be83	-0.627907
67	0xbf119e4a	-0.56882155
68	0xbf11e02a	-0.5698267
69	0xbf13477c	-0.5753095
70	0xbf20acf7	-0.62763923
71	0xbf1ea538	-0.61970854
72	0x3f202402	0.62554944
73	0x3f243e26	0.6415733
74	0x3f13a79a	0.57677615
75	0x3f0fac01	0.5612183
76	0x3f198574	0.5996926
77	0x3f0fdc04	0.5619509
78	0x3f249832	0.6429473
79	0x3f227427	0.63458484
80	0x3f0e3b3d	0.5555914
81	0xbf183b39	-0.59465367
82	0xbf1edb73	-0.620536
83	0xbf2bd69c	-0.6712434
84	0xbf218ed5	-0.6310857
85	0xbf1ecbe2	-0.6202985
86	0xbf3c7699	-0.73618466
87	0xbf197d99	-0.5995727
88	0xbf1584ae	-0.5840558
89	0xbf16f867	-0.5897278
90	0xbf41a65f	-0.7564449
91	0x3f0ca1d5	0.54934436
92	0x3f1a16f5	0.6019128
93	0x3f15f4d1	0.58576685
94	0x3f1d899f	0.6153812
95	0x3f0dbf49	0.55370003
96	0x3f194d63	0.5988371
97	0x3f0b5c86	0.54438055
98	0x3efd9385	0.4952661
99	0x3f20125a	0.62528
100	0x3f0f1bed	0.55901986
101	0x3f1c1429	0.6096826
102	0x3f1dec9b	0.61689156
103	0x3f19512b	0.5988948
104	0x3f20acba	0.6276356
105	0x3f23a9a3	0.6393072
106	0x3f10c8ec	0.5655658
107	0x3f0f9d96	0.5609983
108	0x3f16bdb1	0.58883196
109	0x3ef94dbe	0.48692125
110	0xbf2080fe	-0.62696826
111	0x3f12ee5c	0.5739496
112	0x3e2fa0e6	0.17151222
113	0xbf220390	-0.63286686
114	0x3f11b62a	0.56918585
115	0x3f159d8c	0.5844352
116	0xbf1cd771	-0.6126624
117	0x3f218fba	0.63109934
118	0xbf1f4fc0	-0.62231064
119	0xbf18f4e5	-0.5974868
120	0xbf176936	-0.59144914
121	0xbf1b3e40	-0.6064186
122	0xbf23e912	-0.6402751
123	0xbf008c9b	-0.50214547
124	0xbf167473	-0.5877144
125	0xbf12b872	-0.5731269
126	0xbf1dd1cf	-0.6164827
127	0xbf2bd0b0	-0.67115307
128	0xbf237531	-0.63850695
129	0xbf1b3b94	-0.60637784
130	0xbf23d9f6	-0.64004457
131	0xbf1714c1	-0.5901604
132	0xbf1cda81	-0.6127091
133	0xbf1fc468	-0.6240907
134	0xbf1e3cb5	-0.6181138
135	0xbf177c28	-0.5917382
136	0xbf1171fb	-0.56814545
137	0xbf19b624	-0.6004355
138	0xbf0fe56b	-0.5620944
139	0xbf220c7a	-0.6330029
140	0xbf11f563	-0.57015055
141	0xbf21556c	-0.6302097
142	0xbf1d6f15	-0.6149762
143	0xbf1a32b1	-0.602336
144	0xbf0f33ed	-0.5593861
145	0xbf0ea6a8	-0.5572305
146	0xbf110cd0	-0.56660175
147	0xbf189b77	-0.5961222
148	0xbf1de363	-0.6167509
149	0xbf135169	-0.575461
150	0xbf1e8611	-0.6192332
151	0xbf20351f	-0.62581056
152	0xbf19cf0d	-0.6008156
153	0xbf12c934	-0.5733826
154	0xbf14bd0c	-0.5810096
155	0xbf207acd	-0.6268738
156	0xbf147947	-0.57997555
157	0xbf18fe8a	-0.59763396
158	0xbf177206	-0.5915836
159	0xbf132834	-0.5748322
160	0xbf1640ab	-0.58692425
161	0xbf1d7e12	-0.61520493
162	0x3f1875da	0.5955483
163	0xbf2511d9	-0.6448036
164	0xbf1b49a7	-0.6065926
165	0x3f2197f9	0.63122517
166	0x3f177dd1	0.59176356
167	0xbf189500	-0.59602356
168	0x3f16848d	0.58796006
169	0x3f2112ed	0.62919503
170	0x3f1d55ce	0.6145905
171	0xbee02b57	-0.43783066
172	0xbefb3c45	-0.4906942
173	0xbf14ea44	-0.5816996
174	0x3fb2b7c3	1.396233
175	0xbece059d	-0.40238658
176	0xbf01f128	-0.507586
177	0xbf0d6c88	-0.5524373
178	0xbf098f94	-0.5373471
179	0xbf1dfcff	-0.61714166
180	0xbf0cf784	-0.5506518
181	0xbf0f9497	-0.56086105
182	0xbf0feba0	-0.5621891
183	0xbf1682ab	-0.58793133
184	0xbf0eaa06	-0.55728185
185	0xbf162912	-0.5865642
186	0xbf07edcd	-0.5309723
187	0xbf1352c6	-0.5754818
188	0xbf08993c	-0.5335882
189	0x3f160f7e	0.5861739
190	0x3f1e46a7	0.61826557
191	0x3f10cb69	0.5656038
192	0x3f10d1f7	0.5657038
193	0x3f154a75	0.5831674
194	0x3f1e4b99	0.618341
195	0x3f17a793	0.5924007
196	0x3f133ed9	0.5751777
197	0x3f14f533	0.58186644
198	0xbf17ae71	-0.5925055
199	0xbf2073d4	-0.6267674
200	0xbf1b09e0	-0.60561943
201	0xbf2446ee	-0.6417073
202	0xbf160889	-0.58606774
203	0xbf20171a	-0.6253525
204	0xbf213162	-0.6296598
205	0xbf1b6f99	-0.6071716
206	0xbf1dd02c	-0.6164577
207	0xbf1e5ceb	-0.6186053
208	0xbf20f493	-0.6287319
209	0xbf12061f	-0.5704059
210	0xbf10e956	-0.5660604
211	0xbf1f8c58	-0.6232352
212	0xbf2105f6	-0.6289972
213	0xbf20d4c9	-0.62824684
214	0xbf2117e6	-0.6292709
215	0xbf132632	-0.57480156
216	0xbf1b21b5	-0.6059831
217	0xbf198e0f	-0.5998239
218	0xbf132d67	-0.57491153
219	0xbf0de956	-0.5543417
220	0xbf1fcbc6	-0.6242031
221	0xbf0ad12f	-0.5422544
222	0xbf144f9a	-0.5793396
223	0xbf1c549c	-0.61066604
224	0xbf1362b6	-0.57572496
225	0x3f1a9fba	0.60399973
226	0x3f1d8525	0.6153129
227	0x3f1b2982	0.6061021
228	0x3f18ad61	0.59639555
229	0x3f173705	0.5906833
230	0x3f1a681a	0.60315096
231	0x3f1182f1	0.56840426
232	0x3f12694b	0.57191914
233	0x3f0c99ee	0.5492238
234	0xbf15e9c0	-0.585598
235	0xbf28af10	-0.65892124
236	0xbf278ea0	-0.65452003
237	0xbf1a912a	-0.6037775
238	0xbf2858fd	-0.65760785
239	0xbf23731e	-0.6384753
240	0xbf28689a	-0.6578461
241	0xbf178455	-0.591863
242	0xbf209adf	-0.62736315
243	0x3f23eb2a	0.64030707
244	0xbf261382	-0.64873517
245	0xbf11e564	-0.5699065
246	0x3f1316b0	0.57456493
247	0xbf1593d2	-0.5842868
248	0xbf25b1ef	-0.6472463
249	0x3f0c9f34	0.54930425
250	0xbf16af9b	-0.588617
251	0xbf15e187	-0.5854725
252	0xbf0ea1a8	-0.5571542
253	0xbefbd68f	-0.49187133
254	0x3f3b5d1a	0.73188937
255	0x3f3889c8	0.7208524
