DIDFuse/saved_models/encoder/VIS_AE5.pth (torch, 460028 bytes, 24 tensors)

module.Conv1.layers.1.weight f4 [64, 1, 3, 3]
0.6457008 0.28458935 0.62676656 0.57896155 0.66935945 0.3728344 0.59331363 0.85488075
0.5877586 -0.74522936 -0.6498675 -0.8595289 -0.78899634 -0.3359681 -0.2908309 -0.30178437
-0.31161562 -0.57286006 -0.6358319 -0.6737668 -0.4943978 -0.79837185 0.7162391 -0.897176
-0.40899128 0.2582884 0.62755424 -1.588621 -0.8867795 -1.040454 0.07434419 0.34647763
-0.16094749 -1.0585393 -0.22142406 -2.6614387 -0.8842758 -0.86230713 -0.95538473 0.052743327
0.03986069 -0.13850227 0.25782305 0.76161486 0.37489355 0.29552913 0.6422746 0.9111405
0.5381257 0.4066857 0.42315948 0.53234774 0.9243845 0.7961306 -0.62507796 -0.5847291
-0.3802817 -0.3560088 -0.22187701 -0.9110689 0.46091887 0.4262716 -0.72679895 -0.7377293
-0.7597995 -0.69677556 -0.47084126 -0.7261648 -0.42222232 -0.5119552 -0.2731453 -0.536621
-1.1178389 -1.1939263 -1.3742609 -0.11554085 0.28010482 0.25059894 -0.51710165 0.14558506
0.34086794 0.46152812 0.28447893 0.7273856 0.7822518 0.87426007 0.67987007 0.8200041
0.34542936 0.55711436 -0.18117741 -0.14523733 -0.5516154 0.09141515 1.109892 0.9908853
-0.36551088 0.4609084 0.38639995 -0.67465746 -0.4589008 0.7229306 -0.84881186 -0.3544837
-0.659543 -0.62545896 -0.3985381 -0.72096336 0.32740065 -0.3713505 -0.30498967 0.8899464
1.0223371 1.170914 0.6721472 0.35381877 0.6394159 0.918429 1.0732733 0.85803103
0.22319801 0.40966114 0.29646504 0.038670376 -0.2700524 -0.36166117 -0.302255 0.2757436
0.07349487 0.6268928 1.45606 0.8797134 -0.23787387 0.45704013 -0.47667292 0.9613046
0.70999914 1.213056 0.47462106 0.25247684 0.7449686 -0.031088535 -0.55507123 -0.009270284
-0.035728857 0.1211854 0.8401446 -0.26103947 1.0940298 0.9952963 -0.14137776 -0.15863286
1.6994336 -0.79416084 0.54657036 0.37299895 -0.48152453 -0.53889155 -0.8843222 -0.6454704
-0.6607863 -0.80666906 -0.24008945 0.42687783 -0.25360727 1.1414846 2.1633546 0.2269144
0.1897998 0.9516597 -0.59504694 -0.294559 0.89409405 0.36702362 -0.43581018 1.837823
0.82166916 -0.38890284 -0.260392 1.1076727 0.3925424 -0.21513419 -0.9682104 1.1978035
2.0939655 0.92660815 0.47985154 1.471713 0.71650976 0.6960492 0.76177555 0.4976933
0.624707 1.0477002 0.93949246 0.012046546 0.15604763 -0.1906272 0.07494375 -0.2560053
0.5112105 -0.21847528 -0.093881406 -0.25126398 2.1408315 0.33133596 2.499591 0.5833977
0.14279753 -0.238642 1.1887606 0.46119168 -0.5901186 0.58679557 0.96163404 -0.310044
0.32518697 0.7059359 0.3430734 0.8580144 0.382264 0.49884728 0.3128874 0.8218149
0.860574 -0.92936367 -0.30847505 -0.6536212 -0.7280157 -0.72719455 -0.8065771 0.29214895
0.5098889 0.40714067 0.65600264 0.35166007 1.2277515 0.19738755 -0.40895113 -0.14349768
0.4603766 -0.49040174 0.012876253 0.31821176 -1.104023 1.176723 -0.7358484 -2.3120608
-0.959729 0.3165464 -0.27991 0.37763944 -0.51387596 -0.56270736 -0.7108465 0.533091
00000000: a64c 253f b2b5 913e c673 203f d336 143f
00000010: 245b 2b3f 27e4 be3e 67e3 173f 77d9 5a3f
00000020: 5977 163f 5ac7 3ebf b75d 26bf 160a 5cbf
00000030: aafb 49bf 0304 acbe cae7 94be 7b83 9abe
00000040: 158c 9fbe f5a6 12bf e1c5 22bf fb7b 2cbf
00000050: b521 fdbe 1962 4cbf 725b 373f 54ad 65bf
00000060: 4e67 d1be 613e 843e 65a7 203f ef57 cbbf
00000070: fb03 63bf 992d 85bf c441 983d 8465 b13e
00000080: 6bcf 24be 377e 87bf fdbc 62be 0355 2ac0
00000090: e65f 62bf 29c0 5cbf 1894 74bf 6309 583d
000000a0: f644 233d 8ad3 0dbe 6201 843e 31f9 423f
000000b0: 0cf2 bf3e 984f 973e 1c6c 243f 8140 693f
000000c0: 9bc2 093f 1c39 d03e 5ca8 d83e f147 083f
000000d0: 76a4 6c3f 37cf 4b3f 1c05 20bf ceb0 15bf
000000e0: 48b4 c2be c946 b6be ba33 63be d03b 69bf
000000f0: 8ffd eb3e 4540 da3e 7f0f 3abf d4db 3cbf
00000100: 3882 42bf e25f 32bf 1b12 f1be f0e5 39bf
00000110: 862d d8be 7f0f 03bf b3d9 8bbe fe5f 09bf
00000120: 5815 8fbf 94d2 98bf c8e7 afbf aea0 ecbd
00000130: e669 8f3e 814e 803e c660 04bf 4014 153e
00000140: 3e86 ae3e 6a4d ec3e 39a7 913e f135 3a3f
00000150: a741 483f 82cf 5f3f f70b 2e3f caeb 513f
00000160: 1edc b03e 0c9f 0e3f 9286 39be 18b9 14be
00000170: ab36 0dbf de37 bb3d f110 8e3f a9aa 7d3f
00000180: 3e24 bbbe 30fc eb3e 37d6 c53e 5ab6 2cbf
00000190: 0cf5 eabe fb11 393f bc4b 59bf e37e b5be
000001a0: cfd7 28bf 141e 20bf 300d ccbe 0e91 38bf
000001b0: 0fa1 a73e a721 bebe 9b27 9cbe 87d3 633f
000001c0: f1db 823f 83e0 953f d711 2c3f bc27 b53e
000001d0: c3b0 233f 2a1e 6b3f 0561 893f eca7 5b3f
000001e0: 058e 643e 1bbf d13e 44ca 973e d464 1e3d
000001f0: 4f44 8abe a72b b9be 2bc1 9abe 442e 8d3e
00000200: 7a84 963d 0c7c 203f 2d60 ba3f e634 613f
00000210: 3595 73be 2a01 ea3e 790e f4be 0f18 763f
00000220: 81c2 353f 6b45 9b3f 8801 f33e a544 813e
00000230: 43b6 3e3f 62ad febc 2619 0ebf 64e2 17bc
00000240: 6c58 12bd 0d30 f83d b713 573f f7a6 85be
00000250: 2b09 8c3f bdcb 7e3f 55c5 10be a770 22be
00000260: 0a87 d93f 204e 4bbf 09ec 0b3f b8f9 be3e
00000270: 628a f6be ccf4 09bf f162 62bf 8c3d 25bf
00000280: 4a29 29bf dd81 4ebf 02da 75be bb8f da3e
00000290: d0d8 81be 2b1c 923f 6774 0a40 405c 683e
000002a0: e15a 423e f89f 733f ff54 18bf 70d0 96be
000002b0: 59e3 643f 85ea bb3e 8322 dfbe c93d eb3f
000002c0: e958 523f 461e c7be 1a52 85be 38c8 8d3f
000002d0: 51fb c83e 234c 5cbe a3dc 77bf a051 993f
000002e0: 8803 0640 3136 6d3f 1aaf f53e 1761 bc3f
000002f0: 2f6d 373f 4830 323f b903 433f a8d1 fe3e
00000300: ccec 1f3f 0a1b 863f 9482 703f e05e 453c
00000310: f3ca 1f3e c733 43be 1c7c 993d 2013 83be
00000320: b1de 023f fcb7 5fbe e544 c0bd aca5 80be
00000330: 6203 0940 dea4 a93e 4df9 1f40 8d59 153f
00000340: 8439 123e 925e 74be 4f29 983f 5121 ec3e
00000350: 0312 17bf 3c38 163f a62d 763f 16be 9ebe
00000360: e87e a63e 37b8 343f 51a7 af3e d5a6 5b3f
00000370: 1bb8 c33e e968 ff3e c732 a03e 7662 523f
00000380: 944e 5c3f c7ea 6dbf 71f0 9dbe b853 27bf
00000390: 3d5f 3abf 6c29 3abf d67b 4ebf 8c94 953e
000003a0: 1488 023f be74 d03e caef 273f ca0c b43e
000003b0: f626 9d3f f61f 4a3e 0b62 d1be 0ef1 12be
000003c0: 7bb6 eb3e f015 fbbe ebf6 523c a7ec a23e
000003d0: a050 8dbf dc9e 963f 9060 3cbf cef8 13c0
000003e0: cdb0 75bf 5f12 a23e 5d50 8fbe f559 c13e
000003f0: 608d 03bf 970d 10bf 09fa 35bf a778 083f

module.Conv1.layers.1.bias f4 [64]
-0.45259973 0.4685308 0.5605379 -0.3369769 -0.31682077 -0.7178089 -0.14564373 0.3390532
0.4879568 -0.22492845 0.14446014 -0.0426458 0.4291447 0.1619326 0.62277526 -0.18324552
0.26883262 -0.518183 -0.362136 0.54518884 -0.4629665 0.22453772 0.53130406 0.22721124
0.06510296 -0.24703111 0.5748352 0.45297232 -0.68398523 -0.5959948 -0.3519852 -0.22436686
-0.28958142 -0.21057563 -0.0073421006 0.7223021 -0.257439 -0.78664106 0.26352158 -0.26722178
-0.2263657 0.30396283 -0.60653645 0.40192735 0.23773529 -0.13683146 -0.19733909 0.2318313
0.102575466 0.8308711 -0.0045068515 0.05753533 -0.1954671 -0.28994983 0.37177026 -0.7148909
-0.18145083 -0.42477283 0.09762283 -0.43549687 0.22198202 0.47551066 0.23140247 -0.13950217
00000000: 27bb e7be 45e3 ef3e 697f 0f3f 3c88 acbe
00000010: 5536 a2be 53c2 37bf a123 15be 6298 ad3e
00000020: 79d5 f93e a553 66be 5ced 133e 5dad 2ebd
00000030: dbb8 db3e a9d1 253e 336e 1f3f b7a4 3bbe
00000040: 6ea4 893e a4a7 04bf e469 b9be 7f91 0b3f
00000050: f209 edbe 37ed 653e 8b03 083f 10aa 683e
00000060: b354 853d b9f5 7cbe 6628 133f fdeb e73e
00000070: a819 2fbf 1d93 18bf 6737 b4be 6dc0 65be
00000080: 0444 94be 23a1 57be 0196 f0bb cae8 383f
00000090: 0bcf 83be 4f61 49bf 4dec 863e 4bd1 88be
000000a0: 69cc 67be 04a1 9b3e f945 1bbf 6cc9 cd3e
000000b0: e170 733e 8c1d 0cbe 4213 4abe 2f65 6d3e
000000c0: 1613 d23d f8b3 543f 36ae 93bb 2baa 6b3d
000000d0: 8728 48be 4e74 94be ac58 be3e 1703 37bf
000000e0: 3fce 39be d37b d9be 7aee c73d 72f9 debe
000000f0: 414f 633e 2276 f33e c5f4 6c3e a8d9 0ebe

module.Conv1.layers.2.weight f4 [64]
0.47937718 0.39606756 0.37374803 1.6076791 0.35076383 1.6256264 -0.070315555 0.40004373
1.7967694 0.5655474 1.6563253 1.636846 0.39672205 0.35501444 1.62513 0.54678684
0.40909907 0.061410878 1.6595887 0.41492984 2.3250146 0.4095134 1.6408273 1.5388894
0.47653076 0.34824443 1.7282989 2.651709 1.601955 1.5613409 1.613947 0.41617987
0.45202258 1.5794076 0.14072615 0.37956047 1.6178814 1.5850161 0.6602429 1.6520225
1.5969794 1.6500963 1.5659201 0.4185966 1.5737414 0.38332605 0.46813536 0.37657276
0.3456627 1.6010994 0.3507107 1.6097566 1.6555156 1.5674621 1.6368066 1.532561
1.0021185 0.36395732 0.15549167 1.4934744 0.2438552 1.6010149 0.34119245 0.50040627
00000000: ed70 f53e 5ec9 ca3e e75b bf3e 6ec8 cd3f
00000010: 5197 b33e 8714 d03f 9a01 90bd 88d2 cc3e
00000020: 8afc e53f b7c7 103f 7802 d43f 2b84 d13f
00000030: 271f cb3e 74c4 b53e 4304 d03f 39fa 0b3f
00000040: 6f75 d13e f989 7b3d 676d d43f af71 d43e
00000050: 0acd 1440 beab d13e a106 d23f 54fa c43f
00000060: d7fb f33e 184d b23e e638 dd3f 9ab5 2940
00000070: dd0c cd3f 05da c73f d195 ce3f 8715 d53e
00000080: 816f e73e 072a ca3f 841a 103e c055 c23e
00000090: bd16 cf3f cfe1 ca3f ae05 293f 7975 d33f
000000a0: d269 cc3f 5b36 d33f 1270 c83f 4b52 d63e
000000b0: 5c70 c93f 5043 c43e 70af ef3e 25ce c03e
000000c0: b4fa b03e d3f0 cc3f 5a90 b33e 810c ce3f
000000d0: efe7 d33f 99a2 c83f e182 d13f f52a c43f
000000e0: 6b45 803f 9d58 ba3e 3539 1f3e 2b2a bf3f
000000f0: 2db5 793e 0eee cc3f c7b0 ae3e a01a 003f

module.Conv1.layers.2.bias f4 [64]
-0.4536651 -0.6027439 -0.608506 0.6288356 -0.63503176 0.5514393 -0.7944311 -0.6015381
-0.32705674 -1.4319632 0.039409284 1.0789089 -1.0479858 -0.9456369 0.6298447 -0.5228023
-1.0338244 -0.71433324 0.2697987 -1.0514133 -0.5546851 -1.1239812 0.28538528 0.45055652
-0.4652857 -0.6130936 0.4556529 1.6908649 0.81063294 0.45641944 0.5477184 -0.56168413
-0.4979809 0.35622108 -0.7004894 -0.62408364 0.50528044 0.53618443 -1.798153 0.24962498
0.4145542 0.8302973 0.5453584 -1.0638533 -1.1218761 -0.6039071 -0.4118764 -0.60485166
-0.59818685 0.61371976 -0.63054913 0.5879747 0.08230633 -0.41001397 0.3764253 0.26757136
-0.5279769 0.35770848 -0.77748924 0.44289786 0.53771836 -0.6232767 -0.892561 -0.45724782
00000000: cb46 e8be 6d4d 1abf 0dc7 1bbf 5ffb 203f
00000010: 7191 22bf 202b 0d3f d65f 4bbf 67fe 19bf
00000020: fb73 a7be 924a b7bf a16b 213d b019 8a3f
00000030: 6624 86bf 4315 72bf 813d 213f 5fd6 05bf
00000040: 5c54 84bf 8bde 36bf 0e23 8a3e b694 86bf
00000050: d8ff 0dbf 9ede 8fbf 051e 923e 58af e63e
00000060: ed39 eebe b4f3 1cbf 564b e93e 436e d83f
00000070: a485 4f3f cfaf e93e 4637 0c3f 88ca 0fbf
00000080: 5af7 febe 9c62 b63e 4653 33bf f2c3 1fbf
00000090: 0f5a 013f 6243 093f e129 e6bf b19d 7f3e
000000a0: 7340 d43e 5d8e 543f 9c9c 0b3f 582c 88bf
000000b0: a399 8fbf a899 1abf 77e1 d2be 8fd7 1abf
000000c0: c622 19bf bd1c 1d3f ab6b 21bf 8385 163f
000000d0: 3990 a83d 5aed d1be d1ba c03e 1dff 883e
000000e0: 7e29 07bf 9125 b73e 8909 47bf 82c3 e23e
000000f0: e9a7 093f 108f 1fbf e17e 64bf 631c eabe

module.Conv1.layers.2.running_mean f4 [64]
-2.6078305 2.4789855 1.5119317 2.613128 0.17710292 -2.9805121 1.081 2.464287
1.6753627 -2.512677 -0.7027889 1.6274709 -1.3759421 -1.1444869 -0.5484072 -1.6732069
-1.4226508 1.0893564 -2.0405767 -0.9576389 -2.8763323 -1.6203872 -1.4564196 -0.9298846
-2.0464098 0.9628543 -0.07130456 1.7693253 0.26631618 -1.8559558 1.7425344 2.0068607
-1.3891534 2.102013 1.0387841 2.9462814 -2.0967784 -1.395686 -0.8902918 2.03888
-1.3427838 2.658198 -1.5901159 -0.89615405 -2.135678 0.6490215 -2.461477 1.8877134
1.5182282 3.1072366 1.9308977 0.8644457 2.2796357 -2.5702503 0.54518664 -2.9900165
-2.4929497 1.8264544 2.5258062 -3.0651786 -0.7362118 2.695053 -1.5183811 -2.1168647
00000000: b2e6 26c0 b3a7 1e40 fa86 c13f 7d3d 2740
00000010: 785a 353e b6c0 3ec0 355e 8a3f e1b6 1d40
00000020: 4972 d63f b3cf 20c0 f9e9 33bf f750 d03f
00000030: df1e b0bf 8c7e 92bf 6a64 0cbf a52b d6bf
00000040: 6c19 b6bf 0870 8b3f cf98 02c0 d327 75bf
00000050: d415 38c0 d968 cfbf f56b babf eb0c 6ebf
00000060: 61f8 02c0 9f7d 763f 2008 92bd 4079 e23f
00000070: 985a 883e f68f edbf 5e0b df3f 6870 0040
00000080: c7cf b1bf 6287 0640 e1f6 843f e08f 3c40
00000090: 9e31 06c0 d7a5 b2bf 2aea 63bf 037d 0240
000000a0: 57e0 abbf eb1f 2a40 eb88 cbbf 5a6a 65bf
000000b0: f3ae 08c0 4626 263f d788 1dc0 98a0 f13f
000000c0: 4d55 c23f f7dc 4640 a827 f73f 504c 5d3f
000000d0: 8de5 1140 fb7e 24c0 5a91 0b3f 6e5c 3fc0
000000e0: 7d8c 1fc0 42c9 e93f cfa6 2140 e32b 44c0
000000f0: 6078 3cbf c07b 2c40 505a c2bf b67a 07c0

module.Conv1.layers.2.running_var f4 [64]
3.3071399 2.869043 0.6538099 6.1516438 0.21099661 3.6352696 1.0784508 3.2101483
1.0285124 3.725547 0.52423555 1.9979179 2.3471053 1.2383624 0.9987398 1.6041616
2.0652928 1.8590378 2.0493722 1.6370916 4.28745 2.4469864 2.8417456 0.98095727
3.1769946 1.0667125 0.31630433 1.2794409 0.66295177 1.1650096 3.1245635 3.545496
0.8751294 3.8012576 0.79335886 3.518003 2.4749122 0.30224714 0.97608817 3.7878788
0.9224498 3.9404974 0.70955145 1.2146516 3.9983552 0.45747146 3.6464388 1.9637623
1.4401087 3.6926415 2.6621783 0.48334354 4.378451 3.7059984 0.20009676 3.6874352
3.7936814 3.607216 4.1901064 5.0173855 0.6802587 3.4739523 2.1720343 2.786937
00000000: 2ea8 5340 679e 3740 1660 273f 44da c440
00000010: 7f0f 583e 42a8 6840 ad0a 8a3f 1273 4d40
00000020: 4ba6 833f 5d6f 6e40 4d34 063f c6bb ff3f
00000030: f936 1640 a982 9e3f 69ad 7f3f 2b55 cd3f
00000040: c22d 0440 f3f4 ed3f ea28 0340 388c d13f
00000050: ca32 8940 6d9b 1c40 29df 3540 0420 7b3f
00000060: e153 4b40 098a 883f a4f2 a13e b8c4 a33f
00000070: 35b7 293f 091f 953f d9f8 4740 68e9 6240
00000080: 7b08 603f ce47 7340 9119 4b3f f626 6140
00000090: f664 1e40 23c0 9a3e eae0 793f 9b6c 7240
000000a0: ac25 6c3f 1c31 7c40 2aa5 353f b479 9b3f
000000b0: 0de5 7f40 b339 ea3e 415f 6940 905c fb3f
000000c0: 7b55 b83f 3d54 6c40 2161 2a40 ce78 f73e
000000d0: 451c 8c40 142f 6d40 2ae6 4c3e f0fe 6b40
000000e0: adcb 7240 a0dc 6640 5a15 8640 6c8e a040
000000f0: 6f25 2e3f 3c55 5e40 9c02 0b40 2d5d 3240

module.Conv2.layers.0.weight f4 [64, 64, 3, 3]
-0.60763866 -0.6004468 -0.6061999 -0.6355022 -0.6215998 -0.5745441 -0.5793172 -0.6408149
-0.57404894 0.60028726 0.5921704 0.56013083 0.6400322 0.62626535 0.5967355 0.58727473
0.56680745 0.561825 0.58853763 0.6147382 0.6409569 0.5748136 0.61703223 0.5848785
0.6052233 0.59713256 0.59368837 0.6161803 0.60882103 0.6114602 0.5692371 0.61597896
0.6153413 0.611499 0.639231 0.5765952 -0.63486814 -0.58634675 -0.5619128 -0.6227772
-0.5849311 -0.6068428 -0.6262825 -0.6330201 -0.59459007 0.64024234 0.6112243 0.60242206
0.57487255 0.60978943 0.6037533 0.6413233 0.583513 0.60447276 -0.60744154 -0.6120804
-0.56911844 -0.59760445 -0.5886805 -0.59962374 -0.5676144 -0.5847616 -0.6165333 0.63909227
0.63182616 0.6102974 0.59529054 0.5696157 0.60878134 0.58095896 0.60626644 0.60971385
-0.56327474 -0.597566 -0.61693007 -0.5784101 -0.63203293 -0.57736266 -0.6369942 -0.57057273
-0.5894233 0.5916246 0.600437 0.61668736 0.5785824 0.58366203 0.57238513 0.621707
0.5948032 0.5640557 0.62469435 0.5666082 0.5987228 0.57894623 0.6046436 0.5887404
0.59729636 0.57289356 0.63041794 0.57097614 0.5938242 0.63706094 0.5836189 0.61601186
0.6093253 0.58855027 0.56499887 0.5619864 0.6273613 0.60530275 0.64037347 0.6321794
0.58261776 0.591693 0.55909145 0.5659402 0.58169085 0.5595998 0.56044054 0.6284282
0.6342397 0.6201827 0.61206436 0.6239507 0.5739161 0.6062709 0.62556374 0.57100946
0.6018353 0.60044825 0.58749306 0.6265297 0.60151154 0.6004023 0.6160732 -0.6076298
-0.59981513 -0.5597314 -0.566069 -0.5670536 -0.5761851 -0.6296177 -0.5756575 -0.57719415
0.5964666 0.5986708 0.63299435 0.5912831 0.60074025 0.61345893 0.61260146 0.5607142
0.6316297 -0.5679103 -0.59665483 -0.6114174 -0.58237106 -0.58094823 -0.593099 -0.5923265
-0.58300704 -0.641365 0.58058256 0.60330755 0.6207444 0.58938754 0.6316655 0.6418458
0.6179187 0.6378115 0.55892456 0.60537165 0.59878075 0.5799118 0.6302115 0.5830971
0.59998155 0.636611 0.63529146 0.5999277 0.63217664 0.630989 0.57292265 0.63451207
0.6038813 0.6127096 0.63258845 0.58403087 0.5606127 0.6015809 0.596403 0.5806354
0.57113147 0.5711874 0.5881148 0.56091505 0.5803494 0.59240854 -0.57429534 -0.5646481
-0.6271826 -0.5735641 -0.59231067 -0.583039 -0.6360606 -0.5723843 -0.60753834 0.6351065
0.6228204 0.60187453 0.5633318 0.5782549 0.58154315 0.59364843 0.6265727 0.5850874
-0.57991874 -0.6189223 -0.63458675 -0.6141397 -0.62433827 -0.5739864 -0.57619876 -0.56617683
-0.6024058 -0.6325226 -0.6352853 -0.622773 -0.6243919 -0.6103456 -0.60771435 -0.57816756
-0.58505046 -0.5730141 -0.6338301 -0.56182957 -0.6210769 -0.5609675 -0.5802527 -0.5967537
-0.59571695 -0.6308737 -0.608905 -0.5767941 -0.6161692 -0.63285244 -0.5892028 -0.6227011
-0.59539074 -0.5691064 -0.5928641 -0.6184362 0.5741491 0.6296249 0.6087214 0.6294073
00000000: 358e 1bbf e2b6 19bf eb2f 1bbf 46b0 22bf
00000010: 2a21 1fbf 5215 13bf 224e 14bf 720c 24bf
00000020: dff4 12bf 6dac 193f 7b98 173f bc64 0f3f
00000030: 26d9 233f ed52 203f a8c3 183f a357 163f
00000040: 4b1a 113f c3d3 0f3f 67aa 163f 7c5f 1d3f
00000050: c015 243f fc26 133f d3f5 1d3f 99ba 153f
00000060: eaef 1a3f aedd 183f f6fb 173f febd 1d3f
00000070: b2db 1b3f a888 1c3f 86b9 113f ccb0 1d3f
00000080: 0287 1d3f 338b 1c3f a5a4 233f be9b 133f
00000090: b886 22bf d21a 16bf 84d9 0fbf 546e 1fbf
000000a0: 0bbe 15bf 0d5a 1bbf 0d54 20bf 9b0d 22bf
000000b0: 0e37 18bf ece6 233f 3279 1c3f 5538 1a3f
000000c0: d92a 133f 291b 1c3f 948f 1a3f c42d 243f
000000d0: 1c61 153f babe 1a3f 4a81 1bbf 4db1 1cbf
000000e0: bfb1 11bf 9bfc 18bf c4b3 16bf f180 19bf
000000f0: 2d4f 11bf f0b2 15bf 20d5 1dbf 8d9b 233f
00000100: 5cbf 213f 733c 1c3f f664 183f 56d2 113f
00000110: 18d9 1b3f bab9 143f 4734 1b3f 3516 1c3f
00000120: c632 10bf 16fa 18bf 21ef 1dbf af12 14bf
00000130: e9cc 21bf 0ace 13bf 0d12 23bf 0e11 12bf
00000140: 72e4 16bf b674 173f 3db6 193f 39df 1d3f
00000150: fa1d 143f e06a 153f d587 123f 3128 1f3f
00000160: 0645 183f f465 103f f8eb 1f3f 3c0d 113f
00000170: e645 193f d235 143f ecc9 1a3f b1b7 163f
00000180: 6ae8 183f 27a9 123f 1263 213f 7e2b 123f
00000190: dd04 183f 6d16 233f 0c68 153f f4b2 1d3f
000001a0: befc 1b3f 3bab 163f c4a3 103f 57de 0f3f
000001b0: c09a 203f 1ff5 1a3f 84ef 233f 82d6 213f
000001c0: 7026 153f 3179 173f 9e20 0f3f 75e1 103f
000001d0: b1e9 143f ef41 0f3f 0879 0f3f ace0 203f
000001e0: 885d 223f 4bc4 1e3f 40b0 1c3f 3cbb 1f3f
000001f0: 2aec 123f 9234 1b3f f224 203f ad2d 123f
00000200: e111 1a3f fab6 193f f265 163f 4064 203f
00000210: a9fc 193f f7b3 193f f9b6 1d3f a08d 1bbf
00000220: 7c8d 19bf 8f4a 0fbf e6e9 10bf 6d2a 11bf
00000230: de80 13bf a02e 21bf 4a5e 13bf ffc2 13bf
00000240: 09b2 183f 7d42 193f eb0b 223f 545e 173f
00000250: 1dca 193f a50b 1d3f 73d3 1c3f f78a 0f3f
00000260: 7cb2 213f 9262 11bf 5fbe 18bf da85 1cbf
00000270: 4516 15bf 06b9 14bf 56d5 17bf b6a2 17bf
00000280: f33f 15bf 7f30 24bf 0fa1 143f 5d72 1a3f
00000290: 1be9 1e3f 1ae2 163f d5b4 213f 0250 243f
000002a0: ec2f 1e3f 9d47 233f ae15 0f3f a3f9 1a3f
000002b0: b249 193f 1a75 143f 8a55 213f da45 153f
000002c0: 6498 193f f0f8 223f 76a2 223f dd94 193f
000002d0: 54d6 213f 7f88 213f 0fab 123f 626f 223f
000002e0: f797 1a3f 89da 1c3f 51f1 213f 0c83 153f
000002f0: 5084 0f3f 3501 1a3f dead 183f 86a4 143f
00000300: ac35 123f 5639 123f b18e 163f 2198 0f3f
00000310: c791 143f 16a8 173f 0505 13bf c78c 10bf
00000320: 0a8f 20bf 19d5 12bf aca1 17bf 0b42 15bf
00000330: ded4 22bf c787 12bf a287 1bbf 5796 223f
00000340: 2871 1f3f 7314 1a3f 8336 103f 8308 143f
00000350: 03e0 143f 58f9 173f 1267 203f 4ac8 153f
00000360: 8e75 14bf b171 1ebf 4774 22bf 4238 1dbf
00000370: a2d4 1fbf c6f0 12bf c381 13bf f7f0 10bf
00000380: 4437 1abf 00ed 21bf 0fa2 22bf 0d6e 1fbf
00000390: 26d8 1fbf 9c3f 1cbf 2b93 1bbf ca02 14bf
000003a0: dec5 15bf 0db1 12bf b042 22bf 10d4 0fbf
000003b0: e5fe 1ebf 919b 0fbf 718b 14bf dac4 18bf
000003c0: e880 18bf f080 21bf 33e1 1bbf c7a8 13bf
000003d0: 44bd 1dbf 9e02 22bf ffd5 16bf 5769 1fbf
000003e0: 876b 18bf f5b0 11bf f1c5 17bf d651 1ebf
000003f0: 6ffb 123f 192f 213f 2ad5 1b3f d620 213f

module.Conv2.layers.0.bias f4 [64]
-0.01221755 -0.17736478 0.042941734 -0.21405295 0.38894847 -0.08161057 -0.13577636 -0.28996953
0.050207824 0.041525405 0.062493928 -0.031876568 0.1289187 -0.11492319 -0.05805 -0.017061781
-0.11511869 0.13765106 -0.15399067 -0.21686168 -0.1733439 0.30337068 -0.116360284 -0.044230662
0.24203861 0.034258433 0.032441236 -0.06954446 0.22817318 0.18448636 -0.06614306 -0.11765617
0.035106435 0.23274511 0.030981183 0.00921964 -0.16251908 -0.1332786 0.082862474 0.015300356
0.10667063 -0.09708686 -0.047234055 -0.31372368 -0.013893867 -0.087207004 0.0132577205 -0.06538624
0.12781851 0.07782548 -0.015943918 0.1097968 0.052209467 0.14233331 0.07030458 -0.06679185
-0.12756163 0.17446423 -0.090736255 0.0066912617 -0.14114046 -0.13110617 0.08675799 -0.15443139
00000000: 1e2c 48bc 1d9f 35be ace3 2f3d b230 5bbe
00000010: 4124 c73e 7123 a7bd f508 0bbe e376 94be
00000020: b8a6 4d3d 8b16 2a3d a2f9 7f3d 0191 02bd
00000030: 4403 043e d95c ebbd d6c5 6dbd 26c5 8bbc
00000040: 59c3 ebbd 66f4 0c3e bbaf 1dbe fd10 5ebe
00000050: 1081 31be 6753 9b3e 4d4e eebd 362b 35bd
00000060: f8d8 773e 9252 0c3d 1ae1 043d 536d 8ebd
00000070: 3ba6 693e fee9 3c3e 0376 87bd b8f5 f0bd
00000080: c4cb 0f3d bc54 6e3e 40cc fd3c f90d 173c
00000090: 676b 26be 2f7a 08be cdb3 a93d 58ae 7a3c
000000a0: 2276 da3d 7ad5 c6bd 7f78 41bd 64a0 a0be
000000b0: 1aa3 63bc 9699 b2bd e936 593c 39e9 85bd
000000c0: dbe2 023e f762 9f3d d29c 82bc 25dd e03d
000000d0: 98d9 553d d3bf 113e d9fb 8f3d 2aca 88bd
000000e0: 849f 02be c0a6 323e eed3 b9bd 5f42 db3b
000000f0: 2087 10be b240 06be 2cae b13d 4323 1ebe

module.Conv2.layers.1.weight f4 [64]
0.46401948 0.32425687 1.6331806 0.39486516 0.43734857 1.5991178 1.4356261 0.47318995
0.27111784 1.304583 1.3537639 0.10005445 1.2132543 0.55886674 0.6603076 1.6107781
0.19397487 0.25087622 0.27974123 1.7630925 1.5427916 0.53408426 0.6507783 0.62443876
1.6819737 1.4110749 1.7571576 1.33718 1.7367787 0.32534543 0.9889012 0.31150168
0.39011356 0.4405826 1.4807827 0.62345874 1.5810299 2.2720098 0.48571184 0.5917467
0.63495463 1.628039 0.44302845 1.5943753 0.6541756 0.018856637 0.48137546 1.6472648
-0.12524803 1.52665 1.662638 2.0690658 1.6815034 1.7519915 1.6992424 1.565661
2.0733707 0.1370919 0.43210083 0.40686485 0.5169874 1.6277283 1.5753133 1.9810538
00000000: f693 ed3e ff04 a63e 100c d13f c42b ca3e
00000010: 27ec df3e e4af cc3f 99c2 b73f f445 f23e
00000020: f5cf 8a3e 93fc a63f 2348 ad3f 59e9 cc3d
00000030: eb4b 9b3f e411 0f3f eb09 293f fa2d ce3f
00000040: 59a1 463e d972 803e 3e3a 8f3e 04ad e13f
00000050: 327a c53f bfb9 083f 6899 263f 38db 1f3f
00000060: ea4a d73f 1a9e b43f 8aea e03f b728 ab3f
00000070: c44e de3f ad93 a63e a128 7d3f 267d 9f3e
00000080: f7bc c73e 0b94 e13e 4a8a bd3f fe9a 1f3f
00000090: 305f ca3f 9c68 1140 39af f83e b67c 173f
000000a0: 638c 223f 9563 d03f a0d4 e23e 7d14 cc3f
000000b0: 0d78 273f 3c79 9a3c d876 f63e 93d9 d23f
000000c0: 0541 00be 4469 c33f 52d1 d43f 936b 0440
000000d0: 813b d73f 4241 e03f c680 d93f 9467 c83f
000000e0: 1bb2 0440 d261 0c3e 523c dd3e 9750 d03e
000000f0: 4959 043f 6759 d03f dea3 c93f 2c93 fd3f

module.Conv2.layers.1.bias f4 [64]
-1.3697519 -0.587915 0.49699637 -0.52330154 -0.48051092 0.32682 0.4292631 -0.5104864
-0.57697606 -0.7652645 0.67462516 -0.90017384 0.5411719 -0.7171507 -1.0809575 0.23352064
-0.46335107 -0.94318974 -0.80639863 0.13975115 -0.1007552 -0.37521103 0.017650394 0.3414545
-0.1358431 0.65975696 -2.7979689 0.42772296 -1.0809318 -0.6102915 -0.58365715 -1.2792717
-0.43538308 -0.556109 0.34252337 0.3194849 0.30269238 -0.4632041 -0.49588698 -0.51335865
-0.51831293 0.5274537 -0.91794026 0.49739304 0.10919844 -0.9937801 -0.40538242 0.4363082
-0.8236247 0.42117578 0.7068411 1.3124893 1.2349341 -2.3966758 0.77349 -1.0006765
-2.3671331 -1.4235482 -0.8990196 -0.6749872 0.112151705 0.2950168 0.62452894 0.293646
00000000: 0854 afbf 9981 16bf 4f76 fe3e 17f7 05bf
00000010: 8705 f6be f354 a73e 5fc8 db3e 3daf 02bf
00000020: b4b4 13bf 60e8 43bf 3cb4 2c3f cb71 66bf
00000030: 3e8a 0a3f 3097 37bf d15c 8abf 0920 6f3e
00000040: 5a3c edbe e274 71bf 2470 4ebf ed1a 0f3e
00000050: be58 cebd a91b c0be 8f97 903c 20d3 ae3e
00000060: 741a 0bbe d5e5 283f ec11 33c0 81fe da3e
00000070: f95b 8abf 103c 1cbf 8e6a 15bf 2dbf a3bf
00000080: 88ea debe 295d 0ebf 395f af3e 8693 a33e
00000090: 7ffa 9a3e 1629 edbe e6e4 fdbe 796b 03bf
000000a0: 28b0 04bf 3507 073f 22fe 6abf 4daa fe3e
000000b0: 6fa3 df3d 5f68 7ebf 498e cfbe ca63 df3e
000000c0: 11d9 52bf 5aa4 d73e 8af3 343f a6ff a73f
000000d0: 5212 9e3f 2363 19c0 7103 463f 2b16 80bf
000000e0: 1c7f 17c0 d436 b6bf 2626 66bf f6cb 2cbf
000000f0: cbaf e53d 710c 973e 21e1 1f3f c558 963e

module.Conv2.layers.1.running_mean f4 [64]
42.65734 -38.345165 123.827225 -43.45426 -49.90108 54.7661 -44.808815 -40.43105
-94.45687 164.35268 -80.894615 44.61753 -43.49255 43.307415 42.918304 160.40741
37.163063 -41.178974 66.42705 183.68814 43.816593 -43.315372 -24.569897 -13.181344
44.356735 -47.23222 51.23869 -26.173273 45.880886 -130.52243 78.98761 177.87558
-86.00017 -46.23699 -33.137913 -62.28559 117.10238 122.47045 -156.32892 174.3193
172.19347 189.70229 122.757454 180.19179 -70.54232 41.766624 -83.13057 93.45974
179.62605 119.04295 34.83282 -64.04074 -67.177605 40.715164 -101.36541 188.57396
166.94304 -9.869222 34.06861 -109.04078 -130.64088 46.023632 138.07254 -42.85706
00000000: 1ea1 2a42 7361 19c2 8aa7 f742 2ad1 2dc2
00000010: b59a 47c2 7d10 5b42 3a3c 33c2 65b9 21c2
00000020: ebe9 bcc2 495a 2443 0bca a1c2 5a78 3242
00000030: 5ff8 2dc2 cb3a 2d42 58ac 2b42 4c68 2043
00000040: faa6 1442 45b7 24c2 a6da 8442 2ab0 3743
00000050: 3144 2f42 f142 2dc2 268f c4c1 c9e6 52c1
00000060: 4c6d 3142 cbed 3cc2 6bf4 4c42 dd62 d1c1
00000070: 0786 3742 be85 02c3 a8f9 9d42 26e0 3143
00000080: 1600 acc2 aef2 38c2 398d 04c2 7224 79c2
00000090: 6b34 ea42 dff0 f442 3454 1cc3 be51 2e43
000000a0: 8731 2c43 c9b3 3d43 d183 f542 1931 3443
000000b0: ab15 8dc2 0611 2742 da42 a6c2 63eb ba42
000000c0: 45a0 3343 fe15 ee42 cf54 0b42 dc14 80c2
000000d0: ef5a 86c2 54dc 2242 17bb cac2 ef92 3c43
000000e0: 6bf1 2643 55e8 1dc1 4246 0842 e114 dac2
000000f0: 11a4 02c3 3318 3842 9212 0a43 a16d 2bc2

module.Conv2.layers.1.running_var f4 [64]
7270.316 4368.1436 4429.8057 7102.1587 6637.3457 1076.362 6905.3354 7243.78
2439.1677 9736.451 7002.2437 6999.5386 6634.316 7099.1016 7118.357 7052.384
1184.9408 610.24335 1866.3362 12583.213 7065.693 6201.1577 3752.6304 2464.381
5129.606 6111.7393 893.24976 3424.088 7099.4424 4402.8105 4506.7446 11316.399
2302.0784 6936.506 632.0309 3219.5718 9594.985 4045.756 9836.018 11061.396
10544.439 13062.316 9824.049 12773.764 6226.1577 1889.9861 8077.5 7762.66
11121.474 4563.921 1408.6547 996.6828 1287.8774 7013.3394 2599.9216 12814.006
9479.875 1535.2123 1298.8628 8679.139 6127.9575 6847.397 6555.854 7125.895
00000000: 8732 e345 2681 8845 726e 8a45 45f1 dd45
00000010: c46a cf45 968b 8644 afca d745 3d5e e245
00000020: af72 1845 ce21 1846 f3d1 da45 4fbc da45
00000030: 8752 cf45 d0d8 dd45 db72 de45 1263 dc45
00000040: 1b1e 9444 938f 1844 c24a e944 da9c 4446
00000050: 8bcd dc45 43c9 c145 168a 6a45 1906 1a45
00000060: d94c a045 eafd be45 fc4f 5f44 6801 5645
00000070: 8adb dd45 7c96 8945 f5d5 8c45 99d1 3046
00000080: 41e1 0f45 0cc4 d845 fa01 1e44 2639 4945
00000090: f1eb 1546 19dc 7c45 12b0 1946 96d5 2c46
000000a0: c2c1 2446 4419 4c46 3280 1946 0e97 4746
000000b0: 4391 c245 8e3f ec44 006c fc45 4895 f245
000000c0: e5c5 2d46 5e9f 8e45 f314 b044 b32b 7944
000000d0: 14fc a044 b72a db45 bf7e 2245 0638 4846
000000e0: 801f 1446 cbe6 bf44 9c5b a244 8e9c 0746
000000f0: a97f bf45 2dfb d545 d5de cc45 29af de45

module.Conv3.layers.0.weight f4 [64, 64, 3, 3]
0.5807449 0.6351324 0.56310624 -0.56335807 0.58571535 0.59718937 -0.6329735 -0.61266637
-0.6118588 -0.57538706 -0.5917088 -0.5930129 -0.56118816 -0.6006944 -0.58500886 -0.58847874
-0.61454314 -0.5975201 0.60117763 0.5725487 0.60893184 0.5999257 0.63706267 0.64091915
0.621383 0.61898917 0.57284904 -0.5717555 -0.5933598 -0.5676705 -0.5797054 -0.61991423
-0.56140274 -0.6206991 -0.5610939 -0.5776456 -0.56920063 -0.60176843 -0.5730919 -0.5716782
-0.6348688 -0.59229755 -0.5754843 -0.5895313 -0.5857803 -0.6173402 -0.60881364 -0.6392522
-0.5925879 -0.60175633 -0.5943262 -0.5941304 -0.61296785 -0.58694553 0.57101107 0.60357124
-0.6127296 0.554214 0.63550216 0.60148114 0.6301046 0.5841084 0.58530784 -0.61769456
-0.6083475 -0.6252962 -0.60325146 -0.62548614 -0.61703813 -0.61149037 -0.62885755 -0.64091545
0.61935765 0.63948315 0.6274967 0.611672 0.57472056 0.5807736 0.56423163 0.6291854
0.5745516 -0.5762732 -0.5950364 -0.633147 -0.56111646 -0.5821482 -0.6122958 -0.60437816
-0.63967985 -0.5652952 0.5553079 0.5679979 0.5928515 0.5582781 0.5809165 0.559325
0.61699426 0.5643738 0.6270211 0.59335726 0.60805166 0.60799444 0.57418513 0.59399396
0.6092353 0.59839743 0.5809099 0.56286424 0.5730175 0.6237769 0.63172257 0.57300186
0.5947842 0.6266379 0.5686177 0.59929436 0.56441087 -0.56532633 -0.6102454 -0.62763846
-0.5683957 -0.6114054 -0.62594754 -0.5825861 -0.58056164 -0.56365097 -0.5724759 -0.6124436
-0.57346547 -0.60210425 -0.6207587 -0.59116423 -0.571496 -0.61138034 -0.5872303 -0.6017597
-0.6290809 -0.57366776 -0.61607945 -0.57771915 -0.60795707 -0.60764277 -0.5892085 -0.6261366
-0.62703043 -0.58195865 -0.6157753 -0.6223335 -0.5618207 -0.568392 -0.61430824 -0.5639214
-0.60295564 -0.5935111 -0.5904624 -0.6088491 -0.57834685 -0.59475434 -0.63469 -0.6159562
-0.56390995 -0.62895095 0.63933986 0.5795828 0.6348085 0.56438434 0.5650049 0.5800892
0.58466023 0.56357723 0.6209024 -0.6348484 -0.6051273 -0.6077236 -0.56075394 -0.56531644
-0.6109351 -0.6188146 -0.5744805 -0.6189218 -0.6384504 -0.56613886 -0.61405194 -0.60067064
-0.5839622 -0.57082474 -0.57067245 -0.59359646 -0.6027688 0.6177438 0.570663 0.62638134
0.6249406 0.5794573 0.638451 0.57881165 0.565601 0.61922914 -0.62501055 -0.5928375
-0.6298674 -0.63152355 -0.63703537 -0.57457775 -0.61059755 -0.5829434 -0.5649962 -0.6100335
-0.58079165 -0.61482936 -0.60784787 -0.5593752 -0.64182854 -0.6283926 -0.6230642 -0.6408195
-0.6107001 -0.5693579 -0.64164674 -0.5628926 -0.62234056 -0.6355364 -0.59457296 -0.60442483
-0.56842786 0.6156177 0.63413167 0.5939299 0.6319251 0.61039734 0.58125484 0.5711817
0.5756398 0.60191405 -0.60333246 -0.62030244 -0.5809183 -0.57125205 -0.5936806 -0.63547826
-0.5646246 -0.5952738 -0.61316496 0.5892503 0.56742203 0.5667302 0.59210354 0.56237525
0.62847745 0.58079773 0.59836626 0.581181 -0.59520555 -0.5773907 -0.5704894 -0.5887873
00000000: b3ab 143f 0998 223f bb27 103f 3c38 10bf
00000010: 71f1 153f 67e1 183f 8d0a 22bf b4d7 1cbf
00000020: c7a2 1cbf 914c 13bf 3a7a 17bf b2cf 17bf
00000030: 07aa 0fbf 1cc7 19bf 24c3 15bf 8ba6 16bf
00000040: b352 1dbf 14f7 18bf c7e6 193f 8d92 123f
00000050: f5e2 1b3f bb94 193f 8a16 233f 4713 243f
00000060: f512 1f3f 1376 1e3f 3ca6 123f 925e 12bf
00000070: 6ee6 17bf db52 11bf 9367 14bf b3b2 1ebf
00000080: 17b8 0fbf 23e6 1ebf daa3 0fbf 95e0 13bf
00000090: 22b7 11bf 7f0d 1abf 27b6 12bf 8159 12bf
000000a0: c386 22bf d0a0 17bf f052 13bf 86eb 16bf
000000b0: b3f5 15bf 020a 1ebf 36db 1bbf 08a6 23bf
000000c0: d7b3 17bf b40c 1abf c325 18bf ee18 18bf
000000d0: 76eb 1cbf 1042 16bf c82d 123f a583 1a3f
000000e0: d9db 1cbf f8e0 0d3f 45b0 223f abfa 193f
000000f0: 894e 213f 2188 153f bcd6 153f 3b21 1ebf
00000100: a9bc 1bbf 6913 20bf b06e 1abf dc1f 20bf
00000110: 36f6 1dbf a28a 1cbf cffc 20bf 0913 24bf
00000120: 398e 1e3f 2bb5 233f a0a3 203f 8996 1c3f
00000130: e320 133f 94ad 143f 7c71 103f 4b12 213f
00000140: d015 133f a486 13bf 4e54 18bf ec15 22bf
00000150: 54a5 0fbf aa07 15bf 6bbf 1cbf 87b8 1abf
00000160: 0fc2 23bf 30b7 10bf a928 0e3f 4f68 113f
00000170: 1ec5 173f 50eb 0e3f f2b6 143f ec2f 0f3f
00000180: 56f3 1d3f cd7a 103f 7484 203f 43e6 173f
00000190: 46a9 1b3f 86a5 1b3f ccfd 123f fd0f 183f
000001a0: d8f6 1b3f 9330 193f 83b6 143f df17 103f
000001b0: 46b1 123f d8af 1f3f 92b8 213f 40b0 123f
000001c0: c743 183f 576b 203f ee90 113f 5b6b 193f
000001d0: 3b7d 103f 3ab9 10bf 0b39 1cbf eaac 20bf
000001e0: 6182 11bf 1085 1cbf 193e 20bf 5d24 15bf
000001f0: b09f 14bf 6e4b 10bf c88d 12bf 1bc9 1cbf
00000200: a2ce 12bf 8123 1abf 0bea 1ebf 8a56 17bf
00000210: 904d 12bf 6c83 1cbf ba54 16bf ec0c 1abf
00000220: 720b 21bf e4db 12bf 62b7 1dbf 67e5 13bf
00000230: 13a3 1bbf 7a8e 1bbf 5ed6 16bf 7d4a 20bf
00000240: 1185 20bf 3efb 14bf 73a3 1dbf 4051 1fbf
00000250: 7bd3 0fbf 2382 11bf 4e43 1dbf 275d 10bf
00000260: 4d5b 1abf 58f0 17bf 8b28 17bf 89dd 1bbf
00000270: 8a0e 14bf d241 18bf 0b7b 22bf 4eaf 1dbf
00000280: 675c 10bf ee02 21bf c7ab 233f 8a5f 143f
00000290: cf82 223f 7e7b 103f 29a4 103f ba80 143f
000002a0: 4bac 153f 9946 103f 76f3 1e3f 6d85 22bf
000002b0: 9fe9 1abf c693 1bbf 928d 0fbf 94b8 10bf
000002c0: 3e66 1cbf a26a 1ebf 2711 13bf a971 1ebf
000002d0: 7c71 23bf 7aee 10bf 8232 1dbf 8dc5 19bf
000002e0: 8c7e 15bf 9221 12bf 9717 12bf f0f5 17bf
000002f0: 0e4f 1abf 7524 1e3f f816 123f 875a 203f
00000300: 1bfc 1f3f 5057 143f 8671 233f 002d 143f
00000310: 3acb 103f cd85 1e3f b100 20bf 33c4 17bf
00000320: fd3e 21bf 87ab 21bf c014 23bf 8717 13bf
00000330: 1f50 1cbf c73b 15bf 97a3 10bf 282b 1cbf
00000340: c3ae 14bf 7565 1dbf eb9b 1bbf 3733 0fbf
00000350: e04e 24bf 56de 20bf 2381 1fbf bf0c 24bf
00000360: d756 1cbf 70c1 11bf f642 24bf bb19 10bf
00000370: b651 1fbf 83b2 22bf ef35 18bf 96bb 1abf
00000380: 7d84 11bf 1f99 1d3f 7456 223f ca0b 183f
00000390: d8c5 213f 0043 1c3f 1ecd 143f f738 123f
000003a0: 215d 133f 0a17 1a3f ff73 1abf 24cc 1ebf
000003b0: 10b7 14bf 933d 12bf 74fb 17bf b4ae 22bf
000003c0: 3d8b 10bf dd63 18bf 61f8 1cbf 1cd9 163f
000003d0: 9242 113f 3b15 113f 1994 173f d3f7 0f3f
000003e0: e6e3 203f 29af 143f 882e 193f 47c8 143f
000003f0: 645f 18bf e0cf 13bf 980b 12bf c4ba 16bf

module.Conv3.layers.0.bias f4 [64]
0.024887254 0.019531613 -0.030570889 -0.038568776 0.052917026 0.020611148 0.059614476 -0.07554244
-0.075661846 0.0836213 -0.053067427 0.030962473 -0.101615414 -0.039234135 0.029060893 -0.10350549
-0.053703167 -0.106808074 0.16931354 -0.016151885 -0.10256848 -0.014659288 0.03539764 -0.13831614
0.025526438 -0.06429915 -0.15235196 0.03557781 -0.032203104 0.05794457 -0.04114262 -0.07268304
-0.039942756 0.04333484 0.02052193 -0.052030507 0.0054902597 -0.11075224 0.094418295 0.031326167
0.03917109 0.0021048514 -0.0069611184 -0.0007547055 0.06420102 0.0060936077 0.0036301592 0.043210424
-0.07769766 -0.06569168 0.05094488 -0.010719239 0.097114734 0.004221388 0.14986484 -0.06289581
-0.082162075 -0.08187382 0.08893636 -0.09548543 -0.08312602 -0.09627115 0.04560424 0.023940282
00000000: 5be0 cb3c c300 a03c cd6f fabc 4bfa 1dbd
00000010: 86bf 583d b6d8 a83c 4f2e 743d ffb5 9abd
00000020: 99f4 9abd a541 ab3d 3b5d 59bd 03a5 fd3c
00000030: be1b d0bd f9b3 20bd 1c11 ee3c b0fa d3bd
00000040: daf7 5bbd 31be dabd 8760 2d3e f550 84bc
00000050: 6c0f d2bd 832d 70bc 1efd 103d bfa2 0dbe
00000060: d21c d13c 46af 83bd 2702 1cbe 0aba 113d
00000070: 67e7 03bd 4957 6d3d 2a85 28bd d8da 94bd
00000080: 049b 23bd e07f 313d 9b1d a83c f11d 55bd
00000090: a3e7 b33b 12d2 e2bd 615e c13d de4f 003d
000000a0: dd71 203d 8cf1 093b 181a e4bb 6ed7 45ba
000000b0: d37b 833d e3ac c73b f7e7 6d3b 6afd 303d
000000c0: f31f 9fbd 5c89 86bd 94ab 503d bf9f 2fbc
000000d0: 17e4 c63d 9253 8a3b 2b76 193e 85cf 80bd
000000e0: 9744 a8bd 76ad a7bd 4424 b63d dd8d c3bd
000000f0: fa3d aabd cf29 c5bd 83cb 3a3d 691e c43c

module.Conv3.layers.1.weight f4 [64]
1.6886135 0.974396 1.5501969 0.88400894 0.8493846 1.4226606 0.8818522 1.0951235
0.31298247 0.6730202 0.35996678 0.7377274 1.735931 0.6700265 1.7944483 0.6439716
1.0368906 0.8564086 1.4294083 0.51138455 -0.32877442 0.70008814 0.30569386 0.7096926
1.6094785 1.6920296 1.3144044 -0.050482485 0.719132 0.6920275 0.90756917 1.6632764
1.0758561 0.72754866 0.58109796 0.8145172 1.3569773 -0.5004812 0.41260836 0.82712924
0.8304256 0.7561524 0.7977466 1.832101 1.5625433 0.87529814 0.24621457 0.56983197
1.5379446 0.8671665 1.5394171 0.8858995 1.1152512 1.1856737 0.9982657 0.7497556
1.0947727 1.4804693 1.5463473 -0.07729075 0.67571956 0.8680498 0.40254468 0.44092652
00000000: 7d24 d83f 0472 793f da6c c63f 694e 623f
00000010: 4571 593f be19 b63f 11c1 613f 022d 8c3f
00000020: 3d3f a03e 0d4b 2c3f 914d b83e b4db 3c3f
00000030: fd32 de3f db86 2b3f 7bb0 e53f 53db 243f
00000040: d5b8 843f 983d 5b3f daf6 b63f 19ea 023f
00000050: 1f55 a8be fa38 333f e883 9c3e 6aae 353f
00000060: 6403 ce3f 6d94 d83f 673e a83f b9c6 4ebd
00000070: 0919 383f b728 313f 7456 683f 3ee6 d43f
00000080: a7b5 893f a140 3a3f d6c2 143f 3384 503f
00000090: 6fb1 ad3f 891f 00bf 6741 d33e bebe 533f
000000a0: c696 543f 3493 413f 1f39 4c3f 4982 ea3f
000000b0: 6b01 c83f 8a13 603f ac1f 7c3e 82e0 113f
000000c0: 5edb c43f a0fe 5d3f 9f0b c53f 4fca 623f
000000d0: 8dc0 8e3f 28c4 973f 578e 7f3f fcef 3f3f
000000e0: 8321 8c3f 0580 bd3f b5ee c53f 9d4a 9ebd
000000f0: f5fb 2c3f 8338 5e3f 561a ce3e 1fc1 e13e

module.Conv3.layers.1.bias f4 [64]
0.7065142 0.10820341 -0.4774334 0.5798719 0.33768523 0.25200853 -0.57127917 -2.2544045
-1.0101832 1.0608126 1.9644635 -0.27311498 0.2947533 0.45499906 -0.6632372 -0.6367984
-1.17253 -1.9415724 -0.98323697 -0.774071 -0.95971215 0.0040408606 0.36385608 1.9064962
-0.18758154 -0.8667416 -0.75061864 -1.2567165 -1.9773128 -1.46603 0.18192464 0.557262
0.16879344 1.2786129 1.0198002 2.3169951 1.2700533 -1.872926 -1.0759187 2.092241
0.49552202 1.4730823 -0.73499906 -0.00013506261 -1.3263569 0.75276214 1.3745967 0.083916225
0.5772912 0.035285365 -0.9866735 0.099659 -0.6090159 0.3844759 -0.32983938 0.5062101
0.83670795 -0.5713971 -0.3382009 -1.2551286 0.9185509 0.627361 -1.9996423 1.2381327
00000000: 1dde 343f c099 dd3d 2772 f4be 7c72 143f
00000010: 14e5 ac3e 4307 813e 5a3f 12bf 2a48 10c0
00000020: af4d 81bf b5c8 873f 8a73 fb3f bad5 8bbe
00000030: e8e9 963e a3f5 e83e eac9 29bf 3805 23bf
00000040: 7715 96bf 7285 f8bf 6bb5 7bbf 8429 46bf
00000050: b2af 75bf 3269 843b 584b ba3e 1108 f43f
00000060: 6015 40be c7e2 5dbf 8b28 40bf 16dc a0bf
00000070: 9618 fdbf dfa6 bbbf 744a 3a3e b9a8 0e3f
00000080: 30d8 2c3e 96a9 a33f d088 823f a649 1440
00000090: 1b91 a23f 0abc efbf b4b7 89bf 47e7 0540
000000a0: 10b5 fd3e f68d bc3f e628 3cbf 989f 0db9
000000b0: 10c6 a9bf 05b5 403f c9f2 af3f 45dc ab3d
000000c0: 5bc9 133f 6387 103d a296 7cbf 051a cc3d
000000d0: 77e8 1bbf 06da c43e b5e0 a8be fc96 013f
000000e0: 7e32 563f 1547 12bf ab28 adbe 0ea8 a0bf
000000f0: 2726 6b3f bb9a 203f 47f4 ffbf 227b 9e3f

module.Conv3.layers.1.running_mean f4 [64]
-53.237617 -69.09874 70.67954 -52.69939 -76.36761 -44.703564 62.495228 33.073284
42.442448 -42.466095 -72.64738 106.568634 -77.863815 -60.40061 74.93299 61.446205
-80.9598 42.65414 44.269493 -34.68203 58.351093 -22.521887 83.420685 -38.068443
-77.269104 37.150707 59.129604 65.30274 92.538185 78.071625 -28.774279 -119.94173
8.230742 -62.908146 -80.043205 -89.60176 26.893812 -38.779644 -53.709087 -55.542076
-92.710175 -56.712704 -78.66453 -47.523846 99.86334 -141.59308 -67.355545 -23.858173
-47.97901 -30.225876 41.91629 61.500755 46.222935 -50.491398 57.770138 -100.829216
-53.083633 58.188614 155.62782 -131.42627 -98.56813 -107.50069 44.086708 -58.06182
00000000: 52f3 54c2 8e32 8ac2 ed5b 8d42 2dcc 52c2
00000010: 37bc 98c2 73d0 32c2 1dfb 7942 0b4b 0442
00000020: 11c5 2942 48dd 29c2 754b 91c2 2423 d542
00000030: 46ba 9bc2 3a9a 71c2 b1dd 9542 eac8 7542
00000040: 6beb a1c2 d79d 2a42 f613 3142 66ba 0ac2
00000050: 8567 6942 d32c b4c1 64d7 a642 1646 18c2
00000060: c889 9ac2 539a 1442 b784 6c42 019b 8242
00000070: 8d13 b942 ac24 9c42 b931 e6c1 2ae2 efc2
00000080: 1fb1 0341 f1a1 7bc2 1f16 a0c2 1a34 b3c2
00000090: 8726 d741 5b1e 1bc2 1bd6 56c2 162b 5ec2
000000a0: 9c6b b9c2 cfd9 62c2 3d54 9dc2 6b18 3ec2
000000b0: 08ba c742 d497 0dc3 0ab6 86c2 8add bec1
000000c0: 82ea 3fc2 98ce f1c1 48aa 2742 c600 7642
000000d0: 49e4 3842 31f7 49c2 9f14 6742 8fa8 c9c2
000000e0: a455 54c2 24c1 6842 b9a0 1b43 206d 03c3
000000f0: e222 c5c2 5a00 d7c2 ca58 3042 4e3f 68c2

module.Conv3.layers.1.running_var f4 [64]
8192.054 6607.8984 8643.727 6000.914 9135.974 6017.266 7227.3403 7801.1167
7630.3257 7461.6396 8163.43 4837.281 8844.798 5418.963 612.8763 7051.388
5104.3315 6736.5195 6231.176 5792.324 6991.2495 5779.847 615.24164 5297.888
6879.2734 5441.6924 10894.252 704.87506 620.6127 435.69113 4495.3584 4705.6978
2542.143 470.83017 7224.253 770.7789 1817.941 1298.2643 7028.274 636.30206
3243.3186 745.6762 8158.92 10086.829 844.94354 12925.05 7376.9463 3035.4946
6757.527 4769.366 3046.1873 5228.499 6668.365 6926.4185 7618.9663 10418.949
1296.5406 10059.394 9536.285 3046.2646 2548.3232 7894.1104 6899.964 7808.2935
00000000: 3700 0046 307f ce45 e80e 0746 5087 bb45
00000010: e5bf 0e46 210a bc45 b9da e145 efc8 f345
00000020: 9b72 ee45 1e2d e945 711b ff45 3f2a 9745
00000030: 3133 0a46 b457 a945 1538 1944 1b5b dc45
00000040: a782 9f45 2884 d245 68b9 c245 9802 b545
00000050: ff79 da45 c79e b445 77cf 1944 1b8f a545
00000060: 30fa d645 8a0d aa45 0239 2a46 0138 3044
00000070: 3627 1b44 77d8 d943 de7a 8c45 950d 9345
00000080: 4ae2 1e45 436a eb43 06c2 e145 d9b1 4044
00000090: 1d3e e344 7548 a244 31a2 db45 5513 1f44
000000a0: 19b5 4a45 476b 3a44 5cf7 fe45 519b 1d46
000000b0: 633c 5344 33f4 4946 9287 e645 eab7 3d45
000000c0: 372c d345 ee0a 9545 ff62 3e45 fe63 a345
000000d0: ec62 d045 5973 d845 bb17 ee45 cccb 2246
000000e0: 4d11 a244 932d 1d46 2401 1546 3c64 3e45
000000f0: 2c45 1f45 e2b0 f645 b69f d745 5902 f445

module.Conv4.layers.0.weight f4 [64, 64, 3, 3]
0.58338636 -0.70835084 0.59879833 0.5529726 0.6206228 0.5571279 0.5869804 0.55841947
0.6238368 -0.6221249 -0.5860904 -0.6099646 -0.559648 -0.5649952 -0.625559 -0.59873617
-0.60461783 -0.59259087 0.58863544 0.57143956 0.6463775 0.6267223 0.58263093 0.5640822
0.6270661 0.60749793 0.59311604 -0.5728596 -0.5727346 -0.6239504 -0.583404 -0.59522784
-0.614473 -0.5764798 -0.6157985 -0.5753149 -0.58081806 -0.6237391 -0.5785819 -0.6304772
-0.58278924 -0.6070764 -0.61083055 -0.63623273 -0.5722431 -0.59748656 -0.609518 -0.59092134
-0.6278516 -0.5533734 -0.5518254 -0.5595775 -0.61400706 -0.5984095 -0.5809573 -0.59149164
-0.5787731 -0.6860827 -0.62121356 -0.59375435 -0.62179005 -0.6010924 -0.57418716 -0.61904013
-0.6300241 -0.62814903 -0.6316666 -0.5727367 -0.57387656 -0.5776697 -0.62996846 -0.62210006
0.6249867 0.6408906 0.5750638 0.5606025 0.59881824 0.559337 0.6421351 0.63336617
0.55320615 -0.57566255 -0.59841794 -0.64670527 -0.60881734 -0.5857489 -0.6209567 -0.5900408
-0.57333547 -0.57609695 -0.6670562 0.5661612 0.6230298 0.5961501 0.6214744 0.5753342
0.6057864 0.54978603 0.535371 0.6249881 0.5588177 0.60947573 0.6167092 0.5987657
0.62748754 0.6390996 0.56541103 0.5608283 0.6068564 0.5404357 -0.6239629 0.5789621
0.22478262 -0.63194865 0.57064307 0.5856804 -0.61111826 0.6202953 -0.6391599 -0.5998254
-0.7492463 -0.6157166 -0.6438031 -0.68198776 -0.5977437 -0.5775379 -0.6070618 -0.6391158
-0.5860689 -0.60053575 -0.63057953 -0.5809097 -0.6066492 -0.6164713 -0.6111046 -0.5935053
-0.5701593 -0.60243946 -0.5656822 -0.63723975 -0.574601 -0.6332488 -0.6188325 -0.60672855
-0.5605419 -0.55834794 -0.5675043 -0.59688497 -0.6174482 -0.5761052 -0.61967415 -0.6262
-0.60121405 -0.5725432 -0.5800519 -0.6254652 -0.57967615 -0.5972608 -0.590951 -0.5745669
-0.586685 -0.61483574 0.58563155 -0.689186 -0.62171984 0.62472296 0.5624538 -0.7569005
0.58378637 0.620132 0.5964938 -0.56791276 -0.57832766 -0.62744784 0.60286087 -0.57229644
-0.5784089 -0.57978016 -0.5578763 -0.6345086 -0.56704825 -0.571243 -0.57003456 -0.6139867
-0.5762664 -0.60382384 -0.5739091 -0.6025192 -0.56205535 0.58542204 0.6174373 0.564587
0.56487525 0.5821943 0.61729693 0.5914755 0.5740069 0.5807458 -0.59086716 -0.62490827
-0.60339713 -0.6408459 -0.5851879 -0.62431437 -0.62907594 -0.6066433 -0.6159061 -0.6151723
-0.62526214 -0.56707877 -0.56328505 -0.6203957 -0.6260619 -0.62566936 -0.6266668 -0.5720632
-0.6128132 -0.6092532 -0.5877552 -0.5632897 -0.6374984 -0.56020993 -0.586541 -0.62034464
-0.5874532 0.6095506 0.62290096 0.620473 0.6001248 0.59514225 0.6099367 0.5721212
0.5761047 0.5546399 -0.5657055 -0.6370957 -0.62732005 -0.58425003 -0.6354641 -0.6097562
-0.6410631 -0.57448757 -0.60791016 0.64111215 -0.6422724 -0.56746256 0.57451886 -0.5844015
-0.6474723 0.54928195 -0.588901 -0.58716977 -0.6008912 -0.65632546 0.5876297 0.5848151
00000000: cf58 153f 7b56 35bf d94a 193f 9d8f 0d3f
00000010: 23e1 1e3f ef9f 0e3f 5944 163f 94f4 0e3f
00000020: c5b3 1f3f 9443 1fbf 050a 16bf a426 1cbf
00000030: 1745 0fbf 87a3 10bf a224 20bf c646 19bf
00000040: 3cc8 1abf 09b4 17bf d0b0 163f dd49 123f
00000050: ff78 253f df70 203f 4d27 153f b167 103f
00000060: 6787 203f fc84 1b3f 74d6 173f eda6 12bf
00000070: bc9e 12bf 37bb 1fbf f759 15bf da60 18bf
00000080: 1a4e 1dbf 2e94 13bf f8a4 1dbf d647 13bf
00000090: 7eb0 14bf 5ead 1fbf f21d 14bf f466 21bf
000000a0: ad31 15bf 5c69 1bbf 645f 1cbf 26e0 22bf
000000b0: 867e 12bf e1f4 18bf 5f09 1cbf 9f46 17bf
000000c0: e2ba 20bf e1a9 0dbf 6e44 0dbf 7940 0fbf
000000d0: 912f 1dbf 5d31 19bf 9eb9 14bf ff6b 17bf
000000e0: 792a 14bf 1ea3 2fbf da07 1fbf 4900 18bf
000000f0: a22d 1fbf 31e1 19bf eefd 12bf 6a79 1ebf
00000100: 4249 21bf 60ce 20bf e7b4 21bf df9e 12bf
00000110: 93e9 12bf 29e2 13bf 9d45 21bf f341 1fbf
00000120: 21ff 1f3f 6811 243f 6237 133f a583 0f3f
00000130: 274c 193f b630 0f3f f762 243f 4924 223f
00000140: eb9e 0d3f 9f5e 13bf eb31 19bf 7a8e 25bf
00000150: 74db 1bbf a4f3 15bf 05f7 1ebf ea0c 17bf
00000160: 1dc6 12bf 177b 13bf 32c4 2abf f1ef 103f
00000170: e27e 1f3f 4b9d 183f f218 1f3f 1a49 133f
00000180: d114 1b3f c7be 0c3f 130e 093f 38ff 1f3f
00000190: ad0e 0f3f 9a06 1c3f a7e0 1d3f b548 193f
000001a0: 06a3 203f 089c 233f c7be 103f 7292 0f3f
000001b0: f15a 1b3f fe59 0a3f 08bc 1fbf dc36 143f
000001c0: 6a2d 663e 63c7 21bf aa15 123f 27ef 153f
000001d0: 3f72 1cbf accb 1e3f fc9f 23bf 288e 19bf
000001e0: 9bce 3fbf 9a9f 1dbf 48d0 24bf c096 2ebf
000001f0: bb05 19bf 86d9 13bf 6768 1bbf 189d 23bf
00000200: 9d08 16bf b6bc 19bf a96d 21bf 80b6 14bf
00000210: 5d4d 1bbf 10d1 1dbf 5a71 1cbf f7ef 17bf
00000220: f6f5 11bf 7939 1abf 8cd0 10bf 2522 23bf
00000230: 0d19 13bf 981c 22bf cf6b 1ebf 9052 1bbf
00000240: ad7f 0fbf e4ef 0ebf f647 11bf 74cd 18bf
00000250: 1611 1ebf a17b 13bf f7a2 1ebf a54e 20bf
00000260: 2ae9 19bf 3192 12bf 487e 14bf 7d1e 20bf
00000270: a865 14bf 15e6 18bf 9148 17bf d116 13bf
00000280: fd30 16bf e065 1dbf f3eb 153f 7e6e 30bf
00000290: 0829 1fbf d8ed 1f3f f9fc 0f3f 3bc4 41bf
000002a0: 0673 153f f9c0 1e3f d1b3 183f bb62 11bf
000002b0: 480d 14bf 6ca0 20bf 1755 1a3f 0582 12bf
000002c0: 9b12 14bf 796c 14bf fbd0 0ebf 286f 22bf
000002d0: 132a 11bf fb3c 12bf c9ed 11bf 3b2e 1dbf
000002e0: 3286 13bf 3394 1abf b5eb 12bf b33e 1abf
000002f0: dce2 0fbf 38de 153f 5f10 1e3f c688 103f
00000300: aa9b 103f b00a 153f 2c07 1e3f f06a 173f
00000310: 1ef2 123f c2ab 143f 1243 17bf fdf9 1fbf
00000320: 3c78 1abf 7a0e 24bf e0ce 15bf 11d3 1fbf
00000330: 1f0b 21bf fa4c 1bbf 06ac 1dbf ef7b 1dbf
00000340: 2e11 20bf 132c 11bf 7333 10bf 41d2 1ebf
00000350: 9845 20bf de2b 20bf 3c6d 20bf bc72 12bf
00000360: 53e1 1cbf 05f8 1bbf 2077 16bf c133 10bf
00000370: 1833 23bf eb69 0fbf 8d27 16bf e8ce 1ebf
00000380: 5563 16bf 820b 1c3f 7076 1f3f 52d7 1e3f
00000390: c7a1 193f 3e5b 183f d024 1c3f 8976 123f
000003a0: 997b 133f e1fc 0d3f 13d2 10bf b418 23bf
000003b0: 0c98 20bf 6991 15bf c6ad 22bf fb18 1cbf
000003c0: b61c 24bf 9e11 13bf 00a0 1bbf ed1f 243f
000003d0: f76b 24bf 3a45 11bf ab13 133f 569b 15bf
000003e0: bfc0 25bf be9d 0c3f 37c2 16bf c250 16bf
000003f0: 01d4 19bf f204 28bf e66e 163f 71b6 153f

module.Conv4.layers.0.bias f4 [64]
-0.15440829 -0.030170597 -0.09389889 -0.021171985 -0.0059295 -0.011478807 -0.028815908 0.16493176
0.13627009 -0.0028584294 0.05468416 0.14011687 -0.04719088 -0.09625977 -0.056234036 -0.035565183
-0.066035226 0.071935736 -0.04381505 -0.06943909 0.0429942 -0.059580892 -0.09528843 -0.09460341
0.073346004 -0.13992369 0.034480665 0.022826692 0.08538718 0.14586511 0.017588101 0.1385077
0.048027456 -0.018980138 -0.08797434 0.025913196 -0.08565467 0.06423393 -0.09298934 -0.056284066
-0.023803925 -0.042008866 0.066393614 0.058063053 0.05523225 0.06253459 -0.0048017115 -0.0025958316
-0.056125734 0.072513044 -0.089044176 0.089696065 0.0056915814 -0.050478987 0.08166114 -0.10414931
0.041972242 -0.06532372 0.10884628 0.010115613 0.025641408 -0.008895615 -0.03194747 0.006766614
00000000: 351d 1ebe 5428 f7bc 104e c0bd df70 adbc
00000010: 404c c2bb 9b11 3cbc 570f ecbc dfe3 283e
00000020: 638a 0b3e 7d54 3bbb 7ffc 5f3d cc7a 0f3e
00000030: 394b 41bd d823 c5bd a955 66bd ccac 11bd
00000040: 7a3d 87bd 0b53 933d 6977 33bd 1536 8ebd
00000050: b01a 303d 180b 74bd 9526 c3bd 6fbf c1bd
00000060: 6e36 963d 2848 0fbe 993b 0d3d 0bff ba3c
00000070: 79df ae3d aa5d 153e ec14 903c f6d4 0d3e
00000080: 70b8 443d 3c7c 9bbc e42b b4bd e947 d43c
00000090: b76b afbd 148d 833d 3271 bebd 1f8a 66bd
000000a0: 7300 c3bc 7d11 2cbd 60f9 873d 86d3 6d3d
000000b0: 363b 623d 2312 803d ad57 9dbb d41e 2abb
000000c0: 19e4 65bd b881 943d cb5c b6bd 92b2 b73d
000000d0: 7280 ba3b 0ec3 4ebd f53d a73d 3c4c d5bd
000000e0: 16eb 2b3d 71c8 85bd ccea de3d f5bb 253c
000000f0: ee0d d23c eabe 11bc 5adb 02bd 79ba dd3b

module.Conv4.layers.1.weight f4 [64]
0.51750076 0.64702106 1.011251 0.9421925 1.1792179 0.5765109 0.4777994 1.4439497
1.0055561 1.5404458 0.7365146 1.3526684 1.5587771 1.5920995 1.6911647 0.2217289
0.2644677 1.2086843 0.6669838 0.8198182 1.1964355 1.1766628 1.2839799 1.3133333
0.39394483 1.6000171 1.472662 1.686777 0.9153888 0.8548611 1.1491374 1.1776509
0.17109795 0.43712392 1.3342067 1.346854 -0.22470976 0.55008394 0.7815056 1.6921132
0.4595651 0.56439275 0.8696762 1.3802937 1.446294 0.8876519 0.8287385 1.2457541
1.5743521 0.8479379 0.482478 0.3927956 0.83625436 0.8084257 0.9712939 0.41338417
0.8810285 0.99288166 0.731438 0.25753397 1.7664591 0.7544365 0.6986725 0.26083615
00000000: ee7a 043f 2ca3 253f ac70 813f 8733 713f
00000010: 9df0 963f 3896 133f 1fa2 f43e 58d3 b83f
00000020: 10b6 803f 542d c53f 398c 3c3f 3d24 ad3f
00000030: 0286 c73f ebc9 cb3f 1678 d83f e70c 633e
00000040: 4f68 873e 2bb6 9a3f 73bf 2a3f 9bdf 513f
00000050: cc24 993f e39c 963f 7459 a43f 4e1b a83f
00000060: 23b3 c93e 5ccd cc3f 3080 bc3f 4fe8 d73f
00000070: ec56 6a3f 2dd8 5a3f ef16 933f 44bd 963f
00000080: 4d34 2f3e b5ce df3e 49c7 aa3f b665 ac3f
00000090: 511a 66be 4dd2 0c3f c010 483f 2a97 d83f
000000a0: 1e4c eb3e 0b7c 103f 19a3 5e3f 77ad b03f
000000b0: 2920 b93f 283d 633f 3528 543f df74 9f3f
000000c0: 5f84 c93f 7512 593f 5b07 f73e 811c c93e
000000d0: c414 563f fdf4 4e3f b8a6 783f 17a7 d33e
000000e0: 158b 613f 7e2d 7e3f 853f 3b3f 7edb 833e
000000f0: 551b e23f c022 413f 33dc 323f 518c 853e
