DIDFuse/saved_models/encoder/VIS_AE13.pth (torch, 460446 bytes, 24 tensors)

module.Conv1.layers.1.weight f4 [64, 1, 3, 3]
0	0x3f262226	0.64895856
1	0x3e907bbb	0.282194
2	0x3f215a4c	0.6302841
3	0x3f140efb	0.5783536
4	0x3f29e97a	0.6637188
5	0x3ebdc959	0.3706768
6	0x3f18961e	0.5960406
7	0x3f5abe4d	0.85446626
8	0x3f16e8a4	0.5894873
9	0xbf3ea5f0	-0.7447195
10	0xbf265a1f	-0.64981264
11	0xbf5c02b5	-0.8594163
12	0xbf4a23d7	-0.7896094
13	0xbeaca88e	-0.33722347
14	0xbe958214	-0.29200804
15	0xbe9a7a82	-0.3017159
16	0xbea0023d	-0.31251708
17	0xbf12aa10	-0.57290745
18	0xbf22745b	-0.63458794
19	0xbf2c8b8d	-0.6740044
20	0xbefcfaa5	-0.49409977
21	0xbf4e61a7	-0.80617756
22	0x3f2b248e	0.66852653
23	0xbf68c6fe	-0.9092864
24	0xbed68291	-0.4189649
25	0x3e7d1396	0.24714503
26	0x3f1ec588	0.6202016
27	0xbfcbdba1	-1.59264
28	0xbf5ffb4e	-0.87492836
29	0xbf86d626	-1.0534103
30	0x3db2d743	0.08732464
31	0x3ec3a6df	0.3821325
32	0xbe1622e6	-0.1466175
33	0xbf891dc2	-1.0712206
34	0xbe5a1271	-0.21296097
35	0xc02aec01	-2.6706545
36	0xbf6c0d2d	-0.92207605
37	0xbf5fc610	-0.87411594
38	0xbf7ad361	-0.9797879
39	0x3d204fcf	0.03913861
40	0x3d309f2d	0.04312055
41	0xbe2493e0	-0.16072035
42	0x3e70a7f7	0.23501574
43	0x3f3fc85d	0.74915105
44	0x3eb79391	0.35854772
45	0x3e963d22	0.29343516
46	0x3f24cdb1	0.6437636
47	0x3f68d0ba	0.9094349
48	0x3f09f1ae	0.538844
49	0x3ed2e840	0.41192818
50	0x3ed9cffc	0.42541492
51	0x3f07730b	0.52909917
52	0x3f6ceea0	0.9255161
53	0x3f4b79d9	0.794828
54	0xbf26ffe7	-0.65234226
55	0xbf13ef33	-0.57786864
56	0xbecdcca0	-0.4019518
57	0x3ea4f534	0.32218325
58	0x3f511499	0.81672055
59	0xbf626641	-0.8843728
60	0x3ed54903	0.41657266
61	0x3efd2391	0.49441198
62	0xbf3b64b1	-0.7320052
63	0xbf3cda46	-0.7377056
64	0xbf428662	-0.759863
65	0xbf3263c6	-0.6968349
66	0xbef13248	-0.47108674
67	0xbf39f95e	-0.7264613
68	0xbed84d4e	-0.4224648
69	0xbf031a37	-0.51211876
70	0xbe8bf9ea	-0.27339107
71	0xbf096809	-0.5367437
72	0xbf961ee7	-1.1728181
73	0xbfa881aa	-1.316457
74	0xbfc2f19f	-1.5229987
75	0xbe8e1c91	-0.2775617
76	0x3e337e3f	0.17528628
77	0x3e1c4470	0.15260482
78	0xbf3c349d	-0.7351778
79	0xbd2551e2	-0.040361293
80	0x3e1c9455	0.15290959
81	0x3eeb2ac9	0.4593108
82	0x3e94c75e	0.29058355
83	0x3f397c81	0.724556
84	0x3f492a4b	0.7858016
85	0x3f6595c3	0.89681643
86	0x3f2eacea	0.68232596
87	0x3f50759a	0.81429446
88	0x3eb13363	0.34609517
89	0x3f0c635d	0.54839116
90	0xbe34243d	-0.17591949
91	0x3f236df6	0.6383966
92	0xbf1c4128	-0.6103692
93	0x3f1ddf57	0.61668915
94	0x40272ae0	2.611992
95	0x3fc3e5ea	1.5304539
96	0xbf6336b6	-0.8875536
97	0x3f49dec7	0.78855556
98	0xbf003b8c	-0.5009086
99	0xbf2fe51b	-0.6870896
100	0xbeacefbd	-0.33776656
101	0x3f67d33b	0.9055669
102	0xbf59916c	-0.8498752
103	0xbea5e479	-0.32400873
104	0xbf1dfd24	-0.61714387
105	0xbf24613f	-0.64210886
106	0xbecc5d9b	-0.39915165
107	0xbf386b34	-0.7203858
108	0x3ebd913a	0.37024862
109	0xbd6ad1d4	-0.057329014
110	0xbe6d77ad	-0.23190184
111	0x3f678eae	0.90452087
112	0x3f962f0b	1.1733106
113	0x3fa59b73	1.2938064
114	0x3f2801f0	0.65627956
115	0x3eaff07f	0.3436317
116	0x3f19976f	0.59996694
117	0x3f581571	0.84407717
118	0x3f8aa1c6	1.0830619
119	0x3f4701c2	0.7773706
120	0x3de0aaa9	0.10970051
121	0x3ed230cc	0.41052854
122	0x3e288a82	0.16459087
123	0xbe0191fa	-0.12653342
124	0xbec48f1d	-0.38390437
125	0xbf0b0d63	-0.543173
126	0xbf2e485a	-0.6807915
127	0x3e52b640	0.20577335
128	0xbeb7a79f	-0.35870072
129	0x3f1a5ec0	0.6030083
130	0x3ff1974b	1.8874296
131	0x3f69a5c9	0.91268593
132	0xbf1f92f8	-0.6233363
133	0x3f0c5600	0.54818726
134	0xbf41245a	-0.75446093
135	0x3f91814f	1.1367587
136	0x3ee80466	0.45315856
137	0x3fa28414	1.2696557
138	0x3e4afc4c	0.19822806
139	0xbf6289bb	-0.8849141
140	0x3e34b04a	0.17645374
141	0x3f0159c8	0.5052762
142	0xbf2453b8	-0.64190245
143	0x3dfab54a	0.122416094
144	0xbf65ad72	-0.8971778
145	0xbeeb63ad	-0.45974484
146	0x3ea80c67	0.32821962
147	0xbf64a6c8	-0.8931699
148	0x3f577d9c	0.8417604
149	0x3f51531d	0.81767446
150	0xbf388936	-0.7208437
151	0xbf560275	-0.835975
152	0x3e071c4d	0.1319439
153	0xbf4c4606	-0.7979435
154	0x3f0d8a57	0.55289215
155	0x3ebdb6f7	0.37053654
156	0xbef5dbb4	-0.48019183
157	0xbf069ae7	-0.5258011
158	0xbf4db5ff	-0.8035583
159	0xbf261485	-0.6487506
160	0xbf290959	-0.6602989
161	0xbf4f45fb	-0.80966157
162	0xbeab5663	-0.33464345
163	0x3f7b98bb	0.98279923
164	0xbd9e0ccf	-0.07717287
165	0x3fa0699b	1.2532228
166	0x40444ceb	3.0671947
167	0x3f3e23d8	0.74273443
168	0xbf1929cd	-0.5982941
169	0x3f764838	0.9620395
170	0xbf508a9e	-0.81461513
171	0xc04efc4a	-3.2341485
172	0xbf66ef19	-0.90208584
173	0xbf74207c	-0.9536207
174	0xbf9ac0c0	-1.2090073
175	0x3f6567cf	0.89611524
176	0x3e76360e	0.24044058
177	0xbf40b4da	-0.7527596
178	0xbf53f0ee	-0.82789505
179	0xbee2430a	-0.44191772
180	0x3db839d5	0.089954056
181	0xbe82f84b	-0.25580058
182	0xbf9ac99f	-1.209278
183	0x3f8b78bf	1.0896224
184	0x4015e147	2.3418748
185	0x3f6f532c	0.93486285
186	0xbc140d50	-0.009036377
187	0x3fad4004	1.3535161
188	0x3ecd2961	0.40070632
189	0x3f6d8bf7	0.92791694
190	0x3fbd584c	1.4792571
191	0x3f409245	0.7522319
192	0x3f5ea12c	0.8696468
193	0x4005e704	2.092225
194	0x3fa1f4f8	1.2652884
195	0xbf58168e	-0.84409416
196	0xbe131501	-0.14363481
197	0xbf4288f8	-0.7599025
198	0x3ee83596	0.45353383
199	0xbebda045	-0.37036338
200	0x3f4ecf25	0.8078483
201	0xbeff93dc	-0.49917495
202	0xbf6c7b73	-0.9237587
203	0xbf470d27	-0.77754444
204	0x40119546	2.274736
205	0xbed94e68	-0.42442632
206	0x400ec6b7	2.2308786
207	0x3deccc59	0.11562414
208	0x3dbb9fbf	0.091613285
209	0xbee750b1	-0.4517875
210	0x3f8e0f88	1.109849
211	0x3f486a6f	0.78287405
212	0xbf2e4886	-0.6807941
213	0x3e37bc68	0.17942965
214	0x3f2e766c	0.6814945
215	0xbf6597fd	-0.8968504
216	0x3eae6466	0.34060973
217	0x3f336811	0.7008067
218	0x3eb5daae	0.35518402
219	0x3f5b7784	0.8572924
220	0x3ebd404b	0.36963114
221	0x3efce3e5	0.4939262
222	0x3ea3b83a	0.3197649
223	0x3f5222fe	0.82084644
224	0x3f5d2f37	0.8640017
225	0xbf704196	-0.93850076
226	0xbe9f0459	-0.31058004
227	0xbf29e892	-0.663705
228	0xbf36b040	-0.71362686
229	0xbf2dbb89	-0.6786428
230	0xbf4d43ca	-0.8018156
231	0x3e8eb40c	0.2787174
232	0x3f03b1d2	0.5144321
233	0x3ec446aa	0.38335162
234	0x3e905419	0.2818916
235	0xbe5f7082	-0.21820262
236	0x3f4fc7d0	0.81164265
237	0xbf3d747f	-0.74005884
238	0xbfd8fa85	-1.6951452
239	0xbf96f3e1	-1.1793176
240	0xbd2fbf4d	-0.042907048
241	0xbfb0242e	-1.3761041
242	0xbf0ce53a	-0.5503727
243	0x3f42f348	0.7615247
244	0xbf6f8c21	-0.93573195
245	0x3fb79a72	1.4344008
246	0xbee8baf7	-0.45455143
247	0xc015c424	-2.3400965
248	0xbf5e9118	-0.86940145
249	0x3f40da7f	0.753334
250	0xbd2ff4d8	-0.04295811
251	0x3f3450ad	0.704356
252	0xbe167c9c	-0.14695972
253	0xbe4bfde2	-0.19921067
254	0xbf1cddf5	-0.6127618
255	0x40241bae	2.5641894

module.Conv1.layers.1.bias f4 [64]
0	0xbeeb0b4b	-0.45907053
1	0x3ef17186	0.47156924
2	0x3f103cd9	0.56342846
3	0xbeaeb429	-0.34121826
4	0xbea155f0	-0.31510878
5	0xbf3436ca	-0.703961
6	0xbe16e927	-0.14737378
7	0x3eae2533	0.34012756
8	0x3ef9831c	0.4873284
9	0xbe691e42	-0.22765449
10	0x3dc3ddbb	0.09563776
11	0xbd74afd2	-0.059737988
12	0x3ed8f02b	0.42370734
13	0x3e31d481	0.1736622
14	0x3f23121e	0.6369952
15	0xbe6b3158	-0.22968042
16	0x3e90c7fd	0.2827758
17	0xbf04a8fe	-0.5182036
18	0xbeb89c96	-0.36056966
19	0x3f09ec60	0.53876305
20	0xbec63827	-0.38714716
21	0x3e68a260	0.22718191
22	0x3ee7c636	0.4526841
23	0x3e720faf	0.23638795
24	0x3d6cbe86	0.057798885
25	0xbe7d0c46	-0.24711713
26	0x3efa1446	0.48843592
27	0x3e8d3406	0.27578753
28	0xbf285db9	-0.6576801
29	0xbf19d85d	-0.6009577
30	0xbec81ed1	-0.3908601
31	0xbe67ee30	-0.22649455
32	0xbeab903f	-0.3350849
33	0xbe3c5af1	-0.18394066
34	0xbc03299f	-0.008005529
35	0x3f39245d	0.7232111
36	0xbe3ccf44	-0.1843844
37	0xbf4d0f73	-0.801017
38	0x3e91101f	0.28332612
39	0xbe8b981f	-0.27264497
40	0xbdb47dea	-0.08813079
41	0x3e9de26e	0.30836815
42	0xbf2dcee9	-0.67893845
43	0x3ed70ef6	0.42003602
44	0x3e8119f1	0.25215104
45	0xbe0d2761	-0.13784553
46	0xbe588357	-0.21143852
47	0x3e6de046	0.23230085
48	0x3dcfd014	0.1014711
49	0x3f51826e	0.81839645
50	0xbbcb072e	-0.0061959242
51	0xbd9e187a	-0.07719512
52	0xbe4c0c9c	-0.19926685
53	0xbe92569f	-0.28581712
54	0x3ee128be	0.43976396
55	0xbf37048c	-0.71491313
56	0xbe0982e7	-0.13428842
57	0xbed8d40d	-0.42349282
58	0x3dc8655c	0.09784958
59	0xbecae7b6	-0.39629906
60	0x3e931b33	0.2873169
61	0x3ef51246	0.47865504
62	0x3e68c197	0.22730099
63	0xbe228333	-0.15870361

module.Conv1.layers.2.weight f4 [64]
0	0x3eb57f81	0.3544884
1	0x3ef2103f	0.4727802
2	0x3ef28004	0.47363293
3	0x3fc3ad1d	1.5287205
4	0x3e41774f	0.18893169
5	0x3fd64366	1.6739318
6	0xbe04fffd	-0.12988277
7	0x3eeaec0f	0.45883223
8	0x3fb35c99	1.4012634
9	0x3f2d3ee4	0.6767409
10	0x4002e819	2.045416
11	0x3fcaa730	1.5832272
12	0x3eef09bd	0.46687117
13	0x3f13c576	0.57723176
14	0x3fec7da8	1.8475847
15	0x3f4acc72	0.7921821
16	0x3f02c985	0.51088744
17	0xbd550247	-0.052004125
18	0x40127a42	2.288712
19	0x3f9fffce	1.249994
20	0x406a59a7	3.661722
21	0x3f440f2d	0.76585656
22	0x400f87d0	2.2426643
23	0x3fe16557	1.7609051
24	0x3edd1cb1	0.43185952
25	0x3dcbb1ad	0.09945998
26	0x40074a76	2.1139197
27	0x3fdb123e	1.7114942
28	0x3fc5e74b	1.546121
29	0x3fd6e883	1.6789707
30	0x3fb07070	1.3784313
31	0x3ec05092	0.3756147
32	0x3efb858e	0.49125332
33	0x3fc4690c	1.5344558
34	0xbdb7380d	-0.08946238
35	0x3f0c92e9	0.5491167
36	0x3fe463ad	1.7842919
37	0x3fe0a17f	1.7549285
38	0x3f596741	0.8492318
39	0x3f867823	1.0505413
40	0x4004e7e0	2.0766525
41	0x3fce6b35	1.6126467
42	0x3fe727a8	1.8058977
43	0x3f5f1a9a	0.87149966
44	0x3ff14e5b	1.8852037
45	0x3e851f0c	0.2600025
46	0x3f07abd6	0.52996576
47	0x3ef5f214	0.48036253
48	0x3ce5637c	0.02800154
49	0x3facdd7b	1.350509
50	0x3d82c36c	0.0638493
51	0x3fb93aa6	1.4471023
52	0x3fa53031	1.2905332
53	0x3fe0e917	1.7571133
54	0x3fa8b598	1.3180418
55	0x3fceffdd	1.6171833
56	0x3fbd8f08	1.4809275
57	0x3f105ade	0.5638865
58	0x3d9cf86c	0.0766457
59	0x3fef3b87	1.8690041
60	0x3f5cd930	0.862689
61	0x3fae3e1e	1.3612707
62	0x3ec07d32	0.37595516
63	0x3f2085ae	0.6270398

module.Conv1.layers.2.bias f4 [64]
0	0xbf02687c	-0.5094068
1	0xbf1af593	-0.60530967
2	0xbf235635	-0.63803416
3	0x3f1d0a7b	0.61344117
4	0xbf4dab6d	-0.803397
5	0x3f50e4f2	0.8159934
6	0xbf4fbd13	-0.8114788
7	0xbf156908	-0.5836339
8	0xbf30eecc	-0.69114375
9	0xc00dcb5a	-2.2155366
10	0x3f505244	0.8137553
11	0x3f7648da	0.9620491
12	0xbfa9f3a2	-1.3277476
13	0xbf8b6656	-1.0890605
14	0x3f8203a0	1.0157356
15	0xbe7a8f35	-0.24468692
16	0xbfa504d4	-1.2892098
17	0xbf36ac08	-0.7135625
18	0x3ed9ae81	0.42515948
19	0xbf289e5e	-0.6586665
20	0xbeadd872	-0.33954197
21	0xbfa8fc0b	-1.3201917
22	0x3f30d843	0.6907999
23	0x3edafaa6	0.42769355
24	0xbee654f9	-0.44986704
25	0xbf5b431b	-0.8564927
26	0x3f84683f	1.0344313
27	0x3fdd0720	1.7267799
28	0x3f3f3864	0.7469542
29	0x3f4c342c	0.7976711
30	0x3ea54b0e	0.32283825
31	0xbf301b3f	-0.68791574
32	0xbf052881	-0.5201493
33	0x3eb031d8	0.34413028
34	0xbf333167	-0.69997257
35	0xbf346e5f	-0.7048091
36	0x3f40f3f1	0.75372225
37	0x3f26029e	0.64847744
38	0xc0210352	-2.5158277
39	0xbdde151d	-0.10843871
40	0x3f26e83a	0.651981
41	0x3f43d955	0.765035
42	0x3f42f5e9	0.7615648
43	0xbf8d31e6	-1.1030853
44	0xbf9841f3	-1.1895126
45	0xbf333083	-0.699959
46	0xbea8d22f	-0.32972857
47	0xbf3d08b1	-0.7384139
48	0xbf401f35	-0.7504762
49	0x3f314793	0.6924984
50	0xbf644b95	-0.8917783
51	0x3eee319f	0.46522233
52	0xbed7fe99	-0.4218643
53	0xbf16acf6	-0.5885767
54	0xbd87261a	-0.06599064
55	0x3e0de3ac	0.13856381
56	0xbf157298	-0.5837798
57	0xbeca3d0a	-0.39499694
58	0xbf465445	-0.77472335
59	0x3f0ed879	0.5579906
60	0x3f9442a0	1.1582832
61	0xbfa1f7db	-1.2653764
62	0xbf8630c3	-1.0483631
63	0xbe676801	-0.22598268

module.Conv1.layers.2.running_mean f4 [64]
0	0xc030637e	-2.7560725
1	0x40275bb4	2.614972
2	0x3fd1d083	1.6391758
3	0x403453c3	2.8176124
4	0x3eaf3242	0.3421803
5	0xc047650a	-3.115542
6	0x3ebf7304	0.37392437
7	0x4026b03d	2.6045067
8	0x401bd162	2.4346547
9	0xc02b0476	-2.6721473
10	0xbfe0e171	-1.7568799
11	0x3fc78d72	1.5590041
12	0xbfe66e27	-1.8002366
13	0xbf5daa20	-0.86587715
14	0xbe81ff1e	-0.2538995
15	0xbfb3ef66	-1.4057434
16	0x3eecfc44	0.46286213
17	0x3f94171b	1.1569551
18	0xc023f0da	-2.5615754
19	0x406ece31	3.731335
20	0xc0233729	-2.5502417
21	0xbfe377a3	-1.7770885
22	0xbf59b69b	-0.8504426
23	0xbe641cf4	-0.2227667
24	0xc00ca454	-2.1975298
25	0x3f857eff	1.0429381
26	0x4024d3b0	2.5754204
27	0x3f687e20	0.9081745
28	0xc03e99c0	-2.9781342
29	0x3fcda54c	1.606607
30	0x3ffc2627	1.9699143
31	0x4009ac2d	2.1511338
32	0xbfe5578e	-1.7917345
33	0x4011f761	2.2807238
34	0x3f90dacd	1.1316773
35	0x4045f8f1	3.0933192
36	0xbf962e67	-1.1732911
37	0x3eb32346	0.3498785
38	0xbf50c8df	-0.81556505
39	0x400bdbac	2.1852827
40	0x40161e8f	2.3456151
41	0x4032f6c6	2.7963119
42	0xbbbd854f	-0.005783714
43	0xbf0a7f59	-0.5410057
44	0xc00f0205	-2.2344983
45	0x3f14232a	0.57866156
46	0xc03dec99	-2.9675658
47	0x3ffed3b3	1.9908355
48	0x3fd18829	1.6369678
49	0x404f7c9d	3.2419808
50	0x40023e0d	2.0350373
51	0x3f4ef3df	0.8084087
52	0x401f7865	2.4917233
53	0xc02b9de1	-2.6815112
54	0x403102d7	2.7657983
55	0xc0487f09	-3.1327536
56	0xc0171531	-2.3606684
57	0x3ffce4a8	1.975728
58	0x402bcd95	2.6844227
59	0xc04caef7	-3.198179
60	0xbf5ac464	-0.8545592
61	0x4040e1a1	3.0137713
62	0xbfd5bf59	-1.669902
63	0xbffd15e7	-1.9772309

module.Conv1.layers.2.running_var f4 [64]
0	0x404af0ec	3.1709547
1	0x403072f5	2.7570164
2	0x3f344340	0.70415115
3	0x40be7e41	5.952912
4	0x3e941dfc	0.28929126
5	0x405f6019	3.4902403
6	0x3e38d3ab	0.18049495
7	0x404526b2	3.0804868
8	0x40120aa3	2.2818992
9	0x4065f0f9	3.5928328
10	0x400718e1	2.1108935
11	0x3fcbb742	1.5915301
12	0x403fb2e2	2.9952931
13	0x3f2cd624	0.6751425
14	0x3f01a548	0.50642824
15	0x3f5a0f2d	0.85179406
16	0x3e39c12b	0.18140094
17	0x3fd9e66e	1.7023447
18	0x403fa10a	2.994204
19	0x40c3de72	6.120904
20	0x4037bc07	2.8708513
21	0x402b2a9f	2.6744764
22	0x3f849623	1.0358318
23	0x3e1d1c06	0.15342721
24	0x4043d715	3.0600026
25	0x3f82c3d0	1.0216007
26	0x402a902c	2.6650496
27	0x3e89e332	0.2693115
28	0x40555d82	3.3338323
29	0x403a06c3	2.9066627
30	0x40569fb1	3.3534968
31	0x4059a5f5	3.4007542
32	0x3fa19898	1.2624693
33	0x40697d26	3.6482635
34	0x3f4a96d7	0.79136413
35	0x40580239	3.3751357
36	0x3f1f7e7a	0.6230236
37	0x3f5bf6c2	0.859234
38	0x3f4028e3	0.7506239
39	0x4068723c	3.6319723
40	0x4063da97	3.5602167
41	0x406c8a1f	3.6959302
42	0x3e8c2344	0.27370656
43	0x3f142d46	0.5788158
44	0x406dffca	3.7187371
45	0x3ea79abb	0.32735237
46	0x40921956	4.565593
47	0x3fef44d0	1.8692875
48	0x3fb6fe19	1.4296294
49	0x40623e1b	3.5350406
50	0x40200040	2.5000153
51	0x3efc05c4	0.4922315
52	0x408ba6ba	4.3641024
53	0x405d50c9	3.4580557
54	0x40540f10	3.3134193
55	0x40613014	3.5185595
56	0x403ece8e	2.981357
57	0x405d7264	3.4601068
58	0x4080928c	4.017889
59	0x4098428b	4.758123
60	0x3f4ec055	0.80762225
61	0x4075899c	3.836524
62	0x4009e1cb	2.1544063
63	0x3ffcfa90	1.9763966

module.Conv2.layers.0.weight f4 [64, 64, 3, 3]
0	0xbf1b9740	-0.60777664
1	0xbf19b609	-0.6004339
2	0xbf1b3851	-0.60632807
3	0xbf22ae18	-0.63546896
4	0xbf1f16f5	-0.62144405
5	0xbf131622	-0.57455647
6	0xbf1453ae	-0.57940185
7	0xbf2406e9	-0.64073044
8	0xbf12fa8d	-0.5741356
9	0x3f19b349	0.6003919
10	0x3f17a051	0.59229
11	0x3f0f6b78	0.5602336
12	0x3f23e139	0.6401554
13	0x3f205c0e	0.62640464
14	0x3f18cb3f	0.5968513
15	0x3f165eb6	0.5873827
16	0x3f112268	0.56693125
17	0x3f0fd9ce	0.5619172
18	0x3f16b01a	0.5886246
19	0x3f1d6642	0.6148416
20	0x3f241bc1	0.6410485
21	0x3f132eaa	0.5749308
22	0x3f1dfea1	0.6171666
23	0x3f15c23f	0.5849952
24	0x3f1af755	0.6053365
25	0x3f18e631	0.59726244
26	0x3f18033d	0.5937994
27	0x3f1dd95b	0.61659783
28	0x3f1bf6b8	0.6092334
29	0x3f1c9f6b	0.6118075
30	0x3f11da5a	0.56973803
31	0x3f1dd198	0.6164794
32	0x3f1da1d6	0.6157507
33	0x3f1cab23	0.61198634
34	0x3f23c55c	0.6397302
35	0x3f13b6d5	0.57700855
36	0xbf22960b	-0.635102
37	0xbf162896	-0.5865568
38	0xbf0fe823	-0.5621359
39	0xbf1f797d	-0.6229475
40	0xbf15c7e2	-0.5850812
41	0xbf1b64ee	-0.6070088
42	0xbf205e55	-0.6264394
43	0xbf22168d	-0.6331566
44	0xbf184128	-0.5947442
45	0x3f23a650	0.6392565
46	0x3f1c6103	0.6108553
47	0x3f19e65a	0.60117114
48	0x3f1339e7	0.57510227
49	0x3f1c5cc7	0.61079067
50	0x3f1a7027	0.6032738
51	0x3f241e9a	0.64109194
52	0x3f158c74	0.5841744
53	0x3f1a7657	0.6033682
54	0xbf1b8bcd	-0.60760194
55	0xbf1cbb8c	-0.61223674
56	0xbf11bd4a	-0.5692946
57	0xbf19051c	-0.5977342
58	0xbf16bc37	-0.58880943
59	0xbf198b2e	-0.59977996
60	0xbf11574d	-0.56773835
61	0xbf15baa6	-0.5848793
62	0xbf1ddecc	-0.61668086
63	0x3f23a286	0.63919866
64	0x3f21c742	0.6319467
65	0x3f1c432b	0.6103999
66	0x3f186d19	0.5954147
67	0x3f11dbaa	0.56975806
68	0x3f1be08d	0.6088951
69	0x3f14c0a1	0.5810643
70	0x3f1b3c54	0.6063893
71	0x3f1c1b92	0.6097957
72	0xbf100785	-0.56261474
73	0xbf18cd34	-0.59688115
74	0xbf1dcadc	-0.61637664
75	0xbf13ddb6	-0.5776018
76	0xbf2195f4	-0.63119435
77	0xbf13a049	-0.5766645
78	0xbf22d9d0	-0.63613605
79	0xbf11d48f	-0.56964964
80	0xbf16afc8	-0.5886197
81	0x3f179252	0.5920764
82	0x3f19d63b	0.60092515
83	0x3f1dfa52	0.61710083
84	0x3f14472b	0.57921094
85	0x3f159846	0.58435476
86	0x3f12b07a	0.5730053
87	0x3f1f51fb	0.6223447
88	0x3f1878b8	0.595592
89	0x3f10982c	0.56482196
90	0x3f1ffafa	0.62492335
91	0x3f112189	0.56691796
92	0x3f1916a6	0.59800184
93	0x3f14b31c	0.580858
94	0x3f1b55bf	0.60677713
95	0x3f16d9eb	0.58926266
96	0x3f195c74	0.599067
97	0x3f134431	0.57525927
98	0x3f218e8f	0.6310815
99	0x3f124b61	0.5714627
100	0x3f18259c	0.5943239
101	0x3f23366b	0.6375491
102	0x3f1586ef	0.5840902
103	0x3f1dd4e8	0.61652994
104	0x3f1c1e6f	0.6098394
105	0x3f16c744	0.58897805
106	0x3f10c12d	0.5654476
107	0x3f0ffc07	0.5624394
108	0x3f20b368	0.6277375
109	0x3f1b0f4c	0.60570216
110	0x3f2407b7	0.6407427
111	0x3f21f1e9	0.6325975
112	0x3f154387	0.58306164
113	0x3f17942c	0.5921047
114	0x3f0f3a6b	0.55948514
115	0x3f10fdc2	0.56637204
116	0x3f15043d	0.5820959
117	0x3f0f4144	0.5595896
118	0x3f0f7f89	0.5605398
119	0x3f20e65b	0.62851495
120	0x3f226659	0.6343742
121	0x3f1ed4cf	0.6204347
122	0x3f1cbcba	0.61225474
123	0x3f1fcf44	0.6242564
124	0x3f130880	0.57434845
125	0x3f1b498f	0.60659117
126	0x3f200de8	0.6252122
127	0x3f12301c	0.5710466
128	0x3f19f11e	0.6013354
129	0x3f1a0577	0.6016459
130	0x3f16ce44	0.58908486
131	0x3f208fba	0.6271931
132	0x3f1a6eb9	0.603252
133	0x3f1a4494	0.6026089
134	0x3f1df938	0.617084
135	0xbf1bedb5	-0.6090959
136	0xbf19dfab	-0.60106915
137	0xbf0f9d96	-0.5609983
138	0xbf111269	-0.56668717
139	0xbf114315	-0.56742984
140	0xbf13aa0e	-0.5768136
141	0xbf212723	-0.6295034
142	0xbf134518	-0.57527304
143	0xbf13c712	-0.5772563
144	0x3f18c91b	0.5968186
145	0x3f1956b1	0.59897906
146	0x3f2217d9	0.6331764
147	0x3f177aac	0.5917156
148	0x3f19e1b8	0.60110044
149	0x3f1d1866	0.61365354
150	0x3f1cee63	0.6130125
151	0x3f0fa105	0.5610507
152	0x3f21bca8	0.6317849
153	0xbf116ca6	-0.5680641
154	0xbf18c730	-0.59678936
155	0xbf1c8f9e	-0.6115664
156	0xbf151f8c	-0.5825126
157	0xbf14c134	-0.58107305
158	0xbf17de53	-0.59323615
159	0xbf17ad5a	-0.5924889
160	0xbf154970	-0.5831518
161	0xbf243a96	-0.64151895
162	0x3f14484e	0.5792283
163	0x3f1a6d4f	0.6032304
164	0x3f1edba4	0.62053895
165	0x3f16f13a	0.5896183
166	0x3f222cd3	0.63349646
167	0x3f24aa87	0.64322704
168	0x3f1e3d47	0.6181225
169	0x3f23cc09	0.6398321
170	0x3f0f7662	0.5604001
171	0x3f1af32e	0.6052731
172	0x3f193d2d	0.5985897
173	0x3f14599e	0.57949245
174	0x3f216374	0.6304238
175	0x3f1549cc	0.5831573
176	0x3f198834	0.59973454
177	0x3f230806	0.6368412
178	0x3f22a6cc	0.6353576
179	0x3f19828d	0.5996483
180	0x3f21b575	0.63167506
181	0x3f21a5d0	0.63143635
182	0x3f128621	0.57235914
183	0x3f22ac37	0.6354403
184	0x3f1b2786	0.6060718
185	0x3f1d21e2	0.61379826
186	0x3f21c37a	0.631889
187	0x3f15c564	0.5850432
188	0x3f0f8aec	0.5607135
189	0x3f1a0274	0.60159993
190	0x3f18b583	0.59651965
191	0x3f14aa45	0.5807231
192	0x3f124338	0.5713382
193	0x3f124e69	0.57150894
194	0x3f169cb4	0.5883286
195	0x3f0fb606	0.5613712
196	0x3f14b997	0.5809569
197	0x3f17c3b0	0.5928297
198	0xbf12ee26	-0.57394636
199	0xbf104662	-0.56357396
200	0xbf209b18	-0.62736654
201	0xbf12c222	-0.57327473
202	0xbf175c0c	-0.5912483
203	0xbf15452e	-0.58308685
204	0xbf237625	-0.6385215
205	0xbf1310ce	-0.57447517
206	0xbf1c42d8	-0.61039495
207	0x3f220c1f	0.63299745
208	0x3f1f6d90	0.62276554
209	0x3f1a2c2f	0.6022367
210	0x3f0ff607	0.5623478
211	0x3f144555	0.5791829
212	0x3f153836	0.58288896
213	0x3f17a7e4	0.59240556
214	0x3f208ff1	0.6271964
215	0x3f1617dd	0.5863016
216	0xbf148bee	-0.58026016
217	0xbf1e7b4e	-0.619069
218	0xbf228e7a	-0.6349865
219	0xbf1d38f5	-0.61415035
220	0xbf1fcb63	-0.6241972
221	0xbf12f6f8	-0.57408094
222	0xbf138c70	-0.57636166
223	0xbf10eeeb	-0.5661456
224	0xbf1a42cc	-0.60258174
225	0xbf21f9c5	-0.63271743
226	0xbf22ad3e	-0.63545597
227	0xbf1f79fa	-0.62295496
228	0xbf1fe298	-0.6245513
229	0xbf1c48c3	-0.61048526
230	0xbf1b9d69	-0.60787064
231	0xbf140d57	-0.57832855
232	0xbf15cf41	-0.5851937
233	0xbf12bbb8	-0.57317686
234	0xbf22d36f	-0.6360387
235	0xbf104ac0	-0.5636406
236	0xbf1f6bd9	-0.6227394
237	0xbf100b2f	-0.56267065
238	0xbf14f009	-0.58178765
239	0xbf1929eb	-0.59829587
240	0xbf18c2d9	-0.59672314
241	0xbf21c341	-0.6318856
242	0xbf1c2e37	-0.6100802
243	0xbf131385	-0.5745166
244	0xbf1d370d	-0.61412126
245	0xbf218904	-0.63099694
246	0xbf16666c	-0.58750033
247	0xbf1f01c6	-0.6211208
248	0xbf180d41	-0.59395224
249	0xbf114ff9	-0.56762654
250	0xbf176c33	-0.59149474
251	0xbf1dfd20	-0.61714363
252	0x3f12e0cf	0.5737428
253	0x3f214382	0.62993634
254	0x3f1bf2cd	0.6091736
255	0x3f21212c	0.6294124

module.Conv2.layers.0.bias f4 [64]
0	0xbc47fc8e	-0.01220621
1	0xbe35a581	-0.17738916
2	0x3d30b22e	0.043138675
3	0xbe5b36af	-0.21407579
4	0x3ec72a29	0.38899353
5	0xbda8d359	-0.08243436
6	0xbe0b049a	-0.13575974
7	0xbe947b8a	-0.29000503
8	0x3d4d806e	0.05017131
9	0x3d283226	0.04106345
10	0x3d81221b	0.06305333
11	0xbd02923f	-0.031877752
12	0x3e04a621	0.12953998
13	0xbdebb6f6	-0.115095064
14	0xbd6d863b	-0.05798934
15	0xbc8c5123	-0.017128533
16	0xbdebc578	-0.115122736
17	0x3e0d0fbf	0.13775538
18	0xbe1dac51	-0.15397765
19	0xbe5da2be	-0.21644112
20	0xbe314552	-0.173116
21	0x3e9b61c5	0.3034803
22	0xbdee159a	-0.11625214
23	0xbd352242	-0.044222124
24	0x3e7838c3	0.24240403
25	0x3d0d600d	0.03451543
26	0x3d065b62	0.032801993
27	0xbd8da714	-0.06916633
28	0x3e69f70b	0.22848146
29	0x3e3cf8cc	0.18454283
30	0xbd872edf	-0.06600737
31	0xbdf0fc70	-0.11766899
32	0x3d1084d1	0.035282914
33	0x3e6e61b9	0.23279466
34	0x3cfed013	0.031105077
35	0x3c1a3d22	0.009413989
36	0xbe2698cc	-0.16269225
37	0xbe08903e	-0.13336274
38	0x3da9e349	0.08295304
39	0x3c7b9a36	0.015356591
40	0x3ddaa593	0.10676112
41	0xbdc6b0cf	-0.09701692
42	0xbd418aec	-0.047251627
43	0xbea0da6d	-0.31416646
44	0xbc65eefd	-0.01403403
45	0xbdb296bb	-0.08720156
46	0x3c59cbeb	0.013293247
47	0xbd8666f5	-0.06562606
48	0x3e02e4d3	0.12782602
49	0x3d9eb1ce	0.07748757
50	0xbc824036	-0.015899759
51	0x3de17f83	0.11010649
52	0x3d54539f	0.05183756
53	0x3e12045f	0.1425948
54	0x3d905d9a	0.07049103
55	0xbd896ef6	-0.06710617
56	0xbe019549	-0.12654604
57	0x3e329519	0.17439689
58	0xbdba4306	-0.09094815
59	0x3bdcb6a8	0.0067356415
60	0xbe106e13	-0.1410449
61	0xbe065915	-0.1311992
62	0x3db127b6	0.086501524
63	0xbe1e19e1	-0.1543956

module.Conv2.layers.1.weight f4 [64]
0	0x3fbb242b	1.4620413
1	0x3ed255ef	0.41081187
2	0x3feac71d	1.8342015
3	0x3ecc83b5	0.39944234
4	0x3efbb107	0.491585
5	0x3fc03fe0	1.5019493
6	0x3f94002c	1.1562552
7	0x3f1c1001	0.6096192
8	0xbcaa60d2	-0.02079812
9	0x3f5e634e	0.86870277
10	0x3f8cb13f	1.0991591
11	0x3e00945b	0.12556593
12	0x3f433be1	0.7626324
13	0x3f1a5a3b	0.6029393
14	0x3f5cecb2	0.8629867
15	0x3fc88209	1.5664684
16	0x3e7ac5d5	0.2448953
17	0x3f55386d	0.83289224
18	0x3f1dfa21	0.6170979
19	0x3fe05801	1.7526857
20	0x3fe53822	1.7907755
21	0x3e8a4fdd	0.27014056
22	0x3f513765	0.8172515
23	0x3f882285	1.0635535
24	0x3fe025f9	1.7511588
25	0x3f9ff396	1.2496212
26	0x3fd49b70	1.6609936
27	0x3f63fba9	0.8905588
28	0x40103af9	2.2535994
29	0x3e8c139e	0.27358717
30	0x3ed5015d	0.41602603
31	0xbd3dfc14	-0.04638298
32	0x3e5b732a	0.2143065
33	0x3e40a919	0.18814506
34	0x3fb5e0cb	1.4209226
35	0x3ea6223f	0.32448003
36	0x3fa3baea	1.2791417
37	0x40113d1e	2.2693553
38	0x3eb7d972	0.35908085
39	0x3f513752	0.8172504
40	0x3f5c94dc	0.8616464
41	0x3fb44f57	1.4086713
42	0x3f50368f	0.8133325
43	0x3fbde2a1	1.4834787
44	0x3f7b6767	0.98204654
45	0xbede1e68	-0.43382573
46	0x3e8656d1	0.2623811
47	0x3fb7f8fd	1.437286
48	0xbe9007ed	-0.28131047
49	0x3fc2147e	1.5162504
50	0x3f8212ee	1.0162027
51	0x3fd06571	1.6280957
52	0x3fa8409e	1.314472
53	0x400c7942	2.194901
54	0x3fc8f0ca	1.5698483
55	0x3fd1fb71	1.6404859
56	0x4013080d	2.2973664
57	0x3f17c930	0.5929136
58	0xbccc2d58	-0.024923965
59	0x3ed84700	0.4224167
60	0x3e96ee64	0.29478753
61	0x3fddb432	1.7320616
62	0x3f944778	1.158431
63	0x3faf9ecb	1.3720335

module.Conv2.layers.1.bias f4 [64]
0	0xbf25be7b	-0.64743775
1	0xbf10813b	-0.5644719
2	0x3fa084f9	1.254058
3	0xbf02453c	-0.50886893
4	0xbeeeb570	-0.466228
5	0x3e748186	0.23877534
6	0xbec4d15d	-0.38440982
7	0xbf484a8d	-0.78238755
8	0xbf16eef4	-0.58958364
9	0xbfb92824	-1.4465375
10	0xbd1874b4	-0.03722067
11	0xbf6d2bfe	-0.9264525
12	0xbdcd3951	-0.10020698
13	0xbe1d2598	-0.15346372
14	0xbfba17bc	-1.4538493
15	0xbe58a7af	-0.21157716
16	0xbf00868e	-0.50205314
17	0xbf10d2d6	-0.5657171
18	0xbf163903	-0.5868074
19	0x3ee58980	0.44831467
20	0xbe0fe94d	-0.14053841
21	0xbf8cf164	-1.1011167
22	0x3e9aecb8	0.30258727
23	0x3f194083	0.5986406
24	0xbf068bc5	-0.5255702
25	0x3e8c6f58	0.274287
26	0xc090982e	-4.5185766
27	0xbd940cb4	-0.072289854
28	0xbf25803b	-0.6464879
29	0xbf1e3115	-0.61793643
30	0xbfb72adc	-1.4309955
31	0xbfcbb631	-1.5914975
32	0xbed31ba3	-0.41232023
33	0xbf0d43c9	-0.55181557
34	0x3e383183	0.17987637
35	0xbedd5b1f	-0.43233582
36	0xbe1b4a47	-0.15165053
37	0xbfc82269	-1.5635501
38	0xbef1464e	-0.4712395
39	0xbc81e43c	-0.015855901
40	0x3d913a8e	0.070912465
41	0x3dd1acc4	0.102380306
42	0xbed2cbf1	-0.4117122
43	0x3e8df9da	0.27729684
44	0x3f2b6a35	0.66958934
45	0xbf80bb25	-1.0057112
46	0xbec6f77a	-0.38860685
47	0xbd9264a9	-0.07148106
48	0xbf5f87cb	-0.8731658
49	0x3f36eee4	0.7145827
50	0x3f03ad0d	0.5143593
51	0x3ff1b709	1.8883983
52	0x3fdc452e	1.7208612
53	0xc019b9e9	-2.401972
54	0x3fb8f7f2	1.4450667
55	0xbfb3b1fa	-1.4038689
56	0xc064be54	-3.5741167
57	0xc002b15a	-2.0420747
58	0xbf5bf75a	-0.85924304
59	0xbf380b89	-0.718926
60	0xbed5eab2	-0.4178062
61	0xbc1d5199	-0.009601974
62	0x3e095ca3	0.13414244
63	0x3f1a86dd	0.60362035

module.Conv2.layers.1.running_mean f4 [64]
0	0x423b091d	46.7589
1	0xc2128c4f	-36.63702
2	0x42f8e417	124.44549
3	0xc23ef3fb	-47.738262
4	0xc23c2f8f	-47.046444
5	0x41ea7bbf	29.310423
6	0xc23e4cdd	-47.57506
7	0xc23c0682	-47.006355
8	0xc2875d42	-67.682144
9	0x42d4e10c	106.439545
10	0xc29840ab	-76.126305
11	0x423a6a03	46.603527
12	0xc235c4a6	-45.44204
13	0x423bcf88	46.952667
14	0x423edf16	47.717857
15	0x42b6b0d4	91.34537
16	0x4145ef18	12.3708725
17	0x40a8ee7c	5.279112
18	0xc09d8e43	-4.923616
19	0x42dc311e	110.09593
20	0x42419a35	48.400593
21	0xc2328bcd	-44.636524
22	0xc2037351	-32.862614
23	0xc20070fe	-32.110344
24	0x424b8c3f	50.88696
25	0xc23cb5cf	-47.177547
26	0x426a8df7	58.638638
27	0xc210cb61	-36.198612
28	0x423e5fd0	47.593567
29	0xc2c14340	-96.63135
30	0x428a7cd0	69.243774
31	0x42e61964	115.04959
32	0xc242706a	-48.60978
33	0xc23c1089	-47.016148
34	0xc102bfc8	-8.171822
35	0xc2729993	-60.649975
36	0x42ba3714	93.107574
37	0x42a1b45f	80.85229
38	0xc2c99fd4	-100.812164
39	0x42e6ad5c	115.33859
40	0x42ed197b	118.54977
41	0x42f1a9fc	120.832
42	0x42a3eca3	81.96218
43	0x42e4c560	114.3855
44	0xc2560f8c	-53.515182
45	0x421d7cfe	39.372063
46	0xc297cdad	-75.90171
47	0x429739f0	75.61316
48	0x42e488c6	114.267136
49	0x42aa6969	85.20588
50	0x426eb059	59.672215
51	0xc25e53f7	-55.581997
52	0xc2ab9a31	-85.801155
53	0x42429098	48.641205
54	0xc2827efb	-65.24801
55	0x42f1bb9b	120.86642
56	0x42cfbf9a	103.87422
57	0x41b53b04	22.653816
58	0x42340e26	45.013817
59	0xc28fcb19	-71.896675
60	0xc2b2e895	-89.45426
61	0x423adbf6	46.714806
62	0x42c5d5cf	98.917595
63	0xc23f31a6	-47.798485

module.Conv2.layers.1.running_var f4 [64]
0	0x460c9904	8998.254
1	0x45b15dda	5675.7314
2	0x45b6b04d	5846.0376
3	0x460d980c	9062.012
4	0x45fc7781	8078.938
5	0x440d8e0b	566.2194
6	0x46063917	8590.272
7	0x460b9bf1	8934.985
8	0x44e93274	1865.5767
9	0x457c96f7	4041.4353
10	0x45c0fa8e	6175.3193
11	0x46081852	8710.08
12	0x4601f9b3	8318.425
13	0x460a8ef7	8867.741
14	0x460d16f4	9029.738
15	0x456dafaa	3802.979
16	0x44e4f881	1831.7657
17	0x4467ebd3	927.68475
18	0x4501365a	2067.397
19	0x45ddc418	7096.5117
20	0x460b736b	8924.8545
21	0x45ff620e	8172.257
22	0x45640a35	3648.638
23	0x4538463b	2948.3894
24	0x45b1d2b7	5690.3394
25	0x45ef193f	7651.156
26	0x464b9ff4	13031.988
27	0x45930bd2	4705.4775
28	0x460bff06	8959.756
29	0x4503aa92	2106.6606
30	0x454a60ff	3238.0623
31	0x45a41778	5250.9336
32	0x44ad175d	1384.7301
33	0x46088774	8737.863
34	0x456ecd19	3820.8186
35	0x45191c9d	2449.7883
36	0x45e7126e	7394.3037
37	0x44f9da63	1998.8246
38	0x45931cde	4707.6084
39	0x45b68446	5840.534
40	0x459f5b3a	5099.4033
41	0x45c587c3	6320.97
42	0x45f70383	7904.439
43	0x45cb9dca	6515.7236
44	0x45e197bc	7218.967
45	0x444eee7e	827.72644
46	0x45e4e7e1	7324.985
47	0x45e2f126	7262.1436
48	0x459db545	5046.6587
49	0x456581b2	3672.106
50	0x447aba6c	1002.91284
51	0x44aa0473	1360.139
52	0x44c59ced	1580.9039
53	0x460d4fbd	9043.935
54	0x44e15525	1802.6608
55	0x45c21e5c	6211.795
56	0x4566808d	3688.0344
57	0x44d10842	1672.258
58	0x4422d8e4	651.3889
59	0x4616e81b	9658.026
60	0x4503ec29	2110.76
61	0x460920cd	8776.2
62	0x453bf412	3007.2544
63	0x460f30ec	9164.23

module.Conv3.layers.0.weight f4 [64, 64, 3, 3]
0	0x3f1dc569	0.6162935
1	0x3f261685	0.6487811
2	0x3f1308da	0.5743538
3	0xbf0c1c9e	-0.54731166
4	0x3f2bcf06	0.6711277
5	0x3f1d1f80	0.6137619
6	0xbf20d351	-0.62822443
7	0xbf1aec38	-0.6051669
8	0xbf144af7	-0.5792689
9	0xbf135cb7	-0.57563347
10	0xbf178905	-0.5919345
11	0xbf17d8fa	-0.59315455
12	0xbf0fc20e	-0.5615548
13	0xbf19deea	-0.60105765
14	0xbf15d6f2	-0.58531106
15	0xbf16c044	-0.58887124
16	0xbf1d6c9d	-0.61493856
17	0xbf190d94	-0.59786344
18	0x3f1d1b55	0.6136983
19	0x3f161e60	0.586401
20	0x3f2038e1	0.6258679
21	0x3f1b9b19	0.60783535
22	0x3f2549f5	0.64565974
23	0x3f26fa06	0.65225255
24	0x3f2083f9	0.62701374
25	0x3f1ff26a	0.6247927
26	0x3f14aafe	0.58073413
27	0xbf12735f	-0.5720729
28	0xbf17fb4e	-0.59367836
29	0xbf116474	-0.56793904
30	0xbf148588	-0.5801625
31	0xbf1ed0bb	-0.6203725
32	0xbf0fd42f	-0.5618314
33	0xbf1f0b39	-0.621265
34	0xbf0fc7f6	-0.5616449
35	0xbf14020c	-0.57815623
36	0xbf11ca6c	-0.56949496
37	0xbf1a1f03	-0.6020357
38	0xbf12c275	-0.5732797
39	0xbf1275e3	-0.5721113
40	0xbf22a36f	-0.6353063
41	0xbf17b969	-0.5926729
42	0xbf13721f	-0.5759601
43	0xbf170cd7	-0.5900397
44	0xbf161445	-0.5862468
45	0xbf1e024e	-0.61722267
46	0xbf1bc9cc	-0.6085479
47	0xbf236269	-0.63822037
48	0xbf17f598	-0.5935912
49	0xbf1a4ffd	-0.602783
50	0xbf183cd5	-0.5946782
51	0xbf183bf4	-0.5946648
52	0xbf1d17eb	-0.6136462
53	0xbf164e34	-0.5871308
54	0x3f22e757	0.63634247
55	0x3f243227	0.64139026
56	0xbeee78be	-0.46576494
57	0x3f134a1d	0.5753496
58	0x3f25341f	0.64532655
59	0x3f1d93b4	0.615535
60	0x3f2cc682	0.674904
61	0x3f17d34a	0.59306777
62	0x3f18042b	0.5938136
63	0xbf1e347f	-0.6179885
64	0xbf1bce61	-0.60861784
65	0xbf2020ac	-0.62549853
66	0xbf1a8b65	-0.6036895
67	0xbf203baa	-0.6259104
68	0xbf1e0d9a	-0.61739504
69	0xbf1cac55	-0.6120046
70	0xbf211e73	-0.62937087
71	0xbf243093	-0.6413662
72	0x3f1ea528	0.6197076
73	0x3f23cd4b	0.6398513
74	0x3f20c136	0.62794816
75	0x3f1ca26f	0.61185354
76	0x3f132ce0	0.5749035
77	0x3f14bde6	0.5810226
78	0x3f107b33	0.5643799
79	0x3f211b9f	0.6293277
80	0x3f13226f	0.57474416
81	0xbf13100b	-0.57446355
82	0xbf17d2f8	-0.5930629
83	0xbf2186ff	-0.6309661
84	0xbf0f3218	-0.5593581
85	0xbf148b76	-0.580253
86	0xbf1c3be9	-0.61028916
87	0xbf1a4dac	-0.6027477
88	0xbf23500a	-0.63794005
89	0xbf103fb2	-0.5634719
90	0x3f23027c	0.63675666
91	0x3f1c7654	0.61118054
92	0x3f243798	0.6414733
93	0x3f188334	0.595752
94	0x3f1b3fc4	0.60644174
95	0x3f13ffdb	0.5781228
96	0x3f27da6f	0.6556768
97	0x3f1817a3	0.59411067
98	0x3f252cdf	0.6452159
99	0x3f17f854	0.59363294
100	0x3f1bb8bf	0.60828775
101	0x3f1bb83d	0.60828
102	0x3f130d92	0.5744258
103	0x3f181cbe	0.5941886
104	0x3f1c0694	0.6094754
105	0x3f194541	0.598713
106	0x3f14c755	0.58116657
107	0x3f102ac3	0.5631525
108	0x3f149e1d	0.5805376
109	0x3f21d7ce	0.63219917
110	0x3f251184	0.6447985
111	0x3f141860	0.57849693
112	0x3f19bf3c	0.60057425
113	0x3f22984e	0.6351365
114	0x3f12d389	0.5735403
115	0x3f1aaf41	0.60423666
116	0x3f1240a9	0.57129914
117	0xbf0f6ecf	-0.56028455
118	0xbf1af0a3	-0.6052343
119	0xbf1f6cf5	-0.6227563
120	0xbf101034	-0.56274724
121	0xbf1b53a4	-0.606745
122	0xbf1f3062	-0.621832
123	0xbf0a6152	-0.5405475
124	0xbf11d3ec	-0.5696399
125	0xbf0ede48	-0.55807924
126	0xbf127bae	-0.5721997
127	0xbf1cb824	-0.61218476
128	0xbf12bf63	-0.5732328
129	0xbf1a0462	-0.6016294
130	0xbf1ec950	-0.6202593
131	0xbf173958	-0.59071875
132	0xbf122690	-0.5709009
133	0xbf1c5766	-0.6107086
134	0xbf162aeb	-0.5865924
135	0xbf1907d6	-0.5977758
136	0xbf1ff138	-0.62477446
137	0xbf11ac53	-0.5690357
138	0xbf1cec49	-0.6129804
139	0xbf130d27	-0.57441944
140	0xbf1ab69a	-0.6043488
141	0xbf1aeb84	-0.6051562
142	0xbf162d83	-0.58663195
143	0xbf1f91a2	-0.62331593
144	0xbf209961	-0.6273404
145	0xbf151090	-0.582284
146	0xbf1db697	-0.61606735
147	0xbf1f6779	-0.6226726
148	0xbf0feb21	-0.56218153
149	0xbf1197e0	-0.5687237
150	0xbf1d56e6	-0.6146072
151	0xbf107232	-0.5642425
152	0xbf1a6ef7	-0.6032557
153	0xbf17c7b3	-0.5928909
154	0xbf1704c4	-0.58991647
155	0xbf1bb9fd	-0.6083067
156	0xbf13dfdd	-0.57763463
157	0xbf181a98	-0.5941558
158	0xbf2255dc	-0.6341226
159	0xbf1d73e5	-0.61504966
160	0xbf102b39	-0.5631595
161	0xbf20d58e	-0.6282586
162	0x3f23617f	0.6382064
163	0x3f140225	0.5781577
164	0x3f222acc	0.6334655
165	0x3f10255c	0.56307006
166	0x3f1035d9	0.56332165
167	0x3f140ff8	0.57836866
168	0x3f155e2e	0.5834683
169	0x3f0fdfa3	0.5620062
170	0x3f1e85ba	0.619228
171	0xbf1d0657	-0.613378
172	0xbf162c92	-0.5866176
173	0xbf174a80	-0.5909805
174	0xbf08da80	-0.53458405
175	0xbf0b9dcf	-0.5453767
176	0xbf18306b	-0.5944888
177	0xbef2b41c	-0.47403038
178	0xbf06dcd6	-0.5268072
179	0xbf1815af	-0.59408087
180	0xbf2209a4	-0.6329596
181	0xbf0f9931	-0.56093127
182	0xbf1bcdf8	-0.6086116
183	0xbf1a3a0f	-0.6024484
184	0xbf15ceaf	-0.585185
185	0xbf1210c6	-0.57056844
186	0xbf132d6e	-0.57491195
187	0xbf18e6e0	-0.5972729
188	0xbf1ad287	-0.6047749
189	0x3f1e008f	0.617196
190	0x3f11f367	0.5701203
191	0x3f203565	0.62581474
192	0x3f1fd55d	0.6243494
193	0x3f143013	0.57885855
194	0x3f234401	0.6377564
195	0x3f140991	0.578271
196	0x3f10a5d9	0.56503063
197	0x3f1e575d	0.61852056
198	0xbf1ff132	-0.6247741
199	0xbf17b229	-0.59256226
200	0xbf212e35	-0.6296113
201	0xbf219dc2	-0.63131344
202	0xbf2304b7	-0.6367907
203	0xbf130844	-0.5743449
204	0xbf1c46da	-0.6104561
205	0xbf1530e7	-0.58277744
206	0xbf1098d8	-0.5648322
207	0xbf1bf2c4	-0.60917306
208	0xbf147656	-0.57993066
209	0xbf1d353c	-0.61409354
210	0xbf1b5fa3	-0.60692805
211	0xbf0ef84b	-0.55847615
212	0xbf241c68	-0.64105844
213	0xbf20a3c2	-0.62749875
214	0xbf1f4825	-0.6221946
215	0xbf23dc10	-0.64007664
216	0xbf1c236e	-0.6099156
217	0xbf118234	-0.568393
218	0xbf23eb62	-0.6403104
219	0xbf10342c	-0.5632961
220	0xbf1f6981	-0.6227036
221	0xbf22b246	-0.63553274
222	0xbf187a1e	-0.59561336
223	0xbf1b06f6	-0.60557497
224	0xbf11bc25	-0.5692771
225	0x3f1eac90	0.6198206
226	0x3f2382e8	0.6387162
227	0x3f194b42	0.5988046
228	0x3f22d049	0.6359907
229	0x3f1d6355	0.61479694
230	0x3f16051f	0.58601564
231	0x3f13306d	0.57495767
232	0x3f1465a1	0.57967573
233	0x3f1b38b3	0.6063339
234	0xbf1a4e7a	-0.60275996
235	0xbf1eb256	-0.6199087
236	0xbf14a660	-0.5806637
237	0xbf11ffa3	-0.57030696
238	0xbf17c8a1	-0.5929051
239	0xbf228526	-0.6348442
240	0xbf103b0e	-0.5634011
241	0xbf181c09	-0.5941778
242	0xbf1cba49	-0.6122175
243	0x3f176c75	0.5914987
244	0x3f12068f	0.5704126
245	0x3f121460	0.5706234
246	0x3f180426	0.5938133
247	0x3f108aa9	0.5646158
248	0x3f21bd5a	0.6317955
249	0x3f1515fe	0.5823668
250	0x3f19af6c	0.600333
251	0x3f1591bc	0.584255
252	0xbf16e20b	-0.58938664
253	0xbf1203f5	-0.5703729
254	0xbf0fc2c1	-0.56156546
255	0xbf15e532	-0.5855285

module.Conv3.layers.0.bias f4 [64]
0	0x3ccbecf2	0.024893258
1	0x3ca05884	0.019573458
2	0xbcf8fd6a	-0.030394275
3	0xbd1ec71a	-0.038764097
4	0x3d582f90	0.052779734
5	0x3ca67b9e	0.020322617
6	0x3d74ecd8	0.059796184
7	0xbd9ae72f	-0.07563626
8	0xbd9af804	-0.075668365
9	0x3dab6e16	0.083706066
10	0xbd56dcdb	-0.052456718
11	0x3cfd88b4	0.030948974
12	0xbdd05c1a	-0.10173817
13	0xbd1e19c5	-0.038598794
14	0x3ce964c8	0.028490439
15	0xbdd3c8ff	-0.10341071
16	0xbd5ac8f2	-0.053414293
17	0xbdda586a	-0.10661395
18	0x3e2d2e7a	0.1691226
19	0xbc83571a	-0.016032744
20	0xbdd19949	-0.10234315
21	0xbc6f0256	-0.014587959
22	0x3d11aec9	0.03556708
23	0xbe0da634	-0.13832933
24	0x3cd294f7	0.025705798
25	0xbd84a3ec	-0.06476578
26	0xbe1c0112	-0.15234783
27	0x3d11f463	0.035633456
28	0xbd073a78	-0.033014745
29	0x3d6e4e73	0.058180284
30	0xbd26c794	-0.040717676
31	0xbd951dba	-0.072810605
32	0xbd25a990	-0.04044491
33	0x3d305935	0.043053824
34	0x3ca7d47c	0.020487063
35	0xbd552e6b	-0.05204622
36	0x3ba7bc27	0.005118865
37	0xbde26f69	-0.11056406
38	0x3dc17211	0.094455846
39	0x3d018129	0.031617317
40	0x3d1fb1e7	0.03898802
41	0x3b21125d	0.0024577596
42	0xbbdba171	-0.006702595
43	0xba2daec8	-0.00066254707
44	0x3d6ad16c	0.057328627
45	0x3bc95f98	0.006145429
46	0x3b7626ff	0.0037559865
47	0x3d317e81	0.043333534
48	0xbd9f1127	-0.077669434
49	0xbd864e29	-0.065578766
50	0x3d4b199a	0.049584962
51	0xbc34d109	-0.011036166
52	0x3dc6f18b	0.097140394
53	0x3b8ab66f	0.0042331736
54	0x3e1944ad	0.14967604
55	0xbd807d13	-0.06273856
56	0xbda81c1a	-0.08208485
57	0xbda80991	-0.0820495
58	0x3db60f27	0.08889609
59	0xbdc39c68	-0.095513165
60	0xbda9546e	-0.08268057
61	0xbdc4f0bf	-0.09616231
62	0x3d3960d3	0.045258354
63	0x3cc56b4c	0.024099015

module.Conv3.layers.1.weight f4 [64]
0	0x4025bb5d	2.5895607
1	0x3fb2e9a9	1.3977557
2	0x3f625989	0.8841787
3	0x3fdc5b2a	1.7215321
4	0x3fbada15	1.4597803
5	0x3fde7e19	1.7382232
6	0x3fe4e8a1	1.7883493
7	0x4003ce82	2.0594792
8	0x3e5fb9c3	0.21848206
9	0x3faca725	1.3488508
10	0x3f0555b9	0.5208393
11	0x3f75d505	0.96028167
12	0x3fa3c607	1.2794808
13	0x3f99ef33	1.2026123
14	0x3f2efb1d	0.6835192
15	0x3fb371b6	1.4019077
16	0x3f037db2	0.5136367
17	0x3f9d80f0	1.2304974
18	0x400f05cc	2.2347288
19	0x3f776915	0.9664472
20	0xbfbd9fc7	-1.4814385
21	0x3fa2ca5c	1.2718005
22	0x3f8f630e	1.1202104
23	0xbeca2bf5	-0.39486662
24	0x3f8ac3e2	1.0841029
25	0x400ef333	2.2335937
26	0xbeb37261	-0.35048202
27	0xbf1156d4	-0.56773114
28	0x3ea0a731	0.31377557
29	0x3f536961	0.8258267
30	0x3fb3c0d9	1.4043227
31	0x3ff4ee83	1.9135288
32	0x3f68dd1d	0.9096239
33	0x3f580011	0.843751
34	0x3fbc76c6	1.4723747
35	0x3ed68b62	0.41903216
36	0x3f0721a3	0.527857
37	0xbe9f9707	-0.31169912
38	0x3f5131a0	0.81716347
39	0x3ed14132	0.40870053
40	0x3f24e542	0.6441232
41	0x3e9b0978	0.30280662
42	0x3e7d4671	0.24733903
43	0x3fd0c03d	1.6308666
44	0xbd85f6d2	-0.06541218
45	0x3f57d8f2	0.8431541
46	0x3f89f2ac	1.0777183
47	0x3f8777b3	1.0583404
48	0x3fa8c46b	1.3184942
49	0x3fad1093	1.3520683
50	0x401ad277	2.4190958
51	0x3f35049b	0.7071015
52	0x3faa2728	1.32932
53	0x3ffa56b0	1.9557705
54	0x3fcf2c75	1.6185442
55	0x3f9e88dc	1.2385516
56	0x3fd12a0f	1.634096
57	0x3f86c035	1.0527407
58	0x3fb50e5d	1.4145008
59	0xbf80e0da	-1.0068619
60	0xbec85ecf	-0.39134833
61	0x3fadc5f9	1.3576041
62	0x3f069b2f	0.5258054
63	0x3ed6d617	0.41960213

module.Conv3.layers.1.bias f4 [64]
0	0x3e29e4a2	0.16591123
1	0xbf300706	-0.68760717
2	0xbfd42efd	-1.657684
3	0xbe87fb68	-0.26558995
4	0xbec087ac	-0.3760351
5	0x3f542605	0.82870513
6	0x3f11f5bd	0.5701559
7	0xc006dcd7	-2.107229
8	0xbfd87801	-1.6911622
9	0xbe195b69	-0.14976276
10	0x40497f9f	3.1484144
11	0x3f89602b	1.0732473
12	0x3f2c53c8	0.6731534
13	0xc009fd65	-2.156091
14	0xbfacc853	-1.3498634
15	0x3e06840c	0.1313631
16	0xbfc5acc8	-1.5443354
17	0xbff03084	-1.8764806
18	0xbf2e3905	-0.68055755
19	0xbf42d38b	-0.7610404
20	0xbf199c1b	-0.60003823
21	0xbe31f374	-0.17378026
22	0xbe332089	-0.1749288
23	0x401f15ae	2.4856982
24	0xbf2eda52	-0.6830188
25	0xbf855d0e	-1.0419023
26	0xbff877de	-1.941158
27	0xbf714a92	-0.9425441
28	0xc0384c05	-2.8796399
29	0xbfa66936	-1.3000858
30	0x3d1adb71	0.037806932
31	0x3f32603f	0.6967811
32	0xbe93d8e5	-0.28876415
33	0x3f59e757	0.8511862
34	0xbf3d900c	-0.74047923
35	0x405d0922	3.4536824
36	0x3feb71d1	1.8394109
37	0xc021517a	-2.520598
38	0xbfb6ae87	-1.4272012
39	0x403f269f	2.9867322
40	0xbbf40eee	-0.007448069
41	0x3ff9cfa5	1.9516493
42	0xbfde7801	-1.7380372
43	0xbe6e46b2	-0.23269156
44	0xc01906bb	-2.3910358
45	0x3c91318f	0.017723827
46	0xbe42a439	-0.19007958
47	0xbeca5e8f	-0.39525267
48	0x3fb3e8a7	1.4055375
49	0x3f220680	0.6329117
50	0xbf1c7ebb	-0.61130875
51	0x3e9bf938	0.30463576
52	0xbef0f718	-0.47063518
53	0xbddb109d	-0.10696528
54	0x3e7c45d6	0.24636015
55	0xbf924128	-1.1426134
56	0x3e3ba0a4	0.18322998
57	0xbf5e8a1b	-0.8692948
58	0x3f663370	0.8992224
59	0xbfe2ad96	-1.7709224
60	0x3fe7db6d	1.8113838
61	0xbf834233	-1.0254577
62	0xc0413326	-3.0187469
63	0x3fcd6020	1.604496

module.Conv3.layers.1.running_mean f4 [64]
0	0xc29e058e	-79.01085
1	0xc297d881	-75.92286
2	0x42b9e7fc	92.953094
3	0xc28819ea	-68.05061
4	0xc2d279bf	-105.237785
5	0xc2a1c106	-80.877
6	0x42a0432d	80.1312
7	0x42613cbe	56.30932
8	0x4287414a	67.62752
9	0xc27899bb	-62.150127
10	0xc2d43c17	-106.11736
11	0x42e04549	112.13532
12	0xc2dbd0d1	-109.907845
13	0xc2a86b23	-84.20925
14	0x4288cde9	68.40217
15	0x42b40597	90.01092
16	0xc29b81f6	-77.75383
17	0x4291aa47	72.83257
18	0x428576fa	66.732376
19	0xc260eabf	-56.229244
20	0x42ad3d28	86.619446
21	0xc22a0c32	-42.51191
22	0x428e6b7e	71.209946
23	0xc2710d04	-60.26271
24	0xc2c371c4	-97.7222
25	0x42234c59	40.82456
26	0x42a305ad	81.511086
27	0x4284c127	66.37725
28	0x42ec21c7	118.06597
29	0x42a7d31d	83.91233
30	0xc284ac51	-66.336555
31	0xc2d42466	-106.07109
32	0x420e60a6	35.594383
33	0xc28a4173	-69.12783
34	0xc2dc2024	-110.062775
35	0xc2d9e3a1	-108.94459
36	0x420260ae	32.594414
37	0xc221993a	-40.399635
38	0xc289e918	-68.95526
39	0xc284c794	-66.3898
40	0xc2bb6921	-93.70533
41	0xc2949823	-74.29714
42	0xc2d576dd	-106.732155
43	0xc296e76d	-75.452
44	0x428461b2	66.19081
45	0xc30fa4e0	-143.64404
46	0xc2a61f41	-83.06104
47	0xc205650a	-33.34867
48	0xc299161b	-76.543175
49	0xc22c1764	-43.022842
50	0x41520372	13.125841
51	0x42bdbf76	94.87395
52	0x4288ca0d	68.39463
53	0xc263064e	-56.756157
54	0x42a9bd17	84.869316
55	0xc2d07ef6	-104.24797
56	0xc2a06873	-80.204
57	0x42ab53e0	85.66382
58	0x4323cc45	163.79793
59	0xc312a962	-146.66165
60	0xc2cb1604	-101.543
61	0xc2e5ea6a	-114.95784
62	0x42941f2b	74.060875
63	0xc2a647e2	-83.140396

module.Conv3.layers.1.running_var f4 [64]
0	0x45429c43	3113.7664
1	0x45942a54	4741.291
2	0x457e58e4	4069.5557
3	0x44af6fb5	1403.4908
4	0x4512d0ed	2349.0579
5	0x44666965	921.6468
6	0x44e10bff	1800.3749
7	0x451b9f51	2489.9573
8	0x44995ce4	1226.9028
9	0x452acd6e	2732.8394
10	0x450038ef	2051.5583
11	0x457723e6	3954.2437
12	0x450b9794	2233.4736
13	0x4519c46b	2460.2761
14	0x44e11a98	1800.831
15	0x448a2805	1105.2506
16	0x4546340f	3171.2537
17	0x44508ce4	834.2014
18	0x444ab145	810.76984
19	0x44a35b07	1306.8446
20	0x4483ab16	1053.3464
21	0x449e48b5	1266.2721
22	0x4515c35b	2396.2097
23	0x444a5fa4	809.4944
24	0x4510175f	2305.4607
25	0x44c20b6b	1552.3568
26	0x453ab1ba	2987.108
27	0x455fe3ac	3582.2295
28	0x458fc861	4601.0474
29	0x453a4bfb	2980.7488
30	0x4450b2c2	834.7931
31	0x4591d2dd	4666.358
32	0x440f84a9	574.0728
33	0x455f2002	3570.0005
34	0x44f88065	1988.0123
35	0x45569372	3433.2153
36	0x46125ec0	9367.6875
37	0x45bfedcb	6141.724
38	0x454669b4	3174.6064
39	0x459b1d8a	4963.6924
40	0x44d11e40	1672.9453
41	0x4524b6ab	2635.4167
42	0x450c27c1	2242.4846
43	0x4521c423	2588.2585
44	0x43fb0e05	502.10953
45	0x463556ec	11605.73
46	0x457803b0	3968.2305
47	0x4394ed51	297.85403
48	0x44897f85	1099.985
49	0x44851fc4	1064.9927
50	0x45b4756a	5774.677
51	0x452583dd	2648.2415
52	0x44a10e09	1288.4386
53	0x44d8f54e	1735.6658
54	0x44af8dfb	1404.4369
55	0x45d479e1	6799.235
56	0x4575449c	3924.288
57	0x452cb1e3	2763.118
58	0x4689ccca	17638.395
59	0x457a1e83	4001.907
60	0x45fb8b68	8049.426
61	0x459f4a10	5097.258
62	0x44af521c	1402.5659
63	0x44838e65	1052.4498

module.Conv4.layers.0.weight f4 [64, 64, 3, 3]
0	0x3f14a8b3	0.58069915
1	0xbf386e92	-0.72043717
2	0x3f18ef3c	0.5974004
3	0x3f0decc7	0.5543942
4	0x3f1f2a4d	0.6217392
5	0x3f0ec698	0.5577178
6	0x3f16a6fe	0.5884856
7	0x3f0f358f	0.559411
8	0x3f1fe285	0.62455016
9	0xbf1ef7d0	-0.6209688
10	0xbf15c087	-0.584969
11	0xbf1bdce7	-0.60883945
12	0xbf0ed595	-0.5579465
13	0xbf1034ae	-0.5633038
14	0xbf1fc069	-0.6240297
15	0xbf18cd66	-0.59688413
16	0xbf1a334e	-0.60234535
17	0xbf1718b1	-0.5902205
18	0x3f1bc6f9	0.60850483
19	0x3f1d72f2	0.6150352
20	0x3f65b6c6	0.89732015
21	0x3f2539ac	0.64541125
22	0x3f1d7b5f	0.61516374
23	0x3f1da8cd	0.61585695
24	0x3f261519	0.6487594
25	0x3f252f64	0.6452544
26	0x3f26c1cb	0.65139455
27	0xbf100baa	-0.562678
28	0xbf1202cf	-0.57035536
29	0xbf1f5849	-0.6224409
30	0xbf149b00	-0.5804901
31	0xbf17ed07	-0.5934605
32	0xbf1cf56c	-0.61311984
33	0xbf12fa54	-0.5741322
34	0xbf1d09b8	-0.61342955
35	0xbf129e14	-0.5727246
36	0xbf1465f0	-0.57968044
37	0xbf1f3472	-0.621894
38	0xbf12fffd	-0.5742186
39	0xbf20f88b	-0.62879246
40	0xbf143c39	-0.5790439
41	0xbf164022	-0.5869161
42	0xbf1bbe78	-0.6083751
43	0xbf2171c8	-0.6306424
44	0xbf0ff024	-0.562258
45	0xbf16f8f3	-0.58973616
46	0xbf19ca48	-0.6007428
47	0xbf149135	-0.5803407
48	0xbf1ef100	-0.62086487
49	0xbf0ba48c	-0.54547954
50	0xbf0aebc7	-0.5426602
51	0xbf0ddca8	-0.5541482
52	0xbf1ba622	-0.60800374
53	0xbf176c75	-0.5914987
54	0xbf1a9276	-0.6037973
55	0xbf1b6040	-0.6069374
56	0xbf150e97	-0.5822539
57	0xbf3adb8c	-0.7299125
58	0xbf238858	-0.6387992
59	0xbf18caca	-0.5968443
60	0xbf203c69	-0.6259218
61	0xbf1ac566	-0.60457456
62	0xbf135b74	-0.5756142
63	0xbf1df7dc	-0.6170633
64	0xbf20ca67	-0.6280884
65	0xbf2049a3	-0.6261236
66	0xbf211634	-0.62924504
67	0xbf1202a3	-0.57035273
68	0xbf1247cc	-0.57140803
69	0xbf137a01	-0.5760804
70	0xbf20e510	-0.6284952
71	0xbf1ee020	-0.6206074
72	0x3f202c9a	0.62568057
73	0x3f244e61	0.64182097
74	0x3f13c847	0.57727474
75	0x3f0fbbac	0.5614574
76	0x3f19a6e0	0.60020256
77	0x3f102d2a	0.56318915
78	0x3f24a608	0.64315844
79	0x3f22924c	0.6350448
80	0x3f0e6b36	0.5563234
81	0xbf1704c8	-0.5899167
82	0xbf1db2c3	-0.61600894
83	0xbf2a7d85	-0.6659778
84	0xbf204ebd	-0.62620145
85	0xbf1d8265	-0.6152709
86	0xbf37ff53	-0.7187397
87	0xbf18cbf0	-0.59686184
88	0xbf14e43b	-0.5816075
89	0xbf1637cc	-0.5867889
90	0xbf450046	-0.7695354
91	0x3f0b9e86	0.5453876
92	0x3f18c1bd	0.5967062
93	0x3f14ebd3	0.5817234
94	0x3f1c99fc	0.6117246
95	0x3f0a0dc1	0.53927237
96	0x3f18bde6	0.5966476
97	0x3f0a9954	0.5414021
98	0x3eef4bdd	0.46737567
99	0x3f200f79	0.6252361
100	0x3f0f1a8f	0.558999
101	0x3f1c1248	0.60965395
102	0x3f1ded43	0.6169016
103	0x3f195264	0.59891343
104	0x3f20ad05	0.62764007
105	0x3f23a92c	0.6393001
106	0x3f10c93e	0.5655707
107	0x3f0f9d47	0.5609936
108	0x3f12dd3a	0.57368815
109	0x3eddb7b8	0.4330423
110	0xbf213f55	-0.6298726
111	0x3f103cd0	0.5634279
112	0x3c062eea	0.008189896
113	0xbf22cc27	-0.6359276
114	0x3f10fedf	0.566389
115	0x3f147c6f	0.5800237
116	0xbf1ee292	-0.6206447
117	0x3f1eb1d8	0.6199012
118	0xbf240b16	-0.64079416
119	0xbf19ab13	-0.60026664
120	0xbf387e6c	-0.72067904
121	0xbf1d453a	-0.61433756
122	0xbf24b332	-0.6433593
123	0xbf2335c7	-0.6375393
124	0xbf1877f8	-0.5955806
125	0xbf139de4	-0.57662797
126	0xbf1d5b34	-0.6146729
127	0xbf2a83a8	-0.6660714
128	0xbf212a7d	-0.62955457
129	0xbf1b1788	-0.6058278
130	0xbf23cdc6	-0.6398586
131	0xbf170334	-0.5898926
132	0xbf1ca228	-0.6118493
133	0xbf1fa48e	-0.62360466
134	0xbf1e2586	-0.61776006
135	0xbf17ac24	-0.5924704
136	0xbf11bdec	-0.5693042
137	0xbf1a06b0	-0.60166454
138	0xbf104dd7	-0.56368774
139	0xbf229b98	-0.6351867
140	0xbf128e28	-0.57248163
141	0xbf219675	-0.63120204
142	0xbf1dd77e	-0.6165694
143	0xbf1aad65	-0.6042083
144	0xbf0f5a92	-0.55997574
145	0xbf0ecdf5	-0.55783015
146	0xbf112c71	-0.5670844
147	0xbf18b496	-0.5965055
148	0xbf1dfc7b	-0.6171338
149	0xbf1368b4	-0.5758164
150	0xbf1e9254	-0.6194203
151	0xbf204206	-0.62600744
152	0xbf19dc91	-0.6010218
153	0xbf12e4f6	-0.57380617
154	0xbf14cb4f	-0.58122724
155	0xbf2072e6	-0.6267532
156	0xbf14a3b0	-0.5806227
157	0xbf1925ea	-0.5982348
158	0xbf178dcd	-0.59200746
159	0xbf134c65	-0.57538444
160	0xbf166aef	-0.5875692
161	0xbf1da62a	-0.6158167
162	0x3f172780	0.5904465
163	0xbf2af8bf	-0.66785806
164	0xbf1d3129	-0.6140314
165	0x3f20b514	0.62776303
166	0x3f1378eb	0.5760638
167	0xbf2d7133	-0.67750853
168	0x3f1602b0	0.5859785
169	0x3f1ff297	0.6247954
170	0x3f1b2c27	0.60614246
171	0xbefc997f	-0.49335858
172	0xbf086441	-0.53277975
173	0xbf1aaacb	-0.6041686
174	0x3f8689a5	1.0510756
175	0xbef8041d	-0.48440638
176	0xbf0ae1a7	-0.5425057
177	0xbf102806	-0.5631107
178	0xbf0bde59	-0.5463615
179	0xbf200216	-0.6250318
180	0xbf0eb94e	-0.557515
181	0xbf10d15f	-0.56569475
182	0xbf10da05	-0.5658267
183	0xbf198a42	-0.5997659
184	0xbf11121a	-0.56668246
185	0xbf18594a	-0.59511244
186	0xbf0c7882	-0.5487138
187	0xbf168073	-0.5878975
188	0xbf0bfde3	-0.54684275
189	0x3f15f8e5	0.5858291
190	0x3f1e2af2	0.6178428
191	0x3f10a36f	0.5649938
192	0x3f10bc9e	0.56537807
193	0x3f152ecb	0.58274525
194	0x3f1e2aa4	0.61783814
195	0x3f1790f4	0.59205556
196	0x3f131ec6	0.5746883
197	0x3f14d3cb	0.5813567
198	0xbf17828b	-0.5918357
199	0xbf2042e0	-0.62602043
200	0xbf1ac6c3	-0.60459536
201	0xbf243d73	-0.64156264
202	0xbf16025b	-0.58597344
203	0xbf2006e6	-0.62510526
204	0xbf2129a1	-0.62954146
205	0xbf1b6dc4	-0.60714364
206	0xbf1dcaed	-0.61637765
207	0xbf1e36ec	-0.61802554
208	0xbf20cf43	-0.62816256
209	0xbf11d966	-0.5697235
210	0xbf10d4a3	-0.5657446
211	0xbf1f7b1e	-0.62297237
212	0xbf20eb5d	-0.62859136
213	0xbf20b3f5	-0.6277459
214	0xbf20fb43	-0.62883395
215	0xbf1303e1	-0.57427794
216	0xbf1bb6dc	-0.60825896
217	0xbf1a819e	-0.6035403
218	0xbf1470cb	-0.5798461
219	0xbf0ed283	-0.55789965
220	0xbf21525a	-0.63016284
221	0xbf0cde07	-0.55026287
222	0xbf14f11c	-0.58180404
223	0xbf1d5400	-0.614563
224	0xbf149e0d	-0.58053666
225	0x3f1a6dba	0.6032368
226	0x3f1d26c8	0.613873
227	0x3f1a85b6	0.60360277
228	0x3f1859aa	0.59511817
229	0x3f16aea9	0.5886026
230	0x3f199543	0.5999338
231	0x3f1144cc	0.567456
232	0x3f11fc57	0.57025665
233	0x3f0bf727	0.54674
234	0xbf145936	-0.57948625
235	0xbf270ab0	-0.6525068
236	0xbf257e03	-0.64645404
237	0xbf19286a	-0.5982729
238	0xbf26db71	-0.6517859
239	0xbf217a9b	-0.63077706
240	0xbf272f63	-0.6530668
241	0xbf1657f6	-0.5872797
242	0xbf1f47fd	-0.6221922
243	0x3f237d47	0.63863033
244	0xbf2949db	-0.6612832
245	0xbf12e980	-0.5738754
246	0x3f11c8ef	0.56947225
247	0xbf16c2d7	-0.5889105
248	0xbf271cc9	-0.652783
249	0x3f087c39	0.5331455
250	0xbf17a30a	-0.5923315
251	0xbf187f48	-0.59569216
252	0xbf14d3b6	-0.58135545
253	0xbf17bb0b	-0.5926978
254	0x3f24bcf4	0.6435082
255	0x3f2545d6	0.64559686
