DIDFuse/saved_models/encoder/VIS_AE18.pth (torch, 460446 bytes, 24 tensors)

module.Conv1.layers.1.weight f4 [64, 1, 3, 3]
0.65010345 0.2808644 0.6306363 0.5783096 0.6621438 0.37086198 0.59614986 0.8542236
0.5904939 -0.7457012 -0.6484318 -0.8599813 -0.78934604 -0.33335727 -0.2914454 -0.30400893
-0.310467 -0.5787561 -0.6368014 -0.6632021 -0.49458674 -0.80086786 0.8022197 -0.9018762
-0.43222046 0.258622 0.59431696 -1.5866255 -0.8321011 -1.0496557 0.11808229 0.4523294
-0.11921785 -1.069587 -0.18424794 -2.6826744 -0.9161994 -0.8876276 -0.97244024 0.030404016
0.012472918 -0.15903789 0.23776223 0.7471765 0.3660932 0.29242235 0.64504576 0.90913093
0.5386795 0.41434067 0.4260149 0.5274401 0.925878 0.79365927 -0.7025494 -0.5701185
-0.41478297 -0.6055984 1.3289223 -0.8891449 0.2803586 0.45198122 -0.77428573 -0.7379345
-0.75962234 -0.69700766 -0.47105145 -0.72583026 -0.42246985 -0.5126956 -0.2732191 -0.53734994
-1.177382 -1.5045687 -1.3494316 -0.45194927 -0.012741923 0.17912678 -0.67225325 -0.05797255
0.399101 0.45966607 0.29696423 0.72741663 0.78296375 0.9009747 0.67840195 0.81368566
0.34641933 0.5432146 -0.6383457 0.38746515 -1.0948952 0.2949479 2.5523074 1.1442631
-1.3007965 0.51604646 -1.0932183 -0.69020593 -0.2057693 1.0344734 -0.8476839 -0.29301205
-0.5914153 -0.65255624 -0.3973022 -0.7253047 0.39416617 0.15079103 -0.1403516 0.90048087
1.2166573 1.3550675 0.6519155 0.34157038 0.5891687 0.80517447 1.083853 0.7626233
0.031144876 0.37363917 0.0730485 -0.17701332 -0.42644405 -0.6114413 -1.2150515 -0.21701306
-1.0193561 0.025523117 1.5267272 0.30204317 -1.3579476 0.003948463 -1.4333892 1.0247682
0.067790054 1.2971327 0.08225527 -1.5207694 0.41730082 1.1696799 -0.2840051 0.7739989
-1.192937 -0.6488771 0.12661289 -1.0612913 0.85497105 0.77737933 -0.8465013 -0.92286754
-0.11296948 -0.7981597 0.5589607 0.3684933 -0.47848162 -0.51864564 -0.83975506 -0.6484628
-0.659536 -0.8131664 -0.5001845 0.9568187 -0.17584561 1.1550739 3.114359 0.688321
-0.7836392 0.88456184 -0.9723718 -3.2309947 -0.7960288 -0.9535815 -1.1784309 1.1121944
0.2575386 -0.757431 -0.8105896 -0.49809912 -0.17658742 -0.30478168 -1.3655568 0.9225706
2.4311757 0.8526789 -0.30413446 1.2572864 0.1474038 0.9933037 1.6591061 0.87790054
0.8925338 2.241947 1.3714676 -0.89162207 -0.1276595 -0.77857757 0.8980215 -0.31058425
1.237899 -0.4239717 -1.2632663 -0.7139926 2.4877 -0.6207093 2.5188484 -0.2947235
0.23046367 -0.5767329 0.8372399 0.97453827 -0.83667684 -0.36884084 0.16416353 -1.643807
0.3460941 0.69827044 0.356511 0.85783076 0.36646235 0.49352667 0.32034332 0.82012445
0.8650875 -0.935314 -0.31196132 -0.65879476 -0.71517086 -0.7001837 -0.7961189 0.28659675
0.5166778 0.41536617 0.24571043 -0.28127792 0.80067426 -0.77753866 -1.7764133 -1.162878
0.04641755 -1.3136379 -0.39001626 0.33480725 -1.5027081 0.9971602 -0.96542275 -3.0250914
-1.406772 0.38707206 -0.5624237 0.3017538 -0.21145391 -0.153613 -0.62983197 2.5549889
00000000: 2e6d 263f 75cd 8f3e 6171 213f 190c 143f
00000010: 4282 293f 9fe1 bd3e 479d 183f 66ae 5a3f
00000020: 9c2a 173f 46e6 3ebf a0ff 25bf bc27 5cbf
00000030: 9512 4abf cead aabe 5538 95be 0fa7 9bbe
00000040: 88f5 9ebe 5c29 14bf 6b05 23bf 9dc7 29bf
00000050: 793a fdbe ad05 4dbf 455e 4d3f 5ce1 66bf
00000060: 004c ddbe 1a6a 843e 2825 183f 8b16 cbbf
00000070: 9404 55bf 1e5b 86bf 21d5 f13d b897 e73e
00000080: 7d28 f4bd 3ae8 88bf 7eab 3cbe f0b0 2bc0
00000090: 0b8c 6abf 903b 63bf d8f1 78bf d811 f93c
000000a0: 365b 4c3c d4da 22be f177 733e f646 3f3f
000000b0: 9170 bb3e 62b8 953e b821 253f cebc 683f
000000c0: e6e6 093f 7624 d43e a01e da3e 5006 073f
000000d0: 5706 6d3f 412d 4b3f 47da 33bf 49f3 11bf
000000e0: 6f5e d4be 7f08 1bbf 201a aa3f 009f 63bf
000000f0: 2a8b 8f3e 156a e73e 9737 46bf 47e9 3cbf
00000100: 9c76 42bf 186f 32bf a82d f1be 03d0 39bf
00000110: f84d d8be 0540 03bf 60e3 8bbe c48f 09bf
00000120: 74b4 96bf b595 c0bf 2dba acbf e565 e7be
00000130: 80c3 50bc 036d 373e ca18 2cbf a074 6dbd
00000140: f756 cc3e 5a59 eb3e b20b 983e fa37 3a3f
00000150: 5070 483f 47a6 663f c0ab 2d3f b44d 503f
00000160: e05d b13e 1d10 0b3f a06a 23bf d561 c63e
00000170: 8725 8cbf 6903 973e 0159 2340 3777 923f
00000180: 8080 a6bf 9f1b 043f 94ee 8bbf 56b1 30bf
00000190: 30b5 52be a069 843f d001 59bf ad05 96be
000001a0: fe66 17bf ed0d 27bf 326b cbbe 92ad 39bf
000001b0: 26d0 c93e f768 1a3e 54b8 0fbe ea85 663f
000001c0: 6dbb 9b3f da72 ad3f efe3 263f 50e2 ae3e
000001d0: c3d3 163f ea1f 4e3f b2bb 8a3f 483b 433f
000001e0: 8a23 ff3c a24d bf3e 749a 953d fb42 35be
000001f0: e056 dabe 6b87 1cbf cf86 9bbf ac38 5ebe
00000200: 437a 82bf db15 d13c cc6b c33f 67a5 9a3e
00000210: 3ad1 adbf 1c62 813b 4c79 b7bf 9b2b 833f
00000220: 83d5 8a3d 7208 a63f 7375 a83d 92a8 c2bf
00000230: 74a8 d53e 12b8 953f 1e69 91be cb24 463f
00000240: 29b2 98bf cf1c 26bf cfa6 013e 65d8 87bf
00000250: 62df 5a3f 5502 473f 4fb4 58bf 0c41 6cbf
00000260: 8b5c e7bd 3254 4cbf 0c18 0f3f 27ab bc3e
00000270: 8bfb f4be f6c5 04bf 30fa 56bf a801 26bf
00000280: 5ad7 28bf ac2b 50bf 170c 00bf 12f2 743f
00000290: df10 34be 76d9 933f a851 4740 ce35 303f
000002a0: 949c 48bf a572 623f 5ced 78bf 9ec8 4ec0
000002b0: 8bc8 4bbf eb1d 74bf d3d6 96bf 635c 8e3f
000002c0: 19dc 833e ffe6 41bf cd82 4fbf d906 ffbe
000002d0: 55d3 34be 580c 9cbe 91ca aebf 962d 6c3f
000002e0: 6298 1b40 2a49 5a3f 83b7 9bbe c3ee a03f
000002f0: 06f1 163e 2749 7e3f 975d d43f 17be 603f
00000300: 187d 643f 0f7c 0f40 408c af3f 5841 64bf
00000310: 2cb9 02be dc50 47bf bde4 653f e604 9fbe
00000320: 7973 9e3f d212 d9be b6b2 a1bf 38c8 36bf
00000330: 7a36 1f40 cee6 1ebf d034 2140 00e6 96be
00000340: abfe 6b3e c4a4 13bf 5b55 563f 577b 793f
00000350: 7430 56bf b5d8 bcbe 7c1a 283e 4568 d2bf
00000360: 3f33 b13e dac1 323f 9c88 b63e cc9a 5b3f
00000370: f4a0 bb3e 87af fc3e 0a04 a43e adf3 513f
00000380: 6076 5d3f bd70 6fbf 65b9 9fbe c6a6 28bf
00000390: 7015 37bf 3d3f 33bf 73ce 4bbf cfbc 923e
000003a0: ff44 043f e0aa d43e 849b 7b3e a903 90be
000003b0: fdf8 4c3f c60c 47bf 8361 e3bf 30d9 94bf
000003c0: 5420 3e3d 4925 a8bf 36b0 c7be db6b ab3e
000003d0: bd58 c0bf e445 7f3f f225 77bf 199b 41c0
000003e0: 1b11 b4bf 4f2e c63e 00fb 0fbf 797f 9a3e
000003f0: 6087 58be ba4c 1dbe ab3c 21bf f084 2340

module.Conv1.layers.1.bias f4 [64]
-0.46266308 0.4725065 0.5640562 -0.34003356 -0.31574932 -0.7019897 -0.14703359 0.34120387
0.49275258 -0.22655977 0.10239372 -0.060822587 0.4222318 0.17369772 0.4902097 -0.23980367
0.28338826 -0.5180249 -0.3517784 0.5414221 -0.3741176 0.22883484 0.43525958 0.20041694
0.056135923 -0.2470488 0.48572803 0.264154 -0.6529798 -0.5982253 -0.38863793 -0.22613758
-0.34813043 -0.18126859 -0.008191106 0.7236343 -0.13189775 -0.78604627 0.29263413 -0.27481148
-0.08746011 0.30850196 -0.6297054 0.42437854 0.26018167 -0.13880867 -0.20987284 0.23284587
0.10136358 0.81823295 -0.006302443 -0.07649635 -0.1984141 -0.28561345 0.4419804 -0.7152483
-0.12812488 -0.42369422 0.09772079 -0.38893852 0.30025783 0.47621834 0.22704817 -0.1594208
00000000: 2de2 ecbe 5fec f13e fd65 103f e118 aebe
00000010: e5a9 a1be 99b5 33bf f98f 16be 46b2 ae3e
00000020: 114a fc3e 49ff 67be ccb3 d13d 1b21 79bd
00000030: c42e d83e d1dd 313e c4fc fa3e 188f 75be
00000040: 4418 913e 489d 04bf 4c1c b4be a49a 0a3f
00000050: 588c bfbe ae53 6a3e 58da de3e 193a 4d3e
00000060: c8ee 653d 5cfa 7cbe 58b1 f83e 313f 873e
00000070: af29 27bf 4b25 19bf 8dfb c6be 9c90 67be
00000080: 273e b2be 799e 39be fd33 06bc 1940 393f
00000090: 3410 07be 543a 49bf 24d4 953e 17b4 8cbe
000000a0: 491e b3bd f8f3 9d3e 6034 21bf 2548 d93e
000000b0: 8836 853e dc23 0ebe e8e8 56be 266f 6e3e
000000c0: b597 cf3d b777 513f b984 cebb 1eaa 9cbd
000000d0: 112d 4bbe ed3b 92be 414b e23e 831a 37bf
000000e0: 2b33 03be 73ee d8be d621 c83d f322 c7be
000000f0: 65bb 993e e4d2 f33e 517f 683e 353f 23be

module.Conv1.layers.2.weight f4 [64]
0.47270086 0.47534835 0.47084916 1.5055153 0.16871966 1.6971903 -0.17504048 0.46326715
1.5768043 0.7427902 2.1897247 1.5779672 0.4556859 0.5074789 1.8383362 0.85728526
0.49033183 -0.10017631 2.4567182 1.2346046 3.9275205 0.5594512 2.3875434 1.6781763
0.45057377 0.096522845 2.1952066 1.7852798 1.5216514 1.660159 1.4470818 0.37765592
0.5130075 1.707025 -0.08391621 0.53343946 1.944719 1.7351987 0.85211504 1.2258396
2.0369184 1.6015829 1.7841637 1.1106361 1.9108269 0.24918109 0.56687856 0.4716902
0.02117238 1.4343771 0.05956865 1.5041938 1.4152098 1.7803373 1.4402544 1.6607684
1.4560086 0.5767128 0.040146586 1.9984794 0.94949627 1.3576329 0.36057568 0.7029671
00000000: d905 f23e dc60 f33e 2413 f13e bab4 c03f
00000010: d9c4 2c3e 883d d93f d03d 33be 5a31 ed3e
00000020: b9d4 c93f 8027 3e3f 7324 0c40 d4fa c93f
00000030: aa4f e93e 23ea 013f 9a4e eb3f 0c77 5b3f
00000040: c60c fb3e 3d29 cdbd df3a 1d40 8607 9e3f
00000050: 7f5c 7b40 3238 0f3f 83cd 1840 7bce d63f
00000060: 9bb1 e63e c5ad c53d 447e 0c40 0c84 e43f
00000070: 79c5 c23f 1780 d43f fa39 b93f 1e5c c13e
00000080: 7654 033f cc7f da3f 43dc abbd 7d8f 083f
00000090: 8dec f83f fe1a de3f 3624 5a3f 50e8 9c3f
000000a0: df5c 0240 ab00 cd3f 7a5f e43f 5329 8e3f
000000b0: fa95 f43f 5429 7f3e f41e 113f 6181 f13e
000000c0: b371 ad3c ab99 b73f 42fe 733d 6c89 c03f
000000d0: 9825 b53f 18e2 e33f 425a b83f 0f94 d43f
000000e0: 7d5e ba3f 73a3 133f bf70 243d 2cce ff3f
000000f0: 3012 733f eac6 ad3f 609d b83e a7f5 333f

module.Conv1.layers.2.bias f4 [64]
-0.5497438 -0.6005419 -0.6366111 0.51365453 -0.8025073 0.8851063 -0.79170775 -0.57895696
-0.5236752 -2.4429178 0.97445846 0.8594288 -1.471193 -1.1967705 0.9818357 -0.20584029
-1.3188335 -0.7143817 0.52754796 -0.66863257 -0.13776535 -1.5918853 0.6758819 0.37297595
-0.53478986 -0.85625803 1.072959 2.0835497 0.75313836 0.68890136 0.39153987 -0.68665886
-0.5922595 0.4976143 -0.6985772 -0.7158621 0.82082266 0.70744395 -2.816044 0.037274335
0.55000544 0.7370749 0.9178914 -0.93024176 -1.0401281 -0.7004195 -0.44724637 -0.73897076
-0.75029564 0.84721696 -0.8911321 0.507463 -0.31228134 -0.4680019 0.04321652 0.22446568
-0.4654778 -0.4566445 -0.77355987 0.6296087 1.118169 -1.2779409 -1.1274558 -0.22619787
00000000: 02bc 0cbf 1dbd 19bf f2f8 22bf dd7e 033f
00000010: 1e71 4dbf 5496 623f 5cad 4abf 8636 14bf
00000020: 940f 06bf c458 1cc0 1c76 793f 8703 5c3f
00000030: 0d50 bcbf c72f 99bf 9659 7b3f ccc7 52be
00000040: 89cf a8bf b8e1 36bf 620d 073f 812b 2bbf
00000050: 5c12 0dbe e6c2 cbbf 9906 2d3f b4f6 be3e
00000060: fde7 08bf ba33 5bbf b856 893f e158 0540
00000070: adcd 403f d75b 303f ea77 c83e e0c8 2fbf
00000080: 529e 17bf 4dc7 fe3e f5d5 32bf bd42 37bf
00000090: 6f21 523f 0c1b 353f 113a 34c0 f9ac 183d
000000a0: 28cd 0c3f f1b0 3c3f eefa 6a3f 5324 6ebf
000000b0: eb22 85bf b14e 33bf 7afd e4be 302d 3dbf
000000c0: 6013 40bf 36e3 583f 3c21 64bf 18e9 013f
000000d0: 57e3 9fbe f29d efbe ce03 313d 55da 653e
000000e0: 1b53 eebe 4fcd e9be 0508 46bf 092e 213f
000000f0: 2920 8f3f 9193 a3bf 7950 90bf 6aa0 67be

module.Conv1.layers.2.running_mean f4 [64]
-2.9220104 2.7685232 1.6536356 2.9479666 0.40448913 -3.2847264 0.80978626 2.7666674
2.650023 -2.8458648 -0.35097313 1.5239859 -2.159995 -0.6991955 2.0940115 -1.6939178
1.6853011 1.278927 -2.4456322 3.7882717 -2.0944505 -2.6983402 -1.3603646 0.85704774
-2.3608072 1.1196909 2.667332 2.848222 -3.1642475 1.6119384 1.9808471 2.3201268
-1.9569958 2.4597352 1.2502129 3.261745 -0.1401186 0.014115711 -1.175126 2.354702
2.284916 2.819918 -1.7297271 -1.1351844 -2.3871415 1.0027493 -3.337349 2.123244
1.7435858 3.4138615 2.1796012 1.388473 2.74959 -2.8377743 2.6837997 -3.3019707
-2.3475764 2.1454813 2.8678403 -3.1877608 -0.89011693 2.9509573 -1.9055326 -1.375647
00000000: 3802 3bc0 7c2f 3140 55aa d33f 7cab 3c40
00000010: 3319 cf3e f538 52c0 274e 4f3f 1411 3140
00000020: fa99 2940 a622 36c0 c0b2 b3be f811 c33f
00000030: 5c3d 0ac0 7afe 32bf 4904 0640 4cd2 d8bf
00000040: f2b7 d73f e1b3 a33f 3d85 1cc0 0b73 7240
00000050: 7a0b 06c0 9bb1 2cc0 6d20 aebf 7b67 5b3f
00000060: 7717 17c0 0852 8f3f 91b5 2a40 4549 3640
00000070: 0883 4ac0 ff53 ce3f 668c fd3f f57c 1440
00000080: d77e fabf 4d6c 1d40 fa06 a03f 6ec0 5040
00000090: 407b 0fbe 9545 673c 876a 96bf 70b3 1640
000000a0: 103c 1240 8979 3440 b367 ddbf b94d 91bf
000000b0: edc6 18c0 175a 803f 2097 55c0 3be3 0740
000000c0: d22d df3f b57c 5a40 967e 0b40 7cb9 b13f
000000d0: 48f9 2f40 189e 35c0 60c3 2b40 7d53 53c0
000000e0: b13e 16c0 914f 0940 b28a 3740 4604 4cc0
000000f0: b4de 63bf 7cdc 3c40 7ee8 f3bf 3315 b0bf

module.Conv1.layers.2.running_var f4 [64]
3.266086 2.8418455 0.64825743 5.7876177 0.3122132 3.5942662 0.48872682 3.1740487
2.5391383 3.705893 0.15017486 1.3806937 3.619008 0.44192037 1.3623188 1.1209098
1.080921 1.7613958 2.4250727 5.6928964 1.6551204 4.7205105 1.7278993 0.24462435
3.1555226 1.0324919 2.6183152 3.6755745 3.512957 2.6158586 3.041822 3.5028865
1.3795071 3.7588708 0.8657152 3.4775958 0.032072525 0.37664255 1.1835688 3.7349887
3.0455897 3.3818424 0.94603634 1.3465064 3.7857947 0.72404695 5.267058 1.9430107
1.4665576 3.6416068 2.5768003 1.1822966 4.701134 3.5253744 2.7772214 3.61827
2.670337 3.5653222 4.138654 4.2678957 0.7837375 3.2785487 2.4457314 0.79623127
00000000: 8e07 5140 cce0 3540 33f4 253f 2a34 b940
00000010: 69da 9f3e 7508 6640 673a fa3e 9d23 4b40
00000020: 3e81 2240 5a2d 6d40 70c7 193e 92ba b03f
00000030: d49d 6740 6343 e23e 7660 ae3f f979 8f3f
00000040: 9f5b 8a3f 6b75 e13f 6434 1b40 352c b640
00000050: fcda d33f 6c0e 9740 ce2b dd3f ce7e 7a3e
00000060: 15f4 4940 b228 843f 7a92 2740 9d3c 6b40
00000070: 4ad4 6040 3a6a 2740 36ad 4240 4b2f 6040
00000080: b093 b03f 5791 7040 839f 5d3f ee90 5e40
00000090: 7b5e 033d 4bd7 c03e 2f7f 973f 0e0a 6f40
000000a0: f1ea 4240 1b70 5840 702f 723f 525a ac3f
000000b0: 764a 7240 245b 393f bd8b a840 93b4 f83f
000000c0: 29b8 bb3f 1610 6940 4cea 2440 7f55 973f
000000d0: b16f 9640 bc9f 6140 ffbd 3140 bc91 6740
000000e0: cde6 2a40 3d2e 6440 db6f 8440 9a92 8840
000000f0: 05a3 483f bed3 5140 dd86 1c40 d0d5 4b3f

module.Conv2.layers.0.weight f4 [64, 64, 3, 3]
-0.608118 -0.6006094 -0.60637254 -0.6359991 -0.62178504 -0.57476467 -0.5802143 -0.6412706
-0.5744806 0.6004518 0.5923213 0.56026006 0.640215 0.62642616 0.5968734 0.5874506
0.56696177 0.56195843 0.58872294 0.614904 0.64107406 0.5750178 0.61720663 0.58500016
0.60538524 0.5972683 0.5937903 0.6164013 0.6089804 0.6116226 0.5695065 0.6161986
0.6155167 0.6118079 0.6394795 0.5767967 -0.6350507 -0.58651084 -0.56210387 -0.622921
-0.5850664 -0.6070015 -0.62646526 -0.6331972 -0.59477335 0.6378766 0.61037326 0.60060835
0.5736989 0.61049545 0.6025568 0.63922083 0.58294517 0.6016262 -0.6075895 -0.6122286
-0.56929666 -0.5977248 -0.5888028 -0.5997836 -0.5677368 -0.58487123 -0.6166817 0.63926095
0.6319775 0.61042595 0.59547806 0.5697789 0.6089207 0.5811385 0.60642487 0.6098509
-0.5622783 -0.5967518 -0.616358 -0.57734877 -0.6311392 -0.5766836 -0.635995 -0.5696645
-0.5886398 0.5922513 0.6011693 0.6173327 0.57946825 0.58470833 0.57333916 0.6225944
0.5959853 0.56521416 0.6239792 0.56686574 0.597647 0.5810464 0.60805666 0.5894438
0.59938556 0.5768208 0.6312337 0.57145995 0.5941158 0.63731706 0.5840364 0.61627054
0.60952234 0.58917105 0.5653559 0.56224656 0.6278448 0.60584706 0.64088774 0.6327304
0.58323276 0.59226376 0.5595965 0.56652796 0.58223885 0.5598255 0.5608306 0.6288573
0.634427 0.62057656 0.6124555 0.6241869 0.5743835 0.60665375 0.62580454 0.571573
0.6014117 0.6023818 0.5898061 0.6271017 0.6040524 0.60344064 0.6171245 -0.6105155
-0.60223013 -0.5615876 -0.5681611 -0.5685462 -0.57732034 -0.63046813 -0.57590914 -0.57757914
0.59694916 0.59904456 0.6331746 0.59187603 0.6011696 0.6136343 0.6132069 0.5611437
0.63177747 -0.5680768 -0.59678584 -0.6115601 -0.5825277 -0.5810753 -0.5932368 -0.5925198
-0.5831712 -0.64153403 0.5776215 0.6027957 0.6203015 0.58867794 0.6339524 0.64350414
0.61714923 0.640238 0.56040347 0.6054005 0.59863484 0.5794826 0.63055855 0.5831874
0.5997003 0.63698465 0.6353788 0.5996049 0.62972355 0.6310794 0.5720065 0.6338708
0.60628545 0.61371815 0.62845755 0.58339924 0.5591036 0.60176754 0.5967452 0.58099616
0.5712588 0.57151175 0.5883736 0.5611192 0.5807987 0.5927014 -0.57675886 -0.5655841
-0.6286206 -0.5765907 -0.5941916 -0.584756 -0.64293677 -0.5792773 -0.6141373 0.62869126
0.6216175 0.6040533 0.55869585 0.57871467 0.5848237 0.58909076 0.6263425 0.5876128
-0.5807237 -0.61936337 -0.63512707 -0.6147324 -0.6245999 -0.574371 -0.5770661 -0.5666522
-0.6029861 -0.63268775 -0.63543135 -0.62293524 -0.62454087 -0.6104807 -0.60786635 -0.5783374
-0.58520895 -0.5731882 -0.63629365 -0.5641883 -0.62309587 -0.56311846 -0.5825458 -0.5988353
-0.5967151 -0.63220304 -0.61019266 -0.5733522 -0.6138358 -0.6304392 -0.5880282 -0.6225473
-0.5946823 -0.5681093 -0.59304994 -0.61798966 0.5719755 0.62936085 0.6093123 0.6273647
00000000: 9fad 1bbf 8ac1 19bf 3b3b 1bbf d6d0 22bf
00000010: 4e2d 1fbf c723 13bf ed88 14bf 4f2a 24bf
00000020: 2911 13bf 36b7 193f 5ea2 173f 346d 0f3f
00000030: 21e5 233f 775d 203f b2cc 183f 2a63 163f
00000040: 6824 113f 82dc 0f3f 8cb6 163f 596a 1d3f
00000050: 6e1d 243f 5e34 133f 4101 1e3f 92c2 153f
00000060: 87fa 1a3f 93e6 183f a402 183f 7acc 1d3f
00000070: 24e6 1b3f 4c93 1c3f 2ecb 113f 31bf 1d3f
00000080: 8192 1d3f 719f 1c3f eeb4 233f f3a8 133f
00000090: af92 22bf 9325 16bf 0ae6 0fbf c077 1fbf
000000a0: e9c6 15bf 7364 1bbf 0760 20bf 3619 22bf
000000b0: 1143 18bf e14b 233f 6c41 1c3f 78c1 193f
000000c0: eedd 123f 6e49 1c3f 2a41 1a3f faa3 233f
000000d0: e53b 153f 2d04 1a3f fc8a 1bbf 03bb 1cbf
000000e0: 6dbd 11bf 7e04 19bf c8bb 16bf 6b8b 19bf
000000f0: 3357 11bf 1fba 15bf dade 1dbf 9ba6 233f
00000100: 47c9 213f e044 1c3f 4071 183f 08dd 113f
00000110: 3ae2 1b3f 7ec5 143f a93e 1b3f 301f 1c3f
00000120: 78f1 0fbf bac4 18bf a3c9 1dbf 21cd 13bf
00000130: 5792 21bf 89a1 13bf 91d0 22bf 88d5 11bf
00000140: 19b1 16bf c89d 173f 3be6 193f 8409 1e3f
00000150: 0858 143f 72af 153f 5bc6 123f 5962 1f3f
00000160: 7e92 183f e0b1 103f 1abd 1f3f 1d1e 113f
00000170: 65ff 183f 75bf 143f 9aa9 1b3f cae5 163f
00000180: 5571 193f 87aa 133f 8898 213f 334b 123f
00000190: f917 183f 3627 233f 6983 153f e8c3 1d3f
000001a0: a809 1c3f ead3 163f 2abb 103f 64ef 0f3f
000001b0: 70ba 203f cb18 1b3f 3811 243f 9ffa 213f
000001c0: be4e 153f 999e 173f b741 0f3f fa07 113f
000001d0: 9b0d 153f b950 0f3f 9892 0f3f cbfc 203f
000001e0: cf69 223f 1bde 1e3f e2c9 1c3f b6ca 1f3f
000001f0: cc0a 133f a94d 1b3f ba34 203f 9c52 123f
00000200: 1ef6 193f b235 1a3f 88fd 163f bd89 203f
00000210: 2ea3 1a3f 167b 1a3f dffb 1d3f be4a 1cbf
00000220: c12b 1abf 34c4 0fbf 0173 11bf 3e8c 11bf
00000230: 44cb 13bf 5c66 21bf c86e 13bf 3adc 13bf
00000240: a9d1 183f fc5a 193f bb17 223f 3085 173f
00000250: 40e6 193f 2317 1d3f 21fb 1c3f 1da7 0f3f
00000260: 2bbc 213f 7b6d 11bf f5c6 18bf 348f 1cbf
00000270: 8920 15bf 5ac1 14bf 5ede 17bf 61af 17bf
00000280: b54a 15bf 933b 24bf 01df 133f d250 1a3f
00000290: 14cc 1e3f 99b3 163f b44a 223f b0bc 243f
000002a0: 7efd 1d3f a3e6 233f 9a76 0f3f 87fb 1a3f
000002b0: 2240 193f f958 143f 496c 213f c54b 153f
000002c0: f585 193f 6d11 233f 2fa8 223f b57f 193f
000002d0: 9035 213f 6b8e 213f 056f 123f 5b45 223f
000002e0: 8635 1b3f a21c 1d3f 98e2 203f a759 153f
000002f0: 6a21 0f3f 700d 1a3f 4bc4 183f 2abc 143f
00000300: 043e 123f 984e 123f a79f 163f 82a5 0f3f
00000310: 39af 143f 47bb 173f 78a6 13bf 1fca 10bf
00000320: 48ed 20bf 739b 13bf f11c 18bf 92b2 15bf
00000330: 8197 24bf 844b 14bf 1a38 1dbf e9f1 203f
00000340: 5322 1f3f 3da3 1a3f b106 0f3f a526 143f
00000350: 02b7 153f a7ce 163f fb57 203f cb6d 163f
00000360: 4faa 14bf 998e 1ebf b097 22bf 1a5f 1dbf
00000370: c7e5 1fbf fa09 13bf 9bba 13bf 1e10 11bf
00000380: 4c5d 1abf d3f7 21bf a1ab 22bf af78 1fbf
00000390: e9e1 1fbf 7748 1cbf 219d 1bbf eb0d 14bf
000003a0: 41d0 15bf 76bc 12bf 24e4 22bf a56e 10bf
000003b0: 3683 1fbf 8828 10bf b921 15bf 454d 19bf
000003c0: 52c2 18bf 0fd8 21bf 9635 1cbf 36c7 12bf
000003d0: 5824 1dbf 7764 21bf 0489 16bf 435f 1fbf
000003e0: 193d 18bf 9c6f 11bf 1fd2 17bf 9234 1ebf
000003f0: fd6c 123f cb1d 213f e4fb 1b3f f99a 203f

module.Conv2.layers.0.bias f4 [64]
-0.012221342 -0.17737913 0.043438308 -0.21407212 0.38898712 -0.082909495 -0.13581707 -0.29001114
0.050171867 0.041239582 0.063014805 -0.031876817 0.12956952 -0.115131624 -0.058053456 -0.016934406
-0.1151141 0.13778506 -0.15395701 -0.21611711 -0.17313085 0.30348438 -0.116219476 -0.044142395
0.24225911 0.03461406 0.032850526 -0.069164306 0.22858562 0.18451485 -0.0661955 -0.117674634
0.03527899 0.2327978 0.031058617 0.00941955 -0.16269915 -0.13318677 0.082937844 0.015360786
0.10669854 -0.09695767 -0.047261585 -0.31428888 -0.014071185 -0.08711971 0.013297284 -0.065591946
0.12782165 0.07754034 -0.015757663 0.10978871 0.051643956 0.1426901 0.07046235 -0.06706962
-0.12628104 0.17439976 -0.09095791 0.006731077 -0.14101544 -0.13124533 0.0862101 -0.15440573
00000000: 063c 48bc e0a2 35be 5eec 313d b935 5bbe
00000010: 5229 c73e 74cc a9bd a113 0bbe 577c 94be
00000020: 0481 4d3d d6ea 283d e80d 813d 4491 02bd
00000030: dfad 043e 21ca ebbd 76c9 6dbd 06ba 8abc
00000040: f1c0 ebbd 8717 0d3e e8a6 1dbe ce4d 5dbe
00000050: 3749 31be 4e62 9b3e 7a04 eebd a8ce 34bd
00000060: c612 783e 79c7 0d3d 468e 063d 04a6 8dbd
00000070: 5912 6a3e 76f1 3c3e 8291 87bd 66ff f0bd
00000080: b480 103d 8c62 6e3e a46e fe3c 7554 1a3c
00000090: 9b9a 26be 1d62 08be 51db a93d ceab 7b3c
000000a0: c484 da3d be91 c6bd 5d95 41bd 79ea a0be
000000b0: d48a 66bc d26b b2bd dadc 593c 1255 86bd
000000c0: aee3 023e 78cd 9e3d 3716 81bc e7d8 e03d
000000d0: 9d88 533d 5b1d 123e 914e 903d cc5b 89bd
000000e0: d14f 01be da95 323e 2448 babd 5e90 dc3b
000000f0: 5a66 10be 2d65 06be ec8e b03d 891c 1ebe

module.Conv2.layers.1.weight f4 [64]
1.6513171 0.37793255 1.7187734 0.39240152 0.47870532 1.430286 1.1782098 0.6293143
-0.0675971 0.92968786 1.1770697 0.007602104 0.7764915 0.7455889 0.9213693 1.6024458
0.36384597 0.71968824 0.5012669 1.899928 1.9165697 0.2650463 0.7851009 0.9689684
1.7311805 1.2290959 1.5984823 0.83171505 2.4551961 0.2042315 0.37092108 -0.0035328208
0.15617268 0.13199253 1.4184299 0.24882011 1.2552202 2.3346577 0.376777 0.6892811
0.6858817 1.4772683 0.8065091 1.5279171 1.0363939 -0.40732545 0.2454533 1.4146453
-0.12943053 1.3930709 1.1425326 1.9643158 1.3808787 2.386125 2.0675652 1.7354231
2.3096464 0.5742405 0.03083813 0.47412607 0.14817713 1.7215364 1.2690578 0.607645
00000000: 5c5e d33f 6080 c13e c400 dc3f dae8 c83e
00000010: dd18 f53e 9d13 b73f 94cf 963f be1a 213f
00000020: 5970 8abd 0600 6e3f 38aa 963f 121b f93b
00000030: 26c8 463f eade 3e3f dcde 6b3f f21c cd3f
00000040: 054a ba3e 7d3d 383f 0753 003f d730 f33f
00000050: 2852 f53f 26b4 873e 5ffc 483f 500e 783f
00000060: 5397 dd3f 0453 9d3f 119b cc3f 47eb 543f
00000070: ef21 1d40 1022 513e 5ee9 bd3e e686 67bb
00000080: bbeb 1f3e 0d29 073e 1c8f b53f b3ca 7e3e
00000090: 0eab a03f 086b 1540 eae8 c03e ba74 303f
000000a0: f195 2f3f 2117 bd3f 6177 4e3f ca92 c33f
000000b0: 8ea8 843f f68c d0be 1c58 7b3e 1913 b53f
000000c0: 7089 04be 2650 b23f 823e 923f b36e fb3f
000000d0: a2c0 b03f 46b6 1840 fd52 0440 5822 de3f
000000e0: 3fd1 1340 6d01 133f 3fa0 fc3c a7c0 f23e
000000f0: bfbb 173e 4e5b dc3f 7c70 a23f 9f8e 1b3f

module.Conv2.layers.1.bias f4 [64]
-0.15866959 -0.5616207 1.2520683 -0.50444716 -0.46495044 -0.04379345 -0.5303727 -0.7693492
-0.5937549 -1.4648464 -0.09194613 -0.96824354 -0.14328071 -0.056256868 -1.5267684 -0.23286125
-0.36639106 -1.1008888 -0.6841838 0.6991644 -0.1033691 -1.144404 0.5761101 0.8797
-0.7139047 0.10156988 -4.842267 -0.15664557 -0.6539619 -0.61629766 -1.4858987 -1.6215295
-0.4085873 -0.54837257 0.26250395 -0.43472502 -0.35271907 -1.5775766 -0.47329205 0.0058698375
0.21780607 -0.0100292675 -0.26479235 0.15059201 0.9009685 -1.000955 -0.39371315 -0.24400489
-0.87475234 0.8271036 0.35872102 1.993536 1.6869028 -2.57484 1.4434217 -1.4162374
-3.723572 -2.2512636 -0.8544697 -0.7069643 -0.416113 -0.123994134 0.07079034 0.8058951
00000000: 487a 22be 60c6 0fbf c643 a03f 7323 01bf
00000010: fc0d eebe c360 33bd 81c6 07bf 12f4 44bf
00000020: 5200 18bf 1680 bbbf 414e bcbd cfde 77bf
00000030: 2eb8 12be 9a6d 66bd 266d c3bf 2e73 6ebe
00000040: 9c97 bbbe ede9 8cbf ab26 2fbf 70fc 323f
00000050: 2eb3 d3bd d57b 92bf f47b 133f 0534 613f
00000060: 75c2 36bf df03 d03d daf3 9ac0 b267 20be
00000070: 0c6a 27bf afc5 1dbf ee31 bebf 478e cfbf
00000080: 5b32 d1be 2562 0cbf eb66 863e 4794 debe
00000090: 9897 b4be 08ee c9bf 5653 f2be c457 c03b
000000a0: 8e08 5f3e cc51 24bc dd92 87be cb34 1a3e
000000b0: dfa5 663f 4b1f 80bf c594 c9be 6bdc 79be
000000c0: c5ef 5fbf 10bd 533f 48aa b73e 302c ff3f
000000d0: 6eec d73f 2eca 24c0 0bc2 b83f 4447 b5bf
000000e0: 014f 6ec0 b414 10c0 87be 5abf 9dfb 34bf
000000f0: c30c d5be a3f0 fdbd 87fa 903d 244f 4e3f

module.Conv2.layers.1.running_mean f4 [64]
36.800415 -27.049574 125.062904 -37.953754 -37.0528 36.855698 -37.857197 -37.380882
-67.43043 99.01778 -68.41306 36.47542 -35.29687 37.068096 37.89183 83.19778
16.294584 4.4910846 -8.0421095 99.94423 38.738945 -34.443764 -26.3222 -25.55471
41.99037 -37.015594 51.475487 -27.85712 37.508533 -96.5441 64.283066 109.80108
-47.215446 -36.93096 -9.505705 -56.502995 91.021385 80.04611 -95.35184 110.49941
115.9582 115.75322 69.50482 109.601555 -44.40102 33.30951 -68.02884 67.883766
109.05772 82.48201 61.130074 -57.842716 -94.612305 38.963223 -68.77402 115.172775
97.9687 19.022284 42.26723 -61.574844 -84.934456 36.382473 95.56774 -38.17632
00000000: a033 1342 8765 d8c1 3520 fa42 a5d0 17c2
00000010: 1136 14c2 3c6c 1342 c56d 17c2 0686 15c2
00000020: 61dc 86c2 1a09 c642 7dd3 88c2 d5e6 1142
00000030: ff2f 0dc2 bb45 1442 3c91 1742 4365 a642
00000040: 4f5b 8241 f7b6 8f40 7bac 00c1 72e3 c742
00000050: aef4 1a42 6ac6 09c2 de93 d2c1 0c70 ccc1
00000060: 24f6 2742 f80f 14c2 e6e6 4d42 62db dec1
00000070: bd08 1642 9416 c1c2 ee90 8042 279a db42
00000080: 9edc 3cc2 4eb9 13c2 5e17 18c1 1103 62c2
00000090: f30a b642 9c17 a042 24b4 bec2 b3ff dc42
000000a0: 99ea e742 a681 e742 7802 8b42 ff33 db42
000000b0: a59a 31c2 f03c 0542 c40e 88c2 7dc4 8742
000000c0: 8d1d da42 caf6 a442 3285 7442 f15e 67c2
000000d0: 8039 bdc2 57da 1b42 4c8c 89c2 7658 e642
000000e0: f9ef c342 a32d 9841 a511 2942 a44c 76c2
000000f0: 71de a9c2 a787 1142 af22 bf42 8db4 18c2

module.Conv2.layers.1.running_var f4 [64]
6948.6055 7523.4243 9172.196 6860.1133 6550.1543 7516.6865 6547.932 6962.366
1369.5328 3038.3962 4399.169 6578.824 6202.035 6882.8696 6966.6675 2627.635
3313.557 864.59515 1871.1082 5655.258 6763.8438 7087.653 2456.5767 4159.955
3897.1755 6163.1235 9371.106 4246.76 6810.1035 2121.9604 1655.354 4094.1665
1824.0173 6665.5146 4578.2734 1582.0825 4811.0913 1943.5409 4194.11 5897.3286
4409.437 4580.761 6990.6157 4715.3857 6511.5005 388.51358 5327.982 5204.1567
4246.313 3108.361 2657.86 1876.2891 1795.4749 6857.864 1551.1473 4660.0825
3103.419 2271.2656 551.06976 7919.971 1869.591 6663.466 2369.2798 6914.5166
00000000: d824 d945 651b eb45 c950 0f46 e860 d645
00000010: 3cb1 cc45 7ee5 ea45 759f cc45 ee92 d945
00000020: 0d31 ab44 57e6 3d45 5a79 8945 9896 cd45
00000030: 48d0 c145 f516 d745 57b5 d945 293a 2445
00000040: e918 4f45 1726 5844 76e3 e944 10ba b045
00000050: c05e d345 397d dd45 3a89 1945 a4ff 8145
00000060: cf92 7345 fd98 c045 6d6c 1246 14b6 8445
00000070: d4d0 d445 5e9f 0445 54eb ce44 aae2 7f45
00000080: 8e00 e444 1e4c d045 3012 8f45 a4c2 c544
00000090: bb58 9645 4ff1 f244 e110 8345 a14a b845
000000a0: 7fcb 8945 1726 8f45 ed74 da45 165b 9345
000000b0: 017c cb45 bd41 c243 db7f a645 41a1 a245
000000c0: 81b2 8445 c745 4245 c31d 2645 4089 ea44
000000d0: 326f e044 e94e d645 b7e4 c144 a9a0 9145
000000e0: b4f6 4145 40f4 0d45 77c4 0944 c57f f745
000000f0: e9b2 e944 ba3b d045 7a14 1445 2214 d845

module.Conv3.layers.0.weight f4 [64, 64, 3, 3]
0.59334916 0.64238816 0.57294875 -0.5648833 0.59537095 0.60714597 -0.6347722 -0.6144252
-0.59923977 -0.5758703 -0.5920607 -0.59305394 -0.5618305 -0.60125554 -0.5853371 -0.5890986
-0.61510795 -0.5979057 0.60839176 0.5811701 0.62300986 0.60205185 0.6395534 0.64806765
0.62239856 0.6197813 0.57705843 -0.5722605 -0.59385085 -0.56797373 -0.5804118 -0.62060773
-0.5619639 -0.62151396 -0.56187165 -0.57828987 -0.5697189 -0.6022184 -0.5733087 -0.5723785
-0.63556075 -0.5927999 -0.576174 -0.590257 -0.58636856 -0.61887485 -0.6097728 -0.6385365
-0.59529793 -0.60413957 -0.595227 -0.59556514 -0.61429334 -0.5872016 0.60658705 0.62771
-0.4796228 0.55835855 0.6380069 0.6108291 0.6407246 0.58618 0.5903612 -0.6181844
-0.60877407 -0.62552315 -0.6039598 -0.62615234 -0.61751235 -0.61225635 -0.62960553 -0.6414947
0.619778 0.6399109 0.6279733 0.6118969 0.5749358 0.58102405 0.56438094 0.6293179
0.5747099 -0.57400066 -0.59259623 -0.6306966 -0.55895865 -0.579838 -0.610007 -0.6025888
-0.63772774 -0.563353 0.62210757 0.605356 0.6378386 0.5889688 0.6027866 0.5765501
0.6490068 0.5899089 0.64349914 0.5936607 0.60832953 0.60830665 0.57446027 0.5942412
0.6095128 0.59870696 0.58118534 0.5631636 0.57921344 0.6310089 0.6442649 0.5770911
0.5992016 0.63415277 0.5723971 0.60311025 0.5703726 -0.5617918 -0.6063223 -0.6228613
-0.56589514 -0.6089952 -0.622591 -0.56622666 -0.5761 -0.55957043 -0.5719005 -0.6118592
-0.5731066 -0.6010865 -0.6196175 -0.59027827 -0.57045937 -0.61012316 -0.58614916 -0.5982509
-0.62520474 -0.56956416 -0.61328715 -0.57465225 -0.60468614 -0.6057326 -0.5871116 -0.62383556
-0.62760276 -0.5824756 -0.61612415 -0.62293607 -0.5623889 -0.5688139 -0.61479163 -0.5643849
-0.60331297 -0.59314233 -0.5900857 -0.60837406 -0.5779482 -0.5944031 -0.6342755 -0.6154523
-0.5635142 -0.62853724 0.63738734 0.5772122 0.6327172 0.5621776 0.5622549 0.5774231
0.5827103 0.56108147 0.6183702 -0.6212776 -0.5923316 -0.593341 -0.5499575 -0.55597055
-0.59914786 -0.5659713 -0.55608976 -0.6025382 -0.6414214 -0.5663573 -0.6095827 -0.61276317
-0.59244466 -0.5733874 -0.58269936 -0.6031205 -0.60745424 0.6168259 0.5698391 0.6257442
0.62384355 0.5784032 0.637498 0.5778498 0.5646131 0.6182197 -0.62478536 -0.5926595
-0.62988245 -0.63107675 -0.6366139 -0.57435185 -0.6101982 -0.5825548 -0.56477636 -0.6088443
-0.57982653 -0.6143676 -0.6063965 -0.55814844 -0.6411018 -0.6271376 -0.62198776 -0.6401855
-0.61097336 -0.56930584 -0.6407634 -0.56452036 -0.6238318 -0.6362246 -0.596785 -0.60670733
-0.5700574 0.619407 0.638405 0.5986195 0.63559926 0.61450124 0.58585966 0.5745484
0.57933795 0.6060883 -0.6023373 -0.6195787 -0.5806021 -0.5697348 -0.5924083 -0.63460857
-0.56292033 -0.5937376 -0.61200607 0.5906565 0.5695672 0.57019323 0.59281623 0.5634877
0.6309333 0.58143216 0.5992138 0.58316964 -0.59200555 -0.57271725 -0.56220317 -0.5889623
00000000: bbe5 173f 8d73 243f c5ac 123f 319c 10bf
00000010: 3b6a 183f eb6d 1b3f 6e80 22bf f84a 1dbf
00000020: c767 19bf 3c6c 13bf 4a91 17bf 62d2 17bf
00000030: 20d4 0fbf e2eb 19bf a7d8 15bf 2acf 16bf
00000040: b777 1dbf 5910 19bf 90bf 1b3f 90c7 143f
00000050: 937d 1f3f 1220 1a3f c6b9 233f c3e7 253f
00000060: 8355 1f3f fda9 1e3f 1aba 133f aa7f 12bf
00000070: 9c06 18bf ba66 11bf de95 14bf 26e0 1ebf
00000080: dedc 0fbf 8a1b 1fbf d2d6 0fbf ce0a 14bf
00000090: 19d9 11bf fc2a 1abf 5cc4 12bf 6687 12bf
000000a0: 1cb4 22bf bcc1 17bf 2480 13bf 151b 17bf
000000b0: 401c 16bf 956e 1ebf 121a 1cbf 2177 23bf
000000c0: 7265 18bf e4a8 1abf cc60 18bf f576 18bf
000000d0: 5442 1dbf d852 16bf 4a49 1b3f 9ab1 203f
000000e0: 1f91 f5be 96f0 0e3f 6c54 233f 4c5f 1c3f
000000f0: 8706 243f e40f 163f e921 173f 5541 1ebf
00000100: 9ed8 1bbf 4922 20bf 1c9d 1abf 854b 20bf
00000110: 4a15 1ebf d5bc 1cbf d42d 21bf ff38 24bf
00000120: c5a9 1e3f 33d1 233f dcc2 203f 46a5 1c3f
00000130: fe2e 133f febd 143f 457b 103f fa1a 213f
00000140: 3020 133f b5f1 12bf 63b4 17bf 5575 21bf
00000150: ea17 0fbf 4370 14bf 6b29 1cbf 4243 1abf
00000160: 2042 23bf e737 10bf 7142 1f3f 9cf8 1a3f
00000170: 6449 233f a9c6 163f 3950 1a3f ca98 133f
00000180: 4f25 263f 4504 173f 5cbc 243f 26fa 173f
00000190: 7cbb 1b3f fcb9 1b3f d40f 133f 3120 183f
000001a0: 0809 1c3f dc44 193f 90c8 143f 7d2b 103f
000001b0: 5547 143f cd89 213f 8bee 243f 3ebc 133f
000001c0: 4765 193f d657 223f 9e88 123f 6f65 1a3f
000001d0: f003 123f 96d1 0fbf f037 1bbf d773 1fbf
000001e0: 81de 10bf 1ce7 1bbf 2062 1fbf 3bf4 10bf
000001f0: 4a7b 13bf 0240 0fbf 1268 12bf cea2 1cbf
00000200: 1db7 12bf cee0 19bf 419f 1ebf 7a1c 17bf
00000210: a009 12bf 0831 1cbf df0d 16bf f926 19bf
00000220: 6b0d 20bf f5ce 11bf 6300 1dbf 691c 13bf
00000230: b6cc 1abf 4b11 1bbf f24c 16bf b0b3 1fbf
00000240: 93aa 20bf 1f1d 15bf 50ba 1dbf bd78 1fbf
00000250: b8f8 0fbf ca9d 11bf fc62 1dbf 877b 10bf
00000260: b872 1abf 2dd8 17bf db0f 17bf 67be 1bbf
00000270: 6af4 13bf cd2a 18bf e15f 22bf 488e 1dbf
00000280: 7742 10bf d1e7 20bf d12b 233f 2ec4 133f
00000290: c1f9 213f dfea 0f3f f0ef 0f3f 00d2 133f
000002a0: 812c 153f 09a3 0f3f 824d 1e3f 0c0c 1fbf
000002b0: 0ba3 17bf 32e5 17bf 04ca 0cbf 1654 0ebf
000002c0: c161 19bf 7fe3 10bf e65b 0ebf f23f 1abf
000002d0: 3134 24bf cbfc 10bf 9d0d 1cbf 0cde 1cbf
000002e0: 74aa 17bf 84c9 12bf c92b 15bf 1b66 1abf
000002f0: 1f82 1bbf 4de8 1d3f fae0 113f c630 203f
00000300: 36b4 1f3f 3b12 143f 1233 233f f7ed 133f
00000310: 7c8a 103f a543 1e3f eff1 1fbf 88b8 17bf
00000320: fa3f 21bf 3f8e 21bf 21f9 22bf b908 13bf
00000330: f335 1cbf 5022 15bf 2f95 10bf 38dd 1bbf
00000340: 836f 14bf 3247 1dbf cd3c 1bbf d1e2 0ebf
00000350: 3f1f 24bf 178c 20bf 973a 1fbf 32e3 23bf
00000360: c068 1cbf 07be 11bf 1209 24bf 6884 10bf
00000370: 71b3 1fbf 9edf 22bf e7c6 18bf 2c51 1bbf
00000380: 48ef 11bf 7591 1e3f 836e 233f 213f 193f
00000390: a2b6 223f f44f 1d3f e6fa 153f 9b15 133f
000003a0: 7e4f 143f 9a28 1b3f c732 1abf b69c 1ebf
000003b0: 57a2 14bf 24da 11bf 12a8 17bf b575 22bf
000003c0: 8c1b 10bf 30ff 17bf 6eac 1cbf 4435 173f
000003d0: 28cf 113f 2ff8 113f cec2 173f bb40 103f
000003e0: d884 213f bdd8 143f 1366 193f 9b4a 153f
000003f0: ad8d 17bf 999d 12bf 8cec 0fbf 3cc6 16bf

module.Conv3.layers.0.bias f4 [64]
0.024920927 0.019562948 -0.030391809 -0.038751647 0.052792948 0.020226168 0.059802298 -0.07569942
-0.075535744 0.083655074 -0.052699372 0.030956028 -0.10174226 -0.038521152 0.028432908 -0.103521
-0.053411584 -0.10653546 0.16914791 -0.0159997 -0.10236897 -0.014542398 0.035588227 -0.13833883
0.02569352 -0.06479576 -0.15234934 0.035636343 -0.033063818 0.05814275 -0.040586315 -0.07281985
-0.040378537 0.04307262 0.020418784 -0.052074693 0.005118909 -0.110577874 0.094477475 0.03168527
0.039026912 0.002525067 -0.006703112 -0.0007091936 0.057327993 0.0061426274 0.0037342687 0.043332092
-0.07754274 -0.065514624 0.04955125 -0.010962284 0.09708561 0.004361038 0.1497023 -0.06273936
-0.08202784 -0.08205796 0.08892612 -0.09559459 -0.08268079 -0.09618365 0.04509114 0.024164842
00000000: f926 cc3c 7a42 a03c 3ef8 f8bc 0cba 1ebd
00000010: 6b3d 583d 59b1 a53c 41f3 743d 4c08 9bbd
00000020: 7cb2 9abd 5a53 ab3d 4cdb 57bd 7f97 fd3c
00000030: 3f5e d0bd 5bc8 1dbd 21ec e83c d102 d4bd
00000040: 1bc6 5abd 432f dabd 1c35 2d3e ce11 83bc
00000050: d3a6 d1bd 3d43 6ebc f6c4 113d b2a8 0dbe
00000060: 387b d23c a4b3 84bd 7701 1cbe 6af7 113d
00000070: ed6d 07bd 1827 6e3d d63d 26bd 9322 95bd
00000080: f763 25bd ea6c 303d 4b45 a73c 464c 55bd
00000090: 85bc a73b a776 e2bd 687d c13d 6ac8 013d
000000a0: afda 1f3d 987b 253b c7a5 dbbb 2de9 39ba
000000b0: c2d0 6a3d 1848 c93b a2ba 743b fe7c 313d
000000c0: bace 9ebd 882c 86bd 40f6 4a3d 279b 33bc
000000d0: d2d4 c63d 0ae7 8e3b 8f4b 193e 7e7d 80bd
000000e0: 36fe a7bd 010e a8bd e61e b63d 19c7 c3bd
000000f0: 8c54 a9bd effb c4bd 7db1 383d 59f5 c53c

module.Conv3.layers.1.weight f4 [64]
2.556685 1.3949908 0.8127752 1.7135587 1.4588464 1.8767622 1.7851295 2.0031004
0.45921704 1.3784001 0.5244045 0.94804275 1.1238039 1.1923146 0.9709125 1.3878717
0.5470734 1.3729342 2.245233 0.87528455 -1.6564208 1.2257901 1.0938023 -0.40487686
1.1033363 2.332268 -0.35190034 -0.6163182 0.42897514 0.9258545 1.5279976 2.125871
0.8482521 0.8397543 1.4880664 0.51733345 0.527691 -0.42134616 0.8252197 0.45537308
0.60072327 0.34168822 0.22748156 1.6862568 -0.071771495 0.8431679 1.0795935 0.89006996
1.2446558 1.3721036 2.4769595 0.58619833 1.3316563 1.9692838 1.5865355 1.2371222
1.5911379 1.0659332 1.455068 -1.0552529 -0.39571476 1.3375279 0.55918634 0.40953112
00000000: baa0 2340 0f8f b23f 0912 503f e455 db3f
00000010: 7bbb ba3f be39 f03f 207f e43f cc32 0040
00000020: 7f1e eb3e 6a6f b03f 603f 063f eeb2 723f
00000030: ced8 8f3f c49d 983f b98d 783f c8a5 b13f
00000040: 010d 0c3f 4fbc af3f e6b1 0f40 a612 603f
00000050: 9905 d4bf b1e6 9c3f b701 8c3f 054c cfbe
00000060: 203a 8d3f e143 1540 482c b4be 08c7 1dbf
00000070: a1a2 db3e cd04 6d3f 6d95 c33f 450e 0840
00000080: 0d27 593f 23fa 563f f678 be3f f76f 043f
00000090: c216 073f afba d7be 9941 533f a926 e93e
000000a0: 00c9 193f c2f1 ae3e edf0 683e 43d7 d73f
000000b0: effc 92bd dad9 573f 1f30 8a3f a0db 633f
000000c0: e250 9f3f 17a1 af3f 8186 1e40 1811 163f
000000d0: b773 aa3f 7e11 fc3f 9813 cb3f 055a 9e3f
000000e0: 68aa cb3f 8070 883f ab3f ba3f 8712 87bf
000000f0: 209b cabe 1d34 ab3f d626 0f3f 10ae d13e

module.Conv3.layers.1.bias f4 [64]
0.08159516 -0.66370565 -1.681361 -0.35149628 -0.4516575 0.5876609 0.717842 -2.224135
-1.7513567 -0.055508774 3.3043299 1.0988368 0.8923591 -2.183054 -1.2546585 0.07932217
-1.4668821 -1.6652191 -0.5874859 -0.7931771 -0.39173594 -0.07919015 -0.13360588 2.481447
-0.6748331 -0.99140036 -1.9426807 -0.79999274 -2.9133215 -1.1136339 -0.020461783 0.6537227
-0.33875042 0.81280637 -0.7358271 3.4591563 1.8370494 -2.5579216 -1.3805213 3.0368116
-0.029612549 2.1017299 -1.7443271 0.22389917 -2.389914 0.08248919 -0.13756554 -0.2479818
1.3901526 0.6196477 -0.6721156 0.38776585 -0.35305494 -0.37182364 0.19071802 -1.1508516
0.1750947 -0.8572614 0.8889069 -1.6930776 1.8222007 -1.0230427 -3.1754909 1.6391823
00000000: 5d1b a73d 9de8 29bf d636 d7bf 52f7 b3be
00000010: a73f e7be f270 163f 7ec4 373f 3a58 0ec0
00000020: 752c e0bf 2b5d 63bd 247a 5340 afa6 8c3f
00000030: a571 643f 28b7 0bc0 a698 a0bf a973 a23d
00000040: cbc2 bbbf e625 d5bf 7a65 16bf a80d 4bbf
00000050: 9d91 c8be 722e a2bd fbcf 08be 07d0 1e40
00000060: ddc1 2cbf 6acc 7dbf c3a9 f8bf 53cc 4cbf
00000070: dc73 3ac0 8e8b 8ebf 789f a7bc 5f5a 273f
00000080: b270 adbe 1414 503f 2a5f 3cbf d162 5d40
00000090: 6f24 eb3f fdb4 23c0 ecb4 b0bf 1f5b 4240
000000a0: 0496 f2bc be82 0640 1c46 dfbf d345 653e
000000b0: 5af4 18c0 18f0 a83d fbdd 0cbe f1ee 7dbe
000000c0: 85f0 b13f 3ba1 1e3f c50f 2cbf 3f89 c63e
000000d0: 9ec3 b4be ab5f bebe 964b 433e 1b4f 93bf
000000e0: 064c 333e 7c75 5bbf 678f 633f c4b6 d8bf
000000f0: df3d e93f 10f3 82bf 3e3b 4bc0 bad0 d13f

module.Conv3.layers.1.running_mean f4 [64]
-104.20051 -90.10211 119.710434 -87.0175 -136.68755 -103.28781 107.98627 76.72678
88.94171 -82.2299 -129.80817 132.62938 -138.63028 -109.56424 82.83122 113.522316
-96.402695 92.19987 76.42912 -74.7946 109.62585 -62.079952 84.18184 -81.88499
-119.57567 51.033012 105.59456 77.40208 142.41422 95.62207 -75.91285 -123.08199
51.636845 -76.16528 -146.15689 -133.93622 37.48761 -47.222694 -91.08909 -75.115814
-129.1159 -93.83518 -137.58267 -99.437904 79.55059 -169.84947 -104.66655 -49.90648
-100.074394 -52.69518 25.852962 122.89402 80.91051 -78.580154 110.15868 -131.18748
-97.99693 108.9318 190.53076 -174.90182 -115.64351 -145.66049 100.01092 -105.90246
00000000: a966 d0c2 4834 b4c2 be6b ef42 f608 aec2
00000010: 03b0 08c3 5c93 cec2 f8f8 d742 1d74 9942
00000020: 28e2 b142 b575 a4c2 e4ce 01c3 1fa1 0443
00000030: 5aa1 0ac3 e420 dbc2 96a9 a542 6d0b e342
00000040: 2ece c0c2 5566 b842 b6db 9842 d696 95c2
00000050: 6f40 db42 df51 78c2 1a5d a842 1dc5 a3c2
00000060: be26 efc2 ce21 4c42 6a30 d342 ddcd 9a42
00000070: 0a6a 0e43 803e bf42 61d3 97c2 fb29 f6c2
00000080: 218c 4e42 a054 98c2 2a28 12c3 acef 05c3
00000090: 50f3 1542 0ae4 3cc2 9d2d b6c2 4c3b 96c2
000000a0: ac1d 01c3 9dab bbc2 2a95 09c3 35e0 c6c2
000000b0: e719 9f42 77d9 29c3 4655 d1c2 3ca0 47c2
000000c0: 1726 c8c2 ddc7 52c2 ded2 ce41 bdc9 f542
000000d0: 2ed2 a142 0a29 9dc2 3f51 dc42 ff2f 03c3
000000e0: 6efe c3c2 15dd d942 e087 3e43 dee6 2ec3
000000f0: 7a49 e7c2 16a9 11c3 9705 c842 0fce d3c2

module.Conv3.layers.1.running_var f4 [64]
3603.2915 4576.589 4752.11 1949.868 2379.79 1427.4779 2441.3772 2415.2588
1490.7256 2595.3845 1737.3595 3852.2139 2097.1257 2673.1355 2792.5476 1311.4326
3112.3254 1244.6766 927.2814 1592.9949 1815.9711 1368.4734 3645.806 922.9163
2529.8625 3758.744 2785.8074 5358.4526 6013.017 4188.2354 1888.7546 5376.274
536.05444 3447.0918 2145.3677 4431.8794 9013.858 7003.2534 3368.0112 5962.6685
2940.7822 3695.4036 2163.9824 2262.3774 472.46664 12747.109 4555.2256 645.7675
1661.6508 2656.7024 6010.1333 2735.6353 1212.9773 1983.6077 1664.832 7666.4927
5937.0767 2480.076 19056.62 4601.7944 10093.172 5780.491 1350.7076 1717.8204
00000000: aa34 6145 b604 8f45 e180 9445 c7bb f344
00000010: a4bc 1445 4b6f b244 0996 1845 24f4 1645
00000020: 3857 ba44 2736 2245 812b d944 6cc3 7045
00000030: 0312 0345 2b12 2745 c388 2e45 d8ed a344
00000040: 3585 4245 a795 9b44 02d2 6744 d61f c744
00000050: 13ff e244 260f ab44 e5dc 6345 a5ba 6644
00000060: cd1d 1e45 e7eb 6a45 eb1c 2e45 9f73 a745
00000070: 23e8 bb45 e2e1 8245 2618 ec44 3102 a845
00000080: 7c03 0644 7871 5745 e215 0645 097f 8a45
00000090: 6fd7 0c46 07da da45 2e80 5245 5955 ba45
000000a0: 84cc 3745 75f6 6645 b83f 0745 0a66 0d45
000000b0: bb3b ec43 702c 4746 ce59 8e45 1f71 2144
000000c0: d3b4 cf44 3d0b 2645 11d1 bb45 2afa 2a45
000000d0: 469f 9744 72f3 f744 a01a d044 f193 ef45
000000e0: 9d88 b945 3701 1b45 3de1 9446 5bce 8f45
000000f0: b0b4 1d46 eea3 b445 a5d6 a844 41ba d644

module.Conv4.layers.0.weight f4 [64, 64, 3, 3]
0.60143524 -0.6489739 0.60420346 0.561732 0.62780887 0.56100065 0.59380054 0.56303316
0.62706363 -0.6205239 -0.5845218 -0.6084314 -0.5571891 -0.56250715 -0.62335145 -0.5961186
-0.6013443 -0.58921003 0.6211293 0.6453284 1.0716416 0.65703535 0.6370984 0.6509736
0.6611587 0.66862345 0.68797475 -0.5597068 -0.5695717 -0.62194854 -0.579453 -0.5927488
-0.6125741 -0.5733459 -0.61254394 -0.57174915 -0.5792877 -0.6212362 -0.5727857 -0.628133
-0.57750684 -0.5790442 -0.6075022 -0.6285063 -0.55844915 -0.5866372 -0.5970419 -0.5760955
-0.618181 -0.54220337 -0.5389318 -0.5526006 -0.60604435 -0.58917207 -0.5717914 -0.58632255
-0.5775405 -0.6251044 -0.5972721 -0.5887489 -0.61187947 -0.5923378 -0.56905615 -0.61638564
-0.62737197 -0.625406 -0.62828267 -0.5693128 -0.5703541 -0.5754773 -0.6278697 -0.61996704
0.6255761 0.641652 0.5769402 0.5613052 0.5999066 0.5624849 0.6430117 0.63475776
0.55586797 -0.5942636 -0.6208229 -0.6716192 -0.631259 -0.62244606 -0.7438556 -0.5993538
-0.5842467 -0.5901996 -0.75662005 0.548334 0.6002027 0.58488214 0.61416435 0.54836214
0.5986461 0.5436123 0.48674688 0.62519795 0.558969 0.6096388 0.6168572 0.5988775
0.62761676 0.6392703 0.56554323 0.56097347 0.5870324 0.4766319 -0.6275683 0.57207966
0.13287021 -0.63363403 0.5689136 0.5836564 -0.61425215 0.62927765 -0.6266928 -0.59821504
-0.6198419 -0.6085973 -0.6411792 -0.52266735 -0.5894735 -0.57399267 -0.6157307 -0.6694527
-0.6361069 -0.6061329 -0.6400941 -0.5903057 -0.6123079 -0.62392974 -0.6180761 -0.5915343
-0.5682635 -0.60071874 -0.562275 -0.6335524 -0.57087165 -0.6301593 -0.61525136 -0.6027878
-0.5596042 -0.5574713 -0.5668069 -0.5962401 -0.6168854 -0.5755958 -0.6192635 -0.62585926
-0.60087705 -0.57338595 -0.58096373 -0.62667954 -0.58005196 -0.5976953 -0.5915506 -0.5748176
-0.5869212 -0.6151336 0.59397805 -0.6520631 -0.60895663 0.63020486 0.58693016 -0.62147593
0.5875135 0.62808794 0.61233443 -0.44653657 -0.5006305 -0.587666 1.326987 -0.42400193
-0.51753587 -0.5538591 -0.5392423 -0.61901987 -0.5514924 -0.5618067 -0.56297714 -0.5901493
-0.5595664 -0.5887768 -0.53313756 -0.5778731 -0.53643405 0.5860588 0.61811006 0.5653693
0.5656028 0.5830215 0.6181594 0.59231853 0.5750383 0.5817097 -0.5922106 -0.62647116
-0.60522574 -0.6416519 -0.5860667 -0.625302 -0.6296108 -0.60718554 -0.61645895 -0.61844164
-0.62863 -0.57028234 -0.5659845 -0.62323564 -0.6289712 -0.628068 -0.6291539 -0.57467204
-0.6061717 -0.6005948 -0.5760935 -0.55506855 -0.62587076 -0.5446618 -0.57961273 -0.6115128
-0.5769039 0.6040527 0.61509746 0.6056234 0.5961993 0.5901384 0.6022209 0.5684246
0.57165253 0.5487168 -0.58377236 -0.6571158 -0.6523571 -0.60224354 -0.656137 -0.63661075
-0.65656316 -0.59076035 -0.62616736 0.63998187 -0.6518432 -0.5709362 0.5733918 -0.5855576
-0.64882433 0.5466236 -0.5894395 -0.5878605 -0.5596103 -0.51123065 0.712639 0.7070684
00000000: a9f7 193f 2723 26bf 14ad 1a3f abcd 0f3f
00000010: 15b8 203f bd9d 0f3f 5003 183f f122 103f
00000020: 3e87 203f a8da 1ebf 38a3 15bf 29c2 1bbf
00000030: f2a3 0ebf 7800 10bf f693 1fbf 3b9b 18bf
00000040: b3f1 19bf 78d6 16bf 5402 1f3f 3e34 253f
00000050: 8d2b 893f 7833 283f e118 233f 35a6 263f
00000060: b241 293f e82a 2b3f 1d1f 303f f248 0fbf
00000070: 73cf 11bf 0538 1fbf 0857 14bf 63be 17bf
00000080: a8d1 1cbf ccc6 12bf aecf 1cbf 275e 12bf
00000090: 334c 14bf 5609 1fbf 15a2 12bf 53cd 20bf
000000a0: 7dd7 13bf 3e3c 14bf 4485 1bbf cae5 20bf
000000b0: 86f6 0ebf db2d 16bf bdd7 18bf ff7a 13bf
000000c0: 1c41 1ebf d7cd 0abf 6ff7 09bf 3c77 0dbf
000000d0: b925 1bbf fbd3 16bf ec60 12bf 3c19 16bf
000000e0: b2d9 13bf d806 20bf d3e6 18bf 3fb8 16bf
000000f0: 22a4 1cbf 73a3 17bf aaad 11bf 73cb 1dbf
00000100: 739b 20bf 9c1a 20bf 22d7 20bf 7cbe 11bf
00000110: ba02 12bf 7b52 13bf 12bc 20bf 29b6 1ebf
00000120: c125 203f 4e43 243f 5ab2 133f b3b1 0f3f
00000130: 7b93 193f 03ff 0f3f 6a9c 243f 7c7f 223f
00000140: 5d4d 0e3f a921 18bf 40ee 1ebf 3cef 2bbf
00000150: 319a 21bf a058 1fbf 526d 3ebf 406f 19bf
00000160: 3191 15bf 5217 17bf dab1 41bf 9e5f 0c3f
00000170: e2a6 193f d6ba 153f e039 1d3f 7661 0c3f
00000180: df40 193f 2d2a 0b3f e336 f93e f90c 203f
00000190: 9818 0f3f 4a11 1c3f 5aea 1d3f 0950 193f
000001a0: 7eab 203f 38a7 233f 71c7 103f f59b 0f3f
000001b0: c147 163f 1909 f43e 51a8 20bf d073 123f
000001c0: 210f 083e d735 22bf 52a4 113f 816a 153f
000001d0: a13f 1dbf 5718 213f f06e 20bf 9f24 19bf
000001e0: f5ad 1ebf 08cd 1bbf 5224 24bf 87cd 05bf
000001f0: bce7 16bf 2ff1 12bf 87a0 1dbf 4161 2bbf
00000200: e7d7 22bf 872b 1bbf 35dd 23bf 461e 17bf
00000210: 36c0 1cbf dcb9 1fbf 3c3a 1ebf cb6e 17bf
00000220: b779 11bf b4c8 19bf 41f1 0fbf 7d30 22bf
00000230: a524 12bf 1f52 21bf 1d81 1dbf 4d50 1abf
00000240: 3942 0fbf 70b6 0ebf 421a 11bf 31a3 18bf
00000250: 34ec 1dbf 3f5a 13bf 0e88 1ebf 5038 20bf
00000260: 14d3 19bf 6cc9 12bf 0aba 14bf 126e 20bf
00000270: 497e 14bf 8f02 19bf dc6f 17bf 3f27 13bf
00000280: 7840 16bf 6579 1dbf f20e 183f 9bed 26bf
00000290: 95e4 1bbf 1b55 213f 0e41 163f 0c19 1fbf
000002a0: 4967 163f 5fca 203f f3c1 1c3f 71a0 e4be
000002b0: 5229 00bf 4771 16bf b6da a93f c816 d9be
000002c0: 3b7d 04bf b6c9 0dbf c90b 0abf 1678 1ebf
000002d0: 9b2e 0dbf 90d2 0fbf 451f 10bf 0614 17bf
000002e0: be3f 0fbf 14ba 16bf b47b 08bf 7eef 13bf
000002f0: be53 09bf f307 163f 763c 1e3f 0bbc 103f
00000300: 58cb 103f e640 153f b23f 1e3f 30a2 173f
00000310: b635 133f edea 143f 1d9b 17bf 6a60 20bf
00000320: 13f0 1abf 4d43 24bf 7808 16bf cb13 20bf
00000330: 2c2e 21bf 8370 1bbf 41d0 1dbf 3152 1ebf
00000340: e5ed 20bf 06fe 11bf 5ce4 10bf 5f8c 1fbf
00000350: 4204 21bf 10c9 20bf 3b10 21bf b51d 13bf
00000360: 122e 1bbf 95c0 19bf dd7a 13bf f918 0ebf
00000370: 1139 20bf f56e 0bbf 8061 14bf 1a8c 1cbf
00000380: f9af 13bf 33a3 1a3f 0777 1d3f 230a 1b3f
00000390: 84a0 183f 4f13 173f 262b 1a3f 4684 113f
000003a0: d257 123f b478 0c3f 1b72 15bf be38 28bf
000003b0: e000 27bf a22c 1abf 98f8 27bf ecf8 22bf
000003c0: 8614 28bf 123c 17bf 814c 20bf dad5 233f
000003d0: 32df 26bf e028 12bf cec9 123f 1ae7 15bf
000003e0: 5a19 26bf 86ef 0b3f 82e5 16bf 077e 16bf
000003f0: 9f42 0fbf 03e0 02bf 826f 363f 6f02 353f

module.Conv4.layers.0.bias f4 [64]
-0.15409149 -0.029890606 -0.09405199 -0.02125661 -0.005256464 -0.011528433 -0.028702091 0.16489723
0.13583824 -0.0029313364 0.055540603 0.14005244 -0.0476487 -0.09625709 -0.056345716 -0.035599634
-0.06602033 0.07163373 -0.043904964 -0.06882711 0.042853694 -0.059666283 -0.09522906 -0.09474617
0.07317203 -0.13989487 0.034548704 0.022292238 0.08540706 0.14603548 0.017784346 0.13831618
0.04822629 -0.018766383 -0.08761931 0.026019303 -0.08608656 0.06320501 -0.09280269 -0.05654895
-0.023804162 -0.042060617 0.06626584 0.05831717 0.055450365 0.06274117 -0.00465356 -0.0023778088
-0.056326874 0.071126 -0.08901015 0.08982675 0.005947925 -0.050373886 0.08165464 -0.10419386
0.042005926 -0.06564162 0.10894493 0.010199298 0.025810964 -0.00906717 -0.031718735 0.0065419297
00000000: 29ca 1dbe 25dd f4bc 549e c0bd 5822 aebc
00000010: 6a3e acbb c1e1 3cbc a620 ebbc d2da 283e
00000020: 2e19 0b3e aa1b 40bb 8b7e 633d e869 0f3e
00000030: 492b 43bd 7022 c5bd c4ca 66bd ecd0 11bd
00000040: ab35 87bd b4b4 923d b1d5 33bd 3af5 8cbd
00000050: 5b87 2f3d a264 74bd 7407 c3bd 480a c2bd
00000060: 38db 953d 9a40 0fbe f182 0d3d 369e b63c
00000070: e6e9 ae3d 538a 153e 7ab0 913c c2a2 0d3e
00000080: ee88 453d f5bb 99bc c171 b3bd 6f26 d53c
00000090: 264e b0bd a171 813d 560f bebd df9f 67bd
000000a0: f200 c3bc c147 2cbd 62b6 873d fcdd 6e3d
000000b0: ec1f 633d 717e 803d e47c 98bb 03d5 1bbb
000000c0: 02b7 66bd 82aa 913d f44a b6bd 16f7 b73d
000000d0: d0e6 c23b d954 4ebd 8c3a a73d 9763 d5bd
000000e0: 680e 2c3d 1d6f 86bd 851e df3d f51a 273c
000000f0: 8471 d33c 788e 14bc 81eb 01bd af5d d63b

module.Conv4.layers.1.weight f4 [64]
0.46342933 0.36725897 0.39680472 0.46227238 0.4166153 1.3601118 0.38164043 0.75120324
0.76537704 1.6383016 0.6543632 -0.24392323 1.881386 1.7853413 1.1974449 -0.2543597
0.7276286 1.2311233 -0.26240337 -0.12770891 0.3920258 1.799351 2.2371383 1.0989401
-0.9415666 1.3020792 1.2876228 1.4055179 1.1559498 0.320713 0.9210937 1.1714073
0.7613216 0.4214085 1.2996962 2.1973202 -0.30721143 0.7072978 1.0536511 1.1561593
0.4129066 0.31245074 0.64011985 1.0578967 2.1859307 1.2023796 0.89115876 2.196662
1.4317971 0.42505622 1.0004832 0.3927326 1.4667904 0.927075 0.36811718 0.32035145
1.2308227 0.24783996 1.1899217 0.20742302 1.0142154 0.3549343 0.17305812 0.57661885
00000000: 9c46 ed3e 5e09 bc3e fd29 cb3e f7ae ec3e
00000010: 9a4e d53e 2518 ae3f 6066 c33e db4e 403f
00000020: c0ef 433f deb3 d13f 5984 273f 03c7 79be
00000030: 42d1 f03f 1086 e43f e045 993f 6f3b 82be
00000040: de45 3a3f 7395 9d3f bc59 86be 20c6 02be
00000050: 9bb7 c83e 2251 e63f 462d 0f40 12aa 8c3f
00000060: 820a 71bf 88aa a63f d3d0 a43f 03e8 b33f
00000070: 2af6 933f 7f34 a43e cccc 6b3f adf0 953f
00000080: f9e5 423f dbc2 d73e 725c a63f e5a0 0c40
00000090: d14a 9dbe 7811 353f 0ade 863f 07fd 933f
000000a0: 7e68 d33e 8bf9 9f3e e5de 233f 2969 873f
000000b0: 4ae6 0b40 93e7 993f fb22 643f 1c96 0c40
000000c0: 2145 b73f f8a0 d93e d50f 803f 3f14 c93e
000000d0: cabf bb3f ca54 6d3f db79 bc3e 1b05 a43e
000000e0: 998b 9d3f c2c9 7d3e 5b4f 983f b366 543e
000000f0: cfd1 813f f3b9 b53e 2636 313e 4b9d 133f
