DIDFuse/saved_models/encoder/VIS_AE16.pth (torch, 460446 bytes, 24 tensors)

module.Conv1.layers.1.weight f4 [64, 1, 3, 3]
0	0x3f26662e	0.64999664
1	0x3e902e2d	0.2816023
2	0x3f21447e	0.62995136
3	0x3f142e7f	0.5788345
4	0x3f29b6bb	0.6629445
5	0x3ebd7af8	0.3700788
6	0x3f18b63b	0.5965306
7	0x3f5ab377	0.8543009
8	0x3f16dd18	0.5893111
9	0xbf3eddd4	-0.7455723
10	0xbf26225e	-0.6489619
11	0xbf5bf770	-0.85924435
12	0xbf4a5352	-0.79033387
13	0xbeab92a2	-0.3351031
14	0xbe94cb1e	-0.29061216
15	0xbe9c2960	-0.30500317
16	0xbe9f82e8	-0.3115456
17	0xbf12a248	-0.5727887
18	0xbf22c13a	-0.6357609
19	0xbf2a6fbd	-0.6657675
20	0xbefbac25	-0.49154773
21	0xbf4e8096	-0.80664957
22	0x3f413006	0.754639
23	0xbf64215e	-0.89113414
24	0xbedeb1f3	-0.4349514
25	0x3e839f89	0.25707653
26	0x3f20987f	0.6273269
27	0xbfccbf55	-1.599589
28	0xbf5b6755	-0.8570455
29	0xbf86efeb	-1.0541967
30	0x3dc3feda	0.095700935
31	0x3ed731ac	0.42030084
32	0xbdff6fcc	-0.124724954
33	0xbf8a043a	-1.078254
34	0xbe479124	-0.1948896
35	0xc02a833b	-2.6642597
36	0xbf68f08e	-0.9099206
37	0xbf61c2dd	-0.8818796
38	0xbf7adeed	-0.9799641
39	0x3d2c5b54	0.042079285
40	0x3cc9f647	0.024653567
41	0xbe2f71e2	-0.17133287
42	0x3e773035	0.24139483
43	0x3f3f5b8f	0.7474908
44	0x3eb797f7	0.35858127
45	0x3e95d021	0.29260352
46	0x3f24ffed	0.6445301
47	0x3f68cfd1	0.909421
48	0x3f09ccfa	0.53828394
49	0x3ed39fb0	0.4133277
50	0x3eda2fea	0.4261468
51	0x3f0709cb	0.5274932
52	0x3f6cfa3a	0.92569315
53	0x3f4b70cf	0.7946901
54	0xbf3015fa	-0.68783534
55	0xbf142cd9	-0.5788093
56	0xbed2dacf	-0.41182563
57	0xbf25ab02	-0.6471406
58	0x3f81f6b5	1.0153414
59	0xbf624d47	-0.88399166
60	0x3e9c390d	0.30512276
61	0x3eea9290	0.45814943
62	0xbf3fb1be	-0.7488059
63	0xbf3ce782	-0.7379075
64	0xbf427bef	-0.7597036
65	0xbf3263b3	-0.6968338
66	0xbef14b51	-0.47127774
67	0xbf39e2a3	-0.72611445
68	0xbed83880	-0.42230606
69	0xbf034db6	-0.5129045
70	0xbe8bf384	-0.27334225
71	0xbf096c9e	-0.5368136
72	0xbf936d1e	-1.1517675
73	0xbfb87e43	-1.4413532
74	0xbfc57b8d	-1.542833
75	0xbe94606d	-0.28979817
76	0x3d72097b	0.059091073
77	0x3dcda279	0.10040755
78	0xbf1a8f98	-0.60375357
79	0xbd8abb7d	-0.06774042
80	0x3e37191a	0.17880669
81	0x3eeae454	0.45877326
82	0x3e96d7b4	0.29461443
83	0x3f3a2f9e	0.7272891
84	0x3f4809d9	0.78140026
85	0x3f664bf7	0.89959663
86	0x3f2f0e8c	0.6838157
87	0x3f4fcfba	0.8117634
88	0x3eb13993	0.34614238
89	0x3f0c577e	0.54821
90	0xbed469cd	-0.4148697
91	0x3f09fa1f	0.5389728
92	0xbf461e96	-0.7739042
93	0x3ec0b1d8	0.37635684
94	0x402483c6	2.5705428
95	0x3fb6bee3	1.4277004
96	0xbf9aa801	-1.2082521
97	0x3f207bcf	0.62688917
98	0xbf300554	-0.6875813
99	0xbf31a4d2	-0.6939212
100	0xbe85d7f9	-0.26141337
101	0x3f7f4168	0.99709177
102	0xbf59e7d7	-0.85119385
103	0xbe9c6a5d	-0.305499
104	0xbf187cf9	-0.59565693
105	0xbf266c34	-0.65008855
106	0xbecb74c3	-0.3973752
107	0xbf38107e	-0.71900165
108	0x3ec1637c	0.37771213
109	0x3d8380af	0.06421029
110	0xbe3013b7	-0.1719502
111	0x3f658f37	0.89671654
112	0x3f99d8dc	1.2019305
113	0x3fb4686e	1.409437
114	0x3f2646ab	0.6495158
115	0x3eaf4f1a	0.34240037
116	0x3f19837a	0.5996624
117	0x3f4cf67c	0.80063605
118	0x3f890f1a	1.0707734
119	0x3f433abc	0.76261497
120	0x3c055ab1	0.008139298
121	0x3eb3b82f	0.35101458
122	0x3da291c0	0.07937956
123	0xbe4956f8	-0.19662082
124	0xbee1626e	-0.44020408
125	0xbf1b9951	-0.6078082
126	0xbf9766da	-1.1828263
127	0xbe4ce7ca	-0.20010296
128	0xbf7782d7	-0.9668402
129	0x3d5f78fc	0.05455874
130	0x3fc43397	1.5328244
131	0x3eb37304	0.35048687
132	0xbfa58272	-1.2930434
133	0x3d574e9c	0.052565202
134	0xbface52a	-1.3507435
135	0x3f862031	1.0478574
136	0x3e0c0eb9	0.13677491
137	0x3f917f7f	1.1367034
138	0x3e0d7d62	0.13817361
139	0xbfbbdc4f	-1.4676608
140	0xbe2cabdc	-0.16862434
141	0x3f61abfa	0.8815304
142	0xbf1b4bea	-0.6066271
143	0x3e5a3934	0.21310884
144	0xbf951f17	-1.1650113
145	0xbf201c5f	-0.6254329
146	0x3e55d926	0.20883617
147	0xbf876bb3	-1.0579742
148	0x3f59f38c	0.8513725
149	0x3f57eea4	0.8434851
150	0xbf55eb1c	-0.83561873
151	0xbf62eea6	-0.886454
152	0x3ddf94f8	0.109170854
153	0xbf4c5f6f	-0.7983312
154	0x3f0eba27	0.55752796
155	0x3ebddc78	0.37082267
156	0xbef5d1ab	-0.48011526
157	0xbf05a8e5	-0.5221084
158	0xbf4571ce	-0.7712678
159	0xbf264b94	-0.64959073
160	0xbf28f5b7	-0.6599993
161	0xbf4f57cf	-0.8099336
162	0xbedd8227	-0.4326336
163	0x3f7afe54	0.98044324
164	0xbde834c6	-0.11338191
165	0x3f988cb6	1.1917942
166	0x40479b66	3.1188598
167	0x3f42197e	0.7582015
168	0xbf35467e	-0.7081069
169	0x3f742389	0.9536672
170	0xbf562480	-0.83649445
171	0xc04f6340	-3.2404327
172	0xbf551b94	-0.83245206
173	0xbf6ffa20	-0.93741035
174	0xbf998447	-1.1993493
175	0x3f84c489	1.0372478
176	0x3e8ad71c	0.2711724
177	0xbf421e60	-0.758276
178	0xbf4f0fe6	-0.80883634
179	0xbed85ae5	-0.42256847
180	0xbdb5d26b	-0.08878025
181	0xbe975c75	-0.29562727
182	0xbfa5a194	-1.2939935
183	0x3f7286a0	0.9473667
184	0x4018b12b	2.3858135
185	0x3f6d897f	0.9278793
186	0xbe6499ff	-0.2232437
187	0x3fa83fbc	1.314445
188	0x3eafd9ea	0.34345943
189	0x3f7f4ba8	0.9972482
190	0x3fd36572	1.6515334
191	0x3f60b3cc	0.8777435
192	0x3f6351c2	0.8879663
193	0x400eecda	2.2332063
194	0x3fb2048b	1.3907636
195	0xbf683e65	-0.90720206
196	0xbe0745ed	-0.13210268
197	0xbf40cbfb	-0.7531125
198	0x3f35fa0d	0.7108467
199	0xbed703c2	-0.41995054
200	0x3f72562b	0.9466273
201	0xbef0d4f1	-0.4703746
202	0xbfa206a1	-1.2658273
203	0xbf7b1282	-0.98075116
204	0x4017960f	2.3685338
205	0xbf4f044a	-0.8086592
206	0x3ffeb017	1.9897488
207	0xbe2db309	-0.16962828
208	0x3e12325f	0.14277028
209	0xbf0c5e6f	-0.54831594
210	0x3f800d55	1.0004069
211	0x3f802a76	1.0012958
212	0xbf35e38a	-0.7105032
213	0xbb48aaea	-0.003061945
214	0x3f2a6892	0.6656581
215	0xbf85e9d6	-1.0461986
216	0x3eb12223	0.34596357
217	0x3f333355	0.700002
218	0x3eb5ff45	0.35546318
219	0x3f5bdc95	0.85883456
220	0x3ebc5134	0.36780703
221	0x3efc2ada	0.49251443
222	0x3ea465b1	0.32108834
223	0x3f52015b	0.8203332
224	0x3f5d0931	0.8634215
225	0xbf6f769e	-0.9354037
226	0xbe9f8214	-0.3115393
227	0xbf299696	-0.662454
228	0xbf3457c6	-0.7044643
229	0xbf30fc79	-0.6913524
230	0xbf4dcb0a	-0.8038794
231	0x3e93a897	0.2883956
232	0x3f03f17b	0.51540345
233	0x3ec75a4a	0.38936073
234	0x3e85a585	0.26102844
235	0xbe85fa73	-0.2616764
236	0x3f4a258c	0.7896354
237	0xbf3f20a2	-0.7465917
238	0xbfdf4869	-1.7443973
239	0xbf98c4a9	-1.1935016
240	0x3d1bc8a1	0.03803313
241	0xbfaac4e2	-1.3341334
242	0xbef4fa5b	-0.47847256
243	0x3ea4fe9a	0.32225496
244	0xbfc1b136	-1.5132205
245	0x3f6f43ed	0.9346302
246	0xbf7487eb	-0.95519894
247	0xc040dfd9	-3.0136626
248	0xbfbaea4a	-1.4602749
249	0x3ebd732c	0.37001932
250	0xbf1695f8	-0.58822584
251	0x3e5dce1f	0.2166066
252	0xbe413206	-0.18866739
253	0xbe24c4d5	-0.1609071
254	0xbf1c66d9	-0.61094433
255	0x4022a5e7	2.5413759

module.Conv1.layers.1.bias f4 [64]
0	0xbeeb67ca	-0.45977622
1	0x3ef1c399	0.47219542
2	0x3f10737f	0.56426233
3	0xbeae4225	-0.3403484
4	0xbea1a537	-0.3157136
5	0xbf33fb54	-0.7030537
6	0xbe169285	-0.1470433
7	0x3eaea27c	0.3410834
8	0x3ef86970	0.48517942
9	0xbe684a91	-0.22684695
10	0x3dda0091	0.10644639
11	0xbd6b5203	-0.05745126
12	0x3ed86db7	0.42271206
13	0x3e345601	0.17610933
14	0x3f05843d	0.52154905
15	0xbe6d336b	-0.23164146
16	0x3e91300a	0.28356963
17	0xbf04a8d3	-0.51820105
18	0xbeb2bca5	-0.3490955
19	0x3f0a2d21	0.5397511
20	0xbebf04cc	-0.37308347
21	0x3e6a3968	0.22873461
22	0x3ee1d50b	0.4410785
23	0x3e605db1	0.2191074
24	0x3d6d6dfe	0.057966225
25	0xbe7cfd4a	-0.24705997
26	0x3ef82bed	0.48471013
27	0x3e83583d	0.25653258
28	0xbf27349d	-0.65314656
29	0xbf198957	-0.5997519
30	0xbec8fd08	-0.39255548
31	0xbe67969b	-0.22616045
32	0xbeae5bf6	-0.34054536
33	0xbe3c2559	-0.18373622
34	0xbc0484d8	-0.008088313
35	0x3f393b5e	0.7235621
36	0xbe0c629c	-0.13709491
37	0xbf4d5eb8	-0.80222654
38	0x3e93413b	0.28760704
39	0xbe8cba5d	-0.27485934
40	0xbdb41679	-0.08793349
41	0x3e9fbabf	0.31197163
42	0xbf25a604	-0.64706445
43	0x3ed89eab	0.42308554
44	0x3e856593	0.26054057
45	0xbe0e15cb	-0.13875501
46	0xbe58bec0	-0.21166515
47	0x3e6e3fb9	0.23266496
48	0x3dcf9ac9	0.10136945
49	0x3f519be4	0.81878495
50	0xbbcbf78d	-0.0062245787
51	0xbd9a2596	-0.075267
52	0xbe48c2fe	-0.19605634
53	0xbe91fe1d	-0.28514186
54	0x3ee1262d	0.43974438
55	0xbf371e5b	-0.71530694
56	0xbe05c109	-0.13061918
57	0xbed8f079	-0.42370966
58	0x3dc82a16	0.09773652
59	0xbec86b7f	-0.39144513
60	0x3e9a2128	0.3010342
61	0x3ef4723a	0.47743398
62	0x3e687d95	0.22704156
63	0xbe246717	-0.1605495

module.Conv1.layers.2.weight f4 [64]
0	0x3ee86c2a	0.45395023
1	0x3ef8774f	0.48528525
2	0x3ef93b8f	0.48678252
3	0x3fc7ea58	1.5618391
4	0x3e337614	0.17525512
5	0x3fd77672	1.6833022
6	0xbdfa1f98	-0.12213057
7	0x3ef032b4	0.46913683
8	0x3fbd3889	1.4782878
9	0x3f434b39	0.76286656
10	0x40077fe3	2.1171806
11	0x3fcd692b	1.604772
12	0x3ee92b15	0.4554068
13	0x3ef94cd3	0.48691425
14	0x3fee245f	1.860485
15	0x3f5bd60b	0.8587348
16	0x3f0034dd	0.5008066
17	0xbdccb429	-0.099953
18	0x40191ee5	2.3925107
19	0x3fa2d27a	1.2720482
20	0x4072f10a	3.7959619
21	0x3f209222	0.6272298
22	0x401631c5	2.3467877
23	0x3fdd9af9	1.7312919
24	0x3ed7c2f3	0.42140922
25	0x3dc62fef	0.09677111
26	0x400895d3	2.1341445
27	0x3fca27ea	1.5793431
28	0x3fc0e501	1.5069886
29	0x3fd6aca2	1.6771433
30	0x3fb46a12	1.409487
31	0x3ec701e4	0.3886863
32	0x3ef52e12	0.4788671
33	0x3fce5729	1.6120349
34	0xbde68d90	-0.1125747
35	0x3f109e47	0.5649151
36	0x3feed2ad	1.8658043
37	0x3fe16447	1.7608727
38	0x3f5e8590	0.8692255
39	0x3f902edf	1.1264304
40	0x4005a27d	2.0880425
41	0x3fd34fba	1.6508706
42	0x3fe94d0d	1.8226639
43	0x3f877554	1.0582681
44	0x3ff3c29d	1.9043766
45	0x3e8655c7	0.26237318
46	0x3f14cfac	0.5812938
47	0x3efb6b22	0.49105173
48	0x3cd49a13	0.025952375
49	0x3fb00700	1.3752136
50	0x3d792e6a	0.06083528
51	0x3fbc42c0	1.470787
52	0x3facc79b	1.3498415
53	0x3fe136ff	1.7594908
54	0x3fb0bbcd	1.3807312
55	0x3fd08592	1.6290762
56	0x3fb4a940	1.4114151
57	0x3f1b5ef4	0.6069176
58	0x3d5a1081	0.053238396
59	0x3ff90f34	1.9457765
60	0x3f5dc37a	0.866264
61	0x3fb31ae2	1.3992579
62	0x3eb6d85f	0.35711953
63	0x3f2c91eb	0.67410153

module.Conv1.layers.2.bias f4 [64]
0	0xbf050056	-0.5195364
1	0xbf184bf9	-0.59490925
2	0xbf20f054	-0.6286671
3	0x3f075047	0.5285687
4	0xbf4dba36	-0.8036226
5	0x3f5211c2	0.82058346
6	0xbf4e7e07	-0.8066105
7	0xbf1306ee	-0.5743245
8	0xbf1e12c2	-0.6174737
9	0xc013443d	-2.30104
10	0x3f4a8195	0.79103976
11	0x3f5eadda	0.86984026
12	0xbfb5f1e9	-1.421445
13	0xbf9778b8	-1.1833715
14	0x3f7ab158	0.97926855
15	0xbe44ced9	-0.19219531
16	0xbfa89c14	-1.3172631
17	0xbf36f8d0	-0.7147341
18	0x3edac879	0.42731073
19	0xbf232b2d	-0.63737756
20	0xbe7863b5	-0.24256785
21	0xbfbd1ab6	-1.4773777
22	0x3f38b048	0.72143984
23	0x3ec6d4a4	0.38834107
24	0xbf08d6fa	-0.5345303
25	0xbf5b64f6	-0.8570093
26	0x3f827d38	1.0194464
27	0x40007a1b	2.0074527
28	0x3f3a0229	0.72659546
29	0x3f31c189	0.69435936
30	0x3eb164cd	0.34647217
31	0xbf2fd09e	-0.686777
32	0xbf199b90	-0.60002995
33	0x3ed0aa1a	0.40754777
34	0xbf335af4	-0.7006066
35	0xbf33d205	-0.7024234
36	0x3f40d27d	0.7532118
37	0x3f295ea0	0.6616001
38	0xc02a67df	-2.6625898
39	0xbd2ffff2	-0.042968698
40	0x3f10f183	0.5661852
41	0x3f394516	0.7237104
42	0x3f52d17e	0.8235091
43	0xbf779c9e	-0.96723354
44	0xbf866ff0	-1.0502911
45	0xbf33466d	-0.70029336
46	0xbebbe050	-0.36694574
47	0xbf3b7632	-0.73227227
48	0xbf403213	-0.7507641
49	0x3f498b5b	0.78728265
50	0xbf6465ed	-0.89218026
51	0x3ef338b8	0.4750421
52	0xbebc7abf	-0.36812398
53	0xbf01920d	-0.5061348
54	0xbc43fcc0	-0.011962116
55	0x3e2fc376	0.17164406
56	0xbf053276	-0.5203012
57	0xbecdc075	-0.40185896
58	0xbf46a3c6	-0.7759365
59	0x3f0e150c	0.55500865
60	0x3f8caf42	1.0990984
61	0xbf9e3f1c	-1.236301
62	0xbf8d40f9	-1.1035453
63	0xbe5c3993	-0.21506338

module.Conv1.layers.2.running_mean f4 [64]
0	0xc0322644	-2.7835855
1	0x4028ec1d	2.6394112
2	0x3fcba60f	1.5910052
3	0x4033e441	2.8108065
4	0x3ebca707	0.36846182
5	0xc0492501	-3.1428835
6	0x3f5d848a	0.86530364
7	0x402872b6	2.6320014
8	0x4026d4cc	2.606738
9	0xc02ce56c	-2.7015028
10	0xbf8baa2d	-1.0911309
11	0x3fbfbf2c	1.4980216
12	0xbffaaa71	-1.9583265
13	0xbf24e484	-0.6441119
14	0x3fd14d54	1.6351724
15	0xbf76dfc7	-0.9643521
16	0x3fb88a12	1.4417136
17	0x3f943335	1.1578127
18	0xc02467eb	-2.5688426
19	0x4068157e	3.6263118
20	0xc00cf5a4	-2.2024927
21	0xc0246eca	-2.569262
22	0xbe14b281	-0.14521219
23	0xbbc61d24	-0.0060459543
24	0xc00e7cc8	-2.226366
25	0x3f8731a6	1.0562027
26	0x4024616b	2.568446
27	0x4032c61f	2.7933424
28	0xc044ba7d	-3.0738823
29	0x3fc83e38	1.5643988
30	0x3ff02dd0	1.8763981
31	0x400b75f5	2.1790745
32	0xbff7bf58	-1.9355268
33	0x4013d381	2.3097842
34	0x3f93cd39	1.1547004
35	0x4047c005	3.121095
36	0xbf0a9540	-0.5413399
37	0xbe3babd4	-0.18327266
38	0xbf7163f3	-0.94293135
39	0x400d74af	2.2102468
40	0x40105e91	2.2557719
41	0x402e2af2	2.7213712
42	0xbec33a97	-0.38130638
43	0xbd9f2e68	-0.07772523
44	0xc00e04d6	-2.2190452
45	0x3ec5c339	0.38625506
46	0xc03e73d3	-2.9758193
47	0x40003f97	2.0038812
48	0x3fd37b02	1.6521914
49	0x405153bf	3.2707365
50	0x40043eb9	2.0663283
51	0x3f8ee5f6	1.1163929
52	0x402356c7	2.5521715
53	0xc02cf6f6	-2.7025733
54	0x402b7c99	2.6794798
55	0xc04a45a8	-3.1605015
56	0xc0173147	-2.3623827
57	0x40003654	2.003316
58	0x402dac15	2.713628
59	0xc046aaec	-3.1041822
60	0xbf42c00a	-0.7607428
61	0x4039a051	2.90041
62	0xbfe3b5ec	-1.7789893
63	0xbfe3baef	-1.7791423

module.Conv1.layers.2.running_var f4 [64]
0	0x404d7524	3.2102747
1	0x40326e45	2.7879803
2	0x3f22309f	0.6335544
3	0x40bb7722	5.8582926
4	0x3e9d5984	0.30732358
5	0x40621935	3.5327885
6	0x3f1c6657	0.6109366
7	0x40478f70	3.1181297
8	0x402b76fd	2.6791375
9	0x40692a54	3.6432085
10	0x3f62e581	0.88631445
11	0x3fba8bdd	1.4573933
12	0x40595ab0	3.3961601
13	0x3eda15d4	0.4259478
14	0x3f440c10	0.76580906
15	0x3ea48411	0.3213201
16	0x3f4feefb	0.8122403
17	0x3fd7eca6	1.6869094
18	0x403ef036	2.9834113
19	0x40b4f657	5.655071
20	0x4003325a	2.0499482
21	0x40977ae1	4.73375
22	0x3e626acb	0.22111051
23	0x3d45b406	0.048267387
24	0x4046b1f1	3.1046107
25	0x3f83dcd2	1.0301764
26	0x4028482c	2.629405
27	0x4078e6c6	3.8890853
28	0x4065dd98	3.59165
29	0x4030cd1b	2.7625186
30	0x40441531	3.0637934
31	0x405c5120	3.4424515
32	0x3fbf8a27	1.4964036
33	0x406c6871	3.6938746
34	0x3f502c2c	0.813174
35	0x405aa988	3.4165974
36	0x3dfd4fab	0.12368711
37	0x3e8145c3	0.25248536
38	0x3f6c796e	0.92372787
39	0x406b3007	3.6748064
40	0x40512f65	3.2685177
41	0x405b6320	3.427925
42	0x3d4f1cd5	0.050564606
43	0x3e60fd78	0.2197169
44	0x406a4aa3	3.6608055
45	0x3e3caac1	0.18424512
46	0x40912877	4.5361896
47	0x3ff02d8a	1.8763897
48	0x3fb869ca	1.4407284
49	0x40651fea	3.5800729
50	0x402334d1	2.5500987
51	0x3f5cc990	0.8624506
52	0x40900ad2	4.501321
53	0x405ee58c	3.4827604
54	0x40427b6d	3.0387833
55	0x4063d835	3.5600712
56	0x403db633	2.9642456
57	0x40602360	3.502159
58	0x408210b2	4.064538
59	0x408d208a	4.410222
60	0x3f317bee	0.69329727
61	0x405d6dc5	3.4598248
62	0x40188081	2.3828433
63	0x3fc557cb	1.5417417

module.Conv2.layers.0.weight f4 [64, 64, 3, 3]
0	0xbf1b9de2	-0.60787785
1	0xbf19ba8e	-0.60050285
2	0xbf1b39fe	-0.60635364
3	0xbf22befa	-0.6357266
4	0xbf1f2334	-0.6216309
5	0xbf131d87	-0.5746693
6	0xbf146e4a	-0.5798079
7	0xbf2418be	-0.64100254
8	0xbf130459	-0.5742851
9	0x3f19b352	0.60039246
10	0x3f17a030	0.592288
11	0x3f0f6b5a	0.5602318
12	0x3f23e1ac	0.6401622
13	0x3f205bec	0.6264026
14	0x3f18cb0c	0.59684825
15	0x3f165f46	0.58739126
16	0x3f11221a	0.5669266
17	0x3f0fd93c	0.5619085
18	0x3f16b106	0.58863866
19	0x3f1d66e6	0.61485136
20	0x3f241bb0	0.6410475
21	0x3f132ff7	0.57495064
22	0x3f1dff5b	0.61717767
23	0x3f15c22b	0.584994
24	0x3f1af7a4	0.6053412
25	0x3f18e5d8	0.59725714
26	0x3f180268	0.5937867
27	0x3f1dc20e	0.6162423
28	0x3f1bded9	0.60886914
29	0x3f1c8a46	0.6114849
30	0x3f11c1e0	0.56936455
31	0x3f1db868	0.61609507
32	0x3f1d89ff	0.6153869
33	0x3f1c92ca	0.6116148
34	0x3f23aae4	0.63932633
35	0x3f139ccb	0.5766112
36	0xbf229661	-0.6351071
37	0xbf16283a	-0.5865513
38	0xbf0fe7ec	-0.5621326
39	0xbf1f7994	-0.6229489
40	0xbf15c792	-0.58507645
41	0xbf1b64a2	-0.6070043
42	0xbf205ff3	-0.62646407
43	0xbf2217fa	-0.63317835
44	0xbf184221	-0.59475905
45	0x3f23967a	0.63901484
46	0x3f1c5f31	0.6108275
47	0x3f19deab	0.6010539
48	0x3f1320a5	0.57471687
49	0x3f1c5cce	0.6107911
50	0x3f1a66a2	0.60312855
51	0x3f23f716	0.640489
52	0x3f157a9e	0.58390224
53	0x3f1a60a4	0.6030371
54	0xbf1b8b97	-0.6075987
55	0xbf1cbb54	-0.6122334
56	0xbf11bd78	-0.5692973
57	0xbf1904ae	-0.59772766
58	0xbf16bbc2	-0.58880246
59	0xbf198b2b	-0.5997798
60	0xbf11572b	-0.5677363
61	0xbf15ba2b	-0.58487195
62	0xbf1ddeaf	-0.61667913
63	0x3f23a290	0.63919926
64	0x3f21c714	0.63194394
65	0x3f1c42ff	0.6103973
66	0x3f186d82	0.59542096
67	0x3f11db65	0.56975394
68	0x3f1be049	0.60889107
69	0x3f14c12d	0.5810726
70	0x3f1b3bd7	0.60638183
71	0x3f1c1ae9	0.6097856
72	0xbf100ee1	-0.56272703
73	0xbf18d62e	-0.5970181
74	0xbf1dd477	-0.6165232
75	0xbf13e2d6	-0.57768
76	0xbf219dc7	-0.63131374
77	0xbf13a900	-0.5767975
78	0xbf22e086	-0.63623846
79	0xbf11de4c	-0.56979823
80	0xbf16b9e9	-0.58877426
81	0x3f17998f	0.59218687
82	0x3f19df2b	0.6010615
83	0x3f1e025a	0.6172234
84	0x3f14513e	0.57936466
85	0x3f15a54f	0.58455366
86	0x3f12bcda	0.57319415
87	0x3f1f5bf3	0.6224968
88	0x3f188832	0.5958282
89	0x3f10a8c6	0.5650753
90	0x3f1ff046	0.62476003
91	0x3f11244c	0.5669601
92	0x3f190ca5	0.5978492
93	0x3f14bb0a	0.580979
94	0x3f1b7713	0.6072857
95	0x3f16e09f	0.58936495
96	0x3f1960ec	0.59913516
97	0x3f13701e	0.5759295
98	0x3f21a45f	0.63141435
99	0x3f1239ae	0.5711926
100	0x3f180fb2	0.5939895
101	0x3f232049	0.6372114
102	0x3f1573bf	0.5837974
103	0x3f1dbd42	0.6161691
104	0x3f1c0485	0.60944396
105	0x3f16baf4	0.5887902
106	0x3f10ac71	0.56513125
107	0x3f0fe2d6	0.562055
108	0x3f20b7c9	0.62780434
109	0x3f1b14b2	0.60578454
110	0x3f240cf1	0.64082247
111	0x3f21f702	0.6326753
112	0x3f1549e2	0.5831586
113	0x3f179a30	0.59219646
114	0x3f0f3ed3	0.5595524
115	0x3f1103f7	0.56646675
116	0x3f150a67	0.58219
117	0x3f0f5048	0.55981874
118	0x3f0f8e18	0.5607619
119	0x3f20f4ca	0.6287352
120	0x3f226c46	0.6344646
121	0x3f1edb63	0.6205351
122	0x3f1cc3be	0.6123618
123	0x3f1fcc0c	0.62420726
124	0x3f13070a	0.57432616
125	0x3f1b4853	0.60657233
126	0x3f2022fc	0.6255338
127	0x3f1246bd	0.5713919
128	0x3f19ed38	0.6012759
129	0x3f1a229c	0.6020906
130	0x3f16f079	0.5896068
131	0x3f208210	0.6269846
132	0x3f1a8a56	0.60367334
133	0x3f1a68a2	0.60315907
134	0x3f1dee75	0.6169198
135	0xbf1c05fd	-0.6094664
136	0xbf19f86e	-0.601447
137	0xbf0faa0f	-0.56118864
138	0xbf1138dc	-0.56727386
139	0xbf1165ac	-0.56795764
140	0xbf13bdb9	-0.5771137
141	0xbf2141a9	-0.62990814
142	0xbf13598e	-0.57558525
143	0xbf13d509	-0.5774694
144	0x3f18cb71	0.59685427
145	0x3f19579d	0.5989931
146	0x3f221655	0.63315326
147	0x3f177fc8	0.59179354
148	0x3f19e43b	0.6011388
149	0x3f1d1746	0.6136364
150	0x3f1cf577	0.6131205
151	0x3f0fa519	0.56111294
152	0x3f21bc32	0.6317779
153	0xbf116d40	-0.5680733
154	0xbf18c72d	-0.5967892
155	0xbf1c8f9f	-0.6115665
156	0xbf151fef	-0.5825185
157	0xbf14c111	-0.58107096
158	0xbf17de29	-0.59323364
159	0xbf17ae36	-0.592502
160	0xbf1549c1	-0.58315665
161	0xbf243ac6	-0.6415218
162	0x3f142852	0.57874024
163	0x3f1a64e6	0.6031021
164	0x3f1ed32b	0.62040967
165	0x3f16da3d	0.58926755
166	0x3f2239af	0.6336927
167	0x3f24b080	0.6433182
168	0x3f1e23e5	0.6177352
169	0x3f23dc92	0.6400844
170	0x3f0f80ed	0.560561
171	0x3f1aee2b	0.60519665
172	0x3f19375b	0.5985009
173	0x3f1452db	0.5793893
174	0x3f216030	0.63037395
175	0x3f1544bd	0.5830801
176	0x3f19818c	0.599633
177	0x3f2304ce	0.63679206
178	0x3f22a0f9	0.63526875
179	0x3f197a88	0.5995259
180	0x3f2184eb	0.6309344
181	0x3f219a13	0.63125724
182	0x3f1274fc	0.57209754
183	0x3f227cd8	0.63471746
184	0x3f1b2d73	0.60616225
185	0x3f1d23be	0.61382663
186	0x3f215a56	0.63028467
187	0x3f159b85	0.5844043
188	0x3f0f74b8	0.56037474
189	0x3f1a0c95	0.6017545
190	0x3f18bfd9	0.59667736
191	0x3f14b58c	0.5808952
192	0x3f123e3e	0.57126224
193	0x3f124ada	0.57145464
194	0x3f169acd	0.5882996
195	0x3f0fa52d	0.56111413
196	0x3f14ab3b	0.58073777
197	0x3f17b7dd	0.5926493
198	0xbf132915	-0.5748456
199	0xbf10746f	-0.56427664
200	0xbf20ae42	-0.62765896
201	0xbf131728	-0.5745721
202	0xbf17ad02	-0.59248364
203	0xbf155db7	-0.5834612
204	0xbf23edc4	-0.64034677
205	0xbf139d4f	-0.5766191
206	0xbf1c9937	-0.6117129
207	0x3f217ae8	0.63078165
208	0x3f1f5127	0.62233204
209	0x3f1a6a32	0.6031829
210	0x3f0f6e17	0.5602736
211	0x3f1434d5	0.57893115
212	0x3f157589	0.5838247
213	0x3f172528	0.5904107
214	0x3f20690e	0.626603
215	0x3f163a57	0.5868277
216	0xbf149a00	-0.58047485
217	0xbf1e8731	-0.61925036
218	0xbf2296c7	-0.6351132
219	0xbf1d4ea6	-0.61448133
220	0xbf1fdbd0	-0.6244478
221	0xbf13034a	-0.57426894
222	0xbf13a6de	-0.57676494
223	0xbf1101c7	-0.56643337
224	0xbf1a50b3	-0.6027939
225	0xbf21fa3f	-0.6327247
226	0xbf22ad3f	-0.635456
227	0xbf1f7a06	-0.6229557
228	0xbf1fe2e5	-0.6245559
229	0xbf1c48bc	-0.61048484
230	0xbf1b9d68	-0.6078706
231	0xbf140e31	-0.57834154
232	0xbf15cfed	-0.58520395
233	0xbf12bc60	-0.5731869
234	0xbf23015d	-0.63673955
235	0xbf107b51	-0.56438166
236	0xbf1f93cc	-0.62334895
237	0xbf103d43	-0.5634348
238	0xbf152a6a	-0.58267844
239	0xbf195e01	-0.59909064
240	0xbf18e3da	-0.59722674
241	0xbf21f312	-0.6326152
242	0xbf1c5a48	-0.6107526
243	0xbf12f055	-0.5739797
244	0xbf1d3172	-0.6140357
245	0xbf217898	-0.63074636
246	0xbf168777	-0.5880045
247	0xbf1f41c6	-0.6220974
248	0xbf183208	-0.5945134
249	0xbf1170a5	-0.56812507
250	0xbf17b4c8	-0.59260225
251	0xbf1e2b38	-0.61784697
252	0x3f12b93d	0.573139
253	0x3f213aad	0.6298016
254	0x3f1bfdce	0.6093415
255	0x3f20e832	0.628543

module.Conv2.layers.0.bias f4 [64]
0	0xbc478d2f	-0.012179657
1	0xbe35a34e	-0.17738077
2	0x3d31ee4b	0.043440145
3	0xbe5b3609	-0.21407332
4	0x3ec72a2d	0.38899365
5	0xbda9c288	-0.08289057
6	0xbe0b138e	-0.13581678
7	0xbe947b0e	-0.29000133
8	0x3d4d808e	0.050171427
9	0x3d28c8e9	0.041207228
10	0x3d810d53	0.063013695
11	0xbd0290d1	-0.03187639
12	0x3e04a727	0.12954389
13	0xbdebca81	-0.11513234
14	0xbd6db727	-0.058035996
15	0xbc8ab8f5	-0.016933898
16	0xbdebc0c0	-0.115113735
17	0x3e0d1a5a	0.13779584
18	0xbe1da806	-0.15396127
19	0xbe5d8a5a	-0.21634808
20	0xbe315a29	-0.1731955
21	0x3e9b62cf	0.30348822
22	0xbdee069a	-0.11622353
23	0xbd34d487	-0.044147994
24	0x3e781ea5	0.2423044
25	0x3d0d8347	0.034549024
26	0x3d068158	0.032838196
27	0xbd8daaac	-0.06917319
28	0x3e6a03fe	0.22853085
29	0x3e3cf143	0.18451409
30	0xbd875b8a	-0.066092566
31	0xbdf0fdf7	-0.1176719
32	0x3d107fd0	0.03527814
33	0x3e6e626e	0.23279735
34	0x3cfe2df8	0.031027779
35	0x3c1a4e96	0.00941815
36	0xbe26a27e	-0.16272923
37	0xbe084adb	-0.13309805
38	0x3da9e40e	0.08295451
39	0x3c7ae95b	0.015314425
40	0x3dda8d15	0.106714405
41	0xbdc6bdaa	-0.09704144
42	0xbd4172a2	-0.047228463
43	0xbea0ee9e	-0.3143205
44	0xbc664828	-0.014055289
45	0xbdb283c2	-0.08716537
46	0x3c59f925	0.01330403
47	0xbd867f33	-0.0656723
48	0x3e02e476	0.12782463
49	0x3d9ec172	0.077517405
50	0xbc81232f	-0.015763847
51	0x3de14856	0.11000125
52	0x3d5448ea	0.05182735
53	0x3e120923	0.14261298
54	0x3d901f5c	0.07037231
55	0xbd8991cc	-0.06717262
56	0xbe015dbb	-0.12633412
57	0x3e32958b	0.17439859
58	0xbdba4541	-0.090952404
59	0x3bdcb5ed	0.0067355544
60	0xbe1065a8	-0.14101279
61	0xbe06606b	-0.13122718
62	0x3db0e917	0.08638208
63	0xbe1e1d26	-0.15440807

module.Conv2.layers.1.weight f4 [64]
0	0x3fd6639a	1.6749146
1	0x3ecf9288	0.40541482
2	0x3fdb3459	1.712535
3	0x3ecaf33d	0.396387
4	0x3ef9348d	0.48672906
5	0x3fb8c2eb	1.4434484
6	0x3f9b2cd7	1.2123059
7	0x3f1eefd6	0.6208471
8	0xbd9b91a6	-0.075961396
9	0x3f69849f	0.9121799
10	0x3f934b65	1.1507384
11	0x3d0cd3f1	0.03438181
12	0x3f4bd59e	0.7962283
13	0x3f38cef5	0.7219079
14	0x3f74e5c4	0.95663095
15	0x3fcd51bc	1.6040568
16	0x3ebb19c7	0.36543104
17	0x3f4c94e6	0.799147
18	0x3f042393	0.5161678
19	0x3fee436e	1.8614328
20	0x4000b3be	2.0109706
21	0x3e64a2e4	0.22327763
22	0x3f4c329b	0.7976472
23	0x3f7eea95	0.99576694
24	0x3fe03c6f	1.7518443
25	0x3f9f72a0	1.2456856
26	0x3fce9169	1.6138126
27	0x3f5e6d9b	0.86885995
28	0x401ec107	2.4805315
29	0x3e677f57	0.2260717
30	0x3ee25e18	0.44212413
31	0xbdc1a9d5	-0.09456221
32	0x3e4eea1f	0.20206498
33	0x3e237673	0.15963154
34	0x3fb3ef46	1.4057395
35	0x3e7f257a	0.2491664
36	0x3fa5b898	1.2946959
37	0x4016c091	2.3555033
38	0x3ec14583	0.37748346
39	0x3f2eed7a	0.6833111
40	0x3f3137ab	0.6922557
41	0x3fbd40d0	1.4785404
42	0x3f4e13b0	0.8049879
43	0x3fc41022	1.5317423
44	0x3f81bc69	1.0135623
45	0xbeddf12a	-0.43348056
46	0x3e863eb6	0.2621972
47	0x3fb84c84	1.4398351
48	0xbe571b5b	-0.21006529
49	0x3fb04b65	1.3773009
50	0x3f84dbee	1.0379617
51	0x3ff10874	1.8830705
52	0x3fabd518	1.3424406
53	0x401557a5	2.3334744
54	0x40030bce	2.0475955
55	0x3fde2b35	1.7356936
56	0x4014a380	2.3224792
57	0x3f1fc7d2	0.62414277
58	0x3d158998	0.036508173
59	0x3ed5573b	0.41668114
60	0x3e3d5b99	0.18491973
61	0x3fdd9154	1.7309976
62	0x3fa70bd4	1.3050485
63	0x3f3a7dcb	0.72848195

module.Conv2.layers.1.bias f4 [64]
0	0xbe33bfbd	-0.17553611
1	0xbf100065	-0.562506
2	0x3fa368cf	1.276636
3	0xbf018ce4	-0.5060561
4	0xbeefcbe6	-0.4683525
5	0xbc59be0b	-0.013289939
6	0xbeca90f4	-0.39563715
7	0xbf460a4a	-0.7735945
8	0xbf16f4d8	-0.5896735
9	0xbfba51d0	-1.4556217
10	0xbda3c808	-0.07997137
11	0xbf76c554	-0.9639485
12	0xbd9f0c83	-0.07766058
13	0xbdee2b88	-0.11629397
14	0xbfb696a4	-1.4264722
15	0xbe6a71f3	-0.2289503
16	0xbedb390f	-0.4281697
17	0xbf62d1f4	-0.88601613
18	0xbf269511	-0.6507121
19	0x3f41effc	0.7575681
20	0xbd41d128	-0.047318608
21	0xbf9094a4	-1.1295362
22	0x3ee4e12e	0.44703048
23	0x3f3ccc5a	0.73749316
24	0xbf28f8b3	-0.66004485
25	0x3e36a47b	0.17836182
26	0xc09631f9	-4.6936
27	0xbd88bdfb	-0.06676861
28	0xbf0bc7e0	-0.5460186
29	0xbf1e039b	-0.6172425
30	0xbfb8ced9	-1.4438125
31	0xbfce47be	-1.6115644
32	0xbed14299	-0.40871122
33	0xbf0d4750	-0.5518694
34	0x3de311a2	0.110873476
35	0xbede4fda	-0.43420297
36	0xbe83e52e	-0.25760788
37	0xbfc91fef	-1.571287
38	0xbef1a96d	-0.47199574
39	0x3acd34a9	0.0015655953
40	0x3e48a048	0.19592392
41	0x3c479f1a	0.012183929
42	0xbe90c909	-0.28278378
43	0x3e2e709d	0.17035146
44	0x3f47d712	0.78062546
45	0xbf80571f	-1.0026587
46	0xbec84a11	-0.39119008
47	0xbe41564e	-0.18880579
48	0xbf5fd6cb	-0.87437123
49	0x3f6343a8	0.8877511
50	0x3ec57e37	0.38572857
51	0x3fee6768	1.8625307
52	0x3fd42f38	1.657691
53	0xc018625c	-2.3810034
54	0x3fbf38ca	1.4939206
55	0xbfb1ca31	-1.3889829
56	0xc06a0790	-3.6567116
57	0xc004c9e7	-2.0748231
58	0xbf5b39b8	-0.85634947
59	0xbf3655fb	-0.71224946
60	0xbed5da82	-0.4176827
61	0xbda3615e	-0.07977556
62	0x3d7407a1	0.059577588
63	0x3f4d0b73	0.80095595

module.Conv2.layers.1.running_mean f4 [64]
0	0x422695b0	41.64618
1	0xc202b489	-32.676304
2	0x43021cb4	130.11212
3	0xc22aa0aa	-42.6569
4	0xc22974d9	-42.36411
5	0x421ec1e8	39.68936
6	0xc22a6d28	-42.606598
7	0xc227cd7a	-41.95066
8	0xc29086d7	-72.26336
9	0x42da0b95	109.02262
10	0xc291e72a	-72.95149
11	0x4225da20	41.463013
12	0xc220dda6	-40.216454
13	0x42276ff8	41.859344
14	0x422a5405	42.58205
15	0x42be70ab	95.220055
16	0x41867544	16.807259
17	0x409274d2	4.5767603
18	0xbfb9dd7e	-1.4520719
19	0x42dfea39	111.957466
20	0x422d5e94	43.34236
21	0xc21e65d6	-39.59945
22	0xc1ff5900	-31.918457
23	0xc1f865f2	-31.049778
24	0x423acbcf	46.69903
25	0xc2264cbb	-41.574932
26	0x4261b7c0	56.429443
27	0xc1fba3c4	-31.454964
28	0x422a0bbd	42.511463
29	0xc2ca4be3	-101.14822
30	0x428a4396	69.132
31	0x42eea29b	119.31759
32	0xc24da568	-51.41153
33	0xc227e28c	-41.971237
34	0xc123750a	-10.216074
35	0xc2751fe3	-61.28114
36	0x42c05e7e	96.184555
37	0x42a8b31c	84.34982
38	0xc2d15cef	-104.68151
39	0x42ee0bf9	119.023384
40	0x42f6790f	123.23644
41	0x42faf3a0	125.47583
42	0x429ed18b	79.40926
43	0x42ee1147	119.033745
44	0xc24e974c	-51.64775
45	0x421009e1	36.009647
46	0xc2923669	-73.10627
47	0x4293add4	73.83951
48	0x42ed572d	118.670265
49	0x42b13287	88.59869
50	0x4282cdf2	65.40224
51	0xc272817e	-60.626457
52	0xc2c6c08e	-99.37608
53	0x422d910f	43.39166
54	0xc2907b6c	-72.24106
55	0x42fa3855	125.11002
56	0x42d5d310	106.91223
57	0x4191b8fe	18.215328
58	0x4231ff4b	44.49931
59	0xc28c20d5	-70.064125
60	0xc2b7c672	-91.88759
61	0x4226364b	41.55302
62	0x42cbc651	101.88734
63	0xc22b3640	-42.80298

module.Conv2.layers.1.running_var f4 [64]
0	0x45dc9520	7058.6406
1	0x458c65b2	4492.712
2	0x45e084d7	7184.605
3	0x45dd04d5	7072.604
4	0x45c6fd27	6367.644
5	0x45b2a2ba	5716.341
6	0x45d1ee81	6717.813
7	0x45dc37af	7046.9604
8	0x44ba9e4f	1492.9471
9	0x455b4331	3508.1995
10	0x459bf7d8	4990.9805
11	0x45d45440	6794.5312
12	0x45c9af31	6453.899
13	0x45dad4d4	7002.6035
14	0x45ddc80d	7097.0063
15	0x4537b61c	2939.3818
16	0x44cbbcbe	1629.8982
17	0x44b51a0a	1448.8137
18	0x44f9612e	1995.0369
19	0x45c2ea19	6237.262
20	0x45d9a809	6965.0044
21	0x45c85f66	6411.925
22	0x451205b7	2336.3572
23	0x44f692ca	1972.5872
24	0x45816e35	4141.776
25	0x45be8733	6096.9
26	0x462e44d6	11153.209
27	0x4554a494	3402.2861
28	0x45db1f28	7011.8945
29	0x4503c60e	2108.3784
30	0x450d74d7	2263.3025
31	0x4593a4d2	4724.6025
32	0x44c5ddd2	1582.9319
33	0x45d5b42a	6838.5205
34	0x453b938a	3001.2212
35	0x4503ff5d	2111.9602
36	0x45b2f8e3	5727.111
37	0x45011dc2	2065.8599
38	0x457f0656	4080.396
39	0x45c7964c	6386.787
40	0x459bb8a4	4983.08
41	0x45aa1dbc	5443.717
42	0x45e64485	7368.565
43	0x45ae26ba	5572.841
44	0x45b2d7cf	5722.976
45	0x4422fef0	651.9834
46	0x45b31434	5730.5254
47	0x45b0460c	5640.756
48	0x458de5aa	4540.708
49	0x456eb530	3819.3242
50	0x44ad97d6	1388.7449
51	0x44a61959	1328.7921
52	0x44e70ae8	1848.3408
53	0x45dd0f44	7073.908
54	0x44c8373f	1601.7264
55	0x45a9ecc6	5437.5967
56	0x4553079f	3376.4763
57	0x44b45ba5	1442.8639
58	0x440964dd	549.576
59	0x45fc1d11	8067.6333
60	0x450058cb	2053.5496
61	0x45d65a0f	6859.2573
62	0x4529a4e1	2714.305
63	0x45dead46	7125.659

module.Conv3.layers.0.weight f4 [64, 64, 3, 3]
0	0x3f19f45f	0.60138506
1	0x3f24aee8	0.64329386
2	0x3f12514d	0.57155305
3	0xbf0ef63f	-0.5584449
4	0x3f1c69ec	0.61099124
5	0x3f1b0feb	0.60571164
6	0xbf21e62e	-0.6324185
7	0xbf1cd954	-0.61269116
8	0xbf1a4c02	-0.6027223
9	0xbf1364d5	-0.5757573
10	0xbf178ec3	-0.5920221
11	0xbf17d721	-0.59312636
12	0xbf0fccc1	-0.56171805
13	0xbf19e856	-0.6012014
14	0xbf15dab2	-0.5853683
15	0xbf16c95d	-0.58901006
16	0xbf1d7509	-0.61506706
17	0xbf1911cf	-0.597928
18	0x3f1c2c61	0.61005217
19	0x3f150507	0.58210796
20	0x3f1f589a	0.6224457
21	0x3f1a934d	0.60381013
22	0x3f24046a	0.64069235
23	0x3f25d7df	0.6478252
24	0x3f1fab4d	0.6237076
25	0x3f1edb96	0.6205381
26	0x3f13a298	0.57669973
27	0xbf12796d	-0.5721653
28	0xbf180299	-0.59378964
29	0xbf116813	-0.5679943
30	0xbf148ead	-0.58030206
31	0xbf1edb39	-0.6205326
32	0xbf0fdc37	-0.56195396
33	0xbf1f1491	-0.62140757
34	0xbf0fd283	-0.5618059
35	0xbf140a57	-0.5782828
36	0xbf11d1bf	-0.5696067
37	0xbf1a26d9	-0.60215527
38	0xbf12c5dd	-0.57333165
39	0xbf127fbc	-0.5722616
40	0xbf22aef3	-0.635482
41	0xbf17c18f	-0.5927972
42	0xbf137a35	-0.5760835
43	0xbf171735	-0.59019786
44	0xbf161c74	-0.58637166
45	0xbf1e46fa	-0.6182705
46	0xbf1c0827	-0.6094994
47	0xbf2381ab	-0.6386973
48	0xbf184077	-0.59473366
49	0xbf1a980f	-0.60388273
50	0xbf1869a2	-0.5953618
51	0xbf186067	-0.595221
52	0xbf1d3d2f	-0.61421484
53	0xbf1661c2	-0.58742917
54	0x3f1dc598	0.6162963
55	0x3f2120a4	0.6294043
56	0xbefcc359	-0.49367788
57	0x3f10541a	0.5637833
58	0x3f23a5b6	0.6392473
59	0x3f1c1963	0.6097624
60	0x3f269266	0.65067136
61	0x3f164aff	0.58708185
62	0x3f16f195	0.58962375
63	0xbf1e3aeb	-0.6180865
64	0xbf1bd511	-0.6087199
65	0xbf202370	-0.62554073
66	0xbf1a9559	-0.60384136
67	0xbf20467f	-0.6260757
68	0xbf1e14de	-0.6175059
69	0xbf1cb5d1	-0.6121493
70	0xbf212969	-0.6295381
71	0xbf2438b1	-0.64149004
72	0x3f1ea9cc	0.6197784
73	0x3f23d1e8	0.63992167
74	0x3f20c5c7	0.62801784
75	0x3f1ca5ad	0.611903
76	0x3f13301d	0.5749529
77	0x3f14c123	0.58107203
78	0x3f107cf8	0.5644069
79	0x3f211d4f	0.62935346
80	0x3f132422	0.5747701
81	0xbf12efec	-0.5739734
82	0xbf17adaa	-0.59249365
83	0xbf21636d	-0.63042337
84	0xbf0f1471	-0.55890566
85	0xbf1468c2	-0.5797235
86	0xbf1c1949	-0.6097608
87	0xbf1a3951	-0.6024371
88	0xbf23363f	-0.6375465
89	0xbf102595	-0.56307346
90	0x3f1f80a2	0.62305653
91	0x3f1aa4b7	0.60407585
92	0x3f227ffd	0.63476545
93	0x3f16de9f	0.5893344
94	0x3f1a1552	0.6018878
95	0x3f134242	0.57522976
96	0x3f263e4b	0.649388
97	0x3f16c0e8	0.588881
98	0x3f246cd9	0.6422859
99	0x3f17fafe	0.5936736
100	0x3f1bbb7c	0.60832953
101	0x3f1bba15	0.60830814
102	0x3f1310fc	0.5744779
103	0x3f182066	0.59424436
104	0x3f1c094e	0.609517
105	0x3f19478a	0.59874785
106	0x3f14ca19	0.58120877
107	0x3f102cec	0.56318545
108	0x3f145577	0.5794291
109	0x3f217fcf	0.63085645
110	0x3f24af87	0.64330333
111	0x3f13ce5f	0.5773677
112	0x3f19647e	0.59918964
113	0x3f22315d	0.6335657
114	0x3f129582	0.5725938
115	0x3f1a629b	0.6030671
116	0x3f11e5dd	0.5699137
117	0xbf0fa977	-0.5611796
118	0xbf1b2bfb	-0.60613984
119	0xbf1f8a2b	-0.623202
120	0xbf108e2b	-0.5646693
121	0xbf1bc7d0	-0.60851765
122	0xbf1f7121	-0.62281996
123	0xbf0e78eb	-0.55653256
124	0xbf132eeb	-0.57493466
125	0xbf0f5a0e	-0.5599679
126	0xbf127035	-0.57202464
127	0xbf1cab5d	-0.6119898
128	0xbf12b993	-0.57314414
129	0xbf19eec8	-0.60129976
130	0xbf1eafd1	-0.61987025
131	0xbf172676	-0.5904306
132	0xbf12134a	-0.5706068
133	0xbf1c3ed0	-0.61033344
134	0xbf161743	-0.58629245
135	0xbf192ff8	-0.5983882
136	0xbf201c1d	-0.625429
137	0xbf11dc19	-0.5697647
138	0xbf1d0aaa	-0.613444
139	0xbf132e13	-0.5749218
140	0xbf1addb9	-0.6049457
141	0xbf1b102d	-0.6057156
142	0xbf16548c	-0.5872276
143	0xbf1fbd6a	-0.623984
144	0xbf20a1f5	-0.62747127
145	0xbf15179f	-0.5823917
146	0xbf1db94d	-0.6161087
147	0xbf1f707e	-0.62281024
148	0xbf0ff329	-0.5623041
149	0xbf119c27	-0.56878895
150	0xbf1d5c9b	-0.6146943
151	0xbf10775c	-0.5643213
152	0xbf1a717e	-0.60329425
153	0xbf17dfeb	-0.59326047
154	0xbf171895	-0.59021884
155	0xbf1bc5f9	-0.6084896
156	0xbf13fe7f	-0.57810205
157	0xbf18356c	-0.59456515
158	0xbf2268c5	-0.63441116
159	0xbf1d977e	-0.61559284
160	0xbf104c82	-0.5636674
161	0xbf20efaa	-0.628657
162	0x3f234668	0.63779306
163	0x3f13dd1d	0.5775927
164	0x3f2208fe	0.6329497
165	0x3f10067a	0.5625988
166	0x3f100af8	0.56266737
167	0x3f13e52c	0.57771564
168	0x3f1544ce	0.5830811
169	0x3f0fbab2	0.5614425
170	0x3f1e5efe	0.61863697
171	0xbf1eb4db	-0.61994714
172	0xbf17a839	-0.5924106
173	0xbf184136	-0.59474504
174	0xbf0c1d63	-0.5473234
175	0xbf0e4fac	-0.5559032
176	0xbf19d512	-0.60090744
177	0xbf0d8692	-0.55283463
178	0xbf0ebae0	-0.557539
179	0xbf1b39fc	-0.6063535
180	0xbf235cac	-0.6381328
181	0xbf10b7d4	-0.565305
182	0xbf1c4ec3	-0.6105768
183	0xbf1be40a	-0.60894835
184	0xbf174046	-0.5908245
185	0xbf12df3f	-0.57371897
186	0xbf147309	-0.5798803
187	0xbf1a18cb	-0.6019408
188	0xbf1b92e5	-0.6077102
189	0x3f1df51d	0.6170214
190	0x3f11e858	0.56995153
191	0x3f203190	0.62575626
192	0x3f1fc30f	0.6240701
193	0x3f141c3a	0.5785557
194	0x3f23365d	0.63754827
195	0x3f13fa52	0.57803833
196	0x3f109383	0.56475085
197	0x3f1e47fd	0.61828595
198	0xbf1ffc25	-0.6249412
199	0xbf17c043	-0.59277743
200	0xbf214162	-0.6299039
201	0xbf219fcb	-0.6313445
202	0xbf2308e8	-0.63685465
203	0xbf1311bc	-0.57448936
204	0xbf1c47bd	-0.61046964
205	0xbf15332e	-0.5828122
206	0xbf109faf	-0.5649366
207	0xbf1bf4da	-0.6092049
208	0xbf1480ca	-0.58009017
209	0xbf1d4c85	-0.61444885
210	0xbf1b580a	-0.6068121
211	0xbf0ef81c	-0.55847335
212	0xbf2428cd	-0.6412476
213	0xbf20a0a1	-0.627451
214	0xbf1f4ad9	-0.62223583
215	0xbf23e971	-0.6402808
216	0xbf1c5920	-0.61073494
217	0xbf11bba3	-0.56926936
218	0xbf241693	-0.64096946
219	0xbf1073b8	-0.5642657
220	0xbf1fb0da	-0.6237923
221	0xbf22ecf6	-0.63642824
222	0xbf18b6d9	-0.59654003
223	0xbf1b4fd2	-0.6066867
224	0xbf11fccd	-0.5702637
225	0x3f1e865b	0.6192376
226	0x3f235814	0.6380627
227	0x3f191e44	0.59811807
228	0x3f22ad71	0.635459
229	0x3f1d3add	0.61417943
230	0x3f15da35	0.5853608
231	0x3f130e70	0.57443905
232	0x3f143d78	0.57906294
233	0x3f1b0c77	0.60565895
234	0xbf1a36e3	-0.6024
235	0xbf1e9b9b	-0.61956185
236	0xbf1496e4	-0.5804274
237	0xbf11e12f	-0.5698423
238	0xbf17a9d1	-0.59243494
239	0xbf226d33	-0.63447875
240	0xbf101e56	-0.5629629
241	0xbf17fd24	-0.59370637
242	0xbf1ca0dc	-0.6118295
243	0x3f1740a8	0.5908303
244	0x3f11ce8d	0.56955796
245	0x3f11e09b	0.56983346
246	0x3f17d187	0.5930409
247	0x3f104598	0.5635619
248	0x3f217226	0.630648
249	0x3f14e518	0.5816207
250	0x3f1969e5	0.5992721
251	0x3f153a6f	0.5829229
252	0xbf17575f	-0.5911769
253	0xbf129099	-0.5725189
254	0xbf10275c	-0.5631006
255	0xbf167ddf	-0.58785814

module.Conv3.layers.0.bias f4 [64]
0	0x3ccbc59c	0.0248745
1	0x3ca0274c	0.019549988
2	0xbcf8c854	-0.030368961
3	0xbd1ea336	-0.03872987
4	0x3d586e86	0.05283978
5	0x3ca60357	0.020265264
6	0x3d74d764	0.059775725
7	0xbd9ae64a	-0.075634554
8	0xbd9b0377	-0.0756902
9	0x3dab5267	0.083653264
10	0xbd56b733	-0.052420806
11	0x3cfd8f09	0.030951994
12	0xbdd0597d	-0.101733185
13	0xbd1df26e	-0.038561277
14	0x3ce91023	0.028450077
15	0xbdd3d6a0	-0.10343671
16	0xbd5ac828	-0.05341354
17	0xbdda4082	-0.10656835
18	0x3e2d212c	0.16907185
19	0xbc838e1d	-0.016058976
20	0xbdd19782	-0.10233976
21	0xbc6e483e	-0.014543591
22	0x3d11b4da	0.035572864
23	0xbe0da699	-0.13833083
24	0x3cd29745	0.025706897
25	0xbd849b2e	-0.06474911
26	0xbe1c0130	-0.15234828
27	0x3d11f634	0.03563519
28	0xbd0786f0	-0.03308767
29	0x3d6e41a0	0.058168054
30	0xbd262833	-0.04056568
31	0xbd952151	-0.07281745
32	0xbd258946	-0.040414117
33	0x3d305ef2	0.043059297
34	0x3ca82e6b	0.020529946
35	0xbd555f7e	-0.05209302
36	0x3ba7bded	0.0051190765
37	0xbde270d9	-0.1105668
38	0x3dc17849	0.09446771
39	0x3d01c586	0.031682514
40	0x3d1ff2db	0.039049964
41	0x3b25247a	0.0025198744
42	0xbbdb9571	-0.0067011644
43	0xba3d4303	-0.00072197634
44	0x3d6ad101	0.057328228
45	0x3bc96357	0.0061458754
46	0x3b75b436	0.0037491447
47	0x3d313a70	0.04326862
48	0xbd9edbfd	-0.07756803
49	0xbd86312f	-0.0655235
50	0x3d4b0f9c	0.049575433
51	0xbc3418d7	-0.01099225
52	0x3dc6ceef	0.09707438
53	0x3b8c5d25	0.0042835646
54	0x3e1952a3	0.1497293
55	0xbd807f9e	-0.06274341
56	0xbda815af	-0.08207261
57	0xbda81904	-0.08207896
58	0x3db61458	0.08890599
59	0xbdc3b562	-0.095560804
60	0xbda954d1	-0.082681306
61	0xbdc4fe68	-0.09618837
62	0x3d391f4d	0.045195866
63	0x3cc5bf4a	0.024139065

module.Conv3.layers.1.weight f4 [64]
0	0x40269b00	2.6032104
1	0x3fb542eb	1.4161047
2	0x3f69a98a	0.9127432
3	0x3fdca3a9	1.7237445
4	0x3fba40eb	1.4551061
5	0x3fee6652	1.8624976
6	0x3fe07ff9	1.7539054
7	0x4004b292	2.073399
8	0x3ec949c4	0.3931409
9	0x3fad0790	1.3517933
10	0x3f253fa6	0.64550245
11	0x3f735527	0.9505181
12	0x3f9f6308	1.2452097
13	0x3f9761fb	1.1826776
14	0x3f3f9071	0.74829775
15	0x3fb1a6e4	1.3879056
16	0x3f0b6602	0.54452527
17	0x3fa8cde0	1.3187828
18	0x400f505b	2.2392795
19	0x3f605e9f	0.8764438
20	0xbfd37a56	-1.6521709
21	0x3f9d6dbd	1.2299114
22	0x3f892946	1.0715721
23	0xbec915b5	-0.39274374
24	0x3f93c19e	1.1543462
25	0x40161433	2.3449829
26	0xbeb181bc	-0.34669292
27	0xbf189caf	-0.5961408
28	0x3eb24fc0	0.3482647
29	0x3f6c6dcd	0.9235504
30	0x3fc0b3ac	1.5054832
31	0x3ffdc621	1.9826089
32	0x3f4fb092	0.811288
33	0x3f568a5d	0.83804876
34	0x3fba6130	1.4560909
35	0x3ebdbce8	0.37058187
36	0x3f071810	0.5277109
37	0xbe9b1c3f	-0.30294988
38	0x3f51aa3c	0.8190038
39	0x3eb4c685	0.35307708
40	0x3ee30036	0.44336098
41	0x3e8248f5	0.25446287
42	0x3e847b15	0.25875154
43	0x3fdb0b28	1.711278
44	0xbd95236e	-0.07282148
45	0x3f5df5ad	0.86702996
46	0x3f870202	1.0547488
47	0x3f72cf86	0.94847906
48	0x3fa3a1da	1.2783768
49	0x3fb2633b	1.3936533
50	0x401e011b	2.4688175
51	0x3f2c8702	0.67393506
52	0x3facad44	1.3490376
53	0x3ffd6f4b	1.9799589
54	0x3fce460d	1.6115128
55	0x3f9f709a	1.2456238
56	0x3fceb144	1.6147847
57	0x3f8a34c2	1.079735
58	0x3fbba848	1.466073
59	0xbf9206ec	-1.1408362
60	0xbeca8d5d	-0.39560977
61	0x3fad8f27	1.3559312
62	0x3f25740a	0.64630187
63	0x3e7ec4b0	0.24879718

module.Conv3.layers.1.bias f4 [64]
0	0x3e0b4189	0.13599218
1	0xbf25e6bc	-0.648052
2	0xbfc8356a	-1.5641301
3	0xbe979c96	-0.29611653
4	0xbed1c106	-0.40967578
5	0x3f2c9f19	0.67430264
6	0x3f30d3b3	0.6907303
7	0xc006a752	-2.1039624
8	0xbfdc0d0b	-1.719148
9	0x3c86ee56	0.01647107
10	0x4049c49e	3.1526256
11	0x3f8beb76	1.0931232
12	0x3f3c2231	0.7348967
13	0xc00cf6c5	-2.2025616
14	0xbfab9ca9	-1.3407184
15	0x3df098de	0.11747907
16	0xbfbea34e	-1.4893587
17	0xbfdbd031	-1.717291
18	0xbf119b16	-0.5687727
19	0xbf3e5883	-0.7435381
20	0xbec0274b	-0.37529978
21	0xbc023cd4	-0.007949073
22	0xbe30cf07	-0.17266475
23	0x401f1e44	2.4862223
24	0xbf33ca75	-0.702308
25	0xbf7f0b98	-0.99627066
26	0xbff91354	-1.9459023
27	0xbf562b79	-0.83660084
28	0xc039ff05	-2.9061902
29	0xbf95850e	-1.168123
30	0xbd40eb26	-0.047099255
31	0x3f398417	0.7246718
32	0xbea33588	-0.3187678
33	0x3f564052	0.83691895
34	0xbf3fa4ab	-0.7486064
35	0x406193d8	3.5246487
36	0x3feb252d	1.837072
37	0xc0251054	-2.5791216
38	0xbfb434f6	-1.4078662
39	0x40448660	3.0707016
40	0x3b5baea9	0.0033520854
41	0x4003cef5	2.0595067
42	0xbfdecd53	-1.740641
43	0x3d72196c	0.059106275
44	0xc018f0cd	-2.3896973
45	0x3d35def4	0.044402078
46	0xbdba80fb	-0.09106632
47	0xbea497b4	-0.3214699
48	0x3fb419c2	1.4070361
49	0x3f1b038d	0.60552293
50	0xbf310077	-0.69141334
51	0x3eac56a9	0.33659866
52	0xbeb43a94	-0.35200942
53	0xbe90dee6	-0.28295058
54	0x3e39dfad	0.18151732
55	0xbf92d029	-1.1469775
56	0x3e075212	0.13214901
57	0xbf5d3ac2	-0.8641778
58	0x3f5ad475	0.85480434
59	0xbfccdde7	-1.6005219
60	0x3fe86e36	1.8158634
61	0xbf80d0b3	-1.006369
62	0xc0429f5c	-3.0409765
63	0x3fd496a1	1.6608468

module.Conv3.layers.1.running_mean f4 [64]
0	0xc2b31412	-89.5392
1	0xc2a2134e	-81.037704
2	0x42ce162e	103.04332
3	0xc291b9b2	-72.862686
4	0xc2e5743b	-114.72701
5	0xc2a59f43	-82.81106
6	0x42b99196	92.78435
7	0x427bd2e0	62.955933
8	0x4293de7f	73.93456
9	0xc288f468	-68.477356
10	0xc2df7a5e	-111.739
11	0x42ee8443	119.25832
12	0xc2ed2bcf	-118.58556
13	0xc2b85afc	-92.177704
14	0x428f2204	71.56644
15	0x42c2ee9d	97.46604
16	0xc2a4760d	-82.23057
17	0x429a6d2c	77.21323
18	0x4287c8ee	67.89244
19	0xc27998bc	-62.399155
20	0x42b65d47	91.18218
21	0xc2410896	-48.258385
22	0x42978f8c	75.780365
23	0xc282eb09	-65.45905
24	0xc2d14063	-104.625755
25	0x4225fe2f	41.498226
26	0x42b461f5	90.19132
27	0x4288ac63	68.33669
28	0x42f5a3f0	122.82019
29	0x42aa2317	85.068535
30	0xc2842633	-66.07461
31	0xc2dc483b	-110.141075
32	0x422323dc	40.78502
33	0xc28b152c	-69.54135
34	0xc2f24234	-121.1293
35	0xc2e2ec15	-113.4611
36	0x4207027e	33.752434
37	0xc2257467	-41.363674
38	0xc297e314	-75.94351
39	0xc286b7b9	-67.35883
40	0xc2dc7f76	-110.24895
41	0xc29ab4c6	-77.35307
42	0xc2e5a6b3	-114.825584
43	0xc2a91749	-84.54548
44	0x428a4715	69.13883
45	0xc3175313	-151.32451
46	0xc2b4369f	-90.10668
47	0xc235cb8d	-45.44878
48	0xc2a1e396	-80.9445
49	0xc230794a	-44.118446
50	0x419b7d0e	19.436062
51	0x42cbf0bb	101.97018
52	0x428e5929	71.17414
53	0xc2826f1d	-65.21702
54	0x42b8d608	92.41803
55	0xc2e1cd7d	-112.901344
56	0xc2a6cc26	-83.39873
57	0x42bcacd0	94.337524
58	0x4329b455	169.70442
59	0xc3185765	-152.34138
60	0xc2d0c3aa	-104.38216
61	0xc2f78109	-123.75202
62	0x42a1af8d	80.84287
63	0xc2aedf7d	-87.4365

module.Conv3.layers.1.running_var f4 [64]
0	0x458c311c	4486.1387
1	0x45a28541	5200.6567
2	0x45b3b52e	5750.6475
3	0x44e9be69	1869.9503
4	0x454053c5	3077.2356
5	0x449cfea9	1255.9581
6	0x4541ab2d	3098.6985
7	0x4546c749	3180.4553
8	0x44c546a1	1578.2072
9	0x45552d0a	3410.815
10	0x45148ad9	2376.678
11	0x458440a1	4232.0786
12	0x4534142f	2881.2615
13	0x45553343	3411.2039
14	0x450551a3	2133.1023
15	0x44b77cd4	1467.9009
16	0x455e678a	3558.4712
17	0x448617d1	1072.7443
18	0x4454ece7	851.7016
19	0x44d7dc37	1726.8817
20	0x44b94c20	1482.3789
21	0x44c35398	1562.6123
22	0x453c9829	3017.51
23	0x44648609	914.0943
24	0x4543fcaf	3135.7927
25	0x4536edea	2926.8696
26	0x4565218d	3666.097
27	0x458f834a	4592.411
28	0x45a8f255	5406.2915
29	0x4554e8cc	3406.5498
30	0x44a2dd28	1302.9111
31	0x45979e42	4851.782
32	0x441ab5a1	618.83795
33	0x454695e0	3177.3672
34	0x45257c9e	2647.7886
35	0x4577f86e	3967.5269
36	0x460e4a6d	9106.606
37	0x45d33274	6758.3066
38	0x45841a9a	4227.325
39	0x45a91672	5410.8057
40	0x45523db3	3363.8562
41	0x4553a592	3386.3481
42	0x452d8303	2776.1882
43	0x45469fd0	3177.9883
44	0x441bfed2	623.98157
45	0x4650a7f8	13353.992
46	0x45b0e434	5660.5254
47	0x441d023d	628.035
48	0x44ba80ad	1492.0211
49	0x44f49cf7	1956.9052
50	0x45b7ced6	5881.8545
51	0x4551993a	3353.5767
52	0x44a4e592	1319.1741
53	0x45031e75	2097.9036
54	0x44ea4465	1874.1373
55	0x46079d21	8679.282
56	0x45a50a7e	5281.3115
57	0x4555daa7	3421.6658
58	0x469773cd	19385.9
59	0x45932aca	4709.3486
60	0x4612452f	9361.296
61	0x45d08f31	6673.899
62	0x44cd1597	1640.6747
63	0x44b79a57	1468.8231

module.Conv4.layers.0.weight f4 [64, 64, 3, 3]
0	0x3f178471	0.59186465
1	0xbf2eb139	-0.6823917
2	0x3f19e6b7	0.6011767
3	0x3f0ee594	0.5581906
4	0x3f1ff36d	0.62480813
5	0x3f0f3502	0.5594026
6	0x3f175e90	0.59128666
7	0x3f0fae31	0.5612517
8	0x3f20361a	0.6258255
9	0xbf1ee60f	-0.6206979
10	0xbf15aee0	-0.58469963
11	0xbf1bcc4e	-0.6085862
12	0xbf0eb8d7	-0.55750793
13	0xbf101737	-0.56285423
14	0xbf1fa729	-0.6236444
15	0xbf18afca	-0.5964323
16	0xbf1a0df1	-0.6017752
17	0xbf16f34d	-0.58965
18	0x3f1dd15c	0.6164758
19	0x3f22435a	0.6338402
20	0x3f80f334	1.007422
21	0x3f270cc8	0.6525388
22	0x3f20d78d	0.62828904
23	0x3f231115	0.6369794
24	0x3f280aee	0.6564168
25	0x3f28c3ad	0.6592358
26	0x3f2c53e7	0.67315525
27	0xbf0f944a	-0.56085646
28	0xbf11e3d0	-0.5698824
29	0xbf1f444f	-0.62213606
30	0xbf1473c1	-0.57989126
31	0xbf17d2d2	-0.5930606
32	0xbf1ce12c	-0.61281085
33	0xbf12dbd6	-0.57366693
34	0xbf1ce8b6	-0.6129259
35	0xbf127a0d	-0.57217485
36	0xbf145664	-0.5794432
37	0xbf1f1ac5	-0.6215022
38	0xbf12c63f	-0.5733375
39	0xbf20e000	-0.62841797
40	0xbf14047e	-0.57819355
41	0xbf151f25	-0.5825065
42	0xbf1b9d33	-0.6078674
43	0xbf21237b	-0.62944764
44	0xbf0f6532	-0.56013787
45	0xbf1685da	-0.5879799
46	0xbf19423e	-0.598667
47	0xbf13f38a	-0.57793486
48	0xbf1e90b7	-0.6193957
49	0xbf0b30c4	-0.54371285
50	0xbf0a675d	-0.5406397
51	0xbf0dabfb	-0.55340546
52	0xbf1b6913	-0.60707206
53	0xbf17226a	-0.59036887
54	0xbf160720	-0.5860462
55	0xbf187d5e	-0.59566295
56	0xbf1460c8	-0.57960176
57	0xbf2c9509	-0.6741491
58	0xbf1e039f	-0.61724275
59	0xbf17b456	-0.59259546
60	0xbf1e47b6	-0.6182817
61	0xbf19205c	-0.59815
62	0xbf127aaa	-0.5721842
63	0xbf1ddd21	-0.6166554
64	0xbf20ae93	-0.6276638
65	0xbf202cfb	-0.62568635
66	0xbf20f271	-0.62869936
67	0xbf11dd0c	-0.56977916
68	0xbf122156	-0.57082117
69	0xbf136302	-0.5757295
70	0xbf20ce26	-0.6281456
71	0xbf1ec8db	-0.6202523
72	0x3f202a89	0.62564903
73	0x3f244b00	0.6417694
74	0x3f13c23f	0.5771827
75	0x3f0fb8a2	0.561411
76	0x3f19a0f6	0.6001123
77	0x3f102042	0.5629922
78	0x3f24a3aa	0.6431223
79	0x3f228dab	0.6349742
80	0x3f0e64ec	0.55622745
81	0xbf17c217	-0.5928053
82	0xbf1e8aad	-0.6193035
83	0xbf2b6fdd	-0.66967565
84	0xbf2136cb	-0.6297423
85	0xbf1ee5bf	-0.62069315
86	0xbf3cb0a7	-0.7370705
87	0xbf193728	-0.59849787
88	0xbf155caa	-0.5834452
89	0xbf16d41c	-0.58917403
90	0xbf439d07	-0.7641148
91	0x3f0bed7c	0.5465925
92	0x3f192a22	0.59829915
93	0x3f153ef3	0.5829918
94	0x3f1cd7ba	0.6126667
95	0x3f0afe0e	0.54293907
96	0x3f18f4ef	0.5974874
97	0x3f0ad241	0.5422707
98	0x3ef342d2	0.47511917
99	0x3f200b10	0.6251688
100	0x3f0f1720	0.5589466
101	0x3f1c1001	0.6096192
102	0x3f1de8d3	0.61683387
103	0x3f194ed1	0.5988589
104	0x3f20aa54	0.627599
105	0x3f23a60b	0.63925236
106	0x3f10c66e	0.5655278
107	0x3f0f9ad8	0.5609565
108	0x3f149b34	0.5804932
109	0x3ee8ecfd	0.45493308
110	0xbf20f093	-0.6286709
111	0x3f11539c	0.567682
112	0x3d8b1420	0.06790948
113	0xbf2282fe	-0.6348113
114	0x3f1152b6	0.5676683
115	0x3f14f05c	0.5817926
116	0xbf1e1697	-0.6175322
117	0x3f2009df	0.6251506
118	0xbf220be0	-0.6329937
119	0xbf195d9c	-0.5990846
120	0xbf2aaafd	-0.6666716
121	0xbf1c8074	-0.61133504
122	0xbf246759	-0.64220196
123	0xbf131bad	-0.57464105
124	0xbf17a4eb	-0.5923602
125	0xbf134305	-0.5752414
126	0xbf1d9224	-0.6155112
127	0xbf2b3ba3	-0.66887873
128	0xbf226728	-0.63438654
129	0xbf1b31a6	-0.6062263
130	0xbf23f450	-0.64044666
131	0xbf172c21	-0.5905171
132	0xbf1cc00e	-0.6123055
133	0xbf1fc686	-0.624123
134	0xbf1e4559	-0.61824566
135	0xbf1774cf	-0.5916261
136	0xbf1180df	-0.56837267
137	0xbf19c637	-0.60068077
138	0xbf100ab1	-0.56266314
139	0xbf2250e0	-0.63404655
140	0xbf124137	-0.5713076
141	0xbf21615a	-0.6303917
142	0xbf1d9991	-0.6156245
143	0xbf1a6a5d	-0.6031855
144	0xbf0f4cd9	-0.55976635
145	0xbf0ec13c	-0.557636
146	0xbf1122a9	-0.5669351
147	0xbf18aaee	-0.5963582
148	0xbf1df400	-0.6170044
149	0xbf136162	-0.5757047
150	0xbf1e8c76	-0.61933076
151	0xbf203cfa	-0.6259304
152	0xbf19d7e4	-0.6009505
153	0xbf12d17d	-0.57350904
154	0xbf14bcd2	-0.58100617
155	0xbf20688c	-0.62659526
156	0xbf148862	-0.58020604
157	0xbf190ae0	-0.5978222
158	0xbf177362	-0.59160435
159	0xbf132e8d	-0.57492906
160	0xbf164889	-0.5870443
161	0xbf1d7f6c	-0.61522555
162	0x3f17bf55	0.59276325
163	0xbf286362	-0.65776646
164	0xbf1c5b2f	-0.61076635
165	0x3f211ea7	0.62937397
166	0x3f153c41	0.58295065
167	0xbf246b22	-0.6422597
168	0x3f164b73	0.58708876
169	0x3f208681	0.62705237
170	0x3f1c3ab4	0.61027074
171	0xbeed3cee	-0.46335548
172	0xbf033421	-0.5125142
173	0xbf17ef55	-0.59349567
174	0x3f9bd561	1.2174493
175	0xbee5dfc3	-0.4489728
176	0xbf0719cc	-0.5277374
177	0xbf0eb721	-0.5574818
178	0xbf0acd4a	-0.54219496
179	0xbf1f1d3b	-0.6215398
180	0xbf0dc4d9	-0.5537849
181	0xbf103563	-0.5633146
182	0xbf10637d	-0.5640181
183	0xbf18196a	-0.5941378
184	0xbf100765	-0.56261283
185	0xbf176890	-0.59143925
186	0xbf0a18c5	-0.53944045
187	0xbf150714	-0.58213925
188	0xbf0a7717	-0.54087967
189	0x3f16020a	0.5859686
190	0x3f1e3569	0.6180025
191	0x3f10b271	0.5652228
192	0x3f10c51f	0.5655078
193	0x3f1538f2	0.58290017
194	0x3f1e3686	0.61801946
195	0x3f179b4f	0.5922136
196	0x3f132c04	0.5748904
197	0x3f14e103	0.5815584
198	0xbf1794ca	-0.5921141
199	0xbf2057a3	-0.62633723
200	0xbf1ae036	-0.6049837
201	0xbf244746	-0.64171255
202	0xbf160cc2	-0.58613217
203	0xbf2013c4	-0.6253016
204	0xbf2130a9	-0.62964875
205	0xbf1b74a5	-0.6072486
206	0xbf1dd2b1	-0.61649615
207	0xbf1e511a	-0.618425
208	0xbf20eb64	-0.6285918
209	0xbf11f642	-0.57016385
210	0xbf10e856	-0.56604517
211	0xbf1f90d9	-0.62330395
212	0xbf21041a	-0.62896883
213	0xbf20c7f0	-0.6280508
214	0xbf21107b	-0.6291577
215	0xbf131bb0	-0.5746412
216	0xbf1b605d	-0.60693914
217	0xbf1a0983	-0.60170764
218	0xbf13cca4	-0.5773413
219	0xbf0e65c9	-0.5562406
220	0xbf20b26e	-0.6277226
221	0xbf0c07cc	-0.546994
222	0xbf14998f	-0.5804681
223	0xbf1ce03d	-0.6127966
224	0xbf1413db	-0.578428
225	0x3f1a78fc	0.6034086
226	0x3f1d383a	0.6141392
227	0x3f1aa42a	0.60406744
228	0x3f186d7f	0.5954208
229	0x3f16cac3	0.5890314
230	0x3f19c07c	0.6005933
231	0x3f1156e2	0.567732
232	0x3f121600	0.5706482
233	0x3f0c1c99	0.54731137
234	0xbf150b0a	-0.5821997
235	0xbf27cb1d	-0.655443
236	0xbf26719d	-0.6501711
237	0xbf19d50d	-0.60090715
238	0xbf279c5f	-0.6547298
239	0xbf2278dd	-0.6346567
240	0xbf27c9b0	-0.65542126
241	0xbf16f58c	-0.58968425
242	0xbf1ffaa5	-0.6249183
243	0x3f23a87d	0.6392897
244	0xbf282089	-0.65674645
245	0xbf128964	-0.5724089
246	0x3f1244a5	0.57135993
247	0xbf165b8b	-0.58733433
248	0xbf26a10a	-0.65089476
249	0x3f0a3561	0.539877
250	0xbf174791	-0.59093577
251	0xbf17871b	-0.5919053
252	0xbf117df1	-0.56832796
253	0xbf0b6413	-0.54449576
254	0x3f2fb28e	0.6863183
255	0x3f2e2bc9	0.6803556
