DIDFuse/saved_models/encoder/VIS_AE19.pth (torch, 460446 bytes, 24 tensors)

module.Conv1.layers.1.weight f4 [64, 1, 3, 3]
000000 26 8b 26 3f 4e 77 8f 3e fd 2e 21 3f 32 1d 14 3f
       0.65056074 0.2802071 0.62962323 0.5785705
000010 f5 6e 29 3f 3b cd bd 3e 15 a9 18 3f 20 b0 5a 3f
       0.6618493 0.3707064 0.59633 0.85424995
000020 5f 37 17 3f d5 fd 3e bf a4 de 25 bf 28 0b 5c bf
       0.59068865 -0.74606067 -0.6479285 -0.85954523
000030 52 2a 4a bf c8 51 aa be f7 1b 95 be c0 2e 9c be
       -0.78970826 -0.3326552 -0.29122898 -0.30504417
000040 e2 f3 9e be a8 90 14 bf 6e 58 23 bf a9 e6 28 bf
       -0.31045443 -0.5803323 -0.6380681 -0.6597696
000050 e2 71 fc be f2 8d 4d bf 76 96 53 3f 5a 8d 66 bf
       -0.49305636 -0.80294716 0.8265146 -0.90059435
000060 5d fc e0 be fe 71 84 3e 22 f2 15 3f de 06 cb bf
       -0.43942538 0.2586822 0.5857259 -1.5861471
000070 0f 23 52 bf 78 98 85 bf 51 5d f9 3d 22 3d ee 3e
       -0.82084745 -1.0437155 0.12176002 0.46531016
000080 98 95 ea bd 98 f6 88 bf 8e ed 37 be 91 f7 2b c0
       -0.11454314 -1.0700254 -0.17961714 -2.6869853
000090 f0 4b 67 bf 22 11 63 bf bb ce 78 bf f9 ba 1d 3d
       -0.90350246 -0.8869802 -0.97190446 0.03850839
0000a0 0d 88 64 3c a8 57 1e be 0f ee 78 3e 0c 13 40 3f
       0.013948453 -0.15463126 0.24309562 0.75029063
0000b0 a1 30 bd 3e 43 94 95 3e 0f 32 25 3f 7d c5 68 3f
       0.36951163 0.29214677 0.6452951 0.90926343
0000c0 ce dc 09 3f 96 50 d4 3e 0f 27 da 3e 06 f4 06 3f
       0.53852546 0.41467732 0.42607924 0.527161
0000d0 ab 09 6d 3f 90 1e 4b 3f b6 9a 38 bf 3d 91 0e bf
       0.9259288 0.7934351 -0.7211107 -0.55690366
0000e0 e4 79 cc be d5 f4 a6 bf b6 50 a4 3f 9f d1 64 bf
       -0.39936745 -1.3043467 1.2837131 -0.89382356
0000f0 e3 27 18 3e 0b be ad 3e 61 6b 4f bf b4 ee 3c bf
       0.14858966 0.33934054 -0.8102322 -0.7380173
000100 6c 70 42 bf 4d 6b 32 bf 36 39 f1 be 80 c8 39 bf
       -0.7595279 -0.6969498 -0.4711396 -0.72571564
000110 f6 4b d8 be 24 50 03 bf 02 e6 8b be a5 99 09 bf
       -0.42245454 -0.5129416 -0.2732392 -0.5375007
000120 e8 7c 93 bf 66 c6 c7 bf a8 e0 b4 bf 38 91 ca be
       -1.1522493 -1.5607421 -1.413106 -0.39563918
000130 2a ac 08 bd 04 61 3b 3e 31 2c 0f bf dc 4c 1a bc
       -0.033367313 0.18298727 -0.55926806 -0.009417739
000140 30 92 f7 3e b6 b3 eb 3e d7 59 99 3e d1 77 3a 3f
       0.4835372 0.46035546 0.29951355 0.72839075
000150 1a 46 48 3f 7f f4 66 3f f6 22 2d 3f 3f 43 50 3f
       0.78231966 0.9021682 0.6763147 0.8135261
000160 da 61 b1 3e e4 80 0a 3f 80 a9 73 bf da 5a 51 3e
       0.34644967 0.5410292 -0.9518051 0.20444813
000170 b2 c5 ac bf 89 db 40 bc 04 8c 18 40 a0 23 55 3f
       -1.3497832 -0.011771091 2.3835459 0.83257484
000180 87 61 d0 bf 0d 1d 6e 3e 98 d3 c2 bf 39 4c 30 bf
       -1.6279763 0.2325327 -1.5220823 -0.68866307
000190 43 17 24 be dc 65 8e 3f 40 f3 58 bf c2 de 91 be
       -0.16024499 1.1124835 -0.8474617 -0.28490263
0001a0 69 c1 14 bf a9 79 27 bf 6d a1 ca be e8 64 39 bf
       -0.5810762 -0.65420014 -0.39576283 -0.72419596
0001b0 4e 57 cf 3e a4 a2 5e 3e da ca ef bd 43 88 66 3f
       0.40496296 0.2174173 -0.11708613 0.9005167
0001c0 06 2a 9d 3f 06 78 aa 3f ee c9 26 3f 42 b0 ae 3e
       1.227845 1.3317878 0.6515187 0.3411885
0001d0 ec 80 15 3f 9d 7c 4d 3f 6a a8 8b 3f bb 25 44 3f
       0.58399844 0.8026827 1.0910771 0.7662007
0001e0 e7 5d fd 3c 93 8c c2 3e c9 60 8e 3d 9c 68 30 be
       0.030928565 0.37997875 0.06952054 -0.17227405
0001f0 41 ec d7 be 3a d0 1c bf 67 48 9b bf 93 10 50 be
       -0.42172435 -0.6125523 -1.213147 -0.20318823
000200 48 0b 81 bf 8d 00 01 3d 91 ce c5 3f ec 86 a1 3e
       -1.0081568 0.031494666 1.5453664 0.3154825
000210 db ab ad bf a6 01 72 3c a0 d9 b6 bf f8 15 86 3f
       -1.3568071 0.014770901 -1.4285164 1.0475454
000220 45 8d bf 3a 79 42 9f 3f 01 7b cf 3d 12 cb cf bf
       0.0014614245 1.2442161 0.10130883 -1.6233847
000230 28 0b bb 3e b9 2c 9c 3f 1a 1e 8e be c7 8a 4e 3f
       0.3653195 1.2201148 -0.2775734 0.8068051
000240 dc fa 98 bf cb 20 1d bf c8 15 15 3e 00 90 87 bf
       -1.1951556 -0.61378163 0.1455909 -1.059082
000250 01 2c 64 3f 5f c8 48 3f 8b de 58 bf 0d 14 6a bf
       0.89129645 0.7843074 -0.84714574 -0.91436845
000260 88 fa 05 be 0a 61 4c bf 70 6b 10 3f af 59 bd 3e
       -0.13083851 -0.7983557 0.56413937 0.36982486
000270 c0 f1 f4 be ea 0c 04 bf a3 86 4e bf 17 17 26 bf
       -0.4784069 -0.51582205 -0.8067419 -0.6487898
000280 e2 c2 28 bf a7 36 50 bf 2f 62 0a bf 2f ea 72 3f
       -0.6592237 -0.8133339 -0.54056066 0.94888586
000290 59 35 4a be 45 dd 8f 3f 9d 1f 47 40 f9 d1 28 3f
       -0.19746913 1.1239401 3.1113045 0.6594539
0002a0 0e 55 52 bf ec 7c 5c 3f b0 a5 82 bf 84 e8 4e c0
       -0.82161033 0.86128116 -1.0206814 -3.2329416
0002b0 c4 f4 42 bf 7f f4 70 bf 31 8a 96 bf 9b 4c 94 3f
       -0.7615473 -0.9412307 -1.1760923 1.1585878
0002c0 9b 0e 86 3e d9 3b 42 bf 8f 7e 4e bf e1 da 02 bf
       0.26183018 -0.7587257 -0.80661863 -0.5111523
0002d0 ca ae 5b be e4 1a 90 be 79 1a ae bf 0e 35 65 3f
       -0.21453395 -0.28145516 -1.3601829 0.8953408
0002e0 52 d1 1d 40 18 ef 57 3f 4f f2 b1 be cf 7f a0 3f
       2.465901 0.84349203 -0.3475518 1.2539004
0002f0 67 44 c6 3d 82 2d 7e 3f 33 0b d5 3f 3c 6c 60 3f
       0.096810155 0.9928819 1.6644043 0.8766515
000300 f3 1b 65 3f cb ea 0f 40 6f 99 ae 3f e6 13 61 bf
       0.8949577 2.2487056 1.3640574 -0.8792099
000310 2a 27 ee bd 85 d7 47 bf 87 ae 64 3f 8e f6 c3 be
       -0.11628564 -0.7806323 0.8932881 -0.38274044
000320 d1 3d 94 3f b3 ea e5 be 04 09 ac bf 9b 04 48 bf
       1.1581365 -0.44905624 -1.3440251 -0.7813203
000330 22 7d 1e 40 b5 e1 2c bf b3 f1 1f 40 eb a1 26 be
       2.4763875 -0.675319 2.4991271 -0.16272704
000340 28 fb b9 3e a6 c6 0a bf f2 51 6d 3f 18 a2 8a 3f
       0.3632443 -0.54209363 0.92703164 1.0830717
000350 ea 26 4e bf 8f 9f ab be a4 21 59 3e d0 27 d2 bf
       -0.8052813 -0.3352017 0.21204239 -1.64184
000360 52 dd b1 3e b1 63 32 3f a7 68 b5 3e 89 bd 5b 3f
       0.34739166 0.69683367 0.35431406 0.8583608
000370 00 62 bb 3e ce 84 fc 3e 49 30 a4 3e ce f6 51 3f
       0.36598206 0.49320072 0.3206809 0.8201722
000380 88 87 5d 3f 1f 05 6f bf 08 03 a0 be a6 c8 28 bf
       0.8653493 -0.9336719 -0.31252313 -0.65931165
000390 6a 4a 35 bf b7 b3 33 bf 9a a9 4b bf 35 15 95 3e
       -0.7081667 -0.701961 -0.79555666 0.29117742
0003a0 8c eb 04 3f 8a c3 d8 3e dc 9f 7a 3e 99 52 97 be
       0.51921916 0.42336684 0.24475044 -0.29555205
0003b0 89 6b 49 3f f1 24 46 bf 5d 6d e5 bf 44 ec 95 bf
       0.7867971 -0.7740012 -1.7924 -1.1712728
0003c0 ba d0 95 3d f3 55 a6 bf b9 49 bb be 17 94 b5 3e
       0.07315202 -1.299498 -0.36579683 0.35464546
0003d0 a2 e9 bf bf 6c 02 81 3f 5d d0 73 bf f8 bf 41 c0
       -1.4993174 1.0078864 -0.9523981 -3.0273418
0003e0 3b be b2 bf 72 c0 d1 3e 48 fd 0b bf 53 40 a8 3e
       -1.3964304 0.40967137 -0.5468335 0.32861575
0003f0 61 20 5e be c2 61 0a be ee 89 1f bf 42 5b 23 40
       -0.21692039 -0.13513854 -0.6231984 2.552445

module.Conv1.layers.1.bias f4 [64]
000000 81 bc ec be 54 15 f2 3e 95 54 10 3f 45 21 ae be
       -0.46237567 0.47281897 0.5637906 -0.34009758
000010 39 ab a1 be b3 ba 33 bf d6 5e 16 be 31 b3 ae 3e
       -0.31575945 -0.70206755 -0.14684615 0.34121087
000020 90 cc fb 3e 59 25 68 be 48 2e c3 3d 06 b8 71 bd
       0.49179506 -0.22670497 0.09530312 -0.05901339
000030 0a a5 d8 3e af 9e 30 3e 2c 11 fb 3e b2 8c 75 be
       0.42313415 0.17248033 0.4903654 -0.23979452
000040 e3 f6 90 3e c2 9c 04 bf 02 65 b5 be cf c5 0a 3f
       0.2831336 -0.51801693 -0.35428625 0.5420808
000050 b7 7e bf be a6 eb 69 3e b3 75 d9 3e 3e d2 4c 3e
       -0.37401363 0.22843799 0.4247261 0.20002076
000060 8a 69 6e 3d 2f 05 7d be b1 e8 f7 3e 24 72 86 3e
       0.05820612 -0.24709009 0.48419717 0.26258957
000070 5e ea 26 bf f4 fc 18 bf 1e f9 c7 be aa a6 67 be
       -0.65201366 -0.59760976 -0.3905725 -0.22622171
000080 60 a1 b2 be 6e 38 3a be 46 27 05 bc 1e 3c 39 3f
       -0.34888744 -0.18185589 -0.008127039 0.72357357
000090 e0 1d 07 be 9a 5b 48 bf 95 ba 94 3e 7d 13 8c be
       -0.1319499 -0.7826477 0.290486 -0.27358618
0000a0 1e f0 b2 bd f5 6e 9d 3e fd 78 1c bf 58 68 d9 3e
       -0.08737205 0.30748716 -0.61122113 0.4246242
0000b0 97 d0 84 3e f9 98 0e be 61 3d 57 be b3 4a 6e 3e
       0.2594039 -0.13925542 -0.21019508 0.23270683
0000c0 ee 8c cf 3d 94 5e 51 3f ae 53 cc bb a0 9c b0 bd
       0.10134302 0.8178494 -0.0062355613 -0.08623624
0000d0 53 93 49 be 5d f3 91 be f8 68 e5 3e 8d fb 36 bf
       -0.19685106 -0.28505984 0.44806647 -0.71477586
0000e0 15 4d 03 be 55 f9 d8 be 6d 10 c8 3d 6e 28 c7 be
       -0.12822373 -0.42377725 0.09768758 -0.38898033
0000f0 0f 46 9a 3e 35 21 f4 3e f3 c9 68 3e 0d 56 25 be
       0.30131575 0.47681585 0.22733288 -0.16146107

module.Conv1.layers.2.weight f4 [64]
000000 6d db f9 3e ec 7f f1 3e c3 8f ee 3e f3 8c bb 3f
       0.4880022 0.4716791 0.46594056 1.4652389
000010 2d 27 2d 3e ab 8b dc 3f dc c5 09 be e7 3b ec 3e
       0.16909476 1.7230123 -0.13454384 0.46139452
000020 d5 6c ca 3f c0 6d 46 3f 7a 04 0c 40 0a 1d c8 3f
       1.5814463 0.77511215 2.1877732 1.5633862
000030 5f 7e ea 3e a6 01 07 3f 4d 3d ea 3f 83 8c 62 3f
       0.45799538 0.5273689 1.8299958 0.88495654
000040 d4 16 f9 3e 3b 8d 09 be 6f 9d 20 40 29 ec 9b 3f
       0.4865023 -0.13432781 2.509609 1.2181445
000050 72 57 7f 40 57 c7 0c 3f 54 15 1f 40 a3 7d d6 3f
       3.9897122 0.5499167 2.4856768 1.6757091
000060 1c b8 ed 3e fa 23 bd 3d 00 f1 0c 40 98 13 ec 3f
       0.46429527 0.092353776 2.2022095 1.844348
000070 09 20 c3 3f d9 4b d3 3f d7 48 b9 3f 5f 09 c2 3e
       1.5244151 1.6507522 1.4475354 0.37897775
000080 c0 ef 07 3f ca 98 dc 3f 69 8d c6 bd 49 ff fb 3e
       0.53100204 1.7234128 -0.096949406 0.49218205
000090 ac b0 fa 3f 9c 01 dd 3f c3 5c 5a 3f 5f d5 9c 3f
       1.9585166 1.7266116 0.85297793 1.2252616
0000a0 4e ef 00 40 4e e6 c8 3f 11 9d e5 3f fa ef 8e 3f
       2.014606 1.5695283 1.7938558 1.1166985
0000b0 81 b4 f6 3f 99 b7 7c 3e 05 73 12 3f 63 d0 ee 3e
       1.9273835 0.24679412 0.57206756 0.4664336
0000c0 d2 96 95 3c 5e 1b b8 3f fa 60 55 3d f1 75 c1 3f
       0.018260393 1.4383352 0.052094437 1.5114118
0000d0 28 13 b6 3f 18 06 e6 3f 88 cd b9 3f 07 da d8 3f
       1.4224596 1.797061 1.4515848 1.6941537
0000e0 e8 ba bf 3f 7d 63 02 3f 84 80 ef 3c 50 54 02 40
       1.4978914 0.5093306 0.029236086 2.036396
0000f0 11 b2 7b 3f 98 aa ab 3f 9b ad bc 3e 0d 4c 37 3f
       0.9831858 1.3411436 0.368512 0.7160042

module.Conv1.layers.2.bias f4 [64]
000000 1b 22 0e bf 60 2e 1a bf 00 cd 23 bf ea c1 db 3e
       -0.5552079 -0.6022701 -0.6398468 0.42921382
000010 0a 70 4d bf 0f 2b 6a 3f 58 4d 58 bf 7b 93 14 bf
       -0.80249083 0.9147195 -0.8449302 -0.5803754
000020 17 f3 00 bf 3b a7 1d c0 bd dd 6d 3f bc 92 4b 3f
       -0.50370926 -2.463332 0.9291647 0.79520774
000030 57 f9 bd bf b8 04 99 bf d1 64 71 3f 3d c0 66 be
       -1.4841717 -1.1954565 0.9429446 -0.2253427
000040 bc e4 a8 bf 12 9c 36 bf b8 d3 19 3f 25 77 2e bf
       -1.3194804 -0.71331894 0.6008868 -0.6815055
000050 dd f1 49 bd fe 00 d0 bf 8f 1b 2d 3f 09 ba bd 3e
       -0.049302924 -1.6250303 0.67620176 0.37055996
000060 19 11 09 bf a3 39 5b bf f5 22 8d 3f 94 56 06 40
       -0.53541714 -0.8563482 1.1026293 2.0990343
000070 0b 66 44 3f 68 5a 21 3f 7e 00 d4 3e 12 af 2f bf
       0.76718205 0.63028574 0.41406626 -0.6862651
000080 73 91 15 bf 54 e8 0a 3f 72 bf 32 bf 1b fb 38 bf
       -0.5842506 0.54260755 -0.6982337 -0.72258157
000090 af 6e 5d 3f ad 50 36 3f d5 b8 36 c0 bf c4 8a 3d
       0.86497015 0.7121685 -2.8550313 0.067758076
0000a0 5f 0b 03 3f 1d 06 2a 3f 24 45 71 3f d2 c2 6f bf
       0.51189226 0.6641558 0.94246125 -0.9365665
0000b0 cb 4f 7a bf b8 4f 33 bf 88 a0 f8 be 70 9f 3d bf
       -0.97778004 -0.70043516 -0.48559976 -0.7407141
0000c0 e0 15 40 bf 64 d8 61 3f fd 1c 64 bf 0b af 06 3f
       -0.7503338 0.8822081 -0.8910673 0.52610844
0000d0 e5 e0 93 be 82 87 c6 be f7 f0 95 3d 14 2a 91 3e
       -0.28882518 -0.3877526 0.07321351 0.28352416
0000e0 41 34 c6 be f9 e0 fc be f7 13 46 bf 45 2e 2c 3f
       -0.38711742 -0.4939039 -0.77374214 0.672581
0000f0 b9 91 8f 3f 04 42 a5 bf f6 b2 90 bf 51 28 77 be
       1.1216346 -1.2910771 -1.1304615 -0.24136473

module.Conv1.layers.2.running_mean f4 [64]
000000 18 5c 30 c0 56 2a 27 40 3b 1d c7 3f 7a 41 2d 40
       -2.755621 2.611959 1.5555795 2.7071214
000010 fe 2f b9 3e 14 fb 46 c0 7c 5c 5f 3f 8d 81 26 40
       0.36169428 -3.1090746 0.87250495 2.6016572
000020 45 88 20 40 da b5 2a c0 42 3f 10 3f 84 0c b2 3f
       2.5083172 -2.6673493 0.56346524 1.391007
000030 8f ec fe bf c0 d7 34 bf 09 51 fa 3f 66 71 c2 bf
       -1.9915942 -0.7064171 1.955598 -1.5190856
000040 8b fe cd 3f 09 70 94 3f 90 72 0d c0 b3 39 62 40
       1.6093305 1.159669 -2.2101173 3.5347717
000050 b7 4c e8 bf e1 fa 22 c0 38 fd 93 bf dc 96 36 3f
       -1.8148412 -2.5465624 -1.1561651 0.71323943
000060 3c 93 0c c0 b7 9c 83 3f 09 25 20 40 fd c1 27 40
       -2.1964865 1.02822 2.5022604 2.621215
000070 81 7c 3c c0 d0 3f b8 3f 5f 07 eb 3f ca 68 09 40
       -2.945099 1.4394474 1.8361624 2.1470208
000080 b8 c4 ec bf 77 e5 11 40 ae bb 95 3f 74 b5 45 40
       -1.8497534 2.2796304 1.16979 3.0892
000090 04 a2 c8 bd 4f 93 1e bd 54 19 91 bf d1 49 0b 40
       -0.09796527 -0.038714703 -1.1335855 2.1763804
0000a0 65 f9 05 40 9f ab 27 40 dd 3e 42 c0 a7 05 84 bf
       2.0933468 2.61985 -3.0350869 -1.0314225
0000b0 e4 3d 0c c0 57 68 83 3f 4a 10 49 c0 53 0b 00 40
       -2.1912775 1.0266217 -3.1416192 2.0006912
0000c0 a3 df d0 3f 77 2a 4f 40 d2 f0 01 40 e6 ae 9b 3f
       1.6318249 3.2369668 2.0303235 1.216275
0000d0 4c 7d 23 40 d6 50 2a c0 1d e3 1e 40 99 0e 48 c0
       2.5545225 -2.6611838 2.482612 -3.125891
0000e0 0e 92 0b c0 9f 44 fc 3f ce 7b 2b 40 94 e1 3e c0
       -2.1807895 1.9708441 2.6794314 -2.9825182
0000f0 52 37 44 bf 68 38 2f 40 a1 f1 de bf 20 04 a0 bf
       -0.7664691 2.7378178 -1.7417489 -1.2501259

module.Conv1.layers.2.running_var f4 [64]
000000 0c 27 58 40 ca d1 3b 40 c7 44 23 3f b8 63 bd 40
       3.3773832 2.9346795 0.6377682 5.9184227
000010 3f 63 a5 3e 50 df 6d 40 5f 5a 2d 3f 3f ea 51 40
       0.3230228 3.716755 0.6771602 3.2799222
000020 e1 26 28 40 5c 0c 75 40 59 54 66 3e 18 5f b0 3f
       2.627373 3.8288794 0.22493114 1.377902
000030 28 fa 70 40 be c6 05 3f 5c d1 ad 3f 8b 96 83 3f
       3.7652683 0.5225638 1.3579516 1.0280317
000040 73 fe 92 3f 42 d2 e9 3f f7 2d 11 40 4a 0a b8 40
       1.1483902 1.826729 2.2684305 5.751256
000050 d1 0c b2 3f f8 d9 a0 40 59 c9 cc 3f b9 1b 3e 3e
       1.3910161 5.0266075 1.5998946 0.18565263
000060 51 eb 50 40 ea 45 88 3f 8f 43 2a 40 85 c7 68 40
       3.2643626 1.0646336 2.6603734 3.6371777
000070 c8 5e 5f 40 89 44 29 40 fb 43 4c 40 9b c5 67 40
       3.49016 2.644808 3.1916492 3.6214359
000080 fb ac b6 3f 6e c0 78 40 e0 7c 66 3f 63 0b 66 40
       1.427154 3.886745 0.90034294 3.594445
000090 d9 e7 6f 3d 57 bd bc 3e 3e d9 a9 3f 05 0c 77 40
       0.058570717 0.36863205 1.3269422 3.8601086
0000a0 02 1b 44 40 75 71 5a 40 01 74 78 40 1a 46 b2 3f
       3.0641484 3.4131749 3.8820803 1.3927643
0000b0 8f 76 77 40 61 43 63 3f 4b 79 b0 40 68 5e 01 40
       3.8666112 0.8877469 5.5148063 2.021387
0000c0 92 cf c1 3f f1 f2 70 40 e9 65 2a 40 a2 7f 8d 3f
       1.514147 3.764828 2.66247 1.1054575
0000d0 0b 15 9c 40 5d ab 68 40 5b 53 2e 40 69 55 6f 40
       4.8775687 3.6354592 2.7238376 3.739588
0000e0 27 b8 2d 40 11 cc 6b 40 59 dd 88 40 55 7c 8b 40
       2.7143648 3.6843302 4.27702 4.3589272
0000f0 1f 3a 41 3f a2 63 50 40 c1 d8 1e 40 67 db 40 3f
       0.7547931 3.256081 2.4819796 0.7533478

module.Conv2.layers.0.weight f4 [64, 64, 3, 3]
000000 cb b7 1b bf 9b c8 19 bf 8c 3f 1b bf d0 dc 22 bf
       -0.6082732 -0.60071725 -0.6064384 -0.63618183
000010 3f 36 1f bf 36 2a 13 bf bf 97 14 bf a7 35 24 bf
       -0.6219215 -0.57486284 -0.58044046 -0.64144367
000020 4c 19 13 bf d2 b7 19 3f 39 a2 17 3f cc 6c 0f 3f
       -0.57460475 0.6004611 0.5923191 0.56025386
000030 6c e5 23 3f d3 5c 20 3f ef cb 18 3f 24 63 16 3f
       0.64021945 0.6264164 0.5968618 0.58745027
000040 72 23 11 3f 95 db 0f 3f ed b7 16 3f bc 6a 1d 3f
       0.5669471 0.5619443 0.588744 0.6149099
000050 c3 1c 24 3f 47 35 13 3f 05 01 1e 3f 5f c1 15 3f
       0.64106387 0.5750317 0.61720306 0.58498186
000060 81 fa 1a 3f 97 e5 18 3f 3e 01 18 3f 72 b9 1d 3f
       0.6053849 0.59725326 0.59376895 0.6161109
000070 82 d2 1b 3f a1 81 1c 3f 5d b6 11 3f 10 aa 1d 3f
       0.60868084 0.611353 0.5691889 0.6158762
000080 2e 7f 1d 3f 0b 89 1c 3f c1 9d 23 3f 2b 93 13 3f
       0.61522186 0.6114661 0.6391259 0.57646435
000090 d6 91 22 bf 2c 25 16 bf 39 e6 0f bf 63 77 1f bf
       -0.6350378 -0.5865047 -0.56210667 -0.62291545
0000a0 0a c7 15 bf ee 64 1b bf 8b 60 20 bf 30 1a 22 bf
       -0.58506835 -0.6070088 -0.6264731 -0.6332121
0000b0 f3 43 18 bf 3b 3c 23 3f a5 42 1c 3f 5d c2 19 3f
       -0.5947868 0.6376378 0.6103919 0.600622
0000c0 4f d7 12 3f d1 54 1c 3f e4 45 1a 3f 79 a1 23 3f
       0.57359785 0.6106692 0.60262895 0.6391826
0000d0 12 47 15 3f e9 02 1a 3f d6 8a 1b bf 27 bb 1c bf
       0.5831157 0.6016069 -0.6075872 -0.6122307
0000e0 e0 bd 11 bf 93 04 19 bf 12 bc 16 bf f2 8b 19 bf
       -0.5693035 -0.59772605 -0.5888072 -0.59979165
0000f0 a6 57 11 bf 91 ba 15 bf 89 df 1d bf 3a a7 23 3f
       -0.56774366 -0.584878 -0.6166921 0.6392704
000100 0c c9 21 3f 62 44 1c 3f 80 71 18 3f 28 dc 11 3f
       0.631974 0.61041844 0.5954819 0.56976557
000110 49 e1 1b 3f 5f c5 14 3f 57 3d 1b 3f 0d 1e 1c 3f
       0.6089063 0.58113664 0.6064047 0.60983354
000120 ec f9 0f bf 6a d2 18 bf a7 d9 1d bf 1a d7 13 bf
       -0.56240726 -0.59696066 -0.61660236 -0.57750094
000130 1d a1 21 bf 7d b1 13 bf 65 dd 22 bf 3b e6 11 bf
       -0.63136464 -0.576927 -0.6361907 -0.5699193
000140 77 c1 16 bf e4 9d 17 3f 89 e7 19 3f 55 0a 1e 3f
       -0.58888954 0.59225297 0.6011892 0.61734515
000150 f1 58 14 3f 8c b1 15 3f 33 c7 12 3f 9a 62 1f 3f
       0.57948214 0.5847404 0.57335204 0.6225983
000160 ac 93 18 3f d6 b0 10 3f b0 98 1f 3f fc 11 11 3f
       0.5960033 0.5651983 0.6234236 0.56668067
000170 7e ea 18 3f cf c1 14 3f aa bf 1b 3f 91 d1 16 3f
       0.59732807 0.5810823 0.6083933 0.5891352
000180 86 94 19 3f c7 dd 13 3f ca 91 21 3f d6 39 12 3f
       0.59992254 0.5776028 0.6311308 0.571195
000190 db 02 18 3f b1 10 23 3f 8b 71 15 3f fb ad 1d 3f
       0.5937936 0.63697344 0.5837638 0.615936
0001a0 04 f1 1b 3f 80 c4 16 3f c5 a5 10 3f 8f d5 0f 3f
       0.60914636 0.58893585 0.56502944 0.5618524
0001b0 e8 ba 20 3f df 19 1b 3f 03 12 24 3f 61 fb 21 3f
       0.62785196 0.6058635 0.64089984 0.632742
0001c0 f6 4f 15 3f 2d 9f 17 3f f0 41 0f 3f 8b 08 11 3f
       0.58325136 0.5922726 0.5595999 0.5665366
0001d0 62 0d 15 3f 1f 4f 0f 3f 22 93 0f 3f e0 fe 20 3f
       0.58223546 0.55980104 0.5608388 0.6288891
0001e0 76 66 22 3f 26 dd 1e 3f 1e ca 1c 3f 4b c7 1f 3f
       0.63437593 0.62056196 0.61245906 0.6241347
0001f0 35 09 13 3f f1 4b 1b 3f df 1f 20 3f a5 3b 12 3f
       0.57435924 0.6066275 0.6254863 0.5712226
000200 7c df 19 3f f8 1c 1a 3f b5 e2 16 3f a4 6e 20 3f
       0.60106635 0.6020045 0.5893968 0.62668824
000210 7a 86 1a 3f a8 5b 1a 3f 19 dc 1d 3f 7b 65 1c bf
       0.60361445 0.60296106 0.6166397 -0.61092347
000220 49 42 1a bf ae d4 0f bf 46 8a 11 bf 62 a0 11 bf
       -0.60257393 -0.561839 -0.56851614 -0.5688535
000230 4f da 13 bf be 78 21 bf 35 80 13 bf 70 ec 13 bf
       -0.5775499 -0.6307486 -0.57617503 -0.5778265
000240 50 d3 18 3f 5c 5b 19 3f d7 16 22 3f b0 86 17 3f
       0.5969744 0.5990503 0.633161 0.5918989
000250 33 e6 19 3f b8 15 1d 3f 6e fc 1c 3f c7 a6 0f 3f
       0.6011688 0.61361265 0.6132268 0.5611386
000260 79 ba 21 3f 77 6d 11 bf b6 c6 18 bf 10 8f 1c bf
       0.6317516 -0.56807655 -0.5967821 -0.61155796
000270 87 20 15 bf 2c c1 14 bf 4f de 17 bf 95 af 17 bf
       -0.5825276 -0.58107257 -0.5932359 -0.5925229
000280 c5 4a 15 bf b3 3b 24 bf 4f c2 13 3f db 4c 1a 3f
       -0.58317214 -0.64153594 0.57718366 0.6027352
000290 5a cd 1e 3f da a5 16 3f 54 56 22 3f 5b c3 24 3f
       0.6203209 0.5884682 0.63412976 0.6436059
0002a0 2c f8 1d 3f ec f6 23 3f 49 7b 0f 3f f6 fa 1a 3f
       0.61706805 0.6404865 0.56047493 0.60539186
0002b0 a6 3d 19 3f db 54 14 3f 39 6b 21 3f 83 48 15 3f
       0.59859693 0.5794198 0.63054234 0.5831377
0002c0 15 81 19 3f 60 0f 23 3f c3 a3 22 3f d3 79 19 3f
       0.5996259 0.63695335 0.6353113 0.59951514
0002d0 94 0b 21 3f 2a 83 21 3f 8e 63 12 3f 0e 27 22 3f
       0.6290829 0.63090765 0.5718316 0.6334084
0002e0 0e 34 1b 3f e5 10 1d 3f 07 b9 20 3f cc 49 15 3f
       0.60626304 0.61353904 0.6278233 0.5831573
0002f0 38 0c 0f 3f 13 0c 1a 3f 48 c4 18 3f 6d bc 14 3f
       0.5587802 0.60174674 0.596745 0.58100015
000300 d3 3c 12 3f 8c 4e 12 3f 1f 9f 16 3f 34 a5 0f 3f
       0.5712406 0.57151103 0.5883655 0.56111455
000310 9c af 14 3f 3c ba 17 3f b7 c8 13 bf 1c e2 10 bf
       0.5808046 0.59268546 -0.5772814 -0.56595016
000320 2e 02 21 bf 46 bc 13 bf 05 3a 18 bf 3e ca 15 bf
       -0.6289395 -0.5770916 -0.5946353 -0.5851172
000330 3c bd 24 bf 12 74 14 bf e3 5b 1d bf 09 c3 20 3f
       -0.6435125 -0.5798961 -0.61468333 0.627976
000340 cb 06 1f 3f f9 9f 1a 3f 99 e4 0e 3f 9f 17 14 3f
       0.6211974 0.6040035 0.5581756 0.5784854
000350 02 b9 15 3f 0c b4 16 3f 82 4c 20 3f c7 6f 16 3f
       0.58485425 0.5886848 0.6261674 0.5876431
000360 8b b5 14 bf d9 96 1e bf 78 9c 22 bf 57 6a 1d bf
       -0.5808951 -0.61948925 -0.6352 -0.61490387
000370 84 ee 1f bf c7 10 13 bf bd c5 13 bf 55 19 11 bf
       -0.6247332 -0.57447475 -0.577236 -0.5667928
000380 46 65 1a bf 5d f7 21 bf 80 ab 22 bf d8 78 1f bf
       -0.6031078 -0.6326807 -0.6354294 -0.6229377
000390 c9 e1 1f bf a4 48 1c bf 7f 9d 1b bf 26 0e 14 bf
       -0.62453896 -0.6104834 -0.60787195 -0.5783409
0003a0 c4 d0 15 bf 13 bd 12 bf cc 17 23 bf a8 a4 10 bf
       -0.58521676 -0.57319754 -0.63708186 -0.56501245
0003b0 52 b0 1f bf ae 5f 10 bf f5 60 15 bf 4b 83 19 bf
       -0.6237842 -0.56395996 -0.5835107 -0.5996596
0003c0 c0 ef 18 bf 22 12 22 bf 91 69 1c bf 9a de 12 bf
       -0.5974083 -0.6330892 -0.6109858 -0.57370913
0003d0 cb 47 1d bf b0 7c 21 bf 11 ba 16 bf a9 9d 1f bf
       -0.6143767 -0.63080883 -0.58877665 -0.62349945
0003e0 2a 69 18 bf 1e a3 11 bf cd 17 18 bf 26 68 1e bf
       -0.5953547 -0.5688952 -0.5941132 -0.6187767
0003f0 33 55 12 3f 66 1a 21 3f 4d 05 1c 3f fb 85 20 3f
       0.57161254 0.62930906 0.6094559 0.6270444

module.Conv2.layers.0.bias f4 [64]
000000 27 53 49 bc 95 a3 35 be ae 45 32 3d 96 36 5b be
       -0.0122878915 -0.17738183 0.043523483 -0.21407542
000010 d9 29 c7 3e 6d da a9 bd b9 18 0b be fc 7c 94 be
       0.38899115 -0.082936145 -0.1358365 -0.29001606
000020 11 83 4d 3d 3d f8 28 3d 65 21 81 3d e7 90 02 bd
       0.050173823 0.041252363 0.063051976 -0.03187647
000030 c2 b1 04 3e df c4 eb bd d1 c1 6d bd e6 b4 8a bc
       0.12958434 -0.115121596 -0.058046166 -0.016931962
000040 af c6 eb bd 39 16 0d 3e 9a a0 1d be f1 35 5d be
       -0.11512505 0.13778009 -0.15393296 -0.21602608
000050 6a 3e 31 be 20 62 9b 3e 71 0c ee bd 49 bf 34 bd
       -0.17308965 0.303483 -0.11623467 -0.044127736
000060 51 05 78 3e 8d cc 0d 3d 84 89 06 3d 58 ab 8d bd
       0.24220778 0.034618903 0.03284599 -0.06917447
000070 f7 1c 6a 3e 70 f2 3c 3e 99 af 87 bd 84 ff f0 bd
       0.22862612 0.18451858 -0.066252895 -0.11767486
000080 f5 87 10 3d 0e 62 6e 3e 00 2d fe 3c 00 26 1a 3c
       0.03528591 0.23279592 0.031027317 0.009408474
000090 43 8d 26 be 4e 5e 08 be 89 dd a9 3d 65 a3 7b 3c
       -0.16264825 -0.13317224 0.082942076 0.0153587805
0000a0 44 83 da 3d 34 c8 c6 bd cf 7e 41 bd a3 cf a0 be
       0.10669568 -0.097061545 -0.047240075 -0.31408414
0000b0 8a a5 66 bc 39 69 b2 bd e1 ed 59 3c 85 50 86 bd
       -0.0140775535 -0.08711476 0.013301344 -0.06558327
0000c0 ad e3 02 3e d5 13 9f 3d 3a 28 81 bc c1 a8 e0 3d
       0.12782164 0.077674545 -0.015766252 0.10969687
0000d0 71 d2 53 3d 0e 08 12 3e f9 2f 90 3d d6 67 89 bd
       0.051714364 0.14260885 0.070404 -0.06709258
0000e0 79 78 01 be e7 95 32 3e f1 48 ba bd db 8c dc 3b
       -0.12643613 0.17439996 -0.09095944 0.0067306585
0000f0 5f 66 10 be ec 67 06 be c8 ab b0 3d 70 1b 1e be
       -0.14101551 -0.1312558 0.08626515 -0.15440154

module.Conv2.layers.1.weight f4 [64]
000000 bf 6f cd 3f 56 5b c8 3e 99 58 d4 3f ef 2b d2 3e
       1.6049727 0.39132184 1.6589538 0.41049144
000010 32 a0 f7 3e 42 3e b9 3f 2a dd 94 3f 2d f1 22 3f
       0.48364407 1.4472125 1.1629994 0.63649255
000020 6d 59 ad bd 5f bd 73 3f 9e a4 91 3f cd 17 6c 3d
       -0.08464322 0.9521083 1.1378362 0.057639886
000030 a7 15 40 3f 27 30 40 3f 76 d1 6a 3f ad d5 cc 3f
       0.7503304 0.75073475 0.9172586 1.6002709
000040 c4 9d d7 3e cf 9b 3f 3f d4 11 e2 3e 05 be eb 3f
       0.42112553 0.7484712 0.44154227 1.8417364
000050 50 d2 f8 3f b8 ea a4 3e bf 4b 4c 3f b7 8a 7e 3f
       1.9439182 0.32210326 0.7980308 0.9943041
000060 09 73 e0 3f 5c 0b 9b 3f 54 09 c4 3f 30 23 4c 3f
       1.7535106 1.2112842 1.5315347 0.7974119
000070 b5 ae 1a 40 90 d8 31 3e e0 c7 b4 3e d3 50 92 3c
       2.4169133 0.17367768 0.35308743 0.017860806
000080 02 34 19 3e f9 e6 19 3e 19 b0 b1 3f ca 46 12 3e
       0.14961246 0.15029515 1.3881866 0.14284816
000090 5c 2a a4 3f 25 0d 13 40 ae 36 ce 3e 3d 8c 23 3f
       1.2825427 2.2976773 0.40276092 0.6388586
0000a0 01 32 24 3f d9 cd be 3f 89 56 42 3f 3a 90 c4 3f
       0.641388 1.490657 0.7591329 1.5356514
0000b0 f3 ef 85 3f 3b 54 a4 be e2 bb 91 3e aa 33 b8 3f
       1.0463852 -0.32095513 0.28463656 1.4390767
0000c0 86 9c c1 bd 9f d3 ad 3f 1d 2c 97 3f 33 52 fe 3f
       -0.094536826 1.3580207 1.1810337 1.9868835
0000d0 4b 19 b2 3f 1b c5 14 40 09 25 0d 40 9e 08 e0 3f
       1.3913969 2.3245304 2.2053854 1.750263
0000e0 90 8a 11 40 19 d2 0d 3f e4 80 82 3d fd 03 d9 3e
       2.2740822 0.5539871 0.0637224 0.42385855
0000f0 fa 1c be 3d c1 6e dd 3f 47 e2 a1 3f 4f a6 5c 3f
       0.092828706 1.7299424 1.2647179 0.86191267

module.Conv2.layers.1.bias f4 [64]
000000 e8 4e 25 bd d7 63 0f bf 9f 89 9c 3f f3 79 00 bf
       -0.040358454 -0.5601172 1.2229499 -0.5018608
000010 e1 3a ed be 5b 12 9c bc 9d 17 16 bf 33 e3 43 bf
       -0.46333984 -0.019051721 -0.5862978 -0.76518553
000020 ca 48 19 bf 25 ce b6 bf d5 f0 b8 bd ea 01 79 bf
       -0.5987669 -1.428166 -0.0903031 -0.97268546
000030 5b dc 21 be e8 52 70 3c d2 84 c3 bf 55 3e 5e be
       -0.15806715 0.014668204 -1.5274909 -0.21703465
000040 02 81 9d be 63 92 89 bf 38 cf 36 bf 0c 60 36 3f
       -0.30762488 -1.0747799 -0.7140994 0.71240306
000050 9e db b4 3c 4c da 93 bf ee 8a 11 3f 5a ed 5c 3f
       0.022077378 -1.1550994 0.56852615 0.8629967
000060 9b 45 2b bf e0 63 dc 3d 95 9c 9d c0 8f 64 27 be
       -0.66903085 0.10761237 -4.925364 -0.16346954
000070 4a 19 18 bf d2 ec 1d bf 68 ed be bf a7 9a d0 bf
       -0.5941359 -0.61689484 -1.4916201 -1.6297196
000080 d3 8b d1 be e9 9e 0b bf ab 58 96 3e 2d 14 df be
       -0.4092699 -0.5453935 0.29364523 -0.4357008
000090 a1 f4 a7 be 9e 19 cd bf 8d 0a f0 be 8d b0 33 bd
       -0.32803825 -1.6023443 -0.4688305 -0.043869544
0000a0 85 51 3d 3e 28 29 f3 3c 4b fe 99 be eb 1e 32 3e
       0.18488128 0.02968271 -0.30076823 0.17394607
0000b0 5f f6 62 3f 2a df 80 bf e6 fe c8 be 54 a6 40 be
       0.8865718 -1.0068104 -0.39256972 -0.18813449
0000c0 74 a7 5f bf e2 be 44 3f f2 65 c9 3e 3e a1 fe 3f
       -0.8736489 0.76853764 0.3933559 1.9892957
0000d0 c3 08 d6 3f f6 2d 28 c0 fc 1d b3 3f 0b a4 b2 bf
       1.6721424 -2.6278052 1.3993526 -1.3956312
0000e0 e0 47 72 c0 ce ab 13 c0 b6 b7 5a bf 0e b4 34 bf
       -3.785637 -2.3073611 -0.8543657 -0.7058724
0000f0 ac 3c d5 be d8 d3 d8 bd fa 2e e8 3d 1e 75 46 3f
       -0.4164785 -0.10587281 0.11337085 0.77522457

module.Conv2.layers.1.running_mean f4 [64]
000000 75 a3 0b 42 bc 7b c8 c1 4f 22 f9 42 6b 95 10 c2
       34.909626 -25.060417 124.56701 -36.145916
000010 26 45 0c c2 f8 83 12 42 39 9c 0f c2 18 e1 0e c2
       -35.067528 36.628876 -35.90256 -35.71982
000020 8c df 83 c2 15 91 be 42 d6 78 84 c2 83 ee 09 42
       -65.936615 95.28336 -66.23601 34.48292
000030 c1 f9 04 c2 5e d3 0c 42 9f 6b 10 42 02 2b 9c 42
       -33.2439 35.206413 36.1051 78.084
000040 6a ca 78 41 96 44 c8 40 a4 4f 2b c1 06 93 bf 42
       15.5494175 6.2583723 -10.7069435 95.787155
000050 2a c8 13 42 57 b4 01 c2 67 b2 c0 c1 c3 33 bf c1
       36.945473 -32.426113 -24.08711 -23.900274
000060 ab 67 21 42 f7 57 0c c2 a9 0c 49 42 87 ea d2 c1
       40.35124 -35.085903 50.262363 -26.364515
000070 e5 fe 0d 42 eb 06 be c2 bd 55 78 42 af 36 d5 42
       35.49892 -95.01351 62.08373 106.606804
000080 cb 7c 33 c2 54 ae 0b c2 aa 51 22 c1 4f f3 5b c2
       -44.87187 -34.920242 -10.1449375 -54.987606
000090 84 b7 b0 42 f2 49 9b 42 94 66 b7 c2 0f 2e d8 42
       88.35843 77.644424 -91.70035 108.08996
0000a0 67 70 e3 42 f9 dc df 42 ca a1 82 42 00 1f d3 42
       113.719536 111.93159 65.315994 105.56055
0000b0 d8 1c 27 c2 d2 db 05 42 7e b9 84 c2 42 1c 84 42
       -41.778168 33.46467 -66.36229 66.05519
0000c0 a0 77 d3 42 87 01 a2 42 2a ea 6d 42 9b 6d 67 c2
       105.73364 81.00298 59.478676 -57.857037
0000d0 6e df b7 c2 a9 21 15 42 97 d3 84 c2 c8 2b df 42
       -91.936386 37.28287 -66.41326 111.58551
0000e0 ff 1a bd 42 ba 00 9c 41 d7 75 23 42 58 0d 6a c2
       94.55273 19.500355 40.865078 -58.51303
0000f0 e4 d9 a4 c2 9d 1c 09 42 1c 91 b9 42 c8 a4 11 c2
       -82.42557 34.277943 92.78342 -36.41092

module.Conv2.layers.1.running_var f4 [64]
000000 38 02 a1 45 ac 35 b0 45 3a ec de 45 19 66 9e 45
       5152.2773 5638.709 7133.5283 5068.762
000010 3d 43 95 45 c7 5c a1 45 0f 95 95 45 0b b1 a1 45
       4776.405 5163.597 4786.6323 5174.1304
000020 e5 11 a5 44 a6 36 26 45 f3 29 4b 45 32 47 97 45
       1320.5592 2659.4155 3250.6218 4840.8994
000030 34 fa 8b 45 50 9b 9f 45 d2 d5 a0 45 3c 2d 3b 45
       4479.2754 5107.414 5146.7275 2994.8271
000040 a4 ff 06 45 c7 12 2d 44 76 1a 22 44 d6 ee 8d 45
       2159.9775 692.2934 648.41345 4541.8545
000050 c0 49 9a 45 74 5d a4 45 e5 5c f2 44 3f 75 32 45
       4937.2188 5259.6816 1938.903 2855.328
000060 fc ca 22 45 c1 31 8b 45 8e 2a 0b 46 57 62 31 45
       2604.6865 4454.219 8906.639 2838.1462
000070 0d 03 9d 45 f1 5d f1 44 bd 3b bd 44 48 55 62 45
       5024.3813 1930.9357 1513.8668 3621.33
000080 61 e1 aa 44 65 ea 97 45 40 3b 2f 45 95 dc b4 44
       1367.0431 4861.2993 2803.7031 1446.8932
000090 a5 9b 64 45 f8 02 eb 44 3b 47 50 45 4d 3c 8d 45
       3657.7278 1880.0928 3332.452 4519.5376
0000a0 71 b9 62 45 47 51 77 45 26 38 ae 45 f5 2e 77 45
       3627.59 3957.0798 5575.0186 3954.9348
0000b0 a7 1b 97 45 5c a6 de 43 43 f0 6f 45 b5 b2 6a 45
       4835.4565 445.29968 3839.0164 3755.1692
0000c0 3b cc 5f 45 f1 e1 2a 45 8c 65 01 45 db 89 98 44
       3580.7644 2734.1213 2070.3467 1220.308
0000d0 43 43 c3 44 92 0d 9d 45 72 79 cd 44 fd e0 78 45
       1562.1019 5025.6963 1643.7952 3982.0618
0000e0 96 c5 54 45 ef 50 95 44 25 ee e5 43 18 b1 c3 45
       3404.349 1194.5292 459.8605 6262.1367
0000f0 a8 d3 07 45 7b 18 9a 45 61 b9 0b 45 44 dc 9e 45
       2173.2285 4931.06 2235.5862 5083.533

module.Conv3.layers.0.weight f4 [64, 64, 3, 3]
000000 d0 34 16 3f b0 b7 23 3f 45 20 12 3f 98 84 11 bf
       0.58674335 0.6395216 0.5708049 -0.56842947
000010 10 c4 12 3f 28 74 1a 3f dc bd 22 bf 58 ce 1d bf
       0.5733042 0.6033349 -0.6357095 -0.6164298
000020 0e 65 1b bf 0d 77 13 bf 7d 9d 17 bf cb de 17 bf
       -0.6070107 -0.5760353 -0.59224683 -0.5932433
000030 e4 dc 0f bf 9b f5 19 bf 54 e2 15 bf f1 d5 16 bf
       -0.5619643 -0.6014039 -0.58548474 -0.589202
000040 15 7f 1d bf 8b 17 19 bf 51 76 1b 3f 19 64 14 3f
       -0.61522037 -0.5980155 0.6072741 0.57965237
000050 56 16 1f 3f 0c e6 19 3f 08 67 23 3f b0 90 25 3f
       0.62143457 0.6011665 0.6382909 0.646739
000060 b6 37 1f 3f 69 79 1e 3f 7d 85 13 3f 9e 89 12 bf
       0.62194383 0.6190401 0.5762556 -0.5724124
000070 df 12 18 bf 41 75 11 bf 12 9f 14 bf 82 ea 1e bf
       -0.59403795 -0.5681954 -0.5805522 -0.6207658
000080 34 e8 0f bf 48 24 1f bf 11 e0 0f bf 52 14 14 bf
       -0.5621369 -0.62164736 -0.56201273 -0.57843506
000090 95 e4 11 bf ae 37 1a bf da d0 12 bf 06 91 12 bf
       -0.56989413 -0.6024121 -0.5734993 -0.5725254
0000a0 3a bf 22 bf ed cc 17 bf 93 87 13 bf 08 24 17 bf
       -0.6357304 -0.59297067 -0.57628745 -0.59039354
0000b0 7f 25 16 bf 50 84 1e bf 51 34 1c bf a0 91 23 bf
       -0.58650964 -0.6192064 -0.6101733 -0.6389408
0000c0 cd 73 18 bf 92 bb 1a bf e3 73 18 bf 3f 7a 18 bf
       -0.595517 -0.6044246 -0.5955183 -0.5956153
0000d0 92 49 1d bf a3 5b 16 bf c6 48 17 3f e8 20 1e 3f
       -0.61440384 -0.58733577 0.5909542 0.6176896
0000e0 4a 5c 03 bf 3f 5f 0d 3f 96 78 22 3f 2a 5c 1b 3f
       -0.51312697 0.5522346 0.6346525 0.60687506
0000f0 c6 74 21 3f d9 67 15 3f 01 97 16 3f 97 4b 1e bf
       0.6306881 0.58361584 0.58824164 -0.6183409
000100 aa e3 1b bf c2 2c 20 bf 14 a7 1a bf 42 56 20 bf
       -0.6089426 -0.62568295 -0.6041119 -0.6263162
000110 79 1f 1e bf b7 c5 1c bf 80 37 21 bf 51 42 24 bf
       -0.61766773 -0.6123919 -0.6297531 -0.6416369
000120 95 a9 1e 3f f4 d0 23 3f f9 c2 20 3f e5 a3 1c 3f
       0.6197751 0.6399071 0.62797505 0.61187583
000130 63 2d 13 3f 72 bc 14 3f 51 79 10 3f c5 18 21 3f
       0.5749113 0.58100045 0.56435114 0.6292842
000140 f1 1d 13 3f da f1 12 bf 61 b3 17 bf e6 74 21 bf
       0.5746756 -0.57400286 -0.59258085 -0.63069
000150 7e 1b 0f bf e0 72 14 bf 00 2c 1c bf f1 4a 1a bf
       -0.55901325 -0.57987785 -0.6100464 -0.602706
000160 77 48 23 bf 25 3e 10 bf bf c6 1f 3f 33 0c 1b 3f
       -0.6378245 -0.56344825 0.6241264 0.6056549
000170 e3 49 23 3f f1 11 17 3f b8 67 1a 3f 00 a2 13 3f
       0.6378462 0.5901175 0.6031451 0.5766907
000180 88 91 26 3f fb 3b 17 3f 86 d6 24 3f 85 fc 17 3f
       0.65065813 0.590759 0.64389837 0.5936969
000190 bd bd 1b 3f 84 bc 1b 3f d2 10 13 3f 1d 21 18 3f
       0.6083639 0.60834527 0.5744754 0.59425527
0001a0 41 0a 1c 3f c4 44 19 3f 78 c8 14 3f cf 2b 10 3f
       0.60953146 0.59870553 0.5811839 0.56316847
0001b0 c6 33 14 3f 6a 6a 21 3f c1 be 24 3f 91 b0 13 3f
       0.578915 0.63053 0.6435357 0.57691294
0001c0 47 51 19 3f 85 3b 22 3f 10 86 12 3f 37 5d 1a 3f
       0.59889644 0.6337207 0.57235813 0.60298485
0001d0 24 f7 11 3f 6b f8 0f bf 4e 64 1b bf bd 9a 1f bf
       0.5701773 -0.5623843 -0.6069993 -0.62345487
0001e0 81 13 11 bf b9 1c 1c bf 46 8b 1f bf 75 36 12 bf
       -0.56670386 -0.6098133 -0.6232189 -0.57114345
0001f0 f5 f0 13 bf 54 76 0f bf 6d 53 12 bf d7 8d 1c bf
       -0.57789546 -0.5603993 -0.5715855 -0.6115393
000200 94 a4 12 bf f7 c8 19 bf ca 85 1e bf 85 05 17 bf
       -0.57282376 -0.60072273 -0.61922896 -0.589928
000210 50 f1 11 bf 4c 16 1c bf d1 f4 15 bf cb 1b 19 bf
       -0.5700884 -0.6097152 -0.58576685 -0.59808034
000220 a6 04 20 bf dc ca 11 bf ae f3 1c bf 1f 11 13 bf
       -0.6250709 -0.56950164 -0.61309326 -0.57448
000230 a8 c5 1a bf bc 05 1b bf 30 42 16 bf 56 ac 1f bf
       -0.6045785 -0.60555625 -0.58694744 -0.6237234
000240 61 b2 20 bf 71 25 15 bf d5 c1 1d bf 4d 80 1f bf
       -0.62772185 -0.58260256 -0.6162389 -0.62305146
000250 d5 00 10 bf 3c a5 11 bf 77 69 1d bf 79 82 10 bf
       -0.5625127 -0.5689275 -0.6148905 -0.56449085
000260 45 79 1a bf 2b c5 17 bf 92 fe 16 bf a3 af 1b bf
       -0.6034129 -0.5928523 -0.58982193 -0.60814875
000270 3c de 13 bf eb 16 18 bf 10 4f 22 bf bd 75 1d bf
       -0.5776098 -0.5940997 -0.6340189 -0.6150778
000280 c5 2c 10 bf b3 d5 20 bf 9f 12 23 3f c0 a6 13 3f
       -0.5631831 -0.6282608 0.6370029 0.57676315
000290 9c db 21 3f 0d d1 0f 3f f0 d1 0f 3f 29 b3 13 3f
       0.6322572 0.5617836 0.56179714 0.5769525
0002a0 4b 15 15 3f 23 88 0f 3f 78 31 1e 3f b5 0a 1f bf
       0.58235615 0.56067103 0.61794233 -0.6212571
0002b0 8a bd 17 bf 83 ff 17 bf f3 a6 0c bf f1 62 0e bf
       -0.5927359 -0.59374255 -0.54942244 -0.5561972
0002c0 52 72 19 bf 7c 2f 0e bf 98 e5 0d bf f9 19 1a bf
       -0.59940064 -0.55541205 -0.5542846 -0.6019588
0002d0 8a e8 24 bf ac a8 11 bf ea 92 1c bf bd 6d 1d bf
       -0.64417326 -0.56898 -0.61161673 -0.6149557
0002e0 fd 32 18 bf 74 30 13 bf d0 7c 15 bf 17 ba 1a bf
       -0.594528 -0.5749581 -0.58393574 -0.604402
0002f0 70 c5 1b bf 39 d6 1d 3f 96 cd 11 3f 28 1e 20 3f
       -0.6084814 0.61655 0.56954324 0.62546015
000300 15 a1 1f 3f 8d fc 13 3f 8c 1c 23 3f 5b df 13 3f
       0.62355167 0.57807237 0.63715434 0.5776269
000310 db 78 10 3f 83 2f 1e 3f a7 de 1f bf ff a6 17 bf
       0.5643441 0.6179125 -0.62449116 -0.5923919
000320 01 31 21 bf f4 77 21 bf 65 e4 22 bf d1 f6 12 bf
       -0.629654 -0.6307366 -0.6362975 -0.5740786
000330 39 1e 1c bf 03 0c 15 bf ca 81 10 bf d2 ba 1b bf
       -0.60983616 -0.58221453 -0.5644804 -0.6083194
000340 e5 4f 14 bf ce 2b 1d bf e5 19 1b bf d4 c2 0e bf
       -0.5793441 -0.61394966 -0.60586387 -0.55766034
000350 06 04 24 bf ae 6a 20 bf 9d 1b 1f bf cc c8 23 bf
       -0.6406864 -0.6266278 -0.6215151 -0.63978267
000360 59 6c 1c bf da c6 11 bf 19 14 24 bf d6 83 10 bf
       -0.61102825 -0.5694405 -0.64093167 -0.56451166
000370 f3 b7 1f bf 95 e6 22 bf 5f c0 18 bf 1f 4f 1b bf
       -0.6239006 -0.6363309 -0.59668535 -0.60667604
000380 05 f0 11 bf b1 a0 1e 3f 32 79 23 3f c3 47 19 3f
       -0.57006866 0.61963946 0.63856804 0.59875125
000390 29 c7 22 3f c5 5c 1d 3f 75 06 16 3f 29 28 13 3f
       0.63585144 0.6146968 0.586036 0.57483155
0003a0 45 5f 14 3f bc 37 1b 3f da 13 1a bf 42 7e 1e bf
       0.5795787 0.6063192 -0.6018654 -0.61911404
0003b0 1e 84 14 bf 22 c0 11 bf 40 8e 17 bf 2a 5c 22 bf
       -0.58014095 -0.56933796 -0.5920143 -0.6342188
0003c0 a2 05 10 bf 1c e9 17 bf 6a 96 1c bf 58 2b 17 3f
       -0.56258595 -0.5934007 -0.61167014 0.5905051
0003d0 5d bd 11 3f ec e1 11 3f b2 bb 17 3f aa 32 10 3f
       0.5692957 0.56985354 0.59270775 0.5632731
0003e0 7c 71 21 3f 68 d6 14 3f cd 5e 19 3f a7 3e 15 3f
       0.6306379 0.5813966 0.5991028 0.58298725
0003f0 8b ad 17 bf 45 d0 12 bf c7 26 10 bf c8 df 16 bf
       -0.5924918 -0.57349044 -0.5630917 -0.58935213

module.Conv3.layers.0.bias f4 [64]
000000 bd 26 cc 3c 83 1d a0 3c 98 f8 f8 bc 38 cb 1e bd
       0.024920816 0.019545322 -0.030391976 -0.038768023
000010 a3 43 58 3d 49 fa a5 3c 6f 19 75 3d 7a 0f 9b bd
       0.05279888 0.020260947 0.05983871 -0.07571311
000020 b1 6a 9a bd 87 47 ab 3d 19 0a 59 bd 3c b8 fd 3c
       -0.07539881 0.08363252 -0.052988146 0.030971639
000030 2b 61 d0 bd 06 df 1d bd 07 d0 e8 3c 93 12 d4 bd
       -0.10174783 -0.03854277 0.028419508 -0.10355105
000040 e1 c7 5a bd 1a 33 da bd 1a 32 2d 3e 4a ea 82 bc
       -0.053413276 -0.10654278 0.16913643 -0.015980858
000050 b2 8a d1 bd 85 bf 6e bc 2f c8 11 3d 88 a8 0d be
       -0.10231532 -0.014572029 0.0355913 -0.13833821
000060 8a a5 d2 3c c3 b7 84 bd 8a 01 1c be f2 f5 11 3d
       0.0257137 -0.06480362 -0.15234962 0.035634942
000070 33 74 07 bd 8b 2d 6e 3d ef 48 26 bd e2 26 95 bd
       -0.0330698 0.058148902 -0.0405969 -0.07282807
000080 1f b2 25 bd 64 6b 30 3d ba 32 a6 3c bf 47 55 bd
       -0.040453073 0.043071166 0.02028786 -0.052070376
000090 a7 b9 a7 3b 00 7b e2 bd f4 83 c1 3d d7 c9 01 3d
       0.005118567 -0.11058617 0.09448996 0.03168663
0000a0 ed f5 1f 3d bf c4 23 3b cf a8 db bb c7 a7 2f ba
       0.039052892 0.0024989096 -0.006703473 -0.0006700721
0000b0 c0 d0 6a 3d a3 57 c9 3b e1 fc 74 3b 3e 98 31 3d
       0.057327986 0.0061444803 0.0037382173 0.04335808
0000c0 cc eb 9e bd 56 2c 86 bd 30 ff 4a 3d 26 62 33 bc
       -0.077598184 -0.06551425 0.049559772 -0.010948693
0000d0 44 ef c6 3d d6 45 8f 3b a0 4a 19 3e 0f 7c 80 bd
       0.09713605 0.0043723388 0.14969873 -0.06273662
0000e0 7d fc a7 bd 60 ff a7 bd 15 24 b6 3d eb ce c3 bd
       -0.08202455 -0.08203006 0.08893601 -0.09560951
0000f0 42 54 a9 bd b0 fe c4 bd d6 d7 39 3d 00 f2 c5 3c
       -0.08268024 -0.0961889 0.045371853 0.024163246

module.Conv3.layers.1.weight f4 [64]
000000 74 45 22 40 02 03 b2 3f 75 02 63 3f 27 69 dc 3f
       2.535489 1.3907168 0.88675624 1.721959
000010 25 97 bb 3f 7b ee ec 3f 8c 36 e7 3f df 6a 02 40
       1.4655501 1.8510278 1.8063521 2.037773
000020 74 e6 f8 3e 28 f9 b1 3f 96 e3 fb 3e d6 34 75 3f
       0.48613322 1.3904161 0.49197072 0.95783746
000030 89 5f 86 3f 58 4b 9a 3f df 5d 79 3f 9b f0 b1 3f
       1.0497905 1.2054243 0.9740886 1.3901552
000040 8c 5b ff 3e 83 48 c1 3f 86 87 0e 40 5d a4 62 3f
       0.49874532 1.5100254 2.2270217 0.8853205
000050 47 5f d6 bf 2d 86 9a 3f 81 6c 8a 3f db 54 d1 be
       -1.6747826 1.2072197 1.0814363 -0.40885052
000060 d2 4e 8d 3f 66 b0 14 40 0c 4b b0 be 1a 3d 1b bf
       1.1039679 2.3232665 -0.34432256 -0.6064011
000070 6c 1b c6 3e 63 0d 74 3f 27 44 c3 3f 01 bf 07 40
       0.38692796 0.95332927 1.5255173 2.121033
000080 89 cc 58 3f 18 af 58 3f 7a 81 c1 3f 2d 3d cb 3e
       0.84687096 0.8464217 1.5117638 0.3969511
000090 d2 46 08 3f ee 79 b0 be 4e 7f 4c 3f 62 6a b9 3e
       0.53233063 -0.34468025 0.7988175 0.36213976
0000a0 9c 21 15 3f 53 ee 9c 3e ea 04 4c 3e 31 29 cd 3f
       0.5825441 0.30650577 0.1992375 1.6028196
0000b0 a8 35 9b bd d0 c3 4e 3f fb 93 8c 3f 01 79 5f 3f
       -0.075785935 0.80767536 1.098266 0.8729401
0000c0 e9 f3 9b 3f 44 6f ad 3f 96 bd 1d 40 08 ee 1e 3f
       1.218381 1.354958 2.4646964 0.62081957
0000d0 66 7d ae 3f bf cb fb 3f 25 0d ca 3f 11 39 9b 3f
       1.3632019 1.9671553 1.5785261 1.212679
0000e0 cb 18 cd 3f 31 7d 91 3f fd b0 bd 3f 70 ac 97 bf
       1.6023191 1.136633 1.4819638 -1.1849499
0000f0 20 90 cd be 1c a3 a7 3f 29 7c 13 3f f5 b1 02 3f
       -0.4014902 1.3096652 0.5761133 0.5105279

module.Conv3.layers.1.bias f4 [64]
000000 78 6e b4 bc 90 8e 24 bf 32 ff cb bf 25 b1 90 be
       -0.022025332 -0.64280033 -1.5937254 -0.2826015
000010 8d 38 d2 be da fb 16 3f 87 05 26 3f 79 14 08 c0
       -0.4105877 0.58978045 0.64852184 -2.1262496
000020 73 c3 dc bf ab c1 ed bc cc f5 54 40 ea db 88 3f
       -1.7247146 -0.029023012 3.3275023 1.0692112
000030 07 24 72 3f 2d a7 0a c0 ac 21 a0 bf 18 e1 10 3d
       0.94586223 -2.1664536 -1.2510276 0.035370916
000040 c4 5d c1 bf da 3b c6 bf e4 87 2c bf 2a d2 47 bf
       -1.510674 -1.5487015 -0.6739485 -0.7805506
000050 87 40 93 be 73 1c 5b bd 32 aa e0 bd e2 be 1e 40
       -0.28760168 -0.05349393 -0.10969962 2.4804006
000060 a2 c2 28 bf 72 2a 81 bf 41 9b f9 bf 32 9f 5d bf
       -0.65921986 -1.0091078 -1.9500505 -0.8657104
000070 3e af 3c c0 c3 01 8c bf f2 e5 ff 3c a4 a8 19 3f
       -2.948196 -1.0938038 0.031237576 0.6002295
000080 cd f1 ba be 52 00 4e 3f 82 f7 28 bf 0b b1 63 40
       -0.36512604 0.8046924 -0.66002667 3.5576808
000090 88 cd ea 3f cb eb 28 c0 bd 77 b8 bf 1a 8f 48 40
       1.8343973 -2.6393917 -1.4411541 3.1337342
0000a0 49 95 e1 3c c4 eb 08 40 33 cd e0 bf 71 00 45 3e
       0.027537005 2.13939 -1.7562622 0.1923845
0000b0 ce f5 18 c0 00 c9 83 3d 0f c9 13 be f5 11 80 be
       -2.3900027 0.06434822 -0.14432167 -0.250137
0000c0 fe 9a b3 3f da b2 1b 3f ba fd 38 bf 24 1c c6 3e
       1.4031675 0.6081978 -0.72262156 0.38693345
0000d0 a3 88 e0 be e2 c5 af be ab db 78 3e d1 6d 9a bf
       -0.43854246 -0.3433066 0.24302547 -1.2064763
0000e0 df 63 38 3e a9 9a 48 bf 61 a3 52 3f 3f b4 ca bf
       0.18006848 -0.7836099 0.82280546 -1.5836257
0000f0 2a a4 e8 3f 88 c8 89 bf 27 ac 4a c0 75 eb cb 3f
       1.8175099 -1.0764322 -3.1667573 1.5931231

module.Conv3.layers.1.running_mean f4 [64]
000000 dd 4c c9 c2 ca ff ae c2 4c 60 e4 42 09 3e ad c2
       -100.65012 -87.49959 114.18808 -86.62116
000010 36 17 02 c3 6d a3 c8 c2 f2 ec d0 42 48 0c 93 42
       -130.09067 -100.31919 104.46278 73.52399
000020 d6 93 ab 42 77 ba 9c c2 87 32 f5 c2 78 24 fe 42
       85.78874 -78.36419 -122.59869 127.07123
000030 54 ab 02 c3 af ab ce c2 57 30 97 42 93 8b da 42
       -130.66925 -103.33532 75.59441 109.272606
000040 f0 10 b3 c2 1b 26 af 42 21 54 8f 42 ec 42 91 c2
       -89.53308 87.574425 71.664314 -72.63071
000050 28 37 d2 42 9c b3 6c c2 ed c4 9a 42 e8 9b 99 c2
       105.10773 -59.1754 77.38462 -76.804504
000060 27 d3 e5 c2 fe 01 4a 42 57 67 cb 42 86 c7 8b 42
       -114.91241 50.501945 101.701836 69.889694
000070 d3 fc 02 43 8b d6 ad 42 5f 31 96 c2 94 30 e2 c2
       130.9876 86.91903 -75.09643 -113.09488
000080 91 c4 45 42 2b eb 89 c2 31 05 0a c3 5a d8 f1 c2
       49.44196 -68.95931 -138.02028 -120.92256
000090 0b f0 0a 42 c2 ff 29 c2 c0 a4 aa c2 bf e8 87 c2
       34.734417 -42.499763 -85.32178 -67.95458
0000a0 0b b3 f3 c2 65 71 a4 c2 56 c5 01 c3 96 12 be c2
       -121.84969 -82.22147 -129.77084 -95.0363
0000b0 8e a3 8f 42 05 f3 21 c3 5a c0 c5 c2 df ae 44 c2
       71.81944 -161.9493 -98.87569 -49.170773
0000c0 c1 15 c3 c2 de ca 51 c2 cb 09 cd 41 81 91 e8 42
       -97.54249 -52.448112 25.629782 116.28419
0000d0 96 ec 9e 42 94 ae 99 c2 5d 6e d4 42 15 e5 f6 c2
       79.46208 -76.84097 106.21555 -123.447426
0000e0 07 a8 af c2 f2 ba d2 42 f7 3a 34 43 4a b0 23 c3
       -87.82818 105.36513 180.23033 -163.68863
0000f0 50 b8 da c2 40 f5 07 c3 89 1c bd 42 ab 53 cc c2
       -109.359985 -135.95801 94.55573 -102.163414

module.Conv3.layers.1.running_var f4 [64]
000000 c3 7b 77 45 fe c5 8b 45 aa 76 9f 45 68 fa 09 45
       3959.735 4472.749 5102.833 2207.6504
000010 60 00 20 45 87 fb 9f 44 60 23 2b 45 63 1b 21 45
       2560.0234 1279.8602 2738.211 2577.7117
000020 e9 e0 b2 44 68 37 1e 45 5d 00 d6 44 dd 09 5e 45
       1431.0284 2531.463 1712.0114 3552.6165
000030 35 ca 04 45 30 0a 30 45 89 e1 fb 44 8f 1e a1 44
       2124.638 2816.6367 2015.048 1288.955
000040 f0 c7 2c 45 22 d8 84 44 c5 f6 49 44 78 6f c6 44
       2764.496 1062.7542 807.8558 1587.4834
000050 ef 25 bc 44 f3 8a aa 44 f2 eb 25 45 82 1c 48 44
       1505.1854 1364.3422 2654.7466 800.44543
000060 c6 ad 31 45 47 4c 4a 45 40 a2 38 45 ff a0 81 45
       2842.8608 3236.7673 2954.1406 4148.1245
000070 70 60 8d 45 a6 aa 42 45 7a f2 ba 44 47 41 85 45
       4524.0547 3114.6655 1495.5774 4264.1597
000080 61 06 19 44 84 54 19 45 9b ed 0b 45 de 96 4e 45
       612.0997 2453.2822 2238.8503 3305.4292
000090 5e 92 f8 45 53 cf b5 45 3d 96 51 45 6f dc 96 45
       7954.296 5817.9155 3353.39 4827.554
0000a0 ee 3b 3c 45 40 89 26 45 72 c2 0d 45 0c fa 0d 45
       3011.7456 2664.5781 2268.1528 2271.628
0000b0 50 31 4a 44 c1 8f 30 46 1a 7d 94 45 a0 7d e8 43
       808.7705 11299.938 4751.6377 464.98145
0000c0 b5 8c ba 44 fb 0a 04 45 43 18 a6 45 90 34 30 45
       1492.3971 2112.6863 5315.0327 2819.2852
0000d0 e3 ab 89 44 dc 42 07 45 b6 97 d3 44 d1 9b df 45
       1101.3715 2164.1787 1692.741 7155.477
0000e0 eb bb 8e 45 41 23 23 45 1a 03 81 46 df 6e 83 45
       4567.4897 2610.2034 16513.55 4205.859
0000f0 75 28 01 46 bb f5 a8 45 a1 50 a1 44 a3 df b4 44
       8266.114 5406.7163 1290.5197 1446.9886
