DIDFuse/saved_models/encoder/VIS_AE1.pth (torch, 460028 bytes, 24 tensors)

module.Conv1.layers.1.weight f4 [64, 1, 3, 3]
0.55009115 0.19001393 0.53066957 0.4859539 0.5776323 0.28039393 0.5004408 0.7629911
0.4955405 -0.65335065 -0.55719304 -0.76767313 -0.6968296 -0.24227057 -0.19815208 -0.21250151
-0.22003607 -0.48355702 -0.53543174 -0.5680572 -0.39201215 -0.6880997 0.79293126 -0.7598879
-0.27835384 0.21885629 0.61990523 -0.62099785 -0.44071674 -0.13792129 0.761751 0.5810186
0.40402296 0.4594386 0.7977568 -0.8199247 -0.73151076 -0.73785836 -0.77671236 0.050996892
0.008204874 -0.10580734 0.22938372 0.699932 0.3223553 0.20227472 0.5484994 0.8186831
0.44447815 0.31225193 0.32997695 0.44014758 0.83138657 0.7041395 -0.51526153 -0.48512822
-0.25281608 -0.932222 -0.8404604 -0.81420374 0.3935747 0.30803725 -0.616884 -0.64487773
-0.6667988 -0.6039888 -0.37778932 -0.63288254 -0.3292479 -0.41937676 -0.18011874 -0.44393507
-0.89522934 -0.88204324 -0.7371268 -0.07093807 0.20816746 0.27014768 -0.3878472 0.09594461
0.37316155 0.36803156 0.18869172 0.6360556 0.6872559 0.77297854 0.5869905 0.7298718
0.25289378 0.46793044 0.014642097 -0.13472585 -0.2507624 0.10108479 0.77606326 0.9175282
0.003172186 0.50309294 0.7484752 -0.5686152 -0.40503934 0.6330916 -0.75939107 -0.28022486
-0.58135617 -0.5240032 -0.30404928 -0.62141126 0.18395065 -0.53759784 -0.35956854 0.79579
0.8818111 0.71111035 0.58334076 0.25773105 0.529875 0.76934797 0.9059072 0.69218034
0.1257819 0.29341474 0.08857153 0.0062628235 -0.3167151 -0.43957183 -0.5702912 -0.14393048
-0.15518132 0.2532716 0.8985116 0.54058105 -0.37853563 0.13181676 -0.5691518 0.5655963
0.45489016 0.9639177 0.08268872 0.030903017 0.45263433 -0.32629794 -0.6477873 -0.07178469
-0.12009689 0.020560028 0.7521768 -0.37370485 0.8409191 0.84080786 -0.2106538 -0.36859894
1.1715205 -0.68822867 0.46629676 0.29976586 -0.39174742 -0.4694154 -0.63061035 -0.5462166
-0.56865823 -0.7014568 -0.4486579 -0.17083734 -0.4840335 0.659347 1.1908426 -0.3056464
0.23030865 0.5846991 -0.54394764 -0.34584972 0.8060765 0.35033798 -0.49376002 1.2104037
0.67064667 -0.39247233 -0.3835828 0.61441153 0.13647404 -0.75542516 -0.63600147 0.44403055
0.79094017 0.5355527 0.16068208 0.8113009 0.5167082 0.6266004 0.6873914 0.41803852
0.45307934 0.79380023 0.62452203 -0.19303474 -0.12646289 -0.41833287 -0.43848222 -0.62919456
-0.16225453 -0.62644064 -0.26578617 -0.69979763 1.0877528 -0.37958896 1.4847658 0.5723033
0.09090964 -0.110566795 1.0282515 0.24094553 -0.53820425 0.5306533 0.8554624 -0.19303943
0.22392355 0.6090995 0.2422859 0.7646673 0.29162005 0.4065855 0.2196302 0.73052865
0.7685226 -0.8171705 -0.20979914 -0.52801675 -0.6627339 -0.7390735 -0.7039227 0.23965855
0.41607383 0.4086366 0.3955495 0.3169931 0.8943822 0.27561158 0.19458745 -0.05271369
-0.09016813 -0.44015145 -0.45761928 0.79764014 -0.3923103 0.99297726 0.103723615 -0.93000776
-0.48754558 0.54505247 0.33354235 0.2591437 -0.4137337 -0.46730804 -0.6003518 0.016659154
00000000: c6d2 0c3f 0393 423e f6d9 073f f3ce f83e
00000010: b6df 133f cb8f 8f3e e31c 003f 6253 433f
00000020: 7cb7 fd3e fd41 27bf 34a4 0ebf 3a86 44bf
00000030: 6d63 32bf c715 78be 61e8 4abe ff99 59be
00000040: 2351 61be c994 f7be 0e12 09bf 326c 11bf
00000050: d1b5 c8be 4d27 30bf 8bfd 4a3f 0388 42bf
00000060: 6584 8ebe dd1b 603e 1cb2 1e3f b7f9 1ebf
00000070: a0a5 e1be 3d3b 0dbe 1d02 433f a3bd 143f
00000080: 19dc ce3e 893b eb3e ca39 4c3f 96e6 51bf
00000090: 4a44 3bbf 49e4 3cbf 9fd6 46bf 1ee2 503d
000000a0: bc6d 063c 85b1 d8bd 91e3 6a3e be2e 333f
000000b0: c10b a53e 1b21 4f3e 756a 0c3f 3795 513f
000000c0: a492 e33e 7cdf 9f3e bdf2 a83e 065b e13e
000000d0: c0d5 543f 7c42 343f 2ee8 03bf ba62 f8be
000000e0: 1c71 81be 1aa6 6ebf 6a28 57bf a86f 50bf
000000f0: a082 c93e 0fb7 9d3e 1cec 1dbf b516 25bf
00000100: 53b3 2abf 039f 1abf 9a6d c1be 9704 22bf
00000110: 2e93 a8be 8db8 d6be 0c71 38be 754b e3be
00000120: c02d 65bf 96cd 61bf 58b4 3cbf fb47 91bd
00000130: da29 553e cc50 8a3e e893 c6be 9c7e c43d
00000140: 080f bf3e a26e bc3e 6738 413e 8ad4 223f
00000150: 01f0 2f3f ece1 453f 0245 163f e1d8 3a3f
00000160: 4b7b 813e 9494 ef3e 68e5 6f3c 93f5 09be
00000170: ee63 80be 8b05 cf3d 15ac 463f 21e3 6a3f
00000180: 73e4 4f3b b3ca 003f 129c 3f3f c490 11bf
00000190: 5161 cfbe 4b12 223f 7467 42bf a279 8fbe
000001a0: c2d3 14bf 1325 06bf 59ac 9bbe cf14 1fbf
000001b0: 8f5d 3c3e 03a0 09bf 5e19 b8be e5b8 4b3f
000001c0: 5fbe 613f 540b 363f d255 153f 53f5 833e
000001d0: e3a5 073f fdf3 443f 89e9 673f bb32 313f
000001e0: f8cc 003e 753a 963e fe64 b53d 5f38 cd3b
000001f0: 7b28 a2be 8f0f e1be 9bfe 11bf 8362 13be
00000200: dae7 1ebe d1ac 813e db04 663f 8563 0a3f
00000210: 6ccf c1be f9fa 063e efb3 11bf ebca 103f
00000220: 5de7 e83e 4fc3 763f b458 a93d 5328 fd3c
00000230: b0bf e73e 8610 a7be 63d5 25bf da03 93bd
00000240: 5cf5 f5bd 816d a83c a98e 403f 3e56 bfbe
00000250: 7946 573f 2f3f 573f a1b5 57be 00b9 bcbe
00000260: 62f4 953f c12f 30bf 73be ee3e e97a 993e
00000270: 1e93 c8be 3757 f0be ae6f 21bf dad4 0bbf
00000280: 9693 11bf ac92 33bf 7db6 e5be fcef 2ebe
00000290: 3dd3 f7be f7ca 283f 886d 983f af7d 9cbe
000002a0: 08d6 6b3e d7ae 153f 2740 0bbf 3713 b1be
000002b0: 085b 4e3f 805f b33e 1dce fcbe 82ee 9a3f
000002c0: 80af 2b3f 22f2 c8be f764 c4be 134a 1d3f
000002d0: dabf 0b3e 8b63 41bf fed0 22bf f957 e33e
000002e0: 0e7b 4a3f fb19 093f d889 243e 6ab1 4f3f
000002f0: fd46 043f e268 203f e2f8 2f3f 2509 d63e
00000300: 04fa e73e 7e36 4b3f ade0 1f3f e6aa 45be
00000310: 7d7f 01be ba2f d6be be80 e0be e512 21bf
00000320: 0d26 26be 6a5e 20bf 2015 88be f025 33bf
00000330: 7c3b 8b3f 7c59 c2be ce0c be3f 7882 123f
00000340: d52e ba3d d870 e2bd bf9d 833f 6dba 763e
00000350: c1c7 09bf e5d8 073f 95ff 5a3f 21ac 45be
00000360: 374c 653e f2ed 1b3f cc19 783e 3cc1 433f
00000370: 394f 953e fa2b d03e bde6 603e ed03 3b3f
00000380: e6bd 443f 1632 51bf 96d5 56be 1b2c 07bf
00000390: eea8 29bf ec33 3dbf 4734 34bf 0d69 753e
000003a0: a107 d53e d138 d13e 7785 ca3e eb4c a23e
000003b0: 3bf6 643f f61c 8d3e ef41 473e 4fea 57bd
000003c0: 12aa b8bd 885b e1be 134d eabe 2532 4c3f
000003d0: e5dc c8be c233 7e3f 0c6d d43d fd14 6ebf
000003e0: 939f f9be 8f88 0b3f 10c6 aa3e 7cae 843e
000003f0: e7d4 d3be 0043 efbe a8b0 19bf c778 883c

module.Conv1.layers.1.bias f4 [64]
-0.39230248 0.4175202 0.5068255 -0.38307747 -0.31202936 -0.6307167 -0.113691114 0.31848004
0.4830246 -0.1537011 0.13840455 -0.016908286 0.35775256 0.11161782 0.46779352 -0.15415208
0.28042457 -0.5000918 -0.3183727 0.5154812 -0.4182967 0.1613485 0.5017183 0.13802835
0.05288376 -0.25384298 0.51188594 0.4988601 -0.6110941 -0.5385807 -0.3221492 -0.20921418
-0.26570562 -0.20178716 -0.02944193 0.6433131 -0.24133211 -0.7193341 0.286938 -0.23616524
-0.21495602 0.2516194 -0.5685103 0.33949614 0.20207983 -0.098226815 -0.12781811 0.19707125
0.07450328 0.7482539 0.011517552 0.01980263 -0.20494536 -0.21760087 0.34804547 -0.6291215
-0.14367394 -0.36511573 0.06889699 -0.46026504 0.21872243 0.46935844 0.14964963 -0.09699916
00000000: dfdb c8be 35c5 d53e 51bf 013f bb22 c4be
00000010: 50c2 9fbe a676 21bf e3d6 e8bd d10f a33e
00000020: 004f f73e d263 1dbe ecb9 0d3e 3f83 8abc
00000030: 582b b73e e297 e43d a282 ef3e 0bda 1dbe
00000040: cf93 8f3e 0406 00bf bf01 a3be 93f6 033f
00000050: fc2a d6be 8b38 253e 9c70 003f 4e57 0d3e
00000060: a49c 583d b5f7 81be f50a 033f 976a ff3e
00000070: aa70 1cbf 6de0 09bf bdf0 a4be 3e3c 56be
00000080: 910a 88be 4ba1 4ebe 3430 f1bc 2bb0 243f
00000090: c41f 77be 4826 38bf 8ae9 923e 4dd5 71be
000000a0: 6e1d 5cbe 42d4 803e e489 11bf 70d2 ad3e
000000b0: 04ee 4e3e 242b c9bd c0e2 02be 0ccd 493e
000000c0: 2d95 983d 918d 3f3f 1db4 3c3c 2039 a23c
000000d0: 32dd 51be c3d2 5ebe 0433 b23e 1b0e 21bf
000000e0: 431f 13be 73f0 babe dd19 8d3d dca7 ebbe
000000f0: c6f8 5f3e c04f f03e c13d 193e 7fa7 c6bd

module.Conv1.layers.2.weight f4 [64]
0.50669056 0.48672786 0.48162 1.5214815 0.50374436 1.5197825 0.5466341 0.488862
1.5022969 0.5424039 1.5292604 1.5030161 0.4954703 0.47121137 1.5246855 0.5175243
0.48814893 0.52468204 1.532571 0.4924358 1.7933002 0.50051504 1.5278436 1.4894644
0.49984515 0.5011586 1.5333742 1.8404359 1.5017503 1.4988225 1.5081971 0.4745658
0.5023168 1.5002904 0.5511933 0.4759942 1.5219386 1.5113887 0.49447355 1.5169877
1.5271546 1.5351186 1.4922402 0.46866843 1.5077026 0.49486735 0.50215876 0.4793538
0.5175585 1.5191265 0.49575728 1.5090837 1.501211 1.5064464 1.5137395 1.5146922
0.47914848 0.46915632 0.5274004 1.502234 0.48309046 1.5147195 0.48855612 0.50475395
00000000: 79b6 013f 6534 f93e e696 f63e e8bf c23f
00000010: 64f5 003f 3c88 c23f 36f0 0b3f 1f4c fa3e
00000020: 444b c03f fbda 0a3f cebe c33f d562 c03f
00000030: 48ae fd3e 9e42 f13e e528 c33f 797c 043f
00000040: a8ee f93e 9051 063f 492b c43f 8c20 fc3e
00000050: dc8a e53f c121 003f 6190 c33f c5a6 be3f
00000060: b4eb ff3e ee4b 003f 9b45 c43f 6793 eb3f
00000070: 5b39 c03f 6ad9 bf3f 9a0c c13f 4afa f23e
00000080: d597 003f 8409 c03f 011b 0d3f 83b5 f33e
00000090: e2ce c23f 2f75 c13f a32b fd3e a72c c23f
000000a0: cd79 c33f c47e c43f ba01 bf3f 4ff5 ef3e
000000b0: 66fc c03f 415f fd3e 7a8d 003f dc6d f53e
000000c0: b77e 043f bd72 c23f e6d3 fd3e a829 c13f
000000d0: af27 c03f 3cd3 c03f 37c2 c13f 6fe1 c13f
000000e0: f352 f53e 4235 f03e b603 073f 3449 c03f
000000f0: a257 f73e 54e2 c13f 0724 fa3e 8e37 013f

module.Conv1.layers.2.bias f4 [64]
-0.4308858 -0.5102273 -0.51316416 0.41935778 -0.51394427 0.51664186 -0.41748202 -0.5111755
-0.7490996 -0.6092824 0.47571045 0.65536845 -0.5829827 -0.58928806 0.5408491 -0.50098616
-0.5993986 -0.5370295 0.46957216 -0.5983687 0.36311316 -0.5932544 0.3880731 0.44599843
-0.45367777 -0.5095363 0.48786053 0.55264413 0.54839 0.4728713 0.42568508 -0.49108446
-0.4643214 0.39909667 -0.5248166 -0.5120065 0.508227 0.49172503 -0.9296135 0.30302513
0.49220076 0.49503157 0.50076985 -0.59231883 -0.6653507 -0.511358 -0.38095206 -0.5035836
-0.50426763 0.5066201 -0.5251044 0.4688003 0.22896257 0.25949734 0.54513973 0.43771297
-0.26763913 0.4144347 -0.53826094 0.46583816 0.45381102 -0.62616414 -0.55187124 -0.43888363
00000000: 109d dcbe 429e 02bf ba5e 03bf 10b6 d63e
00000010: da91 03bf a442 043f 34c0 d5be 66dc 02bf
00000020: fec4 3fbf eef9 1bbf 5290 f33e 3ac6 273f
00000030: 5b3e 15bf 95db 16bf 1675 0a3f a140 00bf
00000040: 3072 19bf c47a 09bf c36b f03e b12e 19bf
00000050: f8e9 b93e 85df 17bf 84b1 c63e e859 e43e
00000060: 7448 e8be f970 02bf dbc8 f93e 167a 0d3f
00000070: 4963 0c3f 301c f23e 65f3 d93e 6c6f fbbe
00000080: 89bb edbe 6656 cc3e 615a 06bf dc12 03bf
00000090: 2a1b 023f 62c3 fb3e 26fb 6dbf 1c26 9b3e
000000a0: bd01 fc3e c774 fd3e 7432 003f 35a2 17bf
000000b0: 6c54 2abf 5ce8 02bf 260c c3be dbea 00bf
000000c0: af17 01bf dbb1 013f 3e6d 06bf 9806 f03e
000000d0: 2a75 6a3e d6dc 843e 478e 0b3f ea1b e03e
000000e0: ff07 89be c930 d43e 78cb 09bf 5782 ee3e
000000f0: eb59 e83e 4b4c 20bf 6f47 0dbf 5bb5 e0be

module.Conv1.layers.2.running_mean f4 [64]
-2.107722 1.9813213 1.0395181 -0.9935871 0.08020609 -2.4450839 1.4979836 2.028434
1.0257312 -2.0179405 -0.9326364 1.3775606 -1.0118548 -0.7565485 0.23887421 -0.3915258
-0.74429995 0.8607015 -0.6482661 -0.39851004 -1.3243116 -1.076286 1.0314533 -0.89863735
-1.6853435 0.8894294 0.05405348 -0.24241826 0.52705795 -1.4310595 1.1328486 1.6712776
-0.57398206 1.7703168 0.9544159 2.4189565 -0.8372773 -1.8516991 -0.3789721 1.7409009
-1.2238178 -0.15228862 -1.2960179 -0.6540118 -1.9035703 0.76539564 -1.9832429 1.5172468
0.18465637 2.5846615 1.7168937 1.145687 1.5845456 -2.0857959 -0.6331355 -2.4615662
-2.0342982 1.5782781 2.1163425 -1.2813029 -0.5443433 -0.07933666 -0.8516839 -1.4933146
00000000: ebe4 06c0 f09b fd3f ee0e 853f b95b 7ebf
00000010: 1743 a43d 417c 1cc0 edbd bf3f ddd1 0140
00000020: 294b 833f f025 01c0 42c1 6ebf e853 b03f
00000030: 7584 81bf 2aad 41bf 719b 743e 1276 c8be
00000040: 718a 3ebf ef56 5c3f c4f4 25bf 8209 ccbe
00000050: 0b83 a9bf bdc3 89bf a906 843f 190d 66bf
00000060: 56b9 d7bf a5b1 633f 2f67 5d3d 7e3c 78be
00000070: 45ed 063f f52c b7bf 2f01 913f 6dec d53f
00000080: 7df0 12bf be99 e23f 9a54 743f 2fd0 1a40
00000090: ce57 56bf 7a04 edbf a208 c2be d7d5 de3f
000000a0: 10a6 9cbf 8cf1 1bbe eae3 a5bf 516d 27bf
000000b0: 31a8 f3bf f8f0 433f e7da fdbf 2535 c23f
000000c0: 8f16 3d3e 186b 2540 2cc3 db3f dfa5 923f
000000d0: 64d2 ca3f ae7d 05c0 2b15 22bf 4d8a 1dc0
000000e0: f131 02c0 0405 ca3f 2872 0740 bc01 a4bf
000000f0: 155a 0bbf 427b a2bd f507 5abf ef24 bfbf

module.Conv1.layers.2.running_var f4 [64]
1.2082373 1.0103555 0.1639642 0.22176969 0.093900345 1.3710434 0.9687211 1.1633186
0.15950179 1.4131413 0.47325602 0.7486481 0.68109983 0.29153457 0.046544813 0.084564134
0.422426 0.6939771 0.09537338 0.3252892 0.37611526 0.5628411 0.185468 0.39454043
1.1385213 0.5290464 0.099735215 0.23254171 0.46002534 0.38938043 0.78309685 1.3277115
0.07796548 1.4525411 0.4129163 1.3133225 0.19825195 0.5853855 0.19922978 1.4502876
0.44849145 0.09892607 0.2820015 0.36217272 1.6403595 0.2924785 1.4028543 0.7263749
0.044912774 1.4111016 1.0923065 0.53735095 1.212823 1.4314069 0.39821908 1.4008846
1.4286506 1.3577703 1.641937 0.31331384 0.25523055 0.13856752 0.35827962 0.8070779
00000000: 85a7 9a3f 5453 813f 3be6 273e 9817 633e
00000010: d34e c03d 5a7e af3f 1bfe 773f a0e7 943f
00000020: 7054 233e d0e1 b43f 9d4e f23e 67a7 3f3f
00000030: 8f5c 2e3f 0544 953e c6a5 3e3d f62f ad3d
00000040: 3848 d83e 7ca8 313f 1e53 c33d 4e8c a63e
00000050: 2e92 c03e 5b16 103f 53eb 3d3e 3401 ca3e
00000060: 11bb 913f 966f 073f fa41 cc3d 6a1f 6e3e
00000070: 7188 eb3e df5c c73e 0979 483f 73f2 a93f
00000080: 5eac 9f3d deec b93f c469 d33e f41a a83f
00000090: 8f02 4b3e d3db 153f e402 4c3e 06a3 b93f
000000a0: aca0 e53e c099 ca3d 8062 903e b46e b93e
000000b0: 4df7 d13f bebf 953e bb90 b33f b5f3 393f
000000c0: 75f6 373d fa9e b43f b3d0 8b3f d58f 093f
000000d0: c93d 9b3f 5738 b73f 5fe3 cb3e 3050 b33f
000000e0: 06de b63f 6bcb ad3f fe2a d23f ac6a a03e
000000f0: 94ad 823e a5e4 0d3e 6d70 b73e a89c 4e3f

module.Conv2.layers.0.weight f4 [64, 64, 3, 3]
-0.5149743 -0.5077934 -0.5135012 -0.5428166 -0.52889055 -0.48176765 -0.48666412 -0.54811096
-0.4812571 0.50733435 0.49921283 0.46716946 0.5471015 0.5333315 0.5037969 0.49436644
0.47389966 0.46891436 0.49556446 0.5217705 0.54799455 0.48188093 0.5241052 0.49195504
0.5123259 0.5042401 0.50079817 0.52330494 0.51591 0.518595 0.47636202 0.5230681
0.52247775 0.51867205 0.54636353 0.48378175 -0.5420025 -0.4934957 -0.46905792 -0.5297868
-0.49195647 -0.51387846 -0.53318876 -0.53994524 -0.50154126 0.54713625 0.51808536 0.50921106
0.4819152 0.5167847 0.51064295 0.54847646 0.49064052 0.5115269 -0.5144626 -0.5191153
-0.4761552 -0.5046146 -0.4957037 -0.50664973 -0.4746096 -0.4917665 -0.5235395 0.5461412
0.53887004 0.517336 0.5023631 0.47668478 0.51584285 0.48805466 0.51336753 0.5168086
-0.4703145 -0.5046245 -0.52398473 -0.48540574 -0.5390464 -0.48437744 -0.5439373 -0.4775302
-0.49638188 0.49838263 0.5071912 0.5234917 0.4852637 0.49032503 0.4790851 0.52835405
0.5013716 0.47061923 0.53178406 0.4736524 0.50570595 0.48613402 0.5117922 0.49581897
0.5044739 0.48003945 0.5375091 0.4777792 0.5006013 0.5439059 0.49039713 0.5227525
0.51611686 0.49538583 0.47176805 0.468799 0.5341844 0.5121166 0.54721314 0.538989
0.4894158 0.49851578 0.46591067 0.47273996 0.48851168 0.46647662 0.4672962 0.5352975
0.5410504 0.5269747 0.51887363 0.5306885 0.48062795 0.51299405 0.5325738 0.47806168
0.50888014 0.5075853 0.49469522 0.53372824 0.50876653 0.5077313 0.5233969 -0.51485336
-0.50700325 -0.46687132 -0.47332513 -0.4742592 -0.4833256 -0.536922 -0.4829148 -0.48438028
0.50327516 0.50551933 0.53989273 0.49805635 0.50755966 0.52033585 0.5193528 0.46751052
0.53848904 -0.47491512 -0.5036702 -0.51843697 -0.48938113 -0.48796517 -0.5001182 -0.4993368
-0.49002224 -0.5483815 0.48778123 0.51049536 0.52787095 0.4967488 0.53903437 0.54914623
0.5253186 0.5452424 0.46630102 0.51218134 0.5056239 0.4868032 0.53698087 0.48990476
0.5068484 0.54334825 0.5420653 0.5067683 0.5396656 0.5385282 0.48046032 0.54188985
0.5113435 0.52021927 0.5396875 0.49123734 0.46791703 0.50840086 0.5032164 0.48747635
0.47790208 0.4779468 0.49490756 0.46765822 0.4870699 0.49916348 -0.48101234 -0.4713886
-0.53406113 -0.4805533 -0.4993219 -0.49013314 -0.5434758 -0.47986254 -0.5150568 0.54205966
0.52982926 0.508895 0.47033536 0.4853152 0.48862362 0.50064665 0.53362477 0.49217415
-0.48734078 -0.52635914 -0.54193586 -0.5214686 -0.53164166 -0.4812301 -0.48349276 -0.47344127
-0.50962085 -0.53958416 -0.5423529 -0.5298423 -0.5314096 -0.5173688 -0.5147447 -0.4851522
-0.49203637 -0.48000687 -0.54177946 -0.469788 -0.52897793 -0.4682508 -0.48765263 -0.50419897
-0.5023355 -0.5375468 -0.51568377 -0.4841083 -0.5235615 -0.54003954 -0.49674222 -0.53031486
-0.5027595 -0.47656852 -0.50046605 -0.52579296 0.481041 0.53656316 0.5157841 0.5361492
00000000: 5bd5 03bf c0fe 01bf d174 03bf 07f6 0abf
00000010: 5f65 07bf 40aa f6be 0a2c f9be 0051 0cbf
00000020: 5567 f6be aae0 013f d398 ff3e d630 ef3e
00000030: d80e 0c3f 6a88 083f d5f8 003f 991d fd3e
00000040: faa2 f23e 8b15 f03e a0ba fd3e c092 053f
00000050: 5f49 0c3f 19b9 f63e c22b 063f 88e1 fb3e
00000060: ca27 033f e115 013f 4f34 003f 50f7 053f
00000070: ae12 043f a4c2 043f b9e5 f33e cae7 053f
00000080: 1ac1 053f b1c7 043f 7bde 0b3f 3eb2 f73e
00000090: adc0 0abf 78ab fcbe 5c28 f0be 1ca0 07bf
000000a0: b8e1 fbbe 8a8d 03bf 0f7f 08bf da39 0abf
000000b0: 0265 00bf 1f11 0c3f 3ea1 043f a85b 023f
000000c0: 97bd f63e 014c 043f 7fb9 023f f468 0c3f
000000d0: 3c35 fb3e 6df3 023f d2b3 03bf bee4 04bf
000000e0: 9dca f3be 6c2e 01bf e0cc fdbe ccb3 01bf
000000f0: 0800 f3be d2c8 fbbe af06 06bf e9cf 0b3f
00000100: 63f3 093f 2270 043f de9a 003f 0710 f43e
00000110: 470e 043f 4de2 f93e 0e6c 033f 924d 043f
00000120: 10cd f0be 122f 01bf dd23 06bf 1a87 f8be
00000130: f2fe 09bf 5200 f8be 7a3f 0bbf d77e f4be
00000140: c425 febe 022c ff3e 48d7 013f 8d03 063f
00000150: 7c74 f83e e20b fb3e a44a f53e 3642 073f
00000160: e459 003f 01f5 f03e 0023 083f 9182 f23e
00000170: f275 013f 8fe6 f83e d004 033f fcdb fd3e
00000180: 3425 013f bbc7 f53e 329a 093f 7a9f f43e
00000190: 6827 003f 6b3d 0b3f 5515 fb3e 1cd3 053f
000001a0: 3c20 043f 36a3 fd3e 958b f13e 6c06 f03e
000001b0: 4fc0 083f 131a 033f 2916 0c3f 2ffb 093f
000001c0: b594 fa3e 763d ff3e d88b ee3e f90a f23e
000001d0: 341e fa3e 06d6 ee3e 7341 ef3e 4209 093f
000001e0: 4782 0a3f d0e7 063f e7d4 043f 34db 073f
000001f0: de14 f63e 9453 033f c256 083f 80c4 f43e
00000200: f845 023f 1cf1 013f b148 fd3e 6aa2 083f
00000210: 863e 023f aefa 013f 57fd 053f 6ecd 03bf
00000220: f7ca 01bf c209 efbe ac57 f2be 1ad2 f2be
00000230: 7476 f7be b873 09bf 9c40 f7be b100 f8be
00000240: a4d6 003f b769 013f 6936 0a3f 3e01 ff3e
00000250: 6eef 013f bb34 053f 4ef4 043f 8a5d ef3e
00000260: 6bda 093f 1328 f3be 88f0 00bf 49b8 04bf
00000270: 2a90 fabe 92d6 f9be bf07 00bf 13a9 ffbe
00000280: 32e4 fabe bb62 0cbf 76be f93e d3af 023f
00000290: 8d22 073f dc55 fe3e 28fe 093f d994 0c3f
000002a0: 487b 063f 0295 0b3f 02bf ee3e 511e 033f
000002b0: 9170 013f 453e f93e 9477 093f ccd4 fa3e
000002c0: d1c0 013f df18 0b3f cbc4 0a3f 91bb 013f
000002d0: 8627 0a3f fcdc 093f e5fe f53e 4bb9 0a3f
000002e0: 68e7 023f 172d 053f f628 0a3f 7683 fb3e
000002f0: d292 ef3e 8f26 023f cad2 003f 8096 f93e
00000300: 95af f43e 71b5 f43e 8664 fd3e e670 ef3e
00000310: 3a61 f93e 5b92 ff3e 4047 f6be d959 f1be
00000320: 3bb8 08bf 150b f6be 1fa7 ffbe bbf2 fabe
00000330: 3b21 0bbf 8bb0 f5be c3da 03bf 6cc4 0a3f
00000340: e4a2 073f f146 023f cccf f03e 3c7b f83e
00000350: e02c fa3e 612a 003f a29b 083f 40fe fb3e
00000360: bb84 f9be 79bf 06bf 4fbc 0abf f77e 05bf
00000370: ab19 08bf cb63 f6be 5d8c f7be e566 f2be
00000380: 8376 02bf 3022 0abf a4d7 0abf bfa3 07bf
00000390: 760a 08bf 4872 04bf 4fc6 03bf df65 f8be
000003a0: 31ec fbbe 76c3 f5be 0fb2 0abf 0e88 f0be
000003b0: 196b 07bf 92be efbe 9bad f9be 2f13 01bf
000003c0: 0f99 00bf ab9c 09bf da03 04bf 0bdd f7be
000003d0: 2008 06bf 0840 0abf ff54 febe b7c2 07bf
000003e0: d9b4 00bf ca00 f4be 8b1e 00bf 5e9a 06bf
000003f0: 024b f63e 345c 093f 6d0a 043f 1341 093f

module.Conv2.layers.0.bias f4 [64]
-0.008932798 -0.1624084 0.03968729 -0.1937041 0.3494929 -0.077482216 -0.12598027 -0.2647341
0.048814997 0.03773611 0.05669085 -0.03230502 0.12041414 -0.10603439 -0.053382482 -0.018569142
-0.11002025 0.12566216 -0.14486998 -0.1940834 -0.16337822 0.27653003 -0.10908958 -0.042386163
0.22221266 0.033869922 0.031638153 -0.06299271 0.20562719 0.17054486 -0.058160566 -0.111879684
0.030521331 0.20806687 0.026517311 0.008464454 -0.1471506 -0.12127519 0.07768598 0.013733951
0.10010992 -0.09162485 -0.045961875 -0.28854898 -0.01051086 -0.080215156 0.010187888 -0.057537124
0.11490747 0.0723653 -0.014105797 0.10478673 0.050412007 0.13411579 0.06521653 -0.063751064
-0.12061048 0.16078542 -0.08641204 0.008331849 -0.13351804 -0.118619576 0.08169827 -0.1447337
00000000: df5a 12bc 634e 26be 248f 223d 5e5a 46be
00000010: bcf0 b23e ffae 9ebd f900 01be 3a8b 87be
00000020: 3cf2 473d 2e91 1a3d aa34 683d 4552 04bd
00000030: b09b f63d 8f28 d9bd 97a7 5abd 501e 98bc
00000040: 4c52 e1bd 95ad 003e cc58 14be ccbd 46be
00000050: 9f4c 27be 5895 8d3e 5c6a dfbd 1d9d 2dbd
00000060: b78b 633e 30bb 0a3d 0297 013d 5202 81bd
00000070: ef8f 523e 50a3 2e3e c639 6ebd 2d21 e5bd
00000080: df07 fa3c 7b0f 553e d53a d93c 7eae 0a3c
00000090: a6ae 16be 205f f8bd d419 9f3d 5e04 613c
000000a0: 6e06 cd3d cfa5 bbbd 8542 3cbd b1bc 93be
000000b0: be35 2cbc d847 a4bd 19eb 263c 0cac 6bbd
000000c0: 9c54 eb3d 4234 943d 001c 67bc 6d9a d63d
000000d0: d27c 4e3d a655 093e 3e90 853d eb8f 82bd
000000e0: a102 f7bd efa4 243e ccf8 b0bd 4f82 083c
000000f0: f4b8 08be d2ee f2bd 6c51 a73d 1235 14be

module.Conv2.layers.1.weight f4 [64]
0.58463943 0.47900534 1.6567818 0.4918893 0.49936694 1.5017518 1.4499998 0.47526202
0.50339943 1.4035232 1.4227884 0.47045314 1.4111178 0.5821186 0.48461056 1.4876652
0.3858907 0.36114374 0.6173475 1.5496489 1.453238 0.59818524 0.5539089 0.43455222
1.4941859 1.4762357 0.6834825 1.434744 1.4960809 0.4915272 1.1080512 0.41770113
0.5127807 0.4882041 1.2630101 0.3129093 1.4892217 1.5794132 0.50486255 0.5359806
0.5574169 1.4973646 0.6299133 1.5018641 0.5510003 0.5341714 0.5091113 1.5126922
0.6229859 1.528281 1.450411 1.4725095 1.5437219 1.5892913 1.5035404 1.3708085
1.7403966 0.455638 0.5531971 0.49878252 0.17183581 1.5068622 1.436551 1.6799237
00000000: eeaa 153f 3040 f53e 6d11 d43f ead8 fb3e
00000010: 06ad ff3e 6739 c03f 9899 b93f 8b55 f33e
00000020: c9de 003f a6a6 b33f ee1d b63f 3cdf f03e
00000030: 829f b43f b905 153f e01e f83e d06b be3f
00000040: 7793 c53e d5e7 b83e 7c0a 1e3f e55a c63f
00000050: b403 ba3f ab22 193f f9cc 0d3f a17d de3e
00000060: 7c41 bf3f 4bf5 bc3f b6f8 2e3f b1a5 b73f
00000070: 947f bf3f 74a9 fb3e 9fd4 8d3f ecdc d53e
00000080: 9945 033f e3f5 f93e 51aa a13f a635 a03e
00000090: d19e be3f 362a ca3f ac3e 013f 0636 093f
000000a0: e0b2 0e3f a5a9 bf3f ff41 213f 153d c03f
000000b0: 5b0e 0d3f 75bf 083f 1e55 023f e69f c13f
000000c0: 017c 1f3f b69e c33f 11a7 b93f 317b bc3f
000000d0: ae98 c53f e66d cb3f 0374 c03f a776 af3f
000000e0: 51c5 de3f 6249 e93e 539e 0d3f 6c60 ff3e
000000f0: baf5 2f3e dce0 c03f e7e0 b73f bd07 d73f

module.Conv2.layers.1.bias f4 [64]
-0.6010013 -0.47076407 0.74259245 -0.44870505 -0.45352402 0.47859478 0.38478714 -0.49641842
-0.49857455 -0.6266993 0.42473754 -0.56173694 0.39854246 -0.5163012 -0.62891763 0.38837895
-0.5150963 -0.6735318 -0.12476135 0.60870683 0.26626202 -0.3611301 -0.19154808 -0.38293463
0.17672795 0.44234726 -1.3626807 0.36574686 -0.67097586 -0.5126361 -0.8050526 -0.6813586
-0.47313598 -0.46388784 0.6706819 0.3426537 0.29209235 0.19298966 -0.4452957 -0.4355271
-0.441649 0.35073176 -0.4661955 0.4241362 -0.10947254 -0.49540135 -0.32936594 0.41728914
-0.3747011 0.569812 0.46521568 0.34623536 0.664188 -0.89630526 0.5824694 -0.7466522
-1.0949523 -0.78294015 -0.4383272 -0.52297366 0.37812638 0.42534 0.38565382 0.6694053
00000000: 39db 19bf fd07 f1be 8a1a 3e3f abbc e5be
00000010: 4d34 e8be 600a f53e d202 c53e 8e2a febe
00000020: 2a45 ffbe 5e6f 20bf 3377 d93e fecd 0fbf
00000030: c20d cc3e 512c 04bf bf00 21bf 9bd9 c63e
00000040: 5add 03bf 946c 2cbf e182 ffbd 36d4 1b3f
00000050: 7f53 883e 0be6 b8be 2e25 44be 0210 c4be
00000060: 2cf8 343e 577b e23e 526c aebf 2c43 bb3e
00000070: 13c5 2bbf 1f3c 03bf ed17 4ebf 846d 2ebf
00000080: e13e f2be b582 edbe cfb1 2b3f 4e70 af3e
00000090: 218d 953e 159f 453e ccfd e3be 68fd debe
000000a0: d11f e2be 1d93 b33e 2db1 eebe 6128 d93e
000000b0: 2433 e0bd 3fa5 fdbe a7a2 a8be eca6 d53e
000000c0: d3d8 bfbe 33df 113f c030 ee3e c345 b13e
000000d0: 3a08 2a3f 4374 65bf b71c 153f 9924 3fbf
000000e0: 6627 8cbf c46e 48bf 6c6c e0be 9ae1 05bf
000000f0: c899 c13e 2ac6 d93e 6b74 c53e 255e 2b3f

module.Conv2.layers.1.running_mean f4 [64]
29.109083 -25.45987 70.37335 -29.604664 -34.793167 12.462756 -30.98577 -27.333147
-54.59126 99.312454 -52.04979 30.677385 -30.19529 29.562315 29.26942 100.76625
19.218151 -26.112656 44.980576 112.02917 29.79257 -29.692093 -19.178255 -5.7253275
29.015331 -31.418127 28.384163 -17.764648 31.599325 -77.251205 51.176495 108.10802
-53.650806 -31.904493 -4.36991 -43.98339 74.61841 75.77368 -94.70313 106.31885
104.34711 116.628365 77.1099 110.8728 -45.59459 26.694048 -54.700893 63.159046
110.296585 70.8474 29.166548 -28.698065 -18.027065 27.097895 -62.982243 115.65097
99.7496 -4.2212367 17.317987 -68.63869 -77.99537 31.48484 84.21561 -29.418467
00000000: 67df e841 d0ad cbc1 28bf 8c42 5ad6 ecc1
00000010: 342c 0bc2 7367 4741 dbe2 f7c1 49aa dac1
00000020: 735d 5ac2 fa9f c642 fc32 50c2 496b f541
00000030: f48f f1c1 9f7f ec41 c627 ea41 5288 c942
00000040: c6be 9941 b8e6 d0c1 1cec 3342 ef0e e042
00000050: 2f57 ee41 6889 edc1 116d 99c1 e235 b7c0
00000060: 661f e841 5358 fbc1 c412 e341 001e 8ec1
00000070: 6bcb fc41 9e80 9ac2 bbb4 4c42 4e37 d842
00000080: 6d9a 56c2 673c ffc1 4dd6 8bc0 feee 2fc2
00000090: a03c 9542 208c 9742 0168 bdc2 40a3 d442
000000a0: b8b1 d042 b941 e942 4538 9a42 e0be dd42
000000b0: dc60 36c2 698d d541 b7cd 5ac2 dda2 7c42
000000c0: da97 dc42 deb1 8d42 1755 e941 a395 e5c1
000000d0: 6e37 90c1 7dc8 d841 d1ed 7bc2 4c4d e742
000000e0: cc7f c742 5f14 87c0 3d8b 8a41 0247 89c2
000000f0: a1fd 9bc2 f4e0 fb41 646e a842 0559 ebc1

module.Conv2.layers.1.running_var f4 [64]
5304.6333 3706.8901 3463.9158 5237.9766 4957.551 693.6892 5035.257 5272.645
1821.8063 8934.23 4396.435 5077.8086 4902.158 5248.0806 5263.738 7206.801
488.48895 342.0034 1012.80334 10502.161 5223.6484 4721.451 2687.0474 1613.9929
4219.2856 4617.6465 980.94977 2699.521 5222.019 3512.6594 2983.339 9432.297
1451.5037 5088.4937 501.66556 1948.8662 7384.1 3777.5364 8724.808 9368.819
8570.79 10630.922 8662.7 10635.611 6051.0054 2171.1804 4958.862 4848.5376
9268.737 3959.1292 1630.58 338.85263 580.04376 5280.7036 2166.0051 10493.251
8998.371 1087.1921 698.76324 7261.3857 6998.697 5038.3193 5168.1963 5248.816
00000000: 11c5 a545 3eae 6745 a77e 5845 d0af a345
00000010: 68ec 9a45 1c6c 2d44 0e5a 9d45 29c5 a445
00000020: cdb9 e344 ec98 0b46 7b63 8945 78ae 9e45
00000030: 4431 9945 a500 a445 e77d a445 6836 e145
00000040: 963e f443 6f00 ab43 6a33 7d44 a518 2446
00000050: 303d a345 9c8b 9345 c2f0 2745 c6bf c944
00000060: 49da 8345 2c4d 9045 c93c 7544 56b8 2845
00000070: 2730 a345 8d8a 5b45 6d75 3a45 3061 1346
00000080: 1e70 b544 f303 9f45 31d5 fa43 b89b f344
00000090: cdc0 e645 9518 6c45 3b53 0846 4763 1246
000000a0: 29eb 0546 b01b 2646 cd5a 0746 722e 2646
000000b0: 0b18 bd45 e3b2 0745 e5f6 9a45 4d84 9745
000000c0: f3d2 1046 1172 7745 8fd2 cb44 236d a943
000000d0: cd02 1144 a105 a545 1560 0745 01f5 2346
000000e0: 7c99 0c46 26e6 8744 d9b0 2e44 16eb e245
000000f0: 93b5 da45 8e72 9d45 9281 a145 8706 a445

module.Conv3.layers.0.weight f4 [64, 64, 3, 3]
0.49230704 0.5439015 0.47098675 -0.46809965 0.5057832 0.5056396 -0.53981435 -0.5191894
-0.5187327 -0.48246425 -0.49878553 -0.49997005 -0.4682812 -0.50778943 -0.4920192 -0.49554205
-0.5216067 -0.504527 0.507332 0.4780441 0.5153459 0.50542235 0.5418839 0.54653126
0.5271825 0.5242833 0.47875136 -0.4788071 -0.5004302 -0.47462064 -0.48678336 -0.5270105
-0.46841532 -0.5277422 -0.46815345 -0.48463792 -0.4762286 -0.5088175 -0.48004332 -0.47872865
-0.5419412 -0.4992894 -0.4824935 -0.49655563 -0.4927427 -0.5256782 -0.51715094 -0.54684114
-0.49948594 -0.508638 -0.5007027 -0.49951187 -0.51833326 -0.49204654 0.4916019 0.5162322
-0.55427754 0.4650937 0.54408336 0.5047231 0.51779187 0.48721027 0.48592925 -0.5247211
-0.51538616 -0.5322701 -0.510299 -0.53254646 -0.5240401 -0.51850784 -0.5358879 -0.5478978
0.5262267 0.5462957 0.53441185 0.51849896 0.48148528 0.48759332 0.471075 0.5359762
0.48136547 -0.48287347 -0.5015669 -0.5396967 -0.46791753 -0.48885983 -0.5190676 -0.51145434
-0.54666275 -0.47232223 0.47824293 0.48443633 0.49976087 0.4704627 0.49278298 0.4659666
0.5170102 0.46797147 0.529184 0.5006517 0.5153606 0.5152678 0.4814482 0.50126714
0.51647085 0.5055357 0.4880647 0.46999446 0.4808831 0.53152925 0.53576195 0.48036844
0.50218564 0.5314778 0.47386673 0.504606 0.4673554 -0.47231612 -0.51715434 -0.5348949
-0.4755665 -0.51836246 -0.53330433 -0.49916273 -0.48958132 -0.47204873 -0.47929528 -0.51923305
-0.48035905 -0.50893414 -0.5275418 -0.4980544 -0.4784959 -0.5183367 -0.4942771 -0.5092206
-0.53661984 -0.48087582 -0.52360016 -0.4853076 -0.51525885 -0.5149174 -0.49651933 -0.53323436
-0.53402084 -0.48894617 -0.5227211 -0.52932185 -0.46880478 -0.4753546 -0.52125293 -0.4708571
-0.50989527 -0.50052947 -0.49750057 -0.5159476 -0.48538694 -0.5018035 -0.5417937 -0.523131
-0.47107562 -0.53615886 0.5462058 0.4863912 0.5416121 0.47121078 0.47171417 0.48672035
0.49142784 0.47022626 0.5274467 -0.5431241 -0.5136357 -0.5147265 -0.47141665 -0.47585166
-0.51890415 -0.5391998 -0.48803446 -0.52644324 -0.54547244 -0.4737384 -0.519258 -0.50788087
-0.4917416 -0.47667077 -0.47562975 -0.49946102 -0.5077732 0.5248247 0.47770098 0.5337221
0.5319803 0.48644805 0.54575807 0.4860302 0.47279423 0.5266967 -0.5320608 -0.49989337
-0.53696215 -0.5385435 -0.5440571 -0.48163086 -0.5176413 -0.48998487 -0.47207394 -0.5171635
-0.48790044 -0.52196205 -0.51492715 -0.4664347 -0.54891753 -0.5355116 -0.53016204 -0.5479526
-0.5178127 -0.47659734 -0.5484445 -0.47000083 -0.5296012 -0.54239273 -0.50126666 -0.51125044
-0.4749449 0.5232376 0.5416755 0.5003914 0.53938717 0.51786584 0.48778245 0.47761366
0.48209047 0.5075642 -0.5100382 -0.52701676 -0.48780954 -0.47787562 -0.5003026 -0.54232365
-0.47136682 -0.501979 -0.5201045 0.4968082 0.474872 0.47275785 0.4995573 0.46979737
0.53456223 0.48735678 0.5047053 0.48588434 -0.5024136 -0.4846771 -0.4777756 -0.49610636
00000000: ab0f fc3e 213d 0b3f 2d25 f13e c2aa efbe
00000010: 027b 013f 9971 013f 4631 0abf 99e9 04bf
00000020: abcb 04bf 8e05 f7be d160 ffbe 13fc ffbe
00000030: 8ec2 efbe 7dfe 01bf f1e9 fbbe b0b7 fdbe
00000040: 0488 05bf ae28 01bf 83e0 013f 32c2 f43e
00000050: b5ed 033f 5c63 013f e7b8 0a3f 79e9 0b3f
00000060: 6ff5 063f 6e37 063f e61e f53e 3426 f5be
00000070: 321c 00bf 7a01 f3be ab3b f9be 29ea 06bf
00000080: 22d4 efbe 1d1a 07bf cfb1 efbe 7622 f8be
00000090: 3cd4 f3be dd41 02bf 3dc8 f5be ec1b f5be
000000a0: a9bc 0abf dca2 ffbe 6309 f7be 8a3c febe
000000b0: c548 fcbe d992 06bf 0164 04bf c8fd 0bbf
000000c0: 9fbc ffbe 1a36 02bf 0d2e 00bf 05c0 ffbe
000000d0: 7db1 04bf 86ed fbbe 3fb3 fb3e cb27 043f
000000e0: 22e5 0dbf c320 ee3e 0c49 0b3f 8835 013f
000000f0: 028e 043f a073 f93e b8cb f83e 1f54 06bf
00000100: 59f0 03bf da42 08bf f5a2 02bf f754 08bf
00000110: 7e27 06bf eebc 04bf f32f 09bf 0843 0cbf
00000120: cbb6 063f 09da 0b3f 37cf 083f 59bc 043f
00000130: 3d85 f63e d5a5 f93e be30 f13e bc35 093f
00000140: 8975 f63e 313b f7be b066 00bf 9029 0abf
00000150: e392 efbe d64b fabe 9de1 04bf acee 02bf
00000160: 17f2 0bbf 38d4 f1be 42dc f43e 0a08 f83e
00000170: a8e0 ff3e 7de0 f03e 0d4e fc3e 2d93 ee3e
00000180: c85a 043f f599 ef3e 9a78 073f b62a 003f
00000190: acee 033f 97e8 033f 6180 f63e 0b53 003f
000001a0: 6f37 043f ca6a 013f 9ee3 f93e 1da3 f03e
000001b0: 4f36 f63e 4d12 083f b227 093f daf2 f53e
000001c0: 3d8f 003f ee0e 083f a99e f23e dc2d 013f
000001d0: 3549 ef3e 6bd3 f1be 3a64 04bf dfee 08bf
000001e0: 747d f3be 67b3 04bf a286 08bf 4292 ffbe
000001f0: 67aa fabe 5fb0 f1be 3166 f5be 75ec 04bf
00000200: 9ff1 f5be 8249 02bf fb0c 07bf fc00 ffbe
00000210: 6afd f4be b7b1 04bf e311 fdbe 485c 02bf
00000220: eb5f 09bf 5b35 f6be a90a 06bf 3d7a f8be
00000230: 01e8 03bf a0d1 03bf c837 febe 0c82 08bf
00000240: 97b5 08bf 2757 fabe 0dd1 05bf a381 07bf
00000250: 2e07 f0be ae61 f3be d570 05bf 2f14 f1be
00000260: 7f88 02bf b322 00bf 65b8 febe 2415 04bf
00000270: a384 f8be 3276 00bf feb2 0abf eaeb 05bf
00000280: d330 f1be b541 09bf 25d4 0b3f 4408 f93e
00000290: 17a7 0a3f 8a42 f13e 8584 f13e 6933 f93e
000002a0: 6e9c fb3e 7fc1 f03e bf06 073f 2e0a 0bbf
000002b0: a17d 03bf 1ec5 03bf 865d f1be d4a2 f3be
000002c0: e7d6 04bf 0009 0abf a7df f9be fcc4 06bf
000002d0: 15a4 0bbf d78d f2be 18ee 04bf 7b04 02bf
000002e0: 8ec5 fbbe 310e f4be be85 f3be 5bb9 ffbe
000002f0: 6dfd 01bf e95a 063f 3995 f43e 03a2 083f
00000300: dc2f 083f b80f f93e cdb6 0b3f f3d8 f83e
00000310: 1612 f23e 98d5 063f 2335 08bf 06f2 ffbe
00000320: 5a76 09bf fddd 09bf 5347 0bbf 5298 f6be
00000330: 2484 04bf 4cdf fabe adb3 f1be d464 04bf
00000340: 16ce f9be 4e9f 05bf 44d2 03bf 87d0 eebe
00000350: dc85 0cbf 4a17 09bf b3b8 07bf 9f46 0cbf
00000360: 608f 04bf 9104 f4be dc66 0cbf f3a3 f0be
00000370: f293 07bf 40da 0abf 0353 00bf 4fe1 02bf
00000380: fa2b f3be e6f2 053f 3fab 0a3f a719 003f
00000390: 4715 0a3f db92 043f 9fbe f93e c789 f43e
000003a0: 90d4 f63e baef 013f dd91 02bf 92ea 06bf
000003b0: 2cc2 f9be 1dac f4be d513 00bf b9d5 0abf
000003c0: fe56 f1be b281 00bf 9225 05bf a55d fe3e
000003d0: 6c22 f33e 510d f23e f9c5 ff3e 4889 f03e
000003e0: 12d9 083f d486 f93e 5e34 013f d5c5 f83e
000003f0: 2d9e 00bf 9927 f8be 019f f4be a701 febe

module.Conv3.layers.0.bias f4 [64]
0.024397084 0.020582657 -0.0271273 -0.03773318 0.04741926 0.017430333 0.054433037 -0.07294053
-0.07309288 0.08006522 -0.0480333 0.028671375 -0.09697559 -0.036593698 0.02707387 -0.0971998
-0.050833076 -0.10020836 0.15505558 -0.016367698 -0.09684732 -0.011277004 0.034684658 -0.12575553
0.024644857 -0.06253109 -0.14232518 0.033629622 -0.031442013 0.055545878 -0.040721215 -0.067128874
-0.037318926 0.040305745 0.016996793 -0.051052786 0.005509379 -0.10607303 0.08712179 0.025136003
0.039380386 0.00066815625 -0.0063844775 -0.0016524894 0.061481036 0.005108485 0.0033333288 0.038553514
-0.07246832 -0.06152741 0.049555186 -0.008301945 0.0914633 0.0033528067 0.14082046 -0.060319148
-0.075777985 -0.07874203 0.08339597 -0.09118608 -0.07619075 -0.0915694 0.044977233 0.023635544
00000000: 65dc c73c f69c a83c 123a debc 1b8e 1abd
00000010: b33a 423d 0fca 8e3c 2df5 5e3d d861 95bd
00000020: b8b1 95bd 3cf9 a33d 91be 44bd 3be0 ea3c
00000030: 239b c6bd 46e3 15bd 05ca dd3c b010 c7bd
00000040: 5836 50bd 0a3a cdbd e4c6 1e3e 8d15 86bc
00000050: e357 c6bd 2fc3 38bc 8011 0e3d 0fc6 00be
00000060: 03e4 c93c 4d10 80bd b1bd 11be 37bf 093d
00000070: 57c9 00bd 1384 633d 4acb 26bd dd7a 89bd
00000080: bbdb 18bd a317 253d dc3c 8b3c ba1c 51bd
00000090: 0588 b43b d13c d9bd e96c b23d 05ea cd3c
000000a0: 544d 213d 3527 2f3a e134 d1bb 5898 d8ba
000000b0: 8ad3 7b3d 1465 a73b fa73 5a3b 4aea 1d3d
000000c0: 456a 94bd 2a04 7cbd 61fa 4a3d e204 08bc
000000d0: 1c51 bb3d c3ba 5b3b 3d33 103e 3611 77bd
000000e0: 7d31 9bbd 8043 a1bd 82cb aa3d c4bf babd
000000f0: e509 9cbd bd88 bbbd 0c3a 383d 549f c13c

module.Conv3.layers.1.weight f4 [64]
1.9063101 0.69026893 1.4734768 0.64650494 0.5583241 0.8602373 0.65099895 1.5123321
0.49082178 1.1632208 0.31809646 0.6584566 1.4900218 0.6599422 1.534417 0.5786334
1.4489372 1.5295185 1.7046609 0.6644384 0.008754971 0.6780483 0.57851213 1.327584
1.4170465 1.5964866 1.369263 0.24634825 0.3987135 0.52299154 0.7154392 1.3091686
1.2483501 0.48077294 0.49259943 0.63536185 1.4934884 0.23067254 0.5147059 0.6235807
0.7850401 0.7200832 0.46298364 1.51033 1.2112638 0.9038111 0.650475 0.58461887
1.5186025 0.4993206 1.2114564 0.7493873 0.7555188 0.7438116 0.5800371 0.7864
1.4658707 1.4686599 1.5776538 0.44900924 1.4240199 1.0753924 0.40835613 0.75947034
00000000: f801 f43f 77b5 303f e39a bc3f 5981 253f
00000010: 54ee 0e3f 8338 5c3f dea7 263f 1994 c13f
00000020: fe4c fb3e 6be4 943f 8add a23e 9d90 283f
00000030: 09b9 be3f f9f1 283f c767 c43f 5221 143f
00000040: c676 b93f 43c7 c33f 5432 da3f a318 2a3f
00000050: 0371 0f3c 9394 2d3f 5f19 143f 46ee a93f
00000060: c861 b53f ac59 cc3f 0344 af3f b742 7c3e
00000070: 2d24 cc3e c6e2 053f 0627 373f d692 a73f
00000080: f0c9 9f3f df27 f63e fe35 fc3e 13a7 223f
00000090: a12a bf3f 6c35 6c3e c4c3 033f fca2 1f3f
000000a0: 63f8 483f 5f57 383f 310c ed3e 7e52 c13f
000000b0: b10a 9b3f 2a60 673f 8885 263f 95a9 153f
000000c0: 9161 c23f f3a6 ff3e 0111 9b3f d9d7 3f3f
000000d0: ae69 413f 706a 3e3f 507d 143f 8351 493f
000000e0: a7a1 bb3f 0cfd bb3f 8ff0 c93f 8ae4 e53e
000000f0: 4946 b63f 75a6 893f 0e14 d13e a66c 423f

module.Conv3.layers.1.bias f4 [64]
0.5098241 0.3808369 -0.4642364 0.42012903 0.4436117 0.37463525 -0.34847483 -0.6106782
-0.658686 0.5640951 1.4096512 -0.17783378 0.43939012 0.45242178 -0.44453374 -0.42474213
-0.8721417 0.036430772 -0.56049806 -0.48191765 -0.7776083 0.0468146 0.3977554 0.5795169
0.5481138 -0.25531727 -0.48220304 -0.53304094 -0.8808428 -0.58594215 0.39123124 0.5106419
0.39674404 0.34863707 0.28111714 0.97990704 0.68224955 -0.83034223 -0.71213156 0.98872757
0.18604277 0.44857022 -0.65318066 0.23218681 -0.10136778 0.48589602 0.64610153 0.20975931
0.51915 0.4471306 -0.5650014 0.21745911 -0.0020081194 -0.21175359 -0.4559461 0.3531037
-0.024920082 -0.50071836 -0.35897976 -0.52323306 0.50482196 0.37217864 -1.0084978 0.73293436
00000000: d583 023f 0efd c23e 65b0 edbe 271b d73e
00000010: 1321 e33e 31d0 bf3e 4b6b b2be 6855 1cbf
00000020: a59f 28bf 8968 103f 736f b43f 0f1a 36be
00000030: bef7 e03e d4a3 e73e ed99 e3be cd77 d9be
00000040: ae44 5fbf 6f38 153d cd7c 0fbf e9bd f6be
00000050: 5611 47bf aac0 3f3d 99a6 cb3e 385b 143f
00000060: 3051 0c3f f2b8 82be 51e3 f6be 5f75 08bf
00000070: ea7e 61bf 4e00 16bf 764f c83e 6db9 023f
00000080: 0922 cb3e 8f80 b23e 96ee 8f3e 30db 7a3f
00000090: e8a7 2e3f 4f91 54bf 414e 36bf 401d 7d3f
000000a0: ff81 3e3e ffaa e53e d936 27bf 61c2 6d3e
000000b0: e999 cfbd 5dc7 f83e e966 253f 25cb 563e
000000c0: 04e7 043f 4dee e43e efa3 10bf 9aad 5e3e
000000d0: a79a 03bb efd5 58be c471 e9be 02ca b43e
000000e0: 3325 ccbc 142f 00bf 32cc b7be 9af2 05bf
000000f0: 033c 013f 338e be3e 7516 81bf 96a1 3b3f

module.Conv3.layers.1.running_mean f4 [64]
-17.219496 -30.931168 24.952885 -21.650892 -26.502695 -14.082156 23.144655 7.469183
11.658442 -12.7433815 -23.787992 48.60601 -27.067991 -17.216951 32.316273 19.575638
-28.670628 9.879009 12.49043 -9.882036 18.487345 -1.938327 26.675352 -6.3924775
-30.757057 10.615006 20.520674 21.115133 41.93655 31.387722 -7.280395 -52.673836
-4.50418 -23.627607 -27.894386 -34.214336 6.4175525 -18.769716 -19.368868 -25.066826
-36.71325 -15.523962 -25.579227 -15.860653 45.783672 -64.90853 -24.260084 -6.40682
-15.357508 -8.401061 8.858806 17.370655 14.0417595 -19.065304 19.737986 -41.794876
-19.933275 19.775211 70.74643 -55.95664 -45.427025 -43.3545 9.519492 -19.764065
00000000: 87c1 89c1 0873 f7c1 829f c741 0735 adc1
00000010: 8505 d4c1 8350 61c1 4128 b941 8c03 ef40
00000020: fa88 3a41 e4e4 4bc1 cf4d bec1 8e6c 4242
00000030: 3f8b d8c1 51bc 89c1 dd43 0142 e89a 9c41
00000040: 725d e5c1 6c10 1e41 cdd8 4741 d21c 1ec1
00000050: 15e6 9341 191b f8bf 1f67 d541 2d8f ccc0
00000060: 740e f6c1 11d7 2941 572a a441 cbeb a841
00000070: 07bf 2742 0e1a fb41 fff8 e8c0 02b2 52c2
00000080: 3e22 90c0 5705 bdc1 b427 dfc1 7bdb 08c2
00000090: 975c cd40 6128 96c1 71f3 9ac1 dc88 c8c1
000000a0: 5eda 12c2 2662 78c1 42a2 ccc1 3cc5 7dc1
000000b0: 7b22 3742 2bd1 81c2 a714 c2c1 ab04 cdc0
000000c0: 5ab8 75c1 bf6a 06c1 abbd 0d41 1af7 8a41
000000d0: 0cab 6041 be85 98c1 65e7 9d41 f42d 27c2
000000e0: 5977 9fc1 a233 9e41 2c7e 8d42 99d3 5fc2
000000f0: 46b5 35c2 026b 2dc2 d74f 1841 ce1c 9ec1

module.Conv3.layers.1.running_var f4 [64]
3583.9797 2867.1616 4003.7295 1775.08 3601.2285 1480.7743 2584.127 3392.8533
2668.9216 3646.2236 3471.2922 2092.513 3555.606 2303.2866 519.03613 2433.5571
2233.5173 2059.93 1979.8176 2016.7048 2169.0286 2375.6306 335.78226 1947.0732
2475.9238 1161.0718 4352.207 123.42236 1517.7672 278.89352 841.3607 3303.2683
681.16296 214.9914 2997.9973 369.04575 238.93669 1046.6973 3286.2764 236.20793
1408.1562 62.159714 3390.9114 4219.7114 1592.111 7085.1772 3349.4888 663.1541
1748.6416 880.51025 277.794 2894.23 2007.2437 2491.8733 2513.2039 5684.7876
121.70314 3793.4128 6005.4805 2283.6362 2193.927 4644.693 2980.693 2377.2703
00000000: adff 5f45 9632 3345 ac3b 7a45 8fe2 dd44
00000010: a813 6145 c718 b944 0882 2145 a70d 5445
00000020: bfce 2645 94e3 6345 adf4 5845 35c8 0245
00000030: b239 5e45 96f4 0f45 50c2 0144 ea18 1845
00000040: 4798 0b45 e1be 0045 2a7a f744 8e16 fc44
00000050: 7590 0745 177a 1445 21e4 a743 5862 f344
00000060: c8be 1a45 4c22 9144 a801 8845 40d8 f642
00000070: 8db8 bd44 5f72 8b43 1657 5244 4b74 4e45
00000080: 6e4a 2a44 ccfd 5643 f55f 3b45 db85 b843
00000090: cbef 6e43 50d6 8244 6c64 4d45 3b35 6c43
000000a0: 0005 b044 8ca3 7842 95ee 5345 b1dd 8345
000000b0: 8d03 c744 6b69 dd45 d257 5145 ddc9 2544
000000c0: 8894 da44 a820 5c44 a2e5 8a43 aee3 3445
000000d0: cce7 fa44 f9bd 1b45 4313 1d45 4da6 b145
000000e0: 0268 f342 9b16 6d45 d8ab bb45 2eba 0e45
000000f0: d51e 0945 8b25 9145 174b 3a45 5394 1445

module.Conv4.layers.0.weight f4 [64, 64, 3, 3]
0.50617653 -0.5593574 0.51121426 0.464298 0.5312912 0.46606088 0.49659273 0.4672504
0.5320422 -0.52971953 -0.493602 -0.5174531 -0.46725047 -0.47248825 -0.53298736 -0.50619596
-0.5120287 -0.499991 0.49186265 0.4729263 0.5144286 0.53154564 0.4877625 0.46682274
0.53201765 0.513044 0.49671435 -0.4841493 -0.48072198 -0.531604 -0.49139804 -0.5027922
-0.5219207 -0.4841195 -0.5233464 -0.48290417 -0.48835257 -0.5314839 -0.48722368 -0.53804594
-0.49081868 -0.51936966 -0.5184481 -0.54434055 -0.48120046 -0.50619364 -0.5183376 -0.501108
-0.53742874 -0.46313062 -0.4625731 -0.46983236 -0.52441186 -0.50939566 -0.45637944 -0.4752109
-0.47946572 -0.49028417 -0.48369026 -0.49090096 -0.5114525 -0.49262226 -0.4724004 -0.52683663
-0.53775907 -0.5359099 -0.5394214 -0.48041743 -0.48157862 -0.48509318 -0.53732425 -0.5294599
0.5312519 0.5471399 0.48057753 0.4671049 0.5055299 0.4662803 0.5489641 0.5407907
0.46144894 -0.4797871 -0.5007861 -0.54925287 -0.5107143 -0.48155263 -0.4941323 -0.49518892
-0.47727373 -0.4792935 -0.519902 0.48555285 0.54697186 0.5131165 0.53588396 0.5116763
0.52027154 0.46431667 0.50769037 0.53289336 0.466597 0.51702464 0.5243694 0.5063546
0.5349324 0.54640985 0.47273955 0.46809554 0.54119974 0.5489739 -0.5248831 0.5028228
0.41168523 -0.53373235 0.4836958 0.50138277 -0.502039 0.5378589 -0.52975947 -0.5044564
-0.56849396 -0.51763785 -0.54896635 -0.50044507 -0.5000037 -0.48265767 -0.5113097 -0.53554946
-0.4770459 -0.50531954 -0.5332876 -0.48399878 -0.5117193 -0.5204958 -0.5154314 -0.50094587
-0.47729772 -0.50991446 -0.4728339 -0.5440792 -0.48171175 -0.5404917 -0.52577835 -0.5138732
-0.46850008 -0.46623993 -0.47518674 -0.5045799 -0.5250742 -0.4836321 -0.5269108 -0.5334148
-0.50839776 -0.47973198 -0.48725632 -0.5327746 -0.48678133 -0.50439477 -0.49815747 -0.48158196
-0.4937159 -0.5219256 0.5084108 -0.5323179 -0.51145124 0.54413646 0.51817465 -0.46197447
0.49927709 0.543098 0.5271318 -0.49216136 -0.4931343 -0.53977454 0.45099425 -0.48565876
-0.48955446 -0.48884273 -0.46562678 -0.54241323 -0.47816348 -0.4804412 -0.47907415 -0.5253554
-0.48575395 -0.5136148 -0.48877564 -0.513303 -0.47359282 0.49191028 0.5239296 0.47084892
0.4715441 0.48886555 0.5239085 0.49814332 0.48066667 0.48741534 -0.49793303 -0.5319029
-0.51030934 -0.54789966 -0.49218795 -0.5312475 -0.5360768 -0.5136071 -0.5228269 -0.5221231
-0.53217137 -0.4739603 -0.4701885 -0.5272631 -0.5328951 -0.5325164 -0.5334854 -0.47884598
-0.52167803 -0.5182834 -0.49822867 -0.47173333 -0.54601794 -0.46982643 -0.49483797 -0.5285416
-0.49613258 0.5191536 0.5341026 0.53642416 0.50978017 0.505962 0.5235209 0.48219
0.48728484 0.4678823 -0.46934837 -0.5403355 -0.52982795 -0.48671734 -0.5371018 -0.5101441
-0.54363376 -0.4766202 -0.5096601 0.5498264 -0.53507686 -0.46846437 0.48638797 -0.486811
-0.54767394 0.47842723 -0.49101925 -0.47906598 -0.5037648 -0.5416379 0.5107161 0.5044623
00000000: c994 013f 0c32 0fbf f0de 023f 78b8 ed3e
00000010: b302 083f 889f ee3e 6741 fe3e 723b ef3e
00000020: eb33 083f b39b 07bf 67b9 fcbe ce77 04bf
00000030: 743b efbe fbe9 f1be dc71 08bf 0f96 01bf
00000040: 5014 03bf d2fe ffbe 6cd5 fb3e 6523 f23e
00000050: 98b1 033f 6013 083f 02bc f93e 6403 ef3e
00000060: 4f32 083f da56 033f 5851 fe3e 6be2 f7be
00000070: 3121 f6be 3317 08bf 8698 fbbe fdb6 00bf
00000080: 989c 05bf 83de f7be 08fa 05bf 373f f7be
00000090: 5909 fabe 540f 08bf 6275 f9be 61bd 09bf
000000a0: 964c fbbe 69f5 04bf 04b9 04bf e759 0bbf
000000b0: e85f f6be e895 01bf c6b1 04bf 9d48 00bf
000000c0: ee94 09bf 751f edbe 62d6 ecbe de8d f0be
000000d0: db3f 06bf c167 02bf 91aa e9be d84e f3be
000000e0: 887c f5be 8706 fbbe 40a6 f7be 5f57 fbbe
000000f0: 8dee 02bf fc38 fcbe 77de f1be c4de 06bf
00000100: 94aa 09bf 6431 09bf 8517 0abf 46f9 f5be
00000110: 7991 f6be 225e f8be 158e 09bf af8a 07bf
00000120: 2000 083f 5c11 0c3f 420e f63e 6028 ef3e
00000130: 686a 013f 4bbc ee3e e988 0c3f 4271 0a3f
00000140: 0943 ec3e a8a6 f5be 8533 00bf d69b 0cbf
00000150: 2cbe 02bf 118e f6be e9fe fcbe 6789 fdbe
00000160: 395d f4be f565 f5be 4c18 05bf 629a f83e
00000170: 5906 0c3f 9a5b 033f b12f 093f 38fd 023f
00000180: 8430 053f eaba ed3e fff7 013f b36b 083f
00000190: cde5 ee3e ba5b 043f 133d 063f 74a0 013f
000001a0: 54f1 083f 84e1 0b3f eb0a f23e 38aa ef3e
000001b0: 118c 0a3f 8e89 0c3f bd5e 06bf ffb8 003f
000001c0: 68c8 d23e afa2 08bf faa6 f73e 9f5a 003f
000001d0: a185 00bf 1fb1 093f 519e 07bf 0e24 01bf
000001e0: d288 11bf ea83 04bf 0f89 0cbf 2b1d 00bf
000001f0: 3e00 00bf e81e f7be 31e5 02bf c519 09bf
00000200: 5c3f f4be 9f5c 01bf 8985 08bf b0ce f7be
00000210: 0900 03bf 363f 05bf 50f3 03bf fd3d 00bf
00000220: 5e60 f4be c189 02bf 4917 f2be c648 0bbf
00000230: eca2 f6be aa5d 0abf 6999 06bf 328d 03bf
00000240: 3edf efbe 00b7 eebe ad4b f3be 262c 01bf
00000250: 436b 06bf a09e f7be a0e3 06bf df8d 08bf
00000260: 5b26 02bf 6e9f f5be a979 f9be eb63 08bf
00000270: 673b f9be 0420 01bf 7f0e ffbe e991 f6be
00000280: 55c8 fcbe eb9c 05bf 3627 023f fc45 08bf
00000290: 78ee 02bf 874c 0b3f 18a7 043f eb87 ecbe
000002a0: 3fa1 ff3e 7808 0b3f 1cf2 063f 93fc fbbe
000002b0: 197c fcbe aa2e 0abf b8e8 e63e 44a8 f8be
000002c0: e2a6 fabe 9849 fabe a266 eebe 98db 0abf
000002d0: d8d1 f4be 64fc f5be 3549 f5be b17d 06bf
000002e0: beb4 f8be 427c 03bf cd40 fabe d367 03bf
000002f0: c27a f2be aadb fb3e 4020 063f 1c13 f13e
00000300: 3a6e f13e 964c fa3e de1e 063f a40c ff3e
00000310: f119 f63e 818e f93e 14f1 febe ca2a 08bf
00000320: a2a3 02bf 2743 0cbf 0f00 fcbe d6ff 07bf
00000330: 543c 09bf c17b 03bf fcd7 05bf dca9 05bf
00000340: 623c 08bf edaa f2be 8cbc f0be b7fa 06bf
00000350: d06b 08bf ff52 08bf 8092 08bf 4d2b f5be
00000360: b18c 05bf 39ae 04bf d417 ffbe 0887 f1be
00000370: d5c7 0bbf 178d f0be 675b fdbe 814e 07bf
00000380: 1705 febe 40e7 043f f3ba 083f 1853 093f
00000390: f480 023f ba86 013f 7705 063f 9ce1 f63e
000003a0: 667d f93e 458e ef3e 6e4e f0be 6d53 0abf
000003b0: cea2 07bf 0433 f9be 817f 09bf ce98 02bf
000003c0: 952b 0bbf 9007 f4be 1679 02bf 6cc1 0c3f
000003d0: ccfa 08bf 90da efbe d807 f93e 4b3f f9be
000003e0: 5c34 0cbf 6af4 f43e e066 fbbe 2348 f5be
000003f0: bbf6 00bf c8a8 0abf 4abe 023f 7124 013f

module.Conv4.layers.0.bias f4 [64]
-0.1451473 -0.026618836 -0.09057746 -0.021196019 -0.0074173156 -0.008788704 -0.024235832 0.15371116
0.1294339 -0.0010521184 0.050518803 0.13027297 -0.041865326 -0.09232397 -0.054980688 -0.032864254
-0.063570715 0.06970884 -0.038879022 -0.0662264 0.041396994 -0.058089055 -0.089784704 -0.087265454
0.07065166 -0.13282833 0.034332246 0.019610753 0.08213293 0.13821223 0.018313354 0.12916037
0.04421033 -0.017274458 -0.081048615 0.022867668 -0.08195512 0.058166657 -0.08761904 -0.054522738
-0.024144225 -0.04084036 0.061082806 0.05637588 0.053221073 0.059202634 -0.005243637 -0.0018313897
-0.052144356 0.06953103 -0.08566168 0.08643131 0.0077898437 -0.047392175 0.078514025 -0.09792978
0.039665356 -0.062316287 0.103356116 0.008814858 0.025048535 -0.009952003 -0.03179156 0.0046972446
00000000: 7ea1 14be bf0f dabc ad80 b9bd 46a3 adbc
00000010: f40c f3bb 7ffe 0fbc 398a c6bc 7566 1d3e
00000020: 528a 043e 3ce7 89ba ceec 4e3d 4766 053e
00000030: fa7a 2bbd 5914 bdbd 6e33 61bd ab9c 06bd
00000040: 5d31 82bd 82c3 8e3d 9c3f 1fbd b5a1 87bd
00000050: e58f 293d caee 6dbd 0be1 b7bd 3bb8 b2bd
00000060: d1b1 903d 2604 08be f89f 0c3d bba6 a03c
00000070: 4f35 a83d 8287 0d3e e305 963c 9e42 043e
00000080: e415 353d 2a83 8dbc d1fc a5bd fa54 bb3c
00000090: 16d8 a7bd 2940 6e3d 9c71 b3bd 3c53 5fbd
000000a0: 1cca c5bc 3948 27bd f731 7a3d 65ea 663d
000000b0: 57fe 593d 767e 723d d1d2 abbb 3e0b f0ba
000000c0: 5295 55bd 4966 8e3d 646f afbd e602 b13d
000000d0: f241 ff3b 4c1e 42bd f6cb a03d 698f c8bd
000000e0: 2478 223d 5d3f 7fbd 5fac d33d 326c 103c
000000f0: 9632 cd3c ba0d 23bc de37 02bd 58eb 993b

module.Conv4.layers.1.weight f4 [64]
0.39999872 0.41602466 1.1986034 1.175294 1.4431177 0.520132 0.3261336 1.4865657
1.2257215 1.4712694 0.50428075 1.3845259 1.557338 1.432692 1.46121 0.38895777
0.49378684 1.431198 0.8160481 0.48005894 1.4308094 0.8830448 1.5041056 1.1654546
0.6944038 1.4979979 1.5620812 1.4978846 0.8494062 1.1260726 1.4741263 1.4761622
0.5614156 0.34140235 1.5011642 1.5752517 0.1267018 0.45751393 1.4582181 1.4863337
0.53865045 0.5534795 1.3804498 1.4880186 1.2717816 0.73643637 0.6056558 1.5249223
1.4342428 0.46372274 0.45196402 0.5270242 0.5896021 0.8450898 1.2760172 0.3351259
0.50252557 1.3258724 0.5946079 0.27647385 1.5214373 0.7078986 1.319813 0.24510674
00000000: a2cc cc3e 2f01 d53e d66b 993f 0970 963f
00000010: 15b8 b83f 5f27 053f fcfa a63e c947 be3f
00000020: 71e4 9c3f 8e52 bc3f 8b18 013f 2538 b13f
00000030: da56 c73f 7462 b73f ee08 bb3f 7925 c73e
00000040: a1d1 fc3e 7f31 b73f 87e8 503f 49ca f53e
00000050: c324 b73f 390f 623f 8886 c03f 9e2d 953f
00000060: 73c4 313f 65be bf3f 47f2 c73f afba bf3f
00000070: af72 593f 2623 903f 2cb0 bc3f e2f2 bc3f
00000080: efb8 0f3f 4acc ae3e 2626 c03f d9a1 c93f
00000090: 1ebe 013e 443f ea3e e4a6 ba3f 2f40 be3f
000000a0: ffe4 093f d5b0 0d3f 94b2 b03f 6577 be3f
000000b0: bdc9 a23f 1887 3c3f 420c 1b3f a730 c33f
000000c0: 4595 b73f 116d ed3e d467 e73e 0feb 063f
000000d0: 2af0 163f ce57 583f 8854 a33f 9f95 ab3e
000000e0: 84a5 003f 30b6 a93f 3938 183f fb8d 8d3e
000000f0: 75be c23f d838 353f a2ef a83f 43fd 7a3e
