DIDFuse/saved_models/encoder/VIS_AE14.pth (torch, 460446 bytes, 24 tensors)

module.Conv1.layers.1.weight f4 [64, 1, 3, 3]
0	0x3f2646db	0.64951867
1	0x3e907291	0.28212407
2	0x3f216088	0.6303792
3	0x3f141b4e	0.57854164
4	0x3f29d4b6	0.66340196
5	0x3ebdb0a3	0.37048826
6	0x3f189dd6	0.5961584
7	0x3f5ab39e	0.85430324
8	0x3f16e288	0.5893941
9	0xbf3ec1a0	-0.745142
10	0xbf263da4	-0.64937806
11	0xbf5bf439	-0.8591953
12	0xbf4a3efd	-0.7900236
13	0xbeac2b55	-0.3362681
14	0xbe952718	-0.2913139
15	0xbe9b5aa1	-0.30342582
16	0xbe9fd46b	-0.3121675
17	0xbf12b4da	-0.5730721
18	0xbf22ae2f	-0.63547033
19	0xbf2b971a	-0.6702744
20	0xbefc384d	-0.49261704
21	0xbf4ea58f	-0.8072137
22	0x3f34bc67	0.7059998
23	0xbf66a03a	-0.90088236
24	0xbedafd20	-0.42771244
25	0x3e808f60	0.25109386
26	0x3f1f4ad9	0.62223583
27	0xbfcc6f62	-1.5971491
28	0xbf5e1899	-0.86756283
29	0xbf86b7a5	-1.0524794
30	0x3db6a247	0.08917671
31	0x3ecb966e	0.39763206
32	0xbe0c49f3	-0.13700084
33	0xbf8999ed	-1.07501
34	0xbe51ec5f	-0.20500325
35	0xc02ab4af	-2.667278
36	0xbf6a99a2	-0.91640675
37	0xbf60f043	-0.8786661
38	0xbf7b4909	-0.9815832
39	0x3d22b8d7	0.03972706
40	0x3d061edf	0.032744285
41	0xbe2caea1	-0.1686349
42	0x3e72bd67	0.23705064
43	0x3f3f477d	0.7471846
44	0x3eb70e07	0.3575289
45	0x3e960cef	0.29306743
46	0x3f24e718	0.6441512
47	0x3f68d791	0.9095393
48	0x3f09dfd3	0.53857154
49	0x3ed33917	0.41254494
50	0x3ed9fc4f	0.4257531
51	0x3f074102	0.5283357
52	0x3f6cf1d9	0.9255653
53	0x3f4b707f	0.7946853
54	0xbf2e3a2c	-0.68057513
55	0xbf15a1bd	-0.5844992
56	0xbed2558a	-0.41080886
57	0xbf0498c8	-0.51795626
58	0x3f4f4995	0.8097165
59	0xbf63e567	-0.89021915
60	0x3ea973cc	0.33096159
61	0x3ee76044	0.45190632
62	0xbf3f581a	-0.7474381
63	0xbf3ce0bd	-0.73780423
64	0xbf4280d3	-0.7597782
65	0xbf3261d2	-0.6968051
66	0xbef1406a	-0.47119457
67	0xbf39ef29	-0.72630554
68	0xbed84287	-0.42238256
69	0xbf033519	-0.51252896
70	0xbe8bf98a	-0.2733882
71	0xbf096bad	-0.53679925
72	0xbf940fff	-1.1567382
73	0xbfafbc98	-1.3729429
74	0xbfc704ce	-1.5548341
75	0xbe9054a1	-0.28189567
76	0x3df1250b	0.117746435
77	0x3df103ad	0.11768279
78	0xbf30d49b	-0.6907441
79	0xbd8ff7ba	-0.07029672
80	0x3e13495a	0.1438345
81	0x3eeab5f2	0.45841938
82	0x3e957c1b	0.29196247
83	0x3f399462	0.7249204
84	0x3f48d327	0.7844719
85	0x3f66680b	0.90002507
86	0x3f2ef80e	0.6834725
87	0x3f501c36	0.81293046
88	0x3eb16c84	0.34653103
89	0x3f0c4e87	0.54807323
90	0xbe88ed03	-0.26743326
91	0x3f1bcf56	0.60863245
92	0xbf299e8b	-0.6625754
93	0x3f06c81f	0.5264911
94	0x4026bba5	2.605203
95	0x3fbfe444	1.4991536
96	0xbf817230	-1.0112972
97	0x3f3bf038	0.7341342
98	0xbf127566	-0.57210386
99	0xbf31159b	-0.6917359
100	0xbe9dcd46	-0.30820674
101	0x3f718840	0.94348526
102	0xbf59cb04	-0.850754
103	0xbea20560	-0.31644726
104	0xbf1ba9e1	-0.6080609
105	0xbf2535e1	-0.6453534
106	0xbecbd8bf	-0.39813802
107	0xbf38317a	-0.71950495
108	0x3ebaf935	0.36518255
109	0xbcaf7ecb	-0.021422764
110	0xbe620356	-0.22071585
111	0x3f66a7b5	0.9009965
112	0x3f9927a5	1.1965224
113	0x3fabc31b	1.3418916
114	0x3f26f68f	0.6521997
115	0x3eb02fbe	0.34411424
116	0x3f193709	0.598496
117	0x3f5175d9	0.81820446
118	0x3f89a2c2	1.0752795
119	0x3f43f96a	0.7655245
120	0x3d5c4f79	0.05378673
121	0x3ec227ca	0.37920982
122	0x3dea658e	0.11445151
123	0xbe2d7ab9	-0.16941346
124	0xbed5ebd5	-0.41781488
125	0xbf15e85e	-0.5855769
126	0xbf5d07f9	-0.8634029
127	0x3dc3c8f7	0.095598154
128	0xbefd3894	-0.49457228
129	0x3ed85fe3	0.42260656
130	0x3fe7a5f7	1.8097523
131	0x3f4d2425	0.8013328
132	0xbf5a1711	-0.85191447
133	0x3ed48618	0.41508555
134	0xbf68d16b	-0.90944546
135	0x3f939eda	1.1532853
136	0x3eb3e753	0.35137424
137	0x3f9c3403	1.2203373
138	0x3e67eb50	0.22648358
139	0xbf8be3dc	-1.0928912
140	0x3d2b2e8e	0.041792445
141	0x3f29da74	0.6634896
142	0xbf234c82	-0.63788617
143	0x3e1a0c7a	0.15043822
144	0xbf8fde60	-1.1239738
145	0xbf233398	-0.637506
146	0x3e54fec4	0.2080031
147	0xbf84f5e1	-1.0387536
148	0x3f4b3656	0.79379785
149	0x3f4f6b35	0.8102296
150	0xbf51303d	-0.8171423
151	0xbf6660cb	-0.89991444
152	0x3d8c67b7	0.068557195
153	0xbf4c5c98	-0.79828787
154	0x3f0e00c1	0.554699
155	0x3ebdcad6	0.37068814
156	0xbef5df35	-0.48021856
157	0xbf0633f3	-0.5242302
158	0xbf49c360	-0.78813744
159	0xbf262cd4	-0.6491215
160	0xbf28fd5a	-0.66011584
161	0xbf4f49b4	-0.8097184
162	0xbebc8e3d	-0.3682727
163	0x3f7e7ba3	0.99407405
164	0xbdac48d4	-0.08412328
165	0x3f9eb15c	1.2397876
166	0x4046c4dd	3.1057656
167	0x3f429686	0.7601093
168	0xbf23272b	-0.6373164
169	0x3f788b89	0.97087914
170	0xbf51cd86	-0.8195423
171	0xc04f5ff9	-3.2402327
172	0xbf5f4993	-0.8722164
173	0xbf72118e	-0.94558036
174	0xbf9a3eb9	-1.2050391
175	0x3f75a3b0	0.9595289
176	0x3e8264b8	0.25467467
177	0xbf413452	-0.7547046
178	0xbf5150f3	-0.81764144
179	0xbedce611	-0.43144277
180	0x3c572e2d	0.013133568
181	0xbe89f7fb	-0.26947007
182	0xbf9eccfb	-1.2406305
183	0x3f841513	1.0318931
184	0x40176fe1	2.3662035
185	0x3f6f996c	0.9359348
186	0xbdca1ba0	-0.0986855
187	0x3fabd11f	1.3423194
188	0x3ebf7def	0.37400767
189	0x3f7d1fd2	0.9887668
190	0x3fcdd720	1.6081276
191	0x3f568dc9	0.83810097
192	0x3f6cc067	0.9248108
193	0x400f1990	2.2359352
194	0x3fb16ecf	1.3861941
195	0xbf587407	-0.84552044
196	0xbdb6f1fa	-0.08932872
197	0xbf397de9	-0.7245775
198	0x3ed8c1b4	0.42335284
199	0xbf0aaacb	-0.5416686
200	0x3f26604a	0.64990675
201	0xbf19b42d	-0.6004055
202	0xbf9661e6	-1.1748626
203	0xbf83bb67	-1.0291566
204	0x400cd802	2.200684
205	0xbf38dcfa	-0.72212183
206	0x3ffd2d87	1.9779519
207	0xbd289d29	-0.041165505
208	0x3d99f612	0.07517637
209	0xbefc59e4	-0.4928733
210	0x3f8651fe	1.0493772
211	0x3f5761ce	0.84133613
212	0xbf334caa	-0.70038855
213	0x3dde9b54	0.1086947
214	0x3f2b6fc0	0.6696739
215	0xbf7849bf	-0.9698753
216	0x3eafe606	0.3435518
217	0x3f335bb0	0.7006178
218	0x3eb61c78	0.35568595
219	0x3f5ba4ed	0.8579853
220	0x3ebcbd5c	0.3686322
221	0x3efc8d86	0.49326724
222	0x3ea405f6	0.32035798
223	0x3f520a7d	0.82047254
224	0x3f5d2050	0.8637743
225	0xbf6fd7eb	-0.9368884
226	0xbe9f44ba	-0.31107122
227	0xbf29de34	-0.6635468
228	0xbf3591ea	-0.7092577
229	0xbf2f61d8	-0.6850867
230	0xbf4dbc2d	-0.8036526
231	0x3e90ac2d	0.2825636
232	0x3f038f71	0.5139075
233	0x3ec49916	0.38398045
234	0x3e8fd517	0.28092262
235	0xbe6c51d4	-0.2307809
236	0x3f4e0f5e	0.804922
237	0xbf3c38ad	-0.7352398
238	0xbfdb2973	-1.7122024
239	0xbf97d77a	-1.1862633
240	0xbc0fb042	-0.0087700505
241	0xbfae67e7	-1.3625458
242	0xbf070ce6	-0.52754056
243	0x3ee2c10c	0.44287908
244	0xbfade9a2	-1.3586924
245	0x3f860a03	1.0471805
246	0xbf51e520	-0.8199024
247	0xc0354772	-2.8324857
248	0xbfa93165	-1.3218199
249	0x3ee9746f	0.45596644
250	0xbeeae6aa	-0.45879108
251	0x3ea18d48	0.31553102
252	0xbe294e11	-0.16533686
253	0xbe37cb8f	-0.17948745
254	0xbf1c0cfb	-0.60957307
255	0x4023999e	2.556251

module.Conv1.layers.1.bias f4 [64]
0	0xbeeb9487	-0.46011755
1	0x3ef17554	0.47159827
2	0x3f105fe0	0.56396294
3	0xbeae9ad9	-0.34102514
4	0xbea19c6f	-0.31564662
5	0xbf34291e	-0.7037524
6	0xbe16b356	-0.14716849
7	0x3eae395c	0.34028137
8	0x3ef943ce	0.48684543
9	0xbe689910	-0.22714639
10	0x3dccf023	0.1000674
11	0xbd74db5c	-0.05977951
12	0x3ed8a415	0.42312685
13	0x3e338a90	0.17533326
14	0x3f234b03	0.63786334
15	0xbe66034a	-0.22462192
16	0x3e91279f	0.2835054
17	0xbf04a806	-0.51818883
18	0xbeb641c9	-0.35597065
19	0x3f0a070f	0.5391702
20	0xbec29b98	-0.38009334
21	0x3e68ea38	0.22745597
22	0x3ee5dac0	0.44893456
23	0x3e74dd6a	0.23912588
24	0x3d6ba8ec	0.057534143
25	0xbe7d0ead	-0.2471263
26	0x3efa0e20	0.48838902
27	0x3e86b7f0	0.26312208
28	0xbf27b1bd	-0.6550558
29	0xbf19e1f6	-0.60110414
30	0xbec8773b	-0.39153466
31	0xbe67dbdb	-0.22642462
32	0xbeac5a90	-0.33662844
33	0xbe3e6f44	-0.18597132
34	0xbc030682	-0.007997157
35	0x3f3926f8	0.72325087
36	0xbe342a9a	-0.17594376
37	0xbf4d9a04	-0.80313134
38	0x3e91859d	0.2842225
39	0xbe8c31c2	-0.27381712
40	0xbdb2ac4e	-0.08724271
41	0x3e9df2f9	0.30849436
42	0xbf28cc0d	-0.65936357
43	0x3ed74276	0.42042893
44	0x3e811c18	0.25216746
45	0xbe0d409f	-0.13794182
46	0xbe58d862	-0.21176293
47	0x3e6e0726	0.23244914
48	0x3dcfbfe7	0.10144024
49	0x3f51680a	0.81799376
50	0xbbcc8e86	-0.006242576
51	0xbda7341b	-0.08164235
52	0xbe4b1a41	-0.19834234
53	0xbe92506c	-0.28576982
54	0x3ee14130	0.43995047
55	0xbf3702e0	-0.7148876
56	0xbe07b5f6	-0.13253006
57	0xbed8e947	-0.42365476
58	0x3dc85958	0.09782666
59	0xbec99304	-0.39369977
60	0x3e94d136	0.29065865
61	0x3ef5222e	0.4787764
62	0x3e68bc3e	0.22728059
63	0xbe23fccd	-0.16014405

module.Conv1.layers.2.weight f4 [64]
0	0x3eb01b5a	0.34395868
1	0x3ef61bd9	0.4806812
2	0x3ef75113	0.48304042
3	0x3fc99d36	1.5751102
4	0x3e3550d3	0.17706613
5	0x3fd565be	1.6671674
6	0xbe14b57e	-0.14522359
7	0x3eedbeb0	0.46434546
8	0x3fb108cb	1.3830808
9	0x3f3f3987	0.74697155
10	0x4003ef8e	2.0614963
11	0x3fcdcca9	1.6078082
12	0x3ee7b6f4	0.4525677
13	0x3f0e0dd3	0.55489844
14	0x3fef0f38	1.8676519
15	0x3f5237bb	0.8211629
16	0x3f006246	0.50149953
17	0xbdadff75	-0.0849599
18	0x4014064e	2.3128848
19	0x3fa2d78b	1.2722028
20	0x406add78	3.6697674
21	0x3f44d9cc	0.7689483
22	0x40139cec	2.3064528
23	0x3fe0e37d	1.7569424
24	0x3ed4d4cd	0.41568604
25	0x3dbddd62	0.09270741
26	0x4005ed65	2.0926144
27	0x3fc69c6e	1.5516489
28	0x3fc33d38	1.5253057
29	0x3fd80c35	1.6878725
30	0x3faf74c8	1.3707514
31	0x3ec11b7f	0.3771629
32	0x3ef5c2e2	0.48000246
33	0x3fc527de	1.5402792
34	0xbdf8097e	-0.121111855
35	0x3f134cde	0.57539165
36	0x3fe6f470	1.8043346
37	0x3fe2034d	1.7657257
38	0x3f58832b	0.84575146
39	0x3f83b0aa	1.0288289
40	0x400719a4	2.11094
41	0x3fd388c2	1.652611
42	0x3fea4335	1.830176
43	0x3f7101a0	0.94143105
44	0x3ff27477	1.8941792
45	0x3e848f56	0.25890607
46	0x3f0af9dc	0.54287505
47	0x3efa99ca	0.48945457
48	0x3cb0123e	0.021493074
49	0x3fa9c0fe	1.3262022
50	0x3d62229f	0.0552088
51	0x3fb931da	1.4468338
52	0x3fa3998a	1.2781231
53	0x3fe02b99	1.7513305
54	0x3fa7cddf	1.3109702
55	0x3fcc44b0	1.5958462
56	0x3fb8f522	1.4449809
57	0x3f1c97be	0.6116904
58	0x3d5b8a36	0.053598605
59	0x3ff10b16	1.8831508
60	0x3f53b4eb	0.82697934
61	0x3fb1fa0f	1.3904437
62	0x3eb77d19	0.3583763
63	0x3f25138c	0.6448295

module.Conv1.layers.2.bias f4 [64]
0	0xbf0dc938	-0.5538516
1	0xbf1a1914	-0.60194516
2	0xbf228345	-0.6348155
3	0x3f27cf9f	0.6555118
4	0xbf4dc34b	-0.8037612
5	0x3f4cb411	0.7996226
6	0xbf500af8	-0.81266737
7	0xbf14b854	-0.5809376
8	0xbf349ce7	-0.70551914
9	0xc00d9861	-2.2124255
10	0x3f3b3a17	0.73135513
11	0x3f74dedd	0.9565256
12	0xbfb10199	-1.3828613
13	0xbf8ebef2	-1.1152022
14	0x3f7c5bb6	0.9857744
15	0xbe486991	-0.1957152
16	0xbfa7f2bf	-1.3120955
17	0xbf36ec1b	-0.7145402
18	0x3ea8694d	0.32892838
19	0xbf23adb8	-0.6393695
20	0xbee9bab5	-0.4565026
21	0xbfa9ae14	-1.325625
22	0x3f3a1d27	0.7270073
23	0x3ec93e9d	0.39305583
24	0xbefbde6f	-0.4919314
25	0xbf5b618f	-0.8569574
26	0x3f81c721	1.0138894
27	0x3fece3f5	1.8507067
28	0x3f37683d	0.7164343
29	0x3f4d1376	0.8010782
30	0x3e9b5403	0.30337533
31	0xbf3002da	-0.6875435
32	0xbf0e6be3	-0.5563337
33	0x3eb4b769	0.3529618
34	0xbf339ac0	-0.70158005
35	0xbf33553d	-0.7005194
36	0x3f36802c	0.71289325
37	0x3f2a8134	0.666034
38	0xc026c058	-2.6054897
39	0xbe09e769	-0.13467182
40	0x3f2c873d	0.6739386
41	0x3f51eb73	0.8199989
42	0x3f4ff329	0.8123041
43	0xbf880b48	-1.0628443
44	0xbf949791	-1.1608754
45	0xbf333e68	-0.700171
46	0xbeaacf76	-0.33361405
47	0xbf3c0f3c	-0.73460746
48	0xbf402fa6	-0.75072706
49	0x3f309e62	0.68991673
50	0xbf646a71	-0.89224917
51	0x3eeaca5f	0.45857522
52	0xbeddac0c	-0.43295324
53	0xbf1f0128	-0.6211114
54	0xbda1cf5b	-0.07900878
55	0x3d93c3c6	0.07215075
56	0xbf1fcd6d	-0.6242283
57	0xbebeb2fd	-0.37245932
58	0xbf469bb6	-0.77581346
59	0x3f0367da	0.5133034
60	0x3f90e315	1.13193
61	0xbf9ed6c6	-1.2409294
62	0xbf8a7250	-1.0816135
63	0xbe53ca4f	-0.20682643

module.Conv1.layers.2.running_mean f4 [64]
0	0xc0360452	-2.8440137
1	0x402c7b09	2.6950095
2	0x3fd331c0	1.6499557
3	0x403abbc8	2.9177113
4	0x3ec49852	0.3839746
5	0xc04d323f	-3.2061918
6	0x3f50da30	0.8158293
7	0x402c2a68	2.6900883
8	0x40290d4a	2.641436
9	0xc030f995	-2.7652333
10	0xbfc6b90d	-1.5525223
11	0x3fcbd765	1.5925108
12	0xbff58c38	-1.9183416
13	0xbf4c81c0	-0.7988548
14	0x3e78ac13	0.24284391
15	0xbf9da78b	-1.2316755
16	0x3fb33442	1.4000323
17	0x3f9b493d	1.2131726
18	0xc02e6d0a	-2.7254052
19	0x40720d3b	3.7820575
20	0xc01d214e	-2.4551578
21	0xc02723da	-2.6115632
22	0xbe95072a	-0.29107028
23	0xbd92460b	-0.07142266
24	0xc01242f7	-2.2853372
25	0x3f8c0ecf	1.0942019
26	0x402813ab	2.6262004
27	0x3fe9a14a	1.8252347
28	0xc045eb5a	-3.0924897
29	0x3fd4c1f6	1.6621692
30	0x4002b305	2.0421765
31	0x400f6cb0	2.2410088
32	0xbff128d9	-1.8840591
33	0x4017de14	2.3729296
34	0x3f968bbc	1.1761394
35	0x404bb119	3.1826842
36	0xbf1b8c1d	-0.6076067
37	0x3ef3f51b	0.47647938
38	0xbf5936d3	-0.8484928
39	0x4011b5c5	2.2767193
40	0x40192c9e	2.3933482
41	0x4036355c	2.8470068
42	0xbe8e23e3	-0.27761754
43	0xbe9c33e7	-0.30508348
44	0xc0137008	-2.3037128
45	0x3f09aacc	0.5377624
46	0xc0435f4e	-3.052692
47	0x400374a1	2.0539935
48	0x3fd8c413	1.6934837
49	0x4055557a	3.333342
50	0x400771fd	2.1163323
51	0x3f4e395a	0.8055626
52	0x40253a01	2.5816653
53	0xc0312780	-2.768036
54	0x403387df	2.805168
55	0xc04e4fae	-3.2236133
56	0xc01beb78	-2.4362469
57	0x4004387c	2.0659475
58	0x4031febb	2.7811725
59	0xc04fdd21	-3.2478716
60	0xbf587e01	-0.84567267
61	0x4042927f	3.0401914
62	0xbfe2b416	-1.7711208
63	0xc0002144	-2.0020304

module.Conv1.layers.2.running_var f4 [64]
0	0x404028f8	3.0025005
1	0x4026f249	2.608538
2	0x3f214b31	0.6300536
3	0x40b257d4	5.573221
4	0x3e90dc5a	0.28293115
5	0x40537876	3.3042274
6	0x3efdf586	0.49601382
7	0x403a9d3e	2.9158473
8	0x401d2478	2.4553509
9	0x4059e737	3.4047372
10	0x3fbdb956	1.4822185
11	0x3fba90d3	1.4575447
12	0x403a8607	2.9144304
13	0x3f065ea2	0.5248815
14	0x3ddfe04c	0.10931453
15	0x3f09970a	0.5374609
16	0x3f305b4c	0.6888931
17	0x3fcc5cc6	1.5965812
18	0x4040c2a5	3.0118802
19	0x40b1cdf9	5.556393
20	0x40151773	2.3295562
21	0x408a9a84	4.331362
22	0x3ea5a385	0.32351318
23	0x3d93bb04	0.07213405
24	0x4039a7aa	2.9008584
25	0x3f77e275	0.9682992
26	0x401d1f89	2.4550498
27	0x3fb716f7	1.4303883
28	0x404e4dd3	3.2235
29	0x402c07a0	2.6879654
30	0x4048962f	3.1341665
31	0x404e036a	3.2189584
32	0x3fa0633d	1.2530285
33	0x405d08f5	3.4536717
34	0x3f3fec59	0.7497001
35	0x404c7886	3.1948562
36	0x3e08e60d	0.13369007
37	0x3f5f1d7d	0.8715437
38	0x3f323d93	0.69625205
39	0x405bff42	3.4374547
40	0x40501225	3.2511075
41	0x4058bc4b	3.3864925
42	0x3dafdc42	0.08586933
43	0x3e9c2d38	0.3050325
44	0x405d24a8	3.4553623
45	0x3e841e2d	0.25804272
46	0x4088417a	4.2579927
47	0x3fe19014	1.7622094
48	0x3facaaee	1.3489664
49	0x40562cfb	3.3464954
50	0x40182322	2.3771443
51	0x3ede803b	0.43457207
52	0x4082ed10	4.0914383
53	0x4050cfdd	3.262687
54	0x40407de3	3.0076835
55	0x405514c6	3.329393
56	0x4033bd3f	2.8084257
57	0x40519b71	3.2751124
58	0x407344a6	3.801065
59	0x408ac9f4	4.3371525
60	0x3f334b1f	0.700365
61	0x405c7f86	3.4452834
62	0x4006a103	2.1035774
63	0x3fe449e7	1.7835053

module.Conv2.layers.0.weight f4 [64, 64, 3, 3]
0	0xbf1b975d	-0.6077784
1	0xbf19b597	-0.6004271
2	0xbf1b3760	-0.6063137
3	0xbf22b19a	-0.6355225
4	0xbf1f195e	-0.6214808
5	0xbf131799	-0.5745788
6	0xbf1459eb	-0.57949704
7	0xbf240aff	-0.6407928
8	0xbf12fd01	-0.57417303
9	0x3f19b34c	0.6003921
10	0x3f17a050	0.5922899
11	0x3f0f6b75	0.5602334
12	0x3f23e170	0.64015865
13	0x3f205c1d	0.62640554
14	0x3f18cb4e	0.5968522
15	0x3f165f1c	0.58738875
16	0x3f112295	0.56693393
17	0x3f0fd9fc	0.5619199
18	0x3f16b06b	0.5886294
19	0x3f1d6681	0.61484534
20	0x3f241bb8	0.64104795
21	0x3f132f22	0.57493794
22	0x3f1dfeeb	0.617171
23	0x3f15c23c	0.58499503
24	0x3f1af786	0.6053394
25	0x3f18e62e	0.59726226
26	0x3f18030d	0.59379655
27	0x3f1dd237	0.6164889
28	0x3f1bef58	0.60912085
29	0x3f1c9901	0.61170965
30	0x3f11d2dc	0.5696237
31	0x3f1dc9d6	0.616361
32	0x3f1d9aa8	0.6156411
33	0x3f1ca415	0.6118787
34	0x3f23bd90	0.63961124
35	0x3f13af7d	0.5768965
36	0xbf229630	-0.6351042
37	0xbf16286f	-0.58655447
38	0xbf0fe81f	-0.56213564
39	0xbf1f7986	-0.62294805
40	0xbf15c7b8	-0.5850787
41	0xbf1b64d6	-0.6070074
42	0xbf205efe	-0.62644947
43	0xbf22170f	-0.63316435
44	0xbf18418a	-0.59475005
45	0x3f23a5e8	0.6392503
46	0x3f1c63cf	0.61089796
47	0x3f19e645	0.6011699
48	0x3f13365d	0.57504827
49	0x3f1c5fc7	0.61083645
50	0x3f1a6d22	0.60322773
51	0x3f2411d5	0.6408971
52	0x3f15848c	0.58405375
53	0x3f1a6804	0.60314965
54	0xbf1b8bb3	-0.6076004
55	0xbf1cbb7b	-0.6122357
56	0xbf11bd7d	-0.5692976
57	0xbf1904c7	-0.59772915
58	0xbf16bbf0	-0.5888052
59	0xbf198b40	-0.59978104
60	0xbf115707	-0.5677342
61	0xbf15ba47	-0.5848736
62	0xbf1ddec2	-0.61668026
63	0x3f23a28c	0.639199
64	0x3f21c73d	0.6319464
65	0x3f1c4322	0.61039937
66	0x3f186d4f	0.5954179
67	0x3f11dbb3	0.5697586
68	0x3f1be09e	0.60889614
69	0x3f14c110	0.5810709
70	0x3f1b3c84	0.60639215
71	0x3f1c1bd2	0.6097995
72	0xbf100736	-0.56261003
73	0xbf18cd9f	-0.5968875
74	0xbf1dcbe8	-0.6163926
75	0xbf13dccd	-0.5775879
76	0xbf21961d	-0.6311968
77	0xbf13a108	-0.5766759
78	0xbf22d978	-0.6361308
79	0xbf11d545	-0.5696605
80	0xbf16b0b1	-0.5886336
81	0x3f17954c	0.59212184
82	0x3f19d9ec	0.6009815
83	0x3f1dfd8e	0.6171502
84	0x3f144b58	0.57927465
85	0x3f159d99	0.584436
86	0x3f12b567	0.5730805
87	0x3f1f5601	0.62240607
88	0x3f187ece	0.5956849
89	0x3f109e4c	0.5649154
90	0x3f1ffad8	0.6249213
91	0x3f1124da	0.56696856
92	0x3f1915a9	0.59798676
93	0x3f14b8de	0.58094585
94	0x3f1b6249	0.60696846
95	0x3f16dcb6	0.5893053
96	0x3f195ea6	0.5991005
97	0x3f13510e	0.57545555
98	0x3f21914b	0.63112324
99	0x3f124614	0.5713818
100	0x3f181ef0	0.59422207
101	0x3f232fed	0.63745004
102	0x3f15810e	0.58400047
103	0x3f1dcda2	0.61641896
104	0x3f1c16c1	0.6097222
105	0x3f16c428	0.5889306
106	0x3f10bb44	0.56535745
107	0x3f0ff52e	0.5623349
108	0x3f20b50e	0.6277627
109	0x3f1b115e	0.60573375
110	0x3f2409af	0.64077276
111	0x3f21f3c2	0.6326257
112	0x3f1545e0	0.58309746
113	0x3f179650	0.59213734
114	0x3f0f3bec	0.5595081
115	0x3f10fff1	0.56640536
116	0x3f150645	0.5821269
117	0x3f0f47a7	0.5596871
118	0x3f0f85ed	0.5606373
119	0x3f20ecc2	0.62861264
120	0x3f2269b5	0.63442546
121	0x3f1ed898	0.62049246
122	0x3f1cc0c4	0.61231637
123	0x3f1fced7	0.6242499
124	0x3f1308f2	0.57435524
125	0x3f1b4a40	0.6066017
126	0x3f200df1	0.6252127
127	0x3f1235f3	0.5711357
128	0x3f19f362	0.60137
129	0x3f1a0ddb	0.6017739
130	0x3f16de75	0.5893319
131	0x3f20965b	0.62729424
132	0x3f1a7728	0.6033807
133	0x3f1a560f	0.60287565
134	0x3f1dff45	0.61717635
135	0xbf1bf433	-0.60919493
136	0xbf19e615	-0.601167
137	0xbf0fa0f2	-0.5610496
138	0xbf111c14	-0.5668347
139	0xbf114b60	-0.5675564
140	0xbf13af39	-0.57689244
141	0xbf212d3d	-0.62959653
142	0xbf134916	-0.57533395
143	0xbf13cacc	-0.5773132
144	0x3f18ca5e	0.5968379
145	0x3f195742	0.5989877
146	0x3f2216f0	0.6331625
147	0x3f177dbf	0.5917625
148	0x3f19e36a	0.6011263
149	0x3f1d17d9	0.61364514
150	0x3f1cf2fe	0.61308277
151	0x3f0fa3f1	0.5610953
152	0x3f21bcbf	0.6317863
153	0xbf116cf9	-0.56806904
154	0xbf18c73e	-0.5967902
155	0xbf1c8fbb	-0.61156815
156	0xbf151fb5	-0.58251506
157	0xbf14c125	-0.58107215
158	0xbf17de4e	-0.59323585
159	0xbf17adb2	-0.59249413
160	0xbf154989	-0.5831533
161	0xbf243ab1	-0.64152056
162	0x3f144193	0.5791256
163	0x3f1a6de1	0.6032391
164	0x3f1edbac	0.6205394
165	0x3f16ee4f	0.5895738
166	0x3f22352b	0.6336238
167	0x3f24af02	0.6432954
168	0x3f1e3815	0.61804324
169	0x3f23d43f	0.63995737
170	0x3f0f79d2	0.5604526
171	0x3f1af292	0.6052638
172	0x3f193c4b	0.59857625
173	0x3f145861	0.57947356
174	0x3f216378	0.630424
175	0x3f15492b	0.5831477
176	0x3f198705	0.5997165
177	0x3f230856	0.63684595
178	0x3f22a627	0.6353478
179	0x3f198130	0.5996275
180	0x3f21a95c	0.63149047
181	0x3f21a453	0.63141364
182	0x3f1280fc	0.57228065
183	0x3f229f97	0.63524765
184	0x3f1b2aee	0.6061238
185	0x3f1d20a9	0.6137796
186	0x3f219f67	0.63133854
187	0x3f15b555	0.58479816
188	0x3f0f7c30	0.5604887
189	0x3f1a0714	0.6016705
190	0x3f18ba80	0.59659576
191	0x3f14afca	0.5808073
192	0x3f1242ac	0.57132983
193	0x3f124ebb	0.57151383
194	0x3f169d9d	0.5883425
195	0x3f0fb1c2	0.5613061
196	0x3f14b6a1	0.5809117
197	0x3f17c136	0.5927919
198	0xbf12f143	-0.57399386
199	0xbf1046eb	-0.5635821
200	0xbf209b88	-0.6273732
201	0xbf12d88f	-0.5736169
202	0xbf177236	-0.5915865
203	0xbf15547a	-0.58332026
204	0xbf23a47a	-0.63922846
205	0xbf1346a2	-0.5752965
206	0xbf1c717c	-0.61110663
207	0x3f21eb72	0.63249886
208	0x3f1f6a0a	0.6227118
209	0x3f1a3ecf	0.6025209
210	0x3f0fd5de	0.5618571
211	0x3f1445a9	0.5791879
212	0x3f154cb5	0.5832017
213	0x3f17861d	0.59189016
214	0x3f208a9c	0.627115
215	0x3f16277b	0.5865399
216	0xbf148f08	-0.5803075
217	0xbf1e7d4b	-0.6190993
218	0xbf228ffd	-0.6350096
219	0xbf1d3e44	-0.61423135
220	0xbf1fcedd	-0.62425023
221	0xbf12f9de	-0.5741252
222	0xbf1393b2	-0.5764724
223	0xbf10f38a	-0.5662161
224	0xbf1a46ae	-0.602641
225	0xbf21fa14	-0.63272214
226	0xbf22ad50	-0.63545704
227	0xbf1f7a1b	-0.62295693
228	0xbf1fe2c3	-0.62455386
229	0xbf1c48be	-0.61048496
230	0xbf1b9d71	-0.6078711
231	0xbf140dae	-0.57833374
232	0xbf15cf73	-0.5851967
233	0xbf12bbf2	-0.5731803
234	0xbf22e138	-0.63624907
235	0xbf1059a5	-0.56386787
236	0xbf1f77ef	-0.6229238
237	0xbf101a36	-0.56289995
238	0xbf1501ca	-0.58205855
239	0xbf19395a	-0.59853137
240	0xbf18cb0c	-0.59684825
241	0xbf21d022	-0.6320821
242	0xbf1c3940	-0.61024857
243	0xbf12edc1	-0.57394034
244	0xbf1d1f37	-0.61375755
245	0xbf216ff1	-0.63061434
246	0xbf165b9a	-0.5873352
247	0xbf1f04d3	-0.62116736
248	0xbf180784	-0.5938647
249	0xbf1143a0	-0.5674381
250	0xbf1770b8	-0.5915637
251	0xbf1df8aa	-0.61707556
252	0x3f12d6b7	0.5735888
253	0x3f21435b	0.629934
254	0x3f1bf8c4	0.6092646
255	0x3f211021	0.62915236

module.Conv2.layers.0.bias f4 [64]
0	0xbc47eb20	-0.012202054
1	0xbe35a4ee	-0.17738697
2	0x3d313adc	0.043269023
3	0xbe5b3625	-0.21407373
4	0x3ec72a7d	0.38899603
5	0xbda963f8	-0.08271021
6	0xbe0b0f6f	-0.13580106
7	0xbe947b3e	-0.29000276
8	0x3d4d8011	0.05017096
9	0x3d283a64	0.04107131
10	0x3d810c81	0.06301213
11	0xbd0291d8	-0.03187737
12	0x3e04a5b5	0.12953837
13	0xbdebbc3b	-0.115105115
14	0xbd6d9585	-0.05800392
15	0xbc8bbf95	-0.017059127
16	0xbdebc4ba	-0.11512132
17	0x3e0d0f8b	0.1377546
18	0xbe1daa15	-0.15396912
19	0xbe5d9e85	-0.21642502
20	0xbe3148ec	-0.17312974
21	0x3e9b6291	0.30348638
22	0xbdee10d6	-0.11624305
23	0xbd350bf5	-0.044200856
24	0x3e7831d9	0.24237765
25	0x3d0d5ddf	0.03451335
26	0x3d067884	0.032829776
27	0xbd8da0e9	-0.06915457
28	0x3e6a0092	0.2285178
29	0x3e3cf29c	0.18451923
30	0xbd8734a4	-0.06601837
31	0xbdf0fd19	-0.117670245
32	0x3d107db9	0.03527615
33	0x3e6e61ee	0.23279545
34	0x3cfe822a	0.031067926
35	0x3c1a4967	0.009416915
36	0xbe26a480	-0.1627369
37	0xbe086178	-0.13318431
38	0x3da9e2eb	0.08295234
39	0x3c7b0584	0.015321139
40	0x3ddaa0f4	0.106752306
41	0xbdc6a2bf	-0.0969901
42	0xbd418d19	-0.0472537
43	0xbea0e455	-0.31424204
44	0xbc66187e	-0.014043925
45	0xbdb290bd	-0.08719013
46	0x3c59d15f	0.013294547
47	0xbd866914	-0.06563011
48	0x3e02e4e0	0.12782621
49	0x3d9eab85	0.077475585
50	0xbc81a4b8	-0.015825614
51	0x3de13bd9	0.10997743
52	0x3d548440	0.051883936
53	0x3e120955	0.14261372
54	0x3d9057d3	0.07048001
55	0xbd894bfd	-0.06703947
56	0xbe015060	-0.12628317
57	0x3e3299aa	0.1744143
58	0xbdba4494	-0.090951115
59	0x3bdcbc48	0.006736312
60	0xbe106882	-0.14102367
61	0xbe065a55	-0.13120396
62	0x3db1321e	0.08652137
63	0xbe1e1990	-0.15439439

module.Conv2.layers.1.weight f4 [64]
0	0x3fc4d40a	1.5377209
1	0x3ed442ea	0.414573
2	0x3fe0c2ff	1.7559508
3	0x3ecd47cf	0.40093848
4	0x3efaeb2f	0.49007556
5	0x3fbf42c9	1.4942256
6	0x3f96e574	1.1788774
7	0x3f1e681f	0.61877626
8	0xbd47bfcf	-0.048766907
9	0x3f6b67bc	0.9195516
10	0x3f92be81	1.1464387
11	0x3e09f81d	0.13473554
12	0x3f4538bf	0.7703971
13	0x3f268f52	0.6506244
14	0x3f6dc1aa	0.9287363
15	0x3fca7d6a	1.5819523
16	0x3e9124e5	0.2834846
17	0x3f52220b	0.82083195
18	0x3f0f625c	0.5600946
19	0x3fe538ed	1.7907997
20	0x3ff2c002	1.8964846
21	0x3e818b85	0.25301757
22	0x3f4e7d98	0.8066039
23	0x3f82262c	1.0167899
24	0x3fe043e3	1.7520717
25	0x3f9f2e46	1.2435997
26	0x3fd65fa7	1.6747941
27	0x3f607b60	0.87688255
28	0x4012ff16	2.2968192
29	0x3e83b1a3	0.25721464
30	0x3ed5a019	0.41723707
31	0xbd8c7b92	-0.06859507
32	0x3e5ac3ed	0.21363802
33	0x3e489cb8	0.19591033
34	0x3fb3d30a	1.4048779
35	0x3e85233a	0.26003438
36	0x3fa6cdc9	1.3031551
37	0x4012bbad	2.2927048
38	0x3ebf240c	0.3733219
39	0x3f3c51bf	0.73562235
40	0x3f46fcde	0.77729595
41	0x3fb8d48e	1.4439867
42	0x3f489828	0.7835717
43	0x3fc13a4b	1.5095915
44	0x3f7af9b6	0.9803728
45	0xbed5531e	-0.41664976
46	0x3e8dba2a	0.27681094
47	0x3fb98c2f	1.4495906
48	0xbe78f41e	-0.24311873
49	0x3fb931ea	1.4468358
50	0x3f840d57	1.0316571
51	0x3fd9a339	1.7002937
52	0x3fa9b63c	1.3258739
53	0x40101a3b	2.251601
54	0x3fd3f60a	1.655946
55	0x3fd7df76	1.686507
56	0x40154582	2.3323674
57	0x3f231071	0.6369696
58	0x3c8acbff	0.016942976
59	0x3ec53277	0.38515064
60	0x3e825b81	0.25460437
61	0x3fdddce9	1.7333041
62	0x3f9dac53	1.2318214
63	0x3f905d80	1.1278534

module.Conv2.layers.1.bias f4 [64]
0	0xbf0584fe	-0.52156055
1	0xbf108493	-0.5645229
2	0x3fa05904	1.2527165
3	0xbf0213fb	-0.5081174
4	0xbef054bd	-0.4693965
5	0x3e2a1b2d	0.16611929
6	0xbe9cfcdf	-0.30661675
7	0xbf474acb	-0.778485
8	0xbf169591	-0.5882197
9	0xbfb84c03	-1.4398197
10	0x3a9a083e	0.0011751724
11	0xbf6f33f2	-0.9343864
12	0xbd8171ad	-0.0632051
13	0xbe447213	-0.19184141
14	0xbfb70ab3	-1.430014
15	0xbe7b8d17	-0.2456554
16	0xbefe4967	-0.49665377
17	0xbf28c0f5	-0.6591943
18	0xbf1d3f7e	-0.61425006
19	0x3f065ce5	0.52485496
20	0xbe1f8083	-0.15576367
21	0xbf8e932e	-1.1138666
22	0x3ebe7b70	0.3720355
23	0x3f2de759	0.67931134
24	0xbf18dba9	-0.59710175
25	0x3e829d7b	0.25510773
26	0xc092b9f1	-4.585198
27	0xbd7fe2aa	-0.062472023
28	0xbf2ba8b9	-0.67054325
29	0xbf1df594	-0.6170285
30	0xbfb8cf40	-1.4438248
31	0xbfccdf8c	-1.6005721
32	0xbed1ba5f	-0.40962502
33	0xbf0d99c8	-0.55312777
34	0x3dfd3555	0.12363688
35	0xbeddeeb9	-0.43346193
36	0xbe377c5c	-0.17918533
37	0xbfcd7289	-1.6050578
38	0xbef1d070	-0.47229338
39	0xbc00a718	-0.007852338
40	0x3df2ffa7	0.11865168
41	0x3d582443	0.052768957
42	0xbec41da1	-0.38303855
43	0x3e6981d6	0.22803435
44	0x3f35fc22	0.7108785
45	0xbf8053ec	-1.0025611
46	0xbec84dcd	-0.39121857
47	0xbddea3fa	-0.1087112
48	0xbf5f87b6	-0.87316453
49	0x3f4009f5	0.75015193
50	0x3ebcb646	0.36857814
51	0x3ffc0e8f	1.9691943
52	0x3fdcc662	1.7248042
53	0xc0191cc3	-2.3923805
54	0x3fbfd3d4	1.498652
55	0xbfb6a8fc	-1.427032
56	0xc0676b81	-3.6159365
57	0xc000f86b	-2.0151622
58	0xbf5b517e	-0.8567122
59	0xbf36a20c	-0.71341014
60	0xbed5ee90	-0.4178357
61	0xbd46a293	-0.048494887
62	0x3db162fc	0.08661458
63	0x3f22ced9	0.63596874

module.Conv2.layers.1.running_mean f4 [64]
0	0x423f810b	47.87602
1	0xc21a5413	-38.582104
2	0x4301058b	129.02165
3	0xc243468d	-48.818897
4	0xc2421438	-48.519745
5	0x4211a142	36.40748
6	0xc243a9ee	-48.915947
7	0xc23ff816	-47.99227
8	0xc28c9f03	-70.31057
9	0x42de68d8	111.20477
10	0xc29b475c	-77.63937
11	0x423f402f	47.81268
12	0xc23ab97c	-46.681137
13	0x424055de	48.083855
14	0x42431d45	48.778584
15	0x42bf791d	95.73655
16	0x4154c2a1	13.297517
17	0x40e2594a	7.0733995
18	0xc0096c9d	-2.1472542
19	0x42e4f857	114.48504
20	0x4245e80f	49.47662
21	0xc237770c	-45.866257
22	0xc208ca0a	-34.197304
23	0xc2074735	-33.81954
24	0x42511804	52.273453
25	0xc241d156	-48.45443
26	0x4272b381	60.675297
27	0xc2161c32	-37.527534
28	0x42436029	48.843906
29	0xc2c70dfd	-99.52732
30	0x428edc4e	71.43028
31	0x42ef2304	119.56839
32	0xc249fe13	-50.49812
33	0xc2412195	-48.282795
34	0xc124aed4	-10.292683
35	0xc27c10c1	-63.01636
36	0x42c275a7	97.22979
37	0x42aa3ede	85.12279
38	0xc2d3aa8c	-105.8331
39	0x42ef6015	119.68766
40	0x42f59cac	122.806
41	0x42fb37a4	125.60867
42	0x42a8f396	84.47575
43	0x42ee92f4	119.28702
44	0xc2609852	-56.14875
45	0x42209b6b	40.151775
46	0xc29b0d10	-77.52551
47	0x429c1a1f	78.05102
48	0x42edf558	118.97919
49	0x42b0a354	88.319
50	0x427b3e1e	62.81066
51	0xc2653a7f	-57.307125
52	0xc2b406a2	-90.012955
53	0x4246332d	49.549976
54	0xc288abe7	-68.33575
55	0x42fb2233	125.566795
56	0x42d758e4	107.673615
57	0x41b67eae	22.811855
58	0x423a297e	46.54052
59	0xc295db24	-74.92801
60	0xc2ba50a7	-93.157524
61	0x424005a7	48.00552
62	0x42cc4aac	102.14584
63	0xc2435fbe	-48.8435

module.Conv2.layers.1.running_var f4 [64]
0	0x46024e82	8339.627
1	0x45a61aab	5315.3335
2	0x46015918	8278.273
3	0x46032c40	8395.0625
4	0x45ea7ad5	7503.354
5	0x43db6202	438.7657
6	0x45f7d6d3	7930.853
7	0x46012193	8264.394
8	0x4503e234	2110.1377
9	0x458ab962	4439.173
10	0x45bf85b6	6128.714
11	0x45fbe135	8060.151
12	0x45f0454e	7688.663
13	0x46002c73	8203.112
14	0x4602a272	8360.611
15	0x456fc77e	3836.4683
16	0x44b81f44	1472.977
17	0x4465504f	917.2548
18	0x44d90a44	1736.3208
19	0x45f70cb5	7905.5884
20	0x4601163f	8261.562
21	0x45eb5822	7531.0166
22	0x454a75de	3239.3667
23	0x45281d7a	2689.8423
24	0x45a319be	5219.218
25	0x45dddf4d	7099.9126
26	0x464d10d2	13124.205
27	0x4585ffe1	4287.985
28	0x4601beb6	8303.678
29	0x450d59b4	2261.6064
30	0x4552aa98	3370.662
31	0x45b378b3	5743.0874
32	0x449782ad	1212.0836
33	0x45fd4709	8104.8794
34	0x4537d1a3	2941.1023
35	0x452cede8	2766.8691
36	0x45efe0a6	7676.081
37	0x45006f88	2054.9707
38	0x45a3c9b0	5241.211
39	0x45db304a	7014.036
40	0x45b3ea72	5757.3057
41	0x45d85e2d	6923.772
42	0x460a274c	8841.824
43	0x45df3a4a	7143.286
44	0x45d8ecfe	6941.624
45	0x44480839	800.1285
46	0x45e3261a	7268.7627
47	0x45dfceb0	7161.836
48	0x45ada83e	5557.0303
49	0x458d270c	4516.881
50	0x4489b954	1101.7915
51	0x44cc8f75	1636.483
52	0x4509b4b3	2203.2937
53	0x4602ae96	8363.646
54	0x44bdb440	1517.6328
55	0x45d4a118	6804.1367
56	0x4569ea1d	3742.632
57	0x44b637d7	1457.745
58	0x441f406b	637.00653
59	0x461b1a96	9926.646
60	0x4507ddc6	2173.8608
61	0x45fdc5a0	8120.703
62	0x45499389	3225.221
63	0x46047be8	8478.977

module.Conv3.layers.0.weight f4 [64, 64, 3, 3]
0	0x3f1cbad2	0.61222565
1	0x3f25a8f1	0.6471091
2	0x3f12c319	0.57328945
3	0xbf0cd285	-0.5500873
4	0x3f278c8e	0.65448844
5	0x3f1c767c	0.6111829
6	0xbf211912	-0.6292888
7	0xbf1b756e	-0.6072606
8	0xbf162b63	-0.5865995
9	0xbf135bfc	-0.5756223
10	0xbf178806	-0.5919193
11	0xbf17d608	-0.5931096
12	0xbf0fc2ba	-0.56156504
13	0xbf19dfaa	-0.6010691
14	0xbf15d64b	-0.5853011
15	0xbf16c0c5	-0.5888789
16	0xbf1d6d5b	-0.6149499
17	0xbf190d54	-0.5978596
18	0x3f1cf53f	0.61311716
19	0x3f15e50e	0.58552635
20	0x3f200b8d	0.62517625
21	0x3f1b6725	0.6070426
22	0x3f24fc58	0.64447546
23	0x3f26b269	0.6511598
24	0x3f205836	0.626346
25	0x3f1fad68	0.6237397
26	0x3f1466f9	0.57969624
27	0xbf127234	-0.5720551
28	0xbf17fa8d	-0.59366685
29	0xbf116270	-0.5679083
30	0xbf148592	-0.5801631
31	0xbf1ed182	-0.62038434
32	0xbf0fd44e	-0.56183326
33	0xbf1f0b2a	-0.6212641
34	0xbf0fc8cf	-0.56165785
35	0xbf14026f	-0.57816213
36	0xbf11c94d	-0.56947786
37	0xbf1a1e73	-0.6020271
38	0xbf12c0f0	-0.5732565
39	0xbf127614	-0.5721142
40	0xbf22a46f	-0.63532156
41	0xbf17b9b2	-0.59267724
42	0xbf13721d	-0.57596
43	0xbf170dbf	-0.5900535
44	0xbf1614bd	-0.58625394
45	0xbf1e18fa	-0.6175686
46	0xbf1be0bc	-0.6088979
47	0xbf236fdc	-0.6384256
48	0xbf180ce2	-0.5939466
49	0xbf1a6868	-0.6031556
50	0xbf184cc4	-0.59492135
51	0xbf184242	-0.594761
52	0xbf1d1fa7	-0.6137642
53	0xbf165051	-0.58716303
54	0x3f228a24	0.63492036
55	0x3f23ce5e	0.63986766
56	0xbeefea05	-0.4685823
57	0x3f12e590	0.57381535
58	0x3f24eafb	0.6442105
59	0x3f1d4cdc	0.61445403
60	0x3f2bf70c	0.6717384
61	0x3f1789f0	0.5919485
62	0x3f17ce44	0.5929911
63	0xbf1e337b	-0.617973
64	0xbf1bcdd9	-0.60860974
65	0xbf201f5c	-0.6254785
66	0xbf1a8b95	-0.60369235
67	0xbf203c93	-0.6259243
68	0xbf1e0dd2	-0.6173984
69	0xbf1cac6a	-0.61200583
70	0xbf211f70	-0.62938595
71	0xbf24310e	-0.6413735
72	0x3f1ea606	0.6197208
73	0x3f23ce1b	0.63986367
74	0x3f20c22e	0.62796295
75	0x3f1ca2e7	0.6118607
76	0x3f132d4a	0.5749098
77	0x3f14be6e	0.5810307
78	0x3f107b74	0.56438375
79	0x3f211bd0	0.62933064
80	0x3f1322b1	0.5747481
81	0xbf13099d	-0.57436544
82	0xbf17ca71	-0.59293276
83	0xbf217eda	-0.63084185
84	0xbf0f2bf8	-0.55926466
85	0xbf148325	-0.5801261
86	0xbf1c3342	-0.61015713
87	0xbf1a4a43	-0.60269564
88	0xbf234a57	-0.6378531
89	0xbf103985	-0.5633777
90	0x3f21418c	0.6299064
91	0x3f1b8704	0.6075289
92	0x3f233ef5	0.6376794
93	0x3f17bb2f	0.59269994
94	0x3f1aafab	0.604243
95	0x3f139c6a	0.57660544
96	0x3f271475	0.6526559
97	0x3f17734e	0.59160316
98	0x3f24cb6f	0.64372915
99	0x3f17f70f	0.59361356
100	0x3f1bb79b	0.60827035
101	0x3f1bb70e	0.60826194
102	0x3f130c56	0.574407
103	0x3f181bcc	0.59417415
104	0x3f1c05a1	0.6094609
105	0x3f1943b5	0.5986894
106	0x3f14c631	0.58114916
107	0x3f1029bd	0.5631369
108	0x3f148add	0.5802439
109	0x3f21bcf1	0.63178927
110	0x3f24efc0	0.6442833
111	0x3f140430	0.5781889
112	0x3f19a32a	0.60014594
113	0x3f227540	0.6346016
114	0x3f12c2ab	0.5732829
115	0x3f1a97b7	0.6038775
116	0x3f122268	0.5708375
117	0xbf0f790d	-0.56044084
118	0xbf1afdf1	-0.60543734
119	0xbf1f7526	-0.6228813
120	0xbf102769	-0.56310135
121	0xbf1b6df0	-0.60714626
122	0xbf1f4138	-0.6220889
123	0xbf0b2279	-0.54349476
124	0xbf12237f	-0.5708541
125	0xbf0efe47	-0.55856746
126	0xbf127cbd	-0.57221586
127	0xbf1cb882	-0.61219037
128	0xbf12c153	-0.5732624
129	0xbf1a0293	-0.6016018
130	0xbf1ec5cf	-0.6202058
131	0xbf17372a	-0.5906855
132	0xbf12258e	-0.57088554
133	0xbf1c543e	-0.61066043
134	0xbf16288d	-0.58655626
135	0xbf191a4f	-0.5980577
136	0xbf2004a6	-0.6250709
137	0xbf11bef5	-0.56932
138	0xbf1cfab4	-0.6132004
139	0xbf131c67	-0.57465214
140	0xbf1ac586	-0.60457647
141	0xbf1af8ab	-0.6053569
142	0xbf163b4a	-0.5868422
143	0xbf1f9f23	-0.623522
144	0xbf209908	-0.6273351
145	0xbf151034	-0.5822785
146	0xbf1db579	-0.6160503
147	0xbf1f6765	-0.6226714
148	0xbf0feb28	-0.56218195
149	0xbf119741	-0.5687142
150	0xbf1d5615	-0.61459476
151	0xbf10718b	-0.5642325
152	0xbf1a6dde	-0.60323894
153	0xbf17cdf4	-0.59298635
154	0xbf170a21	-0.5899983
155	0xbf1bbd03	-0.60835284
156	0xbf13e84a	-0.5777632
157	0xbf18227f	-0.59427637
158	0xbf225b53	-0.634206
159	0xbf1d7de0	-0.61520195
160	0xbf10353f	-0.5633125
161	0xbf20dd4e	-0.62837684
162	0x3f236284	0.638222
163	0x3f13ffee	0.5781239
164	0x3f222964	0.6334441
165	0x3f102395	0.56304294
166	0x3f102fe2	0.56323063
167	0x3f1409ae	0.5782727
168	0x3f155d70	0.583457
169	0x3f0fdac6	0.56193197
170	0x3f1e7ffb	0.6191403
171	0xbf1d5542	-0.6145822
172	0xbf167d21	-0.5878468
173	0xbf177ff2	-0.59179604
174	0xbf097dd5	-0.5370763
175	0xbf0c390f	-0.54774565
176	0xbf189249	-0.59598213
177	0xbefa7556	-0.48917645
178	0xbf08a24a	-0.53372633
179	0xbf18d0a0	-0.59693336
180	0xbf221725	-0.63316566
181	0xbf0fb58a	-0.5613638
182	0xbf1bd347	-0.6086926
183	0xbf1a690d	-0.60316545
184	0xbf160acc	-0.58610225
185	0xbf1231f8	-0.57107496
186	0xbf135039	-0.57544285
187	0xbf191a2e	-0.5980557
188	0xbf1af3d7	-0.6052832
189	0x3f1e01ea	0.6172167
190	0x3f11f3ee	0.5701283
191	0x3f2037c0	0.6258507
192	0x3f1fd440	0.6243324
193	0x3f142da7	0.5788216
194	0x3f23434b	0.63774556
195	0x3f1408b6	0.5782579
196	0x3f10a380	0.5649948
197	0x3f1e560d	0.61850053
198	0xbf1ffa4d	-0.62491304
199	0xbf17bc2b	-0.59271497
200	0xbf2139a2	-0.62978566
201	0xbf21a40f	-0.6314096
202	0xbf230ba6	-0.6368965
203	0xbf1310a9	-0.57447296
204	0xbf1c4ccf	-0.610547
205	0xbf15373d	-0.5828741
206	0xbf10a06a	-0.5649477
207	0xbf1bfe12	-0.60934556
208	0xbf1482fd	-0.5801237
209	0xbf1d44ca	-0.6143309
210	0xbf1b6793	-0.60704917
211	0xbf0f012b	-0.5586116
212	0xbf2427f1	-0.64123446
213	0xbf20ad09	-0.6276403
214	0xbf1f51e7	-0.6223435
215	0xbf23e7d5	-0.6402562
216	0xbf1c2ebd	-0.61008817
217	0xbf119067	-0.56860965
218	0xbf23f70b	-0.6404883
219	0xbf104205	-0.5635074
220	0xbf1f7bb2	-0.6229812
221	0xbf22c27d	-0.63578016
222	0xbf188761	-0.5958157
223	0xbf1b19b0	-0.6058607
224	0xbf11cdfc	-0.5695493
225	0x3f1e8e6f	0.61936086
226	0x3f236180	0.6382065
227	0x3f1926e4	0.5982497
228	0x3f22b574	0.63558125
229	0x3f1d44e1	0.61433226
230	0x3f15e33a	0.58549845
231	0x3f13174e	0.57457435
232	0x3f14492b	0.57924145
233	0x3f1b185a	0.6058403
234	0xbf1a4cb7	-0.6027331
235	0xbf1eb033	-0.6198761
236	0xbf14a609	-0.5806585
237	0xbf11fb54	-0.5702412
238	0xbf17c374	-0.5928261
239	0xbf2281a6	-0.6347908
240	0xbf1036b4	-0.5633347
241	0xbf181637	-0.594089
242	0xbf1cb5c2	-0.6121484
243	0x3f175fb9	0.59130436
244	0x3f11f489	0.57013756
245	0x3f1201bc	0.57033896
246	0x3f17f54d	0.59358674
247	0x3f107451	0.56427485
248	0x3f21a2ad	0.6313885
249	0x3f1507a2	0.5821477
250	0x3f19990d	0.5999916
251	0x3f15736d	0.5837925
252	0xbf16f63f	-0.5896949
253	0xbf12226c	-0.57083774
254	0xbf0fdaee	-0.56193435
255	0xbf160252	-0.5859729

module.Conv3.layers.0.bias f4 [64]
0	0x3ccbe2e0	0.024888456
1	0x3ca02d24	0.019552775
2	0xbcf8e246	-0.030381333
3	0xbd1eb69f	-0.03874838
4	0x3d5856ca	0.052817143
5	0x3ca63929	0.020290928
6	0x3d74fa20	0.05980885
7	0xbd9ae0bc	-0.07562396
8	0xbd9b0b13	-0.075704716
9	0x3dab6746	0.08369307
10	0xbd56abad	-0.052409817
11	0x3cfd9283	0.030953651
12	0xbdd0590c	-0.10173234
13	0xbd1e0cc2	-0.038586386
14	0x3ce9464e	0.028475907
15	0xbdd3d6d0	-0.103437066
16	0xbd5ac95e	-0.053414695
17	0xbdda4707	-0.10658079
18	0x3e2d22b3	0.16907768
19	0xbc8378e4	-0.016048856
20	0xbdd1b69a	-0.102399066
21	0xbc6e6d23	-0.014552387
22	0x3d11ac42	0.03556467
23	0xbe0da659	-0.13832988
24	0x3cd2b038	0.025718793
25	0xbd84992d	-0.064745285
26	0xbe1c012f	-0.15234827
27	0x3d11f432	0.035633273
28	0xbd075e56	-0.03304895
29	0x3d6e4159	0.05816779
30	0xbd265b12	-0.040614195
31	0xbd951e14	-0.072811276
32	0xbd258541	-0.040410284
33	0x3d3067be	0.043067686
34	0x3ca7e133	0.020493126
35	0xbd5560e7	-0.052094366
36	0x3ba7c309	0.0051196855
37	0xbde270bd	-0.11056659
38	0x3dc17585	0.09446243
39	0x3d01992a	0.03164021
40	0x3d1fdae5	0.039027113
41	0x3b237ec4	0.0024947384
42	0xbbdb947c	-0.0067010503
43	0xba398510	-0.0007077018
44	0x3d6ad04a	0.057327546
45	0x3bc9513d	0.0061437176
46	0x3b757381	0.003745288
47	0x3d316343	0.043307554
48	0xbd9ef1f3	-0.07760992
49	0xbd864bc9	-0.065574236
50	0x3d4b1f43	0.04959036
51	0xbc346141	-0.011009515
52	0x3dc6def0	0.09710491
53	0x3b8a87d3	0.0042276173
54	0x3e194d8b	0.14970987
55	0xbd808026	-0.062744424
56	0xbda815e6	-0.08207302
57	0xbda81682	-0.08207418
58	0x3db61008	0.088897765
59	0xbdc39bc0	-0.09551191
60	0xbda9548e	-0.08268081
61	0xbdc4fcf4	-0.096185595
62	0x3d38e43b	0.045139533
63	0x3cc58acb	0.024114033

module.Conv3.layers.1.weight f4 [64]
0	0x402767ed	2.6157181
1	0x3fb45c9c	1.4090762
2	0x3f58c49d	0.8467501
3	0x3fdcc622	1.7247965
4	0x3fbdf434	1.484015
5	0x3fe02d44	1.7513814
6	0x3fe55d6a	1.7919133
7	0x4002b01c	2.0419989
8	0x3e844dbe	0.25840563
9	0x3faf83f4	1.3712144
10	0x3ef8ffdb	0.48632702
11	0x3f7c1150	0.98463917
12	0x3f99e88b	1.2024091
13	0x3f999be5	1.20007
14	0x3f512864	0.81702256
15	0x3fb2a027	1.3955125
16	0x3f039e35	0.5141328
17	0x3f9e03d0	1.2344913
18	0x400dc6fe	2.2152705
19	0x3f79ab94	0.9752743
20	0xbfc0f34d	-1.507425
21	0x3fa3397d	1.2751919
22	0x3f899a31	1.075018
23	0xbec9eeb1	-0.3943992
24	0x3f81be39	1.0136176
25	0x40108c8a	2.2585778
26	0xbeb57bad	-0.3544592
27	0xbf118914	-0.5684979
28	0x3eb1fe5b	0.3476437
29	0x3f4ac3c3	0.7920496
30	0x3fb6e747	1.428933
31	0x3fec3f9f	1.8456916
32	0x3f49bd41	0.78804404
33	0x3f51419d	0.8174074
34	0x3fc118f5	1.5085741
35	0x3eda243a	0.42605764
36	0x3f076ff5	0.5290521
37	0xbead45aa	-0.33842212
38	0x3f580e93	0.8439724
39	0x3ed4c5bc	0.4155711
40	0x3f2548ab	0.6456401
41	0x3e8771bd	0.26453963
42	0x3e763332	0.24042967
43	0x3fd8a135	1.6924196
44	0xbd88e9c8	-0.06685215
45	0x3f69a888	0.91272783
46	0x3f8d6ce7	1.1048859
47	0x3f83fe5d	1.0312
48	0x3f999c80	1.2000885
49	0x3fae38cb	1.3611082
50	0x401bdafe	2.4352412
51	0x3f1e1830	0.6175566
52	0x3fa3284d	1.2746674
53	0x3ffa4908	1.9553537
54	0x3fcec637	1.615424
55	0x3fa20c87	1.2660073
56	0x3fd0f8d8	1.6325941
57	0x3f84ace0	1.0365257
58	0x3fb9420a	1.4473279
59	0xbf7a4c01	-0.9777222
60	0xbec6f3ed	-0.38857976
61	0x3fb1a915	1.3879725
62	0x3ef2e3e2	0.47439486
63	0x3e934143	0.28760728

module.Conv3.layers.1.bias f4 [64]
0	0x3e432204	0.19055945
1	0xbf24948c	-0.64289165
2	0xbfdb42e8	-1.7129793
3	0xbe8c8df4	-0.27452052
4	0xbec0647c	-0.37576663
5	0x3f50821b	0.81448525
6	0x3f127285	0.5720599
7	0xc00b6d27	-2.1785371
8	0xbfdf99f9	-1.7468864
9	0xbdbccad5	-0.09218375
10	0x404e154d	3.22005
11	0x3f83c8cb	1.0295652
12	0x3f450fe9	0.769774
13	0xc009745d	-2.1477273
14	0xbfa6bd82	-1.3026583
15	0x3df2c0a7	0.11853152
16	0xbfc43929	-1.5329944
17	0xbfef2cf9	-1.86856
18	0xbf2b5eb3	-0.66941375
19	0xbf3ad743	-0.72984713
20	0xbf15c4b8	-0.58503294
21	0xbe2092c7	-0.15680991
22	0xbe15dfc4	-0.14636141
23	0x401f0c47	2.4851243
24	0xbf468834	-0.7755158
25	0xbf85f24b	-1.0464567
26	0xbff82a6d	-1.9387947
27	0xbf6de1aa	-0.9292246
28	0xc0393537	-2.893873
29	0xbfac075c	-1.3439746
30	0x3ca282bb	0.019837728
31	0x3f325f97	0.6967711
32	0xbe99a182	-0.30006033
33	0x3f5b75b3	0.8572647
34	0xbf28f743	-0.6600229
35	0x405ed697	3.4818475
36	0x3feb02b7	1.8360204
37	0xc022a38c	-2.541232
38	0xbfb0a532	-1.3800414
39	0x404115cd	3.0169556
40	0xbc9d12f0	-0.01917407
41	0x4001881d	2.0239327
42	0xbfdf368f	-1.7438525
43	0xbde128b1	-0.109940894
44	0xc01906d7	-2.3910425
45	0x3d3bcf1e	0.04585182
46	0xbe21b413	-0.15791349
47	0xbeb74355	-0.35793558
48	0x3fbff1c7	1.499566
49	0x3f28b786	0.65905035
50	0xbf21a6f5	-0.6314538
51	0x3ea8c0be	0.3295955
52	0xbeea0fee	-0.45715278
53	0xbe1b4d01	-0.15166093
54	0x3e6d8046	0.23193464
55	0xbf8a4e30	-1.0805111
56	0x3e2f67d4	0.17129451
57	0xbf68ff33	-0.91014403
58	0x3f58347e	0.84455097
59	0xbfea85a1	-1.832203
60	0x3fe8e3ec	1.8194556
61	0xbf736f2c	-0.9509151
62	0xc046aa0c	-3.1041288
63	0x3fd1dbe9	1.6395236

module.Conv3.layers.1.running_mean f4 [64]
0	0xc29da668	-78.82501
1	0xc2930e5a	-73.52803
2	0x42b65a3c	91.17624
3	0xc2888f79	-68.28022
4	0xc2cbd0c7	-101.90777
5	0xc29d1697	-78.54412
6	0x42a0a853	80.32876
7	0x426047a2	56.069954
8	0x42873239	67.59809
9	0xc2736844	-60.85182
10	0xc2cbeed7	-101.966484
11	0x42d970f4	108.72061
12	0xc2d43915	-106.11149
13	0xc2a5a7c8	-82.8277
14	0x42720ec9	60.51444
15	0x42b03d4f	88.11974
16	0xc2934b8a	-73.64754
17	0x428df1e2	70.97243
18	0x4281881e	64.765854
19	0xc2628ee7	-56.639553
20	0x42a6b9c2	83.36281
21	0xc22dd8bf	-43.461666
22	0x428432e3	66.09939
23	0xc26b2086	-58.78176
24	0xc2bd2b21	-94.584236
25	0x421f4c33	39.824413
26	0x42a20485	81.00883
27	0x426d8b88	59.38626
28	0x42d9ff5b	108.99874
29	0x4297d8d8	75.92352
30	0xc2807096	-64.219894
31	0xc2c4fe0e	-98.4962
32	0x4213efa5	36.984028
33	0xc26e334c	-59.550095
34	0xc2d64777	-107.13958
35	0xc2c28992	-97.26869
36	0x41df82d8	27.938889
37	0xc2107fb7	-36.12472
38	0xc2874fb9	-67.65571
39	0xc264e5af	-57.2243
40	0xc2bed641	-95.418465
41	0xc27fb2a6	-63.92446
42	0xc2cd33ac	-102.60092
43	0xc297142e	-75.53941
44	0x42790b24	62.26088
45	0xc3089c21	-136.60988
46	0xc2a36d4e	-81.713486
47	0xc216d06a	-37.70353
48	0xc296d5a7	-75.41729
49	0xc22f85b8	-43.880585
50	0x4182cd93	16.350378
51	0x42b4b49a	90.35274
52	0x4282a79d	65.32737
53	0xc264b0d4	-57.172684
54	0x42a9a2ed	84.818214
55	0xc2c7a5d5	-99.82389
56	0xc28c1d4e	-70.057236
57	0x42a9859b	84.76095
58	0x431af240	154.94629
59	0xc308e51a	-136.89493
60	0xc2bfc42a	-95.88313
61	0xc2db1d04	-109.55667
62	0x4290bf4d	72.373634
63	0xc2a169f7	-80.70696

module.Conv3.layers.1.running_var f4 [64]
0	0x45835464	4202.549
1	0x45a9a722	5428.8916
2	0x45a7fefb	5375.8726
3	0x44d913bd	1736.6168
4	0x4544c490	3148.2852
5	0x4488ccc3	1094.3988
6	0x451bd4c1	2493.297
7	0x455c8ae6	3528.6812
8	0x44bbd1fc	1502.562
9	0x456a694e	3750.5815
10	0x452820a5	2690.0403
11	0x457ce919	4046.5686
12	0x4537b8e7	2939.5564
13	0x45513932	3347.5747
14	0x45069abb	2153.6707
15	0x44b2e74c	1431.228
16	0x45654de3	3668.868
17	0x447c9780	1010.3672
18	0x447ba43e	1006.5663
19	0x44de3914	1777.7837
20	0x44a1ca96	1294.3308
21	0x44e5629d	1835.0817
22	0x4537b910	2939.5664
23	0x448369e5	1051.3092
24	0x453de5d7	3038.365
25	0x44e6f11a	1847.5344
26	0x4570b148	3851.08
27	0x45802b2c	4101.3965
28	0x45a6f343	5342.4077
29	0x45486358	3206.209
30	0x4474ea3f	979.6601
31	0x459f7471	5102.555
32	0x4442253f	776.582
33	0x4558d142	3469.0786
34	0x4526c5e4	2668.3682
35	0x4571d573	3869.3406
36	0x4614682e	9498.045
37	0x45d6a887	6869.066
38	0x4589e4ec	4412.615
39	0x45b0efa6	5661.956
40	0x45120729	2336.4475
41	0x4550c3ac	3340.2295
42	0x4538a0fb	2954.0613
43	0x455aa2d7	3498.1775
44	0x43f60cc0	492.0996
45	0x464d5291	13140.642
46	0x45a86b75	5389.432
47	0x440b8da6	558.21326
48	0x44a75ced	1338.9039
49	0x44948011	1188.0021
50	0x45ad4588	5544.6914
51	0x4562ba3c	3627.6396
52	0x44cf8ca2	1660.3948
53	0x4509b52c	2203.3232
54	0x44f4972d	1956.7242
55	0x460404e1	8449.22
56	0x4597b95f	4855.1714
57	0x455c7289	3527.1584
58	0x46939464	18890.195
59	0x458f12e1	4578.36
60	0x4606f4c6	8637.193
61	0x45c7bbdb	6391.482
62	0x44ee0259	1904.0734
63	0x44a248fd	1298.2809

module.Conv4.layers.0.weight f4 [64, 64, 3, 3]
0	0x3f15f45d	0.58575994
1	0xbf343fd1	-0.70409876
2	0x3f1965fd	0.59921247
3	0x3f0e4d4b	0.5558669
4	0x3f1f7456	0.6228689
5	0x3f0ef35a	0.55840075
6	0x3f16f3aa	0.5896555
7	0x3f0f6527	0.5601372
8	0x3f200630	0.6250944
9	0xbf1eebcd	-0.62078553
10	0xbf15b45d	-0.5847834
11	0xbf1bd03f	-0.60864633
12	0xbf0ec4d0	-0.5576906
13	0xbf10235f	-0.5630397
14	0xbf1fb011	-0.6237803
15	0xbf18bbab	-0.5966136
16	0xbf1a1d09	-0.60200554
17	0xbf1700a3	-0.58985347
18	0x3f1cc6eb	0.61241025
19	0x3f1fb76b	0.6238925
20	0x3f73b7b7	0.952022
21	0x3f2611ac	0.64870715
22	0x3f1efa52	0.6210071
23	0x3f20318a	0.6257559
24	0x3f270963	0.652487
25	0x3f26ddde	0.6518229
26	0x3f297d30	0.66206646
27	0xbf0fb910	-0.5614176
28	0xbf11ee27	-0.57004017
29	0xbf1f4a60	-0.6222286
30	0xbf148320	-0.5801258
31	0xbf17ddc9	-0.5932279
32	0xbf1ce926	-0.61293256
33	0xbf12e73e	-0.573841
34	0xbf1cf60c	-0.6131294
35	0xbf1287fe	-0.5723876
36	0xbf145b49	-0.5795179
37	0xbf1f236c	-0.62163424
38	0xbf12d7fb	-0.5736081
39	0xbf20e9b3	-0.62856597
40	0xbf141bca	-0.578549
41	0xbf1590e9	-0.5842424
42	0xbf1ba9c6	-0.6080593
43	0xbf214310	-0.62992954
44	0xbf0f9add	-0.5609568
45	0xbf16d14c	-0.5891311
46	0xbf199944	-0.5999949
47	0xbf144d06	-0.5793003
48	0xbf1ecd02	-0.6203157
49	0xbf0b77c4	-0.5447962
50	0xbf0aaf63	-0.5417387
51	0xbf0dc309	-0.55375725
52	0xbf1b85fb	-0.6075131
53	0xbf173ff1	-0.5908194
54	0xbf18bae2	-0.5966016
55	0xbf1a3df7	-0.602508
56	0xbf14c4b0	-0.5811262
57	0xbf3589d8	-0.7091346
58	0xbf218b4d	-0.6310318
59	0xbf185ed7	-0.59519714
60	0xbf1f76ad	-0.6229046
61	0xbf1a2515	-0.6021283
62	0xbf130069	-0.574225
63	0xbf1de54f	-0.6167802
64	0xbf20b7c9	-0.62780434
65	0xbf20359a	-0.6258179
66	0xbf210057	-0.62891144
67	0xbf11eca5	-0.57001716
68	0xbf12305c	-0.5710504
69	0xbf136b91	-0.5758601
70	0xbf20d758	-0.6282859
71	0xbf1ed1cd	-0.6203888
72	0x3f202d2b	0.6256892
73	0x3f244f0e	0.6418313
74	0x3f13caee	0.5773152
75	0x3f0fbc0f	0.5614633
76	0x3f19a73f	0.6002082
77	0x3f102fb0	0.56322765
78	0x3f24a6d2	0.6431705
79	0x3f229352	0.6350604
80	0x3f0e6dfd	0.5563658
81	0xbf176917	-0.5914473
82	0xbf1e2c44	-0.61786294
83	0xbf2af8be	-0.667858
84	0xbf20d44d	-0.62823945
85	0xbf1e62ff	-0.61869806
86	0xbf3aad9b	-0.7292115
87	0xbf18fe5c	-0.5976312
88	0xbf152126	-0.58253706
89	0xbf1680c1	-0.5879021
90	0xbf44810c	-0.7675941
91	0x3f0bb5b5	0.5457414
92	0x3f18ed43	0.5973703
93	0x3f15045f	0.58209795
94	0x3f1ca9d5	0.61196643
95	0x3f0a5fb3	0.54052275
96	0x3f18d357	0.5969748
97	0x3f0aacb7	0.5416979
98	0x3ef0f340	0.47060585
99	0x3f200d50	0.62520313
100	0x3f0f18d1	0.5589724
101	0x3f1c1122	0.6096364
102	0x3f1deb3d	0.6168707
103	0x3f1950b9	0.598888
104	0x3f20abca	0.6276213
105	0x3f23a7b8	0.63927794
106	0x3f10c7eb	0.5655505
107	0x3f0f9c2e	0.56097686
108	0x3f1366db	0.5757882
109	0x3ee10604	0.43949902
110	0xbf2124d0	-0.62946796
111	0x3f108c94	0.56464505
112	0x3cc945c3	0.024569398
113	0xbf22b58f	-0.63558286
114	0x3f111989	0.5667959
115	0x3f149fb1	0.5805617
116	0xbf1e9de3	-0.61959666
117	0x3f1f55b9	0.6224018
118	0xbf2322b6	-0.6372484
119	0xbf198484	-0.5996783
120	0xbf32ccad	-0.6984356
121	0xbf1cf7ec	-0.613158
122	0xbf2492ec	-0.64286685
123	0xbf1c2787	-0.60997814
124	0xbf18202c	-0.5942409
125	0xbf13758f	-0.57601255
126	0xbf1d84f7	-0.61531013
127	0xbf2b19a8	-0.66836023
128	0xbf220aff	-0.6329803
129	0xbf1b3541	-0.60628134
130	0xbf240299	-0.64066464
131	0xbf1731d1	-0.5906039
132	0xbf1cbe1e	-0.61227596
133	0xbf1fcb02	-0.6241914
134	0xbf1e45d0	-0.61825275
135	0xbf179252	-0.5920764
136	0xbf11a16c	-0.56886935
137	0xbf19e096	-0.60108316
138	0xbf1031fa	-0.5632626
139	0xbf227c85	-0.6347125
140	0xbf126712	-0.5718852
141	0xbf217ad4	-0.63078046
142	0xbf1db79c	-0.6160829
143	0xbf1a84ec	-0.6035907
144	0xbf0f5433	-0.5598785
145	0xbf0ec7df	-0.5577373
146	0xbf11270b	-0.567002
147	0xbf18af94	-0.5964291
148	0xbf1df7fb	-0.61706513
149	0xbf136443	-0.5757486
150	0xbf1e8df6	-0.61935365
151	0xbf203e32	-0.625949
152	0xbf19d89e	-0.60096157
153	0xbf12df48	-0.5737195
154	0xbf14c5cc	-0.58114314
155	0xbf206b31	-0.6266356
156	0xbf149dd1	-0.5805331
157	0xbf191f3d	-0.5981329
158	0xbf178500	-0.59187317
159	0xbf1345db	-0.57528466
160	0xbf166298	-0.5874419
161	0xbf1d9a92	-0.6156398
162	0x3f178c25	0.5919822
163	0xbf295cd5	-0.66157275
164	0xbf1caddc	-0.6120279
165	0x3f20fd81	0.62886816
166	0x3f1497fb	0.58044404
167	0xbf27e01c	-0.6557634
168	0x3f163782	0.5867845
169	0x3f20564a	0.62631667
170	0x3f1bdb87	0.6088185
171	0xbef42f87	-0.4769251
172	0xbf05aa95	-0.5221341
173	0xbf19277b	-0.5982587
174	0x3f9144e4	1.1349149
175	0xbeef4366	-0.46731108
176	0xbf08f722	-0.53502095
177	0xbf0f6077	-0.5600657
178	0xbf0b5126	-0.544207
179	0xbf1f876c	-0.6231601
180	0xbf0e3c0a	-0.5556036
181	0xbf108480	-0.5645218
182	0xbf109b27	-0.56486744
183	0xbf18e493	-0.59723777
184	0xbf109f41	-0.56493
185	0xbf17ea8b	-0.5934226
186	0xbf0b5a18	-0.5443435
187	0xbf15d6b6	-0.5853075
188	0xbf0b448e	-0.5440148
189	0x3f15ff5d	0.5859278
190	0x3f1e321f	0.6179523
191	0x3f10ae58	0.5651603
192	0x3f10c1f2	0.5654594
193	0x3f1534eb	0.5828387
194	0x3f1e323f	0.6179542
195	0x3f1797a4	0.5921576
196	0x3f1326f7	0.5748133
197	0x3f14dc58	0.5814872
198	0xbf179124	-0.5920584
199	0xbf2052f6	-0.6262659
200	0xbf1ad77e	-0.60485065
201	0xbf244a06	-0.6417545
202	0xbf160f7a	-0.58617365
203	0xbf2013b8	-0.6253009
204	0xbf213288	-0.6296773
205	0xbf1b76e5	-0.60728294
206	0xbf1dd356	-0.616506
207	0xbf1e512b	-0.618426
208	0xbf20e9a2	-0.62856495
209	0xbf11f06a	-0.5700747
210	0xbf10ebcb	-0.5660979
211	0xbf1f9318	-0.6233382
212	0xbf2101eb	-0.6289355
213	0xbf20c746	-0.6280407
214	0xbf210f1d	-0.62913686
215	0xbf131737	-0.574573
216	0xbf1b89f1	-0.60757357
217	0xbf1a46d8	-0.6026435
218	0xbf1416ad	-0.578471
219	0xbf0ea3bb	-0.5571858
220	0xbf211180	-0.6291733
221	0xbf0c7e5f	-0.54880327
222	0xbf14c84f	-0.58118147
223	0xbf1d218d	-0.6137932
224	0xbf145d1d	-0.5795458
225	0x3f1a5ff6	0.60302675
226	0x3f1d12fa	0.6135708
227	0x3f1a6767	0.6031403
228	0x3f184f90	0.594964
229	0x3f16a18e	0.5884026
230	0x3f1985da	0.59969866
231	0x3f113cb4	0.5673325
232	0x3f11f250	0.57010365
233	0x3f0bee06	0.5466007
234	0xbf14b54b	-0.5808913
235	0xbf277038	-0.6540561
236	0xbf25f987	-0.64833874
237	0xbf198918	-0.59974813
238	0xbf274af1	-0.65348727
239	0xbf2206f7	-0.6329188
240	0xbf278167	-0.6543183
241	0xbf16ae53	-0.5885975
242	0xbf1fa646	-0.6236309
243	0x3f23882e	0.6387967
244	0xbf28fed1	-0.6601382
245	0xbf12cb91	-0.5734187
246	0x3f11e5d5	0.5699132
247	0xbf16aacc	-0.58854365
248	0xbf26fa5e	-0.6522578
249	0x3f08f085	0.53492004
250	0xbf178b35	-0.5919679
251	0xbf18341f	-0.5945453
252	0xbf132a84	-0.5748675
253	0xbf11dbdc	-0.56976104
254	0x3f2a753f	0.66585153
255	0x3f291b53	0.6605732
