DIDFuse/saved_models/encoder/VIS_AE6.pth (torch, 460028 bytes, 24 tensors)

module.Conv1.layers.1.weight f4 [64, 1, 3, 3]
0	0x3f256344	0.6460459
1	0x3e91a3d6	0.2844531
2	0x3f20a905	0.62757903
3	0x3f143260	0.57889366
4	0x3f2b3a3b	0.6688573
5	0x3ebeee69	0.37291268
6	0x3f17f460	0.5935726
7	0x3f5ad97d	0.8548811
8	0x3f168f4c	0.58812404
9	0xbf3ebae4	-0.7450392
10	0xbf266dcf	-0.65011305
11	0xbf5c06db	-0.8594796
12	0xbf4a0984	-0.7892077
13	0xbeac82f5	-0.33693662
14	0xbe9536b0	-0.29143286
15	0xbe9a30ab	-0.30115256
16	0xbe9fd737	-0.31218883
17	0xbf129200	-0.5725403
18	0xbf22b60f	-0.6355905
19	0xbf2cdd71	-0.6752539
20	0xbefcf487	-0.4940531
21	0xbf4d3bf3	-0.801696
22	0x3f2f2b89	0.68425804
23	0xbf66f3d3	-0.90215796
24	0xbed1d35b	-0.40981564
25	0x3e818b5b	0.25301632
26	0x3f208b7b	0.6271283
27	0xbfcbc225	-1.5918623
28	0xbf63d38b	-0.88994664
29	0xbf85810f	-1.043001
30	0x3d8ca841	0.068680294
31	0x3eaeb458	0.34121966
32	0xbe294ce0	-0.16533232
33	0xbf88cce8	-1.0687532
34	0xbe6d170c	-0.23153323
35	0xc02aec71	-2.6706812
36	0xbf6d500a	-0.92700255
37	0xbf614b52	-0.88005555
38	0xbf7ad5d6	-0.9798254
39	0x3cb41d46	0.021986615
40	0x3ca8d53b	0.020609489
41	0xbe33d7ce	-0.17562792
42	0x3e69fb36	0.22849736
43	0x3f3de5b6	0.74178636
44	0x3eb5f0d9	0.35535315
45	0x3e974483	0.29544458
46	0x3f24791c	0.642473
47	0x3f693b8b	0.9110648
48	0x3f09cdc7	0.53829616
49	0x3ed07e7f	0.4072151
50	0x3ed8cbc7	0.4234297
51	0x3f083ed0	0.53220844
52	0x3f6cb204	0.9245913
53	0x3f4bce6d	0.79611856
54	0xbf1f0a35	-0.6212495
55	0xbf15c5ff	-0.58505243
56	0xbec22f99	-0.3792694
57	0xbe666cb1	-0.225024
58	0xbe8a0e8a	-0.26964217
59	0xbf69a624	-0.91269135
60	0x3ef49b41	0.477747
61	0x3edcdaf5	0.431358
62	0xbf399789	-0.7249685
63	0xbf3cddd9	-0.7377601
64	0xbf4289bf	-0.75991434
65	0xbf326368	-0.6968293
66	0xbef123c3	-0.47097597
67	0xbf39f5e9	-0.72640854
68	0xbed84167	-0.42237398
69	0xbf030ecf	-0.5119447
70	0xbe8bf0ae	-0.27332062
71	0xbf09640a	-0.5366827
72	0xbf919649	-1.1373988
73	0xbf9923d7	-1.1964062
74	0xbfb73089	-1.4311687
75	0xbe19fe9e	-0.15038535
76	0x3e91fd37	0.285135
77	0x3e6e77b3	0.23287849
78	0xbf1bcc53	-0.6085865
79	0x3ddcd439	0.10782666
80	0x3e904eea	0.28185207
81	0x3eecc23b	0.46241936
82	0x3e924ab5	0.28572622
83	0x3f3a22fd	0.7270964
84	0x3f48c484	0.7842486
85	0x3f606f37	0.876697
86	0x3f2dcd7b	0.67891663
87	0x3f51e422	0.8198873
88	0x3eb09255	0.34486642
89	0x3f0de8fc	0.5543363
90	0xbe57fccf	-0.21092533
91	0xbd9a8852	-0.07545532
92	0xbf2abbf6	-0.66693056
93	0x3e2af5bf	0.16695307
94	0x3faa577a	1.3307946
95	0x3f7d16b4	0.9886277
96	0xbeedaa36	-0.46418923
97	0x3ee9032c	0.45510232
98	0x3cec80ca	0.028870005
99	0xbf2b59ce	-0.66933906
100	0xbedc2a40	-0.43000984
101	0x3f47f5a8	0.78109217
102	0xbf594d69	-0.84883744
103	0xbeb3ac41	-0.35092357
104	0xbf26fcea	-0.65229666
105	0xbf20d7e7	-0.6282944
106	0xbecc9e41	-0.39964488
107	0xbf389e6c	-0.7211673
108	0x3eb08743	0.34478197
109	0xbeabf27b	-0.33583435
110	0xbe9bd92d	-0.3043913
111	0x3f66559d	0.89974385
112	0x3f83ca98	1.0296202
113	0x3f8a3e71	1.0800306
114	0x3f2d5084	0.6770098
115	0x3eb438e0	0.35199642
116	0x3f208cdf	0.6271495
117	0x3f6c1698	0.92221975
118	0x3f896302	1.073334
119	0x3f5a30ef	0.85230917
120	0x3e6f377d	0.23361011
121	0x3ed3f577	0.41398212
122	0x3e956355	0.29177347
123	0x3d388071	0.045044366
124	0xbe88c9e9	-0.26716545
125	0xbeba2761	-0.3635817
126	0xbeaf74ee	-0.34268898
127	0x3e84e2a4	0.25954163
128	0x3cac56e3	0.021037525
129	0x3f1954aa	0.5989481
130	0x3fbb1a72	1.4617445
131	0x3f57594b	0.84120625
132	0xbea4807a	-0.3212927
133	0x3ecef882	0.4042397
134	0xbf132408	-0.57476854
135	0x3f7e6008	0.9936528
136	0x3f33eb48	0.70280886
137	0x3f9b9fb4	1.2158113
138	0x3f072589	0.5279165
139	0x3e70c3d1	0.23512198
140	0x3f3e517a	0.74343073
141	0x3d972030	0.07379186
142	0xbf047e13	-0.51754874
143	0x3cbaee66	0.022818755
144	0x3c26020d	0.010132325
145	0x3e369ef2	0.1783407
146	0x3f5a71a8	0.85329676
147	0xbe5e7847	-0.2172557
148	0x3f92eba8	1.1478167
149	0x3f7ed07f	0.9953689
150	0xbdec0130	-0.11523664
151	0xbe03f60a	-0.12886825
152	0x3fd68817	1.6760281
153	0xbf4b4cd5	-0.7941411
154	0x3f0c7972	0.5487281
155	0x3ebeed68	0.37290502
156	0xbef666c5	-0.48125282
157	0xbf0972ae	-0.5369061
158	0xbf5fbcd8	-0.8739753
159	0xbf25638d	-0.6460503
160	0xbf29306a	-0.660895
161	0xbf4eb137	-0.8073916
162	0xbe8cc518	-0.2749412
163	0x3ed38e5a	0.41319543
164	0xbe9e5ff5	-0.30932584
165	0x3f901225	1.1255537
166	0x400b0749	2.1723197
167	0x3e41cdc3	0.18926148
168	0x3dfcd41b	0.123451434
169	0x3f687e5b	0.90817803
170	0xbf2def00	-0.6794281
171	0xbe1a1765	-0.15047987
172	0x3f7b6e31	0.98215014
173	0x3eba5241	0.3639088
174	0xbec7a326	-0.3899166
175	0x3ffe2dd4	1.9857736
176	0x3f51573a	0.8177372
177	0xbebff32b	-0.3749021
178	0xbe798c95	-0.24370034
179	0x3f8966de	1.0734518
180	0x3ecc65b9	0.39921358
181	0xbe4b7b9f	-0.19871376
182	0xbf79d9de	-0.97598064
183	0x3f9cba53	1.2244362
184	0x4008a454	2.1350298
185	0x3f6fd557	0.93684906
186	0x3ef6f235	0.48231664
187	0x3fbe8898	1.4885435
188	0x3f33ce50	0.7023668
189	0x3f34950e	0.7053994
190	0x3f42f646	0.76157033
191	0x3ef790d2	0.48352677
192	0x3f26d137	0.65162987
193	0x3f875d3a	1.0575325
194	0x3f63cf72	0.8898841
195	0x3d694e81	0.056959633
196	0x3e2d343a	0.16914454
197	0xbe60f852	-0.21969727
198	0x3dbe400a	0.09289558
199	0xbe8ec492	-0.27884346
200	0x3f012963	0.50453776
201	0xbe6f0f0c	-0.23345584
202	0xbe1ebdf6	-0.15502152
203	0xbe9c56ac	-0.30534875
204	0x400adfa6	2.1699004
205	0x3e91f2b9	0.28505495
206	0x401e11fb	2.4698474
207	0x3f1521ea	0.58254874
208	0x3e214315	0.15748246
209	0xbe850c4e	-0.2598595
210	0x3f98a12a	1.1924183
211	0x3ef726ac	0.48271692
212	0xbf1d4d45	-0.6144603
213	0x3f0bc5a4	0.5459845
214	0x3f683a57	0.9071402
215	0xbed1b7d3	-0.4096056
216	0x3ea7387b	0.3266028
217	0x3f34953a	0.705402
218	0x3eb06c25	0.34457508
219	0x3f5ba966	0.85805357
220	0x3ec32cd0	0.38120127
221	0x3eff5582	0.49869925
222	0x3ea08800	0.3135376
223	0x3f525d8b	0.82173985
224	0x3f5c6c5b	0.8610284
225	0xbf6f24a9	-0.93415314
226	0xbe9e3c45	-0.30905357
227	0xbf28a3a6	-0.6587471
228	0xbf3a87c7	-0.7286343
229	0xbf349585	-0.7054065
230	0xbf4e69bc	-0.8063009
231	0x3e8f45a2	0.27982813
232	0x3f023213	0.5085766
233	0x3ec6b819	0.3881233
234	0x3f25e7cb	0.64806813
235	0x3e900975	0.28132215
236	0x3f9c0a37	1.2190617
237	0x3dbd7ac5	0.09251932
238	0xbf2556dc	-0.6458566
239	0xbe8e12d7	-0.2774875
240	0x3f030235	0.5117524
241	0xbf15bf1e	-0.58494747
242	0x3ce4165c	0.027842693
243	0x3eaaef36	0.33385628
244	0xbf8c2204	-1.0947881
245	0x3f9b6e82	1.2143099
246	0xbf3a11b2	-0.7268325
247	0xc014100c	-2.3134794
248	0xbf6ddf57	-0.92918915
249	0x3eb95258	0.36195636
250	0xbe71c20f	-0.23609184
251	0x3ee5e86f	0.44903895
252	0xbf06f463	-0.52716655
253	0xbf13557a	-0.575523
254	0xbf394249	-0.7236677
255	0x3f1066f3	0.5640709

module.Conv1.layers.1.bias f4 [64]
0	0xbee8d7dc	-0.45477188
1	0x3ef0ee2b	0.47056708
2	0x3f102c71	0.5631781
3	0xbeacaeeb	-0.33727202
4	0xbea12086	-0.31470126
5	0xbf375707	-0.7161717
6	0xbe16aeee	-0.14715168
7	0x3ead0b97	0.33797905
8	0x3f006467	0.501532
9	0xbe68a984	-0.22720915
10	0x3dfddc52	0.123955384
11	0xbd4e69aa	-0.050393738
12	0x3eda1f28	0.42601895
13	0x3e2286b7	0.15871702
14	0x3f1bc88b	0.6085288
15	0xbe447a60	-0.19187307
16	0x3e897477	0.26846668
17	0xbf04a8b1	-0.518199
18	0xbebb8ba2	-0.3662997
19	0x3f091d7e	0.53560627
20	0xbef09ffa	-0.46997052
21	0x3e5c9817	0.21542393
22	0x3f0848bc	0.53235984
23	0x3e62c349	0.22144808
24	0x3d8a342f	0.067482345
25	0xbe7d37d9	-0.24728335
26	0x3f078b6f	0.52947134
27	0x3edd964d	0.43278733
28	0xbf2f0180	-0.68361664
29	0xbf1c9829	-0.6116968
30	0xbebdf16c	-0.37098253
31	0xbe66eae9	-0.22550549
32	0xbe986679	-0.2976568
33	0xbe4c6b6a	-0.1996285
34	0xbbf87384	-0.00758213
35	0x3f38fc3f	0.72259897
36	0xbe88aa4a	-0.2669242
37	0xbf4e1027	-0.80493397
38	0x3e84f565	0.2596847
39	0xbe89b619	-0.26896742
40	0xbe5f5552	-0.21809891
41	0x3ea23f7e	0.31689066
42	0xbf1ad6b9	-0.6048389
43	0x3ecaf71e	0.3964166
44	0x3e729f19	0.23693503
45	0xbe0cc00a	-0.13745132
46	0xbe5061ce	-0.2034981
47	0x3e6cd410	0.2312777
48	0x3dd118cc	0.10209808
49	0x3f531173	0.824485
50	0xbbaff0b1	-0.005369269
51	0xbb83781f	-0.0040121223
52	0xbe4747b5	-0.19460948
53	0xbe94ef8c	-0.2908901
54	0x3ed9543d	0.4244708
55	0xbf36e138	-0.71437407
56	0xbe333989	-0.17502417
57	0xbed928d2	-0.42413956
58	0x3dc89d0e	0.09795581
59	0xbede3f64	-0.43407738
60	0x3e6226f1	0.22085167
61	0x3ef373ee	0.47549385
62	0x3e6be947	0.23038207
63	0xbe13912d	-0.14410849

module.Conv1.layers.2.weight f4 [64]
0	0x3eedc3ac	0.46438348
1	0x3ee59f08	0.44847894
2	0x3ed49f40	0.41527748
3	0x3fce3ad8	1.6111708
4	0x3e93d839	0.28875902
5	0x3fd15698	1.6354551
6	0x3e1d517f	0.1536312
7	0x3edfffac	0.4374975
8	0x3fb1cb2a	1.3890126
9	0x3f3f9349	0.74834114
10	0x3fdcbc7b	1.724502
11	0x3fd03cee	1.6268594
12	0x3ef54f92	0.4791227
13	0x3f1514ae	0.5823468
14	0x3fd63076	1.6733539
15	0x3f351265	0.7073119
16	0x3f0cf1bd	0.55056363
17	0x3e246baf	0.16056703
18	0x3fe8295f	1.8137625
19	0x3f5d60b1	0.86475664
20	0x4043ab8b	3.0573452
21	0x3f2c5844	0.6732218
22	0x3fffaac7	1.9973992
23	0x3fd30872	1.6486952
24	0x3f059ffc	0.5219724
25	0x3e8143e9	0.25247124
26	0x3ff79dc3	1.934502
27	0x3ff65055	1.9243265
28	0x3fd1c802	1.6389163
29	0x3fcd28b5	1.6028048
30	0x3fb5483e	1.4162672
31	0x3ebff163	0.3748885
32	0x3ef951af	0.48695132
33	0x3fbc878a	1.4728863
34	0x3e564813	0.20925932
35	0x3eff60dc	0.49878585
36	0x3fd65f31	1.67478
37	0x3fd287c9	1.6447688
38	0x3f7730f1	0.96559054
39	0x3f968372	1.1758864
40	0x3fd9dfa1	1.7021371
41	0x3fd9069a	1.695514
42	0x3fcc3639	1.5954047
43	0x3f45c41b	0.7725236
44	0x3fdf980e	1.7468278
45	0x3eac1f0e	0.33617443
46	0x3f1dee5f	0.6169185
47	0x3ed2dc50	0.4118371
48	0x3e6192ff	0.22028731
49	0x3fb2e598	1.3976316
50	0x3e7d8555	0.24757893
51	0x3fbc443c	1.4708323
52	0x3fad745c	1.3551135
53	0x3fd64137	1.6738652
54	0x3fb0d264	1.3814206
55	0x3fc9b4d9	1.5758315
56	0x3fa5bef3	1.2948898
57	0x3f1d9b0d	0.61564714
58	0x3e693424	0.22773796
59	0x3fd39a07	1.653138
60	0x3f0efc83	0.5585405
61	0x3fc73d13	1.5565513
62	0x3ec8b2c9	0.39198902
63	0x3f243691	0.6414576

module.Conv1.layers.2.bias f4 [64]
0	0xbeb7a4ce	-0.35867923
1	0xbf0be986	-0.54653203
2	0xbf14644d	-0.57965547
3	0x3f372c2a	0.71551764
4	0xbf3ce712	-0.73790085
5	0x3f06324b	0.5242049
6	0xbf4b4c89	-0.7941366
7	0xbf0bcee6	-0.54612577
8	0xbf499ecf	-0.7875795
9	0xbfb11ab3	-1.3836273
10	0xbd3f02f3	-0.046633672
11	0x3f8e2a91	1.110674
12	0xbf757b18	-0.9589095
13	0xbf55a537	-0.8345522
14	0x3f242f71	0.6413489
15	0xbe7806e9	-0.24221386
16	0xbf6bfffa	-0.92187464
17	0xbf364fda	-0.71215594
18	0x3e727880	0.2367878
19	0xbf5c3f68	-0.8603425
20	0xbefb178b	-0.490414
21	0xbf78f5eb	-0.9725024
22	0x3f2b5a84	0.6693499
23	0x3eda0f7b	0.42589936
24	0xbea31653	-0.3185297
25	0xbf41e8c5	-0.75745803
26	0x3f3bfa46	0.7342876
27	0x3fb7da88	1.4363565
28	0x3f548632	0.83017266
29	0x3edc7ac1	0.43062404
30	0x3e8ce79f	0.27520463
31	0xbf1f2fab	-0.6218211
32	0xbed50135	-0.41602483
33	0x3e27e8b0	0.16397357
34	0xbf328524	-0.69734406
35	0xbf14268b	-0.5787131
36	0x3f00c86c	0.5030582
37	0x3f0c6507	0.54841655
38	0xbfaf4774	-1.3693681
39	0xbdf2a649	-0.118481226
40	0x3ec4c62f	0.38432452
41	0x3f63adfa	0.8893734
42	0x3f016896	0.5055021
43	0xbf6bf68c	-0.92173076
44	0xbf9697c2	-1.1765063
45	0xbf2954e8	-0.6614518
46	0xbe0c27f1	-0.13687111
47	0xbf1c5a00	-0.6107483
48	0xbf30476a	-0.6885897
49	0x3ef1f2d2	0.4725557
50	0xbf49014e	-0.78517616
51	0x3ed5e734	0.41777956
52	0xbe9d8e64	-0.30772698
53	0xbf09323d	-0.5359228
54	0x3d04ff3c	0.032469973
55	0x3e02a2d3	0.12757425
56	0xbf20afda	-0.6276833
57	0x3e304a5f	0.1721587
58	0xbf45e838	-0.7730746
59	0x3ee2ffe3	0.4433585
60	0x3f152fb6	0.58275926
61	0xbf4251bd	-0.7590597
62	0xbf5d69aa	-0.86489356
63	0xbe4d57df	-0.20053051

module.Conv1.layers.2.running_mean f4 [64]
0	0xc038e0cd	-2.8887208
1	0x402f4039	2.7382948
2	0x3fd408c8	1.656518
3	0x4042a811	3.041508
4	0x3ed3d9c9	0.41377094
5	0xc0514ebd	-3.2704308
6	0x3f98ac79	1.1927634
7	0x402f28d4	2.736867
8	0x400b9198	2.1807613
9	0xc033d218	-2.809698
10	0xbe959d36	-0.29221505
11	0x3fe59550	1.7936192
12	0xbfcfa153	-1.6221107
13	0xbfab97ac	-1.3405662
14	0xbf0ad7be	-0.54235446
15	0xc002fd1f	-2.0466993
16	0xbfdfb372	-1.7476637
17	0x3fa58b7b	1.2933191
18	0xc00865ec	-2.1312208
19	0xbfa47633	-1.2848572
20	0xc0565ce0	-3.3494186
21	0xbff64cd8	-1.9242201
22	0xbfce0440	-1.6095047
23	0xbf832ca9	-1.0248004
24	0xc0146d05	-2.319154
25	0x3f91ff9f	1.1406134
26	0xbe28d667	-0.16488038
27	0x3fed7b5c	1.8553271
28	0x3e387387	0.1801282
29	0xbfd4cd23	-1.6625103
30	0x4003bb55	2.0583088
31	0x4012c9d5	2.2935688
32	0xbfecd2fd	-1.8501889
33	0x401a0d3c	2.4070578
34	0x3f98e475	1.194472
35	0x404eec14	3.233159
36	0xc01b0270	-2.4220238
37	0xbfd9731e	-1.6988256
38	0xbf8a4022	-1.0800822
39	0x40157cbc	2.3357382
40	0xbf841323	-1.031834
41	0x40420cd5	3.0320332
42	0xbfc3d4ad	-1.5299278
43	0xbf8a69f4	-1.0813584
44	0xc01be8d2	-2.4360852
45	0x3f462fd1	0.7741671
46	0xc0312d00	-2.7683716
47	0x4006440e	2.0979037
48	0x3fdbc90b	1.7170728
49	0x4059555f	3.3958356
50	0x400af932	2.1714597
51	0x3f7e26dc	0.99278045
52	0x402791ea	2.618281
53	0xc037052c	-2.8596907
54	0x401c4cc8	2.4421864
55	0xc051fe26	-3.281137
56	0xc03059d6	-2.7554832
57	0x40077eec	2.1171217
58	0x40359806	2.8374038
59	0xc0671105	-3.6104138
60	0xbf5bec7f	-0.8590774
61	0x40438d22	3.055489
62	0xbfdae9f8	-1.7102652
63	0xc0183bb4	-2.378644

module.Conv1.layers.2.running_var f4 [64]
0	0x40451b6b	3.0797985
1	0x402b0435	2.6721318
2	0x3f21c62c	0.6319301
3	0x40bc43b6	5.8832655
4	0x3e9ea876	0.309879
5	0x4058a789	3.3852255
6	0x3f71d83d	0.9447058
7	0x403f514d	2.9893372
8	0x3fbe9c8f	1.4891528
9	0x405e2bdc	3.471427
10	0x3e00a990	0.12564683
11	0x3fe3a277	1.7783955
12	0x400d63fb	2.2092273
13	0x3f98b43f	1.1930007
14	0x3f372ea3	0.71555537
15	0x3fe7ab57	1.8099164
16	0x4008334b	2.1281307
17	0x3fdc92b4	1.723227
18	0x3fd543cc	1.6661315
19	0x3fe089eb	1.7542089
20	0x408cc1c4	4.398653
21	0x401a0d40	2.4070587
22	0x401a1ffc	2.4082022
23	0x3f560817	0.83606094
24	0x403d731a	2.9601502
25	0x3f835824	1.0261273
26	0x3e8c03b2	0.2734657
27	0x3f8a1b3e	1.0789564
28	0x3ed4c8c8	0.41559434
29	0x3f21d177	0.63210243
30	0x40437020	3.0537186
31	0x405347c1	3.3012545
32	0x3fa00c36	1.2503726
33	0x40628fda	3.54003
34	0x3f43a652	0.7642566
35	0x4051a539	3.2757094
36	0x401dcb66	2.4655395
37	0x3ee9ee08	0.45689416
38	0x3f759e91	0.9594508
39	0x4061bac2	3.5270238
40	0x3ec9d8fb	0.39423355
41	0x4074137c	3.8136892
42	0x3ef3ac33	0.47592315
43	0x3f93c1f9	1.1543571
44	0x406dc872	3.7153592
45	0x3ee6cd7b	0.45078644
46	0x405b29c1	3.4244235
47	0x3fe93ac0	1.8221054
48	0x3faf4839	1.3693916
49	0x405bda29	3.4351904
50	0x401d52f7	2.4581888
51	0x3f03382f	0.51257604
52	0x4083d596	4.1198225
53	0x405c3a3c	3.4410543
54	0x400ff30e	2.24921
55	0x405b889b	3.4302127
56	0x405d6fc6	3.459947
57	0x4056f337	3.3585947
58	0x4079821a	3.8985658
59	0x40a904c3	5.2818313
60	0x3f21f118	0.63258505
61	0x405b61d8	3.427847
62	0x3ffa3724	1.9548078
63	0x402670cc	2.6006346

module.Conv2.layers.0.weight f4 [64, 64, 3, 3]
0	0xbf1b8878	-0.6075511
1	0xbf19b1a2	-0.6003667
2	0xbf1b2bf2	-0.6061393
3	0xbf22aaff	-0.6354217
4	0xbf1f1de8	-0.6215501
5	0xbf131490	-0.5745325
6	0xbf1445f5	-0.57919246
7	0xbf240837	-0.64075035
8	0xbf12f45b	-0.57404107
9	0x3f19b3a7	0.6003975
10	0x3f179fc3	0.5922815
11	0x3f0f6bf9	0.5602413
12	0x3f23e074	0.64014363
13	0x3f205a46	0.62637746
14	0x3f18caed	0.5968464
15	0x3f165ebe	0.58738315
16	0x3f11216e	0.56691635
17	0x3f0fdac0	0.5619316
18	0x3f16b181	0.588646
19	0x3f1d66a5	0.6148475
20	0x3f241cd9	0.6410652
21	0x3f132e14	0.57492185
22	0x3f1dfcf8	0.61714125
23	0x3f15c1a1	0.5849858
24	0x3f1af6c4	0.60532784
25	0x3f18e48a	0.5972372
26	0x3f1802b3	0.5937912
27	0x3f1de437	0.61676353
28	0x3f1c00b7	0.6093859
29	0x3f1cabe0	0.6119976
30	0x3f11e161	0.56984526
31	0x3f1dd76d	0.6165684
32	0x3f1dabae	0.6159009
33	0x3f1cb561	0.6121426
34	0x3f23ce10	0.639863
35	0x3f13c393	0.577203
36	0xbf228df1	-0.63497835
37	0xbf1621d1	-0.5864535
38	0xbf0fe088	-0.5620198
39	0xbf1f75c6	-0.62289083
40	0xbf15c553	-0.5850422
41	0xbf1b614b	-0.6069533
42	0xbf205c0d	-0.6264046
43	0xbf22156f	-0.63313955
44	0xbf183ecb	-0.59470814
45	0x3f23fb3c	0.6405523
46	0x3f1c8cd4	0.61152387
47	0x3f1a4b51	0.60271174
48	0x3f13431d	0.5752428
49	0x3f1c32ce	0.6101502
50	0x3f1aa70e	0.60411155
51	0x3f24423c	0.64163566
52	0x3f157706	0.5838474
53	0x3f1acfbe	0.6047324
54	0xbf1b87ed	-0.6075428
55	0xbf1cb7e9	-0.61218125
56	0xbf11b873	-0.5692207
57	0xbf190330	-0.5977049
58	0xbf16ba4a	-0.58878005
59	0xbf19878e	-0.59972465
60	0xbf1155e8	-0.5677171
61	0xbf15b992	-0.5848628
62	0xbf1ddbcb	-0.616635
63	0x3f23a2db	0.6392037
64	0x3f21c6b6	0.63193834
65	0x3f1c43c3	0.61040896
66	0x3f186c61	0.59540373
67	0x3f11d9d6	0.56973016
68	0x3f1be081	0.6088944
69	0x3f14c0ed	0.5810688
70	0x3f1b3b92	0.6063777
71	0x3f1c1d4d	0.6098221
72	0xbf10095c	-0.5626428
73	0xbf18d320	-0.5969715
74	0xbf1dccc0	-0.6164055
75	0xbf13eb8a	-0.5778128
76	0xbf21a723	-0.63145655
77	0xbf13ac0f	-0.57684416
78	0xbf22ec07	-0.636414
79	0xbf11ea8b	-0.5699851
80	0xbf16c05b	-0.5888726
81	0x3f1782ea	0.59184134
82	0x3f19c40c	0.6006477
83	0x3f1debd9	0.61688
84	0x3f142df1	0.578826
85	0x3f157aa4	0.5839026
86	0x3f1296bc	0.5726125
87	0x3f1f3953	0.62196845
88	0x3f185740	0.5950813
89	0x3f107851	0.5643359
90	0x3f200189	0.6250234
91	0x3f1120c3	0.56690615
92	0x3f195658	0.59897375
93	0x3f1448e8	0.57923746
94	0x3f1adac1	0.6049004
95	0x3f16c49b	0.58893746
96	0x3f18f70a	0.5975195
97	0x3f12b510	0.5730753
98	0x3f216a25	0.6305259
99	0x3f125407	0.57159466
100	0x3f182c18	0.5944228
101	0x3f233dc0	0.637661
102	0x3f158f93	0.584222
103	0x3f1dd9c3	0.61660403
104	0x3f1c24d9	0.60993725
105	0x3f16d32a	0.5891596
106	0x3f10cc8c	0.56562114
107	0x3f100952	0.5626422
108	0x3f20a6a0	0.6275425
109	0x3f1b00d2	0.60548127
110	0x3f23fac0	0.6405449
111	0x3f21e29d	0.6323641
112	0x3f153257	0.5827994
113	0x3f1784a2	0.59186757
114	0x3f0f2d15	0.55928165
115	0x3f10edc9	0.5661283
116	0x3f14f594	0.5818722
117	0x3f0f4e30	0.5597868
118	0x3f0f84ea	0.56062186
119	0x3f20ebe2	0.6285993
120	0x3f226a6f	0.63443655
121	0x3f1ed0c6	0.62037313
122	0x3f1cbbff	0.6122436
123	0x3f1fc8d8	0.6241584
124	0x3f12f96b	0.5741183
125	0x3f1b4141	0.60646445
126	0x3f2031f7	0.6257624
127	0x3f123adb	0.57121056
128	0x3f1a1e94	0.6020291
129	0x3f19c3bd	0.600643
130	0x3f16725f	0.58768266
131	0x3f206fbf	0.6267051
132	0x3f1a0865	0.6016906
133	0x3f19befc	0.60057044
134	0x3f1dc01d	0.61621267
135	0xbf1b84f3	-0.6074974
136	0xbf198483	-0.5996782
137	0xbf0f447e	-0.55963886
138	0xbf10e0c0	-0.5659294
139	0xbf112164	-0.56691575
140	0xbf137ad0	-0.5760927
141	0xbf2126da	-0.6294991
142	0xbf13568e	-0.57553947
143	0xbf13bd1c	-0.57710433
144	0x3f18be7c	0.59665656
145	0x3f194e68	0.59885263
146	0x3f221723	0.63316554
147	0x3f176adb	0.59147424
148	0x3f19d60c	0.60092235
149	0x3f1d16ce	0.6136292
150	0x3f1ce028	0.61279535
151	0x3f0f970b	0.5608985
152	0x3f21bdc3	0.6318018
153	0xbf116995	-0.5680173
154	0xbf18c548	-0.5967603
155	0xbf1c8ccf	-0.61152357
156	0xbf151d42	-0.5824777
157	0xbf14bff2	-0.58105385
158	0xbf17dc49	-0.59320503
159	0xbf17a9d5	-0.5924352
160	0xbf154700	-0.5831146
161	0xbf243794	-0.64147305
162	0x3f14b459	0.5808769
163	0x3f1a84e9	0.60359055
164	0x3f1efa64	0.62100816
165	0x3f16f5fd	0.589691
166	0x3f21c762	0.6319486
167	0x3f2460ad	0.64210016
168	0x3f1e43c2	0.6182214
169	0x3f2359e1	0.6380902
170	0x3f0f252d	0.559161
171	0x3f1b06e9	0.6055742
172	0x3f19564e	0.59897316
173	0x3f1480b2	0.58008873
174	0x3f216337	0.63042015
175	0x3f1552c2	0.58329403
176	0x3f19a40d	0.60015947
177	0x3f2306b1	0.63682085
178	0x3f22af69	0.63548905
179	0x3f19a080	0.6001053
180	0x3f21f4be	0.6326407
181	0x3f21a5fc	0.631439
182	0x3f12c728	0.5733514
183	0x3f228f12	0.6349956
184	0x3f1ab625	0.6043418
185	0x3f1cf680	0.6131363
186	0x3f22124e	0.6330918
187	0x3f15a263	0.5845091
188	0x3f0f9fa7	0.56102985
189	0x3f1a0dd8	0.60177374
190	0x3f18ba48	0.5965924
191	0x3f14b04c	0.5808151
192	0x3f124341	0.5713387
193	0x3f1246b5	0.5713914
194	0x3f169b44	0.58830667
195	0x3f0fa625	0.5611289
196	0x3f149faa	0.5805613
197	0x3f17b527	0.5926079
198	0xbf12f7f8	-0.5740962
199	0xbf10800c	-0.56445384
200	0xbf208680	-0.6270523
201	0xbf12c7f4	-0.57336354
202	0xbf179462	-0.5921079
203	0xbf153976	-0.58290803
204	0xbf22cc26	-0.63592756
205	0xbf127f28	-0.57225275
206	0xbf1b8338	-0.607471
207	0x3f22ac4c	0.63544154
208	0x3f1f849a	0.6231171
209	0x3f1a2499	0.60212094
210	0x3f1049d2	0.5636264
211	0x3f1418ad	0.5785015
212	0x3f14ed6a	0.58174765
213	0x3f180ab0	0.5939131
214	0x3f20760b	0.6268012
215	0x3f15d483	0.5852739
216	0xbf146cf4	-0.5797875
217	0xbf1e6927	-0.618792
218	0xbf226e3f	-0.6344947
219	0xbf1d32e1	-0.6140576
220	0xbf1fd106	-0.6242832
221	0xbf12ef1c	-0.573961
222	0xbf137ca8	-0.57612085
223	0xbf10ee41	-0.56613547
224	0xbf1a3667	-0.6023926
225	0xbf21f425	-0.6326316
226	0xbf22a910	-0.6353922
227	0xbf1f7515	-0.6228803
228	0xbf1fdf66	-0.62450254
229	0xbf1c46c6	-0.6104549
230	0xbf1b9a60	-0.6078243
231	0xbf140a4f	-0.5782823
232	0xbf15cd62	-0.58516514
233	0xbf12b8a9	-0.5731302
234	0xbf22320c	-0.63357615
235	0xbf0fc430	-0.56158733
236	0xbf1ef1e8	-0.6208787
237	0xbf0f8dad	-0.56075555
238	0xbf147c40	-0.5800209
239	0xbf18b839	-0.596561
240	0xbf187b47	-0.59563106
241	0xbf217950	-0.63075733
242	0xbf1bdbdc	-0.60882354
243	0xbf13518f	-0.57546324
244	0xbf1d6cee	-0.6149434
245	0xbf21bdc3	-0.6318018
246	0xbf167e8e	-0.5878686
247	0xbf1f1692	-0.62143815
248	0xbf18257f	-0.59432214
249	0xbf115bfc	-0.5678098
250	0xbf176fe0	-0.5915508
251	0xbf1e06d8	-0.6172919
252	0x3f132246	0.5747417
253	0x3f215210	0.6301584
254	0x3f1bf4f3	0.6092064
255	0x3f215265	0.6301635

module.Conv2.layers.0.bias f4 [64]
0	0xbc491c6b	-0.012274842
1	0xbe35a090	-0.17737031
2	0x3d30d741	0.043174032
3	0xbe5b3278	-0.21405971
4	0x3ec7281f	0.38897797
5	0xbda8478f	-0.08216774
6	0xbe0afe7d	-0.13573642
7	0xbe9479c9	-0.28999165
8	0x3d4d898b	0.05018
9	0x3d2998b0	0.04140538
10	0x3d8073a4	0.06272057
11	0xbd0290b7	-0.031876292
12	0x3e046562	0.129293
13	0xbdeb78f3	-0.114976786
14	0xbd6d9b53	-0.058009457
15	0xbc8ae350	-0.016954094
16	0xbdebc1b2	-0.11511554
17	0x3e0d1026	0.13775691
18	0xbe1da746	-0.15395841
19	0xbe5ddc97	-0.2166618
20	0xbe316555	-0.17323811
21	0x3e9b5aae	0.3034262
22	0xbdee4777	-0.116347246
23	0xbd34fe2b	-0.044187706
24	0x3e77e947	0.24210082
25	0x3d0d46df	0.034491416
26	0x3d05cd95	0.03266676
27	0xbd8e468b	-0.06947049
28	0x3e69a2db	0.2281603
29	0x3e3cf349	0.18452181
30	0xbd87270f	-0.06599247
31	0xbdf0f002	-0.11764528
32	0x3d100267	0.03515854
33	0x3e6e5dcf	0.23277973
34	0x3cfd43d7	0.030916138
35	0x3c1852bd	0.00929707
36	0xbe268840	-0.16262913
37	0xbe0859fd	-0.13315578
38	0x3da9cdc1	0.082911976
39	0x3c7af014	0.015316028
40	0x3dda74ba	0.10666795
41	0xbdc686ca	-0.09693678
42	0xbd417354	-0.047229126
43	0xbea0a5b7	-0.3137643
44	0xbc647e98	-0.013946198
45	0xbdb29b62	-0.08721043
46	0x3c598cf7	0.013278238
47	0xbd864121	-0.06555391
48	0x3e02e4f7	0.12782656
49	0x3d9f0518	0.077646434
50	0xbc8117cf	-0.015758423
51	0x3de1a38b	0.110175215
52	0x3d540652	0.05176384
53	0x3e11ecf1	0.14250542
54	0x3d902807	0.070388846
55	0xbd88cfd4	-0.06680265
56	0xbe026a25	-0.12735803
57	0x3e32a873	0.17447071
58	0xbdb9fee7	-0.09081822
59	0x3bdc00fc	0.0067139845
60	0xbe107947	-0.14108764
61	0xbe0653d5	-0.13117917
62	0x3db14bc7	0.086570315
63	0xbe1e39bb	-0.1545171

module.Conv2.layers.1.weight f4 [64]
0	0x3f82cf54	1.0219522
1	0x3e8d85bb	0.2764109
2	0x3fe392df	1.7779197
3	0x3ebb17cb	0.3654159
4	0x3ee07762	0.43841082
5	0x3fc0a523	1.5050396
6	0x3fb33c25	1.400273
7	0x3f01e836	0.5074495
8	0x3e7825b3	0.24233131
9	0x3f9be5c7	1.2179497
10	0x3fad6a9d	1.3548161
11	0x3cba2062	0.02272052
12	0x3f912e8a	1.1342328
13	0x3f355953	0.7083942
14	0x3f4c737d	0.7986372
15	0x3fcca6ec	1.598844
16	0x3e49860c	0.19680041
17	0x3eac6904	0.3367387
18	0x3f13de15	0.57760745
19	0x3fdf307b	1.743667
20	0x3fd27dc3	1.644463
21	0x3d2bc8ae	0.04193943
22	0x3f2c0e41	0.6720925
23	0x3f3325e6	0.69979703
24	0x3fe56ab0	1.7923183
25	0x3fb25023	1.3930706
26	0x4007e517	2.1233575
27	0x3fa2ba8b	1.2713178
28	0x40013269	2.0187018
29	0x3ead8fe0	0.3389883
30	0x3f299ca2	0.6625463
31	0x3f1ae33b	0.60502976
32	0x3ebc3c5d	0.36764804
33	0x3e853543	0.26017198
34	0x3fbe09fb	1.4846796
35	0x3f5b6426	0.8569969
36	0x3fb4dc55	1.412974
37	0x4016f212	2.3585248
38	0x3eb93c84	0.36178982
39	0x3f2e46fe	0.68077075
40	0x3f38793f	0.72060007
41	0x3fc774e0	1.5582542
42	0x3ef544af	0.47903964
43	0x3fc700fb	1.5547174
44	0x3f3ffdb7	0.74996513
45	0xbe9bda32	-0.30439907
46	0x3e8662c1	0.26247218
47	0x3fcbb925	1.5915877
48	0xbe5a412b	-0.21313922
49	0x3fc05676	1.5026386
50	0x3fa0be2d	1.2558037
51	0x3fe5be57	1.7948712
52	0x3fc547e8	1.5412569
53	0x3ff30d0b	1.8988355
54	0x3fc1dac7	1.514489
55	0x3fce9a64	1.6140866
56	0x4015463c	2.3324118
57	0x3ee32edf	0.44371697
58	0x3e8e7533	0.2782379
59	0x3f2b3e73	0.66892165
60	0x3f09b0c9	0.5378538
61	0x3fdb490e	1.713167
62	0x3fbdacc0	1.4818344
63	0x3ff7186c	1.9304328

module.Conv2.layers.1.bias f4 [64]
0	0xbf8db85c	-1.1071887
1	0xbf1404a1	-0.57819563
2	0x3f2ca7f8	0.674438
3	0xbf0459f2	-0.51699746
4	0xbef3811a	-0.47559434
5	0x3ea03297	0.31288597
6	0x3e0dd219	0.13849677
7	0xbf2e55d0	-0.6809969
8	0xbf14d2a8	-0.58133936
9	0xbf549ec0	-0.83054733
10	0x3ead411e	0.33838743
11	0xbf6a1ca0	-0.9144993
12	0x3e375907	0.17905055
13	0xbee4ca81	-0.44685748
14	0xbf8ec257	-1.1153058
15	0x3e7dd875	0.24789603
16	0xbebc78fa	-0.36811048
17	0xbf6f57bf	-0.93493265
18	0xbf4f36dc	-0.80943084
19	0x3f0fbc34	0.5614655
20	0xbe8119b7	-0.2521493
21	0xbf1dd541	-0.61653525
22	0xbc5f043b	-0.0136118485
23	0x3e8e96e8	0.27849507
24	0xbe00a64f	-0.12563442
25	0x3ecc65ec	0.3992151
26	0xc0402f64	-3.0028925
27	0x3e0f9c21	0.14024402
28	0xbf42dd80	-0.7611923
29	0xbf1d1340	-0.613575
30	0xbf7cde1b	-0.98776406
31	0xbfa36848	-1.2766199
32	0xbeb38b42	-0.35067183
33	0xbf0dc7ac	-0.553828
34	0x3e49c6a2	0.19704679
35	0xbd866ad3	-0.06563344
36	0x3bc7c0a9	0.006095965
37	0xbf0ec148	-0.55763674
38	0xbef7ab3d	-0.48372832
39	0xbecb45e9	-0.39701775
40	0xbecf1956	-0.40449017
41	0x3ef96702	0.487114
42	0xbf597450	-0.84943104
43	0x3ed6d69a	0.41960603
44	0x3eb75d45	0.35813347
45	0xbf80b97d	-1.0056607
46	0xbecc2ede	-0.39879507
47	0x3e8c3791	0.27386144
48	0xbf59049b	-0.8477265
49	0x3f0fec24	0.56219697
50	0x3e8c4a59	0.27400473
51	0x3facad7b	1.3490442
52	0x3f9a5846	1.2058189
53	0xc0185464	-2.3801508
54	0x3f473cf7	0.778274
55	0xbf80aaf8	-1.0052176
56	0xc0268899	-2.6020873
57	0xbfb971be	-1.4487836
58	0xbf537cbd	-0.8261221
59	0xbf321028	-0.695559
60	0xbd3c5d9e	-0.045987718
61	0x3e73e257	0.2381681
62	0x3f12a5e8	0.572844
63	0x3f019124	0.5061209

module.Conv2.layers.1.running_mean f4 [64]
0	0x426141fa	56.31443
1	0xc24ffafa	-51.995094
2	0x430f480d	143.28145
3	0xc262926c	-56.64299
4	0xc27f47ec	-63.820236
5	0x428266d5	65.20084
6	0xc2685c75	-58.09029
7	0xc257536a	-53.83146
8	0xc2d80e73	-108.02822
9	0x43374bdf	183.29637
10	0xc2bf006b	-95.50082
11	0x4266fe06	57.74807
12	0xc26072fb	-56.112286
13	0x4261fe38	56.49826
14	0x426046f8	56.069305
15	0x433274b5	178.45589
16	0x42194bce	38.324028
17	0xc21f61fe	-39.845695
18	0x42959e78	74.80951
19	0x4349f4c2	201.95609
20	0x42633859	56.805027
21	0xc2615bb4	-56.339554
22	0xc208d926	-34.21206
23	0xc1ba87fc	-23.316399
24	0x4267703c	57.859604
25	0xc2738392	-60.878487
26	0x428485ff	66.26171
27	0xc2131832	-36.77363
28	0x426ccc2e	59.199394
29	0xc30e9cb4	-142.61212
30	0x42b71c88	91.555725
31	0x434621eb	198.13249
32	0xc2c1eecf	-96.96642
33	0xc26de858	-59.4769
34	0xc226888d	-41.63335
35	0xc296968c	-75.29404
36	0x430a3c2b	138.23503
37	0x4304d889	132.84584
38	0xc3312763	-177.15385
39	0x434144c9	193.26869
40	0x433e3b96	190.23276
41	0x43526b94	210.42023
42	0x431200b6	146.00278
43	0x43496ad2	201.41727
44	0xc2ab38a0	-85.610596
45	0x423a5aed	46.588795
46	0xc2c2bb36	-97.36565
47	0x42d6a80e	107.32823
48	0x4346a7b0	198.65503
49	0x43072d39	135.17665
50	0x423c76cd	47.116016
51	0xc292db60	-73.42847
52	0xc2a498f8	-82.29877
53	0x4258afeb	54.171795
54	0xc2dbd682	-109.91896
55	0x43507aa1	208.47902
56	0x4339997c	185.59955
57	0xc0fabed2	-7.8357935
58	0x42373df4	45.8105
59	0xc2f96fdd	-124.71848
60	0xc310de3d	-144.86812
61	0x426db4e9	59.42667
62	0x43192766	153.1539
63	0xc2600608	-56.00589

module.Conv2.layers.1.running_var f4 [64]
0	0x45d10b07	6689.3784
1	0x4581fa9d	4159.3267
2	0x4643ff86	12543.881
3	0x45ccdc7f	6555.562
4	0x45cbe0e7	6524.113
5	0x4532722c	2855.1357
6	0x45c98b2d	6449.397
7	0x45cd628f	6572.32
8	0x459668bb	4813.0913
9	0x4664c7a3	14641.909
10	0x46023a0e	8334.514
11	0x45cbacad	6517.5845
12	0x45be5a3e	6091.2803
13	0x45cc60b9	6540.0903
14	0x45ccfc93	6559.572
15	0x4630dbf7	11318.991
16	0x443b3388	748.8052
17	0x43f4a273	489.26913
18	0x44b4c760	1446.2305
19	0x4694b8d0	19036.406
20	0x45cc9f40	6547.9062
21	0x45b714d0	5858.6016
22	0x45509964	3337.587
23	0x44f78bb7	1980.3661
24	0x459a5a3a	4939.2783
25	0x45b76e7f	5869.812
26	0x4587f0f7	4350.1206
27	0x453ad1ac	2989.1045
28	0x45cfb711	6646.8833
29	0x45da108b	6978.068
30	0x45c86753	6412.9155
31	0x4684dcea	17006.457
32	0x4547a03e	3194.0151
33	0x45cc2724	6532.8926
34	0x444bf868	815.88135
35	0x45998be6	4913.4873
36	0x464aa8bc	12970.184
37	0x45c05744	6154.908
38	0x4664598e	14614.389
39	0x468284ac	16706.336
40	0x46786f0d	15899.763
41	0x469930fb	19608.49
42	0x464ee28f	13240.64
43	0x46952610	19091.031
44	0x45da4947	6985.1597
45	0x44e13bb0	1801.8652
46	0x461590c4	9572.191
47	0x461aec96	9915.146
48	0x46842379	16913.736
49	0x4611e40d	9337.013
50	0x44b0a736	1413.2253
51	0x45104c12	2308.7544
52	0x44ba1980	1488.7969
53	0x45c71cbd	6371.5923
54	0x45822d85	4165.69
55	0x469702ff	19329.498
56	0x465d6325	14168.786
57	0x444633e1	792.8106
58	0x44d7ec3f	1727.3827
59	0x4632d07a	11444.119
60	0x46066786	8601.881
61	0x45c90a57	6433.2925
62	0x4618c982	9778.377
63	0x45cd04ec	6560.615

module.Conv3.layers.0.weight f4 [64, 64, 3, 3]
0	0x3f1597fb	0.5843503
1	0x3f22e5b5	0.63631755
2	0x3f106aea	0.5641314
3	0xbf0fb106	-0.5612949
4	0x3f185e3e	0.595188
5	0x3f195efa	0.5991055
6	0xbf21c951	-0.6319781
7	0xbf1c795e	-0.6112269
8	0xbf1b12ad	-0.6057537
9	0xbf1356e9	-0.5755449
10	0xbf178523	-0.59187526
11	0xbf17dbaf	-0.59319586
12	0xbf0fb524	-0.56135774
13	0xbf19d28d	-0.600869
14	0xbf15cf43	-0.5851938
15	0xbf16b211	-0.5886546
16	0xbf1d5e63	-0.6147215
17	0xbf1902fd	-0.59770185
18	0x3f1ad08f	0.60474485
19	0x3f139121	0.57643324
20	0x3f1cf128	0.61305475
21	0x3f1a6c51	0.6032153
22	0x3f2406c3	0.6407282
23	0x3f2519ad	0.64492303
24	0x3f1fcdcd	0.624234
25	0x3f1f47d1	0.6221896
26	0x3f138eef	0.57639974
27	0xbf126afd	-0.571945
28	0xbf17f34d	-0.5935562
29	0xbf1161ac	-0.5678966
30	0xbf14750f	-0.5799112
31	0xbf1ec001	-0.62011725
32	0xbf0fc67f	-0.56162256
33	0xbf1ef5ab	-0.6209361
34	0xbf0fb297	-0.5613188
35	0xbf13efb3	-0.57787627
36	0xbf11c35f	-0.5693874
37	0xbf1a197b	-0.6019513
38	0xbf12c2b7	-0.5732836
39	0xbf126672	-0.5718757
40	0xbf229396	-0.6350645
41	0xbf17ae20	-0.5925007
42	0xbf13609c	-0.5756929
43	0xbf16f95a	-0.5897423
44	0xbf1603de	-0.5859965
45	0xbf1def0f	-0.616929
46	0xbf1bbf1e	-0.60838497
47	0xbf238ab7	-0.6388354
48	0xbf179851	-0.5921679
49	0xbf19effe	-0.60131824
50	0xbf1809ec	-0.5939014
51	0xbf17fcc5	-0.5937007
52	0xbf1cce86	-0.6125263
53	0xbf162633	-0.5865204
54	0x3f19dfcc	0.6010711
55	0x3f1e7b00	0.61906433
56	0xbf0e016e	-0.5547093
57	0x3f110c56	0.5665945
58	0x3f2411f3	0.6408989
59	0x3f1bce6d	0.60861856
60	0x3f299af6	0.66252077
61	0x3f173031	0.5905791
62	0x3f174c87	0.59101146
63	0xbf1e2cb4	-0.6178696
64	0xbf1bc7da	-0.60851824
65	0xbf201eea	-0.6254717
66	0xbf1a7b2e	-0.6034421
67	0xbf202bee	-0.6256703
68	0xbf1e026f	-0.61722463
69	0xbf1c9868	-0.61170053
70	0xbf210a21	-0.6290608
71	0xbf24204a	-0.6411177
72	0x3f1e99f3	0.6195366
73	0x3f23c05b	0.63965386
74	0x3f20ae64	0.627661
75	0x3f1ca017	0.6118178
76	0x3f1329fb	0.5748593
77	0x3f14b651	0.5809069
78	0x3f107ad0	0.56437397
79	0x3f211b46	0.6293224
80	0x3f131eb3	0.5746872
81	0xbf132be0	-0.5748882
82	0xbf17f20e	-0.5935372
83	0xbf21a288	-0.6313863
84	0xbf0f5408	-0.55987597
85	0xbf14b3d7	-0.58086914
86	0xbf1c5f44	-0.61082864
87	0xbf1a64a9	-0.60309845
88	0xbf236dd1	-0.6383944
89	0xbf105b0f	-0.56388944
90	0x3f1a00f6	0.60157716
91	0x3f171b21	0.5902577
92	0x3f1e3e87	0.6181416
93	0x3f14688b	0.5797202
94	0x3f182936	0.5943788
95	0x3f11c167	0.56935734
96	0x3f241b60	0.6410427
97	0x3f14ef79	0.58177906
98	0x3f2342a8	0.63773584
99	0x3f17f2c9	0.59354836
100	0x3f1bb44c	0.60821986
101	0x3f1bb1bb	0.6081807
102	0x3f130a15	0.5743726
103	0x3f181a7a	0.594154
104	0x3f1c024b	0.60941
105	0x3f194023	0.5986349
106	0x3f14c3cc	0.5811126
107	0x3f10258e	0.56307304
108	0x3f13a9ba	0.5768086
109	0x3f20b24d	0.62772065
110	0x3f234ab2	0.6378585
111	0x3f137969	0.5760713
112	0x3f190e23	0.59787196
113	0x3f2191a3	0.6311285
114	0x3f125c10	0.57171726
115	0x3f1a3404	0.6023562
116	0x3f11924f	0.56863874
117	0xbf1058ac	-0.563853
118	0xbf1be134	-0.6089051
119	0xbf205d0d	-0.62641984
120	0xbf10e984	-0.56606317
121	0xbf1c0ec8	-0.60960054
122	0xbf1fe0c4	-0.6245234
123	0xbf0f1fc7	-0.55907863
124	0xbf130cc1	-0.57441336
125	0xbf0f980d	-0.56091386
126	0xbf1286e4	-0.57237077
127	0xbf1cc2ff	-0.6123504
128	0xbf12c591	-0.5733271
129	0xbf1a1be2	-0.60198796
130	0xbf1ee381	-0.62065893
131	0xbf174d6f	-0.5910253
132	0xbf12408d	-0.57129747
133	0xbf1c7714	-0.611192
134	0xbf16461a	-0.58700716
135	0xbf19b4e3	-0.60041636
136	0xbf20b10e	-0.62770164
137	0xbf127fee	-0.57226455
138	0xbf1d6305	-0.61479217
139	0xbf138fcd	-0.576413
140	0xbf1b4bc1	-0.60662466
141	0xbf1b3c0a	-0.6063849
142	0xbf1683e0	-0.58794975
143	0xbf1ff786	-0.62487066
144	0xbf208f4a	-0.6271864
145	0xbf1505c6	-0.58211935
146	0xbf1dadf8	-0.6159358
147	0xbf1f5c5b	-0.622503
148	0xbf0fdee9	-0.5619951
149	0xbf118d67	-0.5685639
150	0xbf1d4ee7	-0.6144852
151	0xbf106912	-0.56410325
152	0xbf1a66ec	-0.60313296
153	0xbf17f198	-0.5935302
154	0xbf1729c3	-0.590481
155	0xbf1bdce8	-0.6088395
156	0xbf141005	-0.57836944
157	0xbf184389	-0.5947805
158	0xbf227b08	-0.6346898
159	0xbf1dae95	-0.61594516
160	0xbf105c69	-0.56391007
161	0xbf210163	-0.6289274
162	0x3f23aa69	0.639319
163	0x3f145cd4	0.57954144
164	0x3f2280d0	0.634778
165	0x3f1078eb	0.56434506
166	0x3f10a05f	0.56494707
167	0x3f147db0	0.58004284
168	0x3f15aa8f	0.58463377
169	0x3f1043a0	0.5635319
170	0x3f1ef16b	0.62087125
171	0xbf20f152	-0.62868226
172	0xbf199996	-0.5999998
173	0xbf1a8aa0	-0.60367775
174	0xbf0cd692	-0.5501491
175	0xbf0eaa81	-0.5572892
176	0xbf1af73f	-0.6053352
177	0xbf0c1142	-0.54713833
178	0xbf0cc8c5	-0.5499385
179	0xbf1bb2bc	-0.608196
180	0xbf242371	-0.6411658
181	0xbf1172dd	-0.5681589
182	0xbf1da44b	-0.61578816
183	0xbf1a8a57	-0.6036734
184	0xbf160c9f	-0.5861301
185	0xbf1293e1	-0.57256895
186	0xbf12d995	-0.57363254
187	0xbf188784	-0.5958178
188	0xbf1ac27f	-0.6045303
189	0x3f1e1da2	0.61763966
190	0x3f121171	0.57057863
191	0x3f2052b6	0.62626207
192	0x3f1ff09a	0.62476504
193	0x3f144cbc	0.5792959
194	0x3f2363a1	0.63823897
195	0x3f141fc4	0.5786097
196	0x3f10bd9f	0.5653934
197	0x3f1e73cf	0.6189546
198	0xbf200846	-0.62512624
199	0xbf17cbe8	-0.5929551
200	0xbf214643	-0.62997836
201	0xbf21b469	-0.6316591
202	0xbf231db3	-0.6371719
203	0xbf13201b	-0.57470864
204	0xbf1c58ff	-0.610733
205	0xbf1544bb	-0.58308
206	0xbf10abfb	-0.5651242
207	0xbf1c242c	-0.60992694
208	0xbf14a844	-0.5806925
209	0xbf1d5d44	-0.6147044
210	0xbf1b94d4	-0.6077397
211	0xbf0f2cc8	-0.55927706
212	0xbf24473d	-0.641712
213	0xbf20d387	-0.62822765
214	0xbf1f7748	-0.62291384
215	0xbf240261	-0.6406613
216	0xbf1c7037	-0.61108726
217	0xbf11d8e6	-0.56971586
218	0xbf245c76	-0.64203584
219	0xbf1039b0	-0.56338024
220	0xbf1f6f46	-0.62279165
221	0xbf22d156	-0.6360067
222	0xbf185c7f	-0.5951614
223	0xbf1ae063	-0.60498637
224	0xbf11a9d0	-0.5689974
225	0x3f1e1553	0.6175129
226	0x3f22d27a	0.6360241
227	0x3f1898f2	0.59608376
228	0x3f223bdd	0.63372594
229	0x3f1cb925	0.6122001
230	0x3f15553e	0.58333194
231	0x3f12b54b	0.5730788
232	0x3f13da58	0.5775504
233	0x3f1aa63a	0.6040989
234	0xbf1a5ca3	-0.602976
235	0xbf1eb633	-0.61996764
236	0xbf149e06	-0.58053625
237	0xbf1229f2	-0.57095253
238	0xbf17e9aa	-0.5934092
239	0xbf229985	-0.635155
240	0xbf10760f	-0.56430143
241	0xbf185181	-0.59499365
242	0xbf1ce2ea	-0.61283743
243	0x3f1720e4	0.5903456
244	0x3f119866	0.56873167
245	0x3f11873c	0.56846976
246	0x3f17d3a4	0.5930731
247	0x3f10451d	0.5635546
248	0x3f21559b	0.6302125
249	0x3f14f636	0.5818819
250	0x3f198567	0.5996918
251	0x3f154e74	0.58322835
252	0xbf182b5c	-0.5944116
253	0xbf139560	-0.57649803
254	0xbf11c79f	-0.5694522
255	0xbf168c63	-0.58807963

module.Conv3.layers.0.bias f4 [64]
0	0x3ccb3dcc	0.02480974
1	0x3c9ff452	0.01952568
2	0xbcf9fa56	-0.030514877
3	0xbd1e22e3	-0.03860749
4	0x3d58a3c5	0.052890558
5	0x3ca916dd	0.020640785
6	0x3d741ae1	0.059595946
7	0xbd9aea1d	-0.07564185
8	0xbd9af50d	-0.07566271
9	0x3dab65aa	0.08369
10	0xbd5994ec	-0.05312054
11	0x3cfde552	0.030993138
12	0xbdd019b1	-0.1016115
13	0xbd20b78e	-0.03923755
14	0x3cea4cc5	0.02860106
15	0xbdd3b0ff	-0.10336494
16	0xbd5b3c29	-0.05352417
17	0xbddac2b2	-0.106816664
18	0x3e2d53c5	0.16926487
19	0xbc84a436	-0.016191583
20	0xbdd20d80	-0.10256481
21	0xbc7049e0	-0.014666051
22	0x3d117096	0.03550776
23	0xbe0daba3	-0.13835005
24	0x3cd2263c	0.025652997
25	0xbd83bcfb	-0.064325295
26	0xbe1c00d3	-0.1523469
27	0x3d11cb9f	0.03559458
28	0xbd05debd	-0.032683123
29	0x3d6df032	0.058090396
30	0xbd289574	-0.041158155
31	0xbd94ea44	-0.07271245
32	0xbd238b05	-0.0399275
33	0x3d3082d0	0.043093503
34	0x3ca79bb9	0.020459997
35	0xbd55d3ac	-0.05220382
36	0x3bab6e4e	0.005231655
37	0xbde29764	-0.11064032
38	0x3dc16099	0.09442253
39	0x3d00bf3d	0.03143238
40	0x3d1f771a	0.038931943
41	0x3b0fa1ca	0.0021916502
42	0xbbdf32d7	-0.0068114805
43	0xba43d728	-0.00074707204
44	0x3d762bcc	0.06010036
45	0x3bc927f3	0.0061387955
46	0x3b6f7bdc	0.0036542332
47	0x3d30f063	0.043198
48	0xbd9f19d2	-0.07768597
49	0xbd86a19f	-0.065737955
50	0x3d4ee429	0.05051056
51	0xbc323670	-0.010877237
52	0x3dc6e119	0.09710903
53	0x3b8b0965	0.0042430633
54	0x3e1980bf	0.14990519
55	0xbd80bfea	-0.06286605
56	0xbda80c11	-0.082054265
57	0xbda7deaf	-0.081967704
58	0x3db61908	0.08891493
59	0xbdc395d9	-0.095500655
60	0xbda9bae4	-0.082876
61	0xbdc52000	-0.09625244
62	0x3d3aa2fa	0.045565583
63	0x3cc4663b	0.023974529

module.Conv3.layers.1.weight f4 [64]
0	0x401173b8	2.272688
1	0x3fac2724	1.3449445
2	0x3f895b08	1.0730906
3	0x3fb6fc75	1.4295794
4	0x3fa4e561	1.2882501
5	0x3fdbafd2	1.7163031
6	0x3fbbaf4c	1.4662871
7	0x3f2bdac3	0.6713068
8	0x3f16051e	0.5860156
9	0x3f85fbbd	1.046745
10	0x3f46dda1	0.7768193
11	0x3f89c6b2	1.0763762
12	0x3fac5267	1.3462647
13	0x3f9f5c8d	1.2450119
14	0x3f9c6472	1.2218153
15	0x3f94258a	1.1573956
16	0x3f35631a	0.7085434
17	0x3f20057a	0.62508357
18	0x40015b8d	2.0212128
19	0x3f6c89b9	0.9239765
20	0xbf0075bd	-0.50179654
21	0x3f8e8045	1.1132895
22	0x3f38d07d	0.7219313
23	0x3e86833a	0.26271993
24	0x3f9b375e	1.2126272
25	0x400687f5	2.1020482
26	0x3f3baa34	0.73306584
27	0xbec3a649	-0.38212803
28	0x3f367515	0.71272403
29	0x3f455913	0.7708904
30	0x3fa8562b	1.3151296
31	0x3feaf323	1.835545
32	0x3fa42402	1.2823489
33	0x3f4ee981	0.8082505
34	0x3f98f70e	1.1950395
35	0x3f465745	0.7747691
36	0x3f55e744	0.8355601
37	0xbf341f4d	-0.7036026
38	0x3f5d8b2a	0.8654047
39	0x3f6d1865	0.9261535
40	0x3f84d079	1.0376121
41	0x3f536178	0.825706
42	0x3e529d31	0.20567776
43	0x3ff22a6c	1.8919196
44	0x3f5ac70e	0.85459983
45	0x3f9322f0	1.1495037
46	0x3f47377c	0.7781904
47	0x3f765247	0.96219295
48	0x3fb60538	1.4220343
49	0x3f9d51de	1.2290609
50	0x400e2e35	2.2215703
51	0x3ecca382	0.39968497
52	0x3fbb0209	1.4609996
53	0x3fd30efe	1.648895
54	0x3fbaf02e	1.4604547
55	0x3f9bc958	1.217082
56	0x3fbceda3	1.4760021
57	0x3f82e5d8	1.0226393
58	0x3fca1e31	1.5790464
59	0xbe54abe1	-0.20768692
60	0x3f80105d	1.0004994
61	0x3fb4e15d	1.4131275
62	0x3f5d0a57	0.863439
63	0x3ed1063b	0.40825066

module.Conv3.layers.1.bias f4 [64]
0	0x3ed8820c	0.42286718
1	0xbd3e0f9b	-0.0464016
2	0xbf15cf36	-0.58519304
3	0x3de78e7c	0.113064736
4	0x3d3e56a1	0.046469335
5	0x3ea885c4	0.32914555
6	0xbcb0f52c	-0.021601282
7	0xc0330269	-2.797022
8	0xbf5f3911	-0.8719645
9	0x3f24c6ee	0.6436604
10	0x3fe82bd4	1.8138375
11	0x3c472e4f	0.012157037
12	0x3e1d55e4	0.15364796
13	0xbdd44eee	-0.10366617
14	0xbf80bb1c	-1.0057101
15	0xbe63f8ac	-0.2226283
16	0xbfb85c44	-1.4403157
17	0xbff3fbfe	-1.9061277
18	0xbf1be507	-0.60896343
19	0xbecf171a	-0.40447313
20	0xbf7bf89e	-0.98426235
21	0x3cba760b	0.022761365
22	0x3e32f684	0.17476851
23	0x400dfcf7	2.2185647
24	0xbf607f0a	-0.87693846
25	0xbf117034	-0.56811833
26	0xbf9ed3d6	-1.2408397
27	0xbf9bae34	-1.2162538
28	0xbff267e0	-1.893795
29	0xbf86cf1e	-1.0531957
30	0x3e1584f1	0.14601494
31	0x3ed34d0f	0.4126973
32	0x3da72a69	0.08162386
33	0x3f70fe49	0.9413801
34	0x3e9114d2	0.28336197
35	0x40158911	2.3364909
36	0x3fcfa659	1.622264
37	0xbfc9ced4	-1.5766244
38	0xbf27a400	-0.6548462
39	0x3feb071f	1.8361548
40	0x3e57a1ab	0.21057765
41	0x3f9f1b22	1.2430155
42	0xbfad7412	-1.3551047
43	0x3d57ddc2	0.05270172
44	0xbffa3503	-1.9547428
45	0x3f008c66	0.5021423
46	0x3f7280e9	0.9472795
47	0xbc714fc8	-0.014728494
48	0x3f346805	0.7047122
49	0x3e4567e2	0.1927791
50	0xbeee285c	-0.46515167
51	0x3ead7818	0.33880687
52	0xbe99ee44	-0.30064595
53	0x3cd43ed3	0.025908863
54	0xbe08a8f1	-0.13345696
55	0x3d7b7ac8	0.06139639
56	0x3eea3de8	0.45750356
57	0xbf430ef6	-0.76194704
58	0xb7f4724f	-2.9140296e-05
59	0xbfb19b3a	-1.3875496
60	0x3f815051	1.0102636
61	0x3e29578c	0.16537303
62	0xbfebcda8	-1.8422136
63	0x3fad75b8	1.355155

module.Conv3.layers.1.running_mean f4 [64]
0	0xc24cf216	-51.236412
1	0xc270e32e	-60.221855
2	0x428374ac	65.727875
3	0xc245dede	-49.467644
4	0xc28b068a	-69.51277
5	0xc22ba257	-42.908535
6	0x426364c1	56.848392
7	0x4204b0ce	33.17266
8	0x42216f97	40.358974
9	0xc21e5616	-39.58407
10	0xc285566e	-66.66881
11	0x42be03af	95.007195
12	0xc28ec002	-71.375015
13	0xc25a5a79	-54.588352
14	0x427ca82c	63.16423
15	0x42611db4	56.279007
16	0xc28819ae	-68.050156
17	0x421f8a40	39.88501
18	0x42230d02	40.762703
19	0xc20b4881	-34.820805
20	0x42583ad8	54.057465
21	0xc1ba59e9	-23.293901
22	0x428efff2	71.49989
23	0xc20d70a8	-35.360016
24	0xc28ea0bf	-71.31396
25	0x42111e4f	36.2796
26	0x425d06a4	55.256485
27	0x4262b6b1	56.67841
28	0x42adb954	86.86197
29	0x428a9a48	69.30133
30	0xc1e71cc6	-28.88905
31	0xc2c2dadc	-97.42746
32	0x411484ed	9.282453
33	0xc263a185	-56.907734
34	0xc28c9add	-70.30247
35	0xc2a43b8f	-82.116325
36	0x41e3dca9	28.482744
37	0xc20c6be0	-35.105347
38	0xc2422fbe	-48.546623
39	0xc25c1b27	-55.026516
40	0xc2a042c8	-80.13043
41	0xc25d83c2	-55.37867
42	0xc28ed890	-71.42297
43	0xc2362cee	-45.543877
44	0x4299cdd0	76.90198
45	0xc2f5303a	-122.59419
46	0xc27718e0	-61.774292
47	0xc1ace3a4	-21.611153
48	0xc23834f3	-46.05171
49	0xc1f64a7c	-30.78637
50	0x42070576	33.755333
51	0x426978cd	58.36797
52	0x422ad565	42.708393
53	0xc233f794	-44.991776
54	0x42560199	53.50156
55	0xc2ae56d0	-87.169556
56	0xc259a208	-54.408234
57	0x425dd326	55.4562
58	0x43091dc9	137.11635
59	0xc2e505a2	-114.511
60	0xc2ad3d7a	-86.62007
61	0xc2b8cf3f	-92.40478
62	0x42243b86	41.05813
63	0xc25822fd	-54.03417

module.Conv3.layers.1.running_var f4 [64]
0	0x4609b5e8	8813.477
1	0x45f21417	7746.511
2	0x4618b7bc	9773.934
3	0x459c3dd6	4999.7295
4	0x4609e85f	8826.093
5	0x457aca9b	4012.6628
6	0x45d92bea	6949.4893
7	0x45fd2e1a	8101.7627
8	0x45c072ba	6158.341
9	0x45f1c035	7736.026
10	0x45f084fd	7696.6235
11	0x45cc9119	6546.137
12	0x46017ef9	8287.743
13	0x45b06cba	5645.591
14	0x44cecb8c	1654.3608
15	0x45ab6a86	5485.3154
16	0x45b34796	5736.948
17	0x459765bd	4844.7173
18	0x45980458	4864.543
19	0x459d714b	5038.1616
20	0x459e09eb	5057.2397
21	0x45a8183f	5379.031
22	0x45071207	2161.1267
23	0x458c3942	4487.157
24	0x45e33aa9	7271.3325
25	0x455142df	3348.1794
26	0x4626b85e	10670.092
27	0x44ee3d7f	1905.9218
28	0x453e3a63	3043.6492
29	0x448969e6	1099.3093
30	0x451910f2	2449.059
31	0x45cb2968	6501.176
32	0x44e32e10	1817.4395
33	0x44c750d5	1594.526
34	0x45ce2c9c	6597.576
35	0x4521e573	2590.3406
36	0x45b377ac	5742.959
37	0x4550ef6e	3342.9644
38	0x45f2cee2	7769.8604
39	0x450c380d	2243.5032
40	0x4597b9a1	4855.2036
41	0x44e28217	1812.0653
42	0x45fb48c6	8041.0967
43	0x4617ee41	9723.563
44	0x445028e4	832.6389
45	0x4685beae	17119.34
46	0x4606b4ff	8621.249
47	0x45002453	2050.2703
48	0x4595110b	4770.1304
49	0x4524e14f	2638.0818
50	0x44fb974f	2012.7284
51	0x45cfe190	6652.1953
52	0x45bbd298	6010.324
53	0x45d96efd	6957.8735
54	0x45c40f0a	6273.88
55	0x46463a15	12686.5205
56	0x44975bac	1210.8647
57	0x46177116	9692.271
58	0x468929d8	17556.922
59	0x45b1f685	5694.815
60	0x45bc6582	6028.6885
61	0x4619d67a	9845.619
62	0x45c0491e	6153.1396
63	0x45b4dedf	5787.859

module.Conv4.layers.0.weight f4 [64, 64, 3, 3]
0	0x3f1366e4	0.57578874
1	0xbf3bda19	-0.73379666
2	0x3f18b2a4	0.59647584
3	0x3f0d1177	0.55104774
4	0x3f1e8172	0.6191627
5	0x3f0e7064	0.55640244
6	0x3f15f016	0.5856947
7	0x3f0ec2aa	0.55765784
8	0x3f1f955a	0.6233727
9	0xbf1f34f4	-0.62190175
10	0xbf15fc38	-0.5858798
11	0xbf1c184f	-0.6097459
12	0xbf0f2f73	-0.55931777
13	0xbf108e84	-0.5646746
14	0xbf201169	-0.62526566
15	0xbf192f85	-0.59838134
16	0xbf1aab15	-0.604173
17	0xbf179495	-0.59211093
18	0x3f16a9ef	0.5885305
19	0x3f1218cf	0.57069105
20	0x3f25178d	0.6448906
21	0x3f20741f	0.62677187
22	0x3f152015	0.5825208
23	0x3f108a19	0.5646072
24	0x3f209991	0.62734324
25	0x3f1ba3d9	0.60796887
26	0x3f1840fe	0.5947417
27	0xbf11f6f5	-0.5701745
28	0xbf1279b8	-0.5721698
29	0xbf1fa517	-0.6236128
30	0xbf152e2d	-0.58273584
31	0xbf1848b8	-0.5948596
32	0xbf1d3c69	-0.61420304
33	0xbf1372b5	-0.57596904
34	0xbf1d83b9	-0.6152912
35	0xbf132293	-0.5747463
36	0xbf14a38f	-0.5806207
37	0xbf1f95cb	-0.6233794
38	0xbf13de6d	-0.5776127
39	0xbf21534f	-0.63017744
40	0xbf1500e5	-0.5820449
41	0xbf1a4777	-0.60265297
42	0xbf1c412a	-0.6103693
43	0xbf229604	-0.63510156
44	0xbf11f41b	-0.570131
45	0xbf18d6ee	-0.59702957
46	0xbf1be868	-0.609015
47	0xbf170f10	-0.5900736
48	0xbf209955	-0.62733966
49	0xbf0d832c	-0.5527828
50	0xbf0d0b63	-0.550955
51	0xbf0f185f	-0.5589656
52	0xbf1d0048	-0.61328554
53	0xbf18f2ae	-0.597453
54	0xbf1c5ee0	-0.6108227
55	0xbf1c46a3	-0.61045283
56	0xbf154daf	-0.5832166
57	0xbf444837	-0.7667269
58	0xbf26deb5	-0.65183574
59	0xbf1983cd	-0.5996674
60	0xbf21f3c3	-0.63262576
61	0xbf1c216c	-0.609885
62	0xbf142513	-0.5786907
63	0xbf1e60fd	-0.6186674
64	0xbf2131d5	-0.6296666
65	0xbf20b545	-0.62776595
66	0xbf219832	-0.63122857
67	0xbf12834f	-0.5723161
68	0xbf12cc5a	-0.57343066
69	0xbf13d19b	-0.5774171
70	0xbf2136f0	-0.6297445
71	0xbf1f32c8	-0.6218686
72	0x3f200a26	0.62515485
73	0x3f241ce0	0.6410656
74	0x3f135103	0.5754549
75	0x3f0f8fbe	0.5607871
76	0x3f195ac2	0.5990411
77	0x3f0f5aa9	0.5599771
78	0x3f2471d1	0.6423617
79	0x3f22384d	0.6336716
80	0x3f0dc752	0.55382264
81	0xbf14927a	-0.58036005
82	0xbf1aac37	-0.6041903
83	0xbf271004	-0.6525881
84	0xbf1d7e77	-0.61521095
85	0xbf18c0a6	-0.5966896
86	0xbf279615	-0.6546338
87	0xbf17a84e	-0.5924119
88	0xbf1383c8	-0.5762296
89	0xbf146240	-0.5796242
90	0xbf3bed6b	-0.73409146
91	0x3f0d8112	0.5527507
92	0x3f1b1ff0	0.6059561
93	0x3f1601fd	0.58596784
94	0x3f1d5920	0.6146412
95	0x3f0cbcab	0.54975384
96	0x3f1958c1	0.5990105
97	0x3f0b292c	0.543597
98	0x3ef7dcd8	0.48410678
99	0x3f1fff00	0.62498474
100	0x3f0f0f59	0.55882794
101	0x3f1c08d0	0.60950947
102	0x3f1de0d6	0.616712
103	0x3f1949bf	0.5987815
104	0x3f20a519	0.6275192
105	0x3f239d35	0.63911754
106	0x3f10c042	0.5654336
107	0x3f0f9458	0.5608573
108	0x3f14c5bf	0.58114237
109	0x3eead03b	0.45861992
110	0xbf20e6d6	-0.6285223
111	0x3f10c957	0.5655722
112	0x3d2494be	0.040180914
113	0xbf22aa45	-0.6354106
114	0x3f1112a0	0.56669044
115	0x3f14983b	0.58044785
116	0xbf1ec6d6	-0.6202215
117	0x3f1cdcd4	0.61274457
118	0xbf267b71	-0.65032107
119	0xbf1a011b	-0.60157937
120	0xbf4f8391	-0.8106013
121	0xbf1e7a9f	-0.61905855
122	0xbf252605	-0.6451114
123	0xbf404fcc	-0.7512176
124	0xbf19e2bd	-0.601116
125	0xbf1436f2	-0.5789634
126	0xbf1bef8e	-0.60912406
127	0xbf256d8a	-0.6462027
128	0xbf18d27a	-0.5969616
129	0xbf1a25f3	-0.60214156
130	0xbf222442	-0.63336575
131	0xbf1560da	-0.5835091
132	0xbf1bb2a2	-0.6081945
133	0xbf1e5bea	-0.61859
134	0xbf1cf05e	-0.6130427
135	0xbf181776	-0.594108
136	0xbf122228	-0.5708337
137	0xbf1a6102	-0.6030427
138	0xbf10f02e	-0.56616485
139	0xbf2343a3	-0.6377508
140	0xbf133331	-0.57499987
141	0xbf222eed	-0.63352853
142	0xbf1e7d0c	-0.61909556
143	0xbf1b5b7b	-0.60686463
144	0xbf0f75c4	-0.5603907
145	0xbf0ee739	-0.5582157
146	0xbf11415b	-0.5674035
147	0xbf18c702	-0.5967866
148	0xbf1e0c6b	-0.617377
149	0xbf13778a	-0.5760428
150	0xbf1e9dd0	-0.6195955
151	0xbf204b60	-0.62615013
152	0xbf19e618	-0.6011672
153	0xbf129edc	-0.5727365
154	0xbf148bd8	-0.58025885
155	0xbf202d54	-0.62569165
156	0xbf1470e7	-0.57984775
157	0xbf18f276	-0.59744966
158	0xbf1755e9	-0.59115463
159	0xbf132167	-0.5747284
160	0xbf163cc4	-0.5868647
161	0xbf1d72a5	-0.6150306
162	0x3f161c8a	0.586373
163	0xbf2fdbc8	-0.68694735
164	0xbf1efd1b	-0.6210496
165	0x3f200cde	0.62519634
166	0x3f105659	0.56381756
167	0xbf401c6d	-0.75043374
168	0x3f158b16	0.58415353
169	0x3f1ee388	0.62065935
170	0x3f18ee41	0.59738547
171	0xbf1183f5	-0.56841975
172	0xbf1445e3	-0.5791914
173	0xbf209d8c	-0.627404
174	0x3f1b4dae	0.60665405
175	0xbf126fcc	-0.5720184
176	0xbf13dbfe	-0.57757556
177	0xbf144fd6	-0.5793432
178	0xbf0ebd14	-0.5575726
179	0xbf2252d6	-0.6340765
180	0xbf10a59a	-0.5650269
181	0xbf11f2f2	-0.5701133
182	0xbf11b101	-0.5691071
183	0xbf1c8380	-0.61138153
184	0xbf13184d	-0.57458955
185	0xbf1a277a	-0.60216486
186	0xbf11af19	-0.569078
187	0xbf198c96	-0.5998014
188	0xbf0f1d7d	-0.5590437
189	0x3f15fe03	0.58590716
190	0x3f1e3255	0.6179555
191	0x3f10b6d4	0.56528974
192	0x3f10b6be	0.5652884
193	0x3f15284d	0.5826462
194	0x3f1e28ff	0.61781305
195	0x3f178a3e	0.59195316
196	0x3f131670	0.5745611
197	0x3f14cff6	0.58129823
198	0xbf174d88	-0.5910268
199	0xbf2005b7	-0.6250872
200	0xbf1a8321	-0.60356337
201	0xbf241856	-0.64099634
202	0xbf15d99b	-0.58535165
203	0xbf1fdca5	-0.6244605
204	0xbf21135f	-0.6292018
205	0xbf1b55b3	-0.6067764
206	0xbf1db3c6	-0.6160244
207	0xbf1da76d	-0.61583596
208	0xbf203d27	-0.6259331
209	0xbf1153ef	-0.567687
210	0xbf105bb4	-0.5638993
211	0xbf1efc18	-0.62103415
212	0xbf206e28	-0.62668085
213	0xbf204ef6	-0.62620485
214	0xbf20917e	-0.62722003
215	0xbf12978e	-0.57262504
216	0xbf1caaeb	-0.611983
217	0xbf1bb3db	-0.6082131
218	0xbf160852	-0.58606446
219	0xbf0ffed2	-0.562482
220	0xbf22ec62	-0.6364194
221	0xbf0efb14	-0.55851865
222	0xbf15f663	-0.5857908
223	0xbf1e935b	-0.61943597
224	0xbf161476	-0.5862497
225	0x3f1b4dab	0.60665387
226	0x3f1e67a2	0.6187688
227	0x3f1cdb10	0.6127176
228	0x3f190034	0.59765935
229	0x3f178832	0.5919219
230	0x3f1adfa0	0.60497475
231	0x3f11d9f6	0.56973207
232	0x3f12b793	0.5731136
233	0x3f0cf06c	0.55054355
234	0xbf11c444	-0.569401
235	0xbf2423e3	-0.6411726
236	0xbf21cc0a	-0.63201964
237	0xbf16a38d	-0.5884331
238	0xbf23ea65	-0.6402953
239	0xbf1d9513	-0.61555594
240	0xbf2503c6	-0.6445888
241	0xbf140887	-0.5782551
242	0xbf1ca3c1	-0.6118737
243	0x3f23af9d	0.6393984
244	0xbf27bc56	-0.6552175
245	0xbf126534	-0.57185674
246	0x3f120900	0.5704498
247	0xbf1685e7	-0.5879807
248	0xbf26d995	-0.65175754
249	0x3f08ebd5	0.5348485
250	0xbf1788b8	-0.5919299
251	0xbf18529b	-0.59501046
252	0xbf1b0057	-0.60547394
253	0xbf2c7041	-0.67358786
254	0x3f130a90	0.5743799
255	0x3f138014	0.57617307
