DIDFuse/saved_models/encoder/VIS_AE7.pth (torch, 460028 bytes, 24 tensors)

module.Conv1.layers.1.weight f4 [64, 1, 3, 3]
00000000: 327c 253f 2692 913e 67d4 203f 8326 143f
00000010: 5d0f 2b3f 76d8 be3e e502 183f 63d5 5a3f
00000020: d9a0 163f 7094 3ebf 6e76 26bf f6e3 5bbf
00000030: b128 4abf e165 adbe 47af 95be dacc 99be
00000040: 8e83 a0be c86f 12bf 486c 22bf 7476 2dbf
00000050: 4e7f fcbe 10d0 4ebf 0e1e 1f3f 16b8 69bf
00000060: df8d d1be 8fb2 793e e74b 203f 73ba cbbf
00000070: 3321 65bf a287 85bf d80f 803d cc76 a83e
00000080: 55ca 30be 1402 89bf 66fd 73be 9d09 2bc0
00000090: 908a 6cbf 2e4f 5ebf 8cd3 7abf aab7 213d
000000a0: 5a08 5d3d dbbc 1fbe aab0 6d3e 1912 403f
000000b0: 4a64 b73e e525 973e 277d 243f 512b 693f
000000c0: 5dd7 093f ddc1 d03e e9e7 d83e 6932 083f
000000d0: a5bc 6c3f 3bc7 4b3f f833 20bf 7b8b 15bf
000000e0: 8140 c5be cf68 213e e159 a63b 82df 67bf
000000f0: 38ad f73e 518a ea3e 3b7e 39bf fdd4 3cbf
00000100: ee8a 42bf ad5c 32bf 4f32 f1be 5109 3abf
00000110: d050 d8be 3005 03bf f106 8cbe 8a60 09bf
00000120: d50a 92bf 00f4 90bf 7170 b9bf 86f5 08bd
00000130: 6de4 c63e 83dd 923e 380f 17bf 964f 373e
00000140: 47c5 993e 4554 ec3e 7471 923e a9e3 393f
00000150: b50b 493f 5762 613f c4d2 2d3f 94d2 513f
00000160: 67c7 b03e 3382 0d3f 5f77 61be 543b 6e3c
00000170: 143c 3ebf b673 933e 04a2 c73f 58cd 823f
00000180: 243a 09bf 6182 f53e dd3f 6fbe 2ee5 29bf
00000190: a9a1 d4be 2338 543f 7688 59bf 6d00 b4be
000001a0: b608 26bf 02fa 20bf 6ccc ccbe 8934 38bf
000001b0: 2360 b53e 8771 93be d471 98be 83d4 673f
000001c0: ddf2 863f 9c1d 883f 6145 2d3f 7c4f b33e
000001d0: b2e9 1d3f 8134 6b3f bda1 893f 9d1c 583f
000001e0: a788 713e 4cf0 d73e 566c 923e 76fc 213d
000001f0: 9e84 8abe 51d6 bfbe 6e29 d2be 0073 5b3e
00000200: a503 70bd 09d3 0f3f 79b1 ba3f c4d0 4b3f
00000210: 191b cebe 4165 b63e fd40 2abf dd72 823f
00000220: 3dec 313f d5e8 9c3f b4ba 003f d6fc 1b3e
00000230: f46a 323f 7bfc c43d 6eb8 08bf 57b9 be3c
00000240: ee2e 97bb 8077 4a3e 9284 593f 9600 5bbe
00000250: 5165 993f 82d9 803f 27a4 00be a7c7 06be
00000260: b30d ce3f 1ac3 4bbf 7cd3 0c3f 725d be3e
00000270: a720 f6be cd35 08bf 25d1 57bf d6af 25bf
00000280: e022 29bf 35fa 4ebf eb6a adbe 3906 c13e
00000290: c9ec c1be ecac 8c3f ad3f 0b40 98bb 1d3e
000002a0: 16d9 643d 415c 5e3f d7e5 40bf df4a c6be
000002b0: b3b2 703f af25 933e 0d9a cdbe 34a2 0a40
000002c0: b8f9 4e3f 7ccc ccbe 0849 8abe 11dc 6d3f
000002d0: 8976 c13e 4f04 50be 8d1e 80bf 80fb 9c3f
000002e0: f527 0a40 b321 6f3f 0d7b e83e 35b1 bd3f
000002f0: 2360 2b3f 49d5 303f d8e3 433f 8ce8 eb3e
00000300: bb72 283f ade3 8d3f 0e33 5b3f beff 983b
00000310: 79d3 0b3e 2104 9abe 75d1 d83d 71d5 98be
00000320: b992 023f da16 88be c15f 62be 158e b5be
00000330: 6f2f 0b40 dcb3 6c3e e1b5 1c40 9b29 0b3f
00000340: 8be1 163e a55a 91be 00ef 983f 86e8 023f
00000350: d8ad 20bf ece2 033f 1232 613f 1e7e f3be
00000360: e301 a83e 0c8a 343f f357 b13e c094 5b3f
00000370: b884 c23e 0727 ff3e 13c9 a03e 5554 523f
00000380: e789 5c3f 2b52 70bf 3f99 9ebe 88ef 29bf
00000390: b3b6 37bf a203 2dbf d04d 4dbf 7939 8d3e
000003a0: bca7 033f 778a c33e d4bf d33e 1869 d5bc
000003b0: 1e24 763f 8ac0 dabe f606 a4bf 1066 54bf
000003c0: a646 1a3e 746b 89bf d320 abbe 9a9c a53e
000003d0: 5725 8dbf e1e0 9a3f 3030 3bbf 093d 14c0
000003e0: 9a04 6ebf e495 ba3e b24c 6ebe eb8c e83e
000003f0: 2c33 01bf 0b7d 12bf fc4d 39bf e80b 3a3f
0.6464263 0.28431815 0.628241 0.57871264 0.6682032 0.37274522 0.59379417 0.8548185
0.58839184 -0.7444525 -0.6502446 -0.85894716 -0.7896834 -0.3386679 -0.29235289 -0.30039102
-0.31350368 -0.57201815 -0.63446474 -0.6775887 -0.49315876 -0.8078623 0.62155235 -0.9129652
-0.40928552 0.24384521 0.6261582 -1.5916275 -0.89503783 -1.0432017 0.06253022 0.32903135
-0.17264684 -1.0703759 -0.23827133 -2.6724617 -0.9239893 -0.8683957 -0.97979045 0.039481796
0.053963043 -0.15599386 0.23211923 0.75027615 0.35818702 0.295211 0.6425347 0.9108172
0.53844243 0.40772906 0.42364433 0.5320192 0.9247535 0.79600877 -0.625793 -0.58415955
-0.38525775 0.15762638 0.0050766324 -0.9057542 0.48374343 0.45808652 -0.7245824 -0.73762494
-0.7599324 -0.6967266 -0.47108695 -0.72670466 -0.42249155 -0.5117979 -0.27349046 -0.5366293
-1.1409556 -1.1324463 -1.4487439 -0.033437274 0.3884615 0.28684625 -0.59007597 0.17901453
0.30033323 0.46158043 0.28602183 0.72613007 0.7853349 0.8804068 0.6789973 0.8196194
0.34527132 0.55276793 -0.22018193 0.014540512 -0.7431042 0.28799218 1.5596318 1.0218916
-0.5360434 0.47951034 -0.23364206 -0.66365325 -0.41529587 0.8289816 -0.8497385 -0.35156575
-0.6485704 -0.6288148 -0.39999712 -0.7195516 0.3542491 -0.28797552 -0.29774344 0.9055864
1.0542866 1.0634036 0.6768399 0.3502158 0.61684716 0.9187699 1.0752484 0.8441866
0.23587285 0.4217552 0.2859828 0.039547406 -0.27054304 -0.37468198 -0.41047233 0.21430588
-0.058597226 0.5618139 1.458541 0.79615426 -0.4025505 0.35624126 -0.66505414 1.0191303
0.69501096 1.2258555 0.50284886 0.15233168 0.6969445 0.09618469 -0.5340642 0.023281736
-0.0046137488 0.19772148 0.8496791 -0.21386942 1.1984044 1.0066378 -0.12562619 -0.13162099
1.6097931 -0.79594576 0.550102 0.37180668 -0.48071787 -0.53207093 -0.84303504 -0.6472143
-0.6606884 -0.80850536 -0.33870634 0.3770006 -0.37875965 1.0990272 2.1757615 0.15403593
0.05587109 0.8685952 -0.7535071 -0.38728997 0.94022673 0.28739688 -0.40156594 2.16615
0.8084979 -0.3999976 -0.27008843 0.9291392 0.37785748 -0.20314144 -1.0009323 1.2264252
2.1586888 0.93410796 0.4540638 1.4819704 0.6694357 0.6907545 0.76519537 0.46075857
0.65800065 1.1085106 0.8562478 0.0046691587 0.13654889 -0.30081275 0.10586826 -0.29850343
0.5100513 -0.26579934 -0.2210684 -0.35459962 2.17477 0.23115486 2.448601 0.5436036
0.14734475 -0.2838947 1.1947937 0.5113605 -0.62765265 0.5151813 0.87967026 -0.47557157
0.3281394 0.7052314 0.34637412 0.8577385 0.3799188 0.49834463 0.31403407 0.8215993
0.8614792 -0.9387538 -0.30976292 -0.6638112 -0.7176315 -0.6758367 -0.8019686 0.2758291
0.5142782 0.38191578 0.4135729 -0.02605109 0.9614886 -0.4272502 -1.2814624 -0.82968235
0.15066013 -1.0735917 -0.3342348 0.3234604 -1.102702 1.2099878 -0.73120403 -2.3162253
-0.9297577 0.36442482 -0.23271444 0.45420012 -0.5046871 -0.5722205 -0.7238462 0.7267442

module.Conv1.layers.1.bias f4 [64]
00000000: d6da e9be 376f f13e 78f7 0f3f 5949 aebe
00000010: 14c1 a0be b842 37bf 11db 17be a73e ad3e
00000020: 59fe 023f d0db 69be c8e0 d63d 7201 6ebd
00000030: f7c4 d83e d447 253e 2e51 1a3f 5355 49be
00000040: 16fc 8a3e 72ab 04bf cbd5 bdbe 61d6 083f
00000050: a54d f5be 50d5 5a3e dc3e 093f 3666 613e
00000060: f7a0 8e3d 303e 7dbe 4a5a ff3e 0acd d83e
00000070: bd2f 2fbf 1ec1 20bf 1904 c2be 48c2 67be
00000080: 8dc6 99be 208a 47be 1612 03bc 0602 393f
00000090: a9d9 8abe ff53 52bf f458 883e 586c 8abe
000000a0: 2c3d 55be 7f9e a03e d119 1bbf ad48 ca3e
000000b0: 9bf0 793e 461a 0cbe 14ef 53be 8e3a 6d3e
000000c0: c749 d03d 113a 523f e463 c2bb 8e1c 11bd
000000d0: 3935 48be e54c 95be a789 e13e 97e9 36bf
000000e0: d06e 2dbe 411e d9be b0a9 c83d 71dc dcbe
000000f0: 58a0 6c3e c863 f33e 6fe5 693e 79c0 15be
-0.4567477 0.47155163 0.5623698 -0.34040335 -0.31397307 -0.7158618 -0.14829661 0.33836862
0.51169354 -0.22837758 0.10492092 -0.058106847 0.42337772 0.16140682 0.6028012 -0.19661455
0.2714545 -0.51824105 -0.37077174 0.53452116 -0.479108 0.21370435 0.5361154 0.22011647
0.06964295 -0.24730754 0.49873573 0.42343932 -0.6843222 -0.62794673 -0.3789375 -0.22632706
-0.30034295 -0.19486284 -0.0079999175 0.7226871 -0.27119187 -0.8215942 0.26630366 -0.27035785
-0.20824116 0.31370923 -0.6058627 0.39508572 0.2440819 -0.13681898 -0.2069667 0.23166868
0.10170322 0.8211985 -0.005932318 -0.035427622 -0.19551553 -0.29160228 0.44050333 -0.7145018
-0.16936803 -0.42405894 0.0979799 -0.43136933 0.23108041 0.47537065 0.22841428 -0.14624204

module.Conv1.layers.2.weight f4 [64]
00000000: d206 e53e a28a eb3e 1464 de3e 0c7d bf3f
00000010: f10d 673e add6 d33f 5089 743d 8af0 e43e
00000020: 1d3d a23f 55c5 4c3f 9c07 e73f c4a4 c83f
00000030: 92c5 013f d20b 253f 5c8e db3f 3b72 453f
00000040: 3857 183f e52d 503d 3f63 f83f eb80 8a3f
00000050: 0064 5f40 6b29 3d3f dda8 0940 2f9c dc3f
00000060: d99d 073f de33 1e3e 6ed4 0440 f426 e23f
00000070: e6ef ce3f 7434 d13f d58f ad3f 1065 ca3e
00000080: 3554 013f 92f1 bc3f 8951 8a3d eef7 023f
00000090: b719 dd3f b80e d93f 55d7 833f 0413 863f
000000a0: 22aa e73f ecf1 cf3f 80c8 d23f 2704 633f
000000b0: dfc2 ea3f e4bc 943e ccaf 293f bbad e33e
000000c0: 2656 bc3d 6e1b ac3f f8d9 0c3e f085 b63f
000000d0: c9b3 a23f 91af de3f de33 a73f 30ca d13f
000000e0: 8057 b63f 6536 2e3f 6fe5 073e 7e44 e33f
000000f0: ad5e 4a3f ef81 b73f ea93 d73e 811d 303f
0.44731766 0.46004206 0.4343573 1.4960036 0.22563912 1.6549889 0.059701264 0.44714767
1.26749 0.79988605 1.8049197 1.5675282 0.50692093 0.6447116 1.715282 0.77127427
0.59508085 0.05082502 1.9405288 1.0820593 3.4904785 0.73891324 2.1509316 1.7235163
0.5297523 0.15449473 2.0754657 1.7668138 1.6166961 1.6344132 1.3559519 0.3953023
0.50519115 1.4761221 0.06753833 0.5115956 1.7273473 1.6957617 1.0300089 1.0474553
1.8098795 1.6245704 1.6467438 0.8867821 1.834072 0.29050362 0.6628387 0.44468483
0.09196119 1.3445871 0.13755023 1.4259624 1.2711116 1.7397329 1.3062704 1.6389828
1.4245453 0.6805175 0.13271116 1.7755277 0.79050714 1.4336528 0.42105037 0.6879502

module.Conv1.layers.2.bias f4 [64]
00000000: 191f b0be fb61 12bf ab8a 1cbf 729f 253f
00000010: 5aaf 4abf be25 143f ae5f 4bbf 6048 0fbf
00000020: 0e3a 5ebf 9e13 bebf 66c6 f93d b642 8f3f
00000030: df79 7abf fbd7 5abf e6c8 443f 9048 4ebe
00000040: c77c 70bf b51d 36bf b261 d83e 6458 48bf
00000050: b308 7abe 8265 82bf 588f 323f 1e9e 183f
00000060: 426c 90be 7496 56bf bf53 4f3f 779e a43f
00000070: dd43 4c3f 6ded 133f 1b78 653e ece7 2abf
00000080: 601f cbbe 0ba7 3b3e 2e53 32bf fba4 25bf
00000090: 4798 1c3f cc5d 1d3f c1b6 c1bf 60eb 21be
000000a0: 9392 e93e 9deb 543f a48a 113f 056b 6dbf
000000b0: 4eba 9bbf 3265 31bf e2e8 e4bd 38e4 2dbf
000000c0: 6831 3dbf 05da 033f 1546 5fbf fe80 c53e
000000d0: 4b34 b5be e34a fbbe 6bfe 5dbd 41b8 793e
000000e0: 0b06 2abf 4f67 d1bc 2485 45bf 3b94 1a3f
000000f0: 5904 763f 5b19 88bf f86a 5cbf 299d 14be
-0.34398726 -0.57180756 -0.6114909 0.6469642 -0.79173815 0.5787009 -0.7944287 -0.5596981
-0.86807334 -1.4849737 0.121960446 1.1192234 -0.9784221 -0.8548581 0.76869047 -0.20144868
-0.93940395 -0.7113908 0.42262036 -0.78259873 -0.24417381 -1.0187228 0.69749975 0.5961627
-0.28207594 -0.83823323 0.8098716 1.286086 0.7979105 0.5778416 0.22409098 -0.66760135
-0.39672375 0.1832544 -0.6965817 -0.64704865 0.61169857 0.6147125 -1.5133897 -0.15812445
0.4561964 0.8317202 0.56852174 -0.92741424 -1.2166231 -0.69295037 -0.11177231 -0.6792636
-0.7390351 0.51504546 -0.8721631 0.38574976 -0.3539146 -0.49080572 -0.05419771 0.24386694
-0.6641547 -0.025561957 -0.7715628 0.6038243 0.96100384 -1.0632738 -0.8610072 -0.14513077

module.Conv1.layers.2.running_mean f4 [64]
00000000: 5612 2ac0 e282 2140 0f70 ca3f d1f2 2e40
00000010: 2abf ac3e 659d 41c0 4eaa 5b3f 0f77 2040
00000020: feb3 f63f 9420 24c0 d6cd 29bf 16af c93f
00000030: 3874 b9bf 4508 98bf 19a8 7dbe 50e4 edbf
00000040: a3a6 ccbf c4b5 8d3f 4c52 e6bf 3efa 8cbf
00000050: c0f3 43c0 dc9c d4bf acbd a8bf 3ae3 4fbf
00000060: 92a7 05c0 7c01 803f ee3f 573f 44cc d53f
00000070: ae95 f63d cb9d abbf ef93 e83f 0048 0340
00000080: b29a e2bf ce94 0a40 d66f 8a3f 828a 3f40
00000090: e6d3 0ac0 e7e4 d8bf 2ee3 71bf ec68 0540
000000a0: a478 10bf 2942 3240 17d8 80bf 0892 70bf
000000b0: 7495 0ac0 b32d 1a3f 952b 24c0 fdb7 f43f
000000c0: 2ae9 c83f 4833 4940 f92a fa3f 3c61 7f3f
000000d0: db3f 1840 d612 27c0 22ea 2a40 a536 42c0
000000e0: bd5b 1ec0 cfdf ef3f 55d4 2440 72c1 54c0
000000f0: 1073 43bf 2af9 3940 5d75 bcbf 897d 0ac0
-2.6573691 2.5236135 1.5815448 2.7335703 0.33739597 -3.0252316 0.8580674 2.5072668
1.9273679 -2.5644884 -0.66329706 1.5756557 -1.4488592 -1.1877524 -0.24771155 -1.85853
-1.5988353 1.1071095 -1.7993865 -1.1013868 -3.0617523 -1.661037 -1.3182883 -0.81206095
-2.0883527 1.0000453 0.84081924 1.6702962 0.12040268 -1.340753 1.8170146 2.0512695
-1.7703459 2.1653323 1.081538 2.9928288 -2.1691833 -1.6944855 -0.94487274 2.084529
-0.56434083 2.785288 -1.0065945 -0.93972826 -2.165372 0.6022598 -2.56516 1.9118649
1.5696156 3.143755 1.9544364 0.9975774 2.3788974 -2.6105247 2.6705403 -3.0345852
-2.4743493 1.8740176 2.5754597 -3.324307 -0.76347446 2.9058328 -1.4723316 -2.163912

module.Conv1.layers.2.running_var f4 [64]
00000000: d7c5 4940 430b 2f40 6fe0 2e3f c144 c340
00000010: 7476 9a3e 77c1 5d40 a80b 293f f7b8 4340
00000020: 2158 a73f ec6a 6340 af2c cf3e 5d08 e03f
00000030: 41a3 1340 2d60 993f b00a f73e f4f6 e63f
00000040: fc67 1240 3557 de3f b70e ae3f e7f6 e03f
00000050: 07b9 8d40 a01b 1340 753a 1040 cadf 373f
00000060: 3a03 4240 b0c3 833f 4b07 853e 254b 853f
00000070: 509e df3e f145 b83e 6fa2 4840 e433 5840
00000080: 9b53 b33f 73d2 6740 6508 483f b890 5640
00000090: 7fa0 1840 ed81 073f d55c 793f da04 6740
000000a0: c1ea f83d b4a2 7c40 b942 083e d5a9 953f
000000b0: be60 7140 61f1 bc3e 71bc 6740 1bdd ec3f
000000c0: 36a2 b43f f7df 6040 0ad7 1f40 1c65 373f
000000d0: c858 8a40 7a5b 6040 5084 5440 7776 6040
000000e0: 03e5 5c40 99f0 5b40 1445 7f40 6d0d af40
000000f0: b351 2a3f f590 7440 0f55 f03f 228f 2940
3.1527002 2.7350624 0.6831121 6.102143 0.30168498 3.4649332 0.6603341 3.0581644
1.307377 3.553401 0.40463778 1.7502552 2.3068392 1.1982476 0.4825034 1.8044114
2.2875967 1.7370363 1.3598241 1.7575349 4.4288363 2.298561 2.253568 0.7182585
3.031447 1.0294094 0.25982127 1.0413557 0.4367547 0.3599086 3.1349142 3.3781672
1.4009889 3.6222198 0.7813781 3.352583 2.384796 0.52932626 0.97407275 3.609671
0.12154151 3.9474306 0.13306703 1.1692454 3.7715297 0.36902907 3.6208766 1.8504976
1.4112003 3.5136697 2.4975 0.71638656 4.3233376 3.5055833 3.3205757 3.5072305
3.4514778 3.43656 3.9885912 5.470389 0.66530913 3.8213475 1.8775958 2.6493611

module.Conv2.layers.0.weight f4 [64, 64, 3, 3]
00000000: ef85 1bbf 6ead 19bf 3c2a 1bbf caa5 22bf
00000010: 1418 1fbf d111 13bf 1c41 14bf 0803 24bf
00000020: b9f2 12bf 11b3 193f cb9f 173f 6b6b 0f3f
00000030: 8de0 233f 1d5b 203f dfca 183f 685e 163f
00000040: eb21 113f fed9 0f3f c1af 163f a265 1d3f
00000050: bc1b 243f 922d 133f 56fd 1d3f abc1 153f
00000060: e8f6 1a3f 95e5 183f 3903 183f 6cf8 1d3f
00000070: d814 1c3f 5cbd 1c3f b8f8 113f c4ee 1d3f
00000080: f9bf 1d3f a7cd 1c3f efe6 233f abd9 133f
00000090: 5294 22bf 8527 16bf 74e6 0fbf 5179 1fbf
000000a0: 46c8 15bf ae64 1bbf 9a5d 20bf 6416 22bf
000000b0: 9040 18bf 30ef 233f cc87 1c3f 6c3b 1a3f
000000c0: cc40 133f 8f38 1c3f e09a 1a3f 1336 243f
000000d0: 4e71 153f 92b5 1a3f 918a 1bbf 52ba 1cbf
000000e0: 57bb 11bf fb04 19bf e9bb 16bf d689 19bf
000000f0: 9657 11bf 04bb 15bf f5dd 1dbf 46a2 233f
00000100: bfc6 213f 2443 1c3f 6d6c 183f b0da 113f
00000110: 3ce0 1b3f 5fc0 143f dc3b 1b3f f41b 1c3f
00000120: dafd 0fbf 06c5 18bf 31c1 1dbf 99d9 13bf
00000130: 9c92 21bf cc9a 13bf 58d6 22bf 8cd1 11bf
00000140: c5aa 16bf bb8c 173f 1fce 193f 43f4 1d3f
00000150: 4a3b 143f bf88 153f 7fa3 123f 8d47 1f3f
00000160: 2068 183f 5489 103f cf0d 203f 772c 113f
00000170: 4254 193f 915c 143f 2cef 1a3f 79c7 163f
00000180: 15f9 183f 4ab9 123f 3e5d 213f 156b 123f
00000190: bf43 183f cc54 233f baa7 153f 18f3 1d3f
000001a0: 8a3e 1c3f 6fea 163f 0de6 103f fb23 103f
000001b0: 31ae 203f 8808 1b3f d001 243f a7ea 213f
000001c0: 8d3a 153f 478c 173f e534 0f3f e8f5 103f
000001d0: 46fd 143f 8f50 0f3f 2588 0f3f 59ee 203f
000001e0: 7c70 223f 9bd7 1e3f 80c1 1c3f 2bd2 1f3f
000001f0: ad03 133f f649 1b3f fb2b 203f 3e39 123f
00000200: 7516 1a3f 39c9 193f 4a7c 163f e670 203f
00000210: 8c0b 1a3f 10c7 193f 56bd 1d3f 788e 1bbf
00000220: b68b 19bf 404e 0fbf bede 10bf dd1c 11bf
00000230: 4c7b 13bf 3d20 21bf 404d 13bf 33b9 13bf
00000240: dec5 183f 1e55 193f 451c 223f 8473 173f
00000250: eadd 193f d11c 1d3f b7e8 1c3f dd9e 0f3f
00000260: bbc3 213f e96b 11bf 12c7 18bf 048f 1cbf
00000270: 3a1f 15bf 73c1 14bf 24de 17bf 60ac 17bf
00000280: 1549 15bf e739 24bf 0eb0 143f d789 1a3f
00000290: 6cfb 1e3f a6fa 163f 41d6 213f 906a 243f
000002a0: cf41 1e3f e262 233f 9228 0f3f 910b 1b3f
000002b0: 155a 193f 2d80 143f 766d 213f a25b 153f
000002c0: 66a7 193f 5211 233f feb8 223f 21a4 193f
000002d0: 71fb 213f 1ab6 213f 40ce 123f d79c 223f
000002e0: fcce 1a3f 5606 1d3f c60d 223f d7aa 153f
000002f0: 059f 0f3f 1912 1a3f 67bf 183f 38b4 143f
00000300: 264b 123f a94f 123f 75a2 163f 89af 0f3f
00000310: 6daa 143f e2bd 173f bef7 12bf 1478 10bf
00000320: 088d 20bf 6bcd 12bf cf92 17bf 7546 15bf
00000330: 29ec 22bf 069c 12bf a7ad 1bbf 109b 223f
00000340: e286 1f3f 4629 1a3f 3342 103f 8520 143f
00000350: 77f7 143f 42fe 173f c277 203f f9d8 153f
00000360: 6d6a 14bf 5d64 1ebf 8f6d 22bf eb2d 1dbf
00000370: 2fcb 1fbf 9dec 12bf ce79 13bf 75ea 10bf
00000380: 8d35 1abf 75f8 21bf 9dac 22bf e578 1fbf
00000390: 1ae2 1fbf d848 1cbf fa9c 1bbf 8c0c 14bf
000003a0: 04cf 15bf f9ba 12bf 4878 22bf e1fa 0fbf
000003b0: 9c22 1fbf 59b6 0fbf 379d 14bf f1d8 18bf
000003c0: b87e 18bf 6876 21bf efe0 1bbf 2717 13bf
000003d0: 0334 1dbf e58d 21bf ea3c 16bf 74d4 1ebf
000003e0: 21ef 17bf 4c1c 11bf a32b 17bf f1cc 1dbf
000003f0: d936 133f 7063 213f 4803 1c3f 3373 213f
-0.6075124 -0.6003026 -0.6061132 -0.63534224 -0.62146115 -0.5744906 -0.5791185 -0.64067125
-0.57401615 0.6003886 0.592282 0.5602328 0.6401451 0.6263903 0.59684557 0.587378
0.5669238 0.56192005 0.5886193 0.61483204 0.6410482 0.5749141 0.61714685 0.5849864
0.60533 0.59725314 0.5937992 0.61707187 0.60969305 0.6122644 0.5702014 0.6169245
0.6162105 0.612513 0.6402425 0.5775401 -0.6350757 -0.5865405 -0.5621102 -0.6229449
-0.5850872 -0.607005 -0.62642825 -0.63315415 -0.59473515 0.64036846 0.6114471 0.6024692
0.5752075 0.610238 0.6039257 0.6414501 0.58376014 0.60433304 -0.6075831 -0.612218
-0.5692648 -0.59773225 -0.5888048 -0.59975946 -0.5677427 -0.5848849 -0.61666805 0.63919485
0.6319389 0.6103995 0.59540445 0.56974316 0.6088903 0.58106035 0.60638213 0.60980153
-0.5624672 -0.59675634 -0.6162291 -0.577539 -0.63114333 -0.57658076 -0.6360831 -0.5696037
-0.58854324 0.5919911 0.6008014 0.6170084 0.5790297 0.5841178 0.57280725 0.6221855
0.5953388 0.56459546 0.6252107 0.5670847 0.5989419 0.57953745 0.605212 0.5889812
0.5975507 0.5731398 0.630329 0.57194644 0.5947837 0.63801265 0.58459055 0.61699057
0.6103293 0.5895147 0.5660103 0.563049 0.62765795 0.6055989 0.64065266 0.63248676
0.58292466 0.5919842 0.55940086 0.56625223 0.58198965 0.559823 0.56067115 0.6286369
0.6345289 0.6204774 0.6123276 0.62430066 0.57427484 0.6065973 0.6256711 0.57118595
0.60190517 0.60072666 0.587834 0.6267227 0.6017387 0.6006937 0.6161703 -0.60764265
-0.59978807 -0.55978775 -0.5658988 -0.56684667 -0.5761001 -0.62939817 -0.5753975 -0.57704467
0.5967692 0.59895504 0.63324386 0.5916064 0.6010424 0.61372095 0.61292595 0.5610178
0.63189286 -0.5680528 -0.5967876 -0.61155725 -0.5825077 -0.5810768 -0.59323335 -0.592474
-0.5831464 -0.6415085 0.5808114 0.60366577 0.6210239 0.5897621 0.6321755 0.642251
0.61819166 0.6382276 0.5592128 0.60564524 0.5990308 0.5800808 0.6305765 0.58342946
0.60021055 0.63698304 0.63563526 0.60016066 0.63274294 0.6316849 0.5734596 0.6352057
0.60472083 0.6133779 0.63302267 0.58463806 0.5610202 0.60183865 0.59667057 0.5808749
0.5714592 0.571528 0.5884164 0.5612722 0.5807255 0.59274113 -0.57409275 -0.56433225
-0.62715197 -0.5734469 -0.5920839 -0.58310634 -0.636416 -0.5726932 -0.6081185 0.63517857
0.6231519 0.6021923 0.5635101 0.5786212 0.581901 0.5937234 0.62682736 0.585342
-0.5797489 -0.6187189 -0.63448423 -0.6139819 -0.6241941 -0.57392293 -0.57607734 -0.56607753
-0.6023796 -0.6326974 -0.63544637 -0.62293845 -0.6245438 -0.6104865 -0.607864 -0.57831645
-0.58519006 -0.5731655 -0.63464785 -0.56242186 -0.62162185 -0.56137615 -0.5805239 -0.59706026
-0.5956836 -0.630713 -0.60890096 -0.574572 -0.6140749 -0.6310714 -0.586867 -0.6204293
-0.59349257 -0.566838 -0.5905096 -0.6164084 0.57505566 0.63042355 0.60942507 0.63066405

module.Conv2.layers.0.bias f4 [64]
00000000: 2b3d 49bc 22a5 35be d6ac 303d d033 5bbe
00000010: 1729 c73e 2912 a8bd 5204 0bbe 127c 94be
00000020: 7980 4d3d c27e 293d 28d4 803d 6490 02bd
00000030: 0599 043e 9198 ebbd fa80 6dbd 0cd7 8abc
00000040: f6c1 ebbd ac15 0d3e 9ea2 1dbe 44e1 5dbe
00000050: 345c 31be 6d5d 9b3e 5b3f eebd 4dfc 34bd
00000060: 4a10 783e 958c 0d3d b104 063d 371e 8ebd
00000070: 8cc3 693e 36f7 3c3e 7a1b 87bd a0ee f0bd
00000080: f333 103d b260 6e3e 6945 ff3c f9f3 183c
00000090: 7895 26be 6427 08be 70d8 a93d d77a 7a3c
000000a0: ca70 da3d e42b c6bd b569 41bd 04af a0be
000000b0: abca 64bc 839b b2bd f4bb 593c 0e30 86bd
000000c0: 70e5 023e 149a 9e3d 4a11 80bc df24 e23d
000000d0: 4548 523d ce03 123e df2e 903d 992d 89bd
000000e0: 914a 02be 28a8 323e 591a babd 917b dc3b
000000f0: fa6e 10be f056 06be dda1 b13d ca32 1ebe
-0.01228265 -0.17738774 0.04313358 -0.21406484 0.38898537 -0.08206589 -0.13575867 -0.29000908
0.05017135 0.04138065 0.062904656 -0.031875983 0.12948997 -0.11503709 -0.05798433 -0.016948245
-0.115116045 0.13777798 -0.15394065 -0.21667963 -0.17320329 0.30344716 -0.11633178 -0.044185925
0.24224964 0.034557898 0.032719318 -0.06939357 0.22828501 0.18453678 -0.065970376 -0.11764264
0.035205793 0.23279074 0.031161027 0.009335511 -0.16267955 -0.13296276 0.08293235 0.015288076
0.10666044 -0.0967634 -0.04721995 -0.31383526 -0.013964335 -0.08721068 0.01328944 -0.065521345
0.12782836 0.07744232 -0.015633244 0.11042189 0.051338453 0.14259264 0.0704019 -0.0669815
-0.12723757 0.17446959 -0.09087057 0.0067285975 -0.14104834 -0.13119102 0.08673451 -0.15449062

module.Conv2.layers.1.weight f4 [64]
00000000: 7f3e ac3f c78e 923e ee12 da3f b0e3 bc3e
00000010: 61ed e63e b37d c03f 994c aa3f 7c8d 083f
00000020: 12f8 2b3e 3715 a53f e6cd a03f 1f53 9d3a
00000030: ffb4 813f fe2d 233f 84d9 793f 6691 cd3f
00000040: e416 6e3e 529a cd3e 0352 2e3f f1c8 c23f
00000050: 03be cf3f c51e dfbe 720c 383f 8c3e 493f
00000060: 21de ef3f 920a ad3f ec23 0f40 a72d 9b3f
00000070: 0ff0 1240 9aac a43e 13de 223f bcf9 333f
00000080: f6cb aa3e de0e 313e 6ff9 af3f bb1d 4b3f
00000090: 80dc b83f 3c89 1e40 876e a33e 290e 183f
000000a0: 7d0f 253f 3659 c93f 9111 b33e 6d30 ca3f
000000b0: 8e48 5a3f 6189 e2be 56f5 333e eb9e ca3f
000000c0: 0800 9ebe 4938 b13f f39f 9e3f 88ce d63f
000000d0: 784a c53f a464 ff3f a5ee b63f df03 e33f
000000e0: 2132 2440 5862 1e3f 807a 81bc ce49 373f
000000f0: 2892 e23e a9d4 e23f 68e7 c63f b0e4 f13f
1.3456572 0.28624555 1.7037027 0.36892462 0.4510298 1.503836 1.3304626 0.5334089
0.1679385 1.2897099 1.2562835 0.0012002921 1.0133361 0.63742054 0.9759753 1.6059997
0.2325092 0.401568 0.6809389 1.5217572 1.6229862 -0.43578163 0.7189399 0.78611064
1.8739663 1.3518851 2.2365675 1.2123307 2.295902 0.32162935 0.6362011 0.7030294
0.33358735 0.17290828 1.3747996 0.7934224 1.4442291 2.4771261 0.31920263 0.59396607
0.6447676 1.573035 0.3497434 1.5796028 0.8526696 -0.44245437 0.17574057 1.5829748
-0.308594 1.3845302 1.2392563 1.6781778 1.5413351 1.9952588 1.4291579 1.7735556
2.5655596 0.6186881 -0.015805483 0.7159699 0.44252133 1.7721149 1.553937 1.8897915

module.Conv2.layers.1.bias f4 [64]
00000000: d041 6cbf 066e 12bf e521 4a3f e284 03bf
00000010: 30cf f1be 7853 913e f5a6 96bd 0b8a 46bf
00000020: c8bd 15bf ed33 64bf dfbf d83d 4ee0 6bbf
00000030: 0448 a5bc 63ea a5be 59a0 8fbf aa8d 103e
00000040: 381b b9be b141 6ebf 4da8 46bf ffa3 273f
00000050: aa0d bfbe 9115 23bf be2e 2abc c313 9d3e
00000060: e2b8 18be 510d 843e 3efb 50c0 cd97 c03c
00000070: 5822 fabe 9ea2 1dbf de00 99bf ede3 a8bf
00000080: 98a2 a0be ea7c 0dbf 7df4 59bd ac79 a8be
00000090: a880 2cbe cf82 33bf 7476 f3be 7500 abbe
000000a0: 4586 abbe 9295 d23e 55f0 5bbf 4256 b63e
000000b0: 3eb3 f53e 2c32 81bf 05f3 c8be fe15 1b3e
000000c0: 8160 5bbf f62f 293f e5e5 363e 7458 ac3f
000000d0: 829b aa3f e381 1dc0 4385 553f 9ab0 86bf
000000e0: d103 2fc0 1f08 b6bf 6d16 59bf 4288 35bf
000000f0: ddc7 45be d8c5 5f3e 30ab da3e 9883 4e3f
-0.9228792 -0.5719913 0.7895797 -0.5137464 -0.47228384 0.28383994 -0.07356063 -0.77554387
-0.5849271 -0.8914173 0.105834715 -0.92139137 -0.020175941 -0.32405385 -1.1220809 0.1411654
-0.3615358 -0.9306899 -0.77600557 0.65484613 -0.37315112 -0.6370478 -0.010387121 0.3067914
-0.14914277 0.2579141 -3.2653346 0.023509884 -0.48854327 -0.6157626 -1.195339 -1.3194557
-0.3137405 -0.5526873 -0.053211678 -0.32905328 -0.16845953 -0.70121473 -0.4755131 -0.33398786
-0.33500877 0.41129738 -0.8591359 0.35612684 0.47988313 -1.0093436 -0.3924791 0.15145108
-0.8569413 0.6608881 0.17861135 1.3464494 1.3328707 -2.4610527 0.83406466 -1.0522645
-2.734608 -1.4221228 -0.84799844 -0.7091104 -0.19314523 0.21852815 0.4270873 0.80669546

module.Conv2.layers.1.running_mean f4 [64]
00000000: 88c7 8e42 6617 81c2 aeb7 2443 edca 8ec2
00000010: ac72 9bc2 daaa 8742 3135 92c2 b217 8ac2
00000020: 7501 e8c2 f3fa 3e43 78b7 dbc2 5ba8 9042
00000030: 5fa6 8cc2 5c63 8e42 0bdd 8d42 05c5 3743
00000040: 7750 0a42 4937 02c2 b512 7e42 f2bc 4e43
00000050: 2a14 8f42 ed7e 8cc2 977e 3bc2 4cee 18c2
00000060: 2aaa 9142 def1 92c2 344e ad42 42f6 43c2
00000070: 96a9 9342 13bc 13c3 447d ce42 21e5 4c43
00000080: 81c1 c5c2 37cd 93c2 ee07 1cc2 35bb afc2
00000090: 8762 1b43 7a78 0843 04a3 39c3 7ad4 4743
000000a0: d9f2 4443 416d 5943 3205 2043 1b9a 5143
000000b0: da4a c3c2 16fa 4f42 239d dfc2 76c5 f042
000000c0: 7a62 4c43 846f 1043 6e3a 8642 2e41 a9c2
000000d0: 1330 aec2 b119 8b42 c603 eac2 ebdd 5643
000000e0: 791a 3f43 26ae b240 cd29 6442 12df 04c3
000000f0: 2981 16c3 3c00 9442 7e6b 2043 6adc 8dc2
71.38971 -64.5457 164.7175 -71.39634 -77.72397 67.833694 -73.10389 -69.04628
-116.002846 190.98027 -109.85834 72.32882 -70.32494 71.19406 70.931725 183.7696
34.57858 -32.55399 63.51827 206.73807 71.53938 -70.2479 -46.873623 -38.23271
72.83235 -73.4724 86.65274 -48.990486 73.83122 -147.73466 103.24466 204.89503
-98.87794 -73.90081 -39.007744 -87.86564 155.38487 136.47061 -185.63678 199.82999
196.94862 217.42677 160.0203 209.60197 -97.646194 51.994225 -111.80691 120.385666
204.38467 144.43561 67.11412 -84.627304 -87.093895 69.55018 -117.00737 214.86687
191.10341 5.5837584 57.04082 -132.87137 -150.50453 74.00046 160.41989 -70.9305

module.Conv2.layers.1.running_var f4 [64]
00000000: e7d4 ff45 b90e ad45 6de7 b646 d2e0 fb45
00000010: 6541 0046 c098 6045 01c5 fa45 0bf8 f945
00000020: 9761 ce45 0e13 8146 8c02 1846 0f3c fc45
00000030: cb8c ee45 4607 fc45 c412 fc45 1f48 5b46
00000040: 0304 3244 3bbd e943 c52a d644 754e a846
00000050: ecbd fc45 9520 e845 4f67 8345 cc94 2445
00000060: f117 c445 b720 eb45 c0c1 4d46 84ad 7c45
00000070: 2e97 0046 ea15 0346 095c e545 8aba 9546
00000080: 7a14 6f45 5902 ff45 4d8f 6844 31a9 ad45
00000090: 6c6c 6f46 da68 ed45 d4d7 7f46 3d47 9446
000000a0: 7450 8c46 bff4 ab46 46ec 7946 7b18 a846
000000b0: e711 0f46 e9bb 1545 41e1 2846 41bf 3846
000000c0: 0f2b 9646 9fe6 5646 dddc df44 f07e 7645
000000d0: ba24 d544 c7f7 f345 efc6 ba45 2f6b ab46
000000e0: 2a83 7b46 c41a 9b44 6537 f044 8d5b 6046
000000f0: c774 1746 5eca fb45 a691 2646 2367 fc45
8186.613 5537.8403 23411.713 8060.1025 8208.349 3593.5469 8024.6255 7999.0054
6604.1987 16521.527 9728.637 8071.5073 7633.599 8064.909 8066.3457 14034.03
712.0627 467.47836 1713.3365 21543.229 8087.74 7428.0728 4204.9136 2633.2998
6274.9927 7524.0894 13168.4375 4042.8447 8229.795 8389.479 7339.5044 19165.27
3825.2798 8160.2935 930.2391 5557.149 15323.105 7597.1064 16373.957 18979.62
17960.227 22010.373 15995.068 21516.24 9156.476 2395.7444 10808.313 11823.813
19221.53 13753.655 1790.902 3943.9336 1705.1477 7806.972 5976.8667 21941.592
16096.791 1240.8364 1921.7311 14358.888 9693.194 8057.296 10660.412 8076.892

module.Conv3.layers.0.weight f4 [64, 64, 3, 3]
00000000: 8da5 163f 3145 233f 1bb0 103f 3111 0fbf
00000010: 508f 1b3f ece4 193f 7390 21bf 6520 1cbf
00000020: a3cb 19bf dc5b 13bf 868a 17bf 3ce1 17bf
00000030: 22ba 0fbf d8d7 19bf 9ad4 15bf c0b6 16bf
00000040: 3c63 1dbf b707 19bf c342 1b3f 9b09 143f
00000050: 5074 1d3f 14ca 1a3f 746b 243f 308b 253f
00000060: 061a 203f c799 1f3f 13ed 133f 8771 12bf
00000070: 9ffa 17bf 1f6a 11bf 157c 14bf 40c7 1ebf
00000080: 48ce 0fbf 75fd 1ebf 25ba 0fbf 4bf7 13bf
00000090: 9fc9 11bf e41f 1abf 0bc9 12bf da6c 12bf
000000a0: 519a 22bf dfb4 17bf c166 13bf f9ff 16bf
000000b0: 890a 16bf dfe6 1dbf 9db7 1bbf 3082 23bf
000000c0: 9694 17bf 1ced 19bf ee05 18bf 97f7 17bf
000000d0: 7fca 1cbf 5921 16bf 50a3 1f3f e297 213f
000000e0: 4183 03bf 0f58 133f 6b1b 253f 310c 1d3f
000000f0: 94a6 2e3f 4438 183f 0a24 183f 8832 1ebf
00000100: afcd 1bbf 8924 20bf 9e81 1abf 5332 20bf
00000110: 9408 1ebf 219f 1cbf d310 21bf b526 24bf
00000120: 319b 1e3f 1fc1 233f 49af 203f 41a0 1c3f
00000130: b729 133f 19b6 143f 247b 103f 551b 213f
00000140: d91e 133f bbed 12bf 78ae 17bf 9b57 21bf
00000150: 5e1a 0fbf df76 14bf f21d 1cbf bb2d 1abf
00000160: 5935 23bf ed1f 10bf fcf2 213f 571d 1b3f
00000170: ac7d 223f 4811 183f 7694 1a3f bd71 133f
00000180: dcbc 273f 44ac 173f 48e0 243f 30f7 173f
00000190: 26b8 1b3f 18b6 1b3f 650e 133f 181e 183f
000001a0: 5106 1c3f 8c45 193f 4fc8 143f 412a 103f
000001b0: b45b 143f ec73 213f a45f 243f 3805 143f
000001c0: 0ca1 193f 2058 223f 30d6 123f a5b0 1a3f
000001d0: 2d36 123f 990f 10bf 699c 1bbf be21 20bf
000001e0: fa7d 10bf 94b7 1bbf d39e 1fbf 8b85 0bbf
000001f0: 5b14 12bf f02a 0fbf df7c 12bf c1b8 1cbf
00000200: e3ba 12bf b010 1abf d4d7 1ebf 9641 17bf
00000210: 3934 12bf 026a 1cbf b638 16bf 4571 19bf
00000220: d26c 20bf 733b 12bf 1825 1dbf f951 13bf
00000230: 6e0d 1bbf c402 1bbf 714b 16bf ffbe 1fbf
00000240: 6695 20bf 140c 15bf f9b3 1dbf 2e62 1fbf
00000250: eee4 0fbf 3093 11bf d553 1dbf 286e 10bf
00000260: da6b 1abf 89ee 17bf 2127 17bf b9d9 1bbf
00000270: 630d 14bf 8241 18bf 8078 22bf 11ab 1dbf
00000280: bc59 10bf 43fe 20bf bf9e 233f c04e 143f
00000290: 1172 223f a56e 103f ee93 103f 7470 143f
000002a0: 59a2 153f 7039 103f 7be6 1e3f 20e1 1fbf
000002b0: 72bc 18bf e8d8 19bf 9d29 0bbf 1c6f 0dbf
000002c0: e016 1abf 6554 01bf 143a 09bf 841c 1abf
000002d0: cb9e 24bf 8ad5 11bf 83f0 1dbf e01d 1bbf
000002e0: 9580 16bf 4dea 12bf 1c60 13bf 42f4 18bf
000002f0: b215 1bbf 5813 1e3f 6f07 123f 4848 203f
00000300: b7e4 1f3f 9840 143f 1d56 233f 1d15 143f
00000310: 1eb2 103f 1166 1e3f bb08 20bf 7acc 17bf
00000320: 0747 21bf c2b5 21bf 221f 23bf a621 13bf
00000330: c75a 1cbf 9646 15bf ddad 10bf 0b15 1cbf
00000340: c499 14bf 9c4f 1dbf 8286 1bbf 541f 0fbf
00000350: c33a 24bf 68c5 20bf 116a 1fbf 37f6 23bf
00000360: a180 1cbf 7ae9 11bf f96c 24bf f650 10bf
00000370: 2487 1fbf f3e8 22bf 5677 18bf 8cfc 1abf
00000380: f9c5 11bf 2870 1e3f 2c31 233f 2ffb 183f
00000390: 2891 223f 8912 1d3f 30b4 153f 0d03 133f
000003a0: 922b 143f 47fe 1a3f c243 1abf b49e 1ebf
000003b0: 9c86 14bf 7b0f 12bf a9d0 17bf ed80 22bf
000003c0: 6e5a 10bf 6037 18bf 6cc9 1cbf 9656 173f
000003d0: ecda 113f 20d6 113f af01 183f fd7e 103f
000003e0: 79a2 213f e521 153f 3abc 193f df9c 153f
000003f0: 54ff 17bf 0a64 13bf 0692 11bf a36a 16bf
0.5884636 0.6377745 0.56518716 -0.55885607 0.6076555 0.6011493 -0.63111037 -0.6098693
-0.6007635 -0.5756204 -0.59195745 -0.59328055 -0.5614339 -0.60094976 -0.5852753 -0.58872604
-0.61479545 -0.59777397 0.60648745 0.57827157 0.61505604 0.60464597 0.6422646 0.6466551
0.6253971 0.6234402 0.5778362 -0.5720448 -0.5936679 -0.5680255 -0.58001834 -0.6202278
-0.56174135 -0.62105495 -0.5614341 -0.57799214 -0.56948274 -0.6020491 -0.5733802 -0.57197344
-0.6351672 -0.5926036 -0.57578665 -0.58984333 -0.58609825 -0.61680406 -0.60827047 -0.63870525
-0.592111 -0.60127425 -0.5938405 -0.5936217 -0.61246485 -0.58644634 0.6235857 0.6312238
-0.5137215 0.5755624 0.6449496 0.6134673 0.6822293 0.59460855 0.5942999 -0.61795855
-0.60860723 -0.6255575 -0.6035403 -0.6257679 -0.6173184 -0.6118031 -0.62916297 -0.6412156
0.61955553 0.63966554 0.62767464 0.6118203 0.57485527 0.5809036 0.564379 0.6293233
0.57468945 -0.57394 -0.59250593 -0.630243 -0.5589961 -0.5799388 -0.6098319 -0.6022603
-0.6375328 -0.56298715 0.6326139 0.60591644 0.6347301 0.5940137 0.60382783 0.57595426
0.6552255 0.5924723 0.64404726 0.59361553 0.60827863 0.6082473 0.5744384 0.5942092
0.6094714 0.59871745 0.58118147 0.56314474 0.5795243 0.6306751 0.64208436 0.57820463
0.60011363 0.6341572 0.57358074 0.6042579 0.57113916 -0.562738 -0.6078554 -0.62551486
-0.56442225 -0.60826993 -0.6235172 -0.54500645 -0.5706231 -0.5592489 -0.5722179 -0.6121941
-0.57316417 -0.60181713 -0.6204808 -0.5908445 -0.57110935 -0.61099255 -0.58680284 -0.5993846
-0.62666047 -0.5712196 -0.61384726 -0.57546955 -0.6056737 -0.60551095 -0.58708864 -0.6240081
-0.62727964 -0.58221555 -0.6160274 -0.62259185 -0.56208694 -0.56865215 -0.6145604 -0.56418085
-0.6032082 -0.5934835 -0.5904408 -0.60879093 -0.57832927 -0.59474957 -0.6346512 -0.6158915
-0.56386924 -0.6288797 0.639141 0.5793266 0.634553 0.5641883 0.5647572 0.5798409
0.5845085 0.5633764 0.62070435 -0.6245289 -0.59662545 -0.600966 -0.5436037 -0.55247664
-0.60191154 -0.505194 -0.53604245 -0.6019976 -0.643048 -0.5696646 -0.61695117 -0.6059246
-0.5878995 -0.57388765 -0.57568526 -0.5974771 -0.6057998 0.61748266 0.5704259 0.6261029
0.62458366 0.5791106 0.63803273 0.57844716 0.56521785 0.6187449 -0.6251332 -0.5929638
-0.62999004 -0.63167965 -0.6371938 -0.5747322 -0.61076015 -0.5831083 -0.56515294 -0.6096961
-0.5804713 -0.614496 -0.6075212 -0.5590718 -0.64152163 -0.6280122 -0.6227122 -0.6404757
-0.6113377 -0.5699688 -0.6422878 -0.56373537 -0.62315583 -0.636367 -0.5955709 -0.60541606
-0.5694271 0.61889887 0.63746905 0.59758276 0.6350274 0.6135641 0.5847807 0.5742653
0.57878983 0.60544246 -0.6025964 -0.6196091 -0.580179 -0.5705487 -0.59302765 -0.63477975
-0.56387985 -0.59459496 -0.61244845 0.59116495 0.56974673 0.56967354 0.5937757 0.5644377
0.6313854 0.58254844 0.60052836 0.5844249 -0.59373975 -0.5757452 -0.5686344 -0.58756465

module.Conv3.layers.0.bias f4 [64]
00000000: a452 cb3c 5ed5 9f3c 1fac f9bc 0e40 1ebd
00000010: ed9b 583d c635 a93c 04fa 733d 21f9 9abd
00000020: 35fb 9abd d374 ab3d f37f 59bd 5102 fe3c
00000030: d720 d0bd 6faf 20bd 3c26 e93c a188 d3bd
00000040: dad5 5abd ecbc dabd e242 2d3e 20cb 84bc
00000050: 4d12 d2bd ef73 70bc fd4e 113d cbad 0dbe
00000060: 4cb3 d23c b8de 83bd 3400 1cbe 19e0 113d
00000070: 325d 06bd 832c 6e3d 969b 28bd 2afb 94bd
00000080: 25ff 23bd 4b3f 303d 2d03 a73c a9ed 55bd
00000090: 8070 a83b 7c7b e2bd d75a c13d b7e3 003d
000000a0: 1ff9 1e3d cc01 153b ca9f dcbb 1fda 40ba
000000b0: 7dd0 6c3d d8e9 c93b 134d 703b 19dc 303d
000000c0: 4628 9fbd fbb3 86bd d9d2 4d3d bcb7 33bc
000000d0: 2be0 c63d 4706 8b3b f589 193e adbe 80bd
000000e0: 2c1f a8bd 2cf5 a7bd e81f b63d 2692 c3bd
000000f0: 7b79 a9bd a818 c5bd 9969 3a3d 718d c43c
0.02481968 0.019510921 -0.030477582 -0.038635306 0.052883077 0.020655524 0.059564605 -0.07567049
-0.07567445 0.08371892 -0.053100538 0.031006964 -0.10162514 -0.039229807 0.028460614 -0.10328794
-0.0534266 -0.10680565 0.16920045 -0.016210139 -0.10257397 -0.014676078 0.03547572 -0.13835828
0.025720261 -0.064389646 -0.15234452 0.035614107 -0.03280372 0.05814792 -0.041164003 -0.07274468
-0.040038247 0.04302911 0.020387257 -0.052228604 0.005140364 -0.11058709 0.094411545 0.031467166
0.0388118 0.0022736667 -0.0067329155 -0.00073567213 0.057816017 0.0061619096 0.0036667034 0.04317865
-0.077713534 -0.06577297 0.050249908 -0.010969099 0.097107254 0.0042426917 0.14994033 -0.062863685
-0.082090706 -0.0820106 0.088928044 -0.0954936 -0.08275124 -0.096238434 0.045510862 0.023993226

module.Conv3.layers.1.weight f4 [64]
00000000: e2b6 2540 753b c83f 9e41 563f ee2d dd3f
00000010: e76c c03f ee7a f63f 148d e03f ded4 4d3f
00000020: 568c 0d3f c910 a23f ffbd 0b3f bb0a 9c3f
00000030: 19f2 973f f445 c33f b681 703f 0e02 b33f
00000040: 1124 073f d7fc 803f 11dc 1340 5d59 943f
00000050: 7a4b 2fbf 18bb a93f 8b57 663f 9273 8cbe
00000060: 6fca 843f 4d76 1840 dc88 efbd 0352 0ebf
00000070: 926a 043f e908 623f 30a8 c93f d6a1 fc3f
00000080: 3612 b23f 39f9 513f feaa b93f b6bd 033f
00000090: 19e9 163f ce6a 0ebf 4ee8 8c3f 893b 4b3f
000000a0: 7f44 8d3f 303e a53e c617 70bd 6a5d f53f
000000b0: 4a57 ad3e 8647 9f3f 79ff 623f d8e1 903f
000000c0: eaf8 b13f 8d4a b83f 4507 2340 1a38 de3c
000000d0: e823 c83f 1612 f53f dd75 db3f 2b76 b93f
000000e0: f8a2 cf3f f036 443f 0d24 d13f e620 a53d
000000f0: b9e7 8c3f 9228 d43f 44c8 493f 3450 913e
2.5892873 1.5643145 0.83693874 1.7279642 1.5033234 1.9256265 1.7543054 0.80402935
0.5529226 1.2661372 0.54586786 1.2190775 1.1870757 1.5255723 0.93947923 1.3985002
0.5278941 1.0077161 2.3103068 1.1589772 -0.68474543 1.3260221 0.8997733 -0.27431923
1.0374278 2.3822205 -0.11696026 -0.5559389 0.51725113 0.88294846 1.5754452 1.9736888
1.3911808 0.8202091 1.4505308 0.5146135 0.5894943 -0.5563172 1.1008394 0.7938772
1.1036528 0.32274008 -0.058616422 1.9169133 0.3385566 1.2443702 0.8867107 1.1318922
1.3904088 1.4397751 2.5473187 0.02712636 1.5635958 1.9146144 1.7145344 1.4489187
1.6221609 0.7664633 1.6339127 0.080629155 1.1008216 1.6574881 0.78821206 0.28381503

module.Conv3.layers.1.bias f4 [64]
00000000: 996b 2c3e 4e23 2cbd f289 52bf a609 e6bd
00000010: fbc6 88bd b3bf d43e ce00 913e 055a 33c0
00000020: bb83 6dbf 94c9 833e 8930 1140 0aa5 393e
00000030: 6b8a 263e edd8 0cbf 5e68 a4bf e10f d6bc
00000040: b44c cbbf efe2 d2bf 35d8 d9be 214e 4abe
00000050: 6ae6 72bf 5681 a13d 7732 5c3e e104 1940
00000060: 54aa 8cbf 1df3 b1be a7eb dbbf a768 93bf
00000070: 4c5f 0cc0 7732 37bf 60aa 553e 32af ae3e
00000080: 2788 5cbd bab5 303f 9395 34be a3ed 2e40
00000090: 248e df3f 714a e0bf b4a1 0dbf 01d4 fb3f
000000a0: 700f 183e a5ab a83f 8488 d4bf ae96 55bd
000000b0: b391 11c0 33b9 bc3e f917 4a3f 3bef 083c
000000c0: d27c 4d3f 93ab bf3e 65cb 27be 521d f53e
000000d0: b4dc 45be e371 a9bd 4f4f 81bd 080f 5bbe
000000e0: 9e43 b13e a6cb 5bbf 4856 b43d 4096 b5bf
000000f0: 6002 923f ef1b 97bd 880d 04c0 ec75 b83f
0.1683792 -0.042025857 -0.8224174 -0.11232309 -0.066785775 0.41552505 0.28320926 -2.8023694
-0.9277913 0.2573973 2.2685874 0.18129364 0.1626374 -0.550185 -1.284435 -0.026130619
-1.5882783 -1.6475505 -0.42547765 -0.19756366 -0.94882834 0.07885997 0.21503626 2.3909228
-1.098948 -0.34755793 -1.718129 -1.1516312 -2.1933165 -0.7156138 0.20865774 0.34118038
-0.053840782 0.6902729 -0.17635183 2.7332542 1.7465253 -1.7522718 -0.55324864 1.9674073
0.14849639 1.3177382 -1.6604161 -0.052145652 -2.2745178 0.36860046 0.7894283 0.008357818
0.80268586 0.37435588 -0.16386183 0.47873932 -0.19322473 -0.08273675 -0.06313955 -0.21392453
0.346219 -0.8585762 0.08805519 -1.4186478 1.1406975 -0.07378375 -2.063326 1.4410987

module.Conv3.layers.1.running_mean f4 [64]
00000000: 9a11 4ac2 b1a1 53c2 6435 7142 e00d 46c2
00000010: 7453 7fc2 59ca 37c2 2bce 5542 57a8 0f42
00000020: 8598 2242 51ac 15c2 70c7 74c2 506c a242
00000030: 2187 84c2 857c 3bc2 2cba 0b42 d504 5442
00000040: 2744 4cc2 823d 1d42 8f39 2142 2bab 19c2
00000050: aa88 4f42 fa9e d3c1 8d6e 3442 11e8 06c2
00000060: 5a9a 85c2 e43b 2342 8dcd 5442 4ce5 0b42
00000070: a481 8442 b149 4242 0f16 0cc2 1673 84c2
00000080: 5a78 8941 d9a1 1ac2 1256 72c2 92c5 65c2
00000090: 6ae7 ab41 d1be d0c1 8321 2ac2 921f 20c2
000000a0: 89f5 80c2 d242 05c2 32ed 79c2 d70e 39c2
000000b0: 4f9f 3542 6a63 c5c2 2051 5bc2 294d c7c1
000000c0: 5484 42c2 58af 14c2 bdc2 e741 32d3 5642
000000d0: 7e0e 2d42 5d80 2cc2 3a3a 5142 875d 8ac2
000000e0: 1b3d 0ec2 1b39 6242 e5c1 db42 104a afc2
000000f0: 37d6 87c2 4b10 8fc2 763b 1a42 75c3 53c2
-50.51719 -52.9079 60.30214 -49.51355 -63.831497 -45.947605 53.451336 35.914394
40.648945 -37.418278 -61.194763 81.21155 -66.26392 -46.8716 34.93181 53.00472
-51.066555 39.310066 40.30621 -38.417156 51.88346 -26.452625 45.10796 -33.726627
-66.80147 40.808487 53.200733 34.973923 66.253204 48.571964 -35.02154 -66.22478
17.183765 -38.658054 -60.584053 -57.44294 21.487995 -26.093172 -42.532726 -40.03083
-64.47956 -33.315254 -62.481636 -46.264492 45.405575 -98.69417 -54.829224 -24.912676
-48.629227 -37.171234 28.970087 53.706245 43.264153 -43.125355 52.30686 -69.18267
-35.559673 56.555767 109.8787 -87.64465 -67.91839 -71.53182 38.558067 -52.940876

module.Conv3.layers.1.running_var f4 [64]
00000000: 18f0 1e46 d54d ce45 04f1 3346 d755 7245
00000010: 9a77 1846 ae0a 4545 5506 dd45 d511 1246
00000020: f8b8 b545 495a 0446 46f1 0846 f119 c945
00000030: 90f6 0e46 525f dd45 2b3a de44 68b4 9f45
00000040: 400d cc45 8975 7e45 7381 8745 6b69 9845
00000050: 0078 8a45 e1bf b745 9acd 1245 f14a 9145
00000060: e578 0046 e16a 0845 3f36 2d46 2553 0f45
00000070: 8b06 9a45 f752 bb44 9909 cd44 3a8a b345
00000080: 26da e744 e63c 1645 7f5f d445 9d0e 6745
00000090: 64e9 0a46 e84e b445 800e 0d46 a05f 7645
000000a0: 1ca8 ad45 09fb 4545 92f3 1246 2a6e 2546
000000b0: 1f1c 1144 3d9f 8846 3fba 2446 b8ad 0345
000000c0: dce0 7845 262d d444 86d4 1f44 9779 1146
000000d0: d061 ae45 979b de45 ce11 bc45 7fae 5846
000000e0: 833d 0f45 3bef 2146 be9a a146 8b8a cb45
000000f0: 3a92 e745 aa0e 3646 9ba5 d945 0ae4 9c45
10172.023 6601.729 11516.254 3877.365 9757.9 3152.6675 7072.7915 9348.458
5815.121 8470.571 8764.318 6435.2427 9149.641 7083.915 1777.8177 5110.551
6529.6562 4071.346 4336.181 4877.1772 4431.0 5879.985 2348.85 4649.3677
8222.224 2182.68 11085.562 2293.1965 4928.818 1498.5927 1640.2999 5745.2783
1854.8171 2403.8062 6795.937 3696.9133 8890.348 5769.8633 9027.625 3941.9766
5557.0137 3167.6897 9404.893 10587.541 580.4394 17487.62 10542.562 2106.8574
3982.0537 1697.4109 639.3207 9310.397 5580.2266 7123.4487 6018.2256 13867.624
2291.8445 10363.808 20685.371 6513.318 7410.2783 11651.666 6964.7007 5020.505

module.Conv4.layers.0.weight f4 [64, 64, 3, 3]
00000000: 4054 123f dba5 3fbf 8d58 183f d1c4 0c3f
00000010: 1b44 1e3f a251 0e3f 88b4 153f ed9c 0e3f
00000020: 437e 1f3f 052b 1fbf fdf2 15bf b30e 1cbf
00000030: d521 0fbf 8681 10bf 2305 20bf e120 19bf
00000040: a199 1abf 9981 17bf affa 163f c3a6 123f
00000050: 4b14 293f fab3 203f aa7c 153f 6d49 113f
00000060: c9e8 203f 7e21 1c3f e236 193f e294 11bf
00000070: 9563 12bf d196 1fbf de13 15bf 5c39 18bf
00000080: 6130 1dbf ee5d 13bf 526f 1dbf b60b 13bf
00000090: fc99 14bf bb86 1fbf bab9 13bf 0f46 21bf
000000a0: 36e4 14bf 3aa7 19bf 1d2e 1cbf 736b 22bf
000000b0: 92a5 11bf 8ab6 18bf 5fc7 1bbf c2da 16bf
000000c0: df79 20bf 8e61 0dbf 94d9 0cbf bcf5 0ebf
000000d0: 56da 1cbf 13bf 18bf c252 20bf 3ad1 1ebf
000000e0: fce2 15bf 75f7 4ebf c6f7 2abf d049 1abf
000000f0: fb60 23bf ba4b 1dbf 24ba 14bf 8650 1ebf
00000100: 4a22 21bf aba4 20bf 5c85 21bf 6e71 12bf
00000110: 52b9 12bf a7c5 13bf 302c 21bf 9127 1fbf
00000120: 9d0f 203f 3823 243f be63 133f 3296 0f3f
00000130: 0864 193f 6d7b 0f3f 857a 243f da45 223f
00000140: 82e5 0d3f 5c34 15bf 867b 1bbf c4df 27bf
00000150: a661 1ebf b053 1abf 9b51 2cbf befb 17bf
00000160: 22ed 13bf 15de 14bf c904 45bf 39a9 0b3f
00000170: 97c9 183f 359d 143f 9d67 1c3f a83f 093f
00000180: 496a 183f 364e 0a3f adee e93e 73fd 1f3f
00000190: e20d 0f3f 1408 1c3f 3bdf 1d3f 4b48 193f
000001a0: 2da4 203f 0b9c 233f 0abf 103f 5d93 0f3f
000001b0: c157 113f 1dd6 d43e 0c80 21bf 37ff 0e3f
000001c0: aa03 66bd 711d 23bf 008a 103f 27e3 133f
000001d0: 93f7 1fbf 29fd 1b3f 62d2 27bf 8d33 1abf
000001e0: 92d4 56bf a3e2 1ebf 904b 25bf dae6 48bf
000001f0: fb4e 1abf d260 14bf 5442 1cbf 8f99 26bf
00000200: ea9d 1abf f867 1abf 939b 22bf 2bce 15bf
00000210: a1f4 1bbf 6cb9 1ebf d343 1dbf 1a21 18bf
00000220: 1731 12bf 036a 1abf 06f8 10bf a44e 23bf
00000230: c636 13bf 0030 22bf e27e 1ebf 0b55 1bbf
00000240: ca6f 0fbf 28e2 0ebf 7b3d 11bf 8fc3 18bf
00000250: e009 1ebf 6975 13bf dc9c 1ebf 0a4b 20bf
00000260: bee5 19bf b0a1 12bf 8e8f 14bf 4531 20bf
00000270: 8273 14bf d9f5 18bf 6f59 17bf a823 13bf
00000280: c03f 16bf be75 1dbf b84d 153f d21f 33bf
00000290: bbe6 1fbf 0d61 1f3f e6c1 0d3f 333a 4bbf
000002a0: 4609 153f 97f5 1d3f a384 173f 4eb9 10bf
000002b0: 8af8 13bf ef57 20bf d96b 1f3f e7da 11bf
000002c0: d472 13bf b81c 14bf 8c9d 0ebf 702d 22bf
000002d0: 2c4c 10bf 3cc3 11bf 3588 11bf 8517 1cbf
000002e0: 14d6 12bf 8ee2 19bf edf1 10bf 3326 19bf
000002f0: 2ea5 0ebf b007 163f 223c 1e3f 98c4 103f
00000300: a3be 103f 8230 153f b332 1e3f 0594 173f
00000310: 6c21 133f 1edb 143f 2a51 17bf 5e0a 20bf
00000320: 3087 1abf a31b 24bf 98dd 15bf c7df 1fbf
00000330: be15 21bf 7158 1bbf beb5 1dbf b8c0 1dbf
00000340: ed56 20bf db6a 11bf 1d73 10bf a114 1fbf
00000350: a785 20bf 4c63 20bf ada6 20bf d8ac 12bf
00000360: 1381 1cbf 3c85 1bbf 47bc 15bf 54d9 0fbf
00000370: 89bf 22bf deb1 0ebf 9cd5 15bf f46e 1ebf
00000380: 2ee1 15bf 7fe3 1a3f 34d0 1d3f 7fc2 1b3f
00000390: 5ea5 183f b911 173f cc2b 1a3f 8f81 113f
000003a0: 1c49 123f 885b 0c3f 6150 12bf 1dc2 24bf
000003b0: 1384 22bf 3941 17bf 86a3 24bf 1774 1ebf
000003c0: 7f8b 25bf f49a 14bf 5a3d 1dbf 6c72 233f
000003d0: 687b 29bf 91f9 12bf f87a 113f 5bff 16bf
000003e0: 1d69 27bf 78f9 063f edee 17bf a159 19bf
000003f0: 8447 1bbf 3f03 2ebf 121f 123f e1d2 123f
0.57159805 -0.7486245 0.5951012 0.5498782 0.6182267 0.5559331 0.58478594 0.557082
0.62302035 -0.6217502 -0.58573896 -0.6095993 -0.55911 -0.5644764 -0.6250784 -0.59815794
-0.6039067 -0.59182125 0.5897626 0.5728571 0.6604659 0.6277462 0.5839335 0.56752664
0.628552 0.60988605 0.5984937 -0.568678 -0.571832 -0.623395 -0.5823344 -0.59462523
-0.61401945 -0.575652 -0.61497986 -0.57439744 -0.5804746 -0.6231496 -0.5770527 -0.62997526
-0.5816072 -0.6002079 -0.61007863 -0.63445204 -0.56893265 -0.5965353 -0.6085109 -0.5892755
-0.6268596 -0.5522698 -0.550195 -0.5584371 -0.61270654 -0.59666556 -0.6262628 -0.62038004
-0.58549476 -0.8084634 -0.6678432 -0.6026888 -0.63819855 -0.61443675 -0.5809653 -0.6184162
-0.62942946 -0.62751263 -0.63094115 -0.5720433 -0.57314026 -0.5772347 -0.6295805 -0.6216975
0.62523824 0.6411624 0.5757407 0.56088555 0.5991826 0.5604771 0.6424945 0.63387835
0.55428326 -0.5828302 -0.60735357 -0.65575814 -0.6186775 -0.60283947 -0.6731202 -0.59368503
-0.5778371 -0.5815137 -0.76960427 0.5455509 0.596826 0.5805238 0.610956 0.53612757
0.5953718 0.5402559 0.45689908 0.6249611 0.5588056 0.60949826 0.6166875 0.59875935
0.6275051 0.6390998 0.565415 0.56084234 0.56774527 0.41569605 -0.6308601 0.55858177
-0.056155838 -0.637168 0.5646057 0.5776848 -0.62487143 0.60933167 -0.65555394 -0.6023491
-0.83918107 -0.6206457 -0.64568424 -0.7847725 -0.60276765 -0.57960236 -0.6103871 -0.6507806
-0.6039721 -0.60314894 -0.6351864 -0.5851771 -0.6092015 -0.6200168 -0.61431617 -0.5942551
-0.57106155 -0.6031801 -0.56628454 -0.6379187 -0.5750545 -0.6335449 -0.6191236 -0.6067664
-0.5602995 -0.5581384 -0.56734437 -0.596734 -0.6173382 -0.5760103 -0.619581 -0.626145
-0.60116184 -0.57277966 -0.5803155 -0.6257518 -0.5798875 -0.59750134 -0.5912084 -0.5747628
-0.58691025 -0.61507785 0.58321714 -0.6997043 -0.6246144 0.6225746 0.5537399 -0.7938568
0.58217275 0.61702865 0.5918676 -0.5653275 -0.57801116 -0.62634176 0.6227394 -0.56974643
-0.5759709 -0.5785632 -0.5570915 -0.6335058 -0.5636623 -0.5693853 -0.5684846 -0.6097339
-0.5735791 -0.6011132 -0.5661915 -0.5982391 -0.55720794 0.5860548 0.61810505 0.5654998
0.5654089 0.5827714 0.6179611 0.59210235 0.5747287 0.58146846 -0.5910822 -0.6251582
-0.6036253 -0.6410467 -0.5854125 -0.6245083 -0.629238 -0.60681826 -0.6160544 -0.6162219
-0.6263264 -0.56803674 -0.5642565 -0.6214085 -0.6270394 -0.62651515 -0.6275433 -0.5729499
-0.6113445 -0.60750175 -0.58490413 -0.5619099 -0.6357351 -0.55740154 -0.5852907 -0.6188805
-0.5854672 0.6050338 0.6164582 0.6084365 0.5962733 0.5901142 0.6022308 0.56838316
0.57142806 0.54827166 -0.571539 -0.64358693 -0.6348278 -0.59083897 -0.64312017 -0.6189589
-0.6466598 -0.5804894 -0.6142174 0.6384647 -0.6620393 -0.5741206 0.5682826 -0.5898339
-0.65394765 0.5272441 -0.59348947 -0.5990239 -0.60656 -0.67973703 0.5707866 0.57353026

module.Conv4.layers.0.bias f4 [64]
00000000: f511 1ebe dafe f4bc a7a5 c0bd 22b4 adbc
00000010: a19f adbb 96a4 3bbc 4b56 ecbc e9d8 283e
00000020: 7b5c 0b3e e9f5 3ebb 70c3 623d e864 0f3e
00000030: 9658 41bd ba08 c5bd db40 66bd c2dd 11bd
00000040: 1433 87bd 1dc0 923d 5ed4 33bd 254f 8dbd
00000050: 05d5 2f3d 68f7 73bd 7059 c3bd 0b35 c2bd
00000060: 5cbf 953d 5f55 0fbe 1179 0d3d df7c ba3c
00000070: 43e6 ae3d e07c 153e ed2c 913c 20a2 0d3e
00000080: 5177 453d 73ed 9abc a02a b4bd 7b4f d43c
00000090: c16d afbd e34d 813d 5809 bebd e681 66bd
000000a0: f607 c3bc de9e 2bbd dfdc 873d 4b59 6e3d
000000b0: d471 623d 8b54 803d 8cb3 98bb e5cc 1ebb
000000c0: 7c41 66bd b3be 943d d02e b6bd 32a8 b73d
000000d0: 6eed bb3b 5b9c 4ebd 1e41 a73d 0532 d5bd
000000e0: e3fa 2b3d 2908 86bd fec7 de3d 09e4 263c
000000f0: 0e49 d33c 7555 12bc bf96 02bd 1965 dd3b
-0.15436538 -0.029906679 -0.09406596 -0.021204058 -0.0052985703 -0.011452815 -0.028849741 0.16488995
0.13609497 -0.0029138273 0.055362165 0.14003336 -0.047203623 -0.09620805 -0.056214195 -0.035611875
-0.06601539 0.07165549 -0.0439037 -0.06899861 0.04292776 -0.059562117 -0.09538543 -0.094827734
0.073118895 -0.1399741 0.034539286 0.022764621 0.08540013 0.14598417 0.017721618 0.13831377
0.048209492 -0.018912053 -0.087971926 0.025916805 -0.08565856 0.06313684 -0.09279126 -0.056276225
-0.023807507 -0.041899554 0.06633925 0.058190625 0.055284336 0.06266125 -0.0046600755 -0.0024231013
-0.056214795 0.072629355 -0.088956475 0.089676276 0.005735091 -0.05044208 0.08166717 -0.10409931
0.04198731 -0.06544525 0.10877989 0.010186204 0.025791671 -0.008931507 -0.031882044 0.0067564365

module.Conv4.layers.1.weight f4 [64]
00000000: 5bca ff3e 76fd fe3e 28ba e63e 1c0b 4b3e
00000010: 8762 033f 1999 ac3f 6a6c b53e 2e0b 733f
00000020: c188 343f a7ae bf3f 61ba 0c3f d6fc f63e
00000030: aacb fe3f 5d98 763f c4e7 b03f 4143 fd3e
00000040: fbd5 9abc 5944 3b3e 53da 60be b632 cf3e
00000050: b97f a63d 15ca f03f 4614 0f40 e54c b13e
00000060: 1671 a13a a9bd b23f 3523 ba3f a16b cb3f
00000070: abee ae3f df4a d83d 7a0f 433f 902d bb3d
00000080: b219 173f c83e 113f 181d cc3f 521c 0940
00000090: a9da d2be 59a4 393f fef0 9e3f 1d54 ba3f
000000a0: 3bed 133f 2a2a 7d3e 7665 a03f 6b7a a23f
000000b0: 427f e73f 39b8 b13f f0e3 533f 17d5 0940
000000c0: 6a9f a53f 144d 273f 39b6 873f fea4 563f
000000d0: 0692 c03f e76f 973f 54f9 663e bdb6 843e
000000e0: a90c 823f c86d 983e aceb aa3f 4cb2 e4bd
000000f0: 24a7 8f3f c0ee 05bd 56b7 843e 853e c33e
0.49959072 0.4980275 0.450639 0.19828457 0.51322216 1.3484222 0.35434276 0.94938934
0.7052117 1.4975175 0.5497189 0.48239774 1.9905903 0.9632624 1.3820729 0.49465373
-0.018900862 0.18287791 -0.21958284 0.40468377 0.0812983 1.881167 2.2356124 0.34628978
0.0012317027 1.396413 1.4541994 1.5892221 1.3666586 0.105611555 0.7619549 0.0913955
0.5902358 0.5673642 1.5946379 2.1423535 -0.4118245 0.725164 1.2417295 1.4556919
0.5778386 0.24723116 1.2530963 1.2693609 1.8085711 1.3884345 0.8276968 2.153631
1.2939274 0.65351987 1.0602485 0.8384551 1.5044563 1.1831025 0.22556049 0.25920668
1.0160114 0.29771256 1.3353171 -0.1116682 1.1222882 -0.032698393 0.25921124 0.38133636
