DIDFuse/saved_models/encoder/VIS_AE15.pth (torch, 460446 bytes, 24 tensors)

module.Conv1.layers.1.weight f4 [64, 1, 3, 3]
00000000: ca4e 263f 7a74 903e b56c 213f ce20 143f
00000010: e6d3 293f 95bc bd3e b699 183f fdad 5a3f
00000020: afdd 163f 42ce 3ebf 5334 26bf aef9 5bbf
00000030: 374a 4abf 3af2 abbe 2a0c 95be 2a8f 9bbe
00000040: fe86 9fbe 6190 12bf 46a8 22bf 2212 2bbf
00000050: e2fd fbbe 298a 4ebf 9f0e 3a3f dd9d 65bf
00000060: fc38 dbbe a1f6 823e 0391 203f c4ce ccbf
00000070: a864 5dbf 4e1c 87bf d66f bb3d a887 d03e
00000080: fe82 07be e794 89bf 2e42 4bbe fd80 2ac0
00000090: 099f 6abf e7ba 61bf 0c6b 7bbf 3746 1d3d
000000a0: 1530 db3c 3873 30be 4574 723e c3d8 3e3f
000000b0: 1b8f b63e e7f4 953e 92ed 243f 18cc 683f
000000c0: 99d7 093f 725b d33e e001 da3e 0334 073f
000000d0: 25fc 6c3f e674 4b3f 7a70 2fbf c428 15bf
000000e0: a82e d3be 29b3 1dbf ab93 663f 936c 63bf
000000f0: 3423 a43e e623 eb3e bd40 3fbf d5e3 3cbf
00000100: 337f 42bf 4363 32bf 7246 f1be 90ea 39bf
00000110: ed3f d8be 1f3c 03bf 78f1 8bbe 9f69 09bf
00000120: c2bf 93bf 5a0b b3bf 0acd c5bf 184b 93be
00000130: 509b bd3d 87f2 e03d aa77 2dbf 1f26 adbd
00000140: d49c 113e 8cd6 ea3e 420c 963e 76d9 393f
00000150: 476a 483f 222e 663f 17e3 2e3f 4411 503f
00000160: c273 b13e 1967 0c3f bb57 9cbe 1a1d 183f
00000170: 4af7 32bf 911d f93e 7998 2640 422c bd3f
00000180: baa5 86bf 20a2 393f 4457 16bf 36c6 31bf
00000190: 1aa4 94be 1065 763f 1ff2 59bf 7faf 9fbe
000001a0: 3a5e 1abf 4bb4 25bf a78a cbbe 7711 38bf
000001b0: 72d2 be3e e327 ba3c c865 48be 4123 663f
000001c0: dd40 993f 20fb ae3f 73d1 263f de0d b03e
000001d0: e377 193f 5791 4f3f 0b38 893f 1b0b 433f
000001e0: 25b2 d73c 490c b73e 22d7 ad3d 7d44 3dbe
000001f0: 627e ddbe 3a0c 1abf 7d20 72bf 9797 5f3d
00000200: 8099 16bf 035a b33e 4989 e73f 362b 403f
00000210: f05d 62bf db18 e33e 7a49 65bf b2b5 8f3f
00000220: 56e7 933e ab44 9b3f d3e8 603e 79ce 98bf
00000230: b555 c43c 9aed 3a3f 69f5 20bf 836a 343e
00000240: e720 95bf 69fc 28bf bb4f 3f3e b915 88bf
00000250: d03d 4d3f 43ae 503f 001f 55bf eda1 66bf
00000260: 14ca 9d3d ee5c 4cbf 2d48 0e3f 66c9 bd3e
00000270: e3df f5be 4c03 06bf e8e3 48bf aa36 26bf
00000280: 8ef7 28bf fe4c 4fbf 0bab c7be dc9b 7d3f
00000290: ba68 c6bd 2a00 9d3f 5064 4740 2ab8 423f
000002a0: 7954 26bf 6367 7a3f b7af 50bf 627f 4fc0
000002b0: a6c8 5bbf 2cf3 71bf a3ff 99bf 5b72 7d3f
000002c0: e727 853e 8751 41bf bcd6 4fbf 0388 d9be
000002d0: 3f1c f1bc 559d 93be ad3d a3bf 3327 7f3f
000002e0: 5e71 1740 c668 6b3f f8fd 03be ea0d ac3f
000002f0: 085a bd3e c4ae 803f ba48 d23f 2989 5d3f
00000300: eb9e 693f 0d64 0f40 a3e9 b13f 031e 5fbf
00000310: 46f6 dcbd 243e 3dbf bb95 1c3f 9b30 d5be
00000320: 00f7 5d3f dab6 ecbe 7402 92bf d956 6cbf
00000330: 85e8 1340 9d05 38bf 638e 0040 363a a1bd
00000340: 0a4a aa3d 7ecc 07bf cab5 843f 48d8 623f
00000350: a188 39bf 1eca db3d 3de2 353f 731e 7abf
00000360: c270 b03e 336b 333f 5988 b63e 94b9 5b3f
00000370: 6ca4 bc3e a191 fc3e f100 a43e 4af9 513f
00000380: 8f0f 5d3f 1ebc 6fbf d570 9fbe 02c7 29bf
00000390: 4b56 35bf 9043 30bf 29dc 4dbf 9539 913e
000003a0: 2a63 033f 4a6c c43e 1cf4 8a3e 0ffa 7abe
000003b0: 071a 4c3f 9a76 3dbf f2f1 dcbf 5641 98bf
000003c0: 03ce 243c a301 adbf 7d0d 02bf d8f9 a83e
000003d0: d042 bfbf 97b8 6e3f 362b 71bf cf0d 3fc0
000003e0: 7310 babf 4ec2 b83e 3fe8 15bf b735 503e
000003f0: 33bc 39be d6f9 36be 6faa 1dbf 7d2f 2240
0.6496397 0.28213865 0.630565 0.57862556 0.66338956 0.3705794 0.59609544 0.85421735
0.5893201 -0.74533474 -0.6492359 -0.85927856 -0.7901949 -0.33583242 -0.29110843 -0.30382663
-0.31157678 -0.57251555 -0.63538015 -0.66824543 -0.49217135 -0.80679566 0.7267856 -0.89694005
-0.42816913 0.25578788 0.6272127 -1.60006 -0.86481714 -1.0555513 0.091521904 0.40728498
-0.13233563 -1.0748566 -0.19849464 -2.6641228 -0.9164892 -0.88175815 -0.98210216 0.03839704
0.026756326 -0.17231452 0.23677166 0.745495 0.35656056 0.29288408 0.64425004 0.9093642
0.538446 0.41280705 0.42579556 0.5281374 0.9257224 0.7947525 -0.68531 -0.5826533
-0.41246533 -0.616015 0.90069073 -0.88837546 0.32058108 0.45925826 -0.7470816 -0.73785144
-0.7597534 -0.6968271 -0.47124058 -0.7262354 -0.42236272 -0.5126361 -0.27332664 -0.5367679
-1.1542895 -1.3987839 -1.5453198 -0.2876823 0.09258139 0.109837584 -0.6776072 -0.08454537
0.14219981 0.4586681 0.29306227 0.72597444 0.78287166 0.89914143 0.6831526 0.81276345
0.3465863 0.54844815 -0.30535683 0.59419405 -0.69908583 0.4865537 2.6030562 1.4779131
-1.0519326 0.7251301 -0.58726907 -0.6944307 -0.2903145 0.9624796 -0.8513507 -0.3118858
-0.6030003 -0.6472823 -0.3975422 -0.7190165 0.37269932 0.022724098 -0.19570076 0.89897543
1.197292 1.3670387 0.65163344 0.3438558 0.5994856 0.81081146 1.0720228 0.7618882
0.026330063 0.3575156 0.08488299 -0.18483157 -0.43260485 -0.60174906 -0.94580823 0.054587927
-0.5882797 0.3502961 1.8088771 0.75065935 -0.8842459 0.443549 -0.8956524 1.1227324
0.28887433 1.2130331 0.21963815 -1.193801 0.02396665 0.730188 -0.62874466 0.17618756
-1.1650666 -0.6601015 0.18682759 -1.0631629 0.80172443 0.815159 -0.8325043 -0.9009083
0.07704559 -0.798293 0.5557888 0.37067717 -0.48022375 -0.5234878 -0.7847276 -0.6492716
-0.6600274 -0.80976856 -0.38997683 0.9906595 -0.09687944 1.2265675 3.1154976 0.7606226
-0.64972645 0.97814006 -0.8151812 -3.2421498 -0.8585304 -0.94511676 -1.2031139 0.9900262
0.26007006 -0.75515026 -0.81187034 -0.4248658 -0.029432414 -0.28830972 -1.2753197 0.9966919
2.3662944 0.91956747 -0.1288985 1.3441746 0.3698275 1.0053334 1.6428444 0.86537415
0.91258115 2.2404816 1.3899425 -0.8715517 -0.107891604 -0.73922944 0.6116597 -0.41638646
0.8670502 -0.46233255 -1.1406999 -0.9232002 2.3110669 -0.71883565 2.0086906 -0.07872431
0.08314903 -0.53046405 1.0367978 0.8861127 -0.72474104 0.1073191 0.7104834 -0.9770271
0.34461027 0.7008545 0.356509 0.85830045 0.36844194 0.49329856 0.32031968 0.8202101
0.86351866 -0.9364642 -0.31140772 -0.66319287 -0.708348 -0.6885309 -0.8041406 0.28364244
0.5132319 0.38363868 0.27139366 -0.24509452 0.79727215 -0.74009097 -1.7261336 -1.1894939
0.010058883 -1.3516124 -0.5080183 0.33003116 -1.4942265 0.9325041 -0.9420656 -2.9852178
-1.453627 0.36085743 -0.58557504 0.2033299 -0.18138199 -0.17868742 -0.61588186 2.5341485

module.Conv1.layers.1.bias f4 [64]
00000000: 9276 ebbe 65b0 f13e a370 103f fc5c aebe
00000010: ed9c a1be 9239 34bf eea2 16be 177d ae3e
00000020: d214 f93e fa77 68be 02ac d73d 731d 6dbd
00000030: 38a0 d83e 5fd2 343e a3f0 243f a1a4 67be
00000040: e236 913e 16ab 04bf 2205 b3be da11 0a3f
00000050: 1490 bfbe 9592 693e f82f e43e 7c80 6b3e
00000060: bed7 6e3d f4fc 7cbe 77b0 f83e feff 843e
00000070: 5d2d 27bf e3bb 19bf d347 c9be 50b2 67be
00000080: d3ba adbe 7552 3dbe b274 04bc 2933 393f
00000090: 2018 15be d15a 4dbf 7ef6 923e e507 8dbe
000000a0: 74b4 b4bd 38f6 9e3e d68e 25bf d99b d83e
000000b0: a1ff 833e fbaf 0dbe dee0 58be d333 6e3e
000000c0: 42a5 cf3d f27e 513f 62c1 cbbb 3373 9fbd
000000d0: 492d 49be 7e43 92be a4b8 e03e ee0c 37bf
000000e0: 8878 07be 49ef d8be d041 c83d f0b1 c8be
000000f0: 7045 983e f8b9 f43e 06a4 683e 1ff5 23be
-0.459889 0.4720489 0.5642187 -0.34055316 -0.31565037 -0.70400345 -0.1471059 0.3407981
0.48648697 -0.22702017 0.10530855 -0.057889413 0.42309737 0.17658375 0.6442968 -0.22621395
0.28362185 -0.51823556 -0.34964854 0.5393349 -0.3741461 0.22809823 0.44567847 0.22998232
0.058311217 -0.24705869 0.48572132 0.25976557 -0.65303594 -0.6005232 -0.3931261 -0.22626615
-0.33931598 -0.18488486 -0.008084463 0.7234369 -0.14559984 -0.802167 0.28703684 -0.27545086
-0.08823481 0.31047225 -0.64671075 0.42306402 0.25780967 -0.13836662 -0.2117953 0.23261957
0.10138942 0.8183433 -0.0062181214 -0.077856444 -0.19646181 -0.28567117 0.4389087 -0.71504104
-0.13229573 -0.4237006 0.09778178 -0.39198256 0.29740477 0.47798133 0.2271882 -0.16011475

module.Conv1.layers.2.weight f4 [64]
00000000: 6df9 d93e 4810 f63e a2a3 f73e f873 ca3f
00000010: 2ac1 3c3e 9527 d83f 5314 a4bd afc8 ed3e
00000020: 8c8f c03f d94f 3e3f 1b11 0540 3277 ce3f
00000030: 25fd e23e 4354 fc3e ae63 f03f dfc6 493f
00000040: 823f 003f 09da 44bd db9c 1440 46db a33f
00000050: 897c 6b40 41ae 2a3f 5476 0e40 8dee dd3f
00000060: 22a8 d13e 7e02 d73d 0b7b 0a40 866b db3f
00000070: 28d8 c23f 3115 d83f 8389 b53f a430 c13e
00000080: 689b ec3e 74bb ce3f 3931 8dbd 52aa 0d3f
00000090: e098 e93f 2152 e23f 350b 533f cbc9 913f
000000a0: 9c38 0740 b905 d43f bb3e ea3f b79c 753f
000000b0: e4cd ef3f 5c10 883e 99f7 053f cf79 fb3e
000000c0: 3c45 153d 213e af3f c539 953d 60f5 bc3f
000000d0: 0b6d af3f 34b6 df3f 9022 b13f 6e6f cd3f
000000e0: 5f26 b83f c2eb 103f b007 a93d 949a f03f
000000f0: d7d8 563f 0c48 b23f fc5a b23e b724 213f
0.4257311 0.48059297 0.4836703 1.5816641 0.18433061 1.688708 -0.08011689 0.46442172
1.5043807 0.7434059 2.079169 1.6130126 0.4433376 0.49283037 1.878042 0.7881908
0.50096905 -0.048059497 2.3220737 1.2801292 3.679476 0.6667214 2.2259722 1.7338425
0.40948588 0.10498522 2.16376 1.7142189 1.5222216 1.6881467 1.418259 0.37732422
0.46212316 1.6150956 -0.06894154 0.55338013 1.8249779 1.7681314 0.82438976 1.1389707
2.1128302 1.6564246 1.8300394 0.9594225 1.8734708 0.2657498 0.5233093 0.4911637
0.03644298 1.3690835 0.07286409 1.4762383 1.3705152 1.7477479 1.3838673 1.6049631
1.438671 0.5660974 0.082534194 1.8797174 0.8392462 1.3928237 0.3483504 0.6294665

module.Conv1.layers.2.bias f4 [64]
00000000: 47bf 03bf 3b4b 19bf f3ad 21bf 6fde 0a3f
00000010: 45d3 4dbf 7d0c 533f 5df5 4ebf 1811 14bf
00000020: 5521 15bf 46a5 11c0 d92b 383f 75c0 5f3f
00000030: 75b3 b5bf 902b 95bf 488e 7e3f 8813 88be
00000040: b078 a8bf e513 37bf 1a07 a33e 8781 20bf
00000050: 648c b3be 45c0 b5bf d380 283f 57db cc3e
00000060: 6920 07bf 0070 5bbf 693b 8a3f 0e12 fa3f
00000070: 448f 3b3f cde9 383f 65c2 c03e ead3 2fbf
00000080: 133f 19bf 2b11 da3e a98c 33bf df2f 34bf
00000090: 8760 383f ebd8 263f 88b3 2bc0 3205 b8bc
000000a0: 7df9 193f 5451 363f e344 4d3f 5815 84bf
000000b0: 98f1 8abf c742 33bf 2877 cebe 0769 3bbf
000000c0: d53a 40bf bc62 473f 2475 64bf 4a03 fd3e
000000d0: e7ad a8be 2c3a 06bf 9b1a 223c b6b4 063e
000000e0: 00be 02bf e421 debe bad0 46bf 3063 fe3e
000000f0: bbbd 8e3f 333b 9fbf b601 8dbf 624b 81be
-0.5146374 -0.5988042 -0.6315605 0.54245657 -0.80400497 0.8244093 -0.80843145 -0.57838583
-0.58253986 -2.2757125 0.71941906 0.8740304 -1.4195391 -1.1653919 0.99435854 -0.265774
-1.3161831 -0.7151473 0.31841356 -0.62697643 -0.35068047 -1.4199301 0.6582157 0.40011093
-0.5278383 -0.85717773 1.079938 1.953676 0.7326548 0.7223175 0.3764831 -0.6868273
-0.5986187 0.42591223 -0.70136505 -0.70385545 0.7202229 0.6517474 -2.6828327 -0.022463415
0.60146314 0.71217847 0.8018324 -1.0319014 -1.0854979 -0.7002377 -0.40325284 -0.73207134
-0.7508977 0.7788503 -0.8924124 0.49416572 -0.32945177 -0.52432513 0.009894039 0.13154873
-0.51071167 -0.43385231 -0.7766224 0.4968505 1.1151651 -1.2439941 -1.1016147 -0.25252825

module.Conv1.layers.2.running_mean f4 [64]
00000000: 7629 35c0 5ea6 2b40 a800 d03f 94c1 3840
00000010: 5a86 c63e 2749 4cc0 cce4 623f b651 2b40
00000020: b717 2a40 690d 30c0 618f b3bf d9c2 c73f
00000030: 5f58 fabf 5406 32bf d1f6 e73e e893 94bf
00000040: 44e5 c23f 3d71 993f 7df0 2bc0 8f9b 6e40
00000050: d160 16c0 9fbc 29c0 f189 8cbe 7dcc a9b9
00000060: a768 11c0 3616 8b3f 546b 2740 5962 2e40
00000070: f6bc 45c0 b7d9 d03f aab0 fe3f be85 0e40
00000080: 8642 f6bf e9e9 1640 d6c4 953f 4ecb 4a40
00000090: 3533 1fbf 1e7a 903e 7c2a 66bf 40aa 1040
000000a0: 6e4a 1640 1b2c 3340 c3f6 1fbe e93f cb3d
000000b0: f891 11c0 5b27 013f b340 42c0 fdb9 0240
000000c0: cb7b d73f 196a 5440 70c4 0640 476a 943f
000000d0: 7b1d 2540 b628 30c0 0fe5 3040 6d66 4dc0
000000e0: 72d5 1ac0 554c 0340 6dfe 3040 62eb 4cc0
000000f0: d9c4 4dbf f96f 3f40 6d44 e4bf 8802 f8bf
-2.8306556 2.6820292 1.62502 2.886815 0.38774377 -3.1919649 0.88630366 2.6768622
2.6576974 -2.7508185 -1.4028131 1.5606338 -1.9558219 -0.69540906 0.45305493 -1.1607637
1.5226216 1.1987683 -2.6865532 3.7282445 -2.3496592 -2.6521375 -0.2744899 -0.00032386548
-2.2720125 1.0866153 2.6159258 2.7247527 -3.0896583 1.6316441 1.9897664 2.226913
-1.9239051 2.3580267 1.1700695 3.1686587 -0.6218751 0.28218168 -0.89908576 2.2603912
2.3482928 2.799567 -0.15621476 0.09924299 -2.2745342 0.50450677 -3.035199 2.0426018
1.6834654 3.3189757 2.1057396 1.1594933 2.5799243 -2.7524848 2.7639806 -3.2093766
-2.4192777 2.051534 2.765529 -3.2018666 -0.8037849 2.9912093 -1.7833382 -1.9375772

module.Conv1.layers.2.running_var f4 [64]
00000000: d6dc 4140 aa45 2840 1e6f 1d3f 2146 b240
00000010: d3cb 973e 994b 5540 7635 143f fb36 3c40
00000020: c1ac 2240 f6e1 5b40 239c a23f aa5e b73f
00000030: 8d7c 4440 41cb e03e 2bb2 073d bf95 f33e
00000040: 595d 583f 8977 cd3f 2824 4040 5d5c af40
00000050: aafe 0a40 48e5 9140 ad70 933e fbe1 523d
00000060: 8a71 3b40 e8ea 7a3f 248c 1f40 6bf6 5440
00000070: 75a5 5340 bf8a 2a40 e854 4440 4fe3 4f40
00000080: 445f ab3f 2df8 5e40 1148 423f 073c 4e40
00000090: ccdc 0e3e 9385 273f 0072 473f e2f1 5d40
000000a0: 5dee 4c40 0f87 5440 d0d3 053e 24a4 bf3d
000000b0: 6957 5d40 c1b9 793e eb53 8940 8f77 e33f
000000c0: 555d ae3f 0a26 5840 25ab 1940 b330 583f
000000d0: d259 8540 ff85 5240 179a 3e40 dc00 5740
000000e0: 2ec4 3440 ba6f 5340 c050 7540 cda5 8940
000000f0: 75d5 2c3f e42e 5840 c2d6 0a40 94a5 d83f
3.0291038 2.629252 0.61497676 5.5710607 0.29647693 3.332739 0.57894075 2.9408557
2.541794 3.4356666 1.2703899 1.4325764 3.070102 0.4390507 0.0331289 0.47575185
0.8451744 1.6052104 3.0022068 5.480025 2.1717935 4.5592384 0.28796902 0.051485043
2.9288049 0.9801469 2.4929285 3.3275402 3.3069737 2.6647184 3.0676823 3.2482488
1.3388448 3.4838974 0.75891215 3.2224138 0.13951415 0.65438193 0.77908325 3.4678884
3.2020485 3.3207433 0.13069081 0.09357479 3.45846 0.24387266 4.291494 1.7770861
1.3622233 3.3773217 2.4010708 0.8444931 4.1672144 3.2894285 2.978155 3.3594275
2.8244739 3.3036942 3.8330536 4.3014894 0.6751321 3.377862 2.1693578 1.692553

module.Conv2.layers.0.weight f4 [64, 64, 3, 3]
00000000: d796 1bbf fdb5 19bf c537 1bbf a8b5 22bf
00000010: 981d 1fbf ce1a 13bf 3060 14bf bb10 24bf
00000020: bf00 13bf 3fb2 193f 689f 173f ab6a 0f3f
00000030: 80e0 233f 365b 203f 7dca 183f 085e 163f
00000040: 6d21 113f d0d8 0f3f 54af 163f 7965 1d3f
00000050: ae1a 243f 602e 133f 35fe 1d3f 78c1 153f
00000060: a9f6 1a3f 5de5 183f 4602 183f a5bb 1d3f
00000070: 81d9 1b3f 9484 1c3f f4bb 113f a5b3 1d3f
00000080: 6d85 1d3f a78b 1c3f 51a5 233f b897 133f
00000090: 5397 22bf 4629 16bf e1e8 0fbf 2d7a 1fbf
000000a0: 22c8 15bf 2565 1bbf c05f 20bf a717 22bf
000000b0: ea41 18bf d4b6 233f 5a71 1c3f 14ef 193f
000000c0: 1c43 133f 5e6b 1c3f 3273 1a3f d41c 243f
000000d0: cf90 153f 806f 1a3f 3d8b 1bbf 0fbb 1cbf
000000e0: 36bd 11bf 6b04 19bf 97bb 16bf 068b 19bf
000000f0: e256 11bf 0aba 15bf 9bde 1dbf 75a1 233f
00000100: 4ac6 213f 4e42 1c3f 3d6c 183f a1da 113f
00000110: aadf 1b3f ccbf 143f 043b 1b3f 5c1a 1c3f
00000120: b117 10bf e4dc 18bf 90d9 1dbf dee9 13bf
00000130: a7a2 21bf 7eac 13bf aae5 22bf 82e1 11bf
00000140: 34bc 16bf 0099 173f aedd 193f be00 1e3f
00000150: bd4f 143f 63a2 153f b7b9 123f 985a 1f3f
00000160: a484 183f 52a4 103f c904 203f 8e2d 113f
00000170: f717 193f 49c0 143f cb6a 1b3f dada 163f
00000180: 3665 193f f75b 133f eb93 213f 7a30 123f
00000190: 9709 183f 8d1a 233f 026c 153f 94b8 1d3f
000001a0: 8e00 1c3f caaf 163f 28a5 103f e7dc 0f3f
000001b0: 42b7 203f af13 1b3f d60b 243f 0ef6 213f
000001c0: 5848 153f 9798 173f 2e3e 0f3f 8602 113f
000001d0: c308 153f a250 0f3f e08d 0f3f edf3 203f
000001e0: 056e 223f 1adc 1e3f c6c3 1c3f 4ace 1f3f
000001f0: da07 133f a748 1b3f 3413 203f 223d 123f
00000200: b8f1 193f 4112 1a3f dce6 163f 138e 203f
00000210: 597f 1a3f d663 1a3f 95fd 1d3f 9ded 1bbf
00000220: ace1 19bf 969c 0fbf 1020 11bf 1251 11bf
00000230: 65b3 13bf 4a33 21bf 7a50 13bf b5d2 13bf
00000240: cfc9 183f 9456 193f f315 223f d57d 173f
00000250: 26e3 193f 1217 1d3f 3cf3 1c3f d3a3 0f3f
00000260: f6bb 213f f66c 11bf 16c7 18bf 9a8f 1cbf
00000270: b41f 15bf 04c1 14bf 2fde 17bf d1ad 17bf
00000280: 8949 15bf aa3a 24bf f845 143f 2c73 1a3f
00000290: c8dc 1e3f 32ed 163f b737 223f adab 243f
000002a0: 8d35 1e3f 4fd6 233f c076 0f3f caea 1a3f
000002b0: db34 193f 1451 143f a95c 213f 7f42 153f
000002c0: 5880 193f 1901 233f e99e 223f c479 193f
000002d0: 919e 213f fb9b 213f 6071 123f 1b90 223f
000002e0: f921 1b3f 0411 1d3f 168a 213f 59a8 153f
000002f0: f36f 0f3f 330e 1a3f 8ac0 183f 71b5 143f
00000300: 9042 123f ad4d 123f 8e9c 163f bdab 0f3f
00000310: b0af 143f c5ba 173f c9fc 12bf 3a56 10bf
00000320: 33a5 20bf 35db 12bf a07a 17bf a74d 15bf
00000330: 4d9d 23bf 7d4a 13bf d065 1cbf 7dde 213f
00000340: a472 1f3f 1353 1a3f fdbf 0f3f 2a46 143f
00000350: 5e58 153f 8972 173f dd84 203f 7f2b 163f
00000360: c091 14bf 2e81 1ebf 8e93 22bf 2345 1dbf
00000370: 82d5 1fbf 9cff 12bf 6b9b 13bf 74fa 10bf
00000380: 734c 1abf a2fa 21bf a8ad 22bf 627a 1fbf
00000390: 21e3 1fbf f348 1cbf 989d 1bbf 260e 14bf
000003a0: d1cf 15bf 42bc 12bf 7c14 23bf 4088 10bf
000003b0: bea0 1fbf ed4b 10bf c634 15bf 8068 19bf
000003c0: 4cf6 18bf 8602 22bf d569 1cbf 8705 13bf
000003d0: 053b 1dbf 2684 21bf 3384 16bf d432 1fbf
000003e0: b229 18bf 566b 11bf 10a2 17bf 341f 1ebf
000003f0: 94d7 123f d447 213f 67fe 1b3f f10c 213f
-0.6077704 -0.6004332 -0.6063197 -0.63558435 -0.6215453 -0.57462776 -0.5795927 -0.6408803
-0.57423013 0.60037607 0.5922761 0.5602214 0.64014435 0.62639177 0.5968397 0.5873723
0.5669163 0.56190205 0.5886128 0.6148296 0.6410321 0.5749264 0.61716014 0.58498335
0.60532624 0.5972498 0.5937847 0.6161445 0.6087876 0.611398 0.5692742 0.6160224
0.61531717 0.6115059 0.6392413 0.5765338 -0.6351215 -0.5865673 -0.5621472 -0.622958
-0.58508503 -0.6070121 -0.626461 -0.6331734 -0.59475577 0.6395085 0.6111046 0.6013043
0.57524276 0.6110133 0.60332024 0.6410649 0.58424085 0.60326385 -0.60759336 -0.6122293
-0.5692934 -0.59772366 -0.5887999 -0.5997776 -0.567732 -0.58487 -0.61667794 0.6391824
0.6319319 0.6103867 0.5954016 0.56974226 0.6088816 0.5810516 0.60636926 0.6097772
-0.5628615 -0.5971205 -0.616601 -0.5777873 -0.6313881 -0.5768508 -0.6363169 -0.5698472
-0.58880925 0.59217834 0.6010388 0.6171988 0.5793417 0.5845091 0.5731463 0.6224761
0.59577394 0.5650073 0.625073 0.56710136 0.5980219 0.58105904 0.6070983 0.5892769
0.5992006 0.575622 0.6311633 0.5710522 0.5938963 0.6371239 0.5836793 0.6160977
0.60938346 0.5886198 0.5650201 0.56196445 0.6277963 0.6057691 0.6408056 0.63266075
0.5831351 0.5921721 0.55954254 0.56644475 0.58216494 0.5598241 0.5607586 0.628722
0.63449126 0.620546 0.61236227 0.6242415 0.57433856 0.60657734 0.625293 0.5712453
0.6013446 0.60184103 0.58946013 0.6271679 0.6035057 0.6030859 0.6171506 -0.60909444
-0.6010997 -0.56098306 -0.5668955 -0.5676433 -0.5769561 -0.62968886 -0.5754467 -0.5774339
0.59682935 0.5989773 0.6331474 0.5917638 0.60112226 0.6136333 0.61308646 0.5610935
0.6317743 -0.56806886 -0.5967878 -0.6115662 -0.582515 -0.5810702 -0.593234 -0.592496
-0.5831533 -0.64152014 0.57919264 0.6033199 0.62055635 0.5895568 0.63366264 0.64324456
0.6180046 0.63998884 0.56040573 0.6051451 0.59846276 0.57936215 0.63032013 0.5830459
0.5996146 0.6367355 0.6352373 0.59951425 0.6313258 0.6312863 0.57204247 0.6350114
0.60598713 0.6135409 0.6310133 0.58460003 0.56030196 0.60177916 0.5966879 0.5808936
0.57132816 0.57149774 0.58832633 0.56121427 0.5808058 0.5926936 -0.5741697 -0.5638157
-0.62752074 -0.57365733 -0.59171486 -0.58321613 -0.63911897 -0.57535535 -0.61092854 0.63230115
0.622843 0.6028301 0.56152326 0.5791956 0.5833796 0.5915914 0.62702733 0.5866012
-0.58034897 -0.6191586 -0.635064 -0.6143362 -0.6243516 -0.5742128 -0.57659024 -0.5663216
-0.602729 -0.6327306 -0.6354623 -0.62296116 -0.62455946 -0.6104881 -0.60787344 -0.5783409
-0.5852023 -0.5731851 -0.6370313 -0.564579 -0.6235465 -0.56365854 -0.5828365 -0.5992508
-0.5975082 -0.632851 -0.61098987 -0.5743031 -0.6141818 -0.6309227 -0.5879547 -0.6218693
-0.5943862 -0.56804407 -0.5923166 -0.6176636 0.57360196 0.63000226 0.6093506 0.6291037

module.Conv2.layers.0.bias f4 [64]
00000000: 21c2 47bc 96a3 35be 32a7 313d 7c35 5bbe
00000010: c92a c73e 22a2 a9bd 0616 0bbe d57a 94be
00000020: b080 4d3d f669 283d 0c0e 813d cc90 02bd
00000030: f9a4 043e 6fc1 ebbd 629f 6dbd 0885 8bbc
00000040: 29c1 ebbd 9414 0d3e 33a9 1dbe dd90 5dbe
00000050: b451 31be c362 9b3e 9308 eebd 15e0 34bd
00000060: 9926 783e 735b 0d3d 3c88 063d b2aa 8dbd
00000070: 1107 6a3e 0bf1 3c3e 9538 87bd 51fd f0bd
00000080: be7b 103d 6362 6e3e 8166 fe3c 4a3f 1a3c
00000090: 999f 26be 8549 08be 90e4 a93d 231b 7b3c
000000a0: 3998 da3d 6eba c6bd ca83 41bd b1eb a0be
000000b0: 425c 66bc 928a b2bd 10e8 593c 7e71 86bd
000000c0: 97e4 023e 4bbf 9e3d 9280 81bc c21d e13d
000000d0: 4b8d 543d 600e 123e 9c3c 903d f056 89bd
000000e0: e14a 01be a598 323e 0e45 babd 69ca dc3b
000000f0: b367 10be 885f 06be 8c19 b13d 341b 1ebe
-0.01219228 -0.17738184 0.04337234 -0.21407121 0.3889983 -0.082828775 -0.1358262 -0.28999963
0.050171554 0.041116677 0.06301507 -0.03187637 0.12953557 -0.11511504 -0.058013327 -0.017031208
-0.11511452 0.13777381 -0.15396576 -0.21637292 -0.17316324 0.30348787 -0.11622729 -0.044159014
0.24233474 0.03451104 0.032844767 -0.06917323 0.22854258 0.18451326 -0.06602589 -0.11767066
0.03527426 0.23279719 0.031054737 0.009414503 -0.16271819 -0.13309295 0.08295548 0.015326294
0.106735654 -0.097035274 -0.047244824 -0.31429818 -0.014060082 -0.087178364 0.013299957 -0.06564616
0.12782513 0.0775133 -0.015808377 0.10992004 0.05189256 0.14263296 0.0704281 -0.06706035
-0.1262622 0.17441042 -0.090952024 0.0067379964 -0.14102058 -0.1312238 0.08647451 -0.15440065

module.Conv2.layers.1.weight f4 [64]
00000000: db9c ca3f 1bdb d83e 44cc de3f 1ac7 d23e
00000010: 1245 fc3e b574 b93f 1c74 9c3f 761c 213f
00000020: c0c4 30bd 9e69 5e3f 8164 923f 7839 d23d
00000030: 73bb 533f 6762 3d3f dfe2 673f 20eb ca3f
00000040: 6f2d bf3e 6d3d 563f 281a 033f f4e0 ed3f
00000050: 5072 fd3f 9b40 623e 5130 483f 2a9f 743f
00000060: 9ea4 e03f 0cfd a13f 6a58 cb3f ef4d 673f
00000070: 0865 1b40 bb88 843e e1e2 d03e 044e 95bd
00000080: ff0d 793e ddbe 403e 3351 ae3f ac9e 813e
00000090: 11bf a53f c327 1240 3d9a be3e 44fe 363f
000000a0: 5a04 3f3f 150f ba3f 9a0a 4b3f 7bf1 c13f
000000b0: ec99 793f eab3 dbbe d6f1 913e 4ebe b93f
000000c0: 45af 58be 799e b33f cfb4 813f fafa e43f
000000d0: 480e ac3f 37b1 1440 d483 fa3f d244 d83f
000000e0: beef 1240 1ae9 273f 84f1 adbb bb90 c63e
000000f0: 762c 853e ab0e de3f f703 9f3f 5ade 6a3f
1.5829118 0.42354664 1.7406087 0.41167527 0.49271446 1.4488741 1.2222934 0.6293405
-0.043156385 0.8687991 1.1436921 0.102648675 0.827079 0.73978275 0.9058055 1.5853004
0.3733935 0.8368748 0.51211786 1.8584275 1.980051 0.22094958 0.78198725 0.95555365
1.7550237 1.2655349 1.5886357 0.9035329 2.4280415 0.25885567 0.40798095 -0.07290271
0.24321745 0.18822809 1.361853 0.2531637 1.2948934 2.2836769 0.3722705 0.7148173
0.74616015 1.4535853 0.7931305 1.5151819 0.9750049 -0.429107 0.2850482 1.4511201
-0.2116061 1.4032737 1.0133303 1.7889092 1.3441858 2.3233163 1.9571481 1.6896002
2.2958827 0.6559006 -0.005308332 0.38782296 0.26010484 1.7348226 1.2423085 0.9174553

module.Conv2.layers.1.bias f4 [64]
00000000: b379 a7be f96e 10bf 0eaa a13f 73e8 01bf
00000010: 2f77 f0be c1f9 723d 709e 99be 2dc2 46bf
00000020: 8aa2 16bf d30d bcbf 8e56 75bd bbdf 73bf
00000030: a3ee 14bd 2042 92bd 8058 b7bf e17a 81be
00000040: c753 f2be 7d8e 2abf 6513 1dbf d25c 423f
00000050: 60c4 26bc 2183 8fbf 6127 bc3e 95aa 2d3f
00000060: 9b1d 12bf 72dc 853e a379 95c0 1249 37bc
00000070: 4d35 0abf c5ea 1dbf 69ab b9bf dc6a cdbf
00000080: 6798 d1be e2b6 0dbf 457e 87bd 86e2 ddbe
00000090: f69c 43be 73d0 d0bf 1f00 f2be d7e3 a2bc
000000a0: 77aa 213e e1c8 e03c bd0b bdbe 6d01 493e
000000b0: 624d 393f 4435 80bf 01bf c8be b0e2 d0bd
000000c0: 598c 5fbf b3ba 613f 3c9d bc3e d67b f33f
000000d0: b8c5 d83f ab86 15c0 4138 c33f 437d b5bf
000000e0: 5562 6ac0 c235 02c0 5e27 5bbf 591e 36bf
000000f0: 07b2 d5be 94e7 a8bc 4ff4 1b3d 03b9 393f
-0.32710037 -0.5641933 1.2630022 -0.50745314 -0.4696593 0.059320215 -0.3000369 -0.7764004
-0.58841765 -1.4691719 -0.059896998 -0.9526326 -0.036360394 -0.071415186 -1.4323883 -0.25289062
-0.47329542 -0.6662367 -0.6135772 0.7592288 -0.010178655 -1.1211892 0.36748794 0.6783841
-0.57076424 0.2614475 -4.671098 -0.011186855 -0.5398758 -0.61686355 -1.4505435 -1.6048236
-0.40936586 -0.5535718 -0.06615881 -0.43336886 -0.19102845 -1.6313614 -0.47265717 -0.019884033
0.15787683 0.027439537 -0.36923018 0.1962945 0.723837 -1.0016255 -0.39208224 -0.10199487
-0.8732353 0.88175505 0.3683871 1.9022167 1.6935339 -2.3363445 1.5251542 -1.4178852
-3.6622517 -2.034531 -0.85606945 -0.71140057 -0.41737387 -0.020618238 0.038074788 0.7254793

module.Conv2.layers.1.running_mean f4 [64]
00000000: 6376 2642 4514 01c2 6f49 0043 4e5a 2ac2
00000010: 35c7 28c2 223c 1742 9f1f 2ac2 cbca 27c2
00000020: 8105 8dc2 8ade d842 e041 91c2 1ea5 2542
00000030: ac60 20c2 fa4f 2742 4733 2a42 963d bd42
00000040: 4878 8441 45dc 8f40 49be a1bf 946e de42
00000050: 3525 2d42 a2a9 1dc2 e846 ffc1 5b10 f7c1
00000060: bcf9 3942 7751 25c2 742e 5d42 6661 f9c1
00000070: 33bb 2942 35fc c6c2 1a0d 8942 76c6 ec42
00000080: 348c 4cc2 8392 27c2 efcc 20c1 a537 74c2
00000090: ec61 bc42 bf4f a742 8799 cec2 233e ec42
000000a0: 7407 f442 2266 f842 d591 9e42 0f18 eb42
000000b0: 7bf0 4dc2 9285 1342 dd58 91c2 3751 9242
000000c0: 1449 eb42 0212 b042 6360 7e42 9495 6fc2
000000d0: 9724 c1c2 cac5 2d42 8f75 8bc2 fe74 f842
000000e0: 0f04 d542 6a7b 9241 bba5 3142 2244 8bc2
000000f0: 66c1 b6c2 1dfa 2542 9b16 ca42 ffc1 2ac2
41.615612 -32.269794 128.28685 -42.58819 -42.19454 37.808723 -42.53088 -41.94804
-70.51075 108.43465 -72.62866 41.411247 -40.094406 41.828102 42.550076 94.620285
16.558731 4.4956384 -1.2636195 111.21597 43.286335 -39.415657 -31.909622 -30.882986
46.49388 -41.329556 55.295364 -31.172558 42.43281 -99.49259 68.52559 118.38762
-51.136917 -41.893078 -10.050033 -61.05434 94.19125 83.655754 -103.29986 118.12136
122.01456 124.19948 79.28483 117.54699 -51.484844 36.88044 -72.67356 73.15862
117.64273 88.03517 63.594128 -59.896072 -96.571465 43.443153 -69.72961 124.2285
106.50793 18.31026 44.411846 -69.63307 -91.37773 41.49425 101.04415 -42.68945

module.Conv2.layers.1.running_var f4 [64]
00000000: 7b9d 0946 8b56 b845 cee4 c445 af75 0a46
00000010: 8718 f845 9ebd 9245 4f1c 0346 865a 0846
00000020: f13b e144 5909 6a45 4cde c145 504f 0546
00000030: 71ca fe45 6a8d 0746 0cff 0946 e756 4a45
00000040: 7983 0145 d55b ac44 c1c5 1045 e385 d245
00000050: 9920 0846 525e fc45 5a8b 3945 98c0 3645
00000060: e9d4 a945 a85a f045 dfc9 4046 f3fc 9445
00000070: cd07 0946 8c0d 0445 43a7 3545 cb82 9b45
00000080: ac2d d344 d6e1 0546 fb62 6045 b775 0d45
00000090: 4bad d145 711e 0745 1410 8d45 93d4 c045
000000a0: ef19 9c45 113e b845 cf96 fb45 11de bc45
000000b0: e09f d645 c8be 3144 375f db45 9339 d545
000000c0: cdbb 9645 e3fe 6245 9f54 a144 fe48 9644
000000d0: ade2 0445 3ec0 0946 d960 ef44 ad96 b445
000000e0: 3aaf 5745 aabd f644 3af4 1944 8a58 0e46
000000f0: be7c 0145 9447 0646 7d35 3845 838e 0b46
8807.37 5898.818 6300.6006 8861.421 7939.066 4695.702 8391.077 8726.631
1801.8732 3744.5842 6203.787 8531.828 8153.305 8675.354 8831.762 3237.4314
2072.217 1378.8698 2316.3596 6736.736 8712.149 8075.79 2968.7095 2924.037
5434.614 7691.332 12338.468 4767.6187 8769.95 2112.8467 2906.4539 4976.349
1689.4272 8568.459 3590.1863 2263.3572 6709.6616 2161.9026 4514.01 6170.572
4995.2417 5895.7583 8050.851 6043.7583 6867.9844 710.98096 7019.902 6823.197
4823.475 3631.9304 1290.6444 1202.281 2126.1672 8816.061 1915.0265 5778.8345
3450.9517 1973.927 615.81604 9110.135 2071.7964 8593.895 2947.343 8931.628

module.Conv3.layers.0.weight f4 [64, 64, 3, 3]
00000000: c652 1a3f d0d1 243f 833b 123f 9268 0ebf
00000010: 2a86 1f3f 5f40 1b3f 66bd 21bf 8883 1cbf
00000020: ddc4 19bf 0766 13bf b291 17bf 1ede 17bf
00000030: 15cc 0fbf c2e8 19bf 17de 15bf 24c9 16bf
00000040: 7b75 1dbf 5914 19bf 0751 1c3f 7e31 153f
00000050: 2d63 1f3f b0c4 1a3f 3743 243f 34fc 253f
00000060: b1c9 1f3f 9a07 1f3f d8bc 133f da7a 12bf
00000070: 3604 18bf a86c 11bf 998e 14bf eada 1ebf
00000080: c5dd 0fbf 0f15 1fbf 8bd2 0fbf cd0b 14bf
00000090: 3bd3 11bf 6b28 1abf aac9 12bf 9e7f 12bf
000000a0: a0ae 22bf 1bc3 17bf b37a 13bf 5917 17bf
000000b0: fe1d 16bf 3c38 1ebf fcfd 1bbf 9585 23bf
000000c0: 8f31 18bf 248c 1abf d869 18bf 5161 18bf
000000d0: f43e 1dbf af6b 16bf 470a 1f3f 1ed9 213f
000000e0: 9347 fbbe aa31 113f ca16 243f 086c 1c3f
000000f0: 2433 283f 0db2 163f 922b 173f 513c 1ebf
00000100: 7cd6 1bbf b126 20bf 3c95 1abf 3046 20bf
00000110: 4116 1ebf 45b6 1cbf 6d29 21bf 183a 24bf
00000120: fba7 1e3f 30d0 233f 31c4 203f 7fa4 1c3f
00000130: 072f 133f 27c0 143f 877c 103f f81c 213f
00000140: d723 133f e1f3 12bf 60b2 17bf 2766 21bf
00000150: c017 0fbf 156d 14bf 671c 1cbf 4b39 1abf
00000160: 7337 23bf 1d26 10bf 819c 203f 6b3a 1b3f
00000170: 72f9 223f 9c6f 173f 1b7e 1a3f c37d 133f
00000180: a5bb 263f 9b2d 173f 1ea4 243f 22fb 173f
00000190: a1bb 1b3f 6fba 1b3f 0d11 133f 5820 183f
000001a0: 6b09 1c3f 3548 193f 81ca 143f 4f2d 103f
000001b0: fa76 143f 7ca6 213f f2d6 243f 05f0 133f
000001c0: a18b 193f c15a 223f c6af 123f 9281 1a3f
000001d0: 0008 123f 10a7 0fbf 2129 1bbf 1b94 1fbf
000001e0: a477 10bf 9db1 1bbf dc6d 1fbf 6df9 0dbf
000001f0: 14f8 12bf d753 0fbf 0d6b 12bf e1a5 1cbf
00000200: 0eb1 12bf 2dec 19bf 68ad 1ebf 1521 17bf
00000210: 100f 12bf d03a 1cbf ad10 16bf d028 19bf
00000220: 1e13 20bf a8cf 11bf d405 1dbf 6827 13bf
00000230: 0fd3 1abf dc07 1bbf 7e4a 16bf 54b0 1fbf
00000240: f4a0 20bf ba17 15bf a9bb 1dbf 6c6f 1fbf
00000250: f9f2 0fbf f09d 11bf 325d 1dbf 8b78 10bf
00000260: 1e74 1abf 5cd5 17bf eb0f 17bf a6c0 1bbf
00000270: bcf0 13bf 7429 18bf 1260 22bf c087 1dbf
00000280: 063e 10bf 0fe4 20bf 8043 233f 15dc 133f
00000290: 7204 223f b305 103f d60c 103f d9e4 133f
000002a0: 3b42 153f a1ba 0f3f 875d 1e3f bc72 1ebf
000002b0: ca69 17bf 952d 18bf 2684 0bbf 95c6 0dbf
000002c0: 4198 19bf 060d 0bbf f384 0dbf 06e2 1abf
000002d0: 3f4e 23bf 55ab 10bf d374 1cbf 389f 1bbf
000002e0: b701 17bf 2fd6 12bf 274e 14bf bced 19bf
000002f0: 698a 1bbf 1ff4 1d3f f8e6 113f c12c 203f
00000300: a6c4 1f3f c41d 143f 4734 233f 53fb 133f
00000310: d394 103f 7f46 1e3f 21f2 1fbf a5b4 17bf
00000320: e033 21bf cd98 21bf a700 23bf 6e07 13bf
00000330: 1041 1cbf 8c2b 15bf 2d96 10bf 80e8 1bbf
00000340: 7a70 14bf 4a37 1dbf ea4e 1bbf 94eb 0ebf
00000350: 9f17 24bf c095 20bf 453d 1fbf 10d8 23bf
00000360: 774c 1cbf 18ae 11bf 8510 24bf 0362 10bf
00000370: e89c 1fbf f6df 22bf 46a8 18bf 723d 1bbf
00000380: 7fef 11bf 639e 1e3f 6872 233f a837 193f
00000390: 5bc5 223f a655 1d3f 85f4 153f 7223 133f
000003a0: 8555 143f 3825 1b3f f42e 1abf 1994 1ebf
000003b0: e38c 14bf 12dc 11bf 82a5 17bf a466 22bf
000003c0: 6717 10bf a0f7 17bf c599 1cbf 9555 173f
000003d0: 17e8 113f 58f6 113f 5ae9 173f 7564 103f
000003e0: 9f91 213f e2fa 143f 5887 193f 125d 153f
000003f0: d848 17bf 4e7f 12bf fd30 10bf c95d 16bf
0.6028255 0.6438265 0.5712206 -0.5562831 0.62314093 0.606451 -0.63179624 -0.611382
-0.60066015 -0.57577556 -0.5920669 -0.593233 -0.5617078 -0.60120785 -0.5854201 -0.58900666
-0.61507386 -0.59796673 0.6106114 0.58278644 0.62260705 0.6045637 0.6416506 0.64837956
0.6241713 0.62120974 0.5771003 -0.57218707 -0.59381425 -0.5680642 -0.58030087 -0.62052786
-0.5619777 -0.6214151 -0.5618064 -0.57830507 -0.5696294 -0.6021792 -0.57338965 -0.5722598
-0.63547707 -0.5928208 -0.576091 -0.5902 -0.58639514 -0.61804557 -0.60934424 -0.63875705
-0.5945062 -0.6037009 -0.59536505 -0.59523493 -0.61424184 -0.5875806 0.62125057 0.6322192
-0.49078044 0.56716406 0.64097273 0.6110234 0.65703034 0.58865434 0.5905086 -0.61810786
-0.6087415 -0.6255904 -0.60383964 -0.626071 -0.61752707 -0.6121562 -0.62953836 -0.64151144
0.6197507 0.63989544 0.62799364 0.611885 0.57493633 0.581057 0.56440014 0.6293483
0.5747656 -0.5740338 -0.59256554 -0.630465 -0.55895615 -0.57978946 -0.6098084 -0.6024367
-0.63756484 -0.56308156 0.62738806 0.60636014 0.63661873 0.5915468 0.6034867 0.5761377
0.6513007 0.59053963 0.6431292 0.59367573 0.60833174 0.6083135 0.5744789 0.5942435
0.6095187 0.59875804 0.58121496 0.56319135 0.57994044 0.6314466 0.6439048 0.57788116
0.5997868 0.6341973 0.5729946 0.6035396 0.5704346 -0.5611429 -0.6060963 -0.62335366
-0.5643256 -0.6081789 -0.6227701 -0.5545872 -0.5740979 -0.55987304 -0.57194597 -0.6119061
-0.57301414 -0.60126 -0.61983347 -0.59034854 -0.57054234 -0.6102724 -0.58619195 -0.598279
-0.6252917 -0.56957483 -0.6133702 -0.57482004 -0.604783 -0.6055887 -0.58707416 -0.6237843
-0.62745595 -0.5823933 -0.6161447 -0.6227939 -0.5623012 -0.5688162 -0.6147033 -0.56433934
-0.6033343 -0.59309936 -0.59008664 -0.60840833 -0.57789207 -0.5943825 -0.6342784 -0.61535263
-0.5634464 -0.6284799 0.6377487 0.57757694 0.63288033 0.56258696 0.56269586 0.5777107
0.58304185 0.5614415 0.6186146 -0.6189382 -0.59145796 -0.5944455 -0.5449852 -0.5538114
-0.59997946 -0.5431675 -0.5528099 -0.60501134 -0.6379127 -0.5651143 -0.6111576 -0.60789824
-0.5898699 -0.5735807 -0.5793175 -0.6012838 -0.6075807 0.61700624 0.56993055 0.6256829
0.62409437 0.5785792 0.63751644 0.57805365 0.5647709 0.6182632 -0.62478834 -0.59260017
-0.6296978 -0.6312378 -0.6367287 -0.5743321 -0.6103678 -0.5826957 -0.5647915 -0.6090164
-0.57984126 -0.6141249 -0.6066729 -0.55828214 -0.6409854 -0.627285 -0.62202865 -0.6400156
-0.61054176 -0.5690627 -0.64087707 -0.56399554 -0.62348795 -0.6362299 -0.59631765 -0.60640633
-0.5700607 0.6196043 0.63846445 0.5985055 0.6358239 0.61458814 0.5857623 0.5747596
0.5794299 0.60603666 -0.60227895 -0.6194473 -0.58027476 -0.56976426 -0.5923692 -0.6343787
-0.5628571 -0.5936222 -0.61172134 0.5911496 0.56994766 0.57016516 0.5934044 0.56403285
0.63112825 0.58195317 0.59972143 0.5834514 -0.59095526 -0.572255 -0.5632475 -0.58736855

module.Conv3.layers.0.bias f4 [64]
00000000: 53ec cb3c ee24 a03c d1c9 f8bc 0d9c 1ebd
00000010: c87b 583d 5d1e a63c c9e4 743d d3e3 9abd
00000020: 870b 9bbd 1e5e ab3d 2c9f 56bd df8b fd3c
00000030: 0259 d0bd 1704 1ebd 2b26 e93c 94cd d3bd
00000040: cec8 5abd fe3f dabd cb1e 2d3e 1f60 83bc
00000050: 8093 d1bd 7f30 6ebc a3af 113d 84a6 0dbe
00000060: 7e90 d23c bd90 84bd 3401 1cbe 0ef2 113d
00000070: 0776 07bd 573c 6e3d 551f 26bd 1620 95bd
00000080: 3f6f 25bd 6d68 303d 6632 a83c ce64 55bd
00000090: f7c1 a73b 5c71 e2bd 4977 c13d f3af 013d
000000a0: fff7 1f3d cfc2 243b 6c97 dbbb 9b3b 3cba
000000b0: 18d0 6a3d db60 c93b a6ff 753b 2362 313d
000000c0: 40e6 9ebd c73f 86bd 991c 4b3d 5d20 34bc
000000d0: 4de0 c63d 094c 8b3b ea52 193e fc7e 80bd
000000e0: 2e19 a8bd 6814 a8bd 9114 b63d 05ae c3bd
000000f0: 9554 a9bd 66fd c4bd 36e2 383d d5c9 c53c
0.024892962 0.01954886 -0.030369671 -0.03872304 0.052852422 0.02027815 0.0597885 -0.07562985
-0.07570558 0.08367561 -0.052397892 0.030950485 -0.10173227 -0.03857812 0.028460583 -0.10341945
-0.05341416 -0.10656737 0.16906278 -0.016037045 -0.102332115 -0.01453793 0.03556789 -0.13833052
0.025703665 -0.06472919 -0.15234834 0.035631232 -0.033071544 0.058163013 -0.040557224 -0.072815105
-0.040389296 0.04306834 0.020531844 -0.052098088 0.005119558 -0.11056778 0.0944658 0.03166194
0.039054867 0.002514053 -0.0067014005 -0.0007180513 0.05732736 0.0061455793 0.0037536412 0.04330648
-0.077587605 -0.06555133 0.04958782 -0.010994044 0.09710751 0.0042510075 0.14973035 -0.0627422
-0.08207928 -0.08207017 0.088906415 -0.09554676 -0.08268086 -0.096186444 0.045137607 0.024144093

module.Conv3.layers.1.weight f4 [64]
00000000: c74a 2840 8e49 b73f 9ceb 6b3f 1e3d dd3f
00000010: 5224 bc3f 36d9 ea3f 4231 e43f 27a5 0440
00000020: d31e 9a3e a84d ac3f fc7a 133f c687 7a3f
00000030: 387e a23f e223 983f 371b 483f d6bc b13f
00000040: 415e 063f 119d a63f 80ec 0e40 fa78 653f
00000050: 0604 d1bf 640c 9f3f 7b6d 853f 3d1c c9be
00000060: 1598 8d3f 986f 1440 4ad3 b3be 42f7 12bf
00000070: 62af af3e 3b6c 613f 2f51 bd3f b433 e53f
00000080: 87c3 4c3f bd5a 513f 6133 bc3f a585 c53e
00000090: 72c0 073f 44e2 a0be 7f0f 533f ebf1 bd3e
000000a0: 8563 083f 73a2 713e d93a 823e 25a4 d83f
000000b0: 03ab 8bbd 1b79 6d3f 2c61 873f 88da 7a3f
000000c0: 2b4d a43f 2457 b13f 23de 1c40 2095 293f
000000d0: 9450 a93f ffec fd3f be0c ce3f f5ae a03f
000000e0: 7f9f cd3f 139b 8a3f 21b7 c03f 38f0 90bf
000000f0: 5aa8 c7be 5db5 af3f 9233 143f 60ee 203e
2.629564 1.4319322 0.92156386 1.7284276 1.4698584 1.8347538 1.7827532 2.07258
0.30101642 1.3461199 0.57609534 0.97863424 1.2694769 1.188595 0.78166527 1.3885753
0.5248757 1.3016683 2.2331848 0.8963772 -1.6329353 1.2425656 1.0424036 -0.39279357
1.1062037 2.3193111 -0.35122138 -0.57408535 0.34313494 0.8805577 1.47904 1.7906404
0.7998585 0.8177908 1.470318 0.38578525 0.53028023 -0.31422627 0.8244552 0.3709863
0.53276855 0.23597126 0.25435522 1.6925093 -0.06819727 0.9276292 1.057653 0.979897
1.283605 1.3854718 2.4510581 0.6624317 1.3227715 1.983795 1.6097639 1.2553393
1.6064299 1.0828575 1.5055887 -1.1323309 -0.3899563 1.3727223 0.5789119 0.15715933

module.Conv3.layers.1.bias f4 [64]
00000000: a50e d63d f342 1ebf 77b9 cbbf f50f 99be
00000010: 81c4 d8be cd47 3a3f 9899 223f fd0f 07c0
00000020: 19f1 e0bf ded5 d8bc cf6b 4b40 67a6 863f
00000030: 9190 3d3f 21f4 0bc0 8e4b a5bf 0f23 a13d
00000040: 817a c1bf 21f3 e1bf 880b 1ebf 3377 44bf
00000050: a72c b0be 9760 d6bd 5a36 46be a227 1f40
00000060: ad4e 30bf a7ad 86bf 91c9 f8bf 4fac 62bf
00000070: 3ecc 39c0 d70f a0bf 4091 a5bc c010 473f
00000080: 53e5 b3be f1e5 643f 355c 3fbf 45c1 6040
00000090: fe0b eb3f aae4 23c0 f39f b4bf 5a61 4340
000000a0: 3129 08bd c47a 0340 1aac debf 2f76 06bd
000000b0: 7dfe 18c0 9060 363c 44ab 00be acab b0be
000000c0: 7172 b53f 94b6 223f 3428 38bf df7f 9b3e
000000d0: c76f d5be 8ecf 86be 262e 583e ea11 90bf
000000e0: 936f fc3d 5688 61bf e98d 4b3f 56e5 d2bf
000000f0: c99c e83f a1d4 7bbf 88db 43c0 f748 d63f
0.10452012 -0.61820906 -1.5915974 -0.29894987 -0.4233742 0.7276581 0.63515615 -2.1103508
-1.7573577 -0.026469167 3.178455 1.0519532 0.74048716 -2.1867754 -1.2913682 0.07868015
-1.511551 -1.7652322 -0.61736345 -0.76744384 -0.34409067 -0.10467642 -0.19356671 2.486794
-0.6887005 -1.0521744 -1.9436513 -0.8854417 -2.903091 -1.2504834 -0.020210862 0.77759933
-0.35135898 0.8941336 -0.7475007 3.5117962 1.8363035 -2.5608315 -1.4111313 3.0528169
-0.03324241 2.054368 -1.7396271 -0.032827552 -2.3905327 0.011131421 -0.12565333 -0.34505975
1.417555 0.6355984 -0.71936345 0.30370995 -0.41686842 -0.26330227 0.21111354 -1.1255467
0.123259686 -0.8809866 0.7951341 -1.6476238 1.8172847 -0.9837132 -3.0602741 1.6741017

module.Conv3.layers.1.running_mean f4 [64]
00000000: 299b a6c2 faaf 9ac2 4203 c242 6b27 8ac2
00000010: 3a2a d6c2 cffe 98c2 752a ab42 4ce4 6542
00000020: b2f4 8842 d29f 7cc2 d981 d1c2 ec51 e642
00000030: 3f81 dcc2 7b32 acc2 ea5c 8942 5b3a b342
00000040: 0ad7 9cc2 49ea 8e42 0de1 7d42 4ce5 66c2
00000050: 3db0 a842 1296 30c2 68e8 9042 9a52 6fc2
00000060: d7d6 c4c2 5e91 1542 218e a842 a1f0 8542
00000070: d77f eb42 1b4e a642 a9db 75c2 6210 d4c2
00000080: 4ab5 1042 1500 89c2 dc8d e1c2 b624 dac2
00000090: b278 fe41 25f4 1fc2 5ade 8dc2 4a8a 84c2
000000a0: d339 d0c2 68b0 94c2 ee29 d6c2 4610 9cc2
000000b0: 71a5 8642 fac2 11c3 4257 aac2 a56d 20c2
000000c0: 5f9a 95c2 8f09 25c2 887c 8741 8d55 bc42
000000d0: 1c26 8442 2dc8 71c2 28d6 ab42 e7ca d6c2
000000e0: 4ba3 a1c2 ca54 af42 cb38 2443 c966 11c3
000000f0: 4861 cbc2 f69c eac2 7076 9442 c348 a2c2
-83.30305 -77.343704 97.00636 -69.07699 -107.08247 -76.49767 85.582924 57.472946
68.47792 -63.156075 -104.75361 115.16 -110.25243 -86.098595 68.68147 89.613976
-78.42 71.45759 63.469776 -57.723923 84.344215 -44.146553 72.45392 -59.830666
-98.41961 37.39196 84.277596 66.96998 117.74969 83.15255 -61.46451 -106.032
36.17704 -68.50016 -112.77707 -109.0717 31.808933 -39.988422 -70.93428 -66.270096
-104.11294 -74.34454 -107.081894 -78.031784 67.32313 -145.76163 -85.170425 -40.107075
-74.801506 -41.259335 16.935806 94.16709 66.07443 -60.445484 85.918274 -107.39629
-80.81893 87.6656 164.22185 -145.4015 -101.69 -117.306564 74.23132 -81.14211

module.Conv3.layers.1.running_var f4 [64]
00000000: 986e 8d45 ae7b aa45 cf1d ae45 463d f044
00000010: 21ca 3c45 fb4b 8244 564c 3c45 1989 5045
00000020: b9e8 b944 4bea 5d45 67f2 0f45 0109 8445
00000030: a631 2745 2411 4a45 63d9 dc44 6195 a544
00000040: 3084 5345 4bc2 7244 3ab5 4f44 4f36 dc44
00000050: dcaf 9244 a168 d944 ef9f 2145 6629 5d44
00000060: 38fd 3445 7e6d 0a45 720c 6945 cb8e 7245
00000070: 4a73 9745 d900 3445 49ad 7244 1b31 8e45
00000080: 8bd8 1444 d3f3 3745 39e6 1a45 2ead 5845
00000090: 4ca9 0846 733d c545 10d4 8345 7f60 9945
000000a0: 4e41 4045 9ffc 3145 fdc0 2345 f267 4b45
000000b0: b35f ff43 9715 4c46 70f4 aa45 9856 1d44
000000c0: 301e 9744 735b ae44 da4c a945 a4ca 4345
000000d0: e7dd a744 f8bf 0f45 8159 d944 07cc 0346
000000e0: 1fa6 8c45 94a6 5445 99a2 9246 a6af 8445
000000f0: 7a29 0746 e7de c345 d8ba cc44 812d 9444
4525.824 5455.46 5571.726 1921.9148 3020.633 1042.3744 3012.771 3336.5686
1487.2726 3550.6433 2303.1501 4225.1255 2675.103 3233.0713 1766.7933 1324.6681
3384.2617 971.0358 830.83167 1761.6971 1173.4956 1739.2697 2585.9958 884.64685
2895.8262 2214.8433 3728.7778 3880.9246 4846.411 2880.053 970.7076 4550.138
595.3835 2943.239 2478.389 3466.8237 8746.324 6311.681 4218.508 4908.062
3076.0815 2847.7888 2620.0618 3254.4966 510.74765 13061.397 5470.5547 629.353
1208.9434 1394.8578 5417.6064 3132.665 1342.9344 2299.998 1738.797 8435.007
4500.765 3402.4111 18769.299 4245.956 8650.369 6267.863 1637.8389 1185.422

module.Conv4.layers.0.weight f4 [64, 64, 3, 3]
00000000: 868e 163f 6626 32bf d497 193f 0b8d 0e3f
00000010: e0a8 1f3f 2c0f 0f3f 2323 173f 3485 0f3f
00000020: da1b 203f f4e9 1ebf 9ab2 15bf e0ce 1bbf
00000030: 52c0 0ebf c11e 10bf 74ac 1fbf c7b6 18bf
00000040: c016 1abf abfa 16bf ae49 1d3f b2f1 203f
00000050: 4db9 7a3f 838d 263f 52e2 1f3f e79e 213f
00000060: 108d 273f d1d2 273f b2f3 2a3f f7ac 0fbf
00000070: c3ea 11bf 4948 1fbf 517d 14bf a9d9 17bf
00000080: 08e6 1cbf 8be2 12bf 93f0 1cbf 0982 12bf
00000090: 8e59 14bf 6320 1fbf 6cd1 12bf dee5 20bf
000000a0: a212 14bf 6a62 15bf 60a4 1bbf 9935 21bf
000000b0: 0883 0fbf 67b3 16bf bc76 19bf c829 14bf
000000c0: 53b6 1ebf 515c 0bbf ed92 0abf 5abe 0dbf
000000d0: 837e 1bbf 2d37 17bf a683 17bf 9877 19bf
000000e0: 7e97 14bf 1a78 31bf 96f6 1fbf 0311 18bf
000000f0: 5be7 1ebf 8eab 19bf dcc0 12bf 92e2 1dbf
00000100: b8b4 20bf 9732 20bf 0afb 20bf b9e6 11bf
00000110: 702a 12bf 0268 13bf 8cd3 20bf f5cd 1ebf
00000120: 452c 203f a84d 243f d3c7 133f cdba 0f3f
00000130: e8a4 193f b529 103f aca5 243f 3691 223f
00000140: 6b6a 0e3f e290 17bf c456 1ebf 9b2d 2bbf
00000150: 11fd 20bf fb97 1ebf 217c 3bbf a315 19bf
00000160: dd38 15bf 51a1 16bf c52f 44bf f4c8 0b3f
00000170: d402 193f 0a1c 153f dfbb 1c3f e99f 0a3f
00000180: 56e2 183f dbbc 0a3f 0afd f13e 620c 203f
00000190: 1a18 0f3f a510 1c3f 1eea 1d3f d14f 193f
000001a0: 14ab 203f fba6 233f 3ac7 103f 899b 0f3f
000001b0: 00f9 133f a8af e43e fa0b 21bf 01eb 103f
000001c0: f03c 373d 8c9d 22bf f835 113f f5c6 143f
000001d0: b15a 1ebf e899 1f3f abba 22bf a075 19bf
000001e0: d675 2fbf 5ac7 1cbf c780 24bf 6638 18bf
000001f0: 1beb 17bf 2b5f 13bf 5c8c 1dbf 6f2f 2bbf
00000200: 293d 22bf e833 1bbf 16fd 23bf b42f 17bf
00000210: 48be 1cbf 2bc8 1fbf 6b44 1ebf 3984 17bf
00000220: df91 11bf 49d2 19bf 9d1e 10bf de66 22bf
00000230: 7852 12bf 9b6c 21bf bba6 1dbf fa73 1abf
00000240: 9352 0fbf 66c6 0ebf 2826 11bf a2ae 18bf
00000250: 28f7 1dbf b763 13bf 1e8e 1ebf 4f3e 20bf
00000260: d1d8 19bf 7ada 12bf 32c3 14bf 116b 20bf
00000270: 8994 14bf 9416 19bf 2f7d 17bf c73a 13bf
00000280: 4356 16bf 228d 1dbf 62a3 173f abee 28bf
00000290: 5989 1cbf c10c 213f 64e1 143f d054 26bf
000002a0: 1841 163f 986c 203f 5f07 1c3f a629 f1be
000002b0: de9c 04bf 289d 18bf 2b00 963f 3e1b ebbe
000002c0: 4a1d 08bf 9210 0fbf a713 0bbf 3b54 1fbf
000002d0: 580a 0ebf 2464 10bf b183 10bf b38b 18bf
000002e0: ab5d 10bf f4b0 17bf bbc5 0abf 0d78 15bf
000002f0: 34e4 0abf 7a00 163f 7433 1e3f 17b0 103f
00000300: 55c3 103f a536 153f 2834 1e3f 6299 173f
00000310: 5129 133f 9bde 143f e892 17bf 4455 20bf
00000320: 5ddb 1abf eb48 24bf 780e 16bf b613 20bf
00000330: 8931 21bf c875 1bbf c3d2 1dbf 3551 1ebf
00000340: 82ea 20bf e3f2 11bf 13ea 10bf ee91 1fbf
00000350: 8202 21bf f9c6 20bf 260f 21bf 7318 13bf
00000360: 5378 1bbf 9a2d 1abf 06f7 13bf c287 0ebf
00000370: 61e7 20bf 4748 0cbf 98b1 14bf 8802 1dbf
00000380: 2639 14bf 496b 1a3f 3823 1d3f c682 1a3f
00000390: 555d 183f feb3 163f c3a0 193f 9b49 113f
000003a0: 5e03 123f f404 0c3f 02dd 14bf 5b9a 27bf
000003b0: 4931 26bf 66ab 19bf 8f6f 27bf 493a 22bf
000003c0: 98a1 27bf b5cd 16bf 66cb 1fbf 7e97 233f
000003d0: 5b96 28bf 17ab 12bf 8912 123f cc85 16bf
000003e0: 5acf 26bf d58f 093f 766a 17bf f4dd 17bf
000003f0: 1078 12bf 7839 0fbf cca9 2c3f 7455 2b3f
0.58811224 -0.6958984 0.59997296 0.55683964 0.6236706 0.55882525 0.5903799 0.56062627
0.625425 -0.62075734 -0.5847565 -0.6086254 -0.5576221 -0.56296927 -0.6237252 -0.59653896
-0.60190964 -0.5897624 0.6144055 0.628688 0.97938997 0.6505968 0.6245471 0.6313309
0.6544962 0.65556055 0.667781 -0.561233 -0.5699884 -0.62219673 -0.5800372 -0.593165
-0.612885 -0.5737693 -0.6130459 -0.5722967 -0.5794915 -0.62158793 -0.573508 -0.6285075
-0.5784093 -0.5835329 -0.6079769 -0.6297241 -0.5605931 -0.58867496 -0.599468 -0.57876253
-0.61996955 -0.5443774 -0.5413044 -0.5536858 -0.60739917 -0.59068567 -0.59185255 -0.5994811
-0.5804366 -0.69323885 -0.62485635 -0.5940096 -0.6207177 -0.60027397 -0.5732553 -0.61673844
-0.62775755 -0.62577194 -0.62883055 -0.5699268 -0.57096004 -0.5758058 -0.62822795 -0.62033015
0.6256755 0.64180994 0.5772678 0.5614441 0.6001725 0.5631364 0.64315295 0.63502824
0.5563113 -0.5920545 -0.61851144 -0.66866463 -0.6288615 -0.61950654 -0.7323628 -0.5979864
-0.5828989 -0.588399 -0.7663539 0.54603505 0.5976994 0.5824591 0.6122417 0.54150254
0.5972036 0.5419442 0.47263366 0.62518895 0.5589615 0.609629 0.6168536 0.59887415
0.62761045 0.63926667 0.56553996 0.560967 0.5780182 0.44665265 -0.629089 0.5660859
0.04473585 -0.6352165 0.56722975 0.58116084 -0.61857134 0.6234422 -0.6356608 -0.59945107
-0.6853918 -0.61241686 -0.64259 -0.5946106 -0.5934312 -0.5756709 -0.61542296 -0.6686925
-0.63374573 -0.6062608 -0.64058053 -0.59057164 -0.61227846 -0.6241481 -0.6182315 -0.5918613
-0.56863207 -0.60086495 -0.5629671 -0.6343821 -0.5715709 -0.63056344 -0.61582536 -0.60333216
-0.55985373 -0.5577148 -0.56698847 -0.5964147 -0.61705256 -0.5757403 -0.61935604 -0.62595075
-0.6009646 -0.5736462 -0.58110344 -0.6266337 -0.58039147 -0.59800076 -0.5917539 -0.5751156
-0.58725375 -0.61543477 0.5923368 -0.6598918 -0.61147076 0.62910086 0.5815642 -0.64973164
0.58693075 0.626657 0.6094875 -0.47102088 -0.5180186 -0.596148 1.1718801 -0.45919222
-0.5316969 -0.5588466 -0.5432686 -0.622379 -0.55484533 -0.564028 -0.56450945 -0.59588164
-0.56392926 -0.59254384 -0.5420796 -0.5838631 -0.5425446 0.5859448 0.6179726 0.5651869
0.56548053 0.58286506 0.61798334 0.5921842 0.5748492 0.5815217 -0.59208536 -0.62630105
-0.6049097 -0.64173764 -0.5861583 -0.62530077 -0.6296621 -0.60726595 -0.6164972 -0.6184266
-0.6285783 -0.5701124 -0.5660717 -0.62332046 -0.6289445 -0.6280361 -0.6291374 -0.5745918
-0.60730475 -0.6022583 -0.577988 -0.556759 -0.62853056 -0.54797786 -0.58083487 -0.6133199
-0.578997 0.60319954 0.61381865 0.60355794 0.59517413 0.58868396 0.6001093 0.5675294
0.5703639 0.5469506 -0.5814973 -0.654699 -0.64918953 -0.6002716 -0.654046 -0.63370186
-0.6548095 -0.58907634 -0.62419736 0.63903034 -0.65854424 -0.5729231 0.5705953 -0.5879791
-0.65160143 0.53735095 -0.5914682 -0.5932305 -0.5721445 -0.55947065 0.6744659 0.66927266

module.Conv4.layers.0.bias f4 [64]
00000000: 8fd8 1dbe 7c38 f5bc 4d9d c0bd 3f1a afbc
00000010: 8f3e acbb d250 3cbc b948 ebbc add9 283e
00000020: 039f 0b3e 48f5 3cbb 3522 623d 5668 0f3e
00000030: 5125 43bd d31e c5bd 2a2d 67bd 96cc 11bd
00000040: c832 87bd 4ad9 923d f1da 33bd 41f5 8cbd
00000050: 27a2 2f3d 42ab 74bd 4409 c3bd bf1b c2bd
00000060: 1cde 953d c63e 0fbe 5e7e 0d3d ee9e b63c
00000070: f7d9 ae3d 3488 153e c773 913c 98a2 0d3e
00000080: b180 453d c0ef 98bc e556 b3bd c421 d53c
00000090: 2fea afbd 1d51 813d d10e bebd 2129 67bd
000000a0: a9a4 c3bc d249 2cbd 3dab 873d 9ad7 6e3d
000000b0: 6825 633d 6f82 803d 2a91 97bb d1e7 1ebb
000000c0: 26dd 66bd 1c87 913d c947 b6bd 3407 b83d
000000d0: 5f40 c23b 7f41 4ebd e64e a73d 5966 d5bd
000000e0: 09ff 2b3d 3d69 86bd 1123 df3d e2be 263c
000000f0: c376 d33c f071 14bc 83f7 01bd 379c d73b
-0.15414642 -0.02993416 -0.09405003 -0.02137482 -0.005256481 -0.011493878 -0.0287212 0.16489287
0.13634877 -0.0028832722 0.055208404 0.14004645 -0.04764301 -0.0962502 -0.056439556 -0.0355955
-0.06601483 0.07170351 -0.04390997 -0.06882716 0.04287925 -0.059733637 -0.09523252 -0.094779484
0.073177546 -0.1398879 0.03454434 0.02229258 0.08537667 0.14602739 0.017755402 0.13831556
0.048218433 -0.01866901 -0.08756808 0.026017077 -0.08589589 0.06314299 -0.0928017 -0.056435708
-0.023882227 -0.042062588 0.06624458 0.058311082 0.055455595 0.06274878 -0.004625459 -0.002424706
-0.056363247 0.07105848 -0.08900411 0.08985749 0.005928084 -0.05035543 0.081693456 -0.10419912
0.041991267 -0.06563041 0.1089536 0.010177346 0.025813466 -0.009060368 -0.031730186 0.0065799016

module.Conv4.layers.1.weight f4 [64]
00000000: 6bd9 db3e dfc3 9d3e 62fd 023f fa88 183f
00000010: faf8 d53e 1cea ad3f 19bb a83e 99ab 453f
00000020: ac51 053f fe40 cc3f d985 e93e d02e 59be
00000030: ea41 f43f 71c3 c53f 414d a23f 50d8 80be
00000040: 6fc3 283f f3da a53f 2f2e 7cbe c86e 00bf
00000050: e43e d23e 817f ec3f fe34 1240 8936 8b3f
00000060: d792 5dbf 6694 ac3f 92a0 b33f fe32 b73f
00000070: d64d a53f feb8 ad3e 666e 4b3f da5d a03f
00000080: 280d 3c3f 6043 b43e 95d3 ab3f 4840 0b40
00000090: c124 27bf faa9 ff3e 744e 3c3f d0fa a03f
000000a0: c291 a93e 0d6e 873e b33f 263f c5a3 8b3f
000000b0: 171e 0140 49b2 a23f 3bc2 5b3f 33bc 0a40
000000c0: 66d5 b03f 8404 ab3e ddb2 813f 8a72 a53e
000000d0: daf8 bc3f f189 783f 1ec8 e23e 0ebe 793e
000000e0: 6493 933f b181 a43e 70de 983f 351f 973e
000000f0: 9fad 823f 5476 fb3e c4a4 203e 1dd1 1a3f
0.42939314 0.308135 0.5116788 0.5958401 0.41791517 1.358707 0.32955244 0.7721496
0.52077746 1.5957334 0.4560993 -0.21209264 1.9082615 1.5450269 1.2679826 -0.25165033
0.6592321 1.2957443 -0.24626993 -0.5016904 0.41063607 1.8476411 2.2844844 1.0876018
-0.86552185 1.3482788 1.4033377 1.4312437 1.2914379 0.339302 0.7946533 1.2528641
0.73457575 0.35207653 1.3423945 2.1757984 -0.65290457 0.4993437 0.7355721 1.2576542
0.33119017 0.2645115 0.6494095 1.0909353 2.0174615 1.2710658 0.8584325 2.1677368
1.3815124 0.33401883 1.013271 0.3231395 1.4763443 0.9708548 0.44293302 0.24388906
1.1529355 0.32130197 1.1942883 0.29515997 1.0209235 0.49113715 0.15687853 0.6047533
